results/TEST2/CarDriver/CarDriver-499936.pt (torch, 540200 bytes, 40 tensors)

discrete_act_size_vector f4 [1, 2]
00000000: 0000 4040 0000 4040
3.0 3.0

network_body._body_endoder.seq_layers.0.weight f4 [128, 36]
00000000: 3e0a 2d3b 73cd 003e 4ba7 813e 665f 11be
00000010: d165 4bbe c874 aebd c8cb 4fbe 90b2 cd3e
00000020: 0767 81be 5be7 403e 3ffa 13be 4ed9 483e
00000030: c69f 49bd 45b5 233e b9f4 9bbc a39a 50be
00000040: 0dd9 a43d 96da 85be 588b 683c aa07 2a3d
00000050: aeb3 16be 8ca3 e83e 92d9 2dbe 03cb 3ebe
00000060: 4d05 63be cdb4 6a3e cb01 16be 8c5c 9cba
00000070: a560 9a3d 8653 763e 9c02 04be 37e1 8f3e
00000080: 9412 96be 5d55 7c3d b172 7fbd b7c2 aebb
00000090: 06e9 06be f7a1 dbbd de2c 8a3e 47e1 cd3d
000000a0: d2b2 9ebc 4f10 b0bd 79ea d43d d0d3 acbd
000000b0: 50a5 82bd 648a 45be 552c a6bd 2da8 d03d
000000c0: efa2 d2bd be5a 02bd 8234 083e 79f1 833d
000000d0: 3809 c2bb 2c2a a03e 84ea a33c 47fe 7cbd
000000e0: f355 e3bd f103 1cbd a3d1 4dbe 4502 21be
000000f0: b29c 3fbe 3fab 543c 2ee8 41be ccb7 dfbd
00000100: 8b9f 313e f04c 4bbe 2db1 5c3e 1eaf 6abe
00000110: 1aed 273e 2a3f 59be fe8f 953e a8ed 0bbe
00000120: f9c1 8e3d 0374 84bd 5667 c6bd 83d6 453e
00000130: 9fc3 db3d 9426 fd3d baa5 703e 501a ebbd
00000140: 9c28 513e b092 a53e 3dfc bbbe 2cff 46bd
00000150: de42 e23d 398b 073c 7786 1f3e 10e8 4e3e
00000160: 3536 40be 170a dd3d 28b1 8abd 19f3 833c
00000170: f8c7 713b b8ec 40bc 9f36 ba3e 4212 a3be
00000180: 4b65 6ebd 0321 6d3e 2de9 a4bd ceb8 363c
00000190: dd37 4abc 7517 05be 9f18 4cbe 28ff 503c
000001a0: 38d0 de3d 5d86 1f3e c672 883d 89fe 5fbb
000001b0: f038 87be 9118 e6bd b4d8 003e 99a4 b3bd
000001c0: a1ed 3b3d 8052 5cbe f323 7dbc 6bd0 c4bd
000001d0: 3740 243b ef6e 13be dbb3 c8bc 1df0 12be
000001e0: e360 b63c 211b 813e 91c0 163e d633 e73d
000001f0: e787 e33c e031 46be bce2 c83d 6034 ce3d
00000200: bf9a 27bd e890 bcbc f3b8 273e 5a4f 3bbe
00000210: 8aef 46be b9af fbbd 1f2c 53be 9711 4d3d
00000220: 0a16 483e 9360 a1bc 7d97 c53d cb19 95bd
00000230: a669 6cbe df55 683d efe8 553e 9bfd ad3c
00000240: 1baf 7fbe a228 bf3e 4c56 4e3d d63a 40be
00000250: c3bc 553d 74e3 653e f1b7 733e 92ee 6abd
00000260: 3510 9c3e d851 953e b22e 7ebd cb03 6c3e
00000270: 9805 15be e9ed 28be 5c50 8fbd c373 97be
00000280: 4601 d9bc 271b 463c eecd 443e d9a2 cbbd
00000290: ad4a f7ba 1a9f b63d fb72 9b3d 7ba1 563e
000002a0: 3d46 8e3d 2215 2d3d 637f 453e ba14 803c
000002b0: d9d6 ffbc a7d3 6f3d 3f4d 71be b669 7ebe
000002c0: 93db c4be 726a cf3d 82e1 82be 2f3f 5b3e
000002d0: bc21 a43d 390c 9f3d f4e8 c9bd fb88 833b
000002e0: df55 483e 4e52 0cbd a6b4 83bd 46ee b13d
000002f0: 05cf 11be 294a ee3d 8f02 fd3d d4d6 a03e
00000300: ffe9 edbd 95a0 513e ebd2 fcbd a159 533e
00000310: 161c 93be acb6 703d 847a 903e d610 a2be
00000320: ab57 63be 413a d1bd aef6 273e 5097 93bd
00000330: 8ed4 d4bc c483 72be 35c6 a13d 5a48 86bd
00000340: ef04 4c3e 7376 b8bd 40bd cbbe 85a2 a0be
00000350: d2bf 8e3e 8521 293e 8fe6 8bbe d1c4 2dbd
00000360: 569d c8bd 0005 d1bb 5cc7 773e 74f7 b9bd
00000370: 2bcc 02bd ef94 b83e 0ac2 80bd 062f c43d
00000380: 1c87 ed3d 8880 2e3e e413 523e 9eb0 2cbe
00000390: fcb7 133d 01aa 3dbe 9481 023d c821 543c
000003a0: 6d42 4f39 ab9a 7cbe 65af 273a 517e 923e
000003b0: ac29 d2bd 7bb8 93bd 7a2c 67be d32c 70bc
000003c0: 38a5 42be ad55 01be efc6 fab9 50e9 153e
000003d0: a9e3 d33b f818 88bb 0c26 48bd 38cd 453e
000003e0: e390 65bd 2f92 32bd 194b f0bd 1ec4 4d3d
000003f0: 5946 21be 945f 473d 3613 833e dccc 1cbe
0.002640381 0.12578373 0.25322947 -0.14196548 -0.19863059 -0.08518368 -0.2029258 0.40175295
-0.25273916 0.18838255 -0.1445093 0.19614145 -0.049224637 0.15987118 -0.019037591 -0.20371489
0.08049212 -0.2614333 0.014193378 0.041511215 -0.1471698 0.45437276 -0.16977528 -0.1863213
-0.22169991 0.22920533 -0.14649121 -0.0011929437 0.07537965 0.24055299 -0.1289162 0.28101513
-0.2931105 0.061604846 -0.062365238 -0.0053332704 -0.13174829 -0.10724252 0.26987356 0.10052734
-0.019372378 -0.085968606 0.103962846 -0.084388375 -0.06379187 -0.19291073 -0.081139244 0.10188327
-0.10284983 -0.03182482 0.1330128 0.06442542 -0.005921509 0.31282175 0.020009287 -0.061765935
-0.11100378 -0.038089696 -0.20099501 -0.15723522 -0.18712118 0.012980281 -0.18936226 -0.10923728
0.17346017 -0.19853568 0.21551962 -0.22918364 0.16399041 -0.21215501 0.2921142 -0.13664877
0.06970591 -0.0646744 -0.096876785 0.19320111 0.10730671 0.12360874 0.2350072 -0.11479628
0.20425647 0.32338476 -0.3671588 -0.048583195 0.1104791 0.008272939 0.15578638 0.20205712
-0.18770678 0.1079294 -0.06772071 0.016107129 0.0036892872 -0.011775188 0.36369798 -0.31849867
-0.05820207 0.23157124 -0.08052287 0.011152459 -0.01234242 -0.1299723 -0.19931267 0.0127561465
0.10879558 0.155786 0.06662516 -0.0034178814 -0.26410627 -0.112351544 0.12582666 -0.08771629
0.045880917 -0.21515846 -0.0154504655 -0.09610065 0.002506269 -0.14397787 -0.024499824 -0.14349408
0.022262996 0.2521601 0.14721896 0.11289184 0.027774764 -0.19354963 0.09808871 0.100685835
-0.04091906 -0.023018315 0.16379146 -0.18291989 -0.19427314 -0.12289376 -0.206223 0.050065603
0.19539657 -0.01969937 0.09648035 -0.0728031 -0.23087177 0.056722518 0.20889638 0.021239093
-0.24969141 0.37335688 0.050375268 -0.18772444 0.05218197 0.22450048 0.23800637 -0.057356425
0.30481115 0.29164004 -0.06205625 0.23048322 -0.14552915 -0.16497006 -0.06997749 -0.29580507
-0.026489865 0.012091435 0.19219181 -0.0994317 -0.001886686 0.08917065 0.0759029 0.20960037
0.06946991 0.042256482 0.19286875 0.015634883 -0.031230377 0.058551457 -0.23564623 -0.24845013
-0.38448772 0.10127725 -0.25562674 0.21410821 0.08014247 0.07766003 -0.098588854 0.004014132
0.19564007 -0.03425818 -0.0643094 0.08688025 -0.14239128 0.11635239 0.12354004 0.314139
-0.11616897 0.20471413 -0.12344917 0.2063966 -0.28732365 0.05876796 0.28218472 -0.3165347
-0.22201411 -0.10216189 0.16402695 -0.07206595 -0.02598026 -0.23683077 0.07899133 -0.06556769
0.19923757 -0.090069674 -0.39792824 -0.31373993 0.27880722 0.16516693 -0.2732434 -0.042424027
-0.097956344 -0.00637877 0.24197143 -0.09080401 -0.03193299 0.36051127 -0.0628701 0.095792815
0.11598036 0.17041218 0.205154 -0.16864249 0.036064133 -0.18521883 0.031861857 0.012947507
0.00019765804 -0.24668376 0.000639668 0.28611997 -0.102618545 -0.07212921 -0.2257556 -0.014659124
-0.19008338 -0.12630339 -0.00047831933 0.14639783 0.006466348 -0.004153367 -0.04886441 0.19316566
-0.056046378 -0.043596443 -0.11733074 0.05023586 -0.15749492 0.048675135 0.25600594 -0.15312523

network_body._body_endoder.seq_layers.0.bias f4 [128]
00000000: 7ee5 2d3b 9a11 d43c 1ac2 c4bc 1255 eb3b
00000010: 15ff 273c f117 603b 123d 923c 236e 383c
00000020: 25e3 19bc b313 13bc c4fa 203d b5a9 933c
00000030: 0cfb 8b38 4aa7 1f3c 8f90 b33c 40f5 023d
00000040: b1c9 1d3c b16b e63b 6b7e 4dba 0900 c6bb
00000050: 85a9 a83c e074 3dbd 0107 38bc d032 10bc
00000060: 4b3c 9b3c f951 203c e289 f7bc 9940 0fbd
00000070: a770 81bb 84b4 c23c 3700 ac3b b31a ffbb
00000080: f214 0e3d a266 983c e6ff 4fbc 7c5f 4c3c
00000090: f1c9 dabb bb5f af3b 2a8d 103c ff11 623c
000000a0: c6da b73b bb59 013d 6c70 173c c2c4 303c
000000b0: fc00 35bb 8100 0a3d 2883 edbb 39b3 7ebc
000000c0: b64f 1b3c bbaa 06bc 1d0c a73c eac0 013d
000000d0: 25d8 11bc 045c d6bb 2071 b53c b1bc c73c
000000e0: 120f 573c d713 443c 5fd2 8c3a dae0 28bc
000000f0: c6c8 3c3c 7b33 54bc 7415 b43c c329 f4ba
00000100: 844c 2ebb 803c 203c fba0 d23c 28e0 e9bb
00000110: 3f5c a03c c78e 0f3c dcf6 313d 4cc3 dcba
00000120: 0269 b4ba 87f5 c23b d31c 933c 8ed8 8c3c
00000130: 373c 533c 680d c63c e549 8bbc ec55 593b
00000140: 3ca4 be3c c116 b33b ece3 ef3b 70a8 7e3b
00000150: 763a f03c b3b4 24bb 9dcb 6cbc 303d 263d
00000160: 1042 473c d3c2 103c 4c89 e93c 43e9 9b3c
00000170: fbf3 9db6 9be2 98b9 23c6 fdba 39f3 8fbc
00000180: 5b04 c8bc 88ae 793c 778a 963c 2bd2 173b
00000190: ff7f 1d3b 0786 583c 2dde 853c f3ee 39bc
000001a0: fe9e beba 7c67 c83c fb09 863c 9203 a03c
000001b0: 03ec 49bb 1849 9e3c f72c 87bc efa0 a2ba
000001c0: 13b4 333c 49f4 c83c addd a1bc 7570 27bc
000001d0: 6bc2 203c 2fe1 b63c 1d12 a53c f8fd cdba
000001e0: 6212 9e3a 9e24 963c 7c28 cf3c c681 e0bb
000001f0: 5033 9d3a 4317 393c 1cad 2f3d b102 d83b
0.0026534493 0.0258873 -0.024018336 0.007181772 0.010253687 0.0034193958 0.017851386 0.011256727
-0.009392534 -0.008976865 0.03930165 0.018025259 6.6747976e-05 0.009744475 0.021919517 0.03197217
0.0096306065 0.007031881 -0.0007838967 -0.0060424847 0.020588646 -0.04625404 -0.011232139 -0.008801177
0.018949648 0.009785169 -0.030217115 -0.034973715 -0.003950197 0.023767717 0.005249049 -0.007785165
0.034687944 0.018603627 -0.012695288 0.012473937 -0.0066769053 0.005351988 0.008822719 0.013798236
0.0056107966 0.031579714 0.009243112 0.010789098 -0.0027618995 0.033691887 -0.007248301 -0.01554566
0.009479454 -0.008219416 0.020391518 0.031678118 -0.0089016305 -0.006541731 0.022148669 0.024381967
0.013126152 0.011967621 0.0010743848 -0.010307515 0.0115224775 -0.012951727 0.021982886 -0.0018628169
-0.00265959 0.009780049 0.025711527 -0.007137317 0.019575236 0.008762068 0.043448314 -0.0016842871
-0.0013764205 0.0059496793 0.01795808 0.017193105 0.012892774 0.024176314 -0.01700301 0.0033162786
0.023271672 0.005465359 0.0073208716 0.003885772 0.029324751 -0.002513212 -0.014452842 0.040585697
0.012161747 0.008835512 0.028507851 0.019032126 -4.7073677e-06 -0.00029160533 -0.0019361418 -0.017572032
-0.02441614 0.015239365 0.018376572 0.0023166041 0.002403259 0.013215548 0.016341293 -0.011348474
-0.0014543233 0.024463408 0.016362181 0.019532952 -0.003081084 0.019321963 -0.016500933 -0.0012407581
0.010968226 0.024530547 -0.019759024 -0.010219683 0.009811978 0.022324173 0.020150239 -0.0015715947
0.0012059922 0.018328007 0.02528786 -0.0068514077 0.0011993442 0.01129705 0.0428897 0.0065921177

network_body._body_endoder.seq_layers.2.weight f4 [128, 128]
00000000: 647c dbbd e696 c7bd a1c6 52bd f297 acbd
00000010: 0e33 693d c87d d5bd f2e8 f13d 90ea 01bb
00000020: c75f 483e fe13 e0bc 6a87 423d a5c7 bf3d
00000030: 7625 973d 3510 9a3d 00e4 36be 68ba 4ebd
00000040: db6f 81bd c3f7 4dbd 6da3 d83d c67b 4c3c
00000050: bf13 ee3c 4ec0 1e3b 46e2 a73d 291f a4bd
00000060: 67e8 56bd 30d6 933d 69f6 b43d d609 233e
00000070: 6f45 02be 1447 013e eed4 f53c 160e 13bd
00000080: 5b74 32bd 28e6 92bd 0175 c4bd 32ae 8ebc
00000090: 8bdd 3c3d fe20 333b 5523 f73c a034 033d
000000a0: 55ae 2a3e 84c8 6ebd 5605 c8bd fefb ca3c
000000b0: 7343 2e3c 986c 89bd cbf8 5f3d c25b 8a3d
000000c0: e59b 893c 18df f83d 752f b7bd 4538 e63d
000000d0: 1835 5c3d a340 e5bd 1197 59bd 7452 e13c
000000e0: 4c9b 453d 072f 52bc cd34 92bd 4d8c ce3d
000000f0: d63d ab3d 42e7 53bd cfcc 993d 85d8 433d
00000100: 7e2a 94bc 9133 a43d 649b 09be c628 32bd
00000110: d0d9 053d e7d8 db3d 29e5 0b3e 1398 043c
00000120: 95a9 a5bc 0f71 dd3d 73b8 a6bc 44c7 153d
00000130: 3be0 09be 37d2 193c 4bab 82bd e192 0d3d
00000140: 723e f6bd c668 afbd 8b87 0a3d 5eb4 33bd
00000150: 5940 4f3e c565 6d3d f7ce a8bc 5e8b fb3d
00000160: 2686 d3bd 51bc 783d 777d d4bd ff35 88bc
00000170: c757 293d a12e 8dbb a9ff afbd a6b1 3ebd
00000180: c71c 37bc fa89 aa3d ee55 843d bc1c 9cbb
00000190: 9336 dd3b 55ca 53bd 2904 2cbd 2df3 29bd
000001a0: e08a 023d fda0 b7bd 089f 1cbe ccf2 b3bd
000001b0: f9b7 edbd 259f 093e 6550 d0bc 299a 9cbd
000001c0: 5bdd 1ebe 5269 d5bd e1a4 ac3d 9d0c 1cbe
000001d0: 65cf 153d 6aeb 963d 3057 4cbc e2be 96bd
000001e0: fdb8 63be 6d5b c83d cb3b 8abd 1f45 a3bd
000001f0: 805b 50bc ae5f 3cbe 7fa7 3ebe 4f2f bf3d
00000200: 3767 41be ac07 57be 8a9e 56be af93 3ebd
00000210: dc8e 22be eda7 ccbd c3e2 f93d 7609 8bbc
00000220: 1772 fd3d 0397 873d f3a9 99bb 92b9 07be
00000230: 0725 b1bc e02c c8bd 7330 783c e3d7 0abc
00000240: c0e6 1b3e 2e2f c13c d964 8e3d bab8 1cbd
00000250: 0336 15bb 3733 afbd 480b f5bc 8c38 5e3c
00000260: 3f18 0bbd b938 48be 4991 16be 36ce 49bd
00000270: 2ca5 b5bd d896 e13d aab2 60be df0a d0bc
00000280: 0f3a be3c 37ba 3fbe 8ee5 753d f61d da3d
00000290: d964 45be 72b1 71bc 47eb 5f3d 3f5e 39be
000002a0: 3f02 febc 72d0 17be b657 d5ba 2c96 583d
000002b0: fba7 5dbd d176 cebd 9429 103d a114 983c
000002c0: 960e e73d bfee 83bd 2318 2fbd e838 29bd
000002d0: 8935 1cbe bad5 73be efc8 003e e0fc 0c3e
000002e0: 6803 0e3e ccd8 e83c 8fee f7bd 3f7b e73d
000002f0: 54d7 99bd 7f45 87bc 2bf4 89bd 8b76 83bd
00000300: 0890 b7bc 4418 77bd 2a56 c23d 66e7 07bd
00000310: 033a 40bd afaa c5bd e7ce a2bc 4ab0 00be
00000320: 197d 6dbd 1ace 5a3d 5e68 423d df37 063d
00000330: 737b 943c 577e 313e 9cc8 7bbd 78e4 9b3d
00000340: c3d1 053d 2065 ea3d 136f 42be a665 08be
00000350: b74c 99bd 4906 39bc 6b63 d6bc 1b40 1ebe
00000360: ca7a 84bd fe69 e0bc ee8a d33d 117e 54bd
00000370: 2749 e73a 366b bdbd abf2 793d 74ab 3dbc
00000380: 5c85 973d 6428 e33d 2b4e 7bbd b86a 2d3d
00000390: 9cfa cb3d e521 c8bb 7acf 953d 332b 48be
000003a0: b929 c0bd dbbe 223c 8f43 363c 44c9 e13d
000003b0: 66f2 173d f84b 0cbe 6f86 6bbe 0079 13be
000003c0: b143 b43d aef0 5abd 8519 cabc d60c b7bd
000003d0: 1c2f 01be 5346 04be dad2 05be 0597 59bd
000003e0: a5ec 51bd 3e3e a9bd 64ef b8bd 3628 523e
000003f0: 71af c3bd cddd f9bd a22f e63b 34d7 903d
-0.10717085 -0.097455785 -0.05145896 -0.08427419 0.056933455 -0.104243815 0.11812009 -0.0019823648
0.19567786 -0.027353283 0.047492422 0.09364251 0.07380192 0.075226225 -0.17860413 -0.05047074
-0.06320163 -0.050285112 0.10578046 0.012480682 0.02906215 0.002422351 0.08197455 -0.08013756
-0.05246773 0.072185874 0.088360615 0.15921721 -0.127218 0.1262477 0.03000876 -0.035902105
-0.043567996 -0.07172805 -0.09592629 -0.017417047 0.046109717 0.0027332897 0.030168215 0.03203261
0.16668065 -0.058296695 -0.09766643 0.024778362 0.010636198 -0.06710166 0.054680627 0.06755783
0.01679797 0.12151927 -0.089445986 0.11241201 0.05376157 -0.11193969 -0.053122584 0.027505137
0.048243806 -0.012828595 -0.07138977 0.10085354 0.08361404 -0.051734217 0.07509767 0.04781391
-0.018086668 0.08017648 -0.13438183 -0.043495916 0.032678425 0.1073473 0.13661636 0.008092898
-0.020222465 0.1081258 -0.020351624 0.036566988 -0.13464443 0.009388498 -0.06380328 0.034563903
-0.12023629 -0.08564906 0.03382067 -0.043873183 0.2023939 0.057958383 -0.020606501 0.122824416
-0.10328321 0.060726468 -0.10375493 -0.01662731 0.041343477 -0.004308537 -0.08593685 -0.046556138
-0.011176295 0.08327098 0.06461702 -0.0047641676 0.0067508905 -0.05170663 -0.041996155 -0.041491676
0.031870723 -0.08966253 -0.1529504 -0.08786544 -0.116073556 0.13439615 -0.02542896 -0.07646591
-0.15514128 -0.10420479 0.08429886 -0.15239187 0.03657474 0.073691204 -0.012471959 -0.07360627
-0.22238536 0.09783063 -0.06749686 -0.07972168 -0.012717128 -0.18395874 -0.18618582 0.09335195
-0.1888703 -0.2099902 -0.20958915 -0.04652756 -0.15874809 -0.09992967 0.122014545 -0.016972285
0.123752765 0.066206 -0.004689449 -0.13254383 -0.021624101 -0.09774184 0.01514827 -0.008474323
0.15224743 0.023582067 0.06952829 -0.038262106 -0.002276779 -0.0855469 -0.029912606 0.0135632865
-0.03395867 -0.19552888 -0.1470386 -0.049268924 -0.08869395 0.11015099 -0.21943155 -0.025395809
0.023221044 -0.18723379 0.060033374 0.10650246 -0.19276752 -0.014751779 0.054667737 -0.18102358
-0.03100693 -0.1482561 -0.001627675 0.05287759 -0.054115277 -0.10081256 0.035195902 0.018564524
0.11282079 -0.064420216 -0.042747628 -0.041314036 -0.15254797 -0.23811999 0.1257665 0.13768339
0.13868487 0.02842369 -0.12106048 0.11302804 -0.07511774 -0.01651263 -0.067360245 -0.06419095
-0.022407547 -0.060325876 0.09489091 -0.033179663 -0.046930324 -0.09651696 -0.01987405 -0.12567249
-0.05798063 0.05341921 0.047462814 0.032768127 0.018125271 0.17333351 -0.061470613 0.07611936
0.032670747 0.11445069 -0.18987684 -0.13320026 -0.07485335 -0.011293002 -0.026170453 -0.15454142
-0.06468733 -0.027394291 0.10329233 -0.05187804 0.0017645702 -0.092489645 0.06102244 -0.011576522
0.07398483 0.11091688 -0.061353844 0.042338103 0.09959909 -0.006107556 0.07314964 -0.19547729
-0.09382958 0.009933199 0.011124506 0.110247165 0.037096404 -0.13700855 -0.23000501 -0.14401627
0.088019736 -0.053452186 -0.024670372 -0.08937995 -0.12615627 -0.12917452 -0.13068715 -0.05312254
-0.051251072 -0.08263825 -0.09030035 0.20523152 -0.09554947 -0.12200508 0.0070247212 0.07072297

network_body._body_endoder.seq_layers.2.bias f4 [128]
00000000: 1600 f9bb a13f ee3c 15a6 8f3b e320 60bb
00000010: 5146 d93a 9cf8 0a3c 9a63 3b3a ecbf 323c
00000020: 898a b4bb c12b 813c d519 09bc 4b42 963a
00000030: ada0 c13b 03c2 5c3c d778 2c3c 752a b23c
00000040: c8f4 4b3c 209e 093c 0585 4c3c aa58 2dbb
00000050: 2d09 d93c 0311 153c 60ce fa3b 9db8 cb3c
00000060: dba9 333c 17a2 793c 0efb 423c fc5b a4bb
00000070: 9b05 26b9 9d77 a73c 624a 0ebc 9b76 9bbb
00000080: 15c3 f43c 0b4f bb3b 9d33 a83c b425 283c
00000090: 8a5d b63c a794 88bb 5975 1c3c e94f 3dbb
000000a0: d1fd e937 c78f af3c d6df 333d c07a fe3c
000000b0: 54a3 343b 59ad 843b 9490 23ba 9c51 953a
000000c0: 77e2 b13c 21d6 a83c fdfc 4bbc a2a7 ed3b
000000d0: 0671 a53b f63d 943c 5133 8b3c 8448 b83c
000000e0: 7c80 173d 4978 b9bb f6a5 ff3c 4e8c f8b6
000000f0: e216 8b3b e417 f93b caf1 b5bb 6e3c 903c
00000100: 7d24 073c f12f 7d3a a281 8c3b 053a aabc
00000110: 2f56 563c 6d9e 8a3c 7249 073d eefc d33b
00000120: 258f 703c de9e b03c badd 393c 6e3a c5b8
00000130: f2bd 073d 11f3 bb3a 4983 4e3c 848e 7c3c
00000140: 90c7 c43c 215e 083c d2e4 df3c 9a2e a53b
00000150: 14b5 d5bb 716b 0b3d c08e 553b b332 243d
00000160: 0b33 3b3b 3279 ac3c 75dc d5bc 6208 843c
00000170: 650b 2e3b e367 503b 3913 c23c 86dd 723a
00000180: 9272 033b e095 73bb a37e baba 9bb0 01ba
00000190: e9aa 293b 24a8 393c 9999 823c f1a7 2d3b
000001a0: 9523 863c d3d6 e03a 06da 44bb 754a 863c
000001b0: 44d0 f33b adb4 333c 3250 1c3b 41f4 a53c
000001c0: 5a39 adbb 3494 8dbb 7285 44bb d175 e03c
000001d0: b3f9 293c 803c f63c 4c14 173b eafe 34bc
000001e0: 8ebe 253c d5d3 123c 730f 693c c17c d53b
000001f0: 1d04 be3c 09ec 773c 63eb e63c 7f8e c93b
-0.007598887 0.029083075 0.004383812 -0.003419929 0.0016576742 0.008482125 0.00071483257 0.010910016
-0.0055096787 0.015767934 -0.008367975 0.0011463849 0.0059090466 0.01347399 0.010526857 0.02174876
0.012448497 0.008399516 0.012482886 -0.0026450553 0.026493633 0.009098294 0.0076539963 0.024868304
0.01096579 0.015236399 0.011900676 -0.005015848 -0.00015833082 0.020442778 -0.008684726 -0.0047443635
0.029878179 0.0057162098 0.020532424 0.010262895 0.0222614 -0.0041681114 0.009549462 -0.0028886741
2.7893957e-05 0.021430863 0.04391464 0.031064391 0.0027563171 0.004048985 -0.00062395004 0.0011392119
0.021714432 0.020609917 -0.012450454 0.0072526494 0.005048874 0.018095952 0.016992243 0.022495516
0.036987767 -0.005660091 0.031207066 -7.4073096e-06 0.004244671 0.007601725 -0.005552505 0.01760694
0.008248446 0.0009658328 0.0042879144 -0.020779619 0.013082071 0.016921246 0.033029027 0.0064693606
0.014682566 0.021560129 0.011344368 -9.4045754e-05 0.03314013 0.0014339407 0.012604543 0.015414838
0.02402094 0.008323223 0.02733079 0.0050409557 -0.0065218303 0.03403801 0.0032586306 0.040087413
0.002856436 0.021053884 -0.026106099 0.016117278 0.0026557085 0.0031800203 0.023690807 0.0009264577
0.0020057303 -0.003716819 -0.0014228415 -0.0004947276 0.0025889224 0.011331592 0.015942382 0.0026497806
0.016374389 0.0017153866 -0.0030037179 0.016392926 0.0074405987 0.010968369 0.002385151 0.02025807
-0.005286378 -0.0043206457 -0.0029986766 0.02739993 0.010374474 0.030058146 0.002305287 -0.011047104
0.010116233 0.0089616375 0.014224875 0.006515116 0.02319532 0.015131959 0.028188413 0.00615102

action_model._discrete_distribution.branches.0.weight f4 [3, 128]
00000000: 9e93 0eb8 3bb1 42bc db4f a43b 0327 383c
00000010: be9b 613c e3a8 82ba 21f5 97bc e208 1dbc
00000020: ce4a ba3c ab9b 3abc 59d6 813c d2cb 133c
00000030: f013 593c b8b0 0fbc 6747 59bb 0ef7 4c3b
00000040: 1734 a1bc 5646 1a3c df3a 5cbc 1fb8 17bc
00000050: 3c7d 91bc ef3f b33b 96cf cf3a 3243 1ebc
00000060: 283a 15bd c6d7 2cba e80d 353c 80e5 a33c
00000070: 39af 0d3c 11f2 dbbb 967b 723c 827c ae3c
00000080: 91c8 acbc 5346 233c 5013 07bd 11be 783c
00000090: 2dc9 3bbd 42a2 b7bb b0e7 dc3b 5b77 123d
000000a0: bded b1ba b066 d4bc 450e b7bb b16f 34bc
000000b0: 070b 993b 4f7b f03a e90c 843a 499f 9c3b
000000c0: b3cb 8ebc c4df 88bc d938 b63c 8b40 e33b
000000d0: b6f9 daba aa28 c2bb 749b 8c3c 15f3 14bc
000000e0: 114b babb c3e5 083c 078d 82bc 4784 143a
000000f0: 045a 4d3b fbf7 dfba f094 953a 0545 2fbc
00000100: d939 df3b f914 143c 6d43 50bc 9537 2c3c
00000110: 23b8 d0bc b4d1 01bc 2f3a 30bc 6fc1 2fbc
00000120: 2dbe 5dbc 53b3 07bd b8f2 1cbc a4b7 48bc
00000130: 3cbd c6bc 815f c63b f884 19bc 3de4 5a3c
00000140: 3b6c 85bb 8c09 433a 09c5 90bc 874b 033c
00000150: 083b c63c b3cf dbbc d3cb 6c3c 4787 8bbc
00000160: 0925 803c 006c 91ba 534c 193c 0754 c73c
00000170: 93b4 36ba 6911 22bc 192f 07bd 0ef0 053a
00000180: 40a3 343c 1051 cb3c 5b39 34bc 420f cd3b
00000190: 207d 53b9 afd2 02bc 6509 b2bc 4632 03bc
000001a0: 18ac fd3a a110 ee3a 6ad6 c13c e516 d9bc
000001b0: 7545 af3c 4289 123b 8e4a e6bb 21eb 11bc
000001c0: 39b1 8a3c d71c a73c 07ee 9c3c 17f3 9abc
000001d0: 16eb 80bb 6b9b 84ba 1411 22bb 95d8 b23b
000001e0: 12d6 71bb fc52 0fbb 2de0 e2bb 7d98 b3bc
000001f0: 24cb 9abc 1662 92ba 219f a9bc f03c d0bc
00000200: 82d7 703b 6604 44bc 6293 ed3c f13d 763c
00000210: fe6f 24bd 5a38 1b3d 036c 6f3c aaa0 8abb
00000220: b99d b83c 0540 b6bc e99a 88bb 4d91 0e3d
00000230: 8836 293d 3b8d 263d 4282 c6bc ba71 0cbd
00000240: fc00 d3bc bdd1 4cbc c3ff 29bc 0c6a cd3b
00000250: fcc6 ffbc 7026 303d 7054 413d 42d1 babc
00000260: fa3e 0f3d c9f9 0dbd fdaf 263d 0c8f d4bb
00000270: b5d0 9c3c 53d2 8fbc b1b0 fd3c 2aa5 a83c
00000280: f518 29bd c1fe 30bd 4869 403c 2d71 0e3d
00000290: ef8d b9bc 73a5 c53c 6958 24bd 49c1 dc38
000002a0: b62a 2f3c 3f9a 9fbc 3a28 3ebd 9a4a 3fbc
000002b0: ee9e dfbc 73f4 dd3c eb44 653c 2dbe 0ebc
000002c0: 480c 1bbd 0013 06bd 6a4b 803a 43e5 743c
000002d0: 0254 b43c 47bd 29bd 1c99 533d c518 3ebd
000002e0: e683 1ebd 8e7c 95bb 8258 e2bc 4673 14bb
000002f0: a9af 713c ed31 ff3c 03a3 f13c b27a 293d
00000300: 7326 fd3c afb8 003d fae9 173b 7aee 9d3c
00000310: fe15 d73b 1d6a 2a3d 9862 3fbd 9a73 813c
00000320: 67a6 333c b4e6 1ebd 4c72 03bd 04bf b2bc
00000330: 857b 49bd 23e9 43bb c0d3 95bc d73b 0e3d
00000340: 6a4e 82bc 32a9 413d a485 98bc 3fe9 063c
00000350: 27eb 2fbc 80a4 b8bc 76bc 0d3d 5ca9 1abd
00000360: 1982 40bd 2e95 1fbd 9634 c53b 9b15 9a3c
00000370: 9135 7f3c eab7 8b3c 8dd0 45bc 5527 b73c
00000380: bcfa 1cb9 225a 973c 969e af3b c9e1 fa3c
00000390: 2dc9 b23c 4e06 353d 5603 18bc ce0c 2e3d
000003a0: bb76 253d 5872 033d 39aa 2e3b de7f bfbc
000003b0: da0d aa3c d767 2d3d d7e2 523c b526 94bc
000003c0: fc57 95ba 3e38 123b 0beb 63bc 7429 c7bc
000003d0: 6d36 4c3c c037 e8bc 7e2d 053d 6a37 563b
000003e0: c1c9 063c 6000 89bc a7c6 59bc ec43 b03c
000003f0: 3783 c7bc 6964 1cbd 5d6e 3dbd 4a22 42bb
-3.3992917e-05 -0.011883075 0.0050144023 0.01123977 0.013770042 -0.0009968545 -0.018549504 -0.009584637
0.022740748 -0.011389653 0.01584928 0.0090207625 0.013249382 -0.00877016 -0.0033154131 0.0031275186
-0.019678159 0.009416183 -0.01344177 -0.0092602065 -0.017759912 0.005470268 0.0015854712 -0.009659575
-0.036432415 -0.0006593432 0.011050679 0.020006895 0.008647733 -0.006712206 0.014799973 0.021299604
-0.021091731 0.009965497 -0.032977402 0.015182034 -0.045846153 -0.0056040594 0.0067414865 0.035758357
-0.001357488 -0.025927871 -0.005586418 -0.011012957 0.004670504 0.0018347296 0.0010074648 0.0047797305
-0.017431116 -0.016708262 0.022243904 0.0069351844 -0.00167065 -0.0059252577 0.01716397 -0.009091158
-0.005685218 0.008355561 -0.015936388 0.0005665463 0.003133417 -0.0017087454 0.0011412185 -0.010697608
0.006812316 0.009038203 -0.012711388 0.010511299 -0.025478428 -0.007923532 -0.01075606 -0.0107272705
-0.013534111 -0.03313 -0.009579353 -0.012250815 -0.024260156 0.0060538654 -0.009370081 0.01336008
-0.00407174 0.0007440082 -0.017672079 0.008013613 0.02419807 -0.026832437 0.014452892 -0.017032279
0.01564266 -0.0011094809 0.009356576 0.02433206 -0.00069696567 -0.009891846 -0.0330039 0.00051093183
0.01102525 0.024818927 -0.011000003 0.0062579224 -0.00020169141 -0.007984801 -0.021732995 -0.008007592
0.0019353656 0.0018162915 0.02366181 -0.026500175 0.021395424 0.0022359644 -0.0070279306 -0.008906157
0.01693021 0.020399494 0.019156469 -0.018914742 -0.0039342744 -0.0010117119 -0.0024729418 0.0054579475
-0.0036901277 -0.002186953 -0.0069236965 -0.021923298 -0.018895693 -0.0011168148 -0.020705761 -0.025419682
0.0036749546 -0.011963939 0.029000942 0.015029416 -0.040145867 0.037895538 0.014613154 -0.0042305784
0.022536146 -0.022247324 -0.0041688574 0.03480654 0.04131177 0.04066203 -0.024232034 -0.034288146
-0.025757305 -0.012501177 -0.01037592 0.0062687453 -0.031222813 0.043005407 0.047199667 -0.02280486
0.03497217 -0.03466204 0.04069518 -0.006486779 0.019142488 -0.017556345 0.030968042 0.020586569
-0.041283567 -0.043211702 0.011743851 0.0347759 -0.022650687 0.024126744 -0.040123377 0.0001052642
0.010691335 -0.01948273 -0.04642508 -0.011675501 -0.027297463 0.027094102 0.013993482 -0.008712334
-0.03785351 -0.032732964 0.00097881 0.014947238 0.022012714 -0.041440275 0.05165969 -0.04641034
-0.038700007 -0.004561967 -0.027630094 -0.0022651716 0.014751353 0.031151736 0.029496675 0.041376777
0.030902123 0.031426128 0.0023180232 0.019278754 0.006563901 0.041605104 -0.046724886 0.015802193
0.010964966 -0.038794234 -0.032091424 -0.021819599 -0.049190063 -0.00298936 -0.018289447 0.034725036
-0.015906531 0.047280498 -0.018618412 0.008234321 -0.010737217 -0.022539377 0.03460356 -0.03775917
-0.04699907 -0.03896063 0.0060182316 0.01880913 0.015576736 0.01705547 -0.012073648 0.022357622
-0.00014970725 0.018475596 0.005359481 0.03062524 0.021824444 0.044195466 -0.009278139 0.04249268
0.040396433 0.03209147 0.0026651754 -0.023376402 0.020758558 0.042335358 0.012871466 -0.018084863
-0.0011394019 0.0022311355 -0.013911019 -0.024311759 0.012464148 -0.028346896 0.032514088 0.0032686838
0.008226813 -0.016723812 -0.013291991 0.021516763 -0.02435456 -0.038181696 -0.04624783 -0.0029622489

action_model._discrete_distribution.branches.0.bias f4 [3]
00000000: 833c aeba c80d c03b e846 60ba
-0.001329318 0.005861018 -0.0008555488

action_model._discrete_distribution.branches.1.weight f4 [3, 128]
00000000: 45df 9e3c d8a6 b93c 0d69 cd3b 1055 07bc
00000010: 6617 18bb 75df fabc 84e4 a93b c0ee cb3a
00000020: fa04 30bc 0da7 e13c 6c26 ea3c 5fa9 503c
00000030: 1171 87bc ad1a 3439 b67a 80bc d1b8 6a3b
00000040: 67ca c13c 517b 47bc beeb 273c bb2c bebb
00000050: 1b8d 073c 34b5 80bc d17c 4ebc 05d7 c8bb
00000060: 35e3 01bc bee4 e33a f973 99bc db16 7dbc
00000070: d040 a93b 34bc 353c 794b c439 2730 b83c
00000080: 6493 e2ba 0a9a a43c 2573 afbc 6858 83bc
00000090: 5016 73bc 5c26 c63b 01a9 063c c4b1 a23c
000000a0: a55d d6bc 5ee8 173c 6cfd 1e3c e553 89bc
000000b0: fea8 1e3c 0de6 3fbb da0f 16bc 4990 20bd
000000c0: 5576 a3bb e2b3 f03c 7f2a 043c 55a8 dabc
000000d0: 8a90 e93a b740 52bc 23c3 e6bc e194 0bbc
000000e0: 9c9c 4a3c 3c8d 0bbb c070 ea3b 2d4c d5bc
000000f0: 5c69 a1bc 202e 9bbc 99e5 113c 4d72 10bd
00000100: 6524 bbbc 600d 5cbb 05a9 c93c 4d85 9abb
00000110: c6ce 213c 504b 1abd 926a 563c 755b 35bd
00000120: c33a e5bc 07c5 b73b 019f e03b 981d d3bb
00000130: e5f8 a83c 27ab fdbc d4f2 9538 d0d9 04bc
00000140: 3781 be3a 9ea2 42bc 1094 e4bb ed08 0fbc
00000150: 4e91 0abc 5fe4 96bb 6caf b3bb b3a1 f9bb
00000160: 303f e73b 6db6 833b d3c1 db3c 52ec c2bc
00000170: f7df 0b3b a3da 993b f5d6 a13c 5162 90b9
00000180: 9eec 0c3c 3152 a3bc 4b67 f93c 2a4c af3c
00000190: 8b6e 593c 86ac 43bc 9f31 04bc ba2c 68bc
000001a0: d39b 52bc 9c82 a63a 2ece 21bc db7a 7c3c
000001b0: 09f5 dabc c1e3 c0bb 8f0b 893b cdde ad3c
000001c0: 2dfc b93c c16b b7bc 37ba a13c ea93 ecbb
000001d0: 7c61 a3bc c867 b43b 1fa7 70bc 4a39 0b3c
000001e0: a981 1ebd b62a cd3c a46a 57bb 278e 25bc
000001f0: efe4 d9bc 0dcc da3b 7b7c b13b 76e2 e9bc
00000200: d2b7 49bc 7d5f b1bc 7c28 0abb cf35 9cbc
00000210: a69e adba f620 b03c cbf8 d13b 636f e5ba
00000220: 04c6 db3c 7c77 1ebd e09b 8b3a 8e7b a43b
00000230: bd18 4d3c 0b1e 7abb f175 993c adec 5a3c
00000240: 565d 8a3b eb49 ffba 7a95 1cbc c9ab ba3c
00000250: 4435 8cbc 8e8f 663c faed a13b 28a6 6fbb
00000260: d7ea d4bc 9686 b83a 2e6f 663c fcf3 8a3c
00000270: 2de5 b33c 2af9 4e3a 33e7 3a3c 27db 68bc
00000280: 85d6 acbc 829e bbbc bd97 36bc 8358 30bb
00000290: cd1a adbc 3f02 04bc a902 0cbc a5b3 883c
000002a0: c20b cd3c 6f9d 24bc 7266 8fbc bd73 2bbc
000002b0: 266c 5e3b c8bb 46bc 15dd 933b e96d c93c
000002c0: fdb0 c73b c3e4 ccbc 4673 693c c5e4 c03c
000002d0: a8d4 4c3b 5ad2 1e3c d09e 0f3c 68ca 14bb
000002e0: 397f ccbb a5d7 e33c 30d1 973b 2690 fd3c
000002f0: f574 c43c c559 dd3c 6793 263c f5b3 d13c
00000300: 9a54 7e3a 6d61 e4bb eecc 09bc cd27 333c
00000310: d7f6 aabc b6e7 aa3c 51b7 fcbc a4ef e93c
00000320: 9c39 053d 295e 19bd 34e0 743c 6b20 073c
00000330: c1d2 e2bc 9152 cd3c 60f4 43bc b802 083c
00000340: 93c5 3fba 6563 8abc a16c bbbb c2e4 713c
00000350: 3ef4 a23b 49b7 eabb bceb d03c 21e5 10bd
00000360: a59e 87bc b913 0e3b e59f fc3a bc0d 183d
00000370: 9b0a 84bc 2ce9 62bb cd81 bebc 275b 12bb
00000380: 0d81 3dbc 32be ba3c fb87 93bc d670 353b
00000390: 53b9 23bc b7af 5bbc 82fc ecbb 8c9e 913c
000003a0: f845 c43c 3359 11bc be8e 1dbb 28aa c8bc
000003b0: c074 de3c 2d9c 67ba 10e1 11bc e794 1fbd
000003c0: 5f58 8db9 73e6 0e3c 573a e236 37a8 c5bb
000003d0: a719 1b3c 5e3b 51bc 9dd2 463c be65 73bc
000003e0: 4cd6 f83c cc07 b5bc 41f2 26bc 8746 5cbb
000003f0: 1e33 3e3c e308 a7ba 2786 06bd 6a8a af3c
0.019393573 0.022662565 0.0062686265 -0.008260027 -0.0023207306 -0.03062413 0.005184712 0.0015558824
-0.010743374 0.027545476 0.028582774 0.012735694 -0.016533406 0.00017176075 -0.015683513 0.0035815726
0.023656083 -0.012175397 0.010249076 -0.005803672 0.008273388 -0.015711404 -0.012603001 -0.006129148
-0.0079277055 0.0017386896 -0.018732058 -0.015447344 0.005165197 0.011092234 0.00037440265 0.022483898
-0.0017286357 0.020092983 -0.02141721 -0.016033366 -0.014836863 0.0060470533 0.008219005 0.019860156
-0.0261677 0.009271709 0.009703975 -0.016763637 0.009683846 -0.0029281408 -0.009159053 -0.0392001
-0.0049884715 0.02938265 0.0080667725 -0.026691595 0.0017819565 -0.012832812 -0.02816922 -0.008519382
0.01236644 -0.00212939 0.007154554 -0.0260373 -0.01970356 -0.018942893 0.008904838 -0.035265256
-0.022844503 -0.0033577308 0.024616728 -0.0047155977 0.009875959 -0.03766948 0.013086932 -0.044276673
-0.027982121 0.0056082043 0.0068548922 -0.006442737 0.020626495 -0.0309654 7.150104e-05 -0.008108571
0.0014534359 -0.011879591 -0.0069756582 -0.008730155 -0.008457495 -0.0046048607 -0.0054835584 -0.007618153
0.007057093 0.0040195496 0.026825821 -0.023794327 0.002134321 0.004695253 0.01975582 -0.00027539072
0.008601336 -0.019936653 0.030444762 0.021398623 0.013270984 -0.011942988 -0.008068471 -0.01417082
-0.012854534 0.001270372 -0.009875817 0.01541015 -0.02672817 -0.0058865254 0.004182286 0.021224404
0.022703255 -0.022390248 0.019742114 -0.007219781 -0.019943945 0.0055055358 -0.014688282 0.0084975455
-0.038697872 0.02504478 -0.003286996 -0.010104693 -0.026598422 0.006677157 0.0054164506 -0.028550368
-0.012311893 -0.021651978 -0.002108126 -0.019068627 -0.0013246133 0.021500092 0.0064078323 -0.0017504509
0.02682782 -0.038688168 0.0010651313 0.0050196117 0.012518105 -0.003816488 0.018732997 0.013362092
0.0042225523 -0.0019476985 -0.009557122 0.022786992 -0.017115243 0.014072312 0.004941699 -0.0036567543
-0.025990887 0.0014078196 0.014064593 0.016962044 0.021959865 0.00078954047 0.011407661 -0.014212406
-0.021098385 -0.02290273 -0.011144576 -0.0026908226 -0.021130944 -0.008057176 -0.008545556 0.016687224
0.02503002 -0.010047301 -0.017504904 -0.010464606 0.0033938973 -0.0121297315 0.004512439 0.024588542
0.0060940967 -0.025011426 0.014248675 0.023546586 0.0031254683 0.009693706 0.008765891 -0.0022703651
-0.006240752 0.027812788 0.0046330914 0.030952524 0.02398155 0.027020345 0.010166979 0.025598506
0.00097019377 -0.006969622 -0.008410675 0.010934782 -0.020869656 0.020862442 -0.03084913 0.028556652
0.032525644 -0.037443314 0.014946032 0.008247475 -0.027688386 0.025063785 -0.011960119 0.008301429
-0.00073155126 -0.016893098 -0.0057197367 0.014764013 0.0049729636 -0.0071629626 0.025503032 -0.035374764
-0.01655514 0.0021679236 0.0019273727 0.037122473 -0.016118338 -0.0034623845 -0.023255253 -0.0022332163
-0.011566413 0.02279577 -0.018009176 0.0027685664 -0.009992915 -0.013408593 -0.0072322497 0.017775796
0.023959145 -0.008871364 -0.002404138 -0.0244952 0.02715528 -0.00088352227 -0.008903757 -0.038960364
-0.00026959457 0.008721936 6.7421165e-06 -0.0060320157 0.009466565 -0.012770502 0.012135175 -0.0148558
0.030375622 -0.022098444 -0.010189594 -0.0033611374 0.011608867 -0.0012743737 -0.03284278 0.021428306

action_model._discrete_distribution.branches.1.bias f4 [3]
00000000: 5c70 8dbb 81d5 57bb 2eba 0c3c
-0.004316373 -0.0032933655 0.008589311

exp_avg f4 [128, 36]
00000000: 07f7 57b8 9b2e fdb7 0000 0000 c0c0 c335
00000010: e1da 11b8 acbd 11b9 0b53 8338 0000 0000
00000020: 6ffd 80b6 fa70 7ab8 0ee5 66b7 002e 63b8
00000030: 0000 0000 0924 4eb7 870c 1db8 80d6 0db9
00000040: b0a9 5738 0000 0000 8300 7436 9192 60b8
00000050: db5b a437 4fd2 e9b8 0000 0000 9019 4437
00000060: 005e bfb7 7c4d beb7 a41f ebb7 0000 0000
00000070: 7273 f7b7 4727 3db8 5bf4 e938 f4b4 47b9
00000080: 0000 0000 53a4 b0b5 0d21 06b8 fbf7 2bb8
00000090: 90b0 42b6 66fd b3b6 0000 0000 87ef 9135
000000a0: 169a 9db6 f875 4035 c0b4 c4b6 0000 0000
000000b0: 8567 08b6 32c3 4ab6 d0d5 1bb7 7e5e ee35
000000c0: 0000 0000 23a4 b334 75c1 b0b6 9e0f b536
000000d0: 4a34 15b7 0000 0000 9901 77b6 88d0 a7b6
000000e0: f23c 36b7 18a2 8236 0000 0000 aa3e 60b4
000000f0: d602 a8b6 e439 8eb6 b784 9ab6 0000 0000
00000100: 5993 df35 b3dd 7ab6 b8ab 42b7 bf57 8736
00000110: 0000 0000 df5e d234 5998 59b6 04c3 2a35
00000120: 5f0f b0b7 f602 09b8 0000 0000 8f3e 9cb7
00000130: b916 94b8 3704 59b8 1602 8235 0000 0000
00000140: 896b b4b7 f4c1 91b8 9dbb 41b8 1ec4 8ab7
00000150: 0000 0000 f530 20b7 ec35 82b8 efbe 8db7
00000160: 22d2 0fb8 0000 0000 a2f0 b0b7 4187 7cb8
00000170: 2a10 09b8 7e36 3db8 0000 0000 e6e5 b836
00000180: 0b39 42b8 d768 6ab7 480e 49b8 0000 0000
00000190: bf05 2eb7 6785 3ab8 4371 7f36 78ec a2b8
000001a0: 0000 0000 e4fd d635 d859 10b8 2f3a 9f37
000001b0: 9a0a 42b7 6528 e3b7 0000 0000 f384 08b8
000001c0: 15eb a3b8 259a c5b7 a5bd a2b7 0000 0000
000001d0: cedf ecb7 0570 99b8 e786 7db8 66a6 3536
000001e0: 0000 0000 3abd 61b7 ebcc 91b8 6740 adb6
000001f0: 1bb5 2ab8 0000 0000 497d d4b7 c1ef 86b8
00000200: b1cd 6eb8 227a 8bb7 0000 0000 73ef 1e36
00000210: 89ac 59b8 a7a7 6ab7 510b 29b8 0000 0000
00000220: 20cd 8db7 601e 53b8 bce4 fbb7 cb77 21b8
00000230: 0000 0000 1d1a 33b6 622a 15b8 a737 0838
00000240: e23b feb7 e2ec 09b8 0000 0000 0f33 27b8
00000250: f8c8 d4b8 0fbc 01b9 3dc6 5c38 0000 0000
00000260: ec13 06b8 55cc f1b8 4820 92b8 0629 05b8
00000270: 0000 0000 a489 dab5 08fc 8db8 7734 9db8
00000280: 41a9 44b7 0000 0000 5755 89b7 ccac c8b8
00000290: 6839 6fb7 ea18 d7b8 0000 0000 3a09 6737
000002a0: cfa9 b0b7 d8b0 8136 beda 91b8 0000 0000
000002b0: 8cbe 1cb8 083c a1b8 bcba f838 e6a6 5db9
000002c0: 0000 0000 055f 2cb7 24dd dbb6 8185 4436
000002d0: 22e6 f7b6 2c5c 5335 0000 0000 269f 2c37
000002e0: 7796 9537 c334 e8b6 730a f436 0000 0000
000002f0: fedb 5f36 1894 9b37 f0c2 5137 b145 56b7
00000300: 0000 0000 3cc9 8436 047f 5a37 8b28 cab7
00000310: da6e 8d37 0000 0000 3c55 3737 8317 4a37
00000320: cd34 c836 440b 28b7 0000 0000 b8d2 0137
00000330: 1323 1237 f59b 85b7 ddf8 8337 0000 0000
00000340: 1650 8236 8ca1 cd36 b87d a737 0cdc 60b7
00000350: 0000 0000 24f6 40b6 fd29 54b5 b4a0 a2b7
00000360: 5f3a 13b7 6966 98b7 0000 0000 0c90 6b36
00000370: 5fc3 b6b7 0760 84b7 454b 80b7 0000 0000
00000380: 6133 0037 0d18 ccb7 801a f3b7 062d e536
00000390: 0000 0000 6125 acb5 cb44 c7b7 b3e5 1f37
000003a0: 9f71 b9b7 0000 0000 a525 36b7 a509 9eb7
000003b0: d501 86b7 aac4 2536 0000 0000 b490 26b7
000003c0: a5f3 c0b7 ef3b 4f35 47a7 aab7 0000 0000
000003d0: bd90 81b6 56e7 60b7 99b6 e0b7 a498 8136
000003e0: 0000 0000 dd24 08b5 14b5 9bb7 4407 3436
000003f0: cd7c 1bb9 e863 01b9 0000 0000 6275 c5b8
-5.1490057e-05 -3.0181653e-05 0.0 1.458473e-06 -3.477454e-05 -0.00013898936 6.262035e-05 0.0
-3.844201e-06 -5.9709862e-05 -1.3762399e-05 -5.416386e-05 0.0 -1.2286947e-05 -3.7443384e-05 -0.00013526715
5.141803e-05 0.0 3.6359131e-06 -5.3542262e-05 1.9593097e-05 -0.00011149479 0.0 1.1688462e-05
-2.2812746e-05 -2.2685846e-05 -2.8028917e-05 0.0 -2.9498453e-05 -4.509769e-05 0.000111558205 -0.00019045529
0.0 -1.3160846e-06 -3.197887e-05 -4.1000527e-05 -2.9011026e-06 -5.364115e-06 0.0 1.0873053e-06
-4.6969026e-06 7.169724e-07 -5.8622973e-06 0.0 -2.0325836e-06 -3.0213964e-06 -9.288502e-06 1.7759883e-06
0.0 3.3460773e-07 -5.26773e-06 5.3960384e-06 -8.893267e-06 0.0 -3.6806798e-06 -5.001264e-06
-1.0862235e-05 3.893172e-06 0.0 -2.0884423e-07 -5.0071203e-06 -4.238669e-06 -4.6050077e-06 0.0
1.6657679e-06 -3.738195e-06 -1.16032825e-05 4.0335285e-06 0.0 3.9184576e-07 -3.2424198e-06 6.361372e-07
-2.0987993e-05 -3.2666103e-05 0.0 -1.862578e-05 -7.0614224e-05 -5.1740757e-05 9.686362e-07 0.0
-2.1507747e-05 -6.9502654e-05 -4.6189514e-05 -1.6542206e-05 0.0 -9.548142e-06 -6.208927e-05 -1.689742e-05
-3.428956e-05 0.0 -2.1092888e-05 -6.0207447e-05 -3.26784e-05 -4.511186e-05 0.0 5.510391e-06
-4.630633e-05 -1.3971897e-05 -4.7935435e-05 0.0 -1.0372546e-05 -4.4470096e-05 3.8063888e-06 -7.768808e-05
0.0 1.6018134e-06 -3.441595e-05 1.898137e-05 -1.15657695e-05 -2.7079319e-05 0.0 -3.2548745e-05
-7.816233e-05 -2.355601e-05 -1.9400215e-05 0.0 -2.823761e-05 -7.316474e-05 -6.0445538e-05 2.7067958e-06
0.0 -1.3455103e-05 -6.952308e-05 -5.163299e-06 -4.0699826e-05 0.0 -2.533071e-05 -6.4342756e-05
-5.6935187e-05 -1.6626964e-05 0.0 2.3683212e-06 -5.1897518e-05 -1.39865215e-05 -4.030328e-05 0.0
-1.6904029e-05 -5.033461e-05 -3.0028044e-05 -3.8496957e-05 0.0 -2.6688278e-06 -3.556384e-05 3.2476757e-05
-3.0307045e-05 -3.288396e-05 0.0 -3.9863455e-05 -0.00010146381 -0.00012372456 5.263671e-05 0.0
-3.1966643e-05 -0.00011529835 -6.967835e-05 -3.1747877e-05 0.0 -1.6282324e-06 -6.7703484e-05 -7.496116e-05
-1.1721918e-05 0.0 -1.6371412e-05 -9.568929e-05 -1.4258876e-05 -0.000102566395 0.0 1.3770821e-05
-2.1059908e-05 3.865087e-06 -6.954883e-05 0.0 -3.737076e-05 -7.68826e-05 0.000118603435 -0.00021138377
0.0 -1.0274122e-05 -6.5524528e-06 2.9283985e-06 -7.3879646e-06 7.8737753e-07 0.0 1.02890535e-05
1.783225e-05 -6.920281e-06 7.272983e-06 0.0 3.3357642e-06 1.8546401e-05 1.2502758e-05 -1.277162e-05
0.0 3.9573333e-06 1.3023386e-05 -2.4099156e-05 1.686013e-05 0.0 1.0927495e-05 1.20456125e-05
5.9666113e-06 -1.0016203e-05 0.0 7.738061e-06 8.7104445e-06 -1.5927459e-05 1.5732303e-05 0.0
3.883625e-06 6.1282826e-06 1.9966494e-05 -1.3402674e-05 0.0 -2.8753502e-06 -7.9037255e-07 -1.9386738e-05
-8.775473e-06 -1.81675e-05 0.0 3.5101575e-06 -2.1787067e-05 -1.5780342e-05 -1.529384e-05 0.0
7.641357e-06 -2.4329895e-05 -2.8980197e-05 6.8299732e-06 0.0 -1.2825877e-06 -2.3754683e-05 9.5306195e-06
-2.2106628e-05 0.0 -1.085681e-05 -1.8839559e-05 -1.5974898e-05 2.470139e-06 0.0 -9.928062e-06
-2.300164e-05 7.7200724e-07 -2.0343474e-05 0.0 -3.8613493e-06 -1.34053025e-05 -2.678791e-05 3.8622693e-06
0.0 -5.071759e-07 -1.8561761e-05 2.682632e-06 -0.00014828444 -0.00012339617 0.0 -9.415556e-05

exp_avg_sq f4 [128, 36]
00000000: 91a8 1633 34dd 3d33 0000 0000 c010 2031
00000010: dbbd cd32 b55c 5c33 f1c9 ea32 0000 0000
00000020: 80cd 9231 a1d1 f032 eb5c b832 0235 8933
00000030: 0000 0000 f22f 2431 45a4 ac32 6f87 5b33
00000040: 568f d132 0000 0000 c212 0f32 e276 0533
00000050: f2c9 6932 89fb 9a33 0000 0000 170c 0231
00000060: 9c7f 9332 9ee7 5933 2c73 ba32 0000 0000
00000070: 8ccf 3532 ec6a 0e33 f23c 8e32 44ea 9833
00000080: 0000 0000 8e53 7631 3ccb 9932 f65b 3733
00000090: bf02 0230 e8b7 4d30 0000 0000 6eb3 8e2f
000000a0: bf3b 1630 c007 3330 268a 3630 0000 0000
000000b0: e6dd 432f 879b 0630 22e3 0f30 5c02 5930
000000c0: 0000 0000 7ed9 532f ffea 1230 fe88 6730
000000d0: adbc 1130 0000 0000 5b42 0b2f 6db6 ff2f
000000e0: 76a0 3d30 2e26 3530 0000 0000 d779 132f
000000f0: 6745 0b30 8765 8230 3d4b fb2f 0000 0000
00000100: 2c89 1e2f 7aab f42f d612 8530 e516 0130
00000110: 0000 0000 755b ad2e 0f6b 0730 fd41 6d30
00000120: 192e c931 5f61 8131 0000 0000 0f16 0d31
00000130: 34f8 ac31 0ea7 df31 2cc9 4431 0000 0000
00000140: c163 2231 d11e ae31 f8a5 ce31 1ea7 ae31
00000150: 0000 0000 1ba8 d430 3e91 9931 f654 0332
00000160: dc9f 1831 0000 0000 7076 0431 f8b0 a331
00000170: a920 d431 81cf b131 0000 0000 ad13 8330
00000180: b59b 8431 9ab7 0132 1657 2f31 0000 0000
00000190: dbbb ad30 f6bd 9531 9606 b231 8312 b431
000001a0: 0000 0000 ff7f af30 6749 7e31 2ecf e431
000001b0: c6b7 4f31 4c46 5f31 0000 0000 4c32 0731
000001c0: a815 9f31 80a7 2231 fca4 6b31 0000 0000
000001d0: 797a 3231 7a7d 9f31 f09e b931 a838 1731
000001e0: 0000 0000 8b9c ca30 2850 8b31 4e4a 6131
000001f0: 539a 4631 0000 0000 f8d8 2731 d318 9931
00000200: 8339 c831 12da 0231 0000 0000 bdc4 4730
00000210: 3a50 6e31 e52a 8431 a473 1d31 0000 0000
00000220: 99bc 0631 bf67 8d31 c138 bc31 3a26 f330
00000230: 0000 0000 edfa 6a30 0f35 5e31 8141 b131
00000240: 10ee 4033 82bc 9933 0000 0000 eca3 1c32
00000250: 2e1e 4033 e4c1 4133 166c 9133 0000 0000
00000260: 632c 9332 c09f 4b33 3335 9933 40cb 8033
00000270: 0000 0000 ae59 8b31 3d4a 2833 66d7 3233
00000280: 4ff3 8a33 0000 0000 1f44 be32 7477 5533
00000290: 2e34 9a33 9ce6 5433 0000 0000 4725 0532
000002a0: 5fa1 2033 b9ff 5733 9f06 8733 0000 0000
000002b0: bc67 7832 00e5 5233 525a 9433 6ff3 4d33
000002c0: 0000 0000 93a9 6d32 74f5 2233 92e0 9b33
000002d0: b0cf 3031 b776 ab30 0000 0000 14f9 6e2f
000002e0: 5134 f030 05d5 5731 668f 3f30 0000 0000
000002f0: 4d27 962f 4a69 ee30 a4ce d730 dd04 0d31
00000300: 0000 0000 57bc 0d30 5626 ea30 43f7 3a31
00000310: 381d 2a30 0000 0000 9855 5f30 e926 f830
00000320: c1fe 8930 5629 1531 0000 0000 84d8 8130
00000330: 135d e930 6e02 e230 1457 b330 0000 0000
00000340: a345 8830 42b1 ef30 d5ae 7130 edda 0831
00000350: 0000 0000 7471 9a30 34b2 e930 71d0 e630
00000360: 2743 1332 17b6 f230 0000 0000 12d9 8230
00000370: 6e9d 6231 a5c1 0832 cff4 0631 0000 0000
00000380: 49ca dc30 53ef 8831 7da4 1c32 c2a8 c330
00000390: 0000 0000 0ed1 e22f b236 2b31 a648 d031
000003a0: 84eb 5131 0000 0000 9aba 0931 c148 9431
000003b0: 90cc 0b32 93c0 2631 0000 0000 c44a 1630
000003c0: c5b0 1831 59da b331 fd54 8531 0000 0000
000003d0: 3247 0831 aeee 9931 6a0c de31 cb11 8531
000003e0: 0000 0000 318d 2f30 69f7 2131 b4ae 8c31
000003f0: 5587 0134 4a42 ed33 0000 0000 0890 d332
3.5077907e-08 4.4206175e-08 0.0 2.3292586e-09 2.3951477e-08 5.1307058e-08 2.7333018e-08 0.0
4.272522e-09 2.8035005e-08 2.1462673e-08 6.389202e-08 0.0 2.3892395e-09 2.0098136e-08 5.1113087e-08
2.4395984e-08 0.0 8.3279605e-09 3.10746e-08 1.3608302e-08 7.216938e-08 0.0 1.8924362e-09
1.7171082e-08 5.0734904e-08 2.1705624e-08 0.0 1.0582777e-08 3.3159196e-08 1.655869e-08 7.120664e-08
0.0 3.5845207e-09 1.7903965e-08 4.2691646e-08 4.7297627e-10 7.483991e-10 0.0 2.5957142e-10
5.4654586e-10 6.5130834e-10 6.6407535e-10 0.0 1.7813981e-10 4.8969934e-10 5.234587e-10 7.8947493e-10
0.0 1.9267607e-10 5.344844e-10 8.423199e-10 5.3018817e-10 0.0 1.266555e-10 4.651385e-10
6.898583e-10 6.5901673e-10 0.0 1.3412858e-10 5.066653e-10 9.487601e-10 4.5710094e-10 0.0
1.441875e-10 4.4505183e-10 9.682377e-10 4.696246e-10 0.0 7.883375e-11 4.9264853e-10 8.631387e-10
5.8551106e-09 3.765464e-09 0.0 2.053074e-09 5.0340763e-09 6.509146e-09 2.8636107e-09 0.0
2.3630806e-09 5.06757e-09 6.0142575e-09 5.0830655e-09 0.0 1.5472809e-09 4.469398e-09 7.6445215e-09
2.220978e-09 0.0 1.9275852e-09 4.7640434e-09 6.173725e-09 5.1749685e-09 0.0 9.537097e-10
3.8594075e-09 7.550534e-09 2.5515354e-09 0.0 1.2640798e-09 4.358067e-09 5.1812306e-09 5.240794e-09
0.0 1.2769305e-09 3.700359e-09 6.659227e-09 3.0226928e-09 3.249073e-09 0.0 1.9673676e-09
4.629971e-09 2.3669315e-09 3.4290784e-09 0.0 2.5972027e-09 4.641774e-09 5.4022777e-09 2.2005597e-09
0.0 1.4741927e-09 4.054545e-09 3.2784047e-09 2.8900515e-09 0.0 2.442503e-09 4.4557082e-09
5.8273044e-09 1.9041448e-09 0.0 7.267536e-10 3.4679162e-09 3.846582e-09 2.291224e-09 0.0
1.9606772e-09 4.1154347e-09 5.4779723e-09 1.7691442e-09 0.0 8.548529e-10 3.2335412e-09 5.158825e-09
4.492e-08 7.158907e-08 0.0 9.117667e-09 4.4730932e-08 4.5112657e-08 6.7717494e-08 0.0
1.7133237e-08 4.7409912e-08 7.1342946e-08 5.9974354e-08 0.0 4.055628e-09 3.9183067e-08 4.163976e-08
6.470383e-08 0.0 2.2149889e-08 4.970157e-08 7.180675e-08 4.9569834e-08 0.0 7.750095e-09
3.739967e-08 5.0291167e-08 6.287632e-08 0.0 1.4459086e-08 4.910271e-08 6.908216e-08 4.7951684e-08
0.0 1.3833772e-08 3.7941803e-08 7.258599e-08 2.5729427e-09 1.2475628e-09 0.0 2.1734464e-10
1.7477167e-09 3.1407705e-09 6.9689177e-10 0.0 2.7312766e-10 1.7346704e-09 1.570204e-09 2.0520965e-09
0.0 5.156315e-10 1.7036637e-09 2.7207114e-09 6.188716e-10 0.0 8.1248563e-10 1.8055434e-09
1.0040467e-09 2.170585e-09 0.0 9.447523e-10 1.6979435e-09 1.6444355e-09 1.3048713e-09 0.0
9.915094e-10 1.7439918e-09 8.792374e-10 1.991505e-09 0.0 1.123722e-09 1.700363e-09 1.6793945e-09
8.571795e-09 1.765957e-09 0.0 9.52044e-10 3.2976817e-09 7.9602716e-09 1.9638724e-09 0.0
1.60646e-09 3.985329e-09 9.117795e-09 1.4236081e-09 0.0 4.1257703e-10 2.4914866e-09 6.061856e-09
3.0547378e-09 0.0 2.0042195e-09 4.315638e-09 8.137377e-09 2.4265645e-09 0.0 5.467593e-10
2.2219393e-09 5.234409e-09 3.8804715e-09 0.0 1.9831075e-09 4.480021e-09 6.4624617e-09 3.8728323e-09
0.0 6.3865274e-10 2.356922e-09 4.0943977e-09 1.2063295e-07 1.10482304e-07 0.0 2.462913e-08

exp_avg f4 [128]
00000000: 2838 a8b8 c7d9 f0b6 f794 97b8 e54d 95b8
00000010: f01e d8b8 6087 7736 9791 c4b7 b1cd bfb9
00000020: 06ed 7db6 0b52 02b8 ddfd 4639 af68 05b8
00000030: bd52 10b7 f170 9bb9 1774 6d37 1c4e c538
00000040: 5200 80b9 5a41 17b9 e477 b8b9 f28e 05b9
00000050: b947 2039 01fa 1c37 60c0 f8b8 aa42 95b7
00000060: c82e 6b39 0da6 63b9 1f64 2b38 1677 9537
00000070: 23ae 3fb9 9755 b738 8c60 22b9 932c 7cb8
00000080: a76f 5039 4bc1 2db8 abea e638 588d bbb8
00000090: ab39 7438 52dc e937 21ce 6338 20fa b3b7
000000a0: 2641 1eb9 a0bd 1db9 a8fb 01b8 8742 0139
000000b0: dc74 7d37 8f00 5438 e24e 5fb4 c9ef d9b8
000000c0: 9c54 c237 ad51 7d36 f73b 52ba d67c 6a38
000000d0: d6d7 fc37 6b83 64b8 46b8 fb38 149e 1839
000000e0: e305 32b8 58a9 18b9 d138 86b8 4e48 3fb7
000000f0: 7bab 82b8 fdd0 8fb7 cf24 83b9 88a1 c5b8
00000100: 97ed e137 4200 c4b8 39de a638 5f87 2db9
00000110: 73ba 29b9 c4c3 55b9 d208 1e39 9ee4 2f37
00000120: 5e53 9d38 102c 9037 ca2b c3b8 2c16 04ba
00000130: 5821 a9b9 63ba 1e39 701b f5b7 e440 8238
00000140: 375b 0c38 41fd 5db8 6fd1 a8b8 893b d837
00000150: efab 7638 25b2 4fb9 8e0f 8337 48ce 4939
00000160: b21d 06b9 4b65 87b9 cb45 c038 7d54 b738
00000170: 4bfb c1b8 82e1 8038 a1db 10b9 b9b7 0739
00000180: 2510 d7b7 301a 8b38 6468 fab9 311c 39b9
00000190: 9051 9b38 83ef b3b8 7eb6 5c39 908a 91b8
000001a0: b2c5 87b8 6741 c437 609f f737 468e c038
000001b0: 416f 0bb8 1d0b 46b9 9720 99b6 8da7 0cb9
000001c0: d569 8eb8 47e3 9d38 b001 85b7 dcf9 0f37
000001d0: 2548 7eb9 0dc7 1639 1870 0fb9 0f3e 94b9
000001e0: 7a13 9c36 9d96 51b9 2170 dd37 b856 12b8
000001f0: 9a17 9a38 cd48 c637 1a8b ae38 0c2b 15b9
-8.021324e-05 -7.17791e-06 -7.227988e-05 -7.119383e-05 -0.00010305445 3.6884667e-06 -2.3432816e-05 -0.0003658361
-3.7837904e-06 -3.1070824e-05 0.00018977323 -3.1807165e-05 -8.602333e-06 -0.00029648052 1.415333e-05 9.408241e-05
-0.000244143 -0.00014424828 -0.0003518454 -0.0001273712 0.00015285508 9.356533e-06 -0.00011861394 -1.7793227e-05
0.00022428774 -0.00021710266 4.0862822e-05 1.7817638e-05 -0.0001828005 8.742062e-05 -0.0001548549 -6.0122995e-05
0.0001987802 -4.1426432e-05 0.00011010965 -8.943182e-05 5.822784e-05 2.787836e-05 5.431299e-05 -2.1454936e-05
-0.00015092324 -0.00015043328 -3.099037e-05 0.00012327182 1.5107184e-05 5.054526e-05 -2.0797191e-07 -0.0001039203
2.3166001e-05 3.774748e-06 -0.00080198 5.590621e-05 3.0141247e-05 -5.448183e-05 0.00012002936 0.00014554738
-4.244399e-05 -0.00014558935 -6.400201e-05 -1.1401322e-05 -6.230824e-05 -1.7144246e-05 -0.00025013692 -9.4237796e-05
2.6932727e-05 -9.346056e-05 7.956889e-05 -0.00016548995 -0.00016186554 -0.00020386191 0.0001507134 1.0484042e-05
7.501872e-05 1.7186656e-05 -9.306481e-05 -0.0005038704 -0.00032259035 0.00015137489 -2.9219053e-05 6.21097e-05
3.346355e-05 -5.2926367e-05 -8.049874e-05 2.577693e-05 5.8811096e-05 -0.00019807422 1.562366e-05 0.000192457
-0.00012790298 -0.00025824676 9.1682734e-05 8.741857e-05 -9.249764e-05 6.14552e-05 -0.00013814728 0.00012943045
-2.5637515e-05 6.632914e-05 -0.00047761493 -0.00017653477 7.406168e-05 -8.579998e-05 0.00021048819 -6.939948e-05
-6.474125e-05 2.3395476e-05 2.951891e-05 9.181774e-05 -3.3243796e-05 -0.00018886891 -4.5635493e-06 -0.00013413858
-6.7908004e-05 7.528677e-05 -1.5855621e-05 8.581639e-06 -0.00024250204 0.00014379267 -0.00013679301 -0.00028274997
4.6514297e-06 -0.00019987901 2.6397467e-05 -3.4889876e-05 7.3476884e-05 2.363734e-05 8.322876e-05 -0.00014225784
