results/TEST2/CarDriver/CarDriver-261056.pt (torch, 540200 bytes, 40 tensors)

discrete_act_size_vector f4 [1, 2]
0	0x40400000	3.0
1	0x40400000	3.0

network_body._body_endoder.seq_layers.0.weight f4 [128, 36]
0	0x3bc644e0	0.006050691
1	0x3df6f8c3	0.12059166
2	0x3e81a74b	0.25322947
3	0xbe094246	-0.13404188
4	0xbe4e58e0	-0.2015109
5	0xbdb5f7f9	-0.08885188
6	0xbe4d3db7	-0.20043074
7	0x3ecdb290	0.40175295
8	0xbe7a0435	-0.24415667
9	0x3e3cd33e	0.18439957
10	0xbe092705	-0.13393791
11	0x3e42297b	0.18961136
12	0xbd499fc6	-0.049224637
13	0x3e2061b5	0.15662272
14	0xbcb1c343	-0.021699553
15	0xbe4fa1c5	-0.20276554
16	0x3d9b1ff2	0.075744525
17	0xbe85da96	-0.2614333
18	0x3c9e74ba	0.019342769
19	0x3d1d0a27	0.03833976
20	0xbe0c6091	-0.13708712
21	0x3ee6a437	0.4504716
22	0xbe2dd992	-0.16977528
23	0xbe434dd2	-0.19072655
24	0xbe654e81	-0.22393228
25	0x3e6da14d	0.23206063
26	0xbe1cf017	-0.15325962
27	0xba9c5c8c	-0.0011929437
28	0x3d9fab2e	0.07796322
29	0x3e737a82	0.23777202
30	0xbdf6d467	-0.12052231
31	0x3e8e2ffa	0.27770978
32	0xbe961294	-0.2931105
33	0x3d64f968	0.055901915
34	0xbd813f6e	-0.063109264
35	0xbb9e20b0	-0.004825674
36	0xbe0d498e	-0.1379759
37	0xbdd7315e	-0.10507463
38	0x3e8a2cde	0.26987356
39	0x3dc9018a	0.09814747
40	0xbc9da65e	-0.01924437
41	0xbdad9f51	-0.08477653
42	0x3dcd7baf	0.100333564
43	0xbdacd3d0	-0.084388375
44	0xbd92a6d7	-0.071607284
45	0xbe4594da	-0.19295064
46	0xbdb9539d	-0.09049151
47	0x3dd23539	0.10264058
48	0xbdd2a2ef	-0.10284983
49	0xbccc8769	-0.024966912
50	0x3e08369d	0.13302083
51	0x3d7ffb3b	0.06249545
52	0xbbd96993	-0.0066349
53	0x3ea02a2c	0.31282175
54	0x3c5f0877	0.013612858
55	0xbd801bd2	-0.06255306
56	0xbdeedebb	-0.11663576
57	0xbd214892	-0.03937585
58	0xbe4dd1a3	-0.20099501
59	0xbe1c2b50	-0.15250897
60	0xbe3f0d62	-0.18657449
61	0x3c30a518	0.010781549
62	0xbe45f6ed	-0.19332476
63	0xbddfb7cc	-0.10923728
64	0x3e32cba9	0.17460503
65	0xbe4ba8e2	-0.19888642
66	0x3e578bf9	0.21049489
67	0xbe6a3fe1	-0.2287593
68	0x3e27ed1a	0.16399041
69	0xbe5797f5	-0.21054061
70	0x3e94fe91	0.2910047
71	0xbe0ceafc	-0.13761514
72	0x3d946539	0.07245869
73	0xbd80df67	-0.062926106
74	0xbdc66756	-0.096876785
75	0x3e445248	0.19172013
76	0x3dd8d765	0.10587958
77	0x3e00887c	0.12552065
78	0x3e7515c2	0.23934081
79	0xbdeb1a50	-0.11479628
80	0x3e4dee2b	0.20110385
81	0x3ea4b69e	0.32170576
82	0xbeb9e471	-0.363071
83	0xbd490ae7	-0.049082663
84	0x3de242de	0.1104791
85	0x3bde5361	0.006784842
86	0x3e1dae76	0.15398583
87	0x3e511ba5	0.20420702
88	0xbe3dc1a8	-0.18530905
89	0x3ddd0a17	0.1079294
90	0xbd8e358c	-0.06943807
91	0x3c815a46	0.015790116
92	0x3bfb24ad	0.007664284
93	0xbc384cee	-0.01124881
94	0x3eba369f	0.36369798
95	0xbea51a96	-0.32246846
96	0xbd7c2f17	-0.061568346
97	0x3e6f6394	0.2337783
98	0xbda52db4	-0.08065358
99	0x3c36b8ce	0.011152459
100	0xbc2ff83b	-0.010740335
101	0xbe0614c1	-0.13093854
102	0xbe4b1233	-0.19831161
103	0x3c5ab6c0	0.013349235
104	0x3dded038	0.10879558
105	0x3e22cf75	0.15899451
106	0x3d82ca09	0.063861914
107	0x3b17aba7	0.0023143084
108	0xbe87b89a	-0.26508027
109	0xbde6baad	-0.11266074
110	0x3e00d8b4	0.12582666
111	0xbdb4ff2d	-0.088377334
112	0x3d2dc5c4	0.042424932
113	0xbe5ca08a	-0.21545616
114	0xbc756947	-0.014978713
115	0xbdc4d06b	-0.09610065
116	0x39426f46	0.00018542734
117	0xbe17aeb0	-0.14812732
118	0xbcbca659	-0.02302854
119	0xbe153f48	-0.14574921
120	0x3cb660e3	0.022262996
121	0x3e7f26b6	0.24917111
122	0x3e129379	0.14314069
123	0x3de89e99	0.11358375
124	0x3ce441ac	0.027863346
125	0xbe4631e0	-0.19354963
126	0x3dc177a6	0.09446649
127	0x3dc8737d	0.09787653
128	0xbd29c35e	-0.041446082
129	0xbca86e71	-0.020560475
130	0x3e27b8f3	0.16379146
131	0xbe429caf	-0.19005083
132	0xbe4e6ed2	-0.20159462
133	0xbdfc4afb	-0.12318989
134	0xbe53fff7	-0.20703112
135	0x3d4d1197	0.050065603
136	0x3e46e23b	0.19422238
137	0xbcbd6ab4	-0.02312217
138	0x3dc1a2c1	0.09454871
139	0xbd96af03	-0.073575996
140	0xbe6c69a6	-0.23087177
141	0x3d717493	0.058949064
142	0x3e4f1168	0.20221484
143	0x3cfcaed4	0.030845083
144	0xbe7a087c	-0.24417299
145	0x3ebe801e	0.3720712
146	0x3d4e564c	0.050375268
147	0xbe3b4733	-0.18288879
148	0x3d544aa7	0.051829007
149	0x3e639bee	0.22227451
150	0x3e7977bd	0.24362083
151	0xbd6aee92	-0.057356425
152	0x3e9e2eaa	0.30894977
153	0x3e94bfd8	0.29052615
154	0xbd4dbf8d	-0.050231505
155	0x3e6535f6	0.22383866
156	0xbe150598	-0.14552915
157	0xbe2dc1d9	-0.16968478
158	0xbd930489	-0.071785994
159	0xbe96a2e0	-0.2942114
160	0xbccc2f6e	-0.02492496
161	0x3c461b27	0.012091435
162	0x3e49044a	0.19630542
163	0xbdcc7a88	-0.099843085
164	0x3bdd06e6	0.006745207
165	0x3db027c1	0.086013325
166	0x3d9b72fb	0.0759029
167	0x3e5392f7	0.20661531
168	0x3d873f17	0.0660383
169	0x3d3eb779	0.046561692
170	0x3e456419	0.19276465
171	0x3c8014ba	0.015634883
172	0xbce4dc38	-0.02793704
173	0x3d6ccde9	0.05781356
174	0xbe678051	-0.22607543
175	0xbe8188a3	-0.25299558
176	0xbec4db93	-0.38448772
177	0x3dc979ea	0.098377064
178	0xbe83f4de	-0.25772756
179	0x3e661f56	0.22472891
180	0x3d9faeef	0.07797038
181	0x3d9b57f5	0.07585136
182	0xbdc9e8f4	-0.098588854
183	0x3bb2dc6c	0.0054584052
184	0x3e456940	0.19278431
185	0xbd2204bc	-0.039555296
186	0xbd7c12a4	-0.061541215
187	0x3db1ee46	0.08688025
188	0xbe0cbf7b	-0.13744919
189	0x3debcf74	0.11514178
190	0x3dfc62f9	0.12323565
191	0x3e9efad0	0.3105073
192	0xbdede9ff	-0.11616897
193	0x3e526ac7	0.20548545
194	0xbe02ba74	-0.12766439
195	0x3e4eeb26	0.2020689
196	0xbe94372e	-0.2894835
197	0x3d70b6ac	0.05876796
198	0x3e929fce	0.28637546
199	0xbea222b5	-0.31667104
200	0xbe5ee783	-0.21768002
201	0xbddac31c	-0.106817454
202	0x3e27f6ae	0.16402695
203	0xbd9a514d	-0.07535038
204	0xbcf53eb9	-0.029937135
205	0xbe73a17d	-0.23792072
206	0x3d95d95c	0.07316849
207	0xbd86485a	-0.06556769
208	0x3e4f144f	0.20222591
209	0xbdb7057c	-0.08936593
210	0xbec94708	-0.39312005
211	0xbea13907	-0.3148882
212	0x3e8ebfd2	0.27880722
213	0x3e20da04	0.15708166
214	0xbe8e4ac2	-0.2779141
215	0xbd38c56b	-0.045110147
216	0xbdd67201	-0.10470963
217	0xbc65c211	-0.01402332
218	0x3e77c75c	0.24197143
219	0xbdc7a59d	-0.09748385
220	0xbd273929	-0.040825997
221	0x3eb73b4c	0.35787427
222	0xbd99f7be	-0.07517956
223	0x3dc42f06	0.095792815
224	0x3dd57fb1	0.10424746
225	0x3e250cde	0.1611819
226	0x3e462537	0.19350134
227	0xbe2ba1d3	-0.1676095
228	0x3d13b7fc	0.036064133
229	0xbe3eed01	-0.18645097
230	0x3cd3a542	0.025835637
231	0x3c072c55	0.008250316
232	0xbbd26777	-0.0064210254
233	0xbe7c9aab	-0.24668376
234	0xbc0a144d	-0.008427692
235	0x3e8de97f	0.27717206
236	0xbded8c5a	-0.115990356
237	0xbd8e4e77	-0.0694856
238	0xbe672c7a	-0.2257556
239	0xbc86ece3	-0.016470378
240	0xbe489818	-0.19589269
241	0xbe0b2a3f	-0.13590334
242	0xbb544c21	-0.003239401
243	0x3e15e950	0.14639783
244	0x3a75cf74	0.0009376921
245	0xbc65f2b4	-0.014034916
246	0xbd748c39	-0.05970404
247	0x3e40a7e2	0.18814042
248	0xbd6590e3	-0.056046378
249	0xbd22368e	-0.03960281
250	0xbdfbf7f1	-0.123031504
251	0x3d3c4ce5	0.04597177
252	0xbe1d2927	-0.1534773
253	0x3d447199	0.047959898
254	0x3e831336	0.25600594
255	0xbe1cfd79	-0.15331067

network_body._body_endoder.seq_layers.0.bias f4 [128]
0	0x3b2941a6	0.0025826483
1	0x3cb667d3	0.022266304
2	0xbcb38540	-0.021914124
3	0x3bc0467c	0.0058677774
4	0x3c62d0ba	0.01384371
5	0x3a866e43	0.0010256249
6	0x3bf81a6e	0.00757151
7	0x3c5b9998	0.013403319
8	0xbae27461	-0.0017277115
9	0xbb2aaccb	-0.0026042934
10	0x3cf17d77	0.029478772
11	0x3c81cb91	0.015844138
12	0x3b2e3f6b	0.0026588093
13	0x3c46a6d3	0.012124735
14	0x3c922b63	0.017842954
15	0x3cb94b09	0.022618787
16	0x3c3ac7f4	0.011400212
17	0x3bd4ae6c	0.0064905193
18	0x399dac4a	0.0003007374
19	0xbb390156	-0.0028229556
20	0x3c6d8e14	0.014499206
21	0xbd22abe0	-0.039714694
22	0xbc09addd	-0.008403269
23	0xbc0f140b	-0.008732806
24	0x3c2d23de	0.010567633
25	0x3c40b155	0.011761029
26	0xbcbc3b0a	-0.02297737
27	0xbce0ac85	-0.027426014
28	0xba9060e5	-0.0011015205
29	0x3c85a2a4	0.016312905
30	0x3be0bad5	0.0068582096
31	0xbb3c3a1e	-0.0028721164
32	0x3cdb953a	0.026804555
33	0x3c8ee8d4	0.017445005
34	0xbc13d1da	-0.0090222005
35	0x3b95bb64	0.004569458
36	0xbb2f24fb	-0.0026724923
37	0x3b9571c2	0.00456068
38	0x3b8c0979	0.00427359
39	0x3c4472c2	0.011990251
40	0x3a2cbc28	0.0006589317
41	0x3cc6aaf4	0.024251439
42	0x3ae8ad8a	0.0017751914
43	0x3b8e57e2	0.0043439725
44	0x3bbe9b56	0.0058168573
45	0x3ce4715c	0.027886085
46	0xbb065372	-0.0020496515
47	0xbc3e929b	-0.011631633
48	0x3c62e79a	0.013849163
49	0xbb5199a5	-0.0031982448
50	0x3ca36cdc	0.01994937
51	0x3cd284a2	0.02569801
52	0xbc332e8a	-0.010936389
53	0xbb870ba3	-0.0041212603
54	0x3c8167b1	0.015796514
55	0x3c7be958	0.015375458
56	0x3c252f48	0.0100820735
57	0x3c246f4c	0.010036301
58	0x3b2d7aa2	0.00264708
59	0xba308fdf	-0.00067353057
60	0x3c431d30	0.011908814
61	0xbbecddf7	-0.0072286087
62	0x3cb13619	0.021632241
63	0xbb9c0636	-0.0047614826
64	0xbab51a20	-0.001381699
65	0x3bafae5e	0.0053613624
66	0x3c812d13	0.015768563
67	0xbc12b7d0	-0.008954957
68	0x3c909526	0.017649245
69	0x3c508c15	0.012728711
70	0x3d0f1d34	0.03493996
71	0xbb1c06be	-0.002380773
72	0x3a5e5a80	0.00084821135
73	0xbb232b47	-0.0024897621
74	0x3c09d933	0.008413601
75	0x3c8d2edd	0.01723426
76	0x3c5c17b0	0.013433382
77	0x3c84ea82	0.016225103
78	0xbc556f0b	-0.013026963
79	0x399c5011	0.00029814293
80	0x3c74ba62	0.014937015
81	0xba40a0e9	-0.0007348196
82	0x3c2c551c	0.0105183385
83	0x3b8772c6	0.004133555
84	0x3ca6e1d4	0.020371355
85	0xbaa8cb8c	-0.0012878045
86	0xbc2dcf6e	-0.010608537
87	0x3cf98d3b	0.030462852
88	0x3c4518dd	0.012029854
89	0x3c089e99	0.008338594
90	0x3c9a0414	0.018800773
91	0x3c6fa1f8	0.014626019
92	0xbb041f62	-0.0020160307
93	0x3bb157dd	0.0054120854
94	0xbaf418a5	-0.0018623067
95	0xbc4dc6b0	-0.012559578
96	0xbc9b0cca	-0.018926997
97	0x3c48e825	0.012262379
98	0x3c860f60	0.016364753
99	0x3b3cd421	0.0028812962
100	0x3b793077	0.0038023272
101	0x3c905f0a	0.017623443
102	0x3c0169d1	0.007898764
103	0xbc0cb5a6	-0.00858823
104	0x3b428cc3	0.0029685951
105	0x3c81cb14	0.015843906
106	0x3c22ba69	0.009932139
107	0x3c4dd0ca	0.012561986
108	0xba8f4a46	-0.0010932169
109	0x3c4ad61a	0.012380147
110	0xbc699e11	-0.014258877
111	0xba815dc2	-0.0009869861
112	0x3c695442	0.01424128
113	0x3c5e4706	0.013566738
114	0xbc8467d1	-0.016162785
115	0xbb55a058	-0.0032596793
116	0x3c524e63	0.012836072
117	0x3c8b9e56	0.017043274
118	0x3c86baa5	0.01644642
119	0xbaf87000	-0.0018954277
120	0x3b8cbc57	0.004294913
121	0x3c9f7565	0.019465158
122	0x3ce4cb2e	0.027928915
123	0xbb8f7bd2	-0.004378774
124	0xbad95bf9	-0.0016583196
125	0x3c4634d4	0.012097556
126	0x3d149f0d	0.036284495
127	0x3bb84dcf	0.00562451

network_body._body_endoder.seq_layers.2.weight f4 [128, 128]
0	0xbddd134a	-0.10794695
1	0xbdd2b3e2	-0.10288216
2	0xbd505cef	-0.05086988
3	0xbdb8ad49	-0.090174265
4	0x3d611cf1	0.05495924
5	0xbdd7fc57	-0.10546177
6	0x3dfb5116	0.12271325
7	0xba1de7c5	-0.0006023611
8	0x3e444133	0.19165497
9	0xbd04f1fe	-0.032457344
10	0x3d60c524	0.054875508
11	0x3dc602a8	0.096684754
12	0x3d99c5e1	0.075084455
13	0x3d982fe6	0.07431011
14	0xbe322ac3	-0.17399125
15	0xbd3252ad	-0.043535877
16	0xbd829795	-0.06376568
17	0xbd4bedc5	-0.0497873
18	0x3dd85dff	0.10564803
19	0x3bc5f586	0.0060412316
20	0x3cf423e9	0.02980228
21	0x3a7ea160	0.0009713378
22	0x3dadc463	0.084847234
23	0xbda00cb6	-0.078149244
24	0xbd58cbbd	-0.052928675
25	0x3d98efb8	0.07467598
26	0x3db5a124	0.08868626
27	0x3e1db410	0.1540072
28	0xbdfedb8c	-0.12444219
29	0x3e0281a9	0.12744774
30	0x3cea8793	0.0286291
31	0xbd2e8557	-0.04260763
32	0xbd1b716d	-0.037949968
33	0xbd8d45f2	-0.06898107
34	0xbdc19882	-0.09452917
35	0xbcb6347a	-0.02224182
36	0x3d2b5400	0.041828156
37	0x3ba44d77	0.0050141173
38	0x3d022cfb	0.031781178
39	0x3d10b53e	0.035329096
40	0x3e2d4be1	0.16923477
41	0xbd5b9ae4	-0.053614512
42	0xbdbb23e3	-0.09137704
43	0x3cc66d45	0.024222026
44	0x3be8f2b1	0.007109009
45	0xbd89610e	-0.06707965
46	0x3d594ecc	0.053053662
47	0x3d949e97	0.07256811
48	0x3c64f6fa	0.013974899
49	0x3dffb825	0.12486295
50	0xbdb1f15e	-0.08688615
51	0x3de75500	0.11295509
52	0x3d52a86e	0.05143016
53	0xbdde5049	-0.10855157
54	0xbd67aa5b	-0.056558948
55	0x3d0076db	0.03136335
56	0x3d3af02c	0.045639202
57	0xbc169d88	-0.009192832
58	0xbd9c2299	-0.076237865
59	0x3dc71438	0.09720653
60	0x3daa49db	0.08314868
61	0xbd627933	-0.055291366
62	0x3d9ad089	0.07559306
63	0x3d2fa046	0.042877458
64	0xbcb6b43c	-0.02230274
65	0x3db4c7ae	0.088271484
66	0xbe021cf4	-0.12706357
67	0xbd3814d5	-0.044941742
68	0x3d07f63a	0.033193804
69	0x3ddf65bb	0.109080754
70	0x3e0dd504	0.1385079
71	0x3c17ec04	0.009272579
72	0xbc90f6a5	-0.017695734
73	0x3dd361dd	0.103214
74	0xbc8a6cc7	-0.016897572
75	0x3d2842a4	0.04107918
76	0xbe03d40a	-0.12873855
77	0x3c0bbf3c	0.008529481
78	0xbd8022dd	-0.0625665
79	0x3d0450fb	0.03230379
80	0xbdf52fd5	-0.11972014
81	0xbdbaa90b	-0.09114274
82	0x3d028bc7	0.031871583
83	0xbd401dfd	-0.0469036
84	0x3e4d2c9e	0.20036551
85	0x3d6fb55a	0.05852256
86	0xbcbd66df	-0.023120342
87	0x3e01ca4d	0.12674828
88	0xbdc5b077	-0.096527986
89	0x3d89fb4b	0.067373835
90	0xbddab80c	-0.106796354
91	0xbc4db186	-0.012554532
92	0x3d24f553	0.040273022
93	0xba551549	-0.0008128477
94	0xbdc5edc0	-0.09664488
95	0xbd53c6c8	-0.051703244
96	0xbc5049f6	-0.012712946
97	0x3dab9d8a	0.083796576
98	0x3d8b1dc7	0.06792789
99	0xbba4f52c	-0.0050341096
100	0x3ad71840	0.0016410425
101	0xbd45b464	-0.048267737
102	0xbd09e9d2	-0.033670254
103	0xbd0d6742	-0.034522302
104	0x3d0c0b0b	0.03419022
105	0xbdb3cbbe	-0.08779095
106	0xbe19091f	-0.14944886
107	0xbda35c49	-0.07976586
108	0xbdec9666	-0.11552124
109	0x3e0f2705	0.13979729
110	0xbcae58d1	-0.021282585
111	0xbd978254	-0.07397905
112	0xbe1b5c45	-0.15171917
113	0xbdc6f650	-0.09714949
114	0x3da4b08b	0.080414854
115	0xbe195d95	-0.14977105
116	0x3d26539a	0.040607072
117	0x3d93ee8c	0.072232336
118	0xbc8f96e0	-0.017527997
119	0xbd952c24	-0.0728381
120	0xbe66ec6a	-0.22551122
121	0x3dbd8672	0.09254159
122	0xbd8c7b5d	-0.06859467
123	0xbda9ce88	-0.08291346
124	0xbc7fdbae	-0.015616341
125	0xbe3fed94	-0.18742973
126	0xbe3e2c2f	-0.18571542
127	0x3dc5dadf	0.09660887
128	0xbe3ab383	-0.18232541
129	0xbe50b350	-0.20380902
130	0xbe52fca4	-0.20604187
131	0xbd2ed834	-0.042686656
132	0xbe26bd0d	-0.16283055
133	0xbdbd60a6	-0.0924695
134	0x3df1f110	0.11813557
135	0xbcc49d86	-0.024000894
136	0x3e0301da	0.12793675
137	0x3d8ed29d	0.06973765
138	0xbc15b07e	-0.009136317
139	0xbdfa4501	-0.12220193
140	0xbce059ef	-0.027386634
141	0xbdc5e129	-0.096620865
142	0x3c9261fd	0.01786899
143	0xbc6e45ff	-0.014543056
144	0x3e131800	0.14364624
145	0x3c9a50ce	0.018837359
146	0x3d85fed0	0.06542742
147	0xbd065c5b	-0.03280292
148	0xbc1ead21	-0.009684832
149	0xbd9db083	-0.076996826
150	0xbceb9c2a	-0.028760988
151	0x3bd7bcf4	0.0065838043
152	0xbd3db751	-0.046317402
153	0xbe4637d3	-0.19357233
154	0xbe1000e5	-0.14062841
155	0xbd38a6a1	-0.045080785
156	0xbdb99602	-0.09061815
157	0x3dd67f1f	0.10473465
158	0xbe671e7f	-0.22570227
159	0xbcb5b142	-0.02217925
160	0x3c9939a1	0.018704237
161	0xbe38522a	-0.18000093
162	0x3d4e0371	0.05029625
163	0x3dd9ea26	0.106403634
164	0xbe41ba76	-0.18918785
165	0xbc4f6549	-0.012658426
166	0x3d32d503	0.043660175
167	0xbe3169f1	-0.1732557
168	0xbcfce537	-0.030871017
169	0xbe17d8a1	-0.14828731
170	0xbbf7cdea	-0.0075623887
171	0x3d26a453	0.040684056
172	0xbd4733b2	-0.048633285
173	0xbdcdce03	-0.10049059
174	0x3d0dedb7	0.03465053
175	0x3c4bf7f3	0.012449252
176	0x3df19ccb	0.11797484
177	0xbd63ef8c	-0.05564837
178	0xbd28a56a	-0.041173376
179	0xbd26f435	-0.040760238
180	0xbe130bf4	-0.14360029
181	0xbe697c99	-0.22801436
182	0x3de84d12	0.11342825
183	0x3e017559	0.12642421
184	0x3e0752b9	0.1321515
185	0x3cdc2ecb	0.026877781
186	0xbdf1a1c8	-0.117984354
187	0x3de15c6e	0.11003958
188	0xbd87b26a	-0.06625827
189	0xbc4633bb	-0.012097294
190	0xbd697180	-0.056993008
191	0xbd996d4f	-0.07491552
192	0xbc7abcaa	-0.01530377
193	0xbd737082	-0.059433468
194	0x3dbffbe3	0.093742155
195	0xbd1ca0b9	-0.038239215
196	0xbd1e371f	-0.038626786
197	0xbdbb20c4	-0.09137109
198	0xbcc9c6b8	-0.02463089
199	0xbe06fb37	-0.13181768
200	0xbd6ea98d	-0.058267165
201	0x3d310edd	0.043227065
202	0x3d3389bf	0.043832537
203	0x3cf4ab2c	0.029866777
204	0x3caffb73	0.021482205
205	0x3e2ccf00	0.16875839
206	0xbd723ec3	-0.059141885
207	0x3d81c6c6	0.06336741
208	0x3cf1dda3	0.02952463
209	0x3ddadddc	0.106868476
210	0xbe3e1dad	-0.18566008
211	0xbe048ebc	-0.12945074
212	0xbdb324e7	-0.08747273
213	0xbb82da42	-0.0039933035
214	0xbc993f59	-0.018706964
215	0xbe2707c1	-0.16311552
216	0xbd7cea25	-0.061746735
217	0xbcf51a28	-0.029919699
218	0x3db884c0	0.09009695
219	0xbd65d986	-0.05611565
220	0x3c3fca40	0.011705935
221	0xbdbbcdfb	-0.09170147
222	0x3d7300c9	0.05932692
223	0xbc5f786e	-0.0136395525
224	0x3da6b36e	0.08139692
225	0x3deb75a7	0.1149705
226	0xbd88abe2	-0.06673409
227	0x3d4f7f8b	0.050658744
228	0x3dcae462	0.09906842
229	0xbb234b2f	-0.002491664
230	0x3d842a1d	0.06453345
231	0xbe44a060	-0.19201803
232	0xbdd3df14	-0.10345283
233	0x3c4f0ea2	0.012637766
234	0x3c48ee8f	0.012263908
235	0x3ddaa955	0.10676829
236	0x3d1ced6e	0.038312368
237	0xbe0b6fda	-0.13616887
238	0xbe693230	-0.22773051
239	0xbe08434f	-0.13306926
240	0x3db9634f	0.09052145
241	0xbd6bb781	-0.05754805
242	0xbc82419b	-0.015900424
243	0xbdb39a3d	-0.08769653
244	0xbdfd2a48	-0.1236158
245	0xbe085a29	-0.13315643
246	0xbdf9ecfb	-0.122034036
247	0xbd63523b	-0.055498343
248	0xbd3c2e87	-0.04594281
249	0xbda757f9	-0.08171076
250	0xbdae4989	-0.085101195
251	0x3e50546d	0.20344706
252	0xbdce3cb2	-0.100701705
253	0xbdef06cd	-0.11671219
254	0x3b8c6f30	0.0042857155
255	0x3dab91f7	0.0837745

network_body._body_endoder.seq_layers.2.bias f4 [128]
0	0xbba124d1	-0.004917719
1	0x3cb4d4ce	0.02207413
2	0x3b84a164	0.0040475596
3	0xbb348350	-0.0027544089
4	0x3a5bdaa8	0.00083867693
5	0x3c1c868f	0.009553566
6	0xbb06c1f0	-0.0020562373
7	0x3bb31bdc	0.0054659676
8	0xba57e9e2	-0.00082364504
9	0x3bf4fd78	0.007476505
10	0xbb4ed206	-0.003155829
11	0x3b497c46	0.0030744239
12	0x3befbf4d	0.007316506
13	0x3c4c7aed	0.01248048
14	0x3ba1c65a	0.0049369754
15	0x3c95d139	0.018288242
16	0x3bf904d0	0.0075994506
17	0x3b6843af	0.0035440733
18	0x3bc3e0e7	0.005977738
19	0x3ab2be14	0.001363697
20	0x3c92dacb	0.017926594
21	0x3bd02b41	0.0063528125
22	0x3c08831c	0.00833204
23	0x3c7970cc	0.015224647
24	0x3baf5884	0.005351128
25	0x3c1efd02	0.009703876
26	0x3c4d3a9d	0.0125261815
27	0xbb839c96	-0.004016469
28	0x3b0ae6a5	0.0021194604
29	0x3c9ce62d	0.019152725
30	0xbc091bf4	-0.008368481
31	0xbb4c7b31	-0.0031201357
32	0x3ca59c63	0.020216173
33	0x3ba1d38d	0.004938549
34	0x3c31e4e1	0.010857792
35	0x3c0b8606	0.00851584
36	0x3c4af59a	0.012387658
37	0xbb958f29	-0.004564185
38	0x3bb33b71	0.0054697325
39	0xba924a2d	-0.0011161022
40	0xbac17b97	-0.0014761564
41	0x3c375ab0	0.011191055
42	0x3d101630	0.03517741
43	0x3cc6471c	0.02420383
44	0x3afa6aeb	0.001910535
45	0x3b8e792c	0.004347941
46	0xba38fdca	-0.00070568605
47	0x3b3212b4	0.0027171792
48	0x3c83afad	0.01607498
49	0x3c47503d	0.012165126
50	0xbc091078	-0.008365743
51	0x3c0bfa62	0.008543583
52	0x3bc717c4	0.006075831
53	0x3c34f1c0	0.011043966
54	0x3c8afcc9	0.01696624
55	0x3c704fd3	0.014667469
56	0x3ce55814	0.0279961
57	0x3823f95a	3.9094455e-05
58	0x3cba8576	0.022768717
59	0xba86e8da	-0.0010292784
60	0x3a52c986	0.00080408936
61	0x3c165c9f	0.009177356
62	0xbb877dd3	-0.0041348725
63	0x3c8c9532	0.017160986
64	0x3bca5b45	0.006175431
65	0x3b32f92d	0.0027309165
66	0x3b83b917	0.004019867
67	0xbcb8c737	-0.02255593
68	0x3bb71c74	0.0055881087
69	0x3c89ae40	0.016806722
70	0x3ccf55ab	0.025309404
71	0x3bc4771e	0.005995645
72	0x3c3bcceb	0.0114624305
73	0x3c1e9b22	0.009680541
74	0x3c1d1d98	0.009589575
75	0x39fdff5a	0.00048446172
76	0x3cd0468d	0.025424266
77	0x3b1f4e4c	0.0024308143
78	0x3c17dced	0.009268981
79	0x3c58f285	0.013241415
80	0x3c9c4733	0.01907692
81	0x3bab68f0	0.0052310154
82	0x3c918db9	0.017767774
83	0x3b84de86	0.004054847
84	0xbb9d95b2	-0.004809105
85	0x3cbbf525	0.022944042
86	0x3b288ce9	0.0025718755
87	0x3d005985	0.031335372
88	0x3b1acbbe	0.0023619975
89	0x3c8013dc	0.01563447
90	0xbcb4c876	-0.022068243
91	0x3c80c620	0.015719473
92	0xb9140686	-0.0001411681
93	0x3b48c9b8	0.0030637812
94	0x3c794d30	0.015216157
95	0x3a905266	0.0011010885
96	0x3ad4882b	0.0016214898
97	0xbb24a5d2	-0.002512325
98	0xbb9917da	-0.004672033
99	0x3b1c5b4a	0.0023858123
100	0x3b8b746d	0.0042558224
101	0x3c38a9c9	0.011270949
102	0x3bfdd6cf	0.0077465544
103	0x3ad666b1	0.0016357509
104	0x3c8139ac	0.01577457
105	0x3af2395f	0.0018480233
106	0xbba976cd	-0.005171633
107	0x3c3c2ac5	0.011484806
108	0x3bad8750	0.0052956715
109	0x3c2d8fec	0.010593396
110	0x3aa5106f	0.0012593399
111	0x3c369bba	0.011145527
112	0xb6b97d30	-5.5280034e-06
113	0xbbaafefa	-0.005218384
114	0x39c1f6eb	0.00036995797
115	0x3ca456ee	0.020060983
116	0x3b8e904b	0.004350697
117	0x3c9be8ef	0.01903197
118	0x3bc4b46f	0.0060029547
119	0xbc5b22f4	-0.013375033
120	0x3c2a894f	0.0104087135
121	0x3b9197ad	0.00444313
122	0x3bd461f3	0.006481403
123	0x3b288d60	0.0025719032
124	0x3c8386ea	0.016055543
125	0x3c070dc9	0.008243033
126	0x3c9ee0fb	0.019394388
127	0x3a263859	0.0006340794

action_model._discrete_distribution.branches.0.weight f4 [3, 128]
0	0x3b086047	0.002080934
1	0xbb110e78	-0.0022133868
2	0x3b6e0459	0.003631851
3	0x3c159f20	0.009132177
4	0x3ca93ffd	0.020660395
5	0xbbdde47f	-0.0067716236
6	0xbc8ddda4	-0.0173176
7	0xbb09c1b0	-0.0021019988
8	0x3c7d0b5b	0.015444602
9	0x379aa7a4	1.8436294e-05
10	0x3c2d0996	0.0105613675
11	0x3bc568c3	0.0060244515
12	0x3c1260de	0.008934228
13	0xbc3a34da	-0.01136514
14	0xba4abdd2	-0.0007733974
15	0x3bef6587	0.007305804
16	0xbc4ccb10	-0.012499586
17	0x3c0cc71a	0.008592391
18	0xbb07f3d8	-0.0020744707
19	0xbc379b19	-0.011206412
20	0xbc066760	-0.008203357
21	0x3a662a99	0.0008780151
22	0xbb8171a5	-0.003950315
23	0xbb64809e	-0.00348667
24	0xbd084008	-0.03326419
25	0x3ba5b201	0.00505662
26	0x3bdeb472	0.006796413
27	0x3c73b8eb	0.014875631
28	0x3b79c1ec	0.0038109971
29	0xbb1d7150	-0.0024023838
30	0x3c24c345	0.0100563215
31	0x3c9a3267	0.018822862
32	0xbc1b3a30	-0.009474322
33	0x3c94bf25	0.018157551
34	0xbce3a13f	-0.027786849
35	0x3c3e5ff8	0.01161956
36	0xbd1b614b	-0.037934583
37	0xbbcb58b6	-0.0062056435
38	0x3c907ec8	0.017638579
39	0x3ceb7d9a	0.028746415
40	0xbbc207b6	-0.0059213294
41	0xbc8780c0	-0.016540885
42	0x3ba83586	0.0051333336
43	0xbbb9f5f5	-0.0056750723
44	0x3c4c6a5a	0.012476528
45	0x3ab7412c	0.0013981215
46	0xbb444252	-0.0029946757
47	0xba9b3ea9	-0.0011844236
48	0xbc1b7efc	-0.009490725
49	0xbbc72099	-0.006076884
50	0x3ca031d9	0.01955502
51	0x3b249b86	0.0025117113
52	0xbb88bbff	-0.0041728015
53	0x3ad3b703	0.0016152564
54	0x3c60eb71	0.013728009
55	0x3b6b84cf	0.0035937314
56	0x3b8643c7	0.004097435
57	0x3bc20557	0.0059210467
58	0xbc04efb0	-0.008113787
59	0xbbafc907	-0.0053645405
60	0xb9f92b6a	-0.00047525327
61	0xbbd52bb5	-0.0065054544
62	0xbb367362	-0.002783977
63	0xbc8902fa	-0.016725052
64	0x3b130af1	0.0022436942
65	0x3bafb6ed	0.0053623826
66	0xbbf7bd7c	-0.00756043
67	0x3bd90f1b	0.006624115
68	0xbc92abff	-0.01790428
69	0xbc57fda5	-0.013183032
70	0x3b069606	0.0020536198
71	0xbc7ae27c	-0.015312787
72	0xbc8c9e6e	-0.017165389
73	0xbcac6e27	-0.021048618
74	0xbb601f5b	-0.0034198377
75	0xbc1b7a16	-0.009489557
76	0xbc42e755	-0.011895974
77	0x3affcd23	0.0019516092
78	0xbb8af5ac	-0.004240712
79	0x3c061997	0.008184812
80	0x3ba0d3b9	0.004908052
81	0xbb03bc76	-0.0020101345
82	0xbc06b57e	-0.008221982
83	0x3b8171f5	0.0039503523
84	0x3ca00703	0.019534593
85	0xbc81af58	-0.01583068
86	0x3c181b39	0.009283834
87	0xbbaaa158	-0.005207222
88	0x3cc4d7f7	0.024028761
89	0x3c23b1aa	0.009991089
90	0x3bc68eb9	0.0060594943
91	0x3c92c772	0.017917369
92	0xbb27ed78	-0.002562372
93	0xbc305739	-0.010762983
94	0xbcbcc377	-0.023042424
95	0xbb08fdd9	-0.0020903258
96	0x3c4eb507	0.0126164025
97	0x3c8ce38a	0.017198343
98	0xbc0b749c	-0.008511689
99	0x3b3557b8	0.0027670693
100	0xbb480fb9	-0.003052695
101	0xbc288184	-0.010284785
102	0xbc8db89b	-0.01729994
103	0xbc51ffa4	-0.012817297
104	0xbb573f16	-0.0032843999
105	0xbb846817	-0.004040729
106	0x3ca563fc	0.020189278
107	0xbc88a4f5	-0.01668022
108	0x3c799f8d	0.015235794
109	0xb9bd46cd	-0.0003610164
110	0xbbf743bf	-0.0075459178
111	0x3b83601c	0.00400926
112	0x3c5f6077	0.013633839
113	0x3c92c7ed	0.017917598
114	0x3c8d5f70	0.017257422
115	0xbc3eee12	-0.01165344
116	0xbbce88a8	-0.006302912
117	0x3c1e8dde	0.009677378
118	0xbbc9112a	-0.0061360793
119	0x3b9026e9	0.0043991697
120	0xbc129903	-0.008947614
121	0x3b6e3d61	0.0036352503
122	0x3a571ed2	0.00082061917
123	0xbcb5ccbc	-0.022192352
124	0xbc8875ce	-0.016657736
125	0x3c1ced88	0.009578116
126	0xbc0fa442	-0.008767189
127	0xbcce6fb6	-0.025199752
128	0x3aabe71a	0.0013115138
129	0xbc4feb36	-0.012690356
130	0x3ceca274	0.028886057
131	0x3c70684f	0.014673307
132	0xbd1e4440	-0.038639307
133	0x3d191b5a	0.0373796
134	0x3c4080b3	0.011749434
135	0xbb83f9b6	-0.0040275706
136	0x3cb49e03	0.022048002
137	0xbcba27cd	-0.022724057
138	0xbb44eba8	-0.0030047689
139	0x3d0b0899	0.033943746
140	0x3d25c4dc	0.040470943
141	0x3d217e02	0.03942681
142	0xbca9d9f2	-0.020733807
143	0xbcffeec9	-0.031241791
144	0xbcaa5532	-0.020792577
145	0xbc17bee6	-0.009261822
146	0xbc2cddb2	-0.010550903
147	0x3c338a08	0.010958202
148	0xbd01a30f	-0.031649645
149	0x3d259d93	0.040433478
150	0x3d3f6100	0.046723366
151	0xbca7b1d5	-0.02047054
152	0x3d153e4d	0.036436368
153	0xbd0a4338	-0.03375551
154	0x3d24ee1a	0.040266134
155	0xbbdecdd8	-0.006799441
156	0x3c41eed5	0.011836727
157	0xbc811b4f	-0.015760092
158	0x3ce11195	0.027474204
159	0x3c92ddc8	0.01792802
160	0xbd22e37f	-0.03976774
161	0xbd2ed9db	-0.042688232
162	0x3c390b0a	0.011294136
163	0x3d0b8795	0.034064848
164	0xbc91c41b	-0.017793706
165	0x3c9c5145	0.019081721
166	0xbd1c674b	-0.038184445
167	0xbb096288	-0.002096327
168	0x3c340994	0.010988612
169	0xbc9a95a7	-0.018870188
170	0xbd371995	-0.04470213
171	0xbbf2312b	-0.007391115
172	0xbcf7c9b5	-0.030247549
173	0x3cdc25cf	0.026873497
174	0x3c746b83	0.014918211
175	0xbba8c550	-0.0051504746
176	0xbd02095b	-0.031747203
177	0xbd02907b	-0.03187607
178	0xb9c3936d	-0.0003730314
179	0x3c697218	0.0142483935
180	0x3cb4509f	0.0220111
181	0xbd1bc0e2	-0.038025744
182	0x3d520c51	0.051281277
183	0xbd4187a9	-0.047248516
184	0xbd0ddf57	-0.03463682
185	0xbb909eed	-0.0044134767
186	0xbcb8ac7d	-0.022543186
187	0xbac24b10	-0.0014823396
188	0x3c863594	0.01638297
189	0x3cfdc7c6	0.030979048
190	0x3cd38334	0.025819398
191	0x3d2a9f7c	0.041656002
192	0x3cfa327e	0.030541655
193	0x3cfc8c8a	0.030828733
194	0xba992958	-0.0011685295
195	0x3c68377b	0.014173384
196	0x3a6e6dd8	0.00090953475
197	0x3d310a60	0.043222785
198	0xbd4312d5	-0.04762538
199	0x3c984f99	0.018592643
200	0x3c344470	0.011002645
201	0xbd114980	-0.035470486
202	0xbd014dfa	-0.031568505
203	0xbc92c175	-0.017914513
204	0xbd49f301	-0.049304012
205	0xbb3bd1c0	-0.0028658956
206	0xbca3f21b	-0.020012906
207	0x3d09793e	0.03356289
208	0xbc7d9115	-0.015476485
209	0x3d37f160	0.044907928
210	0xbc5edf25	-0.0136030065
211	0x3bf88907	0.0075846943
212	0xbc3c1ca7	-0.011481441
213	0xbcacb8cf	-0.021084217
214	0x3d0a85ee	0.03381913
215	0xbd176497	-0.036961164
216	0xbd4bf972	-0.049798436
217	0xbd1ece02	-0.038770683
218	0x3c03d47a	0.008046264
219	0x3c943b43	0.018094664
220	0x3c53faa7	0.012938178
221	0x3c8431e6	0.016137075
222	0xbc3441fa	-0.011002058
223	0x3cbc2b0c	0.022969745
224	0xb99948fd	-0.00029236815
225	0x3c925e73	0.017867303
226	0x3c042137	0.00806456
227	0x3cf17624	0.02947528
228	0x3c91adf8	0.01778315
229	0x3d28bfe5	0.04119863
230	0xbb969f87	-0.004596654
231	0x3d235fe1	0.03988636
232	0x3d244639	0.040106032
233	0x3cf3761e	0.029719409
234	0x3b2e75ee	0.0026620585
235	0xbcb17288	-0.021661058
236	0x3c8b7318	0.017022654
237	0x3d2a9eef	0.041655477
238	0x3c7c707b	0.015407677
239	0xbca33761	-0.019923868
240	0x3ab3ac03	0.001370788
241	0x3b009b2d	0.0019623742
242	0xbc403922	-0.0117323715
243	0xbc904de3	-0.017615264
244	0x3c2d8aed	0.0105922045
245	0xbcd3cda9	-0.025854902
246	0x3d0a0077	0.03369185
247	0x3ad2b309	0.0016075085
248	0x3c315584	0.010823611
249	0xbc518b02	-0.01278949
250	0xbc518b07	-0.012789494
251	0x3cca71a8	0.024712399
252	0xbc8f5826	-0.017498087
253	0xbd165031	-0.03669757
254	0xbd37e381	-0.0448947
255	0xbb82ae8f	-0.003988094

action_model._discrete_distribution.branches.0.bias f4 [3]
0	0x374fd7a6	1.2388371e-05
1	0x3bd5ee99	0.006528687
2	0xbb4846e9	-0.0030559844

action_model._discrete_distribution.branches.1.weight f4 [3, 128]
0	0x3c8af311	0.016961606
1	0x3c985d57	0.018599195
2	0x3c47ab71	0.012186871
3	0xbb33eb38	-0.0027453434
4	0x3a791554	0.00095017743
5	0xbccc9e0f	-0.024977712
6	0x3bf823fd	0.0075726495
7	0x394db753	0.00019618617
8	0xbc4b2a45	-0.012400215
9	0x3cd15b72	0.0255563
10	0x3caf7d22	0.021421973
11	0x3c8a21ff	0.016861914
12	0xbc368c65	-0.011141871
13	0x3b89b48d	0.0042024315
14	0xbc62d138	-0.013843827
15	0x3b2bbf4c	0.002620655
16	0x3ca818a0	0.020519555
17	0xbc7dced0	-0.0154912025
18	0x3c2ee323	0.010674271
19	0xbaff3e75	-0.001947357
20	0x3c1b55f5	0.009480943
21	0xbc12f4d5	-0.008969505
22	0xbc042e50	-0.008067682
23	0xbbbba23c	-0.005726127
24	0xbb16fce3	-0.0023038916
25	0x39dd65c0	0.00042228214
26	0xbc577e67	-0.013152695
27	0xbc9c7075	-0.019096592
28	0x3b5893b2	0.0033047018
29	0x3bf2f8aa	0.007414897
30	0x3af3ef8e	0.0018610822
31	0x3cbc45c7	0.022982491
32	0x3b274633	0.002552402
33	0x3c80e4e6	0.015734147
34	0xbc4e08e0	-0.012575358
35	0xbc2d1dc8	-0.010566182
36	0xbc17a674	-0.009255994
37	0x3aaf143e	0.0013357473
38	0x3c173552	0.009229021
39	0x3c9d99ef	0.01923844
40	0xbc9fd4cf	-0.019510655
41	0x3c60eaec	0.013727885
42	0x3c5e0ef9	0.013553374
43	0xbc6fb5f1	-0.014630781
44	0x3bbc2ce2	0.005742655
45	0xb895dc0e	-7.145862e-05
46	0xbb50265a	-0.003176114
47	0xbd1046d0	-0.035223782
48	0xba8fc8bf	-0.0010969861
49	0x3d03bb62	0.032161124
50	0x3b460991	0.0030218104
51	0xbca9577d	-0.0206716
52	0x3bb340bf	0.005470365
53	0xbc2bd32b	-0.010487358
54	0xbcb6ebf9	-0.022329317
55	0xbbb45efe	-0.005504488
56	0x3c5b0719	0.013368391
57	0xbb934b3d	-0.004495053
58	0x3c3c8bfa	0.011507982
59	0xbcc6a391	-0.024247916
60	0xbc396dc8	-0.011317678
61	0xbc32d10b	-0.010914098
62	0x3c2fbdc7	0.010726399
63	0xbcf4e7a6	-0.029895615
64	0xbc8824b4	-0.016619064
65	0xbb843d3a	-0.004035619
66	0x3c9e20fb	0.019302836
67	0xbb4d723c	-0.0031348607
68	0x3c3f4df2	0.011676298
69	0xbcf82978	-0.030293211
70	0x3c84cef9	0.016211974
71	0xbd1af9d4	-0.03783591
72	0xbcadf548	-0.021235123
73	0x3c1596cb	0.00913019
74	0x3babaebb	0.0052393354
75	0xbc2ac8f7	-0.01042389
76	0x3cacd546	0.02109779
77	0xbcf907fc	-0.030399315
78	0xbb788bed	-0.00379252
79	0xbb6db991	-0.0036273936
80	0x3b08a37a	0.0020849393
81	0xbc0048c7	-0.0078298515
82	0xbb5f972f	-0.0034117212
83	0xbb21f512	-0.0024712724
84	0xbc479de4	-0.01218364
85	0xbb2413c4	-0.0025036195
86	0x3a9e94b0	0.0012098756
87	0xbb36e44d	-0.0027907074
88	0x3c115e9a	0.008872652
89	0x3bfbc63d	0.007683544
90	0x3ca34000	0.019927979
91	0xbc97bed1	-0.018523606
92	0x3b6006d2	0.0034183753
93	0x3c0af3cb	0.008480976
94	0x3cb5666b	0.022143563
95	0x3b9be356	0.004757325
96	0x3c425bd9	0.0118627185
97	0xbcace145	-0.02110351
98	0x3ce840de	0.028351244
99	0x3cae7b2d	0.02129897
100	0x3c33e677	0.01098024
101	0xbc002da8	-0.007823385
102	0xba63a25f	-0.0008683558
103	0xbc194fbf	-0.009357392
104	0xbbe76428	-0.0070615
105	0xbb34f65c	-0.0027612662
106	0xbbbe49c4	-0.0058071334
107	0x3c406f0d	0.011745227
108	0xbcc0109a	-0.023445416
109	0xbabb20ec	-0.0014276779
110	0x3c0344e0	0.008012027
111	0x3ca335a8	0.019923046
112	0x3ca600dd	0.020264084
113	0xbc92e0cd	-0.017929459
114	0x3c876995	0.016529838
115	0xbb42591e	-0.0029655169
116	0xbc71ef2e	-0.014766498
117	0x3bddf8ff	0.0067740674
118	0xbc1b69e2	-0.009485694
119	0x3c14fbdc	0.009093251
120	0xbd13c8d0	-0.03608018
121	0x3ca8a5ad	0.020586813
122	0xbbaafe1f	-0.005218282
123	0xbbed7721	-0.0072468673
124	0xbcb787c3	-0.022403603
125	0x3c47c12f	0.012192055
126	0x3c22e56f	0.009942397
127	0xbc9c445e	-0.019075569
128	0xbc0c6a6e	-0.008570297
129	0xbc84fb65	-0.016233156
130	0xb9f8d177	-0.0004745831
131	0xbc92f2c4	-0.017938025
132	0xba3a5204	-0.0007107558
133	0x3c9f453b	0.019442191
134	0x3c248163	0.010040614
135	0xbb6ad851	-0.00358345
136	0x3cdaf9c0	0.026730418
137	0xbcfc303d	-0.03078472
138	0xbb3a76eb	-0.0028452228
139	0x3c012bae	0.007883949
140	0x3c36e9da	0.011164153
141	0xba35ac28	-0.00069302553
142	0x3c6abf3e	0.014327822
143	0x3c49538c	0.0122879855
144	0x3beebffa	0.007286069
145	0xbb47ee52	-0.003050704
146	0x392e568d	0.00016626176
147	0x3c9cf1f3	0.01915834
148	0xbc53d3a9	-0.012928882
149	0x3c69f9d8	0.014280759
150	0x3bb1f5f5	0.0054309317
151	0xbc04861f	-0.008088618
152	0xbc895598	-0.016764447
153	0x3a06863d	0.00051316974
154	0x3c5e63b7	0.013573579
155	0x3c328b6c	0.010897499
156	0x3c9172ca	0.017754931
157	0x3a5518e2	0.0008129013
158	0x3c050069	0.008117774
159	0xbc5374e7	-0.01290629
160	0xbc940c63	-0.018072313
161	0xbcb66210	-0.022263557
162	0xbc020ecb	-0.007938097
163	0xba173b9a	-0.0005769074
164	0xbc724d1f	-0.014788895
165	0xba314b90	-0.0006763274
166	0xbb980778	-0.004639562
167	0x3c457325	0.012051378
168	0x3caf928b	0.021432182
169	0xbb1e2544	-0.0024131099
170	0xbc6ba382	-0.014382245
171	0xbbf0b5fe	-0.007345914
172	0x3b8ed23f	0.0043585594
173	0xbc078ad5	-0.008272846
174	0x3b4f40f2	0.0031624404
175	0x3ca488cc	0.020084761
176	0x3c0ca21e	0.008583574
177	0xbc92e9ce	-0.017933752
178	0x3c29e48a	0.010369429
179	0x3c97609f	0.01847869
180	0x3be34e7c	0.0069368463
181	0x3bfa1a44	0.0076325256
182	0x3c2ce94f	0.010553672
183	0xbae9aa2f	-0.0017827208
184	0xbb171820	-0.002305515
185	0x3cf000d9	0.02929728
186	0x3c42ea53	0.011896688
187	0x3cd0e84c	0.025501393
188	0x3ca05430	0.019571394
189	0x3cc20441	0.023683669
190	0x3c30ebbc	0.010798391
191	0x3cb8f535	0.022577861
192	0x3aa3be40	0.0012492612
193	0xba8b782b	-0.0010640671
194	0xbbd0ca57	-0.006371777
195	0x3acdddb2	0.0015706329
196	0xbc828d34	-0.015936472
197	0x3c9b4e31	0.018958183
198	0xbcc493fb	-0.023996344
199	0x3ccfac94	0.025350846
200	0x3ce295f5	0.027659396
201	0xbd04c522	-0.032414563
202	0x3c460c4e	0.012087895
203	0x3c138041	0.009002746
204	0xbcc25bd0	-0.02372542
205	0x3cac47f9	0.021030413
206	0xbc424aab	-0.011858623
207	0x3bd91bb7	0.0066256183
208	0xbb0d1ba9	-0.002153138
209	0xbc7debf1	-0.015498147
210	0xba0d44f2	-0.0005388997
211	0x3c5515f2	0.01300572
212	0x3a990079	0.0011673114
213	0xbbc0239f	-0.0058636214
214	0x3ca42169	0.020035462
215	0xbd09176f	-0.033469614
216	0xbc6a07c0	-0.014284074
217	0x3b11bc48	0.0022237469
218	0x3c198ade	0.009371487
219	0x3cf36c7c	0.029714815
220	0xbc80cd7b	-0.01572298
221	0x3ad57469	0.0016285303
222	0xbc726363	-0.014794203
223	0xbb4813a2	-0.003052928
224	0xbbfac868	-0.007653285
225	0x3c9304d5	0.01794664
226	0xbbad03ea	-0.0052800076
227	0x3be23158	0.006902855
228	0xbbab02fd	-0.005218862
229	0xbc32ab0f	-0.010905041
230	0xbbbab3f0	-0.0056977198
231	0x3c7aff76	0.015319696
232	0x3cc351c8	0.023842707
233	0xbbd140d4	-0.006385902
234	0xbb04c884	-0.0020261118
235	0xbc8e28ed	-0.0173535
236	0x3cb5b1f2	0.022179577
237	0x3a8ca524	0.0010730368
238	0xbb87e851	-0.0041475673
239	0xbce925c0	-0.028460383
240	0xb94d2232	-0.00019563062
241	0x3c27c7b0	0.01024048
242	0x3b8c4197	0.00428028
243	0xbb34b155	-0.0027571518
244	0x3ba56021	0.00504686
245	0xbc33d8bb	-0.010976966
246	0x3c473654	0.012158949
247	0xbc30e4a1	-0.010796697
248	0x3cec94fa	0.028879631
249	0xbc7ddf62	-0.015495153
250	0xbbec2ce1	-0.0072074984
251	0x3b132dcd	0.002245772
252	0x3bd76f3b	0.006574539
253	0xba6a06ae	-0.0008927387
254	0xbcedd4a8	-0.029032066
255	0x3ca7c2a4	0.020478554

action_model._discrete_distribution.branches.1.bias f4 [3]
0	0xba13ce74	-0.0005638369
1	0x3a80fe89	0.0009841482
2	0x3a1cfe1f	0.0005988795

exp_avg f4 [128, 36]
0	0xb7a8d8a0	-2.0128035e-05
1	0x35fd726b	1.8883269e-06
2	0x00000000	0.0
3	0x35b37f84	1.3373651e-06
4	0xb802c3c7	-3.1176747e-05
5	0xb71839d0	-9.0733665e-06
6	0xb68a68b2	-4.1249086e-06
7	0x00000000	0.0
8	0xb678930a	-3.7040468e-06
9	0xb82a8db2	-4.0663122e-05
10	0xb79ae907	-1.8466742e-05
11	0xb7128bb2	-8.7348035e-06
12	0x00000000	0.0
13	0x372ccac5	1.029921e-05
14	0xb77e3bc9	-1.51535e-05
15	0x3699cf6f	4.583904e-06
16	0xb784cf69	-1.583221e-05
17	0x00000000	0.0
18	0xb6bdb7a4	-5.6540175e-06
19	0xb81147a8	-3.463743e-05
20	0x37ec123c	2.8141883e-05
21	0xb8356919	-4.3251643e-05
22	0x00000000	0.0
23	0xb5f097f0	-1.7925613e-06
24	0xb7330e5e	-1.06725765e-05
25	0x3802272f	3.1030908e-05
26	0xb587605d	-1.0086329e-06
27	0x00000000	0.0
28	0xb844d0e6	-4.6924593e-05
29	0xb80c4caa	-3.345e-05
30	0x3826b8ce	3.9749597e-05
31	0xb8738192	-5.8056386e-05
32	0x00000000	0.0
33	0x35bc807c	1.4044485e-06
34	0xb741b81b	-1.1546562e-05
35	0xb608465e	-2.0306538e-06
36	0xb71f88ad	-9.508961e-06
37	0xb6c537c6	-5.8775504e-06
38	0x00000000	0.0
39	0x3657c211	3.2150458e-06
40	0x363b1139	2.7875196e-06
41	0xb7681283	-1.3832588e-05
42	0xb6052607	-1.984068e-06
43	0x00000000	0.0
44	0x36749ff1	3.6451931e-06
45	0x366d6337	3.5373503e-06
46	0xb6a74a65	-4.9856485e-06
47	0xb6e1313c	-6.711254e-06
48	0x00000000	0.0
49	0xb4fec734	-4.7456126e-07
50	0x33c71092	9.269674e-08
51	0xb7135cac	-8.78346e-06
52	0xb681130d	-3.8467174e-06
53	0x00000000	0.0
54	0x34f644e5	4.5871198e-07
55	0x3622c037	2.4251765e-06
56	0xb7566b5c	-1.27803905e-05
57	0xb57bdf0c	-9.382936e-07
58	0x00000000	0.0
59	0x35cfaa10	1.5472197e-06
60	0x33c58ca1	9.1991076e-08
61	0xb729326a	-1.0084923e-05
62	0xb638a65c	-2.751497e-06
63	0x00000000	0.0
64	0x35327f69	6.6495573e-07
65	0x35c0b1b5	1.4356834e-06
66	0xb76683a3	-1.3739717e-05
67	0x3624a8f7	2.4536255e-06
68	0x00000000	0.0
69	0xb56daa08	-8.853681e-07
70	0xb5c2dbd4	-1.4518105e-06
71	0x35cd6987	1.5304403e-06
72	0xb666ee57	-3.4411403e-06
73	0x36cad033	6.0443067e-06
74	0x00000000	0.0
75	0x373cba2c	1.124902e-05
76	0x376b1a6d	1.4013244e-05
77	0xb605f5d1	-1.9961628e-06
78	0x35ff7f13	1.9035964e-06
79	0x00000000	0.0
80	0x3769f447	1.39447575e-05
81	0x376d6da6	1.415183e-05
82	0xb59b184f	-1.1555475e-06
83	0x368b26f9	4.14706e-06
84	0x00000000	0.0
85	0x37363641	1.0860677e-05
86	0x3715a339	8.919095e-06
87	0xb4b650da	-3.395897e-07
88	0x36730394	3.6211904e-06
89	0x00000000	0.0
90	0x3731585a	1.0570593e-05
91	0x37537da4	1.2605833e-05
92	0x35d3f3ed	1.5791717e-06
93	0x371428e3	8.831007e-06
94	0x00000000	0.0
95	0x3666fd2b	3.4420034e-06
96	0x36c4862b	5.8568744e-06
97	0x36c90ef3	5.992007e-06
98	0x36e9b6e3	6.965232e-06
99	0x00000000	0.0
100	0x35703c68	8.949487e-07
101	0x3788604b	1.6257303e-05
102	0xb52a6a50	-6.348464e-07
103	0x37a8008d	2.0027417e-05
104	0x00000000	0.0
105	0xb6b9e796	-5.54039e-06
106	0xb6139a8e	-2.199467e-06
107	0xb7bfc175	-2.285906e-05
108	0x371e107d	9.421373e-06
109	0x359a2f43	1.1487649e-06
110	0x00000000	0.0
111	0x3687de0e	4.049164e-06
112	0x37390f5f	1.1030438e-05
113	0x37326f12	1.0635487e-05
114	0xb6baa825	-5.5628066e-06
115	0x00000000	0.0
116	0x37202a69	9.546618e-06
117	0x374862b9	1.1943915e-05
118	0x3686fbeb	4.0228383e-06
119	0x35d534e7	1.5885133e-06
120	0x00000000	0.0
121	0x371720d6	9.007947e-06
122	0x36c2efc7	5.8095643e-06
123	0x36cf1ed6	6.1726705e-06
124	0xb684bb56	-3.9557153e-06
125	0x00000000	0.0
126	0x375013a7	1.2402342e-05
127	0x37379960	1.094336e-05
128	0x36b817eb	5.4864117e-06
129	0x36e218a0	6.7381916e-06
130	0x00000000	0.0
131	0x3620b490	2.394696e-06
132	0x3671d69d	3.603672e-06
133	0x35d4f9b6	1.5867906e-06
134	0x35799436	9.2975404e-07
135	0x00000000	0.0
136	0x374b0ceb	1.2102751e-05
137	0x3760ef22	1.3407118e-05
138	0x368fd424	4.2864285e-06
139	0x3744711f	1.1708848e-05
140	0x00000000	0.0
141	0xb5b8ae3b	-1.3759776e-06
142	0xb621261d	-2.4013054e-06
143	0xb7228706	-9.68739e-06
144	0x36f5d9b1	7.3269116e-06
145	0x389e9732	7.5621894e-05
146	0x00000000	0.0
147	0xb702e4b1	-7.80185e-06
148	0x367615b8	3.6669499e-06
149	0x37bfa97d	2.2847898e-05
150	0x38452561	4.7003272e-05
151	0x00000000	0.0
152	0x36b1b24f	5.295769e-06
153	0xb66bdacd	-3.5145088e-06
154	0x378af861	1.6566542e-05
155	0x38499824	4.8063826e-05
156	0x00000000	0.0
157	0x3730707f	1.051661e-05
158	0x375c9985	1.3148766e-05
159	0x372c47aa	1.02686845e-05
160	0x381684fa	3.588663e-05
161	0x00000000	0.0
162	0x37f33305	2.8991615e-05
163	0x36ba7faf	5.5580963e-06
164	0x38acb33b	8.2349834e-05
165	0xb5ace568	-1.2881765e-06
166	0x00000000	0.0
167	0xb6c676c5	-5.9146864e-06
168	0x36930fff	4.3828036e-06
169	0x383b8df1	4.4716468e-05
170	0x38548dec	5.0676914e-05
171	0x00000000	0.0
172	0xb7a9d6d9	-2.0246416e-05
173	0x36fc7916	7.5242815e-06
174	0x38c73306	9.498563e-05
175	0xb7c3afad	-2.3327617e-05
176	0x00000000	0.0
177	0x366a23a8	3.4889472e-06
178	0xb6286019	-2.5089887e-06
179	0x3791132d	1.7294276e-05
180	0xb7718a1a	-1.4396874e-05
181	0xb7176909	-9.024757e-06
182	0x00000000	0.0
183	0xb664b283	-3.4078555e-06
184	0xb7576993	-1.28395795e-05
185	0xb7b712ed	-2.1824113e-05
186	0xb591b1b4	-1.085506e-06
187	0x00000000	0.0
188	0xb6838765	-3.9198662e-06
189	0xb76bdfcf	-1.4059201e-05
190	0xb75d480e	-1.3189403e-05
191	0xb74f8978	-1.2370168e-05
192	0x00000000	0.0
193	0xb5aa71fa	-1.2699159e-06
194	0xb71bd1e6	-9.287591e-06
195	0xb76e433e	-1.42015615e-05
196	0xb64cc87e	-3.051507e-06
197	0x00000000	0.0
198	0xb720aa64	-9.576415e-06
199	0xb781badf	-1.5465017e-05
200	0xb7339fc6	-1.0706432e-05
201	0xb78beb71	-1.6679727e-05
202	0x00000000	0.0
203	0x35156e47	5.56673e-07
204	0xb7036d1f	-7.833615e-06
205	0xb6c81f84	-5.9641334e-06
206	0xb6228b0f	-2.4220824e-06
207	0x00000000	0.0
208	0xb79ab6a0	-1.8443272e-05
209	0xb785710b	-1.5907475e-05
210	0xb706d9fe	-8.037778e-06
211	0xb7a57eb1	-1.9728528e-05
212	0x00000000	0.0
213	0x357b79f3	9.3682246e-07
214	0xb6c0a1d8	-5.740887e-06
215	0x370f6bd5	8.548571e-06
216	0x3798451b	1.8151992e-05
217	0xb6ec3fb6	-7.040765e-06
218	0x00000000	0.0
219	0xb6201e1f	-2.385939e-06
220	0x35cff4db	1.5493964e-06
221	0x37bc4d82	2.2447439e-05
222	0xb742cde7	-1.16112415e-05
223	0x00000000	0.0
224	0xb60da919	-2.1109065e-06
225	0x368b4985	4.1510816e-06
226	0x371e09f5	9.419852e-06
227	0xb5b204a9	-1.326339e-06
228	0x00000000	0.0
229	0x35299769	6.3177737e-07
230	0x351680ca	5.606677e-07
231	0x37733422	1.4496067e-05
232	0xb639c851	-2.7683748e-06
233	0x00000000	0.0
234	0xb6497ce4	-3.002403e-06
235	0x36b87d89	5.4982415e-06
236	0x35f4e3f4	1.824576e-06
237	0x36b75ea4	5.4648426e-06
238	0x00000000	0.0
239	0x35c0b80a	1.4358677e-06
240	0x36c2a48a	5.8008054e-06
241	0xb6e0d66c	-6.700682e-06
242	0x34b83894	3.4313837e-07
243	0x00000000	0.0
244	0x377d0c4e	1.508284e-05
245	0x35b10d47	1.3191392e-06
246	0xb4aefbb6	-3.259317e-07
247	0x3739132c	1.1031323e-05
248	0x00000000	0.0
249	0xb604e1f9	-1.9801066e-06
250	0x368c6496	4.184035e-06
251	0xb69a9d25	-4.6078517e-06
252	0xb6c72651	-5.9351228e-06
253	0x38b29580	8.515548e-05
254	0x00000000	0.0
255	0xb6e48774	-6.8106983e-06

exp_avg_sq f4 [128, 36]
0	0x322dd43a	1.011818e-08
1	0x32336014	1.0441017e-08
2	0x00000000	0.0
3	0x2ffe5055	4.625941e-10
4	0x31d84221	6.2939454e-09
5	0x328003a7	1.4902822e-08
6	0x31c4407b	5.7116814e-09
7	0x00000000	0.0
8	0x30518770	7.6226225e-10
9	0x31f0ffac	7.013986e-09
10	0x31cd92ef	5.9829897e-09
11	0x3279508b	1.4512021e-08
12	0x00000000	0.0
13	0x302d92d8	6.314571e-10
14	0x31be8d5d	5.545799e-09
15	0x3259b187	1.26714275e-08
16	0x31be2a9d	5.5345724e-09
17	0x00000000	0.0
18	0x311fc8cc	2.3251685e-09
19	0x31fc2887	7.3387727e-09
20	0x3170574a	3.4974215e-09
21	0x32955327	1.7383696e-08
22	0x00000000	0.0
23	0x2ffb8621	4.5751938e-10
24	0x31a2d712	4.739271e-09
25	0x3257990e	1.2549448e-08
26	0x319ff3b3	4.6552144e-09
27	0x00000000	0.0
28	0x316b3517	3.4227179e-09
29	0x32089d2c	7.951979e-09
30	0x31a1ee68	4.7128204e-09
31	0x32947008	1.7280414e-08
32	0x00000000	0.0
33	0x305f4442	8.122393e-10
34	0x31a2fb5e	4.7433977e-09
35	0x322aa087	9.931802e-09
36	0x2ff415bb	4.4398782e-10
37	0x2fd83a2b	3.9331502e-10
38	0x00000000	0.0
39	0x2ec62f65	9.0124165e-11
40	0x2f6f1d6c	2.1747376e-10
41	0x3006bf91	4.902115e-10
42	0x2faf949d	3.193791e-10
43	0x00000000	0.0
44	0x2e8c3fe7	6.377814e-11
45	0x2f542729	1.92952e-10
46	0x2ff37485	4.4284235e-10
47	0x2fdd6f55	4.0278772e-10
48	0x00000000	0.0
49	0x2eaebc59	7.946061e-11
50	0x2f78980d	2.2609488e-10
51	0x30264cbb	6.049949e-10
52	0x2f9e6f2f	2.8819033e-10
53	0x00000000	0.0
54	0x2e470c67	4.5258377e-11
55	0x2f4fdac2	1.8904259e-10
56	0x300b16fc	5.060057e-10
57	0x2fb2c0b6	3.251494e-10
58	0x00000000	0.0
59	0x2e834df6	5.971039e-11
60	0x2f80671d	2.335633e-10
61	0x302028b4	5.8265504e-10
62	0x2f99410e	2.7876762e-10
63	0x00000000	0.0
64	0x2eb2a474	8.1237156e-11
65	0x2f6826af	2.111402e-10
66	0x30325aa3	6.4884825e-10
67	0x2f82a0f7	2.3761235e-10
68	0x00000000	0.0
69	0x2e3e14f8	4.3219622e-11
70	0x2f8aa9e1	2.522276e-10
71	0x2fe9274b	4.2410372e-10
72	0x310c82d0	2.044704e-09
73	0x307d64b8	9.2183994e-10
74	0x00000000	0.0
75	0x2ffa4e20	4.5530246e-10
76	0x30a79cba	1.2195394e-09
77	0x3112f1d0	2.138325e-09
78	0x304d4d59	7.4688483e-10
79	0x00000000	0.0
80	0x2fe26933	4.118391e-10
81	0x30a169d9	1.1744375e-09
82	0x31034db7	1.9107185e-09
83	0x30cc07fb	1.4845222e-09
84	0x00000000	0.0
85	0x2fd68d5b	3.9026812e-10
86	0x309e0ec7	1.1500213e-09
87	0x312909ad	2.4598237e-09
88	0x3045614a	7.180644e-10
89	0x00000000	0.0
90	0x2fd08519	3.792955e-10
91	0x30a0a91a	1.1689594e-09
92	0x30f9ef34	1.818512e-09
93	0x30f16a9c	1.7565358e-09
94	0x00000000	0.0
95	0x2fc2b616	3.5417774e-10
96	0x30860359	9.750735e-10
97	0x311f5da7	2.319078e-09
98	0x305ee502	8.108857e-10
99	0x00000000	0.0
100	0x2fbd58e3	3.4442058e-10
101	0x309bf348	1.1346879e-09
102	0x30ec613a	1.7198893e-09
103	0x30e6dc93	1.6797393e-09
104	0x00000000	0.0
105	0x2fd8782e	3.9375564e-10
106	0x307f8501	9.295747e-10
107	0x30f456c8	1.7778001e-09
108	0x30477c22	7.257218e-10
109	0x302bd3f1	6.2510624e-10
110	0x00000000	0.0
111	0x2fcd3c81	3.7332273e-10
112	0x30870f73	9.826934e-10
113	0x30282ede	6.1184646e-10
114	0x303d0463	6.8764033e-10
115	0x00000000	0.0
116	0x2fdc892a	4.0115228e-10
117	0x308295fd	9.501374e-10
118	0x308fd0f3	1.0464006e-09
119	0x2ffd70e2	4.610064e-10
120	0x00000000	0.0
121	0x2fadb3d0	3.159628e-10
122	0x3070a43c	8.754488e-10
123	0x304e4461	7.5039536e-10
124	0x3044720e	7.1466466e-10
125	0x00000000	0.0
126	0x2fe075be	4.0829023e-10
127	0x307ef974	9.2759156e-10
128	0x3098689b	1.1089186e-09
129	0x301eda65	5.779042e-10
130	0x00000000	0.0
131	0x2f567900	1.9506174e-10
132	0x304f0424	7.5312045e-10
133	0x30597b96	7.9119766e-10
134	0x301e8385	5.7666966e-10
135	0x00000000	0.0
136	0x2fd94d08	3.9526804e-10
137	0x306ed98a	8.6893037e-10
138	0x30927ec3	1.0658926e-09
139	0x30179623	5.5146837e-10
140	0x00000000	0.0
141	0x2f7ebe0b	2.3168682e-10
142	0x303e59b1	6.9249056e-10
143	0x308ab70c	1.0092847e-09
144	0x327e26a1	1.4793529e-08
145	0x329dbf9a	1.8364336e-08
146	0x00000000	0.0
147	0x30f565c7	1.7855023e-09
148	0x324824ee	1.1649929e-08
149	0x326e2683	1.386218e-08
150	0x3296f0f3	1.757187e-08
151	0x00000000	0.0
152	0x3146a821	2.8908362e-09
153	0x32448609	1.1439178e-08
154	0x329e580f	1.8433665e-08
155	0x3285c402	1.5572372e-08
156	0x00000000	0.0
157	0x30a0f9ef	1.1712568e-09
158	0x323d610b	1.1023313e-08
159	0x3257afa7	1.2554586e-08
160	0x32a4df77	1.9193733e-08
161	0x00000000	0.0
162	0x31862e3c	3.9051695e-09
163	0x324089bd	1.1207189e-08
164	0x329f72e8	1.856229e-08
165	0x326c07d7	1.37387905e-08
166	0x00000000	0.0
167	0x311ed29d	2.3111746e-09
168	0x3237910b	1.0684981e-08
169	0x3260d8d2	1.3087815e-08
170	0x329d8e6d	1.8341973e-08
171	0x00000000	0.0
172	0x3177e8d0	3.607557e-09
173	0x324256b2	1.13119984e-08
174	0x32ab4f20	1.9943002e-08
175	0x324d7453	1.19590196e-08
176	0x00000000	0.0
177	0x31857934	3.8845887e-09
178	0x3236b0f5	1.063403e-08
179	0x3291d9a0	1.6979186e-08
180	0x3101bb0c	1.8878294e-09
181	0x30261d1d	6.043182e-10
182	0x00000000	0.0
183	0x2edd3941	1.0060087e-10
184	0x307afb16	9.1306285e-10
185	0x310d6d1c	2.0580222e-09
186	0x2fce2a6d	3.7501327e-10
187	0x00000000	0.0
188	0x2f216b42	1.468097e-10
189	0x3080d8c3	9.374833e-10
190	0x30a673b1	1.2110971e-09
191	0x30926d9a	1.0654049e-09
192	0x00000000	0.0
193	0x2f7aa2d9	2.2795223e-10
194	0x3063acbf	8.2827606e-10
195	0x30e22e1b	1.6456768e-09
196	0x2fc4a5f5	3.5770112e-10
197	0x00000000	0.0
198	0x3010b05e	5.263753e-10
199	0x308ac650	1.0097185e-09
200	0x30622de0	8.2283513e-10
201	0x30a75c13	1.2177018e-09
202	0x00000000	0.0
203	0x2ffd68a0	4.6094772e-10
204	0x30657221	8.34719e-10
205	0x3085b70b	9.729048e-10
206	0x30586ea5	7.873758e-10
207	0x00000000	0.0
208	0x3039b42f	6.7558664e-10
209	0x308e18a8	1.0338868e-09
210	0x303eaaf6	6.936455e-10
211	0x30aab32f	1.2420055e-09
212	0x00000000	0.0
213	0x301c5b72	5.688242e-10
214	0x3068abae	8.464508e-10
215	0x306cbf2b	8.6127966e-10
216	0x319fbf64	4.6492676e-09
217	0x303c4fb9	6.8507294e-10
218	0x00000000	0.0
219	0x2f5cfbc4	2.0098329e-10
220	0x30bc2311	1.3688767e-09
221	0x319a5405	4.491542e-09
222	0x303fe0c1	6.980479e-10
223	0x00000000	0.0
224	0x2fc30bd4	3.5478698e-10
225	0x30d69feb	1.5616001e-09
226	0x3197087a	4.395642e-09
227	0x30781926	9.025761e-10
228	0x00000000	0.0
229	0x2f25cb40	1.5078871e-10
230	0x30a17e75	1.1750233e-09
231	0x316cb6a1	3.4446332e-09
232	0x30b3ea7e	1.3090611e-09
233	0x00000000	0.0
234	0x304b7dcb	7.402973e-10
235	0x30e4c0d1	1.6643985e-09
236	0x3180e51d	3.7513375e-09
237	0x30cbb645	1.4821998e-09
238	0x00000000	0.0
239	0x2fc0bf20	3.50604e-10
240	0x30982d2b	1.1072293e-09
241	0x312894ab	2.4531726e-09
242	0x30e99753	1.699599e-09
243	0x00000000	0.0
244	0x30836091	9.55895e-10
245	0x30f3aa94	1.7729058e-09
246	0x3162bef7	3.299588e-09
247	0x3106f7a5	1.9640336e-09
248	0x00000000	0.0
249	0x2fb50018	3.2923775e-10
250	0x309717e1	1.0993483e-09
251	0x30ceee8c	1.5056272e-09
252	0x336f182c	5.5668508e-08
253	0x332e7017	4.0614477e-08
254	0x00000000	0.0
255	0x3218d058	8.894936e-09
