Assets/results/T2/CarDriver/CarDriver-999976.onnx (onnx, 188993 bytes, 9 tensors)

discrete_act_size_vector f4 [1, 2]
00000000: 0000 4040 0000 4040
3.0 3.0

network_body._body_endoder.seq_layers.0.weight f4 [128, 225]
00000000: 5bc1 fabd 12ed 6f3d 0a78 363e b101 12bd
00000010: 04cd 2a3d 2d59 02be 1f61 15bd b7e7 6abd
00000020: a1c2 263d 0908 36bc cad5 79bd 1bc3 a7bb
00000030: 8885 f53d f757 cc3d e5ec f0bd 6761 21bd
00000040: 9c9f aabd c819 6bbd db08 0fbe b04e e0bd
00000050: 901a 11bd 7156 5d3d cd2b 4dbe 0ddc 16bd
00000060: 4162 05be 0aeb dc3d ca03 9e3c 2b6a 2ebd
00000070: f89b b7bd 4eeb 0dbd 1a45 c03c 3264 96bc
00000080: e4f9 ac3d fe65 733d 96ac 363d 06c5 01be
00000090: 34e6 083d 6ecd 31bc df7a 933b 6503 6abd
000000a0: f4db febc ea0a e53b db68 373d 7f21 2fbd
000000b0: 65cd d43d 28a9 bebc d6e5 37bd c895 0a3b
000000c0: 16a2 493d 67c4 b3bd 9b95 6bbe e1d9 3eba
000000d0: a728 fabc 490e 853d f9e0 4e3b b80e 7cbc
000000e0: 982b 28bb 2d23 d63d f0f2 d03d 4592 af3c
000000f0: 1cd3 49be 9e81 8dbd 9304 bcbc ce83 1cbc
00000100: 9c8e 993b faf7 e5bd 5dd9 9abb ed54 cd3c
00000110: 65a5 d8bd 1bf9 f7ba af76 913d b843 233b
00000120: a664 fd3d 52ea 00be 45cd e53d 3e42 bd3d
00000130: fc79 af3d a307 51bd dc55 0ebd 19ba 3bbd
00000140: 06c8 663e 0ecc aabd c4a6 503c 2bf2 a73b
00000150: 1483 a7bd 03d3 d03d 3fda a43d 1ec6 6d3d
00000160: 4c0d b5bd 7d47 3d3e f892 073e 0d4e 20bd
00000170: 0cf4 103d 0a32 3bbe e1db 1dbe f335 2d3d
00000180: 5da3 c83c 2dcd 193d e058 30bd 5511 a53c
00000190: 6b17 af3d 21d0 65bd 99d2 61bd 3984 053b
000001a0: 6e2b 113e fdb3 663c 00f0 453d 9e61 e33b
000001b0: 3471 a1bc 8357 273c 497d 0dbd af5a de3b
000001c0: 4aea 9a3d 8537 d9bd 5f29 a6bd e08f 79bd
000001d0: fab0 5d3e 9822 05be 8258 813d 31f6 0c3e
000001e0: 463e f53d d244 0bbe 75f8 8a3d 59e7 0f3c
000001f0: 3c58 27be e88f 2b3d b41f 043d 8b00 e43c
00000200: 90be 443e 11b4 bbbd caa4 67bd fb12 fd3d
00000210: 1a53 763d 4392 94bd a167 11bd 0612 8abd
00000220: 0dce c8bc 1a5f 69bd 02c5 5c3d aa57 0dbc
00000230: bfed b03d 1100 86bd 08ad c33c f6c8 8d3c
00000240: 3688 a8bd ede1 4fbd 4fd7 a83d 3326 e13d
00000250: a990 743d a7c1 0a3d 55db b73d 72c7 bdbb
00000260: feb0 4dbc f9bb b1bb 1ade 943d fd67 9a3d
00000270: d9a3 3c3d 5834 103e e824 983c 360b 96ba
00000280: 047f 993d a84a 36bd 0fc4 5b3d 49d9 df3b
00000290: e6eb b5bc 12d5 3e3d 6514 bf3d 5aeb 893d
000002a0: 33ae 3b3e f83e a0bd 9426 bdbd aece d93a
000002b0: c7c1 143d 0e46 2c3d 5cae 3c3d 20ac 7cbd
000002c0: 64c1 5d3e d445 05bd 91d6 ad3c 2e4e a2bd
000002d0: f0ef 2bbe 65e6 713d e5ff 283e 88a8 263b
000002e0: 0fc1 e33c e5e9 5dbc 0be6 73bd 0da3 733d
000002f0: 7726 6cbd e785 cc3d 995e 02bc 0144 ea3d
00000300: 926f fdbd 5362 053e 78c9 c93d e383 a9bd
00000310: 3153 5f3e 151b 60bd 5524 40be 0c58 19bd
00000320: 7330 c93c 6c8b f1bc a810 ef3d 6e7d aa3d
00000330: 43b2 123e 39d3 28be 5dda c5ba 1b60 933d
00000340: c95d c9be 4bc6 6d3d 9f39 193c b695 1a3d
00000350: e495 ddbc 160c 933d 6134 d9bc 6d01 713d
00000360: ede9 6d3c 5a36 033e 8283 a43d 7bd5 e9bc
00000370: a168 b8bd a97c 9c3d 9a91 4bbc eb1f a139
00000380: 4de7 17be 0de1 c0bd b388 033d 2fb6 acbd
00000390: ddc0 fc3b a23b 013e c062 be3c 0a39 313d
000003a0: 268d 2dbe 7f27 2cbd cb12 c43c 9b71 c0bd
000003b0: 1a8b 4cbd 0f16 f5bc df2e 17bc c703 0ebd
000003c0: 2e3b 463d dbfb 7fbc 9e15 64bb dfb1 bdbd
000003d0: fb18 a7bc 771c 19bd 4dbb 59bc 2fff 82bd
000003e0: ca8a 52bd cb3b 3abc 61ce 8bbc 8cd8 09be
000003f0: b739 7ebd 8af1 033c 1916 6f3d 9a90 be3c
-0.12243911 0.058575697 0.17819229 -0.035646144 0.041699424 -0.1272933 -0.036469575 -0.057349887
0.040712956 -0.011110314 -0.0609949 -0.005119694 0.1198836 0.099777155 -0.11763934 -0.03939953
-0.08331224 -0.057397634 -0.13968222 -0.109525084 -0.035425723 0.054037515 -0.2003624 -0.03683095
-0.13025762 0.10787018 0.019288916 -0.04258172 -0.089652956 -0.034648232 0.02347045 -0.018358324
0.084461 0.05942344 0.044598185 -0.12672815 0.033422664 -0.010852201 0.0045007314 -0.057132144
-0.031110741 0.0069898264 0.044777732 -0.042756554 0.103907384 -0.02327402 -0.044896923 0.0021146405
0.049226843 -0.08777695 -0.23006289 -0.00072803913 -0.030536963 0.06496865 0.00315672 -0.015384369
-0.002566075 0.10455928 0.10202587 0.021432051 -0.19709438 -0.06909488 -0.0229514 -0.009552909
0.00468619 -0.112289384 -0.0047256188 0.02506491 -0.105784215 -0.0018918844 0.07102715 0.002491219
0.12372713 -0.12589386 0.11220793 0.0924115 0.085681885 -0.051032674 -0.03474985 -0.045831773
0.2253724 -0.083397016 0.0127350725 0.005125304 -0.08179298 0.10196497 0.0804944 0.058050267
-0.08840427 0.18484302 0.13239658 -0.039136935 0.03538899 -0.18280807 -0.15415908 0.042287778
0.02449196 0.037549186 -0.043053508 0.020149866 0.085493885 -0.05610669 -0.055132482 0.0020373
0.14176723 0.0140809985 0.048324585 0.006939127 -0.0197073 0.0102137355 -0.03454331 0.0067857127
0.07564218 -0.10606293 -0.0811336 -0.060928226 0.21649542 -0.13001478 0.0631571 0.1376579
0.11974768 -0.13600472 0.06785671 0.008783185 -0.16342252 0.041885287 0.032256797 0.02783229
0.19213319 -0.09165204 -0.05655364 0.12357136 0.060137846 -0.0725446 -0.03549922 -0.06741719
-0.024512315 -0.05697546 0.05389882 -0.008626858 0.086390965 -0.065429814 0.023886219 0.01730774
-0.08229105 -0.05075257 0.08244192 0.10993614 0.05970827 0.033876088 0.08977381 -0.005791598
-0.012554405 -0.0054240194 0.07268925 0.075393654 0.046054695 0.14082468 0.018572286 -0.0011447433
0.074949294 -0.04450479 0.053653773 0.0068313223 -0.022207212 0.04658992 0.09330062 0.06734343
0.1832817 -0.0782451 -0.09235874 0.0016617381 0.036317613 0.042058997 0.04606472 -0.06168759
0.21655804 -0.032537296 0.021220477 -0.07925068 -0.16790748 0.059057612 0.16503866 0.0025430042
0.027802018 -0.013544534 -0.059545558 0.05948167 -0.05765387 0.09986477 -0.007957124 0.11438752
-0.12374796 0.13025789 0.0985288 -0.082771085 0.21809079 -0.054713327 -0.1876386 -0.037437484
0.024559235 -0.029485427 0.11673099 0.08324705 0.14325814 -0.16486825 -0.0015094985 0.07196065
-0.39329365 0.058050435 0.009352117 0.03774043 -0.027049012 0.071800396 -0.026514234 0.05883925
0.014521104 0.12813702 0.080328956 -0.028544178 -0.090043314 0.076409645 -0.012424851 0.00030732094
-0.14834328 -0.09417925 0.03211279 -0.08433186 0.007713421 0.12620404 0.023240447 0.043267287
-0.16948375 -0.042029854 0.023934742 -0.093966685 -0.049937345 -0.029917745 -0.0092274835 -0.03467157
0.048396282 -0.015624012 -0.0034802924 -0.09262442 -0.020397654 -0.03738066 -0.013289285 -0.06396329
-0.05140189 -0.011366795 -0.017066183 -0.13461512 -0.06206676 0.008053193 0.058370683 0.02326231

network_body._body_endoder.seq_layers.0.bias f4 [128]
00000000: 33b2 813b a791 3f3b aba2 af3c c6ef b53c
00000010: 50d6 ed3c 4591 173d 146a b3bb 7ca7 143d
00000020: 7da0 823c aa4a 72bd 8058 9a3c d2e2 9f3c
00000030: 3c0e 3fbd a639 003d 46f0 6f3d 107a 3e3d
00000040: 676b 6dbd 1538 0f3d 0ae7 153d f427 15bd
00000050: 2197 3ebc 2385 cdbc b1fb 833c 713e dcbc
00000060: 3b2d d7bc 0f6f 143b b49e bf3c ef70 abbc
00000070: 3a81 d03c b1b8 f43c 3a10 63bc 640d 053b
00000080: df1d 91bd 006e 1c3d 49ae 163c 9e0b 7d3b
00000090: 972b 563c 3d04 39bd a683 e9bc 4a1c 3fbd
000000a0: c7d7 233c 0cd4 b23c fb4e 0fbc 624b efbb
000000b0: 5af3 133c d03a 493d 0cb4 9bbb 9caf ee3c
000000c0: 2046 84bb 835b 213d 29a7 f83c 7999 29bc
000000d0: 065f be3c 4d7a 8b3b 1b1a 36bd 9e2f b03c
000000e0: a221 36bb 7b90 1d3d 6469 05bc 40ca 563d
000000f0: 15f4 a53c 1c34 5ebd bbc2 443d 1823 a93c
00000100: 7c19 5bbd c4f8 56bb c03e e9bc 683c 253c
00000110: 6381 033d f0d9 7e3c 8637 13bd d03f 1cbd
00000120: 7ead a73c 25d0 fb3b 79f2 88bd c28c 053b
00000130: 1e85 173c 1cce 0a3d e3f7 e4bd fff2 393d
00000140: a6c2 8fb9 7574 c03c 0a23 6abd 4bb0 17bd
00000150: e715 843a 3b57 2b3b ddfe 833b 56f0 93bc
00000160: ca8d 56bd 3653 b2bb 4717 6fbc 6d8b 90bd
00000170: 6f7c 3a3c cd38 043d fa98 e83c c742 b33c
00000180: 5243 8c3c edab ba3c e95c 0f3d 6a3e 533d
00000190: 6a9b ce3c c4e2 eb3c 8aa9 b3b9 c643 38bd
000001a0: 918e dc3c ec39 2c3d 566c 913c 4131 473c
000001b0: e73c e93c b280 973c 8749 b83b 76eb ae3c
000001c0: 6ddc 0e3d ffed 85bd a2f9 c23c a494 153d
000001d0: cca4 0e3c ff75 7bbd 379d 27bd d3c4 f1bc
000001e0: 017d a9bb 097e 223b 1e02 0f3c c647 223c
000001f0: c8e9 f63a af46 82bd e36c 393b 0246 93bc
0.0039580106 0.0029231103 0.02143987 0.02220906 0.029032856 0.037003774 -0.005475292 0.036292538
0.015945667 -0.059153236 0.018841028 0.019517336 -0.046644434 0.031304978 0.058578752 0.046503127
-0.057963755 0.034965593 0.03659729 -0.036415055 -0.011632712 -0.025087899 0.016111227 -0.026885243
-0.026266685 0.0022649204 0.023391105 -0.020927874 0.025452245 0.029873224 -0.013858849 0.002030217
-0.070857756 0.03819084 0.009196826 0.003861166 0.013071916 -0.045170058 -0.028505158 -0.046657838
0.010000176 0.021829627 -0.008746858 -0.0073026875 0.0090301875 0.049128354 -0.004751688 0.029136471
-0.00403668 0.039393913 0.030353146 -0.010351532 0.02323867 0.0042565227 -0.04445849 0.02150708
-0.0027791043 0.038467865 -0.008142803 0.052438974 0.020257989 -0.054248914 0.048037272 0.020646617
-0.0534911 -0.0032802084 -0.028472304 0.010085203 0.032105815 0.01555489 -0.035941623 -0.038146794
0.02046847 0.007684725 -0.06686873 0.0020378088 0.009248046 0.033887967 -0.11180093 0.045397755
-0.0002742011 0.023493031 -0.057162322 -0.03703336 0.0010077328 0.0026144523 0.004028185 -0.018058937
-0.052381314 -0.0054420484 -0.014592952 -0.07057843 0.011382206 0.032280732 0.028393257 0.021882428
0.017121945 0.022787059 0.035000715 0.051573195 0.025220592 0.028794654 -0.00034267857 -0.04498651
0.02692345 0.042047426 0.017751854 0.012157739 0.028471423 0.018493984 0.0056239995 0.02135251
0.034878183 -0.06539535 0.023800675 0.036518708 0.008706283 -0.061391827 -0.040921416 -0.029512798
-0.0051723723 0.002479436 0.008728532 0.009904807 0.0018837983 -0.06361138 0.0028293661 -0.017977718

network_body._body_endoder.seq_layers.2.weight f4 [128, 128]
00000000: 16fa 93bd 6312 36bd 0429 e0bb bb5b c83c
00000010: 69a6 873d 1118 6d3e 20ff b23d 4f31 023e
00000020: f917 cc3b a8ec 303d 85ff 203d 62f9 59be
00000030: 5b90 94bc a5bb 843c e3e8 853d fc95 f23d
00000040: 02cf 3f3d 2e76 43bd 164e 20bd 944d 6c3b
00000050: 7903 34be 4c6d 84bd ecb6 19be ff17 093e
00000060: a9cf 593d 2386 be3c c5ca 263d 13be e63d
00000070: ce7d e23c aa09 4b3e f2f2 adbc c8a9 cabd
00000080: 9ad8 1f3e c5e3 9e3c 8a7f 76be 74d4 8c3e
00000090: 8ca1 61bb bf52 3fbc b5e9 39be a030 2c3e
000000a0: d097 bdbd 85bf 91ba d64f 32be fafd 2cbe
000000b0: 4894 edbd 5db8 c53d 0fe9 b23a 0351 67be
000000c0: 1118 103c 1970 8f3d eafe d0bd 14bc 26bd
000000d0: 4a8c 143d e039 28be ce51 08be 8ea8 793e
000000e0: 85c1 993d f52f 76bd 95fe bb3d bed3 243c
000000f0: 987e 1fbd 14a7 ba3c ad92 2e3e 6d9a 04be
00000100: 216a debd eab0 05be a7b5 8abd 8645 9ebd
00000110: 1938 dabc b3ed 5fbc 604d 89bc d7b4 dd3c
00000120: c818 1e3d 250d 363d 9be9 343d e4fb dabd
00000130: 9f0c 50bd 41c0 03bd 5928 16bd dfaf 143e
00000140: de7d 2a3d f9a2 e9bd 1bc9 6a3d e522 61bd
00000150: 4da0 83bd 4f12 843b e3e3 8bbd 1086 893d
00000160: 0500 7fbc b2da 003d 478d a4bd d73a e8bd
00000170: a625 b9bd bfe5 a83d b5c4 9abd de41 4d3e
00000180: d2aa 56bc 62bb 0e3e c9c5 f73d 120a 05bd
00000190: ffb9 97bb f82e c63d 9955 29bd 8c57 423d
000001a0: f145 64bc c99e f83d a181 1a3c 6eca febd
000001b0: 9e25 3d3e 76e2 673e 8e45 2cbe 2971 13be
000001c0: 0435 0d3e 00f7 1bbd 9021 ac3d 2a64 1bbd
000001d0: a209 be3d 33b1 7cbd e0c3 f1bd a4d7 f63d
000001e0: 166e 0fbd 3b64 25be f2cc 3ebd d9cb 9bbd
000001f0: 6e44 103e 78ca 793d bbf5 afbd fb60 39bd
00000200: 9e49 aa3d 1efa d73d 2f93 993e 5947 bebc
00000210: c5e5 6abe 8187 033c bcee d53d 5c80 193d
00000220: e7c0 523e bac7 fbbd 563c c6bd 9874 e53d
00000230: f28d 863d 34ab 293e 066e 32be a26a 1cbe
00000240: e9ee 99bd 84fc 22bd 31f0 79bc 9832 c73b
00000250: efcf d33b 8a4c 733d b723 493e d5b0 04be
00000260: 10ce 84bd f153 c83d 2c77 253d fc2a 9b3d
00000270: 4403 993d 953b cf3d 071a 7e3e 58a7 0d3d
00000280: 1b21 67be 1023 b7bd 1dd9 3a3d 509b 83bd
00000290: c57d a83c 0d98 553d 2b72 5a3e 1d12 013d
000002a0: a259 083e 56c5 0abe d487 833d 4b20 073d
000002b0: 3adf f1bc 4322 cd3d c0d2 61bd 6f92 64bc
000002c0: 7e48 863d 5763 b6bd 9b07 e03d 3d35 fd3b
000002d0: edf1 04be d83c d8ba d3f2 043e 5083 94be
000002e0: 77ae 29bd 3e07 cf3c 46a8 26bc 7010 0a3d
000002f0: 1b64 38bd 55e7 37bd c9dd 633d 7ba5 ec3d
00000300: 7da5 343e 3eb9 92bc e2df a0bd 9421 31be
00000310: 79bb 043e 528c de3c 83d8 56bc 2e08 70bd
00000320: 0bbc 093e 5a52 16bd aae1 6b3e 1d56 91bd
00000330: 0452 9e3d 215e 223d 4c8c b33d 1969 a5be
00000340: 9f11 6fbe b4f9 52bb 12f2 08bc ef84 30be
00000350: c305 c33c c9f4 2f3c a021 e93c 4d7b 2ebe
00000360: b727 cabc 0e87 603d a6fa 6cbd 2181 823b
00000370: 8133 653c 6822 0cbd d3c2 913c ea73 81bd
00000380: b94d a1bc c683 553d b4d4 39bd 55d5 abbd
00000390: f783 663d 5340 273e 53bb 51bd 4c7f 5f3e
000003a0: 89ba efbd 75ad 66bc 35b2 653e 1671 183e
000003b0: 7d54 6ebd 7243 fdba d026 33bc be60 d0bd
000003c0: 5abb 8ebd bdf1 443e 3bba c23b 9574 da3d
000003d0: c7d9 04be 90bc 123e b3a6 16be 5a93 44be
000003e0: 474d 7e3d e5c2 5ebd 2a2d afbc 28fe 07be
000003f0: 9c08 bf3d 7593 663e b0be 073d 4e13 6bbd
-0.072254345 -0.04445113 -0.006840827 0.024457803 0.06623537 0.23153712 0.087400675 0.12714122
0.0062284437 0.043194443 0.039306182 -0.21286538 -0.01813524 0.016202757 0.0653856 0.118450135
0.046828277 -0.047720127 -0.03913697 0.0036056982 -0.1757945 -0.06466159 -0.15011185 0.1338806
0.053176556 0.02325732 0.04072072 0.112667225 0.027647879 0.19827905 -0.02123401 -0.098956645
0.1560997 0.019395718 -0.2407209 0.2750584 -0.0034428565 -0.011677443 -0.18155558 0.16815424
-0.092574716 -0.0011119699 -0.17413267 -0.1689376 -0.11600548 0.09654305 0.0013649779 -0.22589497
0.0087948 0.07003803 -0.10204871 -0.04070671 0.036266603 -0.16428328 -0.13312456 0.24380705
0.07507614 -0.06010433 0.09179417 0.010060249 -0.03893909 0.022784747 0.1704814 -0.12949534
-0.10860086 -0.13055769 -0.06772929 -0.07728104 -0.026638078 -0.013667512 -0.016760528 0.02706377
0.038597852 0.04444613 0.044168096 -0.106925756 -0.050793286 -0.03216577 -0.036659572 0.14520214
0.041623943 -0.11408038 0.057320695 -0.05496492 -0.06427059 0.004030503 -0.06830575 0.067150235
-0.0155639695 0.031458564 -0.08034759 -0.11339348 -0.09040384 0.082469456 -0.0755705 0.20044658
-0.01310225 0.13938668 0.120982714 -0.032480307 -0.0046303268 0.09676927 -0.041341398 0.047446772
-0.013932691 0.12139661 0.00943032 -0.12440954 0.18471381 0.22644982 -0.16823408 -0.14398636
0.13789755 -0.038077354 0.08404839 -0.03793732 0.09279181 -0.061692428 -0.11804938 0.12052849
-0.035017096 -0.16151516 -0.04658217 -0.0760724 0.14088604 0.060984105 -0.08591791 -0.045258503
0.083148226 0.10545753 0.29995105 -0.02322738 -0.22939213 0.008027912 0.104459256 0.03747593
0.20581399 -0.12293954 -0.09679477 0.11203879 0.06570043 0.16569215 -0.17424783 -0.15275052
-0.075162716 -0.0397916 -0.01525502 0.0060790293 0.0064639966 0.059399165 0.1964253 -0.12958081
-0.06484616 0.097816356 0.040396854 0.07576558 0.07471326 0.10118786 0.24814616 0.03458342
-0.22571222 -0.089422345 0.04561721 -0.06426108 0.020567784 0.05214696 0.21332614 0.031511415
0.13315442 -0.1355184 0.064223915 0.03298978 -0.029525388 0.100163005 -0.055132627 -0.013950928
0.065567955 -0.08905666 0.10938951 0.0077272938 -0.12982912 -0.0016497625 0.12983255 -0.29006433
-0.04142615 0.025272008 -0.010171955 0.033707082 -0.045017343 -0.04489835 0.055631433 0.115550004
0.17641254 -0.017910596 -0.07855202 -0.17297965 0.1296214 0.02716652 -0.013113144 -0.05860155
0.13450639 -0.03669963 0.23035303 -0.07096503 0.07730487 0.03964055 0.08766994 -0.32306746
-0.23346566 -0.0032192292 -0.008358495 -0.1723821 0.023806458 0.010739514 0.028458416 -0.17039223
-0.02467714 0.0548163 -0.057856224 0.0039826785 0.01398933 -0.0342125 0.017793095 -0.06320937
-0.019690381 0.052127622 -0.045368865 -0.08390299 0.056278195 0.16333131 -0.051204037 0.21825904
-0.11705501 -0.014079441 0.22431262 0.14886889 -0.058186043 -0.0019322468 -0.010934547 -0.10174702
-0.06969328 0.19232841 0.0059426106 0.106667675 -0.129737 0.14329743 -0.14712028 -0.19196835
0.062085416 -0.054385085 -0.02138384 -0.13280547 0.09327814 0.22517188 0.03314084 -0.057391457

network_body._body_endoder.seq_layers.2.bias f4 [128]
00000000: 2643 8c3c bf67 09bc d45d 6e3d 5190 e2bc
00000010: 1a6e 803a e28c 443d ba41 b6bc 2faf 8ebc
00000020: 132f ea3c 75af dd3c af51 513c ce5e 4d3d
00000030: 79e2 1fbd 2670 3e3d aa25 27bd e885 21bd
00000040: 0570 54bd 023e b43b eefc 0a3d 5b1d 7dbd
00000050: 5df2 773c b1ff 173d 75eb 6f3d 844e 5bbd
00000060: 7b85 443d 6455 d53b 796a 463d 5c8e 0c3d
00000070: 28e7 443d e22f 6ebd b027 6c3d 22c9 0b3d
00000080: de95 5dbd 279e 4c3c fbf4 1ebd 3652 19bb
00000090: 1550 0ebd a6ff 863a c88a 6abd 392c 803d
000000a0: 717d 583d 810f 3fbd f867 393d dd30 18bd
000000b0: a66c 33bd dc6a 83bd 77b1 80bd 655c eabc
000000c0: 73d5 3a3d 50aa 153d 0200 863c 0c32 efbc
000000d0: e768 123d 7373 373c bb04 ae3c d459 3f3d
000000e0: a5bb 00bc d87f 423c 6cbf 173d 39ef 293d
000000f0: 0baf 4b3d e214 21bd ed53 263d c9b1 2c3d
00000100: 0802 c93c 449e f4bc 5a46 dcbc 2f7e 1ebd
00000110: aad6 373d 2769 59bd 09eb 35bd 7781 45bd
00000120: 2c8e adbc 2d28 5e3d f576 45bd 9bd5 50bb
00000130: 13ee 91bc 8034 32bd 57b4 8cbd fb51 df3c
00000140: 463d 3dbd 94e9 01bd 986f 293d cd97 89bd
00000150: 482b 713c 4891 40bd 2e29 46bd 9f55 0a3c
00000160: 4c70 a1bc 875a d43c eee3 8e3d 4f79 b6bb
00000170: b88b 0a3d 7a62 5f3d d52e 543d 0fb7 c13b
00000180: caba ed3c 5965 3a3d b50d 6a3d 322d 2f3d
00000190: ca56 2dbd 9649 1fbd adde 283d 54ab 473d
000001a0: 04f9 773d b693 f23b 85aa 1c3d 9346 523d
000001b0: c958 d13c ea4e 17bd 8297 bfbb f876 0c3d
000001c0: 3b72 ea3c 9310 0fbd 3644 a6bc 40fd 613d
000001d0: 938e 063d 1ba5 523c ca1c e23c 7bf8 2dbd
000001e0: 6d12 fdbc 7e23 373d de23 b73c 5081 35bd
000001f0: a6d9 533b e8ff 113d ae7f 843c a861 f23c
0.017121863 -0.008386551 0.05819495 -0.027656706 0.0009798438 0.04798592 -0.022248138 -0.017417518
0.0285869 0.027061203 0.012775823 0.05013924 -0.03903434 0.04649367 -0.040807404 -0.039434344
-0.051864643 0.005500556 0.03393262 -0.061795574 0.0151334675 0.03710908 0.05857416 -0.053541675
0.04797886 0.0065104235 0.048441384 0.034315452 0.04807201 -0.058151133 0.057655036 0.034127362
-0.054098003 0.012488878 -0.03880785 -0.0023394949 -0.03474434 0.0010299578 -0.05726126 0.06258435
0.052854005 -0.046645645 0.045265168 -0.037155975 -0.043804787 -0.06416866 -0.06283849 -0.02860851
0.045613717 0.036539376 0.016357426 -0.029198669 0.035744574 0.011196959 0.02124249 0.046716526
-0.007857238 0.011871301 0.03704779 0.041487906 0.04972748 -0.039326556 0.04060738 0.042161737
0.024537101 -0.029860623 -0.026889015 -0.038694557 0.044882454 -0.053078797 -0.0444136 -0.04821917
-0.021185957 0.054237533 -0.04820915 -0.00318656 -0.017813718 -0.0435071 -0.068703346 0.027260771
-0.046201013 -0.031716898 0.04136619 -0.06718407 0.014719792 -0.04701355 -0.048379116 0.008443265
-0.019706868 0.025922073 0.06977068 -0.0055686603 0.033824652 0.054537274 0.051802475 0.005911715
0.029019732 0.04550681 0.05714198 0.04276771 -0.042319097 -0.038888536 0.041227985 0.048747376
0.060540214 0.0074028624 0.038248558 0.051336836 0.025555031 -0.036940493 -0.0058469186 0.034293145
0.028618922 -0.034927916 -0.020296197 0.05517316 0.032850813 0.012856747 0.027601618 -0.042473298
-0.030892575 0.044711582 0.02235597 -0.044312775 0.0032325773 0.03564444 0.016174164 0.029587582

action_model._discrete_distribution.branches.0.weight f4 [3, 128]
00000000: 9f71 d1bc 20c6 aa3c b028 aebc 5632 1f3d
00000010: b54d 1a3d 04ec c63a f618 533d 2f97 123c
00000020: 1567 0bbd 5fd2 b6bc 6499 65bc 68da ebbc
00000030: 71ba 673d 9bae 36bd 2c82 4a3d 088b 513d
00000040: 1d70 893d dd5e a33c 5aea 69bc c4af 263d
00000050: d04d 1abd 4b58 adbc 6156 adbc 39e9 813d
00000060: bbfa 23bd da48 c2bc dbbf a1bb ae2f ddbc
00000070: 883a 9fbc 2eef 673d 2a24 75bc 9577 a5bc
00000080: 9423 4e3d 9dfa 773c 717e c33c 3fe1 9b3b
00000090: 6092 7f3d 97d7 043d b56a 6a3d 84dd fcbc
000000a0: bb31 4ebc 9071 453d edc0 83bc 8042 673d
000000b0: c442 3c3c ee4d 153d 6219 613d 69e6 fa3c
000000c0: b201 04bd 311e 60bd d1a9 7a3c 2681 423d
000000d0: 9f1d eebc 7f74 563c 1653 8b3c f02a bcbc
000000e0: 1213 c63c d3e3 3f3c 23a7 f3bc a45b 593c
000000f0: 2c53 0abd 3dda eb3a 713b 26bd c076 8cbc
00000100: 15c7 203c 7ada 3a3b 84fc b43c ce4e 803d
00000110: 7845 28bd 0b3c b03b c3e8 3b3c 4695 f13c
00000120: be78 f93c 5b03 e1bc 7b46 083d ea2e 233d
00000130: 8080 bb3c 0caf 1d3d 2e14 703d 7d3c 943b
00000140: 06e4 503d e406 9b3c 709a 5abc dbc2 803d
00000150: 6d64 2ebd df77 6e3d 4274 843d ce48 9cbc
00000160: ca31 023d 8ced 15bd 1a3f c8bb 838a 933c
00000170: 92a5 f5bc 2fb3 3dbc 17c8 0cbd 7c9a 13bd
00000180: 6669 dbbb f5ba a3bc f626 8fbc 680b 01bd
00000190: b71b 913d 9619 3f3d e118 3bbc 03e0 8fbc
000001a0: 19c6 bdbc a5c7 9b3b 425b 1ebd cb6d 2cbd
000001b0: c3a7 0fbd 8f58 883d 7dfb 593c 65ac 3abb
000001c0: 00c5 11bd 38cc 0a3d 7860 7e3d 36ee 9ebc
000001d0: d2a9 8bbc 4ee2 493c 97fb b53a d3e3 843c
000001e0: b30b 563d c2ad 23bd 27fa d6bc 7fe6 543d
000001f0: c984 25bd 8fc5 c6bc 410b 70bc e88f d2bc
00000200: 4e77 0c3d 15d6 13bd b3c0 3a3d 5a24 9dbd
00000210: 684d a3bc a966 8c3c cd95 9dbd 54d3 13bd
00000220: d6b9 c23c c30b 5bbb a91b bdbc 2324 823d
00000230: c3a7 dfbd 1de6 653d 1a90 bdbd d8b3 b2bd
00000240: c9c8 9dbd c58f f5bb 5d2e 1d3d dee2 b2bd
00000250: 72e8 1a3b 9098 4b3d 3418 563d b500 a0bd
00000260: 1ef0 5e3d b983 01bd 033a d93c 7b6a 933c
00000270: d675 393d 41b6 c7bd 51a3 663d 299d 773d
00000280: a482 b4bd 384a fdbb 93c4 a5bd 41e3 b7bc
00000290: 3ae9 a4bd 3f39 fcbb 6c69 bdbd c021 8d3d
000002a0: a336 373d e29c d1bd e3f1 653c 7d76 c5bd
000002b0: 9593 97bd 92af a8bd 19ba a1bd ac62 32bd
000002c0: 6eb7 403d b5ab 4d3d 9749 0b3c 4ee5 85bd
000002d0: 0903 0f3d b705 2e3b 98d1 583b 7989 683d
000002e0: e1b9 78bc a564 03bd f763 513d 5896 5d3c
000002f0: e407 8e3d 4b79 61bd f9af 483d 2493 543d
00000300: a136 8e3c 9506 a3bc 757f 64bd f23f c9bd
00000310: 455d 3b3d 35fb 6cbd e35f 21bd 2ed2 c9bd
00000320: 529f 97bd 13ea 793d 8c61 c5bd b74a 44bd
00000330: b65c 3ebd 6f0b d3bd 752b b1bd 9eab 89b9
00000340: 24ee b4bd 28f2 3bbd ddaa 413d 1a0f 85bd
00000350: f0b0 d03c e2d9 a0bd fd7f b1bd d776 c43c
00000360: f931 6ebd 1beb 1c3d 49fc 433d f036 96bc
00000370: e226 3d3c f477 6c3d c84f 5c3d 4e9d 803c
00000380: b8b2 433d 90a5 a33c 6798 7f3d ad16 263d
00000390: 928a a1bd 06bd acbd 88de 383d e589 783d
000003a0: 82c5 403d cc82 9e3c 459f 663d c4f1 803d
000003b0: d211 033d 895c 9dbd c282 003c dddc 293d
000003c0: 1e43 653c ee4b c1bd dcc1 89bd 51bb 093d
000003d0: d679 003d 91bf fd3b 272a 613b be3a 98bd
000003e0: 8951 c7bd d9d2 723d f4df ca3c 150e d6bd
000003f0: 773a 643a d27d 453d dad5 fc3b e945 263d
-0.025566874 0.020846426 -0.021259636 0.038866363 0.037671763 0.0015176539 0.051537476 0.008947178
-0.034033854 -0.02231711 -0.014013622 -0.028790668 0.05657429 -0.04460011 0.049440548 0.05115798
0.06710837 0.019942695 -0.014277065 0.040694967 -0.037671864 -0.021160265 -0.021159353 0.06343312
-0.040034037 -0.023716379 -0.004936201 -0.027000275 -0.01943709 0.056624584 -0.014962235 -0.020198623
0.0503269 0.015135434 0.023864003 0.004757076 0.062395453 0.032432165 0.05723067 -0.030867346
-0.012585099 0.048204005 -0.016083205 0.056459904 0.011490528 0.036451273 0.054955848 0.030627446
-0.03222818 -0.054716293 0.015299276 0.047486447 -0.029066859 0.013089298 0.017007392 -0.022969693
0.024179015 0.011712032 -0.029742783 0.013266478 -0.033770725 0.0017994117 -0.04058403 -0.017146468
0.00981309 0.002851157 0.022093065 0.06265031 -0.041081876 0.0053782514 0.011469069 0.029490124
0.030453082 -0.02746742 0.03327034 0.039839663 0.022888422 0.038497016 0.058612995 0.0045238123
0.05099871 0.018924184 -0.013342485 0.06287166 -0.042576242 0.058219787 0.06467487 -0.019077685
0.031785764 -0.036603495 -0.006111038 0.018010383 -0.029986177 -0.011578365 -0.034370508 -0.036036
-0.006695914 -0.019986609 -0.017474633 -0.03150502 0.07085364 0.04665526 -0.011419506 -0.017562872
-0.02316575 0.004754024 -0.03866125 -0.042096894 -0.0350721 0.06657516 0.013304588 -0.0028484103
-0.035588264 0.033886164 0.06210372 -0.019400697 -0.01704875 0.012322022 0.0013884184 0.016221916
0.05225725 -0.03996063 -0.026242329 0.05197763 -0.040409837 -0.024264125 -0.014651121 -0.025703385
0.034293465 -0.036092836 0.04559393 -0.07672949 -0.019934371 0.017138796 -0.07694588 -0.03609021
0.023770254 -0.0033423759 -0.023084478 0.06354549 -0.1092067 0.056127656 -0.09256001 -0.08725709
-0.07704312 -0.0074939453 0.038374294 -0.08734678 0.0023637083 0.04970604 0.052269176 -0.07812635
0.054428212 -0.03161976 0.02651692 0.01799511 0.045278393 -0.09751559 0.056308094 0.060452614
-0.0881398 -0.007729795 -0.08094134 -0.02244723 -0.08052297 -0.007697254 -0.09248623 0.06891203
0.04472984 -0.10235001 0.014034721 -0.096417405 -0.07401196 -0.082366124 -0.078968234 -0.043551132
0.047049932 0.05021258 0.008501432 -0.06537877 0.034915004 0.00265537 0.0033083912 0.05677173
-0.015181036 -0.032078404 0.051120725 0.013524614 0.06935099 -0.055047315 0.048995946 0.051898137
0.017360033 -0.0199006 -0.055785615 -0.0982665 0.045743246 -0.057856757 -0.039398085 -0.09854542
-0.07403435 0.061014246 -0.09637746 -0.047922816 -0.046475135 -0.10304915 -0.08650867 -0.0002625854
-0.08834484 -0.045885235 0.04728209 -0.06497021 0.025474995 -0.07854058 -0.0866699 0.023982449
-0.058153126 0.03831015 0.04784802 -0.018336743 0.011544915 0.057731584 0.053787023 0.015700009
0.04777786 0.019976407 0.0624012 0.04054897 -0.07887758 -0.08434491 0.045134097 0.06067838
0.047063358 0.019349478 0.056304235 0.06296113 0.031999417 -0.07683665 0.007843675 0.041470397
0.013993053 -0.094383106 -0.06726429 0.033625904 0.03136619 0.0077437838 0.00343574 -0.07433079
-0.097323485 0.05928311 0.024764992 -0.10451905 0.00087062217 0.048215695 0.007715923 0.040594015

action_model._discrete_distribution.branches.0.bias f4 [3]
00000000: 5340 68bd 9afc b63d e97e 73bd
-0.05670197 0.08934899 -0.059447203

action_model._discrete_distribution.branches.1.weight f4 [3, 128]
00000000: e0f4 353d bf58 63bd da0b d5bc c030 10bd
00000010: 5220 77bd 32b5 703b 7ba3 b2bc 55bc 5bbd
00000020: ac52 95bd b04d a5bd f1cf 6fbd 5ee4 ea3c
00000030: 4cc7 2fbb f8de 5f3c 4849 6a3b fac8 3cbd
00000040: c730 5dbc c898 a3bb 7586 c63b 4ca5 86b9
00000050: e06f 5fbd dbcd 823b 1f4b 6b3c b6e6 9c3c
00000060: 836f 013d c3c1 b0bd 7944 e33c cb86 703d
00000070: 95a0 b5bc e728 c8bb 0e16 823d 93b2 b23c
00000080: ab5b 61bc e267 a9bd ed86 17bd 7831 7fbd
00000090: 706d 003c 57ad 0abd 9405 96bb 5a48 983c
000000a0: a06d 2d3c f462 a6bb 5c47 153d 6d17 83bc
000000b0: e768 f9bc cb37 36bc 4eab b7bb bef1 0fbd
000000c0: a453 453d 02db d03c 8e64 5abd 4237 64bd
000000d0: 89e4 a23d 4004 9dbc 4d56 d3bd ece5 403d
000000e0: 006a 8cbd f38e 9dbd bcfd a83b bbe0 e6bc
000000f0: b7e3 433d 6802 22bd 6e3d 213d eaec 463d
00000100: 8f6a f6bc eb3a df3b e086 82bd 486a b0bc
00000110: 9d1b 9a3d c0a5 753c db15 bb3b cb2d 1fbc
00000120: c7e3 f1bb 1f5e 3d3d 968d 7dba 5a0b 6abd
00000130: a07a 06bd bb6a 81bc 4c91 aabb 37f8 60bd
00000140: 4a70 9fbc 7a80 303c cd3c 73bc bb17 cdbc
00000150: d0ca ddbc 20ae 93bc a04d 10bc 5e36 82bc
00000160: 31f3 05bd 0ea5 993b 3feb 373d c716 4bbd
00000170: e554 4e3b 43c3 0f3c 90a2 67bc 495b 9abc
00000180: b46f a73c 57f3 4d3d 0082 813c 0f93 1f3d
00000190: 22f3 62bc 8e99 1abb efc3 aebc 498d f73c
000001a0: f645 923a f9e4 7cbd d598 ee3b c539 8d3d
000001b0: 4649 18bd cd63 2dbd 7df7 41bd 7198 1cbd
000001c0: f2ec b03c 1635 13bd ee4e c7bc 16a4 453c
000001d0: d257 15bb fd16 a2bd 5980 b8bd ba2d 01bd
000001e0: 8b37 093b 3610 033d 06cf b2bc 9e65 29bc
000001f0: ede7 1ebc 968f 233c e2ff 02bb 4a4a 3ebd
00000200: 29cd 313c 41bb 003d 0d8b b1bd 0567 033d
00000210: 6feb 163b 8aeb c6bd cd24 073d ca6c 963d
00000220: 508a 0abc 4827 d2bb e7a0 3d3a a762 cc3c
00000230: f699 ad3b 6cf8 1fbb 7b76 48ba c68f 373c
00000240: 6f39 1a3c e0f5 0fbd f3dc 363d 9e81 363c
00000250: cd13 15bd c2e7 1fbb 74f5 2dbd 0f64 123c
00000260: fb11 993c e71b 9abb 3f4c 9ebd 163e 163d
00000270: e8cf 40bd ee66 df3c ed84 afbd 1c39 0c3b
00000280: 231f dd3c ce7a dbbc af3b 313d db4c c43d
00000290: 42b9 aaba 66fd a7bb 31f4 833c 4b4a dcbc
000002a0: effe 6dbd df0b da3c 21e2 cdbd 66d8 bd3c
000002b0: 7aaf 4f3d 495c ba3c dd70 803c c00b 5b3c
000002c0: 3efa 19bd 7818 83bd 5f76 2e3d 56d0 643d
000002d0: cb8e b4bc 2a65 743c b463 9c3d bdd9 bdbc
000002e0: 5f85 d93d 407e dd3a 94a6 88bc 8a16 6cbd
000002f0: 3cc6 0bbc 133f 253d 2d84 e3bb e5f5 48bd
00000300: 286e 71bc ddeb 703c 1bce 6c3d 84bc 1e3d
00000310: 5f46 043c 9d78 3e3c b611 c33c 0818 763c
00000320: f7b2 203d 2a2e 02bd 94b2 233c 4271 293c
00000330: 421b a53c 61c2 5cba 4e26 7f3c edef 353c
00000340: 199d ad3b 6158 a03c 4a25 263d 57a1 573c
00000350: 19e3 a93d 234f d83b 67bf d83a 1ad8 82bc
00000360: 8bad 253d d88b 0b3d 9be8 cfbd 7706 fbba
00000370: 15ef 463d 20bc c8bc e52d 53bd 84c0 25bd
00000380: c304 5939 b10e ddbd 2c9c aebc 4e51 4e3c
00000390: 9440 143c 72da f93b 88f1 f1bc 98e6 153b
000003a0: 0ac2 84bd c15b 813d a026 543c 53e0 6fba
000003b0: 4124 23bd 0ac9 fe3c e17d 6c3d 81db 22bd
000003c0: a70d 033d 76b9 da3c 2b67 0d3d 28cd 9fbd
000003d0: 3bcf e13c bb3f 93bc 9863 063d 23d2 3c3b
000003e0: c388 2f3d b51a 8d3c 310b 8bbd eeaf d23c
000003f0: d605 933d 9635 c23c 4486 433d 9af1 f2bb
0.044422984 -0.055504557 -0.026006628 -0.03520274 -0.060333557 0.0036729095 -0.02180647 -0.053646404
-0.07291159 -0.08071458 -0.058547918 0.028673347 -0.002682167 0.013664 0.0035749245 -0.046090104
-0.013500399 -0.004992578 0.006058509 -0.00025681627 -0.05455005 0.003991825 0.014361172 0.01915298
0.031600486 -0.08630707 0.027742611 0.0587223 -0.022171298 -0.0061083916 0.06351863 0.021813666
-0.0137547655 -0.08271767 -0.03699391 -0.062303036 0.007838592 -0.033856716 -0.0045783017 0.018589187
0.010585219 -0.005077714 0.036445007 -0.016002381 -0.03044553 -0.0111217005 -0.005605138 -0.035142653
0.04817547 0.025495056 -0.053318553 -0.05571676 0.07953746 -0.019167066 -0.10319195 0.04709427
-0.068561554 -0.07693281 0.0051572006 -0.028183332 0.047824588 -0.039553076 0.039365225 0.048565783
-0.030080108 0.0068124435 -0.063733816 -0.021535054 0.07524798 0.014993131 0.0057093925 -0.009715508
-0.0073818895 0.04623234 -0.0009672282 -0.057139732 -0.032831788 -0.015797963 -0.005205309 -0.054924216
-0.019462723 0.010772819 -0.014846039 -0.02503573 -0.027074248 -0.018027365 -0.00880757 -0.015895065
-0.03270263 0.0046888655 0.044902083 -0.04958227 0.0031483707 0.008774581 -0.014137879 -0.018842356
0.020439006 0.050280895 0.01580906 0.038958605 -0.013851913 -0.002359006 -0.021333663 0.030218737
0.0011159766 -0.061741803 0.0072814026 0.06895784 -0.037179254 -0.042331506 -0.047355164 -0.038231317
0.02159736 -0.0359393 -0.024329629 0.012063047 -0.002278794 -0.07914541 -0.090088554 -0.03153775
0.0020937647 0.03199788 -0.021827232 -0.010339169 -0.00969885 0.009982964 -0.0019988944 -0.046457566
0.010852137 0.03142858 -0.086691 0.03208067 0.0023028513 -0.09712894 0.03299408 0.073449686
-0.008455828 -0.006413374 0.0007233754 0.024949385 0.0052978946 -0.0024409546 -0.00076470495 0.011203712
0.009413107 -0.035146594 0.044644307 0.011139302 -0.036395837 -0.0024399613 -0.04247041 0.008934989
0.018685332 -0.0047030332 -0.077293865 0.036680304 -0.047073275 0.02727076 -0.085702755 0.0021396345
0.026992386 -0.026791956 0.04326981 0.095849715 -0.0013025182 -0.005126643 0.01610765 -0.026890894
-0.05810445 0.026616989 -0.10052896 0.023174476 0.050704457 0.022749083 0.015678817 0.013369501
-0.037592165 -0.064011514 0.042593356 0.055862747 -0.022040745 0.0149166975 0.07636204 -0.023175115
0.10621142 0.0016898587 -0.016680993 -0.057638682 -0.0085311495 0.040343355 -0.006943247 -0.04906263
-0.014735736 0.014704672 0.057813745 0.038754 0.008073418 0.011625436 0.023812156 0.015020378
0.039233174 -0.031782307 0.009991307 0.010341944 0.0201546 -0.00084212987 0.015573097 0.011104566
0.0052982685 0.019573392 0.040562905 0.013161025 0.082952686 0.0066012307 0.0016536535 -0.015972186
0.040448707 0.034068912 -0.10151788 -0.0019151707 0.04856785 -0.024503767 -0.05155744 -0.0404668
0.00020696507 -0.10793818 -0.021314703 0.012592627 0.0090486 0.0076249177 -0.029534116 0.002287304
-0.064823225 0.06316329 0.012948662 -0.00091505534 -0.039829496 0.031101722 0.057737235 -0.039760116
0.03199544 0.026699763 0.034522217 -0.07802802 0.027564636 -0.017974725 0.032809824 0.0028811775
0.042855036 0.017224649 -0.06789244 0.025718655 0.071788475 0.023707192 0.047735468 -0.007414055

action_model._discrete_distribution.branches.1.bias f4 [3]
00000000: a704 3f3c 7e34 8cbc 6f6a 653b
0.011658824 -0.017114874 0.0035006066
