Assets/results/T2/CarDriver/CarDriver-514905.pt (torch, 632126 bytes, 48 tensors)

discrete_act_size_vector f4 [1, 2]
000000 00 00 40 40 00 00 40 40
       3.0 3.0

network_body._body_endoder.seq_layers.0.weight f4 [128, 36]
000000 2c c1 c3 bd ee 62 3c 3d 26 10 85 3d 37 83 2d 3e
       -0.09558329 0.045992784 0.06497221 0.16944586
000010 25 91 b4 bd 21 f0 6d be ec 13 8c be fc 29 98 be
       -0.088167466 -0.23236133 -0.2735895 -0.29719532
000020 0e 5b a7 3d 16 f1 9e 3e a6 85 98 bd 70 7a 69 3e
       0.08171664 0.3104331 -0.074473664 0.22800612
000030 c0 8f 27 be f1 cd 4b 3e 10 c4 b6 3e 54 98 98 3d
       -0.1636343 0.19902779 0.3569646 0.07450929
000040 fb f8 af be 4f b5 4b 3d 5c 3b fe bd e2 ad 1d 3e
       -0.34369645 0.049733456 -0.12413666 0.15398362
000050 cd 70 37 3e 96 08 20 3e 9a 95 07 3b 39 2d 43 be
       0.17914124 0.15628275 0.0020688535 -0.1906022
000060 de 82 81 3d 32 05 83 3e 81 ad fa be e4 cc 24 be
       0.06323789 0.255899 -0.48960498 -0.16093785
000070 4b 4b a0 3e d8 a0 ad 3e d7 89 f0 3d 76 ff 30 3e
       0.31307444 0.33911777 0.11745041 0.1728495
000080 6f 49 0e be a9 79 bc 3d 9b 60 fa bc 69 f1 72 3e
       -0.138952 0.09202892 -0.030563643 0.23724903
000090 b8 aa 8b 3d 32 8f cf be f0 22 61 3e 45 79 02 be
       0.068196714 -0.40538937 0.21985984 -0.12741573
0000a0 f1 d0 25 3e 7f eb c7 be 41 4b bb bd 52 9f 11 be
       0.16192986 -0.39046857 -0.09145213 -0.14220932
0000b0 6b 4e 87 bd bf 8c 29 bd b1 18 dc 3d 68 ad 7e 3d
       -0.06606754 -0.04139399 0.10746897 0.06217709
0000c0 f0 55 2b be 20 da 8b 3d c4 44 43 3d b4 a0 f1 bd
       -0.16732001 0.068287134 0.047673002 -0.1179823
0000d0 1c 43 54 bd 42 be 86 3e f0 29 3a 3e 1a bf a2 be
       -0.051821813 0.2631703 0.1818006 -0.31786424
0000e0 1b 0e ac 3d 6c f8 51 3e 22 ba 43 3e fa 72 32 3e
       0.08401128 0.20504922 0.19113973 0.17426673
0000f0 8b 44 4e 3e 8c 24 f1 3d d8 55 91 be e4 19 ed 3d
       0.20143335 0.11774549 -0.28385806 0.11577204
000100 ab 8b 4a 3d 52 e4 04 3d da 84 1f be 44 05 32 3e
       0.049449604 0.032444306 -0.15578023 0.17384821
000110 0d 15 a3 3e 1b c9 b0 3d e5 ab ba 3e 7d 60 44 bd
       0.31851998 0.08632108 0.3645927 -0.04794358
000120 df 74 6e bd 54 83 db 3c 24 f1 67 be aa cc c1 3c
       -0.058216926 0.02679602 -0.22650582 0.023657162
000130 de 1d 0a 3e 4b dc b8 3d 23 66 16 3c ea dc a1 be
       0.13487956 0.090263925 0.009179625 -0.31613857
000140 c5 b3 e2 bc b0 59 34 3e 7d 0a 64 3e 1c 03 22 3c
       -0.027673611 0.17612338 0.22269626 0.009888437
000150 06 8c 78 3e 95 58 57 3e a0 6d 0a 3e ee 4a 7f 3d
       0.24272165 0.21029885 0.13518381 0.062327318
000160 fa 1c 22 3e 78 fb e5 bb fa e7 c7 be d0 9a 9f 3e
       0.15831366 -0.007018503 -0.39044172 0.311728
000170 fb 51 93 be f5 dc 07 be d2 53 7f be 85 1b 98 bd
       -0.28773484 -0.13267882 -0.24934319 -0.07427124
000180 3d 18 04 3d a9 95 65 3e 09 f8 8b bb b6 50 25 3d
       0.032249678 0.22420372 -0.0042715115 0.040360175
000190 e5 b6 5a 3d e6 ec 15 3e d4 40 8d 3d c4 6b 2f 3c
       0.053397078 0.14641151 0.068971306 0.010706846
0001a0 ed 7f a0 bc 2a 69 0f 3e 07 ea e6 bd d7 45 01 3e
       -0.01959225 0.1400496 -0.11275106 0.12624298
0001b0 e0 7b 7d bd 82 2c ce bd e7 06 53 be 65 5d 17 3d
       -0.061885715 -0.10067083 -0.20608102 0.036954302
0001c0 1b 32 59 3e 4a aa 89 3e 21 ea 4d be ef 26 73 3d
       0.2121052 0.26887733 -0.20108844 0.0593633
0001d0 98 b6 92 bd 35 c7 2a 3e 1c 1a 4d bd af 05 b0 3b
       -0.07163733 0.16677554 -0.050073728 0.0053717713
0001e0 ae c1 0a 3e 5b d8 f4 3d 5a 61 2b 3d eb 27 48 3e
       0.13550445 0.11955329 0.04184089 0.19546477
0001f0 d5 96 93 bd aa 31 9e 3d c9 da 25 3e 2e 12 ab 3e
       -0.07206503 0.077243164 0.16196741 0.33412308
000200 df db 8d 3e 55 45 7d be 83 f3 28 3e 95 f8 ae be
       0.2770681 -0.2473348 0.16499142 -0.34174028
000210 41 14 ab be ea 63 5e 3d c7 a2 43 ba 9b f4 75 be
       -0.3341389 0.054294504 -0.00074629154 -0.24019091
000220 25 bd b9 3b 3f 4e a3 be f2 b4 07 3e 8c 78 31 bc
       0.0056682997 -0.31895635 0.13252619 -0.010831963
000230 c6 70 d4 bd 4c f8 c7 be cf c4 5c 3d b9 31 8d be
       -0.10373072 -0.39056623 0.05389863 -0.27576998
000240 5d 37 28 3e 39 ee d5 bd 38 c4 1d 3d 6e 0e f8 3d
       0.1642737 -0.10445828 0.038517207 0.12112127
000250 0f 06 8a be ad 9e 32 bd 87 f9 fb 3c 30 52 8a be
       -0.26957747 -0.043608356 0.030758632 -0.2701583
000260 c4 84 32 3d d5 a2 07 be bd 82 2e 3e da 47 1f 3d
       0.043583646 -0.13245709 0.1704206 0.038886882
000270 57 8a 59 bd 91 1d 1c 3d fa 3d 6e 3e f7 f1 c7 3b
       -0.053110447 0.038114134 0.2326583 0.0061018425
000280 16 ea 97 3e 3f c9 76 3e ed 22 8c 3e d6 09 8a be
       0.2967078 0.24100207 0.27370396 -0.2696063
000290 2d 2c d4 3e 57 5b 94 3e 7e f5 cf bc 42 3d 94 3d
       0.41439953 0.28975937 -0.025385614 0.072382465
0002a0 d4 22 95 bb ff d5 0e 3e 5e 39 81 3e f0 05 ec 3d
       -0.004551271 0.1394882 0.2523908 0.1152457
0002b0 32 f9 8d 3e 3d d5 48 be 88 a1 3d 3e 53 aa 0f be
       0.27729183 -0.19612594 0.1851865 -0.14029817
0002c0 44 cf a1 bc 68 20 12 3e df 4f 9e bb 8c 50 d4 3c
       -0.019752152 0.14270175 -0.0048312987 0.025917314
0002d0 fe f9 6d bd 68 d4 09 3d 0e 35 00 3d a9 00 c8 bd
       -0.05809974 0.033649832 0.031300597 -0.09765751
0002e0 84 28 05 3e 95 45 f6 bd b4 e7 02 be 6e 44 23 3d
       0.13003737 -0.120249905 -0.127837 0.03986018
0002f0 e2 02 cc 3d 08 c7 d2 3d f2 f2 2c be d8 56 21 3e
       0.09961487 0.102918684 -0.16889551 0.15755785
000300 1a a6 f4 bd 79 5b 93 be 67 03 87 3e 0a 49 33 bd
       -0.11945744 -0.28780726 0.26369783 -0.043770827
000310 19 c6 3c be 0b d6 ab be 65 52 02 be e3 8a de 3d
       -0.18434943 -0.3356174 -0.12726744 0.10866334
000320 b2 5b 41 bd 66 2d 31 3e a7 d1 f2 bd 58 02 95 bd
       -0.047206588 0.17302474 -0.11856394 -0.07275838
000330 94 d0 72 3e bb 2c 86 bd 38 e4 04 be 80 f6 9d 3d
       0.23712379 -0.065515004 -0.12977684 0.07713032
000340 e0 98 c7 bc 11 61 ee 3d 61 90 aa 3d bc 82 d4 bc
       -0.024364889 0.11639608 0.08328319 -0.025941245
000350 24 e8 bf be 45 b8 5d 3e 79 a2 4b 3e 61 01 e0 3d
       -0.37481797 0.21652324 0.19886197 0.10937763
000360 f3 8e 41 bc 8a dc a5 3d 6c 30 07 3e b2 d8 69 bc
       -0.011813867 0.08098705 0.13202065 -0.014272856
000370 cb cb 6d 3e ce ac 9c bd 1e b8 1b 3e 82 6d 4f 3e
       0.23222272 -0.076501474 0.15206954 0.20256618
000380 08 0e 04 be ed 18 9c bd 0e 21 83 3d de 55 31 3c
       -0.12895977 -0.07621942 0.06402789 0.010823695
000390 f1 ba 9e 3d df e9 1c bc a9 78 44 3d 6b 8f b6 bb
       0.077505 -0.009577244 0.047966633 -0.005571296
0003a0 67 79 0f bd bb 65 6a 3e f5 74 f7 3d b4 24 47 3e
       -0.035027888 0.2289037 0.12082855 0.19447595
0003b0 f0 6b 55 3e 05 45 58 bd b7 2b 23 3d 73 f2 82 bc
       0.20841956 -0.052800197 0.03983661 -0.01598475
0003c0 71 05 d2 3e 06 b4 67 be 9f 48 5c bd 71 96 2a 3e
       0.41019776 -0.22627267 -0.053780194 0.16658951
0003d0 c2 9a c0 be 57 0c 37 be 21 00 60 3e f9 70 8d bd
       -0.3761807 -0.17875801 0.21875049 -0.069063134
0003e0 cf c9 01 be 2a 9b d5 3c ce 84 87 3c da b8 2b 3d
       -0.1267464 0.026074965 0.016542818 0.041924335
0003f0 54 25 65 be d7 00 74 3e d3 e1 4e 3b 42 c0 a4 bd
       -0.22377521 0.23828445 0.0031567707 -0.08044483

network_body._body_endoder.seq_layers.0.bias f4 [128]
000000 24 dd 24 3d d8 4e 2e 3b d6 d9 02 3c 07 6b 7e 3c
       0.04024996 0.0026597288 0.007986506 0.015528447
000010 2b 73 2f 3d 22 43 a9 3c 74 da b2 3c cc b9 ba 3c
       0.042834442 0.020661894 0.021832682 0.022793673
000020 3a 2c f8 3c 17 36 0f 3d 68 40 e8 bb 70 52 04 3d
       0.030294526 0.034963693 -0.007087756 0.03230518
000030 c1 58 09 3c 24 61 bc 3c 64 33 b4 3c 24 73 aa 3c
       0.008382977 0.022995539 0.021997161 0.020806856
000040 12 3d 80 3d a4 da 07 3d 48 f3 42 3c 73 02 da 3b
       0.06261648 0.033167496 0.011898823 0.006653124
000050 12 a9 22 3d 27 0f f5 bc f2 1b 9c bc 0d 6b b1 3c
       0.03971202 -0.029914452 -0.019056294 0.021657491
000060 4c 07 80 bb 2f 63 1c 3d 62 88 04 3d f4 13 84 3c
       -0.00390712 0.038180526 0.032356627 0.016122796
000070 5e cd 55 3d cd c9 61 bc a1 bd 68 3c f9 ec 59 3c
       0.052197807 -0.013781023 0.014205367 0.013301128
000080 bf d7 f2 3c 4a c3 b7 3c b4 de 2f 3d 62 5c 97 bb
       0.029643891 0.022431988 0.042936996 -0.004619167
000090 fc fe 9b ba 47 a1 9b bb bd bf cd 3c b0 1a a5 3c
       -0.0011901553 -0.0047494504 0.025115842 0.020154327
0000a0 2d 72 09 3d 4f fe 92 3c 75 65 43 bb 2f d1 ad 3c
       0.033556152 0.01794353 -0.0029815112 0.02121791
0000b0 e8 6a 02 3c 43 25 0d 3d 94 5d e4 3c f4 1c 9f 3c
       0.007960059 0.034459364 0.027876653 0.019422986
0000c0 c9 46 87 3d 9b 75 f8 3c 75 e9 f2 3c 45 eb 17 bc
       0.06605298 0.030329516 0.029652337 -0.009272401
0000d0 cd e9 62 bc 78 b6 85 3c 4c f3 59 3d c6 06 19 bd
       -0.013849688 0.01632236 0.05321054 -0.037359975
0000e0 3d a7 9b 3d e4 09 a0 bc ff 7e bc 3c 3d 9b bb bc
       0.076002575 -0.019535966 0.023009775 -0.022901172
0000f0 78 c8 3d 3d 04 95 25 3d e5 98 f7 3c 74 41 af 3c
       0.04633376 0.040425315 0.030224273 0.021393515
000100 94 e3 d2 bd 43 6b 15 3d ce c3 29 3d 6a c8 ec bb
       -0.10297313 0.036479246 0.0414465 -0.0072260397
000110 18 21 a2 3c 98 12 8a 3d a0 1c 26 3d 15 53 11 3d
       0.019791171 0.06741828 0.040554643 0.035479624
000120 e8 5c fb 3c 72 23 a4 3c 70 a7 e8 3c 11 08 d6 3c
       0.03068395 0.020036433 0.028400153 0.026126893
000130 81 5b 9c bb 56 79 4b 3d 06 a0 12 b9 72 cd af bb
       -0.0047716503 0.04967626 -0.00013983258 -0.005365067
000140 0b 36 03 3c 4d 87 8b 3b 01 ee 9e bd a2 32 34 3c
       0.00800849 0.0042580725 -0.077602394 0.0109984
000150 53 60 8d 3c ee d2 57 3c 5b 1a 7f 3d 28 bf a6 3c
       0.017257845 0.013172848 0.062280994 0.020354822
000160 7d e2 3d 3c c4 b8 c2 ba de 73 99 3d 5a 9d 8f bb
       0.011589644 -0.001485609 0.07492803 -0.0043827714
000170 30 e6 02 bd b1 80 93 3c 2b 5d 11 3d cf 6d 9c bc
       -0.031957805 0.0180057 0.035489243 -0.01909533
000180 a5 e2 a4 3c 6e ea 41 3d c2 e1 77 3c 7f 22 46 bb
       0.020127604 0.04734271 0.015129508 -0.0030232964
000190 77 15 ab bc c8 04 1a 3d 8f d3 b6 3c 17 44 1a bb
       -0.020884259 0.037602216 0.022317676 -0.002353912
0001a0 32 f3 96 bc df ba 41 bc af c1 ce bc e6 0b e5 3c
       -0.018426511 -0.011824339 -0.02523884 0.027959775
0001b0 cc fd 12 3d 27 52 13 bc 20 86 5b 3c 8c 38 5e 3c
       0.03588657 -0.008991755 0.013398677 0.0135632865
0001c0 8c 11 04 3d 0a f6 ad 3c 8d 9e 6d 3b c5 91 65 bb
       0.032243297 0.021235485 0.0036257834 -0.0035029512
0001d0 ec bc b6 3c ef 49 8c bc e7 d5 8a bc 93 27 91 3c
       0.022306882 -0.017125098 -0.0169477 0.017719066
0001e0 ae 8f e2 3c b9 f2 cf 3c 30 c9 0e bd d7 c5 d7 bb
       0.027656402 0.025384294 -0.034859836 -0.0065848636
0001f0 67 34 ae 3a 23 6e ab 3c b8 88 cb bc 58 fa 3c 3d
       0.0013290764 0.02092654 -0.024845466 0.046137184

network_body._body_endoder.seq_layers.2.weight f4 [128, 128]
000000 ec b4 eb bd 82 0d fa 3c 21 35 96 3d 23 64 7e 3e
       -0.115091175 0.03052402 0.07334352 0.24842887
000010 3b ad 95 bd 1c 12 89 bd 47 f3 53 3d 5f fd 09 bd
       -0.07308432 -0.06692907 0.05174568 -0.0336889
000020 9d 02 8f 3d fe 70 22 bd f9 b0 07 3d 32 9a 11 3d
       0.0698292 -0.03965854 0.03312776 0.035547443
000030 1f 56 81 3d 86 37 17 3e ef af 1d bd 7c 87 d0 bc
       0.063152544 0.14767274 -0.03849786 -0.025455229
000040 ad 4b 05 3e 0f e0 4d bd 1a af d2 3c 83 75 ea bb
       0.1301715 -0.050262507 0.02571826 -0.007155122
000050 ba 0f d7 bc 58 2e 27 bd 37 90 86 bd a2 3d 31 3a
       -0.026252616 -0.04081568 -0.065704755 0.0006761198
000060 27 26 b7 bc e0 08 d6 3d d2 ff 3c 3d eb de 3a 3e
       -0.02235706 0.104509115 0.046142407 0.18249099
000070 0c 13 3b 3e c8 af 6b be e2 34 ba 3d ec 16 41 3d
       0.18268985 -0.23016274 0.09092118 0.047141
000080 18 a4 fa bd 6e 1e 95 3d 84 b9 15 3d 82 e2 1a be
       -0.1223833 0.072811946 0.036553875 -0.15125468
000090 31 26 08 3e da b0 13 3c 9a e1 8a bd ec b5 2a bc
       0.13295819 0.009014333 -0.06781311 -0.01041935
0000a0 a2 cf a0 bc 8c b4 1f be ca cd 48 3d ca 76 e7 3d
       -0.019630257 -0.15596217 0.04902438 0.11301954
0000b0 76 c4 19 be fb 81 a3 3d 28 1d d0 3d aa 98 83 bc
       -0.1501635 0.07983776 0.10161811 -0.016064007
0000c0 d4 88 3d 3d 1e a9 a5 3d 78 8e f2 3a 90 f7 84 bd
       0.046273068 0.08088897 0.0018505594 -0.06492531
0000d0 dd aa ab 3d 8c 9b ba ba 61 7d 6a 3d 0f 88 d2 3d
       0.08382199 -0.001423703 0.057248477 0.10279857
0000e0 5c 43 db bd 07 07 9b bd 0e 26 ea bd ea be 5b be
       -0.10706207 -0.075697 -0.114330396 -0.21459547
0000f0 59 41 ad 3d 0e df d1 3a 6b d8 d2 3a 83 53 27 3d
       0.0845973 0.001601191 0.0016086226 0.040851127
000100 b6 8d 36 bc 4d e5 61 bd 44 a0 9c bd 16 0e d9 bd
       -0.011142185 -0.05515032 -0.07647756 -0.1059839
000110 60 56 3a 3d f7 77 16 3e 5e 94 3b bd 88 37 83 3d
       0.04549253 0.146942 -0.04579579 0.06407076
000120 df 5f 53 3d 30 00 25 bd c5 88 ce bd 8c 4b 8f 3e
       0.0516051 -0.040283382 -0.100846805 0.27987325
000130 2a f9 26 be 5f 07 1d be 7d 9c 55 bc cf 67 84 bd
       -0.16305986 -0.15334843 -0.013037798 -0.064651124
000140 81 a4 75 bd 90 e0 03 be 34 7c 49 bd dc 00 a0 3c
       -0.059971336 -0.12878633 -0.049190715 0.01953166
000150 1d 09 0a 3e 4f 3e 93 3d 74 11 ec bd e0 d7 26 3e
       0.13480039 0.07189619 -0.115267664 0.16293287
000160 7a 23 de bc 02 ad 82 be 45 01 14 3e 99 8b 90 bd
       -0.027116526 -0.2552262 0.1445361 -0.07057876
000170 61 25 4f bd fd ff 83 bd 12 18 ea bd 10 db 1f bd
       -0.050572757 -0.0644531 -0.11430372 -0.039027274
000180 51 04 10 3e 42 7a 85 3d cb b0 21 3e 7f 10 1a be
       0.14064147 0.065174595 0.15790097 -0.15045355
000190 24 4f 88 bd 27 a3 9e 3d d2 c3 58 bd d1 07 a3 3d
       -0.0665572 0.077459626 -0.052921124 0.07960475
0001a0 70 d3 56 bd 8b b6 ba bc 1e 08 e2 3c 2c a2 41 3d
       -0.052447736 -0.022792121 0.027591761 0.0472738
0001b0 37 41 d6 3d 14 85 54 3d a5 dd b6 3c 90 47 b5 3a
       0.104616575 0.051884726 0.022322485 0.0013830531
0001c0 60 15 85 3d 8b b6 30 3e 6c 87 d5 3c 56 43 5d 3b
       0.064982176 0.17257135 0.02606555 0.003376206
0001d0 92 2d 64 3d 2c 42 31 3d 15 f0 8f bd c7 b1 8f bd
       0.05570752 0.043275997 -0.07028214 -0.0701633
0001e0 f2 d7 b5 3d 42 fb c1 3c 9f 4a 84 bc 77 c8 22 be
       0.08879079 0.02367938 -0.016148863 -0.15896784
0001f0 d3 d6 02 3e 3a 51 21 be 3d 1b 4c 3d 28 d9 04 3e
       0.12777261 -0.15753642 0.049830664 0.12973464
000200 27 bd 02 be 46 b5 1a bc 48 2e f8 bd 0c af 5f bb
       -0.12767468 -0.009442633 -0.121182024 -0.0034131436
000210 c5 7e dc 3d 9c 75 a5 bd f4 8f 36 bd 75 84 2e 3e
       0.10766367 -0.08079073 -0.04457088 0.17042716
000220 8e 42 d6 3d 2e c0 f8 3d 90 98 16 bb ea 6b 1c 3d
       0.10461913 0.1214603 -0.0022979118 0.038188852
000230 cc 9b 8e 3d 3a 1d 83 3d f4 26 87 3e 76 4f 4b 3d
       0.0696331 0.06402059 0.26396906 0.049636327
000240 c9 84 9f 3d a6 37 46 3e 8e 4b 23 bd 25 07 52 3d
       0.07788999 0.19357166 -0.039866976 0.051276345
000250 cc 8f 5a 3e 99 57 58 3d 23 96 af 3d ef e7 02 3d
       0.21343917 0.052817915 0.08573558 0.03195947
000260 a3 4f 78 3c 08 f1 35 bd 42 41 c5 3c af 03 f4 bd
       0.015155706 -0.04441932 0.024078969 -0.11914765
000270 08 fb c3 3d 7e ce 75 bd c3 a6 60 3e 08 50 f0 3c
       0.09569365 -0.06001138 0.21938615 0.029335037
000280 5e 70 1e 3d 42 63 1c 3d 04 8c 81 bd 66 c9 92 bd
       0.03868138 0.038180597 -0.06325534 -0.0716732
000290 d5 b6 10 be b1 dc 5a be 80 40 ed bd 72 b6 6d bd
       -0.14132245 -0.2137325 -0.11584568 -0.05803532
0002a0 20 98 3e bd a0 91 bc bd d9 ed ad bd fd c4 c4 3d
       -0.046531796 -0.09207463 -0.084926315 0.09607885
0002b0 7d 4c ba 3c 0f 91 93 3d 56 1b cc 3d ff 8f 01 be
       0.02274155 0.07205402 0.099661514 -0.12652586
0002c0 ef d9 22 3e 1b 0b a7 bc 0c c4 f1 bd e8 c2 16 bd
       0.15903448 -0.020391038 -0.11804971 -0.03680697
0002d0 1d 14 75 bc 94 af 47 3d 10 6e 13 3e 69 88 0c bd
       -0.014958409 0.04875143 0.14397454 -0.03430978
0002e0 4c 3d 99 3b b7 a5 42 3d 7b bc 3f 3e 0d e9 0a bd
       0.0046764966 0.04752132 0.18724243 -0.03391366
0002f0 dc a5 c0 3d 26 dc 33 3d db 47 4b 3d 3a 6b 29 3e
       0.09406635 0.04391112 0.049629074 0.1654481
000300 c1 c6 82 3d a0 68 36 3d 5e 41 48 3e 92 0c be 3b
       0.063855655 0.044533372 0.19556186 0.0057998383
000310 0c da 2a 3e b3 8e 2e 3c 7b 0b 06 3e c0 44 14 bc
       0.16684741 0.010654139 0.13090317 -0.009049594
000320 08 e7 70 3d af f3 46 3c 80 12 45 3d 45 74 10 3e
       0.05881408 0.01214306 0.048113346 0.14106853
000330 07 53 01 3d 7c a9 80 3d 2b cc d0 3d c3 83 3c be
       0.03157332 0.062823266 0.10195192 -0.18409638
000340 1b b2 6e 3c e6 7d 5b bd 4c c7 64 bd ba 3a af bd
       0.014568831 -0.053586863 -0.055854127 -0.08556123
000350 4a 15 ff bd 9b dd 36 3e 6a 2c 7c 3d fb 57 26 bd
       -0.124552324 0.17857973 0.061565794 -0.04061125
000360 ba d2 56 be 5e 3d f3 bd 97 d2 31 3e 60 97 0a 3d
       -0.20978823 -0.11876939 0.1736549 0.03383577
000370 b4 53 98 bd bc de 0b bd 7c f7 ad bc fe 37 03 be
       -0.0743784 -0.034147963 -0.021236174 -0.12814328
000380 72 a1 bf 3d 21 0c 3b 3e 9b e5 6a 3d ba bb e8 3d
       0.09356965 0.18266346 0.057347875 0.11363931
000390 0f c1 ee bd c8 0e 04 3e ba 34 7b 3e 47 e1 cb 3c
       -0.11657917 0.12896264 0.24531832 0.024887694
0003a0 52 e8 5d bd 78 12 69 be 25 c8 0b be 07 49 49 3e
       -0.054176636 -0.22760952 -0.13650568 0.19656764
0003b0 d8 18 5e be 83 d7 e1 bd 83 a0 19 3d e3 a0 20 3e
       -0.21689165 -0.11027434 0.03750659 0.15686373
0003c0 a2 85 82 3c a5 49 4a 3d cf 49 27 be fb e8 b0 bd
       0.015932862 0.04938664 -0.1633675 -0.086381875
0003d0 06 d4 a7 bd 26 eb 93 bd 4c 35 e4 bc e3 1c ba 3c
       -0.08194737 -0.072225854 -0.027857445 0.022718852
0003e0 e7 3c 00 3e eb df ff bd 46 e5 b2 be cd ef b8 bd
       0.12523232 -0.12493881 -0.34940547 -0.09030113
0003f0 26 70 b6 3d a8 bc 05 3e 94 1f 5d bd 67 6a 0e ba
       0.08908109 0.13060248 -0.053985193 -0.00054327253

network_body._body_endoder.seq_layers.2.bias f4 [128]
000000 4c 02 00 3d f1 4d 51 3d f4 d2 38 3c 38 ca 45 bd
       0.03125219 0.05109972 0.011280764 -0.048288554
000010 7c a6 8a 3c 7e 48 fb 3c 9d f5 cd bc c2 c5 c2 3c
       0.016925089 0.030674215 -0.025141532 0.023775939
000020 08 50 54 bb da 68 9c 3c d2 df 12 3d f6 bd 18 3d
       -0.0032396335 0.019092966 0.035857983 0.037290536
000030 f3 e2 d8 3c 82 14 b2 bc 94 45 d7 bb 72 29 0e 3c
       0.026475405 -0.021738295 -0.0065695737 0.0086768735
000040 ab c9 b7 3b b2 14 07 bd 78 39 dc 3b dc 60 43 3d
       0.0056087575 -0.03297872 0.006720718 0.047699794
000050 fd 2e 01 bd fd 19 28 bd b4 2b 7b 3c 78 0b 66 3a
       -0.031538952 -0.04104041 0.015330244 0.00087755127
000060 d5 f6 bf 3c 23 d1 1d 3c 35 d5 00 3d a5 88 1b bd
       0.023433128 0.009632382 0.03145333 -0.03797211
000070 2c f6 20 bd 41 6b ca 3c e2 d4 a9 bc 49 ce 6c 3c
       -0.039297268 0.024709346 -0.020731393 0.014453479
000080 e9 24 57 bd 56 fe 2b 3d f6 c3 16 3d 45 d2 f7 3c
       -0.052525435 0.0419906 0.036807977 0.030251632
000090 3f be 0f bc bf 6f 9a bb d1 0d d8 3c 50 44 01 3d
       -0.008773386 -0.004713028 0.026373776 0.03155929
0000a0 cb 5c 24 3d 19 58 f0 b9 41 d5 2b 3d b0 4a 5f 3d
       0.040127557 -0.00045842005 0.04195142 0.054514587
0000b0 e9 39 ca 3a 8f 2b 81 bc 92 73 fa 3c 10 6e 5d bd
       0.0015428636 -0.01576784 0.030572686 -0.054060042
0000c0 7f b7 39 bd 35 3d bf bc 81 d6 8b bc dc af 24 3d
       -0.04534101 -0.023344615 -0.017070057 0.040206775
0000d0 b1 7d 26 3d ab 88 56 3d fd 4d b1 3c 55 ef 18 3d
       0.040647212 0.05237643 0.021643633 0.03733762
0000e0 fd 0a 76 bc 33 27 d6 3c 2f 94 4a 3c 35 59 44 3d
       -0.015017268 0.026141739 0.012364431 0.047936637
0000f0 4e be fc 3c 1f 38 01 3d e1 f1 ce bc 3c 6b cb 3c
       0.030852463 0.031547662 -0.025261821 0.024831407
000100 ad a3 92 3c d9 49 31 3d 68 c3 0c 3d a1 bc 20 3d
       0.017900312 0.043283317 0.03436604 0.03924239
000110 19 dc b5 3c 41 02 01 bd 5e ed 14 bd 0c 36 f6 bc
       0.022199677 -0.03149629 -0.036359183 -0.030055068
000120 2e 51 3a 3c b8 4e 9c 3c 79 24 59 3d f6 af 8d 3c
       0.011371894 0.019080505 0.0530133 0.017295819
000130 b4 9d bb 3c f8 1f d6 3c d4 f2 8d 3a 30 0d 00 bd
       0.022902347 0.02613829 0.0010829815 -0.031262577
000140 c7 67 3c 3c a6 41 52 bc 36 35 72 3d 99 30 d3 bc
       0.011499352 -0.012833035 0.059132777 -0.02578001
000150 30 b0 f4 bc 57 23 27 3d a1 c8 54 bb 7e 22 f1 bc
       -0.029869169 0.040805187 -0.0032468217 -0.029435392
000160 b2 56 f7 3c d7 57 a7 bc f8 ce 0b 3c 90 df 30 bc
       0.030192707 -0.020427627 0.008533232 -0.010795489
000170 1f f0 4d 3c 37 35 55 bd 98 f8 73 bd 28 0a 66 3d
       0.012569456 -0.052052703 -0.05956325 0.05616203
000180 03 66 02 bd 6f 55 49 3b 87 66 86 3c c3 19 fe bc
       -0.031835567 0.0030721088 0.01640631 -0.031018144
000190 31 50 49 3c e9 2a 26 bd 32 67 55 3d 9e 25 8a 3c
       0.0122871855 -0.040568266 0.052100368 0.01686364
0001a0 5b 78 5a bd 9b b4 1f 3d d1 7e d9 3c ac f8 9f 3c
       -0.053337436 0.0389906 0.026549729 0.019527756
0001b0 b5 1e 25 3d a4 61 60 3d 4c 82 e6 3c 05 cc 67 bd
       0.040312488 0.054780617 0.028138302 -0.056591053
0001c0 95 76 b3 3c 77 e7 f4 3c 34 d8 db bc 3e 0d ad 3c
       0.02190713 0.029895527 -0.026836492 0.021124478
0001d0 94 24 05 bc ff 16 00 3d 00 09 00 3d 81 3e 62 3c
       -0.008126397 0.03127193 0.031258583 0.013808847
0001e0 97 85 ae 3c f4 02 94 3a 06 d6 7d 3c 4b 3f 51 bc
       0.021303935 0.0011292384 0.015492922 -0.012771438
0001f0 81 d7 9e 3c 3c d4 79 3b a1 d2 bc 3c 97 05 a4 3c
       0.01938987 0.0038120886 0.023049654 0.020022197

action_model._discrete_distribution.branches.0.weight f4 [3, 128]
000000 5f 25 9f 3c 20 50 8d 3d b0 bd 69 3c 3b 97 1d bd
       0.019427 0.06900048 0.014266416 -0.038474303
000010 c7 db d4 bb c4 8b 60 3d ea 65 08 bd 83 39 07 3d
       -0.006495926 0.05482079 -0.033300318 0.03301383
000020 48 8a d7 bc 07 b2 9e bd 6f 7b 0a 3d 10 f7 1e 3d
       -0.026311055 -0.077488 0.03380912 0.038809836
000030 57 78 df 3c 5a 89 4e bd 01 b6 72 bd c6 00 63 bc
       0.027279062 -0.050423957 -0.059255604 -0.013855165
000040 97 47 43 bd 9c 7a 2e bd 43 84 08 3c a9 61 71 3d
       -0.047675695 -0.0425974 0.008332315 0.058931027
000050 bf 33 9e bc 20 a7 3f bd b5 71 05 3d 52 fc ef bc
       -0.019311784 -0.046790242 0.032579143 -0.02929512
000060 55 74 9b 3c 9e 8a ec 3c d0 a5 01 3d 2b 39 13 bd
       0.01897637 0.028874692 0.03165227 -0.03594319
000070 a5 71 6d bd 0f a1 50 3b d1 81 28 bd 17 ab ab 3c
       -0.057969708 0.003183428 -0.041139428 0.020955605
000080 e4 92 50 bd bc cd bd 3d 77 20 a6 3d bd 14 09 3e
       -0.050921336 0.09267756 0.08111661 0.13386817
000090 15 8f b4 3c 67 f1 f5 3d 09 01 c1 3c f5 0c 75 3d
       0.022040883 0.120089345 0.023560064 0.05982681
0000a0 e7 0b 90 3c 43 5e df 3a 58 6f 81 3d b1 d2 ec 3d
       0.0175838 0.0017041642 0.06320065 0.11563624
0000b0 37 e9 5e bc cf d7 f2 bb 55 3c 97 bd b8 2b 67 bd
       -0.013605407 -0.0074109803 -0.07384554 -0.056438178
0000c0 80 3c 3c bd a0 93 2b bd dd 66 ec bc 4e 83 af 3d
       -0.045956135 -0.041888833 -0.028857643 0.08569966
0000d0 61 b8 50 3d bb b0 87 3d 07 ae 9f bc 12 9d 5d 3d
       0.050957087 0.066255055 -0.019492162 0.054104872
0000e0 cb 2f 11 bd bc 57 71 39 e6 fd 82 3c 8d 41 03 3d
       -0.03544597 0.00023016235 0.015990209 0.032044936
0000f0 75 37 01 3c 2b 23 25 3e 93 f9 24 bd 05 82 c6 3d
       0.007886757 0.16126697 -0.040277075 0.09692768
000100 02 c7 17 3d b3 0f a1 3d 57 63 97 3d 47 9f 74 3d
       0.037055023 0.078643225 0.073919944 0.05972221
000110 65 ce cd 3c 69 92 5a bd af e0 e2 bc 09 7c 54 bd
       0.02512283 -0.053362284 -0.027695028 -0.0518761
000120 ff 83 11 3e cd 3f a2 3c d7 77 81 3d 04 fd 24 3c
       0.14210509 0.019805813 0.06321686 0.010070089
000130 02 93 0c 3d e9 50 59 3c 43 39 aa bd 75 b5 3c bd
       0.034319885 0.013263919 -0.08311703 -0.04607149
000140 29 76 cc bd 33 f9 9f 3b ac 31 4b 3c 1e 33 32 bd
       -0.09983475 0.004882002 0.012401979 -0.04350578
000150 76 2e 02 bd 8e ab 3a 3d 0e 3d 5b 3c bc 59 8d bd
       -0.03178259 0.045573764 0.013381256 -0.06901881
000160 f3 cd dd 3c 87 7d 8c bc 45 de 02 3c 55 46 be bc
       0.027075743 -0.0171497 0.0079875635 -0.023226896
000170 c3 a7 af 3c bc e5 3b bd f1 a0 5b bd b0 b8 da 3d
       0.0214423 -0.04587339 -0.053620283 0.106797576
000180 f5 3f 19 bd a4 00 24 3e 5a 15 0d bc 8a c5 11 bd
       -0.03741451 0.1601587 -0.008611048 -0.03558878
000190 c5 fb ad 3d e6 40 0f bd 72 54 42 3d ba 0e 1e 3d
       0.08495287 -0.034974 0.047443815 0.038588263
0001a0 22 80 48 bd 34 17 be 3c 7c 19 bc 3c 14 a5 ec bb
       -0.048950322 0.023204423 0.02296137 -0.0072218273
0001b0 0c 6e 53 3d 4d 87 ea bc f5 f9 58 3c 7e b8 3d bd
       0.05161862 -0.02862897 0.013243188 -0.046318524
0001c0 39 6d 6e 3c 94 cb 23 3d b8 50 11 bd 37 6a a1 bd
       0.014552408 0.03998907 -0.03547737 -0.07881587
0001d0 ff af 7d 3c fc 36 3c 3d 3f 1a 1e 3d 31 02 a4 3c
       0.015483855 0.045950875 0.03859925 0.020020576
0001e0 3a 27 e7 3c 9e 38 fc bc 15 3b 06 3d af 54 83 3c
       0.028216947 -0.030788716 0.03277119 0.016031591
0001f0 07 f5 1a 3c 43 88 21 3d 36 cc 9a bd 8d 6d b2 3c
       0.009457833 0.03943659 -0.075584814 0.021780754
000200 a2 7d 75 3d 10 cc 77 bc a6 a2 71 bd c2 de 6a bb
       0.059934266 -0.015124336 -0.058993004 -0.003583834
000210 17 78 44 3d 86 14 34 bb 16 ea a9 bc 9f 0a c9 3c
       0.04796609 -0.0027478053 -0.020741504 0.024541197
000220 d7 5d fd bc 0e 86 c8 3d db d5 c1 3b e9 20 65 3b
       -0.030928535 0.09791194 0.005915386 0.0034962243
000230 f3 b1 0d 3d 1b 68 2f bc 89 e6 30 3d 6c ef 7d 3d
       0.034593534 -0.010705973 0.043188605 0.06199591
000240 fc a0 5a 3d c1 5e 97 bc 36 b8 cb 3c ee c0 51 bc
       0.053376183 -0.0184778 0.024868112 -0.012802346
000250 c3 f5 ea bc 72 04 ac bc 17 72 b5 bc c3 88 db bc
       -0.028681641 -0.020998213 -0.022149129 -0.026798612
000260 81 88 c7 3c 97 d2 8a bd 8a 5c f4 3c 19 62 f8 bb
       0.024357082 -0.06778448 0.029829282 -0.0075800535
000270 eb 0e bf 3c fd b2 7c 3d 81 2e c8 bb 86 34 36 3d
       0.023322543 0.061694134 -0.0061090593 0.044483684
000280 6f 99 33 bb 97 d4 ca bd 7f 5d 30 bd a1 08 0e be
       -0.0027404686 -0.099038295 -0.043057915 -0.13870479
000290 d5 ac 45 bd eb 26 cd bd 8d 98 3f 3d 6e ba 15 bd
       -0.04826053 -0.10017189 0.046776343 -0.036554746
0002a0 b9 37 1b 3d d2 b0 0e 3d 6d d8 27 3c d2 e4 e9 bd
       0.03789494 0.034836598 0.010244471 -0.11420597
0002b0 32 a7 19 bd 11 06 26 bd 2d 4a b4 3d 00 61 63 bc
       -0.037512966 -0.04053313 0.088032104 -0.013878107
0002c0 1f f2 84 bc 4b 5e 4e 3c ff d7 ce bc 69 94 80 bd
       -0.016228734 0.012595723 -0.02524948 -0.06278307
0002d0 38 98 89 3c b8 c9 ff 3c 51 90 4c 3d e2 7a c3 3c
       0.016796216 0.031224117 0.04994232 0.023862306
0002e0 fb 96 1c bc 21 77 9d 3d 22 6d fe 3c ab fc a6 3b
       -0.009557481 0.07688738 0.031057898 0.0050960383
0002f0 cd 65 aa 3c 34 d2 1f be 90 43 3c bc d5 f0 aa bd
       0.020800496 -0.1560753 -0.0114907175 -0.08346716
000300 6f 76 6f 3c 72 d7 12 bd e0 7a 07 bd 10 76 5f bd
       0.014615639 -0.035849996 -0.033076167 -0.054555953
000310 c3 2a 88 3c 46 a7 72 bc 43 32 18 bc d2 b1 d0 bc
       0.016621953 -0.014810389 -0.009289327 -0.025475416
000320 fb 39 fc bd 7e 3b f7 3c 1d 9c 8a bc ad 77 bf 3c
       -0.123157464 0.030179735 -0.016920144 0.023372496
000330 b5 ba 18 3d 5f 97 41 3c 95 13 56 3d 3f f0 f0 bb
       0.037287433 0.011815875 0.05226477 -0.0073528583
000340 04 33 ec 3d 3c 8a 16 3c 54 b8 fe 3c e7 30 19 bc
       0.11533168 0.009188231 0.031093754 -0.009350038
000350 d5 35 28 bc e2 73 5a 3c e2 0e a4 bd 4f 59 0f 3c
       -0.010266741 0.013333293 -0.08010651 0.00874932
000360 b2 06 ac 3c 33 ae 63 bc ad 44 91 3d 52 d2 01 bd
       0.020999286 -0.013896513 0.07093177 -0.031694718
000370 2c 6a 28 3d b6 b8 b1 3b 18 30 a5 3c b1 95 d6 bd
       0.04111688 0.0054236306 0.020164534 -0.1047777
000380 41 f1 0a bd 28 69 c6 bd cc f0 76 3d a7 8c a1 bc
       -0.033921484 -0.09688026 0.060288236 -0.019720389
000390 d1 fd 00 be 55 fd b8 bc 29 94 58 3c 7a 85 9d 3c
       -0.12596823 -0.022581736 0.013218918 0.019228686
0003a0 34 42 83 bc a8 da 69 3d 15 31 8a 3c 14 58 63 3d
       -0.016022779 0.057093292 0.016869107 0.05550392
0003b0 5a cf 20 3c dc c8 3d 3d 58 71 31 3d 57 c4 de 3b
       0.009815061 0.046334133 0.043320984 0.006798308
0003c0 81 27 e5 3c 98 59 45 bb 3a ce 75 bc 71 05 84 3d
       0.027972938 -0.0030113216 -0.0150027815 0.0644635
0003d0 1b e1 75 bd d1 41 b4 bd b0 9e 0e 3c bd 04 dd 3a
       -0.06002913 -0.08801616 0.008704826 0.0016862374
0003e0 f0 5d 18 3d 14 f1 f1 36 45 6e 04 3c 61 ba 6d bd
       0.03719896 7.210425e-06 0.008082931 -0.058039073
0003f0 3e 15 34 3d 34 5e 9f bd da f5 9b 3d 28 c3 04 bc
       0.04396557 -0.0778164 0.07615252 -0.0081031695

action_model._discrete_distribution.branches.0.bias f4 [3]
000000 00 db 36 3d b1 40 4b 3a f4 a0 33 bd
       0.04464245 0.0007753475 -0.04385467

action_model._discrete_distribution.branches.1.weight f4 [3, 128]
000000 f2 c3 46 3d c8 92 33 3d bd 35 8a bd 9d dd d8 bc
       0.04852671 0.043841153 -0.06748531 -0.026472861
000010 e2 54 10 3d da 4a 63 3d cc a1 2f bd 5e a7 67 3d
       0.0352372 0.055491306 -0.04287891 0.0565561
000020 06 4b 12 bd 03 00 1c bd 66 87 33 3d b7 1c ed 3c
       -0.03571608 -0.03808595 0.043830298 0.028944356
000030 68 d7 63 3d 4e bc 0a bd ab af 0f 3a 9e fd 1b 3d
       0.05562535 -0.033870988 0.00054811937 0.038083665
000040 f8 18 7a 3c 6d 27 0e bd 27 46 da 3c 26 26 92 3c
       0.015264742 -0.034705568 0.02664478 0.017840456
000050 4a 19 1b bd 96 fc ec bc 21 72 47 3d 29 a4 21 bd
       -0.037865914 -0.028929036 0.048692826 -0.039463196
000060 11 5a 18 3d 2c 77 46 bd 28 00 db 3c 64 25 17 bd
       0.03719527 -0.048453495 0.026733473 -0.036900893
000070 ab 8a c9 bc 76 23 57 3d a0 ae 3a bd 37 ab 27 3d
       -0.024602255 0.052524053 -0.04557669 0.040934768
000080 a9 bb 9b bc 3f 4e 85 3d 6e 5d 86 3d 07 75 2b 3d
       -0.019010382 0.06509065 0.06560789 0.041859653
000090 d1 e9 67 bd 35 4c b9 bd 78 27 37 3d 44 f0 3d 3d
       -0.05661947 -0.090477385 0.044715375 0.046371713
0000a0 75 9d 06 3d 98 12 9b 3c 7c 09 d3 3c 4c d9 e5 bc
       0.032865006 0.018929765 0.025761358 -0.028057717
0000b0 f6 f9 62 bd df 1b 5f bd 9e 3e 07 3d 6f bc 11 bd
       -0.055414163 -0.05446994 0.0330187 -0.035580095
0000c0 4f fc 29 bd 94 6b 28 bd d8 58 2e bd 6a aa 45 3c
       -0.041500386 -0.04111822 -0.042565197 0.012064556
0000d0 38 a7 cd 3c be 06 24 3d 01 10 65 3d b6 47 8c 3c
       0.02510415 0.040045492 0.055923466 0.017124038
0000e0 2f 78 31 bd 4d b8 41 3d 95 47 4c 3d f9 f1 16 3d
       -0.043327507 0.047294904 0.049872953 0.036851857
0000f0 40 40 10 3d e6 74 7f bd 59 67 10 bd 41 4c 05 bd
       0.035217524 -0.062367342 -0.03525481 -0.032543425
000100 e9 44 f4 3c 31 b8 8e 3b af be 24 3d b9 63 37 3d
       0.029818015 0.0043554534 0.040220913 0.044772837
000110 0b 38 18 3d 1d 52 2b bd 92 2a 0a bd b7 59 de bc
       0.03716282 -0.041826356 -0.033732004 -0.027142389
000120 56 77 a0 bc d8 68 cf 3c 69 90 9b 3c 1f af 1c 3d
       -0.019588154 0.025318548 0.018989759 0.038252946
000130 8d 35 09 3d af 47 14 3d 83 4b f0 bc dc fb c5 bc
       0.033498336 0.036201175 -0.029332882 -0.024167947
000140 09 8a 63 bc 53 92 d7 3c 42 a9 38 bd c5 c9 29 bd
       -0.013887891 0.02631489 -0.04508329 -0.041452188
000150 ae 97 03 bd 68 bf ba 3c 9a ec 48 bd 5a a9 a7 bc
       -0.032127075 0.022796348 -0.049053766 -0.020466495
000160 bd 16 b9 3c 0f 39 3c bd 04 08 28 3d aa a3 4a bd
       0.02259385 -0.045952853 0.04102327 -0.04947249
000170 0c 38 01 3d f2 4c 9e bc 63 32 e2 bc 3d 2f 4c bc
       0.03154759 -0.0193238 -0.027611917 -0.012462434
000180 bd 6f df bc 33 ae 4b bd aa bd 45 3d 86 8f e7 bc
       -0.02727496 -0.049726676 0.04827658 -0.02826668
000190 c0 d8 70 bd 00 f9 fb bc eb 28 29 bb 84 53 3b 3d
       -0.05880046 -0.03075838 -0.0025811743 0.045733944
0001a0 e3 2e 0f bd 46 69 06 bc 08 82 52 3d 21 77 44 3d
       -0.034956824 -0.00820381 0.05139354 0.047965173
0001b0 40 f2 02 3d b8 99 35 3c e9 b8 4b 3d 05 1a 0d bd
       0.03196931 0.011084013 0.04973689 -0.034448642
0001c0 ed 40 e9 3c 5f c4 8a 3d 55 0f 6e bc 65 89 02 3d
       0.028473342 0.06775736 -0.014530023 0.03186931
0001d0 29 06 00 bd df 09 79 bd 51 51 2b 3d 29 aa a2 3d
       -0.031255875 -0.06080043 0.041825596 0.07942612
0001e0 96 fa e1 3c f9 74 ba bc 5d 61 7f 3d 37 fb 0f bd
       0.027585309 -0.022760855 0.062348712 -0.035151687
0001f0 7a e2 19 3d a9 d6 54 bd 67 ea 74 3d 5d 80 6e 3d
       0.0375695 -0.05196253 0.059793856 0.058227886
000200 79 c5 89 bc cc 88 c1 3c f3 45 c0 3d 23 90 21 3b
       -0.016817795 0.0236248 0.09388342 0.0024652563
000210 fe d6 75 bd c0 95 54 bd 09 c1 c9 39 f6 fc 32 bd
       -0.060019486 -0.051900625 0.0003848153 -0.043698274
000220 1e 61 73 3c f5 45 dd 3c 9b 71 12 3d ef c3 08 bc
       0.0148546975 0.027010897 0.035752874 -0.008347495
000230 14 bb 32 bd 61 8c 87 3c a2 34 c1 3c b5 c3 36 bd
       -0.043635443 0.01654643 0.023584668 -0.044620235
000240 0c 72 6b bd f2 7f 76 3c cf ba 15 bc f3 98 70 3d
       -0.05748181 0.015045153 -0.009138777 0.058739614
000250 cc 88 3b 3b 12 c8 b4 3c fe 50 a4 bd 51 77 60 3d
       0.0028615473 0.022068057 -0.080232605 0.05480129
000260 a4 5d 36 3c 4f 30 d7 ba b3 a2 d7 3c 58 e6 28 3c
       0.011130724 -0.0016417595 0.026322698 0.0103088245
000270 85 8b 16 bc 1e 79 5a bc 82 8c 82 3c 63 a1 31 bc
       -0.0091885375 -0.013334541 0.01593614 -0.0108417
000280 c4 05 e4 bb cd ea 1f be f1 7b 76 bd ab ae 9b bc
       -0.006958695 -0.15616913 -0.060176793 -0.019004187
000290 71 df 4a 3d 25 e9 f7 3d f8 17 5c 3d a9 5a 1c bd
       0.049529497 0.12105016 0.053733796 -0.038172398
0002a0 25 f9 59 3c 9b ec 36 bd 9a de 23 3d d2 1b af 3d
       0.01330403 -0.04465924 0.04000721 0.08550228
0002b0 44 01 e4 3c 99 58 c6 3d 03 46 ad 3c 39 19 c0 3a
       0.027832635 0.096848674 0.021151548 0.0014655954
0002c0 b4 5f 7a bb cc 03 17 3c 5f b3 42 3d c9 7d 18 3d
       -0.0038204016 0.009217214 0.047534343 0.037229333
0002d0 7a 28 7f 3d de 72 a4 bb a7 13 da 3c 6c 41 36 3d
       0.06229446 -0.005018576 0.0266207 0.044495985
0002e0 7c 22 cd 3c 09 6d 3b 3c 65 0c 75 3c 1c 0c cc 3c
       0.025040857 0.01143957 0.014956568 0.024908118
0002f0 68 30 54 3d d9 56 04 3e b6 aa 36 bb e7 bc a9 3d
       0.051803976 0.12923755 -0.0027872748 0.082879834
000300 41 90 1d bd be 6f 9e 3d ee 31 2c bd f4 bf 18 3d
       -0.03846765 0.07736157 -0.042039804 0.037292436
000310 a0 e2 0b bd 25 1d fc bc b4 f6 2b 3c 9d e3 76 3c
       -0.034151673 -0.030775616 0.01049583 0.015068916
000320 9c 75 8e 3d 6e 1e 02 3d 2a cd 21 3d 82 a1 b3 3c
       0.06956026 0.0317673 0.0395023 0.021927599
000330 a3 22 c7 bc ea 63 aa 3c b7 f0 98 bd 3c e2 b5 bc
       -0.024308508 0.020799596 -0.07467788 -0.022202604
000340 f2 a5 1e 3c 85 45 f9 bc e2 1c 92 3d 3f 2b 54 3c
       0.009683119 -0.030428657 0.07134415 0.012949764
000350 61 9d f9 bb d5 8a cb 3c 2a c2 04 3d b8 94 c2 ba
       -0.007617638 0.024846474 0.03241173 -0.0014845347
000360 22 eb e1 3b f9 9f ba 3c 58 a9 7b 3c 86 68 67 3d
       0.006894485 0.022781359 0.015360199 0.056496166
000370 de 02 c5 3c e6 91 41 bc 10 b5 a3 bc a8 01 ab 3d
       0.024049219 -0.01181457 -0.019983798 0.08349925
000380 a1 08 86 bc 77 b1 b0 3d bf da 1a bd fa 4e 2b 3c
       -0.016361536 0.08627599 -0.03780627 0.010455841
000390 53 a3 97 3d 83 1b 87 3c 38 5c 86 3d 60 d4 65 bd
       0.074041985 0.01649261 0.06560558 -0.05611074
0003a0 09 fc 83 bc 0b 75 76 3d ea 19 db bc 8e eb c5 bc
       -0.01611139 0.060170215 -0.026745755 -0.024160173
0003b0 13 5b a6 bc 84 3d ce 3d 38 ba eb 3b 0d 60 27 bd
       -0.0203071 0.10070327 0.00719383 -0.040863086
0003c0 d7 11 3f 3b d1 fe 4b bd 95 f3 b7 bc c9 6c b0 bd
       0.002915492 -0.04980356 -0.022455016 -0.08614499
0003d0 fa 38 f6 bc dd e6 ca 3c 04 da 5a bb 5a 59 93 bd
       -0.030056465 0.024768287 -0.0033394108 -0.07194777
0003e0 7d 68 53 bc 01 64 93 bc fa c0 c8 bd d8 64 f9 3c
       -0.01290333 -0.017992022 -0.09802432 0.030443594
0003f0 1b 37 d6 3c bd 03 a8 bb 93 0c 9f bd 0b 06 8d bc
       0.026149323 -0.0051273988 -0.0776607 -0.017214796

action_model._discrete_distribution.branches.1.bias f4 [3]
000000 b1 3e d6 3c 55 cb ce bb e5 9d eb bc
       0.02615294 -0.00631086 -0.028761813

exp_avg f4 [128, 36]
000000 32 2d 86 39 e8 3f 18 b8 00 00 00 00 1c 35 69 b7
       0.00025592145 -3.629914e-05 0.0 -1.3900248e-05
000010 30 e3 55 39 96 a8 65 38 a3 12 32 38 00 00 00 00
       0.00020397897 5.4754863e-05 4.2455864e-05 0.0
000020 6f 90 e3 38 e3 ea 82 39 0f 94 7b 38 a6 cc a8 38
       0.00010851106 0.00024970536 5.9980954e-05 8.048983e-05
000030 00 00 00 00 79 d7 88 38 17 59 62 39 cd e1 30 38
       0.0 6.52512e-05 0.00021586228 4.2171963e-05
000040 93 f0 a3 b7 00 00 00 00 aa fc 3f 39 c1 3a 8c 39
       -1.954314e-05 0.0 0.00018309304 0.00026746656
000050 76 a4 c7 38 d4 87 25 38 00 00 00 00 b8 05 95 38
       9.519693e-05 3.9465565e-05 0.0 7.105939e-05
000060 eb ad 61 39 0a 66 d3 39 f4 94 38 b9 00 00 00 00
       0.00021522462 0.0004032108 -0.00017603097 0.0
000070 9e 00 b4 b7 a8 c8 4f 39 95 bc 1f b9 2e 33 5d 39
       -2.145796e-05 0.00019815809 -0.00015233674 0.00021095268
000080 00 00 00 00 79 40 1a 39 b0 65 42 39 2e 5c cf b9
       0.0 0.00014710602 0.00018539163 -0.00039550796
000090 3b 6f dd 38 bc a7 0f 39 00 00 00 00 85 65 55 38
       0.000105588195 0.00013700029 0.0 5.0877705e-05
0000a0 d5 0f bc 38 44 ad f5 38 b3 38 15 39 00 00 00 00
       8.9674875e-05 0.000117147836 0.0001423087 0.0
0000b0 9c a5 0e 38 ee c4 a8 38 01 c7 ae 38 38 d3 36 39
       3.4009674e-05 8.047545e-05 8.334034e-05 0.00017435558
0000c0 00 00 00 00 0c 08 16 38 a1 bc db 38 b6 e4 94 39
       0.0 3.577028e-05 0.00010477869 0.00028399163
0000d0 65 a0 29 38 00 00 00 00 2a e3 01 b8 02 f6 56 38
       4.044212e-05 0.0 -3.096756e-05 5.125069e-05
0000e0 60 5c c8 38 81 1a 6e 39 00 00 00 00 ac 7f f4 b7
       9.553949e-05 0.00022707322 0.0 -2.9146519e-05
0000f0 81 b2 c7 38 40 72 31 39 36 a6 10 39 00 00 00 00
       9.5223084e-05 0.00016922597 0.00013794829 0.0
000100 e0 fb 65 b7 d6 5f 24 38 b3 e9 12 39 7b cb 35 39
       -1.3708108e-05 3.91899e-05 0.00014010705 0.00017337308
000110 00 00 00 00 9d e3 a7 b7 bc f3 bf 38 4a cd 84 b9
       0.0 -2.0013942e-05 9.152989e-05 -0.00025329954
000120 16 8e 0c b8 30 a4 f7 b8 00 00 00 00 ab 20 0c b8
       -3.351093e-05 -0.0001180846 0.0 -3.3409025e-05
000130 ab 44 88 b7 83 c6 ee b7 24 25 0b b9 00 00 00 00
       -1.624444e-05 -2.846425e-05 -0.00013269909 0.0
000140 a6 fe c7 b7 fa 6d 07 37 91 fb 05 b8 1e 84 11 b9
       -2.3841229e-05 8.072233e-06 -3.194396e-05 -0.00013877495
000150 00 00 00 00 50 ac 6f b7 65 96 fd b7 f7 ab 3a b9
       0.0 -1.428563e-05 -3.0229983e-05 -0.00017802404
000160 9d 9e 4c b8 00 00 00 00 47 57 2f 38 35 2e 1a 38
       -4.878511e-05 0.0 4.1804535e-05 3.6759495e-05
000170 c0 1b ca b8 e3 26 fb b8 00 00 00 00 19 8e 02 38
       -9.6372794e-05 -0.00011975856 0.0 3.1126754e-05
000180 18 fa dd b7 cc 54 c5 b8 a5 3b d5 b8 00 00 00 00
       -2.6461712e-05 -9.409487e-05 -0.00010167741 0.0
000190 d3 a6 34 37 15 ee ce 37 26 d4 c6 b8 e2 e7 d1 b8
       1.0767678e-05 2.466798e-05 -9.4808915e-05 -0.00010009088
0001a0 00 00 00 00 eb 03 26 37 c0 37 47 b7 22 38 a8 39
       0.0 9.895283e-06 -1.1874305e-05 0.0003208528
0001b0 2b 99 53 b9 34 de a9 b9 00 00 00 00 eb 0b 06 b9
       -0.00020179588 -0.00032399746 0.0 -0.00012783676
0001c0 28 73 9f b9 78 93 55 b9 ee 23 a5 b9 00 00 00 00
       -0.0003041264 -0.000203682 -0.00031498022 0.0
0001d0 2a 86 0d b9 08 5a a1 b9 65 2e 4c b9 06 cd af b9
       -0.00013496788 -0.00030775391 -0.0001947224 -0.00033531355
0001e0 00 00 00 00 0c 99 01 b9 76 49 ad b9 f0 c0 21 ba
       0.0 -0.00012359413 -0.00033051864 -0.00061704125
0001f0 62 a8 73 b8 00 00 00 00 c8 62 b4 37 b1 28 6d b9
       -5.8092533e-05 0.0 2.150367e-05 -0.0002261724
000200 91 1b 9f b9 22 76 ce b9 00 00 00 00 8f 07 37 38
       -0.00030347382 -0.00039379398 0.0 4.363764e-05
000210 6a 09 98 b9 dc 5c f8 b9 1e d4 59 b9 00 00 00 00
       -0.00028998713 -0.00047371432 -0.00020773752 0.0
000220 ad 62 e9 37 1f e9 27 b9 7e b4 e6 b9 05 e9 73 b9
       2.7821714e-05 -0.00016013205 -0.00044003496 -0.00023261092
000230 00 00 00 00 1c 84 9f 37 e0 c9 8f b9 97 ac 0a 3a
       0.0 1.9015795e-05 -0.00027425494 0.000529
000240 e6 5b 83 b9 d5 b6 83 39 00 00 00 00 4c c5 19 b8
       -0.00025054737 0.00025122488 0.0 -3.666179e-05
000250 84 ec 18 b9 55 47 32 b9 72 11 62 39 00 00 00 00
       -0.00014583959 -0.00017001976 0.00021559538 0.0
000260 19 0b ab b8 b5 09 28 b9 0e 3b d7 b8 55 12 0f 39
       -8.1559825e-05 -0.00016025345 -0.00010262999 0.00013644372
000270 00 00 00 00 82 60 92 b8 ec d7 33 b9 a5 5e 58 b9
       0.0 -6.9797985e-05 -0.00017151207 -0.00020634623
000280 e7 13 73 39 00 00 00 00 6b e1 80 b8 c7 f8 1d b9
       0.000231817 0.0 -6.145503e-05 -0.00015065364
000290 5a b7 bc b8 d3 5a e7 38 00 00 00 00 b3 34 6c b8
       -8.9986905e-05 0.00011031856 0.0 -5.6315865e-05
0002a0 ef fc 1c b9 78 52 c3 b9 41 59 a8 39 00 00 00 00
       -0.00014971544 -0.00037254742 0.00032109956 0.0
0002b0 20 b8 81 37 fa 5f cb b8 92 ad 0e 38 92 1e 1f 38
       1.5463738e-05 -9.697671e-05 3.401709e-05 3.7937025e-05
0002c0 00 00 00 00 fd 5c e2 b8 0f 0e c8 b8 23 d0 c6 39
       0.0 -0.0001079384 -9.539362e-05 0.00037920577
0002d0 86 16 89 39 55 0e ac 37 00 00 00 00 66 f9 25 38
       0.00026147458 2.0510672e-05 0.0 3.9571336e-05
0002e0 ca e4 5c 39 81 de 1e 39 67 fc a7 38 00 00 00 00
       0.00021066066 0.00015150943 8.010194e-05 0.0
0002f0 ee a0 bc 38 48 94 6b 39 7a 77 fc 38 a7 a2 00 39
       8.994514e-05 0.00022466586 0.000120385506 0.00012267624
000300 00 00 00 00 a5 9d a4 38 59 7d 7e 39 e3 8e d7 39
       0.0 7.849493e-05 0.00024270023 0.00041114455
000310 6f 2e 0c b9 00 00 00 00 60 f7 38 38 2c 39 4e 39
       -0.00013368738 0.0 4.4099404e-05 0.00019666989
000320 19 03 33 39 4b c1 f9 38 00 00 00 00 d2 25 05 38
       0.00017071924 0.00011909249 0.0 3.1744894e-05
000330 4a 4b 73 39 d3 b2 05 3a 5a 80 27 b9 00 00 00 00
       0.00023202333 0.0005100194 -0.00015974176 0.0
000340 04 ee f0 b7 6e 73 19 39 2e 0a bd 38 5f 0a 04 39
       -2.8721064e-05 0.00014634218 9.0141184e-05 0.00012592365
000350 00 00 00 00 82 3b dd 38 74 f8 38 39 93 7d 20 ba
       0.0 0.000105491854 0.00017640163 -0.00061222276
000360 01 31 bf b8 7f 4a 89 38 00 00 00 00 eb 3c ac b7
       -9.1167174e-05 6.546545e-05 0.0 -2.0532365e-05
000370 08 ee 9d b6 f0 ca 89 b8 42 9d 24 38 00 00 00 00
       -4.706675e-06 -6.570469e-05 3.9247105e-05 0.0
000380 af e5 a5 b7 d1 43 f3 36 5b bf 02 b8 f3 fe b0 b7
       -1.9776488e-05 7.249859e-06 -3.117263e-05 -2.1099555e-05
000390 00 00 00 00 ef 9a ca 36 ad 72 83 b7 65 b9 f6 b8
       0.0 6.0381058e-06 -1.5669817e-05 -0.000117647265
0003a0 95 e4 a4 38 00 00 00 00 6e 0e f2 b6 e5 b9 31 37
       7.862706e-05 0.0 -7.213842e-06 1.0593304e-05
0003b0 e2 9e 90 b7 8e 24 16 b5 00 00 00 00 e2 86 ee b7
       -1.7240123e-05 -5.593255e-07 0.0 -2.843462e-05
0003c0 27 ee 04 b8 b5 04 f0 b8 8b fd 9b 38 00 00 00 00
       -3.169305e-05 -0.000114449685 7.438202e-05 0.0
0003d0 60 e9 ce b6 8d dc 1c b7 ad f7 f0 38 3f a9 c8 b8
       -6.166447e-06 -9.349676e-06 0.00011490225 -9.568268e-05
0003e0 00 00 00 00 27 44 89 b8 4e e5 32 37 2a 14 9b 39
       0.0 -6.5453634e-05 1.0663016e-05 0.00029578927
0003f0 64 b6 df b8 5e e1 3c b9 00 00 00 00 ba 63 0c b8
       -0.000106674415 -0.00018013033 0.0 -3.347148e-05

exp_avg_sq f4 [128, 36]
000000 1d 7c 58 36 36 27 e3 36 00 00 00 00 e8 f1 1d 35
       3.2258752e-06 6.769692e-06 0.0 5.883908e-07
000010 3b 4d 26 36 56 63 96 36 19 f2 b4 36 00 00 00 00
       2.4780882e-06 4.4819126e-06 5.392602e-06 0.0
000020 02 46 1a 35 97 2e 21 36 31 8d 9d 36 0d 74 b0 36
       5.7471345e-07 2.4017988e-06 4.6954015e-06 5.258719e-06
000030 00 00 00 00 86 dd 14 35 f1 7e 1e 36 11 a1 e3 36
       0.0 5.5456655e-07 2.3617724e-06 6.783878e-06
000040 88 0a 41 36 00 00 00 00 f3 c3 03 35 8a 73 18 36
       2.876537e-06 0.0 4.9086447e-07 2.2717018e-06
000050 9d d2 02 37 12 88 14 36 00 00 00 00 84 d3 f2 34
       7.797641e-06 2.2132922e-06 0.0 4.522991e-07
000060 ae 6b 0b 36 81 1f 1e 37 2c 71 7b 35 00 00 00 00
       2.0775292e-06 9.424869e-06 9.3669473e-07 0.0
000070 40 6d a1 34 8b 6e 10 36 93 9c 09 37 21 72 01 36
       3.0068077e-07 2.1522017e-06 8.202292e-06 1.928893e-06
000080 00 00 00 00 29 bb a6 34 f5 85 ef 35 bb 51 fb 36
       0.0 3.1056086e-07 1.7845874e-06 7.4898976e-06
000090 54 00 e3 34 53 65 02 35 00 00 00 00 a4 ad 5e 33
       4.2282284e-07 4.857622e-07 0.0 5.1846328e-08
0000a0 be a6 37 34 8c c0 f8 34 e8 f6 ea 34 00 00 00 00
       1.7103864e-07 4.6333696e-07 4.3765544e-07 0.0
0000b0 b2 8a 2b 33 34 e0 22 34 15 4d b7 34 7f 5c 0d 35
       3.9940183e-08 1.516899e-07 3.414249e-07 5.266119e-07
0000c0 00 00 00 00 af d1 89 33 14 37 52 34 6d 95 46 35
       0.0 6.417701e-08 1.9577811e-07 7.397819e-07
0000d0 9d 0a 2e 34 00 00 00 00 cd b6 d7 32 5b 73 12 34
       1.6208874e-07 0.0 2.5112422e-08 1.3639276e-07
0000e0 f4 c6 9d 34 29 54 1c 35 00 00 00 00 1b a5 81 33
       2.9388286e-07 5.8237e-07 0.0 6.037063e-08
0000f0 b4 bf 63 34 97 bb 6b 35 55 d5 9d 33 00 00 00 00
       2.1210764e-07 8.78173e-07 7.349687e-08 0.0
000100 01 5a 53 32 28 75 10 34 9b 95 ac 34 ec bd 19 35
       1.2302281e-08 1.3453666e-07 3.214635e-07 5.7273314e-07
000110 00 00 00 00 ee da 6a 33 45 6a 66 34 c8 00 26 35
       0.0 5.4681486e-08 2.145908e-07 6.1840956e-07
000120 bc 28 3e 34 df cb 82 35 00 00 00 00 8a df 91 33
       1.7709948e-07 9.745089e-07 0.0 6.79275e-08
000130 44 72 93 34 65 dc b6 34 00 8a 56 35 00 00 00 00
       2.7464023e-07 3.40605e-07 7.992203e-07 0.0
000140 23 99 6f 33 83 a5 8e 34 ed e2 a0 34 0e 33 5c 35
       5.57858e-08 2.6569987e-07 2.9967433e-07 8.203068e-07
000150 00 00 00 00 0c fa 8d 33 2b 92 8f 34 0c 0f 4d 35
       0.0 6.6113074e-08 2.6742177e-07 7.639035e-07
000160 43 92 ca 34 00 00 00 00 d8 0f e8 32 e8 e1 7c 34
       3.7731851e-07 0.0 2.701556e-08 2.3551513e-07
000170 55 21 2e 35 9e b2 08 35 00 00 00 00 b9 a7 37 33
       6.4868556e-07 5.092387e-07 0.0 4.276055e-08
000180 e9 b6 7d 34 f1 a3 8d 35 95 0a 35 34 00 00 00 00
       2.3629003e-07 1.0553032e-06 1.6860788e-07 0.0
000190 6c 16 41 32 0b bd 5e 34 d5 b3 69 35 c2 d9 b2 34
       1.1239177e-08 2.0744135e-07 8.7060954e-07 3.3313523e-07
0001a0 00 00 00 00 10 f4 a0 32 0c fc 4e 34 b0 f8 86 35
       0.0 1.8737438e-08 1.9276939e-07 1.0056156e-06
0001b0 09 3a a5 35 7e c8 11 36 00 00 00 00 63 89 8b 34
       1.2310348e-06 2.1723386e-06 0.0 2.599073e-07
0001c0 28 37 54 35 2b 7d 03 36 1a 62 c7 35 00 00 00 00
       7.905642e-07 1.9593379e-06 1.4855207e-06 0.0
0001d0 65 32 43 34 9b 7a 3d 35 e2 6d bc 35 f4 42 08 36
       1.8179124e-07 7.05864e-07 1.4039072e-06 2.030455e-06
0001e0 00 00 00 00 14 04 83 34 e2 8d 51 35 b2 fd 4b 36
       0.0 2.440362e-07 7.8065034e-07 3.0397027e-06
0001f0 8a 4d 05 35 00 00 00 00 1b c7 cf 33 f7 1f 1b 35
       4.9659195e-07 0.0 9.675406e-08 5.7788515e-07
000200 ba 46 16 36 24 5f a5 35 00 00 00 00 d0 33 0d 34
       2.239291e-06 1.2321148e-06 0.0 1.3150498e-07
000210 c1 f9 3e 35 82 a9 5d 36 b1 a8 cb 34 00 00 00 00
       7.1143955e-07 3.3030233e-06 3.7934436e-07 0.0
000220 3d 6c 26 33 1f 00 0c 35 8a 58 2a 36 55 17 8c 35
       3.874833e-08 5.215424e-07 2.538351e-06 1.0437603e-06
000230 00 00 00 00 07 1e 6c 33 9d 01 25 35 7d ba 2a 36
       0.0 5.497534e-08 6.146964e-07 2.5440524e-06
000240 a0 f7 93 35 2f 0f 65 36 00 00 00 00 41 1c 00 34
       1.1024422e-06 3.4132497e-06 0.0 1.1931208e-07
000250 c0 bb 38 35 92 32 d0 35 68 2d 41 36 00 00 00 00
       6.8818554e-07 1.5511926e-06 2.878567e-06 0.0
000260 93 06 04 34 99 2f 32 35 56 6c d3 35 ea 5f 46 36
       1.229585e-07 6.637943e-07 1.5752255e-06 2.9560128e-06
000270 00 00 00 00 37 a3 e7 33 5b d4 37 35 2a b5 23 36
       0.0 1.0786464e-07 6.848183e-07 2.4394344e-06
000280 62 24 00 36 00 00 00 00 f2 63 c5 33 8c 71 29 35
       1.9094664e-06 0.0 9.191707e-08 6.312264e-07
000290 ec 7b 3f 36 f8 16 df 35 00 00 00 00 d9 8d bb 33
       2.853335e-06 1.662148e-06 0.0 8.733668e-08
0002a0 1b 0e 2e 35 6a bd 5e 36 cb 5b a4 35 00 00 00 00
       6.484058e-07 3.3190831e-06 1.2245667e-06 0.0
0002b0 22 4f 6b 33 5d 56 26 35 13 7a 62 36 be ea 94 35
       5.4787172e-08 6.1965494e-07 3.374768e-06 1.1095178e-06
0002c0 00 00 00 00 87 dc ba 33 64 1a 22 35 1e 4e 69 36
       0.0 8.7014136e-08 6.0388106e-07 3.4765176e-06
0002d0 ff 36 18 35 ac e3 38 36 00 00 00 00 91 92 00 34
       5.670444e-07 2.755066e-06 0.0 1.197425e-07
0002e0 b7 e8 33 35 75 e9 8e 35 6a 80 0f 36 00 00 00 00
       6.702134e-07 1.0647769e-06 2.1383407e-06 0.0
0002f0 65 3f 00 34 f2 3b 2e 35 07 e8 24 35 a6 02 38 36
       1.1943992e-07 6.4907283e-07 6.1432405e-07 2.7419678e-06
000300 00 00 00 00 9a 7e fe 33 c8 d0 33 35 6f 4a 20 36
       0.0 1.18508254e-07 6.6986513e-07 2.3885184e-06
000310 2a db 60 35 00 00 00 00 a5 39 93 33 3c d9 20 35
       8.376543e-07 0.0 6.8557064e-08 5.992076e-07
000320 24 5e ad 35 47 cf 07 36 00 00 00 00 3d 1f e6 33
       1.2916903e-06 2.023722e-06 0.0 1.0715892e-07
000330 bc c8 33 35 13 68 3d 36 8c 04 04 35 00 00 00 00
       6.6974803e-07 2.8223774e-06 4.918045e-07 0.0
000340 27 32 31 33 ae 72 0d 35 62 1a 0f 36 03 87 96 35
       4.1256637e-08 5.2693474e-07 2.1324017e-06 1.1215164e-06
000350 00 00 00 00 41 48 af 33 38 5d 22 35 a5 fa 3a 36
       0.0 8.1622154e-08 6.0485354e-07 2.7862054e-06
000360 e7 3e 38 34 9b 97 81 35 00 00 00 00 8c c4 35 33
       1.7159219e-07 9.655372e-07 0.0 4.2321105e-08
000370 41 09 7c 34 f3 13 7d 34 ac e5 6d 35 00 00 00 00
       2.3472695e-07 2.3569719e-07 8.8623597e-07 0.0
000380 f8 48 54 33 9a 1f 86 34 46 27 7b 34 95 e3 71 35
       4.942646e-08 2.4982438e-07 2.3390484e-07 9.011067e-07
000390 00 00 00 00 d7 27 49 33 f8 b1 82 34 c7 60 6b 35
       0.0 4.6835194e-08 2.4343876e-07 8.768515e-07
0003a0 00 b0 94 34 00 00 00 00 c1 d8 99 32 c4 da 67 34
       2.7695205e-07 0.0 1.7910113e-08 2.1593138e-07
0003b0 a0 a4 34 35 de 3d 04 35 00 00 00 00 7c e8 ef 32
       6.7294786e-07 4.926386e-07 0.0 2.7928984e-08
0003c0 a4 a6 74 34 3c b7 85 35 7b 6a 3c 34 00 00 00 00
       2.2784894e-07 9.9626e-07 1.7547602e-07 0.0
0003d0 97 56 b0 31 a1 b1 3d 34 d5 37 72 35 2c 01 88 34
       5.1321183e-09 1.7666618e-07 9.023327e-07 2.5332827e-07
0003e0 00 00 00 00 9e 69 e0 32 4b c0 4b 34 62 c3 7b 35
       0.0 2.6125061e-08 1.8975804e-07 9.3789106e-07
0003f0 77 28 19 34 99 a3 48 35 00 00 00 00 a2 df fb 32
       1.4263956e-07 7.474387e-07 0.0 2.9321942e-08
