Assets/results/T2/CarDriver/CarDriver-4418094.onnx (onnx, 188993 bytes, 9 tensors)

discrete_act_size_vector f4 [1, 2]
000000 00 00 40 40 00 00 40 40
       3.0 3.0

network_body._body_endoder.seq_layers.0.weight f4 [128, 225]
000000 f1 11 0d be 89 9d 5e bc a0 01 30 bc a7 30 9e 3d
       -0.13776375 -0.013587364 -0.010742575 0.077241234
000010 f2 22 45 3c 1d f1 10 3d be 9a 22 3d a0 2f db 3d
       0.012032257 0.035386194 0.039698355 0.10702443
000020 f0 3d 29 be 20 67 70 3d 60 bf fa bd 0a cc 0f be
       -0.16527534 0.058692098 -0.12243533 -0.14042678
000030 42 ab 80 3d 11 11 7c 3b 15 ef 4b 3a 65 cd 03 3e
       0.06282665 0.003846232 0.00077794614 0.1287132
000040 bd ba bb 3d e7 57 32 bd ff 6d 92 3d cd 59 6d be
       0.09166477 -0.04354086 0.07149886 -0.23178788
000050 60 d1 76 bd 20 a2 2c 3e a5 af 96 3c 1e b3 bf 3d
       -0.06025827 0.16858721 0.0183943 0.09360336
000060 29 5c de 3d 7f 26 ba bc 5b e3 15 3d cd 4a 01 be
       0.10857422 -0.022723434 0.036593776 -0.1262619
000070 87 4e 05 be c1 10 5f bc 36 91 be bd c5 6c de bc
       -0.13018237 -0.013614834 -0.093050405 -0.027151475
000080 a0 5e fc 3d 40 2f fa 3d 87 36 e7 3d d3 a0 dc 3c
       0.12322736 0.122160435 0.11289697 0.026932156
000090 c0 fe 9f bc 25 88 25 3e fe 21 09 bd d0 fd e7 3b
       -0.019530654 0.16165216 -0.033479683 0.0070798174
0000a0 3c b3 84 3c 7d 3a 99 bd 8f ea 1b be 09 27 5e 3e
       0.016198747 -0.07481859 -0.15226196 0.21694578
0000b0 aa 9f 61 3d 83 83 bb 3c f2 68 35 3d c8 3c ba 3c
       0.05508391 0.022889858 0.044289537 0.02273406
0000c0 83 73 96 3c be 73 e4 bc 93 9f 0f 3e 0e b4 27 3e
       0.018365627 -0.027887221 0.14025716 0.16377279
0000d0 c5 b5 89 bc 44 20 4a 3d 78 b6 d7 3d 94 5b f1 bd
       -0.016810307 0.049347177 0.1053285 -0.11785045
0000e0 d0 17 b7 bd 12 00 b0 bb be 21 59 3d 41 0a fd bd
       -0.08940089 -0.005371102 0.053010695 -0.123554714
0000f0 5e e5 58 bd d4 98 ae 3d 6a cf f9 bc f1 11 7a 3d
       -0.052953117 0.085252434 -0.03049441 0.061052267
000100 29 e8 52 be 6b cf bd 3d 40 b4 d7 bd 6b d6 03 3d
       -0.20596375 0.092680775 -0.10532427 0.032186907
000110 09 6f f6 3d 47 8a 7a bd bf 16 6a bd f8 ec d7 bd
       0.12032897 -0.061167028 -0.0571506 -0.10543245
000120 63 5c 54 bd ad 68 97 3d 24 7f 0b ba 70 33 65 bd
       -0.05184592 0.07393012 -0.00053213746 -0.055957258
000130 f4 26 74 bc 6e 8b 09 be b2 ae b5 3c 8c 12 0c 3e
       -0.014901865 -0.13432094 0.022178028 0.1367895
000140 71 d8 cb ba 97 3d c5 bd 27 01 55 bc 05 b0 e9 3c
       -0.0015552175 -0.09630888 -0.013000763 0.028526315
000150 49 a9 ba bd 39 98 c2 3d ba de 22 3e 27 dc 9f 3d
       -0.0911432 0.095016904 0.15905276 0.078056626
000160 93 f3 f3 3c 91 f6 1a bd 78 7c 1a 3d 64 d2 37 3d
       0.029779231 -0.0378328 0.03771636 0.04487838
000170 83 fa 3e be e9 0c 82 3d d9 f7 cc bc ba d5 2c be
       -0.1865025 0.06350119 -0.025020527 -0.16878405
000180 35 95 69 3d 09 a4 47 bd 43 a1 18 3e 93 45 5b 3d
       0.05702706 -0.04874042 0.14905266 0.053533148
000190 78 fc 58 bd 26 c9 ce 3d a6 35 2e be 40 3a 9f bd
       -0.052975148 0.1009696 -0.17012653 -0.07774782
0001a0 7b f8 51 bd 14 50 2e bd 18 1d 07 be 16 42 36 3e
       -0.05126236 -0.042556837 -0.13194692 0.17798647
0001b0 c2 45 57 bd 71 04 42 bd 00 cb 60 3d 5a 6a 39 be
       -0.05255676 -0.047367517 0.054881096 -0.18106976
0001c0 79 6a dd bd b4 6c 14 3d 97 9d 1f 3e 52 de 04 3e
       -0.10811324 0.03623648 0.1558746 0.12975433
0001d0 1f 37 9a 3d b8 98 cc 3c 61 6c 1f be 66 9f 70 3c
       0.07530045 0.024975166 -0.15568687 0.014686441
0001e0 85 e8 c6 bd 4e f9 84 3c 61 17 48 bc 68 80 62 bc
       -0.09712318 0.016232159 -0.012212605 -0.01382456
0001f0 c8 bd 0c 3e 7e 9e e0 bd 04 8f 18 be 57 3c 44 3e
       0.13744271 -0.1096773 -0.14898306 0.19163643
000200 c8 fc b0 bd 6c f7 8e 3d 55 a9 b9 bd 54 b2 c4 bd
       -0.08641964 0.06980786 -0.09065501 -0.09604326
000210 5e f2 1a bb 08 f4 12 be 18 52 69 bd 34 e6 3e 3e
       -0.0023642997 -0.14350903 -0.056963056 0.18642503
000220 57 dd a6 bd e2 a3 94 3e 44 39 90 bd 35 7c 95 bd
       -0.08147686 0.29031283 -0.070421726 -0.07299081
000230 13 73 80 bd f0 e9 5a bd d8 81 ed 3d fd 46 98 3d
       -0.06271949 -0.053445756 0.11597031 0.07435415
000240 3b 61 e4 3d 72 df a6 bd 95 b5 bd be 4d f4 f5 bd
       0.11151358 -0.081480876 -0.370526 -0.12009487
000250 f4 3f 40 be d1 c6 29 3e 1f 2b bf bc 9b da bc bd
       -0.18774396 0.16579749 -0.023335991 -0.09221383
000260 88 7e 75 3e 8b a0 38 bd a7 30 ec bd 07 da 22 3e
       0.23974049 -0.04507498 -0.11532717 0.15903483
000270 ac 4d 91 bd 4b 5e 62 bc cd 44 19 bd 64 cb 35 bd
       -0.07094893 -0.0138164265 -0.03741913 -0.04438342
000280 74 88 01 3e 0a d3 70 bd 65 4e 77 bd 17 1f 03 3e
       0.12649709 -0.058795013 -0.060377497 0.12804829
000290 e3 5c 42 bd dd 81 40 3e be c7 b9 3d f8 ca 52 bd
       -0.047451865 0.18799539 0.09071301 -0.051463097
0002a0 b4 b2 02 be 4a 02 63 bd ed 9b e9 3d 1f 2b c4 3c
       -0.12763482 -0.055422105 0.114066936 0.023946343
0002b0 b2 40 94 3e e1 52 33 be 17 a5 88 be 67 dd a4 3c
       0.2895561 -0.17512085 -0.26688454 0.020125104
0002c0 74 62 55 be 04 0b 27 3e d5 77 63 3d 7a 53 41 bd
       -0.20838338 0.16312796 0.055534203 -0.04719875
0002d0 e8 3e 46 3e ac db 1c be 77 2e db bb 4c 7e 3d 3e
       0.19359934 -0.15318173 -0.0066888887 0.1850521
0002e0 50 be 10 be a9 f3 4f 3c da 20 17 3e 5c f4 8f 3d
       -0.14135098 0.01269237 0.14758626 0.0702903
0002f0 53 43 10 3e fb 65 a0 be 0e b6 a1 bd 88 53 72 3e
       0.14088182 -0.31327805 -0.07896052 0.23664677
000300 14 41 a1 bd 70 1f f5 3d 09 c8 0b be 12 c3 b3 3d
       -0.07873741 0.11968887 -0.13650526 0.08777441
000310 1e 8b 6b bd 63 69 c4 bc c7 fd e1 3c 29 62 dc 3d
       -0.05750572 -0.023976034 0.02758683 0.1076091
000320 91 e7 1d 3e 45 17 2e be 6b 3a 20 bd f3 7f e7 3d
       0.15420367 -0.17001064 -0.03911821 0.11303701
000330 55 a8 10 be 6d 74 32 3e 0d 2a da bd 1b df b0 3d
       -0.14126714 0.17427225 -0.10652552 0.08636304
000340 d2 9a f1 3d ef d3 27 be 96 5f fb bd 7f 1c ab bc
       0.11797108 -0.1638944 -0.12274091 -0.020887611
000350 64 d0 c2 be 6c 70 54 3e 25 94 c2 3d 59 e8 8c bc
       -0.38049614 0.2074601 0.095009126 -0.017200636
000360 c7 c6 9c 3d b1 a0 6f be 96 23 35 3d 1e 99 f6 3d
       0.07655101 -0.23401143 0.04422339 0.120409235
000370 e3 3a 3d bd 09 fa b1 3d 56 af 03 3d 0b 11 91 bc
       -0.046198737 0.086902685 0.032149635 -0.017708322
000380 e7 ef 15 3d 76 96 5c bd 8c a9 ca 3b 8c dd 66 3c
       0.03660574 -0.05385443 0.0061847623 0.014090907
000390 ff dc 11 be 7b 0a 48 3b a7 bd 5b bd d8 e4 68 bd
       -0.1424446 0.0030523825 -0.053647663 -0.056858867
0003a0 c3 31 98 3c e4 77 d9 3c 3b db e7 bc 75 c4 db 3d
       0.018578416 0.026546426 -0.02830278 0.107308306
0003b0 29 5d a1 bd 26 c1 b3 bd 1b 78 28 bd a6 a9 82 3d
       -0.07879097 -0.087770745 -0.041130167 0.06380014
0003c0 26 c0 e2 bd 98 aa 33 bc e9 56 45 be 30 9b 11 be
       -0.11071806 -0.010965966 -0.19271435 -0.14219356
0003d0 70 ba 11 be 26 39 1e 3c be 42 1d be 02 79 f1 3d
       -0.14231277 0.00965718 -0.15357491 0.117906585
0003e0 95 ef ce bd 1c c9 d9 bd eb 3f e1 3d 51 18 2d 3d
       -0.101042904 -0.10634062 0.109985195 0.042259518
0003f0 69 40 3d be 9b 7e dc bc 02 02 f2 3b f5 ab 05 bd
       -0.18481602 -0.026915839 0.0073854933 -0.032634694

network_body._body_endoder.seq_layers.0.bias f4 [128]
000000 7e 8c b5 3c 9d fd d3 bd fc 47 41 3c 28 5f e4 3c
       0.022161718 -0.10351107 0.011796948 0.027877405
000010 1d cc 0b bc fc 4f 59 bb 97 ae 79 3c 2f 6d 83 3c
       -0.008532551 -0.0033159247 0.015239379 0.016043274
000020 2a 66 d2 bc 87 ff 33 bc cd 6a b1 3c 82 57 54 3b
       -0.025683481 -0.010986215 0.021657372 0.0032400792
000030 e5 5c 6d bc 19 34 79 bd 2f 1b 01 bc d5 2d cd bc
       -0.01448748 -0.0608407 -0.007880016 -0.025046268
000040 b6 51 d5 ba 5c 86 0b bd f5 46 d9 3c c1 3d 16 3d
       -0.0016274962 -0.034063682 0.026523093 0.036679987
000050 cd cf 55 bc 8b 9f 37 bd 31 2c 11 3d ee ee 06 bb
       -0.013050032 -0.044829886 0.035442535 -0.002058919
000060 6c bf 1c 3c 67 49 e3 bb c0 b5 08 3c 20 2c f4 bb
       0.009567123 -0.0069362405 0.008344114 -0.007451549
000070 cf 49 0c 3b 28 68 a9 bc d0 35 3f 3c 8b ae f7 bc
       0.0021406298 -0.020679548 0.011670545 -0.030234596
000080 d2 a5 ae ba 1e 18 bc ba f2 3d f7 3c 77 3b d0 3c
       -0.0013324565 -0.0014350449 0.030180905 0.02541898
000090 b5 38 8e 3c c3 6f 8f bc 62 7e 45 bd b2 b4 5a bb
       0.017361024 -0.017509347 -0.04821623 -0.0033371863
0000a0 ad 5f d6 3c 7f ba ca 3c d1 4d 07 3d b6 c5 cf 3c
       0.026168669 0.024747131 0.033033196 0.02536283
0000b0 12 9d 15 3c cd 02 ea 3b ce 2a 3a bd 8d c3 ff 3b
       0.009131687 0.007141447 -0.045450978 0.007805294
0000c0 b7 e3 de ba 12 6e 22 bd 50 74 9f 3a 80 75 c6 3c
       -0.001700512 -0.039655752 0.0012165401 0.02422595
0000d0 39 9f 08 bc 42 7f 21 bd 53 e7 3d bc 12 d0 53 bc
       -0.008338743 -0.039428003 -0.0115907965 -0.012928026
0000e0 4c d2 33 3d 3b a2 c0 bd 93 ac 56 bc 87 d4 08 3d
       0.043901727 -0.09405943 -0.013102668 0.033405807
0000f0 70 a8 ad 3b 67 4d 8f bd b0 37 be bc ca a7 77 bb
       0.0052996203 -0.06997185 -0.023219913 -0.003778922
000100 a8 05 2e 3c 44 17 c8 3c d2 e9 a1 3b 66 55 1e 3c
       0.010621466 0.024425156 0.0049412036 0.009663915
000110 b3 e5 13 bd de 92 1f 3d b4 47 89 bd 9c f0 c7 3c
       -0.03610773 0.038958423 -0.067031294 0.024406724
000120 cf d0 c8 3c 8b 2b 18 39 57 0e 08 3d d0 59 3a 3c
       0.02451363 0.0001451207 0.0332168 0.011373952
000130 26 65 82 bc 7e 60 e7 3b 1d e1 31 3c fb d5 b6 3c
       -0.015917372 0.0070610633 0.010856894 0.02231883
000140 29 c7 ec 3b 7a 2f 3a 3d 60 34 4b 3c 0b dc 9a 3c
       0.00722589 0.045455433 0.012402624 0.018903753
000150 a1 1b 0e 3d 3a 08 0f 3d 58 cc 72 3b eb d4 82 bd
       0.034694318 0.034919955 0.0037048068 -0.06388267
000160 2e 28 e7 bb 93 2f cc bc ec 26 ef 3c a6 f1 0c be
       -0.0070543503 -0.024925029 0.029193364 -0.13764057
000170 3d 12 3f bd 50 53 bf bc 95 89 24 3d 03 bc f0 3c
       -0.046648253 -0.023355156 0.04017027 0.029386526
000180 67 eb 92 3c 0a 5f 42 bc ea 41 8b 3c 3a b8 f8 3c
       0.017934514 -0.011863479 0.016999204 0.030361284
000190 bf 51 4d 3c 96 34 63 3c b0 e5 e8 bb 3a 8d 64 3c
       0.012531697 0.013867518 -0.007107459 0.013949687
0001a0 fd 10 7b 3c f3 c2 90 3c 62 e9 ac bc 3b 9c 01 bd
       0.015323875 0.017671084 -0.02110738 -0.031643134
0001b0 70 b0 f6 bc 14 c1 e3 3c b2 99 93 3b 17 97 83 3c
       -0.030113429 0.027802028 0.004504406 0.016063256
0001c0 fc 98 54 3b 01 b9 ac bc fd bc 30 3d 59 6d 10 bd
       0.0032439819 -0.02108431 0.043148983 -0.035260532
0001d0 ed f4 6f 3b ad 18 d3 3c ed 11 ae bc 03 a2 11 3d
       0.0036614493 0.025768602 -0.021248782 0.035554897
0001e0 dc 44 fa 3c e3 20 ad 3c e6 37 04 bc 8d 10 cb 3b
       0.030550413 0.021133846 -0.008069968 0.0061970414
0001f0 3b 78 17 bc ba f8 a0 3c f7 8f 80 bb 76 64 84 3c
       -0.009244974 0.019649852 -0.003923412 0.016161185

network_body._body_endoder.seq_layers.2.weight f4 [128, 128]
000000 82 cf 59 be ad 2a 95 bb ef 91 8d 3c a1 3f 90 3e
       -0.21270564 -0.0045522065 0.0172815 0.28173545
000010 c8 79 15 3c a6 3a 30 bb e2 ce cc bc df cd b3 b9
       0.009123273 -0.0026890426 -0.025000993 -0.00034294926
000020 34 00 7a 3e 8c 41 e8 3c a4 b9 52 bc 00 05 48 3d
       0.2441414 0.028351568 -0.012861643 0.048832893
000030 c4 e1 22 be c7 61 58 3d 13 20 8b bd bc 60 2e 3e
       -0.15906435 0.052827623 -0.06793227 0.17029089
000040 a0 a0 a9 3d a6 3a 8e be 84 0a b9 bd b0 c6 0f be
       0.0828259 -0.2777912 -0.09035209 -0.14040637
000050 26 56 b7 bd bd 41 db bc 8d 25 17 3e 93 aa 52 be
       -0.089519784 -0.026764745 0.14760418 -0.20572881
000060 e4 04 88 bc da cf 18 bd 66 89 42 3e fb 3d f8 bd
       -0.016603895 -0.037307598 0.18997726 -0.12121197
000070 91 4e b5 bd 15 47 0a be 3b 34 a3 bd 9a 02 1c bd
       -0.08852876 -0.13503678 -0.079689465 -0.03808842
000080 57 85 3c bd 13 66 bd 3d 55 70 43 3b 7f 48 85 bc
       -0.0460256 0.09247985 0.0029821594 -0.01626992
000090 82 27 9b 3c cc 28 0b be ed 50 42 be c2 39 fe 3d
       0.018939737 -0.13589782 -0.18976183 0.1241336
0000a0 6d cb cf bd aa b4 37 be cc 9f 0d be e2 9c 34 bd
       -0.10146222 -0.17940012 -0.13830489 -0.044094928
0000b0 c1 c1 f5 3b 38 eb 6a 3e 64 36 13 be ff 37 b2 3d
       0.007499904 0.22941291 -0.14376217 0.08702087
0000c0 ec 08 12 3e 1d 23 e9 3d c1 a2 33 3d 48 0c 88 3d
       0.14261216 0.113836505 0.043856386 0.066429675
0000d0 be b4 65 bd a2 e5 1a bd 31 33 a8 bd 57 75 d5 3c
       -0.056080572 -0.03781665 -0.08212889 0.026056929
0000e0 9a 77 97 3c e3 0e 3a be 36 8a 98 bc be d8 54 3a
       0.018489648 -0.18169741 -0.018620592 0.00081194553
0000f0 bd da 7c 3d fc 2e 88 bc 50 39 a2 bd 0c 82 ba 39
       0.061732043 -0.016623966 -0.07921088 0.00035573577
000100 d0 42 88 3d 60 89 47 bd 61 1a fb 3d e4 a8 7a bc
       0.066533685 -0.048714995 0.12260891 -0.015299056
000110 64 1b d9 3d 29 8f aa 3d 6b 2c 2f be cc 0e 95 bd
       0.106009275 0.08328087 -0.17106788 -0.07278213
000120 50 b4 0e 3e 74 91 ff 3c 5a bf ae 3d 3d 34 eb 3d
       0.13935971 0.031197287 0.08532591 0.11484573
000130 0c b8 8e bd b8 a2 cb bd ef 20 f7 bc ca 02 0f 3e
       -0.06968698 -0.099431455 -0.030167071 0.13965908
000140 d4 8f 3c 3e fe 4f fe bd a0 50 cb 3d 95 62 99 bc
       0.18414241 -0.12417601 0.099274874 -0.018723765
000150 9c 05 8f 3d 5f 75 17 bd db 05 dc bd 3e 4c e3 3d
       0.06983492 -0.03697717 -0.10743304 0.110985264
000160 ba 14 fa bd 8c 4c 4d be f8 43 12 3d fc b2 d8 3d
       -0.122109845 -0.20048732 0.03570935 0.105810136
000170 76 e6 f6 bd f2 b2 e7 3c bb 91 47 bd 39 2d fe 3d
       -0.12055676 0.02828357 -0.048722964 0.12410969
000180 bd 2d f1 bc 5a f6 8b 3e cf 35 3f 3b 5b dd 46 3e
       -0.029440755 0.2733639 0.002917636 0.19420378
000190 3d b0 d2 bd 58 e9 04 3e ba 42 5a 3d d4 52 95 bc
       -0.10287521 0.12979639 0.05328629 -0.018227972
0001a0 3e 3b 21 3d 8c 68 f7 3c 29 a4 b4 bd 21 a2 1d 3e
       0.03936314 0.030201219 -0.088203736 0.15393879
0001b0 a0 3b f4 bd f7 e9 76 3d 62 56 1c be a5 60 63 3d
       -0.11925435 0.06028172 -0.15267327 0.05551209
0001c0 d5 4f 18 3d 49 1a c8 3d 05 96 2b bd 8c 5d 8f be
       0.03718551 0.097706385 -0.041891117 -0.28001058
0001d0 44 1b bb 3d d9 04 19 be b3 1e 0f be 6a 20 99 3d
       0.0913606 -0.14943255 -0.13976555 0.074768856
0001e0 df a6 b7 bb 64 a6 08 be 02 b0 02 bc ff 50 c6 3d
       -0.0056046094 -0.13344723 -0.007976534 0.096834175
0001f0 f6 a5 22 3b 36 5a 30 bd c5 41 05 3d 05 cb 62 bd
       0.0024818159 -0.04305478 0.032533426 -0.055369396
000200 d7 86 0c 3e 28 bf 81 bd 43 ba 2e 3e 2a 3c 1e bd
       0.13723312 -0.06335288 0.1706324 -0.038631596
000210 fa 0b 4e be 3f 94 7d 3c 6c 22 39 3c 62 37 2a 3e
       -0.20121756 0.015477239 0.011299711 0.1662269
000220 63 21 d3 3d 0d 88 df bd b5 eb 66 bd d2 36 88 be
       0.103091024 -0.109146215 -0.05637713 -0.26604325
000230 39 2c a5 3c c0 79 1b bd 0b 7d 48 be 7c 58 e5 bd
       0.020162689 -0.037957907 -0.1957895 -0.11198518
000240 c4 7e 4c be 41 ac a2 3d 07 9c fe bd 1e d6 ab 3d
       -0.19970232 0.07943011 -0.124321036 0.08390449
000250 7a 28 05 3e c8 22 9e bd c1 d1 06 3e d8 ba 40 3e
       0.13003722 -0.07721478 0.13165952 0.18821275
000260 75 d2 5d 3e bb fb be 3d 70 c2 20 be a9 7d 26 3c
       0.21662314 0.093253575 -0.15699172 0.010161796
000270 e6 ec 6f 3d 54 aa f3 3d ba d8 3a 3d b5 06 12 bd
       0.058575533 0.11897722 0.045616843 -0.035650928
000280 49 98 12 be dc df 57 bc 91 65 8d bb 62 81 00 be
       -0.14315905 -0.013175931 -0.004315086 -0.12549356
000290 6e 19 be 3c f1 64 b2 3c e6 13 5b bd 10 d0 6f bd
       0.023205485 0.021776648 -0.053485774 -0.058548033
0002a0 42 a4 ed bd bd 80 16 3e 0f 38 6b 3e cc a2 73 be
       -0.11603595 0.14697547 0.22970603 -0.23792571
0002b0 b9 c2 a4 bd 93 c8 d2 3d 04 32 57 be 57 4c 4f 3e
       -0.08044953 0.10292163 -0.21015173 0.20243965
0002c0 57 f5 2c be bd 1f 95 be 53 9e f3 bd 20 98 00 3e
       -0.16890465 -0.29125777 -0.11895432 0.12558031
0002d0 11 b5 c2 bc fd f4 52 be 7f 97 ff bd 84 b7 1f 3c
       -0.02376798 -0.20601268 -0.124800675 0.009748343
0002e0 e4 90 73 be f8 e9 be 3d c8 5b 8d bd d7 e2 f1 3d
       -0.2378574 0.0932197 -0.069022715 0.118108444
0002f0 e0 d6 c2 3d ea 32 ea 3d cb f2 2e be 03 32 54 be
       0.095136404 0.11435492 -0.17084806 -0.20722203
000300 38 0d ab 3d b5 45 24 3e 57 9d fb bd a1 1b e8 bb
       0.08352131 0.16042216 -0.122858696 -0.0070833717
000310 6e bb 8c 3d 50 64 57 3e db 3d 5d 3b 27 33 20 3e
       0.06871687 0.2103436 0.0033758793 0.15644513
000320 eb d3 90 3d 01 60 fb 3d ac f7 05 be bb 36 aa bd
       0.0707167 0.12274171 -0.1308276 -0.0831122
000330 cc 08 82 3e ed b0 6b 3e 95 35 ce 3c a7 10 ba 3d
       0.25397336 0.2301671 0.025172034 0.090852074
000340 61 4b 6a be 5f 95 95 bd 2b 06 07 be 6a 75 f3 3c
       -0.22880317 -0.07303881 -0.13185947 0.029719073
000350 39 dd 49 be e4 b0 93 3c 98 9b 3c bd 15 65 00 be
       -0.19713296 0.018028684 -0.046046823 -0.1253856
000360 3b 37 31 bd 89 d6 2b be c7 19 22 3e 8c bd b2 3d
       -0.043265563 -0.16781057 0.15830146 0.087275594
000370 93 a3 ae 3d 16 ac 5a be c9 ce f4 3d 4a d4 97 bd
       0.08527293 -0.21354708 0.11953504 -0.07413538
000380 81 60 5b be 03 a8 a4 3d 0b 05 27 3e 5b 40 98 be
       -0.21423532 0.08039858 0.16310517 -0.297366
000390 55 1d 6d be da f0 30 3e 2c 75 57 bd f2 0f 60 be
       -0.2315572 0.17279378 -0.05260198 -0.21881083
0003a0 46 ab 0d 3e 7b c3 34 3e 67 b6 8b 3d 93 04 3e 3d
       0.13834867 0.17652695 0.068219 0.04639108
0003b0 65 8a da bd f0 6e 5c bd 80 ad f7 bc 7c c3 94 be
       -0.10670928 -0.053816736 -0.030234098 -0.29055393
0003c0 42 31 56 3e 04 58 00 be fb ff 04 bd b2 9b 06 be
       0.20917228 -0.12533575 -0.032470684 -0.1314533
0003d0 d7 9b d4 bd db b0 83 bd 26 b8 32 3e 57 66 8f bd
       -0.103812866 -0.06430217 0.1745306 -0.07001942
0003e0 c4 77 9a be 8b c3 1f be 9c 53 68 bd db 9e a6 bd
       -0.301695 -0.15601937 -0.05672036 -0.08135768
0003f0 3a b9 dd bd 88 38 20 3d 4c 24 d0 3d c0 e0 51 3e
       -0.10826345 0.039116412 0.10163173 0.20495892

network_body._body_endoder.seq_layers.2.bias f4 [128]
000000 64 89 4e bb 46 d8 d0 3d 03 86 f4 bd ca bc 4a 3d
       -0.0031514997 0.10197501 -0.11939623 0.04949645
000010 91 c7 0d bd dc ca 44 bc 45 c9 8a bd c0 ee 99 bd
       -0.03461415 -0.012011256 -0.0677667 -0.07516241
000020 c1 ce 8a 3d d2 0b f7 3c 0b 8d 57 3a 1b 68 2f 3d
       0.067777164 0.030157004 0.0008222616 0.042823892
000030 e1 1f ed bb b7 88 af 3c 93 7a 57 bd b4 cd 1c 3b
       -0.0072364663 0.021427495 -0.05260713 0.002392632
000040 17 80 e1 3c ec a4 09 3a 93 7a 96 bd 6c 84 69 3d
       0.027526898 0.00052507105 -0.07347598 0.057011053
000050 4c 73 1a be f0 f2 0f 3b 1b 18 10 3d d2 18 86 bd
       -0.15083045 0.002196487 0.03517924 -0.06547703
000060 18 7c 17 3d 4b 82 7a bd 47 3d 2c 3d 26 55 83 3a
       0.03698358 -0.061159413 0.042050626 0.0010019883
000070 51 b7 df bc 51 47 42 bd 21 cc be bd cd 56 4f bd
       -0.027309092 -0.047431294 -0.09316278 -0.05061989
000080 3c cb e0 3c d8 4b 66 3c 6d 3f 25 bd bc 8a bb 3a
       0.02744066 0.0140561685 -0.04034369 0.0014308314
000090 a4 b1 46 bd c7 92 0e bd 9d ad 93 3b 7c bf d5 bc
       -0.048509255 -0.034807947 0.0045067803 -0.026092283
0000a0 0b ee f8 3c 0c 63 55 3c 61 94 75 bc 2e b9 1f 3d
       0.030386945 0.013024103 -0.01498899 0.03899496
0000b0 0a 9f 91 bc 0a dc b0 3c cb 5f ee bd 9e a7 6a bd
       -0.017776031 0.021589298 -0.11639365 -0.05728876
0000c0 fc 54 02 3d 7d 8e e0 3c 69 0e 2b bd 0e 52 e9 ba
       0.03181933 0.027411694 -0.04176179 -0.0017800943
0000d0 b9 3c 36 3d 18 66 04 3d 15 81 14 3c 2f f1 27 3d
       0.044491503 0.032323927 0.009063979 0.041001495
0000e0 73 2c 36 bd 82 13 17 3c d7 19 d6 3c 05 5c c0 bc
       -0.044475984 0.00922096 0.026135368 -0.023481378
0000f0 34 0d b4 3d de b0 a9 3c 93 72 89 bd 52 84 48 3d
       0.08791581 0.02071422 -0.067113064 0.048954315
000100 1a cf 86 3d 3b 63 63 3d 84 e2 89 bd f1 c7 c6 bb
       0.0658247 0.055514555 -0.067326576 -0.0060663153
000110 9f 9a bb 3d ee a6 d7 bd 81 c2 0a be b4 60 4b 3d
       0.09160351 -0.10529886 -0.1355076 0.04965277
000120 21 6d 9f bc de ec c2 3c 66 1b cb bb 5f 81 7d bd
       -0.019461216 0.023794588 -0.0061983345 -0.061890956
000130 4f 48 8a bd 0a 8d 11 3d 6f e7 af bd 8f 87 ec 3c
       -0.06752073 0.035534896 -0.08589064 0.028873233
000140 c2 e3 9e ba 76 cc c5 bd 74 53 6f bd ea cf e2 bd
       -0.001212232 -0.096581385 -0.058429196 -0.11074813
000150 05 ea 51 bd 5b b9 ac bd 57 05 44 3d 02 9a 92 3c
       -0.05124857 -0.08433791 0.047856655 0.017895702
000160 0a 2b 44 bc 0d 23 ad 3d 53 1b 24 3d c4 c8 84 3c
       -0.011973152 0.08453951 0.04006512 0.016209014
000170 9b f3 15 bd bc 30 bb bb 2e b4 6f 3c 63 8f eb bc
       -0.036609273 -0.0057125967 0.0146303605 -0.028754896
000180 77 a6 b2 bc 68 bd 8d bd 6c fb c2 bc 91 00 63 3c
       -0.021807892 -0.06920892 -0.023801528 0.0138551155
000190 87 4b a8 bd 75 23 d9 3c 60 80 e0 bb bb 67 0d 3d
       -0.08217531 0.026506165 -0.006851241 0.034522753
0001a0 ff 9a 74 bc c0 ff 12 bc 18 9f 7d bd 2b 54 68 bd
       -0.014929532 -0.008972108 -0.0619193 -0.056720894
0001b0 8e 42 8f 3c 40 72 9c bd a6 cf 4d bd 6c 2c ac bd
       0.01748779 -0.07638979 -0.050246857 -0.0840691
0001c0 eb 35 01 3d 4f 94 b2 bb b5 2e 26 3c ac 87 28 bd
       0.03154556 -0.0054498087 0.010142972 -0.04114501
0001d0 61 80 20 3d 24 5a d6 bd bf 3f 39 3b 23 0b 9b 3c
       0.03918493 -0.10466412 0.0028266755 0.018926209
0001e0 fd 64 8b bc 2a 39 da 3d 4c b0 a5 bd 4e 0c 3c 3d
       -0.017015928 0.106554344 -0.080902666 0.045910172
0001f0 bd 53 c8 3c b2 fb a1 bd 8e f7 c1 3c c4 4d 03 3c
       0.024453992 -0.07909335 0.023677614 0.008014146

action_model._discrete_distribution.branches.0.weight f4 [3, 128]
000000 1a e2 bc 3b b8 ca 6b bc 2d b8 80 3d 58 8e 50 bd
       0.005764258 -0.014391594 0.06285129 -0.050917
000010 d3 04 c8 3b db 1f ba 3c 66 94 81 3d 67 37 9d 3c
       0.0061040907 0.022720268 0.06327133 0.019191457
000020 f5 a2 e1 bc 84 ad 93 bd 30 d0 e5 bc 7a 7e c7 bc
       -0.027543524 -0.0721083 -0.028053373 -0.0243523
000030 44 af ea 3d 09 4e bd 3c 23 f6 9f 3d 20 f3 f7 bc
       0.114592105 0.0231085 0.07810619 -0.030267298
000040 80 35 d0 bc e2 7a 81 3d 17 37 ce 3d 44 f4 62 b9
       -0.025416136 0.06322266 0.10069101 -0.00021644036
000050 05 26 ce 3d 0c b5 48 bd 08 b6 d1 3c 33 70 0d 3e
       0.100658454 -0.049000785 0.025599495 0.13812332
000060 fc 90 f8 bb be 88 be 3d 64 09 8e bd ba da 2c 3e
       -0.007585643 0.09303425 -0.06935385 0.16880313
000070 2f 85 ae 3d 53 90 e2 3d 9b a4 bd 3d 5a c9 cf 3d
       0.085214965 0.11062684 0.092599116 0.10145827
000080 c7 41 86 bc a8 16 f1 bc ab f5 be 3d 5f 79 0d 3d
       -0.016388787 -0.029429749 0.09324201 0.034539577
000090 ca 0f c1 3d f8 3b d0 bc 64 67 77 3c b4 fa fa bb
       0.0942684 -0.02541922 0.015100334 -0.0076592807
0000a0 e8 03 7e 3c 98 00 9d 3d 6f 64 ef 39 48 de 7f 3c
       0.015503861 0.07666129 0.0004566046 0.015616961
0000b0 ed a6 2d 3c 90 5a bb bc 2b 79 ee 3d d8 91 03 3e
       0.01059888 -0.022870332 0.11644205 0.12848604
0000c0 38 a8 72 3d 20 59 21 3d 23 0e b8 3d 2d 8e 99 3b
       0.059242457 0.039391637 0.08987071 0.004686138
0000d0 f1 7a 38 bd df 71 50 bd f5 61 3b 3d 5d 09 e8 bc
       -0.04503912 -0.050889846 0.045747716 -0.028324777
0000e0 00 15 d0 3d 95 64 ff 3c 61 0e 44 3d 7f 7f 40 3d
       0.101602554 0.031175891 0.047865275 0.04699659
0000f0 2a aa 63 bc 7f 7a 81 3d 7f 80 c9 3d c2 ef b7 bc
       -0.013895551 0.063221924 0.09838962 -0.022453193
000100 f6 09 81 bd e1 97 00 bd 6e 38 8c 3c 48 4f 01 bd
       -0.06300728 -0.031394843 0.017116752 -0.03156975
000110 12 25 52 bd 1a 3a da 3d 54 77 0d 3d fb 39 aa 3c
       -0.051304884 0.10655613 0.03453763 0.0207796
000120 fd 96 00 bb 58 83 3a 3c 27 93 2e 3d be 4e 4a 3d
       -0.0019621246 0.011383854 0.042620804 0.0493915
000130 2d c2 19 3e d3 23 81 3d 2c 66 6a 3d 6d 07 73 bc
       0.15015478 0.06305661 0.057226345 -0.014833313
000140 cb 22 6d 3b 50 09 e0 3d fb bd 2c 3e 50 45 67 3d
       0.0036184068 0.10939276 0.16869347 0.056462586
000150 1b c7 8e 3d 76 17 0a 3d 5a f2 85 bd d3 6d 37 3d
       0.0697157 0.03371378 -0.065403655 0.04478247
000160 94 c3 7a 3d 11 30 b4 bc 3c 1c 68 bd ce fc 4f 3c
       0.061221674 -0.021995576 -0.05666755 0.012694551
000170 d4 36 d4 3d 29 3b 2b 3d c3 3e a3 3c 6e 1b 9e bc
       0.1036202 0.041804466 0.019927388 -0.019300189
000180 f0 9c 02 3e 62 d4 ef 3d 24 f7 0c 3d f9 b5 b7 bd
       0.1275518 0.11710431 0.03441538 -0.089702554
000190 df 5c d5 3d 7b 3f fa 3c 63 59 b3 3b 3b 07 84 ba
       0.104181044 0.030547848 0.005473302 -0.0010072956
0001a0 c0 40 08 3d d1 a6 08 3d 2d 8f e5 3c 43 eb 92 3d
       0.033264875 0.033362214 0.028022373 0.07173779
0001b0 c5 55 d6 3b ff 48 01 3e db 5b 38 bc c1 b9 95 3d
       0.0065409862 0.12625502 -0.011252369 0.0731082
0001c0 e2 43 4f bd c3 58 db 3d 6e 4a b2 bb 9a 49 52 bd
       -0.050601847 0.10710289 -0.0054410016 -0.051339723
0001d0 81 df f4 bc a8 09 95 bc b7 32 2f 3c eb ce f6 3c
       -0.029891731 -0.018193081 0.010693244 0.030127963
0001e0 d4 f0 5d bc 8f 24 b5 bd 9c 36 cc 3d c1 66 0b 3d
       -0.013546187 -0.088448636 0.099713534 0.03403354
0001f0 0b 53 cb bc 19 8b 21 3e bd fc 05 bd 9b 95 97 bc
       -0.024819871 0.15775718 -0.032711733 -0.018503955
000200 6b 6f 6e 3d f9 b4 ad 3d f1 50 17 be fa 0b c9 3d
       0.058211725 0.084817834 -0.1477697 0.098167375
000210 d9 10 1d 3c 35 6e 09 3d 12 35 dc bd a1 06 bb bd
       0.009586536 0.033552367 -0.1075231 -0.09132124
000220 c6 84 6e 3d ed c9 44 3d 6c e4 2b 3d ce 1a 22 3d
       0.05823209 0.048044134 0.041965887 0.039576344
000230 4e b3 a6 bd 67 3e 7a 3d e6 6e 93 bd 73 fc 4e 3d
       -0.081396684 0.061094668 -0.071988866 0.050533723
000240 10 02 b4 3d ab 0c 9a bd ed ac d1 bd 70 a1 83 3d
       0.08789456 -0.075219475 -0.10238061 0.06427276
000250 8a d9 88 bd 6f 33 19 ba ed 28 41 3d f9 8a 03 be
       -0.06682117 -0.0005844151 0.04715817 -0.12845983
000260 3d b8 92 3c 99 49 05 be 47 5d d1 3d e9 b6 42 be
       0.017910117 -0.13016357 0.10222869 -0.19015087
000270 6d 48 99 bc 80 c8 1c be 50 65 e7 bd 8b 01 01 be
       -0.018711293 -0.1531086 -0.11298621 -0.12598245
000280 b8 65 8c 3d 5e 65 98 3c b5 3d 49 bc b6 e8 44 3d
       0.06855339 0.018603023 -0.0122827785 0.048073493
000290 1d fb 03 be b2 3e b0 bc 86 d7 f0 3c 76 44 d8 3c
       -0.12888761 -0.02151427 0.029399645 0.026399832
0002a0 05 69 8b 3d 7b e5 4f bc 3e 3d 86 3b cb 32 50 3d
       0.0680714 -0.01268899 0.004096656 0.05082969
0002b0 0d 62 5d 3d 42 ad 95 3d 00 48 1c be c2 1b 15 be
       0.054048587 0.07308437 -0.15261841 -0.1456137
0002c0 c3 7c a0 bc 59 d3 05 bd 46 6a d8 bd a6 14 58 bd
       -0.019590741 -0.03267226 -0.10567145 -0.052754067
0002d0 cd 73 bd 3d 60 64 3a 3d a7 a6 05 3d 65 57 c1 3d
       0.09250603 0.04550588 0.032629635 0.09440497
0002e0 23 6b 04 be ca 99 0d 3d 9e 24 0b bd c3 75 1a bd
       -0.12931494 0.034570493 -0.033970468 -0.037709963
0002f0 36 1b 8f 3d 59 0a 98 ba be 33 10 be 8b 9d 2b 3d
       0.06987612 -0.0011599764 -0.14082238 0.04189829
000300 1e f3 b3 3d 2e d1 a9 3d c1 66 f0 bd 65 36 98 3b
       0.08786605 0.08291851 -0.11738349 0.004645156
000310 a5 cb a6 3d 26 e7 16 be cb 16 85 bd 1d c3 01 3d
       0.08144311 -0.14736614 -0.06498488 0.031680215
000320 60 74 b9 3b 88 e9 44 3d ed 7b 4b 3d da 58 7c bd
       0.005659625 0.048074275 0.04967873 -0.061608173
000330 1e 2d cb bd b6 09 64 bd 03 8b df bd c8 2b c1 bc
       -0.09920715 -0.055673324 -0.10915186 -0.023580447
000340 35 37 22 3d 4f b9 06 be 3d af 0f be 3c 57 c1 bd
       0.03960343 -0.13156627 -0.14031692 -0.09440467
000350 df 48 70 bd f0 be da bd a1 ec ad 3d 63 69 6d 3c
       -0.058663245 -0.1068095 0.08492399 0.014490458
000360 78 7c 93 bd f9 f2 f2 3d 88 31 36 3d ef 15 5e 3d
       -0.07201475 0.118627496 0.04448083 0.054220136
000370 8a c9 c4 bd 4e 77 fa 3a 37 a5 6e 3d c8 4d 3a 3c
       -0.09608753 0.0019109042 0.05826303 0.011371084
000380 47 42 11 be 46 c2 ff bd 7d c8 cf bc 0b 10 90 3d
       -0.14185439 -0.124882266 -0.025364155 0.0703431
000390 e2 d8 f3 bd aa 9f 84 3d c2 b5 01 3d ca 1c 50 3c
       -0.119066015 0.06475766 0.03166748 0.012702176
0003a0 a7 37 84 bc 7c a6 c6 bb 45 1b 55 bd 6c f5 83 bd
       -0.016139818 -0.006062327 -0.05202796 -0.06443295
0003b0 cf 55 29 3d 48 38 a4 bd 30 d0 21 bd 98 ff 31 bd
       0.0413416 -0.08018547 -0.039505184 -0.043456644
0003c0 6e 01 ba 3d 7c 6e 11 be ed af 24 3d fc 9a d7 bb
       0.09082304 -0.14202303 0.04020684 -0.006579755
0003d0 99 21 9a 3d ec 9f 7e bd a0 fe 90 3d a2 57 72 3d
       0.075259395 -0.062164232 0.07079816 0.059165604
0003e0 bd 47 5f 3c 52 b6 fe 3d 7b b0 99 bd 92 7e bd 3c
       0.013627944 0.124371186 -0.07504364 0.023131642
0003f0 92 04 8c 3d d0 9d 05 be b4 f0 2c 3d de f0 61 3d
       0.06836809 -0.13048482 0.04222174 0.05516135

action_model._discrete_distribution.branches.0.bias f4 [3]
000000 c3 80 fd bd 5b 73 1e 3e 38 0e 99 bd
       -0.12378075 0.15473692 -0.07473415

action_model._discrete_distribution.branches.1.weight f4 [3, 128]
000000 3f 86 d0 bb ef 04 dd 3c e7 3e d7 bc 0e bb b7 bc
       -0.0063636596 0.026979892 -0.026275111 -0.022428062
000010 eb f4 0c be fd cb 37 bc a0 00 82 3b f5 eb a9 bc
       -0.13765304 -0.011218068 0.0039673597 -0.020742396
000020 4e d4 d2 3d e9 09 7f bb 57 47 aa bd 44 c4 24 3d
       0.102944 -0.003891582 -0.08314388 0.040226236
000030 b2 c1 0e 3e 65 d4 02 be b9 bf 17 3d e3 b5 eb 3c
       0.13941076 -0.12776335 0.037048075 0.028773254
000040 d3 d2 3f bc 72 5d 00 3e 74 ac 3a bd 65 9e ea 3d
       -0.011707979 0.12535647 -0.04557462 0.114559926
000050 ef d0 d8 bc ab 18 cf bc 59 b7 c1 3c 4e 43 e8 bc
       -0.026466815 -0.025280317 0.023646997 -0.028352406
000060 5d 5c 52 3d 89 e2 db 3b 1a 90 12 bd 5b 29 04 bd
       0.051357616 0.0067103547 -0.035781957 -0.032266002
000070 2d 41 08 3d 96 a2 b7 bc 2e 7b 37 bd b7 e4 1e bc
       0.03326528 -0.022416394 -0.044795208 -0.009698085
000080 98 b1 81 bc e6 b5 00 bd 71 b9 87 3b 5b 94 ce 3c
       -0.015831754 -0.031423472 0.0041419794 0.025217226
000090 e4 fd 0b bd ae b5 8c bd 1b 23 88 bd f2 de 3b 3c
       -0.034177676 -0.0687059 -0.06647321 0.0114667285
0000a0 2d 90 87 bd d3 a0 d3 3d 9c b7 05 bd 73 20 c3 3c
       -0.06619296 0.10333409 -0.032645807 0.023819184
0000b0 40 c2 ff 3b 79 42 d2 3c 9a 14 b3 bc 8c 3b 20 bd
       0.007805139 0.025666462 -0.02186041 -0.03911929
0000c0 12 3d 0f 3e a7 b2 0d 3e d1 27 b0 bc 2f 72 ce 3d
       0.1398814 0.13837682 -0.021503361 0.100803725
0000d0 8e ef a7 bd 78 8d ab bc 52 53 81 bd d1 6e 52 bd
       -0.08199988 -0.020941481 -0.0631472 -0.051375214
0000e0 b9 3b 02 bd 21 b5 15 3d ae 9d ba 3d c1 36 03 be
       -0.031795237 0.03654969 0.09112106 -0.12813856
0000f0 fb a7 23 3d 6c 4c 15 be 98 3f de 3c 5a 1d ea bb
       0.03995512 -0.14579934 0.027129933 -0.0071446123
000100 eb ac 28 bd 1d d2 1f 3b c2 e5 ae 3c 36 3c f9 bd
       -0.041180532 0.0024386712 0.021349791 -0.121696874
000110 f9 b8 c9 3d f7 1e b6 bc 8d 98 40 bd 64 d2 00 3e
       0.09849734 -0.022231562 -0.047020484 0.12580258
000120 6f af f2 bd 50 a8 ba bd b4 16 e6 bc 90 f2 9e bd
       -0.118498676 -0.09114134 -0.028086998 -0.07761109
000130 63 b4 c9 bc 1e df e3 3d 4d 74 f2 bd ae 7e 8f bc
       -0.024622148 0.111265406 -0.11838589 -0.01751646
000140 1f 37 c6 bd 8c 4b 78 bd 58 f7 61 bd 32 dc 6e bb
       -0.09678482 -0.060618922 -0.055167526 -0.0036447165
000150 92 41 39 3d 0a 4b 34 bd d9 89 84 3d 0b 93 f7 bd
       0.04522855 -0.044016875 0.06471605 -0.12088593
000160 43 d0 aa 3d 22 22 03 3d 10 32 0c 3d 3c 32 07 be
       0.08340504 0.032014973 0.03422743 -0.13202757
000170 c6 65 07 3c 71 0b c1 3d 6d a1 79 bd eb 59 0c be
       0.008264011 0.094260104 -0.060944963 -0.13706176
000180 9e 4a db bc 6c d9 0b bd 92 ac 17 be 0e bb f3 bd
       -0.026768979 -0.034142897 -0.14811924 -0.11900912
000190 52 da 0a bd fe fd a9 3d e7 1d 94 3c 19 92 23 3b
       -0.033899613 0.08300398 0.018080665 0.0024958907
0001a0 71 75 a7 3c c1 33 5d 3c 28 7a a0 bc cd 55 1d bd
       0.020441743 0.013501109 -0.019589499 -0.038411904
0001b0 d5 5b c7 bd 4c 5b 85 3d 6e d7 65 bb 83 fe 42 bd
       -0.097343124 0.06511554 -0.0035071033 -0.047606003
0001c0 1f 31 c1 3c 09 5f 38 bc 6f 3c b8 bd 61 86 87 bd
       0.023582993 -0.011253127 -0.08995902 -0.066174276
0001d0 f4 2b 60 3c bb ed 35 bd 6b 3a c2 3d 50 ca 5c 3d
       0.013682354 -0.04441617 0.094837986 0.053903878
0001e0 6c 52 30 be bd 45 26 3c cb 4a 04 bd 07 8d 7e 3d
       -0.17218941 0.010148463 -0.03229789 0.062146213
0001f0 f8 eb 94 bd de ff 02 bd 52 83 07 be 48 2a c1 bd
       -0.0727157 -0.031982295 -0.13233688 -0.09431893
000200 aa df 5f 3d 76 69 52 be 5e 46 d5 3c be 97 26 be
       0.054656662 -0.20548043 0.02603453 -0.16268823
000210 9c f6 06 3e 41 e8 b6 3d 1c 95 2c 3c 4d 4e 17 3d
       0.13180012 0.08931018 0.010533597 0.036939908
000220 2b fa 9d 3c c6 da 22 3d 34 fd e5 3c aa 03 78 bd
       0.019284328 0.03975942 0.028074838 -0.06055037
000230 a0 69 56 3d 45 f0 0b 3e 2b 87 7a bc 65 87 2f bd
       0.052346826 0.13665874 -0.015291016 -0.04285373
000240 75 70 a0 bc 5f c3 14 3d ca b4 42 3d ba e5 61 bd
       -0.019584874 0.036319133 0.047535695 -0.055150725
000250 6b 4c c8 3b 67 25 b4 3c fe 16 0f be 22 14 1f 3b
       0.0061126254 0.021990491 -0.13973615 0.0024273475
000260 a6 60 a5 bd 80 1d 80 3c c7 a5 8d 3d 04 c6 cf 3c
       -0.08075075 0.015639067 0.06916385 0.025362976
000270 5c 01 20 bd 03 36 ed 3c d1 18 11 3c 38 34 19 bb
       -0.039063796 0.028956419 0.008856014 -0.0023377072
000280 b6 14 82 3d be c9 5a bc cc 55 0b 3d fa 58 9e 3b
       0.063516065 -0.013353763 0.03401737 0.004832384
000290 18 d9 46 3d f8 50 a0 3d 54 fc fb 3d 51 23 f0 3c
       0.04854688 0.078279436 0.12303987 0.029313715
0002a0 60 e1 77 bc b4 d3 9e bc 0a 6c 83 3d 07 35 47 3c
       -0.015129417 -0.019388057 0.06417091 0.012158639
0002b0 32 a6 60 bd 65 39 61 3c b3 35 fc 3c 48 fa 30 3d
       -0.054845996 0.013746594 0.030787325 0.043207437
0002c0 3e 51 0f bd e6 0a e8 3b bb 31 88 3d aa 9b 16 be
       -0.034989588 0.0070813773 0.0665011 -0.14707819
0002d0 e8 c9 15 3d 1f 16 95 3d 8a 93 87 3d a0 5b 9b bc
       0.036569506 0.0727961 0.06619938 -0.018964589
0002e0 e5 73 75 3d 84 b2 67 3d db 36 18 bd 49 f3 85 3c
       0.05992498 0.05656673 -0.03716169 0.016351359
0002f0 fa 5c 3b be ba 0c c0 3d 25 52 03 bd 1d 42 8a 3d
       -0.18297186 0.093774274 -0.03206076 0.06750891
000300 32 8f b0 bd 27 1d a1 3d 82 f4 20 bd 9d 94 02 3e
       -0.08621062 0.078668885 -0.03929568 0.12752004
000310 e1 61 42 3d 22 51 00 3d e7 e1 5a 3d 24 ee 92 bc
       0.047456626 0.031327374 0.053438094 -0.01793582
000320 41 55 dd 3d 0c ab 01 3e e3 b9 a2 3d 33 5e 46 3d
       0.108072765 0.12662905 0.07945611 0.04842968
000330 d6 6e 18 39 e0 0b 3c 3d ed b7 8d bc 7e b8 16 3d
       0.00014537139 0.045909762 -0.017299617 0.03679704
000340 93 85 24 3d 2a 8b 80 3c be 4d 5d 3d 37 b1 89 bc
       0.04016645 0.015691359 0.05402922 -0.016808135
000350 9d bf 8e bd fd 55 fd 3c f0 55 bf 3c f8 40 d1 3d
       -0.06970141 0.030924791 0.023356408 0.1021747
000360 bf ec a1 3c 61 6f 4e be b8 9c 0b 3d 5d 73 af 3d
       0.01976621 -0.20159675 0.034085006 0.08566926
000370 c4 e2 11 bc 60 b3 ef 3c 7b df 92 3d 4a 8f 1a 3e
       -0.008904163 0.029260337 0.07171532 0.15093723
000380 59 b6 3a 3d 40 57 a0 3c a6 de 43 3e d2 69 a6 3c
       0.045584057 0.019572854 0.19127902 0.020314131
000390 05 8e 68 bb 34 61 85 bc bc 4b c5 39 55 90 82 3d
       -0.003548504 -0.016281702 0.00037631195 0.063751854
0003a0 56 a8 be bd 78 cf 48 3c 77 bd 54 bc f1 2c 60 3b
       -0.09309451 0.012256496 -0.012984625 0.0034206475
0003b0 99 e0 af 3d c4 d7 39 bc 2e c8 34 bc 44 67 ab 3d
       0.085877605 -0.011342946 -0.011034055 0.08369306
0003c0 e3 49 98 3d 0a 3f 08 3d 8d 39 04 3e 89 4b d7 3c
       0.07435968 0.033263244 0.12912579 0.026281135
0003d0 f8 8c 4a bd 16 d1 04 3b c3 4b 8e bd 3a bf cb bd
       -0.049450845 0.0020266226 -0.06948044 -0.09948583
0003e0 85 34 28 3e d1 1a 14 be c4 67 d9 ba a0 e4 00 bb
       0.16426285 -0.14463355 -0.0016586711 -0.001966752
0003f0 e7 25 a8 3d f1 33 05 3d 43 40 9b 3d 60 64 ee 3d
       0.08210354 0.03252024 0.07580616 0.11640239

action_model._discrete_distribution.branches.1.bias f4 [3]
000000 9a e6 f1 3c 74 6f b0 bc df 68 f7 bb
       0.029528905 -0.02153752 -0.0075503434
