Assets/results/T2/CarDriver/CarDriver-198560.onnx (onnx, 190017 bytes, 9 tensors)

discrete_act_size_vector f4 [1, 2]
3.0 3.0
00000000: 0000 4040 0000 4040

network_body._body_endoder.seq_layers.0.weight f4 [128, 227]
-0.018644283 -0.0972065 0.08059925 -0.066741526 0.06616614 0.045987863 0.051703397 0.0067509017
0.0041924883 -0.07691691 -0.06550306 -0.1167599 0.016266176 0.025449935 0.106535874 0.0906339
-0.040160265 0.003040776 -0.078480214 0.022942854 -0.033881113 0.06446529 -0.017968401 0.021363368
0.023019578 0.041507635 0.037166007 -0.08792383 -0.084976114 -0.03135379 0.0071716015 -0.030639378
-0.03401346 0.056512035 -0.03544676 -0.07182048 -0.049685333 -0.0522734 0.09616387 -0.017363433
-0.06956444 0.02389743 -0.06052679 -0.06813286 -0.038983934 -0.084575355 -0.05818883 -0.077914335
0.025573699 0.067416795 0.040512193 0.014457887 0.098598875 -0.06904367 -0.07891921 -0.090698764
0.048016258 -0.008634971 0.026420292 0.055307902 0.06124471 -0.035058465 0.02532854 0.06093598
0.049127445 0.022336006 0.021899391 0.057737973 -0.09176839 0.027777983 -0.043713387 -0.0012972697
0.012298664 -0.17073332 -0.2021563 0.020466693 0.014804116 0.041608807 -0.024572028 -0.031364515
-0.02197439 -0.05036364 -0.07828217 -0.047131892 0.009610265 -0.06695009 -0.013778646 0.019459905
0.023272406 -0.11994682 0.04117367 -0.026352635 0.075511076 0.069728225 0.06227052 -0.024940407
-0.008068603 -0.058903586 0.09190903 0.047911942 0.018006602 -0.013657239 0.008291727 0.031559873
-0.06295163 0.13726777 -0.028151877 -0.020744026 0.0013387124 -0.0052813324 0.030575456 0.01266567
-0.050901607 0.03431177 -0.03539838 0.013077437 -0.010299883 0.11806127 0.022922534 -0.034530338
-0.028310724 -0.11063186 0.061596908 0.019876411 0.054914176 -0.11802611 0.05349781 0.17159654
-0.08576553 -0.051759105 -0.03225935 -0.040553287 -0.0885322 0.07619078 -0.09896861 0.018267235
-0.013630188 -0.11496218 0.036694165 -0.11234933 0.06473569 -0.08814281 0.070328735 0.04919588
0.06681785 -0.0721886 0.04967989 0.057427783 0.045264237 -0.13606794 0.009788073 -0.060563873
-0.023110442 0.0313898 -0.01882332 0.03721402 -0.119633876 0.06358803 -0.102875076 -0.040373515
0.019952275 -0.004802262 -0.0883198 0.0067422455 0.08595589 -0.05945236 -0.0029301601 0.07725543
0.08055447 -0.10256059 -0.07035025 0.113750376 -0.06812206 0.09656994 0.01370781 -0.014567186
0.09485276 0.03188357 0.041284647 0.092553765 0.02459378 0.117109574 -0.046266247 0.06751439
0.014455551 0.08376729 -0.032901935 0.06193523 -0.07227527 0.050072864 -0.051039606 -0.03233868
0.015715921 -0.010827753 -0.09351098 -0.08330972 0.0066653243 -0.17094642 -0.09335662 -0.002785022
-0.0102732815 -0.013131906 -0.031207161 0.09214121 0.046026792 -0.10480104 -0.06281221 -0.049153768
0.024748044 0.02301335 -0.0640166 -0.08928567 -0.011662379 0.03299743 0.03295277 0.0044775507
0.010714411 0.03455765 -0.13605396 -0.16584563 0.17369018 -0.012660499 -0.021392556 0.120225824
0.016248543 -0.09036461 -0.033794876 -0.053642184 0.13336505 -0.12906252 -0.050761748 -0.072933175
-0.01403977 0.011181254 0.011519027 -0.03370358 -0.043678213 -0.10381266 0.03779517 0.058977775
0.030728173 -0.01665456 -0.040096093 -0.09200746 -0.116189115 -0.10273011 -0.10725162 0.053601433
-0.012144844 0.115330994 0.031440523 -0.033447463 0.063693956 -0.04212914 -0.015859585 -0.08671647
00000000: e5bb 98bc 3414 c7bd 3811 a53d c8af 88bd
00000010: 1d82 873d c55d 3c3d f1c6 533d ab36 dd3b
00000020: 2461 893b 9d86 9dbd 7826 86bd d01f efbd
00000030: a540 853c 627c d03c 7b2f da3d 449e b93d
00000040: 177f 24bd c147 473b 3cba a0bd a7f2 bb3c
00000050: ecc6 0abd 6106 843d 7832 93bc 3b02 af3c
00000060: 8e93 bc3c e903 2a3d 623b 183d 6911 b4bd
00000070: f507 aebd d56c 00bd c1ff ea3b 6fff fabc
00000080: b351 0bbd 2a79 673d 9f30 11bd 9e16 93bd
00000090: d982 4bbd a21c 56bd 90f1 c43d c23d 8ebc
000000a0: cd77 8ebd 8bc4 c33c f0ea 77bd 3e89 8bbd
000000b0: 9ead 1fbd d835 adbd 6957 6ebd 8d91 9fbd
000000c0: ef7f d13c d111 8a3d 1df0 253d c6e0 6c3c
000000d0: 35ee c93d c566 8dbd 65a0 a1bd 46c0 b9bd
000000e0: b2ac 443d b279 0dbc 5e6f d83c 8a8a 623d
000000f0: bcdb 7a3d 7799 0fbd cc7d cf3c 0298 793d
00000100: dc39 493d 00fa b63c 5a66 b33c a77e 6c3d
00000110: 11f1 bbbd a78e e33c cf0c 33bd 2609 aaba
00000120: 5680 493c b7d4 2ebe 1002 4fbe c4a9 a73c
00000130: f78c 723c ff6d 2a3d 474b c9bc 1478 00bd
00000140: a303 b4bc 1b4a 4ebd 6752 a0bd 5f0d 41bd
00000150: 5f74 1d3c 211d 89bd d4bf 61bc 616a 9f3c
00000160: c6a5 be3c aea6 f5bd b9a5 283d 7be1 d7bc
00000170: 8da5 9a3d accd 8e3d 5f0f 7f3d d34f ccbc
00000180: 2d32 04bc e344 71bd cd3a bc3d 503f 443d
00000190: 9582 933c 9dc2 5fbc 06da 073c ed44 013d
000001a0: c9ec 80bd ec8f 0c3e c49e e6bc 60ef a9bc
000001b0: bc77 af3a 070f adbb 6179 fa3c ac83 4f3c
000001c0: 347e 50bd 808a 0c3d e4fd 10bd bf42 563c
000001d0: d7c0 28bc 1bca f13d 0ac8 bb3c af6f 0dbd
000001e0: e4eb e7bc f592 e2bd 0a4d 7c3d dbd3 a23c
000001f0: b0ed 603d acb7 f1bd 8520 5b3d 01b7 2f3e
00000200: d7a5 afbd 5b01 54bd 6122 04bd 341b 26bd
00000210: 5f50 b5bd e909 9c3d 0eb0 cabd 2ba5 953c
00000220: 2751 5fbc 4b71 ebbd 9f4c 163d 6817 e6bd
00000230: 2594 843d 3884 b4bd 8308 903d 9e81 493d
00000240: ccd7 883d 9ed7 93bd 247d 4b3d 6539 6b3d
00000250: fe66 393d 6555 0bbe 275e 203c d311 78bd
00000260: 1c52 bdbc 9792 003d 5d33 9abc ba6d 183d
00000270: 9b02 f5bd 713a 823d 2bb0 d2bd b35e 25bd
00000280: f472 a33c 4b5c 9dbb 03e1 b4bd 0eee dc3b
00000290: a409 b03d 5184 73bd ee07 40bb 1838 9e3d
000002a0: bef9 a43d 490b d2bd cb13 90bd f5f5 e83d
000002b0: 9483 8bbd 76c6 c53d b996 603c 35ab 6ebc
000002c0: 2a42 c23d 5998 023d 171a 293d d48c bd3d
000002d0: e578 c93c 25d7 ef3d ad81 3dbd fc44 8a3d
000002e0: fad6 6c3c 2f8e ab3d 2ec4 06bd ccaf 7d3d
000002f0: 0f05 94bd 3419 4d3d e80e 51bd 9075 04bd
00000300: adbe 803c e366 31bc af82 bfbd 499e aabd
00000310: cb68 da3b 940c 2fbe c131 bfbd ea84 36bb
00000320: 4451 28bc 3527 57bc 29a6 ffbc 88b4 bc3d
00000330: 9786 3c3d eda1 d6bd b0a3 80bd 7655 49bd
00000340: 69bc ca3c 7e86 bc3c 231b 83bd 68db b6bd
00000350: 9013 3fbc 5028 073d 7cf9 063d 6bb8 923b
00000360: 7f8b 2f3c 538c 0d3d bb51 0bbe 70d3 29be
00000370: d7db 313e fb6d 4fbc 713f afbc f538 f63d
00000380: aa1b 853c 1511 b9bd 7f6c 0abd e8b7 5bbd
00000390: d990 083e f728 04be 8deb 4fbd fd5d 95bd
000003a0: 1007 66bc 9431 373c 4dba 3c3c c40c 0abd
000003b0: ede7 32bd bb9b d4bd 1ccf 1a3d ae92 713d
000003c0: a6b9 fb3c 256f 88bc cd3b 24bd 686e bcbd
000003d0: 8ff4 edbd 2a64 d2bd bda6 dbbd 2d8d 5b3d
000003e0: 2bfb 46bc a832 ec3d c7c7 003d 3500 09bd
000003f0: fa71 823d 9b8f 2cbd f6eb 81bc 6898 b1bd

network_body._body_endoder.seq_layers.0.bias f4 [128]
-0.004675918 -0.012277516 0.055621374 0.015613017 -0.0066871927 -0.012202582 -0.019964019 -0.006078913
-0.011632568 -0.0056589483 -0.01523097 -0.006844638 0.0068614185 -0.005504506 0.012934191 -0.00537273
0.025751216 -0.004417346 -0.01785021 0.0013337849 0.005618144 -0.002622141 0.004846077 -0.0069812387
-0.004717431 -0.0067703715 -0.0001321733 0.010097655 -0.014300613 -0.018162267 -0.009470207 -0.0049284203
-0.0031705615 -0.007879288 -0.0055844793 -0.00838721 0.015213545 0.000564146 0.0037489426 0.03735597
0.0021224353 -0.0027572475 -0.004350686 -3.809878e-05 0.001263411 0.011162945 0.0138756875 -0.006556817
-0.008879298 -0.0030838903 -6.511737e-05 -0.0095826965 -0.0071794963 -0.010183969 0.004292751 0.00070571265
-0.016527183 -0.005371838 -0.020373521 -0.005973541 0.0020280487 -0.008390581 -0.0026200875 0.022471618
-0.0065911403 0.02851102 0.006801576 -0.013818783 0.0030209415 0.009922107 -0.010095229 -0.0062461784
-0.02135078 -0.00023311883 -0.017868645 0.0070338543 -0.0058214446 -0.0063129077 -0.0076858983 0.00067799847
-0.0027980288 0.017609721 0.000990426 -0.00027805116 -0.002234282 -0.0015819983 -0.00032033047 -0.00033395202
-4.1051035e-06 -0.0068945535 -0.0008396071 -0.0045305635 -0.015506292 -1.41881355e-05 0.009719911 -0.0022000482
-0.0071903965 -0.007392898 -0.009777638 -0.005648366 0.0086303335 -0.04455163 -0.013348357 -0.0004411413
-0.012222136 2.5473218e-08 -0.022609338 -2.9160023e-05 0.007763769 0.0019097418 -0.011191246 -0.00535536
-0.0035968593 -0.0019443412 -0.01630259 -0.009583067 -0.01690822 0.007100145 0.01502967 -7.1822484e-05
-0.0042364285 -0.006469471 -0.0029129195 -0.0031074178 -0.0036198199 -0.0066151475 -0.011491058 -0.008611968
00000000: 7138 99bb a227 49bc 3dd3 633d bdcd 7f3c
00000010: 3d20 dbbb 57ed 47bc 958b a3bc 9e31 c7bb
00000020: 8796 3ebc b36e b9bb 528b 79bc fc48 e0bb
00000030: c0d5 e03b 255f b4bb eee9 533c ba0d b0bb
00000040: 37f4 d23c 62bf 90bb 9b3a 92bc 65d2 ae3a
00000050: 6818 b83b 3ad8 2bbb d7cb 9e3b e0c2 e4bb
00000060: ae94 9abb fed9 ddbb 0098 0ab9 a270 253c
00000070: 1e4d 6abc 09c9 94bc ed28 1bbc 967e a1bb
00000080: 32c9 4fbb 2118 01bc 02fe b6bb 826a 09bc
00000090: 3c42 793c 32e3 133a d2b0 753b 9302 193d
000000a0: 8e18 0b3b f0b2 34bb 3390 8ebb 41cc 1fb8
000000b0: 0a99 a53a c9e4 363c da56 633c 91da d6bb
000000c0: 7a7a 11bc 181b 4abb 9f8f 88b8 be00 1dbc
000000d0: fb41 ebbb a9da 26bc 35aa 8c3b 93ff 383a
000000e0: 0464 87bc 3e06 b0bb 5fe6 a6bc b2bd c3bb
000000f0: 03e9 043b a678 09bc c6b5 2bbb 6616 b83c
00000100: 7efa d7bb f18f e93c c1df de3b 2d68 62bc
00000110: fdfa 453b 5590 223c 7666 25bc beac ccbb
00000120: d5e7 aebc 5c71 74b9 4461 92bc 3f7c e63b
00000130: d1c1 bebb 82dc cebb fdd9 fbbb b5bb 313a
00000140: 225f 37bb 4342 903c 2fd1 813a 65c7 91b9
00000150: 086d 12bb 0e5b cfba 07f2 a7b9 4816 afb9
00000160: 92be 89b6 b5eb e1bb 1419 5cba 1f75 94bb
00000170: 1a0e 7ebc 9409 6eb7 4340 1f3c af2e 10bb
00000180: 6b9d ebbb 2040 f2bb 6332 20bc ee15 b9bb
00000190: 3e66 0d3c c57b 36bd 11b3 5abc fc48 e7b9
000001a0: 5b3f 48bc 33d0 da32 3837 b9bc ac9c f4b7
000001b0: 3767 fe3b 4d50 fa3a 7d5b 37bc 047c afbb
000001c0: 49b9 6bbb 44d9 feba 028d 85bc 4c02 1dbc
000001d0: 1b83 8abc 55a8 e83b 013f 763c 679f 96b8
000001e0: bdd1 8abb dbfd d3bb aee6 3ebb d2a5 4bbb
000001f0: 803a 6dbb e1c3 d8bb fe44 3cbc 3619 0dbc

network_body._body_endoder.seq_layers.2.weight f4 [128, 128]
-0.07091576 0.010774628 -0.06868916 -0.18207444 0.015099454 0.18978737 0.03777882 -0.23640409
-0.22109096 -0.08817971 0.010403759 0.03647356 -0.08073591 0.045042742 0.015540895 -0.086382
-0.009498343 -0.13637379 -0.16338827 -0.02663018 0.15742853 0.04702578 -0.094570994 -0.10458966
0.11698434 -0.061623834 0.047182046 0.02936055 -0.0774752 -0.020324666 -0.03816473 -0.105010316
0.07795307 -0.025829148 0.08174333 -0.07352104 0.09006018 -0.0824961 -0.09124843 -0.0346832
0.01880064 -0.04011775 -0.0121752145 -0.08712517 0.15023388 -0.106510215 -0.043825887 -0.022963824
0.1447869 0.034847766 0.1015793 0.015181324 0.013100453 0.14770187 -0.14485404 0.013869519
-0.047091473 -0.10438762 -0.040196605 0.09965899 0.16781668 -0.015511777 0.036506813 -0.13338055
-0.1536084 -0.09831647 0.09513798 -0.023597505 -0.13279581 -0.04549141 -0.06659428 0.02744157
-0.27936697 -0.14973475 0.082083546 0.15244296 -0.11013905 0.08802059 0.03608151 -0.01835528
-0.11427166 -0.07162509 0.16606328 -0.030493535 -0.035694297 0.0005409432 -0.07622609 -0.031520203
0.08492782 0.06924738 -0.08456736 -0.033527438 -0.025273705 0.05249903 0.14322498 0.06755707
0.017451165 -0.0673375 -0.12610158 -0.16883296 -0.09057823 -0.07813033 -0.05248126 0.06006835
0.00881588 0.18817246 -0.04331932 0.008291584 -0.046982463 -0.046952624 0.023400024 0.055705775
0.060318522 -0.009364782 -0.14800225 0.11869098 -0.01883734 -0.01381149 0.001986822 -0.18316385
-0.05645492 0.03699318 -0.1805183 -0.009055815 -0.07739588 0.0043034954 0.051496334 0.08688679
0.10877161 0.07760215 -0.025687082 0.19959246 0.11690134 -0.06395462 0.15129387 -0.11805285
0.07791803 0.005108262 0.15513866 0.17261526 -0.04259373 -0.10571581 -0.02546041 -0.058046233
-0.016118612 -0.067534685 -0.08321505 -0.008801896 0.025563769 -0.024528075 0.008795097 0.036570884
0.07288766 0.056193385 -0.040926207 0.022945447 0.11437027 -0.13449228 -0.021985851 -0.011517397
-0.080824144 -0.22254771 0.025917638 -0.020393636 0.008185042 0.018580994 -0.025613414 -0.11172294
-0.02577389 -0.053977914 0.072895445 0.03149951 0.07007818 -0.033778142 0.1480314 0.1390941
0.05786497 -0.006674186 0.021777187 0.18198703 0.0068283863 -0.071400106 -0.005967897 -0.14189233
-0.058785494 -0.048246138 -0.043590087 0.022863008 0.045005083 -0.13445967 0.016473645 -0.0127923535
0.04659351 -0.038698792 -0.10398864 0.070058346 -0.01375345 -0.18376122 -0.073340304 0.11764538
0.0680088 0.1538679 0.038760252 -0.02718135 0.034931008 -0.084892936 -0.22015318 -0.06332337
0.13002777 0.08899356 0.005357219 -0.008155331 -0.09826379 -0.027339548 -0.03876135 -0.028234504
-0.077712975 0.13272259 0.046485614 -0.028547434 -0.06572668 -0.034294523 -0.08680994 0.13225776
0.15950283 -0.12529418 0.012668263 -0.09303662 -0.111118756 -0.018848076 0.02039689 0.021610964
0.0061268187 -0.033547122 0.056886826 0.13218966 -0.022942394 -0.123116925 0.021376839 -0.08769149
0.05094618 0.09292693 -0.02858795 0.13959448 -0.09445057 -0.08510078 0.025255427 0.030060578
0.09705415 -0.08863846 0.03823053 -0.0038913125 -0.08770653 -0.01785311 -0.01790142 -0.032891817
00000000: 483c 91bd 1188 303c e7ac 8cbd b971 3abe
00000010: b363 773c 9f57 423e f7bd 1a3d ea13 72be
00000020: ab65 62be 9097 b4bd 8774 2a3c 4d65 153d
00000030: de58 a5bd bd7e 383d 3d9f 7e3c 0ce9 b0bd
00000040: f09e 1bbc 92a5 0bbe 414f 27be 8927 dabc
00000050: f234 213e 1b9e 403d 70ae c1bd 1b33 d6bd
00000060: 7c95 ef3d 4669 7cbd f641 413d 8985 f03c
00000070: 51ab 9ebd ea7f a6bc 9f52 1cbd a60f d7bd
00000080: dca5 9f3d a697 d3bc 0c69 a73d 3392 96bd
00000090: 7971 b83d b7f3 a8bd 75e0 babd f90f 0ebd
000000a0: cd03 9a3c 8352 24bd 8d7a 47bc ae6e b2bd
000000b0: e9d6 193e 0722 dabd c682 33bd a11e bcbc
000000c0: 0443 143e 88bc 0e3d cf08 d03d 17bb 783c
000000d0: 48a3 563c 293f 173e 9e54 14be fb3c 633c
000000e0: fde2 40bd 2dc9 d5bd 32a5 24bd 031a cc3d
000000f0: 23d8 2b3e 1c25 7ebc 2b88 153d e994 08be
00000100: 854b 1dbe 255a c9bd b4d7 c23d 8e4f c1bc
00000110: a0fb 07be 3355 3abd 9562 88bd 25cd e03c
00000120: 3009 8fbe 1154 19be 6b1b a83d 021a 1c3e
00000130: 9590 e1bd 2444 b43d 35ca 133d d05d 96bc
00000140: 4307 eabd 2db0 92bd 7e0c 2a3e 94cd f9bc
00000150: 2f34 12bd 15ce 0d3a 6d1c 9cbd 541b 01bd
00000160: a3ee ad3d 92d1 8d3d a731 adbd 1154 09bd
00000170: cd0a cfbc 3909 573d 92a9 123e 5c5b 8a3d
00000180: bff5 8e3c 3ee8 89bd c620 01be 8ce2 2cbe
00000190: 1481 b9bd cb02 a0bd 97f6 56bd 3b0a 763d
000001a0: 7b70 103c 48b0 403e 996f 31bd 6dd9 073c
000001b0: af70 40bd 6551 40bd 68b1 bf3c bd2b 643d
000001c0: 8e10 773d be6e 19bc e78d 17be 4214 f33d
000001d0: c450 9abc 9649 62bc 5835 023b 4e8f 3bbe
000001e0: 463d 67bd 2986 173d cad9 38be d75e 14bc
000001f0: bb81 9ebd 5604 8d3b d2ed 523d b4f1 b13d
00000200: a6c3 de3d e0ed 9e3d b76d d2bc f761 4c3e
00000210: f869 ef3d a4fa 82bd c8ec 1a3e b1c5 f1bd
00000220: 7d93 9f3d 3563 a73b abdc 1e3e 0ec2 303e
00000230: c376 2ebd 8881 d8bd 5a92 d0bc e3c1 6dbd
00000240: 2e0b 84bc a04f 8abd a76c aabd d435 10bc
00000250: 1c6b d13c 1aef c8bc 4f19 103c 5acb 153d
00000260: 2046 953d 092b 663d 3da2 27bd 17f8 bb3c
00000270: f63a ea3d 58b8 09be ac1b b4bc 77b3 3cbc
00000280: 2187 a5bd 8ce3 63be 3a51 d43c 8e10 a7bc
00000290: 8e1a 063c 2b37 983c 39d3 d1bc ffce e4bd
000002a0: c423 d3bc f217 5dbd 354a 953d a105 013d
000002b0: 2685 8f3d f35a 0abd 8b95 173e af6e 0e3e
000002c0: d203 6d3d 21b3 dabb 1266 b23c cf5a 3a3e
000002d0: a8c0 df3b 383a 92bd 598e c3bb 394c 11be
000002e0: 0fc9 70bd be9d 45bd 858b 32bd 344b bb3c
000002f0: 4057 383d ccaf 09be bdf3 863c 0597 51bc
00000300: d6d8 3e3d a082 1ebd fff7 d4bd c07a 8f3d
00000310: 2656 61bc e72b 3cbe 7133 96bd 10f0 f03d
00000320: 3348 8b3d 8c8f 1d3e 12c3 1e3d 6cab debc
00000330: d113 0f3d 59dc adbd d66f 61be afaf 81bd
00000340: 0026 053e 4142 b63d 9c8b af3b f09d 05bc
00000350: 873e c9bd 30f7 dfbc 39c4 1ebd 0c4c e7bc
00000360: fb27 9fbd 6ee8 073e b367 3e3d 4fdc e9bc
00000370: b69b 86bd 6a78 0cbd 69c9 b1bd 946e 073e
00000380: b654 233e 1e4d 00be 8c8e 4f3c fc89 bebd
00000390: 3b92 e3bd 4867 9abc 6117 a73c 7a09 b13c
000003a0: 7bc3 c83b b568 09bd 2902 693d ba5c 073e
000003b0: b0f1 bbbc ba24 fcbd 7b1e af3c 9997 b3bd
000003c0: f1ac 503d 7950 be3d 4731 eabc dbf1 0e3e
000003d0: 4d6f c1bd 5149 aebd 78e4 ce3c 9a41 f63c
000003e0: 54c4 c63d 1588 b5bd 9e97 1c3d 6405 7fbb
000003f0: 7b9f b3bd af40 92bc 00a6 92bc 92b9 06bd

network_body._body_endoder.seq_layers.2.bias f4 [128]
-0.014973874 -0.0052876347 -0.007714969 -0.0018191923 -0.006289047 -0.0067861755 -0.006899874 0.005290648
-0.009603891 -0.012790453 -0.007553309 -0.0033948417 -0.013788524 -0.009692542 -0.0005231231 0.0017405504
0.0017947281 -0.0041686366 -0.0140747195 -0.0051058307 -0.0189338 -0.009953644 0.0030490598 -0.013337532
-0.01532463 -0.0041713296 -0.005294986 -0.018452173 0.007845126 -0.009502284 -0.015179263 0.007617121
-0.0052521112 -0.02642082 -0.010202035 -0.007829198 -0.011337383 -0.016739968 0.00012570542 -0.01038387
0.00095726934 -0.007881819 -9.960253e-05 -0.010526342 -0.007447168 -0.012736616 -0.014847549 -0.0042174757
-0.00798161 -0.009400386 -0.010822271 -0.004990348 -0.002718165 -0.002924238 -0.018317195 -0.013942621
-0.013078218 -0.0033158716 -0.012501376 0.0009561176 -0.015575166 -0.008718057 -0.015085837 -0.00827833
-0.015169084 -0.004590395 -0.0027893875 -0.0150569845 -0.00817638 -0.0010593683 -0.008803274 -0.0012353444
-0.017537596 -0.019252555 -0.013595824 -0.013275664 -0.000852212 -0.013624131 -0.010159982 -0.012363191
-0.010968507 -0.018075634 -0.012794704 -0.0074113994 -0.009605536 -0.016067415 -0.0028515172 -0.014995804
0.0010328288 -0.010037866 -0.013344536 -0.0032093045 -0.01677487 -0.01476978 -0.011323537 -0.021228474
-0.00924131 -0.017804345 -0.0101102535 -0.015497098 -0.008137246 -0.00968001 -0.0048587937 -0.00861484
0.0009793848 -0.013814461 -0.005634698 0.0019269314 -0.005749646 -0.01127505 0.003160431 -0.008511809
-0.01051629 -0.0018895594 -0.0082195215 -0.009991821 -0.015592639 -0.0077169347 -0.010140728 -0.005812832
-0.0012847567 -0.00979927 -0.010645637 -0.013368755 0.00021863959 -0.0035483942 -0.009887484 0.0014866141
00000000: fb54 75bc e543 adbb dacd fcbb f771 eeba
00000010: 5a14 cebb 915e debb 5718 e2bb 2c5d ad3b
00000020: a359 1dbc 0c8f 51bc c081 f7bb fe7b 5ebb
00000030: 43e9 61bc 78cd 1ebc 3222 09ba 2e23 e43a
00000040: 153d eb3a 0f99 88bb a799 66bc d04e a7bb
00000050: 0e1b 9bbc 9c14 23bc bcd2 473b aa85 5abc
00000060: 2814 7bbc a6af 88bb 9081 adbb 0329 97bc
00000070: d888 003c 78af 1bbc 72b2 78bc 0b99 f93b
00000080: e719 acbb 7a70 d8bc 7026 27bc 0946 00bc
00000090: 6ec0 39bc 4222 89bc cbcf 0339 1c21 2abc
000000a0: 42f1 7a3a bf22 01bc b3e1 d0b8 ae76 2cbc
000000b0: 6007 f4bb 3dad 50bc 2243 73bc c032 8abb
000000c0: 4cc5 02bc 1404 1abc e54f 31bc 1386 a3bb
000000d0: 3e23 32bb 93a4 3fbb f10d 96bc 976f 64bc
000000e0: 0646 56bc 184f 59bb 92d2 4cbc f7a3 7a3a
000000f0: fb2e 7fbc 2ed6 0ebc 962a 77bc d5a1 07bc
00000100: c087 78bc 066b 96bb 28ce 36bb 92b1 76bc
00000110: 39f6 05bc 80da 8aba 9b3b 10bc 48eb a1ba
00000120: 01ab 8fbc 89b7 9dbc 05c1 5ebc 2c82 59bc
00000130: fb66 5fba bf37 5fbc 0e76 26bc fb8e 4abc
00000140: 41b5 33bc 5a13 94bc e1a0 51bc 53db f2bb
00000150: 8a60 1dbc d09f 83bc 85e0 3abb f6b0 75bc
00000160: fc5f 873a dd75 24bc 0aa3 5abc 3253 52bb
00000170: 746b 89bc f3fc 71bc 5b86 39bc 56e7 adbc
00000180: dd68 17bc 6bda 91bc 7aa5 25bc 8ae7 7dbc
00000190: 1552 05bc e898 1ebc 8436 9fbb 4225 0dbc
000001a0: b35e 803a 0d56 62bc 46a3 b8bb 1791 fc3a
000001b0: 8767 bcbb fdba 38bc 3c1f 4f3b 1d75 0bbc
000001c0: 844c 2cbc 18ab f7ba 2cab 06bc bcb4 23bc
000001d0: 4578 7fbc 57de fcbb 4c25 26bc 9279 bebb
000001e0: 4865 a8ba 1e8d 20bc 0a6b 2ebc 9f08 5bbc
000001f0: 9e42 6539 2d8c 68bb 1dff 21bc 7eda c23a

action_model._discrete_distribution.branches.0.weight f4 [3, 128]
-0.00379221 0.012048252 -0.0011746073 -0.0029360733 -0.0006955904 -0.019442635 -0.0037029674 -0.00026405204
-0.006005905 0.0042164708 -0.0012269046 -0.0002231751 -0.004009197 0.0061898134 -0.00036806084 -0.017500548
0.0046283416 -0.0061418605 -0.010122503 0.0062335245 0.0066992166 -0.0027337656 -0.014463257 -0.0004601332
-0.005805396 0.0140678575 0.00021905758 -0.01226468 -0.016348409 0.007644152 -0.0013905782 -0.0119261
-0.0063257604 0.0016408084 0.008862365 -0.009090207 -0.0036528814 0.009198941 -0.0038884452 0.0046668597
-0.0029677905 0.0042104213 0.0066465447 -0.005819227 0.0016045189 -0.017076496 0.0070785587 0.016991086
0.002843597 -0.012223944 -0.0011773765 0.007914715 -0.0090077855 0.012823265 0.008212354 -0.0046848874
0.0027118966 -0.0070011653 -0.0058495244 -0.0028914206 0.0069122766 -0.011084995 -0.00017233577 -0.0002359463
0.010988365 0.010579265 -0.008345061 0.0067927535 0.008185693 0.004924267 0.0047321697 0.0037554186
-0.0027422907 0.0021851962 -0.0061437567 -0.00011425595 -0.008940671 -0.004358505 -0.011811482 -0.0004431677
-0.012511973 0.004513561 -0.0124343755 0.0023129317 -0.020532124 0.00948453 -0.006125534 -0.0048012235
0.0041224333 -0.00523783 0.003145074 0.0061665857 -0.0010773416 -0.01546475 0.014318101 -0.00012452177
0.0011272304 -0.01061486 0.0060932375 -0.00451659 0.002193181 -0.0058908784 0.0029814306 0.006618886
-0.02302276 -0.012986134 -0.004452793 -0.003948826 -0.014772626 -0.0061021172 -0.0047207256 -0.0052766213
-0.0052162795 0.0011520598 -0.013727376 -0.000904365 -0.004788614 -0.009184312 -0.0067389575 0.0005075487
0.018716473 0.01416044 -0.0060854754 0.0021284 0.016595552 -0.0052799494 -0.004650259 -0.0072743366
0.0063279346 0.02171809 0.016973924 0.0058912686 0.0013760227 -0.010855736 0.0013942621 0.00019589809
0.005774256 0.0030047877 -0.009065223 -0.0032165174 0.0025613934 0.0015800337 -0.004291049 -0.00057606946
0.00570878 0.004813929 0.0016331498 0.026813172 0.006565161 -0.007882282 -0.0033184479 -0.0033924433
-0.0061350847 -0.0028451385 0.017338132 -0.005403389 0.009606343 0.0067038694 -0.00577471 -0.0013857314
0.004435219 0.0025000542 0.003462354 -0.0039642286 0.00063847785 0.020781523 0.0068553006 -0.0119203
-0.032675352 -0.0050870175 0.020538706 0.0029098848 -0.018912142 -0.008406587 0.0017515384 0.0002777127
0.015748601 -0.009255282 0.0012680077 -0.00041452437 0.014316739 -0.0015179225 0.0036917203 -0.0065050763
0.014754269 0.019905334 -0.005060504 0.021622904 0.0042501693 0.0012527009 0.00043163935 -0.00036136355
-0.000250878 0.003329546 0.0064417543 0.005027372 0.00893768 0.005185835 -0.008085886 0.002749094
-0.005729211 0.0031170163 0.0008983631 0.00090562063 -0.018636877 -0.011885534 -0.0013634443 0.013993009
-0.013575806 0.0068603572 0.008777277 -0.0053807306 -0.014159311 0.0037590212 -0.008399181 -0.0038453748
-0.017547384 -0.014063832 0.0068233823 0.005096696 -0.017654512 -0.014256844 0.015550244 -0.0011205508
0.008386608 -0.006425666 -0.0035237097 0.0034598939 -0.0047223237 0.0064879498 -0.00890564 0.0030052848
-0.0074472046 -0.010992945 -0.0068118204 -0.014225269 -0.008791243 -0.00028024704 0.025939291 0.0116882
0.000174374 0.017793374 -0.0018698965 -0.0058991583 -0.0030055929 -0.009595772 0.003597213 0.013662373
0.0005761012 0.016767632 0.0015801592 -0.006051453 -0.000979892 0.008599978 0.0052898573 0.022810133
00000000: ba86 78bb 0866 453c 48f5 99ba 236b 40bb
00000010: 4858 36ba 2946 9fbc 7cad 72bb 7770 8ab9
00000020: 2fcd c4bb 522a 8a3b 16d0 a0ba 1c04 6ab9
00000030: 955f 83bb ebd3 ca3b 4af8 c0b9 4f5d 8fbc
00000040: 58a9 973b a941 c9bb dbd8 25bc 9842 cc3b
00000050: 1a85 db3b fa28 33bb 4cf7 6cbc 083e f1b9
00000060: 313b bebb df7c 663c d2b2 6539 ccf1 48bc
00000070: 19ed 85bc cb7b fa3b 1044 b6ba b065 43bc
00000080: 5348 cfbb 6510 d73a 7433 113c 17ef 14bc
00000090: 2e65 6fbb 28b7 163c 49d5 7ebb 75ec 983b
000000a0: 437f 42bb 93f7 893b 42cb d93b 37af bebb
000000b0: b84e d23a 02e4 8bbc 41f3 e73b e430 8b3c
000000c0: a45b 3a3b f046 48bc 3352 9aba b9ac 013c
000000d0: 6495 13bc ac18 523c 1c8d 063c af83 99bb
000000e0: 13ba 313b 086a e5bb 5ead bfbb fd7d 3dbb
000000f0: 6180 e23b d79d 35bc 08b5 34b9 5a68 77b9
00000100: 8b08 343c a754 2d3c b9b9 08bc bf95 de3b
00000110: 491d 063c bf5b a13b 5110 9b3b 781d 763b
00000120: 01b8 33bb 8235 0f3b 9151 c9bb b29c efb8
00000130: e47b 12bc cad1 8ebb f284 41bc f658 e8b9
00000140: 05ff 4cbc 7ee6 933b 8db9 4bbc 8e94 173b
00000150: fc32 a8bc 0165 1b3c b4b8 c8bb 9553 9dbb
00000160: 7a15 873b 1aa2 abbb 961d 4e3b 1211 ca3b
00000170: 9635 8dba dd5f 7dbc 7896 6a3c 0f92 02b9
00000180: 93bf 933a f3e9 2dbc c8a9 c73b e7ff 93bb
00000190: 79bb 0f3b 4508 c1bb 1b64 433b 3de3 d83b
000001a0: 3a9a bcbc cbc3 54bc bce8 91bb 2765 81bb
000001b0: e208 72bc 45f4 c7bb 51b0 9abb 82e7 acbb
000001c0: 53ed aabb b600 973a cae8 60bc e812 6dba
000001d0: cee9 9cbb cc79 16bc 79d2 dcbb 040d 053a
000001e0: 4a53 993c 3101 683c ab68 c7bb a07c 0b3b
000001f0: 65f3 873c 6d03 adbb 3361 98bb 8f5d eebb
00000200: 905a cf3b 23ea b13c e60c 8b3c 8b0b c13b
00000210: a95b b43a 42dc 31bc acbf b63a fe69 4d39
00000220: f835 bd3b f9eb 443b 4d86 14bc 35cc 52bb
00000230: 0ddd 273b 2219 cf3a ee9b 8cbb 5e03 17ba
00000240: b810 bb3b 2abe 9d3b 6a0f d63a 4ca7 db3c
00000250: 9020 d73b b024 01bc 517a 59bb c153 5ebb
00000260: d208 c9bb 8175 3abb b308 8e3c ea0e b1bb
00000270: ec63 1d3c 22ac db3b c739 bdbb 6ea1 b5ba
00000280: 5055 913b f3d7 233b a9e8 623b 5ce6 81bb
00000290: 865f 273a 033e aa3c 6ea2 e03b 5d4d 43bc
000002a0: 97d6 05bd ffb0 a6bb ca40 a83c c4b3 3e3b
000002b0: a3ed 9abc c8bb 09bc e093 e53a f899 9139
000002c0: 3603 813c 77a3 17bc 4733 a63a 8554 d9b9
000002d0: c190 6a3c 07f5 c6ba caf0 713b 8928 d5bb
000002e0: e4bb 713c 8310 a33c 96d2 a5bb 8422 b13c
000002f0: 0145 8b3b ab31 a43a a74d e239 6575 bdb9
00000300: 4688 83b9 8334 5a3b 5a15 d33b a7bc a43b
00000310: 596f 123c f0ed a93b aa7a 04bc 252a 343b
00000320: 1bbc bbbb db46 4c3b 2180 6b3a 2c67 6d3a
00000330: 5dac 98bc 8bbb 42bc 99b5 b2ba ef42 653c
00000340: 0f6d 5ebc d9cc e03b 91ce 0f3c d750 b0bb
00000350: 74fc 67bc e959 763b b89c 09bc af02 7cbb
00000360: 88bf 8fbc fd6b 66bc ae96 df3b 2f02 a73b
00000370: 32a0 90bc 8a95 69bc 73c6 7e3c 72df 92ba
00000380: fc67 093c 658e d2bb 0aee 66bb 63bf 623b
00000390: b9bd 9abb de98 d43b f6e8 11bc 50f4 443b
000003a0: ae07 f4bb c11b 34bc b135 dfbb 1a11 69bc
000003b0: 2509 10bc 1fee 92b9 a37e d43c dd7f 3f3c
000003c0: 2ad8 3639 69c3 913c 5117 f5ba ba4d c1bb
000003d0: 7bf9 44bb 9637 1dbc 38bf 6b3b 25d8 5f3c
000003e0: 7f05 173a 465c 893c 581d cf3a 444b c6bb
000003f0: b86f 80ba ece6 0c3c 8a56 ad3b 51dc ba3c

action_model._discrete_distribution.branches.0.bias f4 [3]
0.0063077663 -0.0029317602 -0.0026621178
00000000: 61b1 ce3b c622 40bb ed76 2ebb

action_model._discrete_distribution.branches.1.weight f4 [3, 128]
-0.0046732845 0.012301652 -0.009372929 -0.013543722 0.020506226 -0.016628966 0.013360187 -0.011044483
0.010802891 0.0012095693 0.0046834196 0.020507876 -0.0025677013 0.0039143893 0.012702226 0.0020959585
0.0067386674 -0.007515079 -0.0164009 0.0062573315 -0.0025474613 -0.0111171175 -0.0038844754 -0.0045650853
-0.0065030344 0.009739206 0.013042476 -0.0046862056 -0.023193102 -4.2575302e-05 -0.00029879212 -0.008597089
-0.01824563 -0.0003604277 0.017110098 -0.006781653 -0.014993408 0.00654106 0.026069887 0.0011752511
0.0067208204 -0.010601703 0.0029131596 -0.00081568735 0.0017934854 -0.005983204 0.013767937 0.009456566
0.00070830504 0.01726107 -0.003660105 -0.00021105044 -0.0107551105 0.011045206 0.0013971402 0.007810496
-0.0042275754 0.0028943513 -0.006421938 0.00010410829 -0.008652196 -0.015409365 0.0037178206 0.004499255
-0.0008837204 0.0074798535 -0.01348205 -0.0022500681 0.003217389 -0.010555717 -0.0068015787 0.0054443046
-0.0008616426 0.0054791174 -0.010731912 -0.001929099 0.017512435 -0.0021044514 -0.0023765531 -0.008732139
-0.003057613 -0.0062410356 -0.004257177 -0.011566184 -0.009601374 0.0043437085 -0.00827786 -0.0032404237
0.004710848 -0.0028027687 -0.009344252 -0.004885715 0.0064238203 -0.0075161755 -0.0039403285 -0.00011054433
-0.005323328 0.0029284288 -0.009920862 0.0035114891 0.0032301298 -0.0002562753 -0.004496731 0.0075486256
-0.013535532 0.0036619154 0.0017031636 -0.019324664 -0.0046148505 -0.0045457403 0.008315781 -0.0062178634
-0.005961005 0.015765196 0.00868011 -0.0056713577 0.003535463 -0.0065694186 -0.00026100708 -0.0112844575
0.023253134 -0.01466707 -0.02002671 -0.00048622742 0.001666474 0.0043699266 -0.0042983685 -0.0060213893
-0.0040514474 0.00409844 -0.010968944 0.0052961395 0.002311855 0.0065047033 -0.0058393637 0.011513364
-0.008859721 0.0016094843 0.0040893904 -0.005560128 -0.0050527747 -0.009872346 -0.0056711724 0.020810513
-0.01184756 -0.00607372 0.0040785153 -0.0011993714 0.001763207 0.0034779308 0.013537273 0.002674384
0.0028356109 0.0017068939 -0.0072398954 -0.011360355 0.034027256 0.0032585138 -0.0051217875 0.038275287
-0.0007977286 -0.004284796 0.020270355 0.0071693836 0.00041039687 0.008153884 -0.012451857 0.0035220739
0.013782884 -0.006329619 -0.010330866 -0.005816658 0.00060999 -0.0026392676 0.0035729709 -0.003684272
0.0035737208 0.003904405 0.0005201444 -0.0077671264 -0.0013707079 -0.021013897 0.00629124 -0.0029936587
0.010608061 0.009228374 -0.0006215638 -0.017089998 -0.011714973 0.0043362575 0.01976205 0.006445825
0.0011520478 0.01173128 0.008382613 0.003056202 -0.001163547 0.019755173 -0.0051712706 0.008580219
-0.0017943736 0.0022241028 0.0035965082 8.524841e-05 0.0235825 0.006769601 0.0037018303 0.0012759432
-0.01086715 -0.00043610393 0.0044680024 -0.0056691887 -0.01644505 0.0029134313 0.011101605 0.000911886
0.004647058 0.0018308706 -0.0118361665 -0.02092216 0.0039144284 -0.0022878223 -0.002736247 -0.0047264528
-0.011696379 -0.0030384765 -0.003211271 -0.00093617424 -0.0023374301 0.0077131013 -0.0027287896 -0.008252152
0.022191754 0.0069037797 -0.00067149405 0.0013565192 -0.018261403 -0.0075046066 -0.01300562 -0.0015482581
0.008155795 -0.016941607 0.010926486 -0.002626031 0.0100721195 0.009871672 0.005902159 0.009633815
0.0027531981 -0.011823704 -0.016459094 -0.006614448 -0.015411016 -0.003288996 -0.0049166977 0.007916974
00000000: 5a22 99bb de8c 493c ea90 19bc 7de6 5dbc
00000010: acfc a73c 7839 88bc b0e4 5a3c ebf3 34bc
00000020: 9cfe 303c 698a 9e3a 5f77 993b 2200 a83c
00000030: e146 28bb 4744 803b ff1c 503c 595c 093b
00000040: 0ad0 dc3b 0d41 f6bb 2e5b 86bc 4d0a cd3b
00000050: 4ff3 26bb 9224 36bc af92 7ebb b696 95bb
00000060: 6817 d5bb 3191 1f3c 1cb0 553c be8e 99bb
00000070: 76ff bdbc e292 32b8 33a7 9cb9 ceda 0cbc
00000080: dc77 95bc c9f7 bcb9 7a2a 8c3c a138 debb
00000090: e9a6 75bc 6356 d63b 8490 d53c e20a 9a3a
000000a0: 543a dc3b c4b2 2dbc b5ea 3e3b dad3 55ba
000000b0: 6213 eb3a c10e c4bb ea92 613c b6ef 1a3c
000000c0: 8cad 393a 1667 8d3c 5fde 6fbb 6c4d 5db9
000000d0: 3436 30bc f4f6 343c 3f20 b73a 30ef ff3b
000000e0: 7987 8abb 28af 3d3b 1f6f d2bb b654 da38
000000f0: f1c1 0dbc 9077 7cbc aea6 733b 7d6e 933b
00000100: 79a9 67ba 8f19 f53b d1e3 5cbc e175 13bb
00000110: d5da 523b e3f1 2cbc c7df debb 2366 b23b
00000120: dbdf 61ba 2b8a b33b e7d4 2fbc d2d9 fcba
00000130: 3d76 8f3c d6ea 09bb f2bf 1bbb 3f11 0fbc
00000140: 3c62 48bb 9a81 ccbb ca7f 8bbb 1880 3dbc
00000150: 154f 1dbc ab55 8e3b dc9f 07bc 4a5d 54bb
00000160: 755d 9a3b a8ae 37bb a218 19bc 5918 a0bb
00000170: e97e d23b 404a f6bb df1d 81bb 09d4 e7b8
00000180: 506f aebb e2ea 3f3b 1c8b 22bc 0321 663b
00000190: 96b0 533b b05c 86b9 5059 93bb 765a f73b
000001a0: 23c4 5dbc bffc 6f3b b03c df3a c24e 9ebc
000001b0: 2c38 97bb 6ff4 94bb ea3e 083c 38bf cbbb
000001c0: 8954 c3bb 0326 813c 0537 0e3c ccd6 b9bb
000001d0: 3ab3 673b 4744 d7bb c7d7 88b9 72e2 38bc
000001e0: 5b7d be3c 264e 70bc 0e0f a4bc 57ec feb9
000001f0: 976d da3a 9a31 8f3b 54d9 8cbb 134f c5bb
00000200: 01c2 84bb 354c 863b 16b7 33bc 3d8b ad3b
00000210: 7e82 173b 6825 d53b 2258 bfbb 8ca2 3c3c
00000220: 5d28 11bc 55f5 d23a 4b00 863b bc31 b6bb
00000230: bf91 a5bb 9fbf 21bc 3ed5 b9bb cf7a aa3c
00000240: 451c 42bc 0e06 c7bb 11a5 853b 3a34 9dba
00000250: 691b e73a ffed 633b 70cb 5d3c b844 2f3b
00000260: a8d5 393b dbb9 df3a a53c edbb c820 3abc
00000270: 2a60 0b3d ca8c 553b abd4 a7bb 8cc6 1c3d
00000280: a91e 51ba 7967 8cbb 040e a63c 26ed ea3b
00000290: 892a d739 de97 053c e002 4cbc 98d2 663b
000002a0: 9bd1 613c b168 cfbb cb42 29bc aa99 bebb
000002b0: bce7 1f3a 90f7 2cbb 8128 6a3b d473 71bb
000002c0: 1635 6a3b 0ce1 7f3b 4d5a 083a 6183 febb
000002d0: 53a9 b3ba 5625 acbc bf26 ce3b 4231 44bb
000002e0: 6fcd 2d3c 9b32 173c 71f0 22ba 5300 8cbc
000002f0: 28f0 3fbc 2a17 8e3b 06e4 a13c 8037 d33b
00000300: 4f00 973a 8e34 403c 3a57 093c 904a 483b
00000310: 2982 98ba 9ad5 a13c c373 a9bb 0c94 0c3c
00000320: 3031 ebba 41c2 113b 65b3 6b3b 64c7 b238
00000330: 1630 c13c 87d3 dd3b 689a 723b 8d3d a73a
00000340: 210c 32bc e1a4 e4b9 5268 923b 9ac4 b9bb
00000350: c5b7 86bc 44ef 3e3b 82e3 353c a20b 6f3a
00000360: 5946 983b d3f9 ef3a 7bec 41bc f364 abbc
00000370: 9b44 803b 4aef 15bb 9b52 33bb 5ce0 9abb
00000380: 2ba2 3fbc 2d21 47bb 3074 52bb 9769 75ba
00000390: 922f 19bb 2fbe fc3b 7ed5 32bb 0934 07bc
000003a0: 7bcb b53c 1a39 e23b 3407 30ba 3bcd b13a
000003b0: f098 95bc 34e9 f5bb 8615 55bc ecee caba
000003c0: e29f 053c 20c9 8abc 0105 333c 7d19 2cbb
000003d0: 8805 253c cbbc 213c e666 c13b 26d7 1d3c
000003e0: 006f 343b 35b8 41bc 39d5 86bc 03be d8bb
000003f0: 7c7e 7cbc 328c 57bb 401c a1bb 32b6 013c

action_model._discrete_distribution.branches.1.bias f4 [3]
0.0113823125 -0.0032981485 -0.009858073
00000000: e17c 3a3c c025 58bb c183 21bc
