Assets/results/T2/CarDriver/CarDriver-499992.onnx (onnx, 188993 bytes, 9 tensors)

discrete_act_size_vector f4 [1, 2]
0	0x40400000	3.0
1	0x40400000	3.0

network_body._body_endoder.seq_layers.0.weight f4 [128, 225]
0	0x3cbd9e73	0.023146844
1	0x3cd5cbc6	0.026098143
2	0x3de80bfb	0.1133041
3	0x3d72e54e	0.059300713
4	0x3b9a5342	0.004709632
5	0xbd1fbbc2	-0.03899742
6	0x3b9ff4b7	0.004881467
7	0x3ba2dc4a	0.004970108
8	0x3d12e041	0.035858396
9	0x3d16b901	0.036797527
10	0xbd1a6ac9	-0.037699495
11	0x3c7f3bc0	0.01557821
12	0x3d83508a	0.06411846
13	0xbc3d327f	-0.011547684
14	0x3cccc932	0.024998281
15	0xbe2d7ed9	-0.1694292
16	0xbccfcbb5	-0.02536569
17	0x3c7dc5bb	0.015489037
18	0x3ced4bcd	0.028966809
19	0xbd00399e	-0.031304948
20	0xbd0cb5e3	-0.03435315
21	0x3da7a6c6	0.081861064
22	0x3cef38cc	0.029201888
23	0xbd95f286	-0.07321648
24	0x3dae5bf7	0.08513635
25	0x3d3efbd3	0.046626877
26	0xbc19597c	-0.009359714
27	0x3d1aaab8	0.037760466
28	0xbdde0418	-0.108406246
29	0x3dedcf21	0.11611772
30	0x3c3d0eaa	0.011539141
31	0x3d9afbe1	0.07567573
32	0x3e042710	0.12905526
33	0x3c47e8b1	0.012201474
34	0xbbb3765b	-0.0054767556
35	0xbb0df0ef	-0.00216585
36	0xbd05e76c	-0.032691404
37	0x3dd3946d	0.10331044
38	0xbc3ed4bf	-0.011647402
39	0x3d972557	0.07380169
40	0x3d66de97	0.056364622
41	0x3d4efbcb	0.050533097
42	0xbddfcab0	-0.109273314
43	0xbbd9e5df	-0.006649717
44	0xbcce7bac	-0.025205456
45	0x3bbdd88b	0.005793636
46	0xbe1dc0da	-0.15405598
47	0x3d53acd9	0.051678512
48	0xbca51ad2	-0.02015439
49	0xbd1724a2	-0.03690017
50	0x3bc93ed7	0.0061415243
51	0x3c9fbc07	0.019498838
52	0x3e170da0	0.14751291
53	0x3d41312e	0.047166042
54	0x3ca7033c	0.020387284
55	0x3e03c8c2	0.12869552
56	0x3d9af7d9	0.075668044
57	0xbdf96bf5	-0.12178794
58	0xbd6d9708	-0.058005363
59	0x3df507e1	0.119643934
60	0xbd1f29b0	-0.038858116
61	0xbd60be7b	-0.054869156
62	0x3dca1b76	0.09868519
63	0x3c57eba2	0.013178738
64	0x3d98e265	0.07465056
65	0xbd41f4ce	-0.047352605
66	0xbd7cc068	-0.06170693
67	0xbcd5995a	-0.0260741
68	0x3ca1531a	0.019692946
69	0x3e38a5e3	0.18032031
70	0x3d3afd14	0.04565151
71	0x3e056fa7	0.13030873
72	0xbc1976d5	-0.009366711
73	0x3c84dc24	0.016218252
74	0xbdae6fd0	-0.0851742
75	0xbd2c67b4	-0.042091087
76	0x3da77cc5	0.08178095
77	0x3ddffbcc	0.10936698
78	0x3912b3ab	0.00013990577
79	0xbe0d9a38	-0.13828361
80	0xbdd903b6	-0.10596411
81	0x3aedb52a	0.0018135656
82	0xbd29c19d	-0.04144441
83	0x3d0e865a	0.034796096
84	0x3e08c3d9	0.1335596
85	0x3cd2bfba	0.025726188
86	0xbd848803	-0.06471255
87	0x3ce89cf7	0.02839516
88	0x3d456834	0.04819508
89	0x3bb1334b	0.005407726
90	0x3d994a98	0.07484931
91	0x3a7e56e4	0.0009702279
92	0x3ae6c738	0.0017606979
93	0xbdb2c58a	-0.08729084
94	0x3d92b826	0.0716403
95	0xbc09d1a9	-0.008411803
96	0x3dd84e92	0.10561861
97	0x3dbacd58	0.091211975
98	0x3c6580bf	0.014007746
99	0x3d272007	0.040802028
100	0x3d35d61f	0.044393655
101	0x3ce9788e	0.028499868
102	0xbcbf5326	-0.023355078
103	0xbd893f34	-0.06701508
104	0xbd3bc42e	-0.04584139
105	0xbd1a7776	-0.037711583
106	0xbd3ad1a4	-0.045610085
107	0x3d8d4f40	0.06899881
108	0x3c7d5197	0.015461347
109	0x3c04ba3d	0.008101043
110	0x3d2c9cd3	0.042141747
111	0x3dcb020e	0.09912501
112	0xbdda1d43	-0.106501125
113	0xbd819c6f	-0.063286655
114	0xbd94ab5e	-0.07259248
115	0x3d9e119e	0.07718204
116	0x3d03730d	0.032092143
117	0xbd2a23b3	-0.04153795
118	0xbb884655	-0.004158775
119	0x3db1aada	0.086751655
120	0xbce69b53	-0.028150236
121	0xbdccedc3	-0.10006287
122	0xbd030638	-0.031988353
123	0xbd40bcb2	-0.047054954
124	0xbd4bb648	-0.049734384
125	0x3d9902bf	0.07471227
126	0x3da9e3ec	0.08295426
127	0xbd58f92f	-0.052972015
128	0x3d9ba2ad	0.07599387
129	0x3db9b50d	0.09067736
130	0xbd0605c5	-0.032720346
131	0xbdae1fe1	-0.08502174
132	0xbbc9803c	-0.00614932
133	0xbd309574	-0.04311128
134	0xbe095593	-0.1341155
135	0x3cae7266	0.021294784
136	0xbcc1240c	-0.023576759
137	0x3cb12222	0.021622721
138	0xbd0b85d0	-0.03406316
139	0x3dc319f2	0.09526433
140	0x3d1896fc	0.037253365
141	0x3d50d144	0.05098082
142	0x3d25d02c	0.04048173
143	0x3d48fe60	0.049070716
144	0x3cf3dbd2	0.029767904
145	0x3d3b5204	0.045732513
146	0x3d9e81d2	0.07739605
147	0x3daf16e2	0.085492864
148	0x3ded6956	0.11592357
149	0x3d8fced9	0.07021875
150	0xbbffc883	-0.0078058853
151	0xbb3a401e	-0.0028419564
152	0xbd87c8c3	-0.06630089
153	0xbda0a1eb	-0.078433834
154	0x3b4ed823	0.0031561933
155	0x3de72dff	0.1128807
156	0x3dced8a7	0.10099917
157	0xbbcaa5fa	-0.0061843367
158	0xbe27d3eb	-0.16389434
159	0xbd1ecbb6	-0.038768493
160	0x3d193b5b	0.03741012
161	0x3d1f7159	0.038926456
162	0xbc9a026e	-0.018799987
163	0x3ba85ccc	0.0051380154
164	0x3c967907	0.018368257
165	0x3d48919d	0.048966993
166	0xbc555e1d	-0.013022927
167	0x3d24a080	0.040192127
168	0xbc387f23	-0.0112607805
169	0x3d4aaf93	0.049483847
170	0x3cf5bd79	0.029997574
171	0xbe29c792	-0.16580036
172	0x3e27a0cc	0.16369933
173	0xbd13fb06	-0.036128066
174	0xbd0bbcc2	-0.03411556
175	0xbd9e42d3	-0.077275895
176	0x3d89b096	0.06723134
177	0x3da0e1b4	0.078555495
178	0xbdb963aa	-0.090522125
179	0xbd41035b	-0.04712234
180	0xbd801745	-0.06254438
181	0xbe13726f	-0.14399122
182	0x3d4b630d	0.04965501
183	0x3bbb3a0f	0.0057137082
184	0x3df308ea	0.118669346
185	0xbdbb824a	-0.0915571
186	0x3d1bee4a	0.038069047
187	0x3dc83b78	0.09776968
188	0x3d1f3353	0.038867306
189	0x3c73aadf	0.014872282
190	0x3d3022a4	0.043001786
191	0x3d70d6d6	0.058798634
192	0x3d5fcda0	0.05463946
193	0xbd1517d5	-0.03639968
194	0xbd5aaaab	-0.053385418
195	0x3d30cdb4	0.043164924
196	0x3c3da6d1	0.011575417
197	0xbd8c4bd7	-0.06850403
198	0xbddf8a2f	-0.10915028
199	0xbbf67323	-0.0075210496
200	0x3cb4a899	0.02205305
201	0xbda2771f	-0.07932877
202	0xbd5fef85	-0.054671783
203	0xbdf66ed3	-0.12032857
204	0x3c2a6973	0.010401118
205	0x3d516b7f	0.051127907
206	0x3d936373	0.07196703
207	0xbd316db2	-0.043317504
208	0xbb80bf10	-0.0039290264
209	0x3cf889cd	0.030339146
210	0xbd8f53d1	-0.069984086
211	0x3d595cca	0.053067006
212	0x3ce6c40e	0.028169658
213	0x3d553ea3	0.05206169
214	0xbbf35939	-0.0074264077
215	0xbd242e9f	-0.040083524
216	0xbbd966c7	-0.0066345665
217	0x3d5c3d80	0.05376959
218	0x3e07ff84	0.13281065
219	0x3bf18707	0.007370833
220	0xbd334f2a	-0.04377667
221	0xbd2f6f79	-0.042830918
222	0x3c4628fe	0.012094734
223	0x3c948cc5	0.01813353
224	0x3cdd4623	0.027010983
225	0xbdcd2eec	-0.10018715
226	0xbda0e40c	-0.078559965
227	0x3d410759	0.047126148
228	0xbd6aa614	-0.05728729
229	0xbbec3067	-0.0072079184
230	0x3b484c81	0.0030563178
231	0xbdefaf3b	-0.117033444
232	0x3e2845cf	0.1643288
233	0x3d88dbdb	0.06682559
234	0xbd6ed1ee	-0.058305673
235	0x3bbaa506	0.005695942
236	0xbdab2f44	-0.083586246
237	0x3d2cb1d2	0.04216177
238	0xbdae3004	-0.08505252
239	0xbdbe0099	-0.09277458
240	0xbd182029	-0.037140045
241	0x3d92a2ae	0.07159935
242	0x3ddc3686	0.10752587
243	0x3c0a6c5c	0.008448686
244	0x3daef5d5	0.085429825
245	0x3d16bbb0	0.036800086
246	0xbb6baa3c	-0.0035959622
247	0x3d80e120	0.06292939
248	0xbde2d18c	-0.11075124
249	0x3d42d571	0.047566835
250	0xbb378a66	-0.0028006076
251	0xbcdb4eb5	-0.026770929
252	0x3d6fb040	0.058517694
253	0x3c803b79	0.015653359
254	0xbdee5d63	-0.11638906
255	0x3d228c84	0.039684787

network_body._body_endoder.seq_layers.0.bias f4 [128]
0	0xbb2b7020	-0.002615936
1	0x3b57583e	0.0032858993
2	0xba66f285	-0.0008809942
3	0x3c62184b	0.013799737
4	0x3c401f03	0.011726144
5	0xbbde1025	-0.006776827
6	0x3bf1eec9	0.0073832017
7	0x3be6faf0	0.007048957
8	0x3b33bbee	0.0027425247
9	0xbc1a10d8	-0.00940343
10	0x3c8a4bde	0.01688188
11	0x3ba21db5	0.004947389
12	0x3c32de28	0.010917224
13	0x3c0ded32	0.008662509
14	0x3c2e0593	0.010621446
15	0x3983f6b8	0.00025170087
16	0x3b5517c7	0.0032515393
17	0x3bc2a6cb	0.0059402934
18	0x3b4d69d6	0.00313436
19	0x3c1e7bc8	0.009673066
20	0xbc116eff	-0.008876561
21	0x3c06d0e0	0.008228511
22	0x3c04795b	0.008085574
23	0x3af129a0	0.0018399246
24	0x3ca4edb1	0.020132871
25	0x3acc917d	0.0015607324
26	0x3c843e6f	0.016143052
27	0x3c67a2d9	0.014137947
28	0x39e7df76	0.00044226245
29	0x3c2ffc27	0.01074127
30	0x3bf1eb02	0.0073827514
31	0x3a120c52	0.0005571294
32	0xbae434c3	-0.0017410744
33	0x3c88123a	0.016610254
34	0x3c0b6bd3	0.008509594
35	0x3c0b5be9	0.0085058
36	0xba9bd4d3	-0.0011888988
37	0x3bb51e88	0.0055273212
38	0x3c2a449c	0.010392334
39	0xbb74b245	-0.0037337702
40	0x3c121418	0.008915924
41	0x3bc43388	0.0059875883
42	0xbb8c3bee	-0.004279605
43	0x3c591cd5	0.013251503
44	0x3c81a254	0.015824474
45	0xbbce095c	-0.006287737
46	0x3c740c7a	0.014895553
47	0x3c98d7f6	0.018657666
48	0x3ba9d68c	0.0051830467
49	0xbbec23fa	-0.007206437
50	0xba8a1a14	-0.0010536336
51	0xbc669593	-0.014073747
52	0x3c12e21a	0.00896504
53	0x3b3a3a2c	0.002841602
54	0x3c60ae84	0.013713483
55	0xbb83c449	-0.0040212017
56	0x3c277f50	0.010223225
57	0x3bb02f7e	0.0053767553
58	0x3c634d25	0.013873373
59	0xbae9ff24	-0.0017852527
60	0x3b45cdf3	0.003018257
61	0x3c34c23c	0.011032637
62	0x3c5f2674	0.013620008
63	0xbc090ec3	-0.008365336
64	0x3cb11582	0.021616701
65	0x3b37969c	0.0028013354
66	0xbba0bc52	-0.004905262
67	0x3c52fc62	0.012877556
68	0x3c9636e5	0.018336723
69	0xbbe70102	-0.0070496807
70	0x3be21719	0.006899726
71	0x3ca4f1f7	0.02013491
72	0xba9d32ef	-0.0011993329
73	0x3bdbfa39	0.0067131785
74	0x3c5d1d97	0.013495824
75	0x3b560311	0.0032655636
76	0x3c5ff20c	0.013668548
77	0x3b49c4ff	0.0030787585
78	0x3c85d2f8	0.01633595
79	0xbaa106c2	-0.0012285339
80	0x3bf5a4b6	0.0074964417
81	0x3c5e36bd	0.013562855
82	0x3c529de4	0.012855027
83	0x3bff4877	0.007790621
84	0x3b6f98f1	0.0036559666
85	0xbc4e5622	-0.012593778
86	0xbb19dbb4	-0.00234769
87	0x3bdefc88	0.0068050064
88	0x3bb23404	0.0054383297
89	0xbb5f86db	-0.003410748
90	0xbbe8b6d6	-0.007101874
91	0x3b88689d	0.0041628615
92	0x3c653ab7	0.0139910495
93	0x3ba659dd	0.0050766305
94	0x3c2ce3c6	0.010552352
95	0x3afb0118	0.0019150106
96	0xbc81dc08	-0.01585199
97	0xbc2aaaef	-0.01041673
98	0x3c1a19aa	0.009405533
99	0x3bd1bb72	0.006400519
100	0xbb12ead2	-0.0022417796
101	0x3afbe5b3	0.0019218236
102	0x3c6c8681	0.014436365
103	0x3afc061a	0.0019227893
104	0x3c62fdd8	0.013854466
105	0x3c343463	0.010998818
106	0x3c234cd2	0.009967046
107	0x3b9dddca	0.004817699
108	0xbc4908a5	-0.012270127
109	0x3c31fb0e	0.010863079
110	0x3b28af54	0.002573927
111	0x3bbb7566	0.005720782
112	0xbc244b74	-0.010027755
113	0x3c722d4c	0.014781307
114	0x3c8c22e8	0.017106488
115	0x3c0e3fb9	0.008682185
116	0x3ba6cf4c	0.0050906297
117	0x3c44642c	0.011986773
118	0x3c8402c0	0.016114593
119	0x3c9575b1	0.018244596
120	0x3ac484b5	0.0014993163
121	0xbb95d27c	-0.004572211
122	0x3ac0ddcf	0.0014714542
123	0x3b0bcee8	0.0021333043
124	0x3bf65800	0.0075178146
125	0x3af6b464	0.0018822071
126	0x3c9918dc	0.018688612
127	0x3addda16	0.0016925957

network_body._body_endoder.seq_layers.2.weight f4 [128, 128]
0	0xbca368cc	-0.019947432
1	0x3deacc50	0.11464751
2	0xbd73bb53	-0.05950482
3	0x3de6e144	0.11273435
4	0xbdefe88e	-0.11714278
5	0xbcceee03	-0.025259977
6	0xbd4820b6	-0.04885932
7	0x3de1047f	0.10987186
8	0x3de0e43d	0.10981033
9	0xbd036e69	-0.032087717
10	0xbe806f32	-0.25084835
11	0x3dd2c4ed	0.10291467
12	0xbb7ea961	-0.0038858282
13	0x3c248e7c	0.010043737
14	0x3db872cb	0.0900627
15	0xbd9b1c92	-0.07573809
16	0xbdf338bd	-0.11876056
17	0xbde74e4d	-0.112942316
18	0x3df3c782	0.119032875
19	0x392d93b0	0.00016553584
20	0xbd84b79f	-0.064803354
21	0x3e68c921	0.22732975
22	0xbdbd7d01	-0.09252358
23	0x3c525535	0.012837698
24	0x3d93e998	0.07222289
25	0x3dfc28f8	0.12312502
26	0xbd74ef4f	-0.059798535
27	0xbd0e8fd1	-0.034805123
28	0xbcf7040c	-0.030153297
29	0xbe0a6b6d	-0.13517542
30	0xbe1105de	-0.14162394
31	0x3dd01e2e	0.10162006
32	0x3dcfc8eb	0.10145744
33	0x3d6d3cb7	0.05791923
34	0x3ca8cbf3	0.020605063
35	0xbb36d282	-0.0027896469
36	0x3d7ad673	0.06123967
37	0xbdc002c4	-0.093755275
38	0x3dc6b585	0.09702591
39	0xbcd39787	-0.02582909
40	0x3c8dd4be	0.017313357
41	0xbdcd6938	-0.100298345
42	0x3e133051	0.143739
43	0x3d231790	0.039817393
44	0xbd4fb4e6	-0.050709628
45	0x3db0e335	0.08637086
46	0xbe1eaddf	-0.15496014
47	0x3dca54e8	0.09879476
48	0x3d0cdb0d	0.03438859
49	0xbdcb1a4e	-0.099171266
50	0xbe06984e	-0.13144037
51	0xbe28fb5b	-0.16502135
52	0xbd181e14	-0.03713806
53	0xbc86145d	-0.016367132
54	0x3e0340cd	0.12817688
55	0xbd62e8bc	-0.055397734
56	0xbe2e3a16	-0.17014346
57	0x3cb9ed88	0.022696272
58	0x3cc61a06	0.02418233
59	0x3cd44328	0.025910929
60	0xbcd79b0d	-0.026319051
61	0x3e4fdf1f	0.20299958
62	0x3b2a25d7	0.0025962496
63	0x3cb1c98d	0.021702552
64	0xbd22596b	-0.039636057
65	0x3c9c81b3	0.019104814
66	0x3e077ef8	0.13232028
67	0xbdd16a9b	-0.102254115
68	0xbd076074	-0.03305097
69	0xbd5a5b87	-0.053309944
70	0x3dd98208	0.106205046
71	0xbdebbc43	-0.115105174
72	0xbd9875b8	-0.07444328
73	0xbdce061d	-0.1005976
74	0xbab057d4	-0.0013453909
75	0x3dee2ac0	0.11629248
76	0x3cb9dc57	0.022688074
77	0x3d113ace	0.03545647
78	0xbe1ccc0c	-0.15312213
79	0xbd932518	-0.071848094
80	0x3db60f56	0.08889644
81	0xbccd1d01	-0.025038244
82	0x3d9d16d0	0.07670367
83	0x3dd1fbc6	0.102531
84	0xb8aab6be	-8.14027e-05
85	0x3b95a861	0.0045671915
86	0x3db5d235	0.088779844
87	0x3de64daf	0.11245286
88	0xbc15b082	-0.009136321
89	0x3d619929	0.055077706
90	0x3d182986	0.037148975
91	0xbb94441e	-0.0045247218
92	0x3d465ac2	0.048426397
93	0xbd860248	-0.06543404
94	0x3d5bede0	0.053693652
95	0x3d8b1cbb	0.06792589
96	0xbe0a3a8e	-0.134989
97	0x3d2dfb5c	0.042476043
98	0x3de92cb3	0.11385479
99	0x3dca92f4	0.0989131
100	0x3d7f2bb2	0.06229753
101	0x3d02a497	0.031895246
102	0x3e4238c5	0.18966968
103	0xbc083cf2	-0.008315312
104	0xbda0b192	-0.07846369
105	0x3c2a5211	0.010395543
106	0x3e1adfd7	0.1512445
107	0xbd14211b	-0.036164384
108	0xbdf2fc06	-0.11864476
109	0x3d9acd32	0.07558669
110	0x3d3c33ba	0.045947768
111	0xbd854e6e	-0.065091
112	0x3db33ea1	0.0875218
113	0x3e21513b	0.15753643
114	0x3da6cbbf	0.0814433
115	0x3d981eee	0.07427774
116	0xbd52da85	-0.051477928
117	0xbba6eeb0	-0.0050943717
118	0xbbb9cadb	-0.005669934
119	0x3e0037d9	0.12521304
120	0xbc934500	-0.017977238
121	0xbdec4c90	-0.11538041
122	0xbe55e4a2	-0.20887998
123	0xbd425b34	-0.04745026
124	0xbccbecce	-0.02489319
125	0xbb336e5c	-0.0027379012
126	0xbd62d93f	-0.055382963
127	0x3cdf18ad	0.027233446
128	0xbd03ffd3	-0.032226395
129	0xbe179114	-0.14801437
130	0x3d1b602a	0.037933506
131	0x3d1a8821	0.03772748
132	0xbdd31d06	-0.1030827
133	0x3d9b0e54	0.07571092
134	0xbde3cc71	-0.111229785
135	0x3c8190ce	0.015816119
136	0x3c42a568	0.011880256
137	0x3debc1f3	0.11511602
138	0xbdb7ff07	-0.089841895
139	0x3d36b551	0.04460651
140	0x3d8d65df	0.06904196
141	0x3db2945b	0.08719703
142	0x3c0223fa	0.007943148
143	0x3c54b7ab	0.012983243
144	0xbdea4574	-0.114390284
145	0xbcb55e16	-0.02213959
146	0xbd7c9b0b	-0.061671298
147	0xbe6fd26e	-0.23420116
148	0xbdbf44fe	-0.09339331
149	0x3d3d0fd8	0.046157688
150	0x3cf31216	0.02967171
151	0xbb329ba4	-0.0027253414
152	0x3c8241b3	0.015900468
153	0x3dd2e081	0.10296727
154	0x3e144279	0.14478482
155	0x3dc9b4ff	0.098489754
156	0xbe2c5fe9	-0.16833462
157	0x3df88be2	0.121360555
158	0x3e39ac98	0.18132246
159	0xbdd68a62	-0.10475613
160	0xbd8eeeab	-0.06979116
161	0x3e0cff27	0.13769208
162	0xbc05344a	-0.008130142
163	0xbd009ace	-0.031397633
164	0x3da7cb59	0.08193082
165	0x3ccd5c40	0.025068402
166	0x3dd63176	0.10458653
167	0xbc81295e	-0.015766796
168	0x3de1407f	0.1099863
169	0x3db9aad5	0.09065787
170	0x3d23705a	0.03990207
171	0x3e5434a5	0.20723207
172	0x3d91f5b4	0.07126942
173	0xbd6d461a	-0.057928182
174	0xbc5a10a7	-0.013309634
175	0x3e135230	0.14386821
176	0x3dc29646	0.09501319
177	0xbdb4f0ad	-0.08834968
178	0x3d952dd1	0.072841294
179	0xbe308d4c	-0.172414
180	0xbdeaba16	-0.11461274
181	0xbe1f2e83	-0.15545087
182	0x3d9b6f19	0.075895496
183	0x3c3e6e77	0.011623017
184	0xbd2391fb	-0.03993414
185	0xbc8a5eb7	-0.016890867
186	0xbddcf34f	-0.10788595
187	0xbe0e7e0f	-0.13915275
188	0x3d824b02	0.06361963
189	0x3dcce548	0.100046694
190	0xbda158a7	-0.07878237
191	0x3d689e6d	0.05679171
192	0xbcf51ad3	-0.029920017
193	0x3e100c26	0.14067134
194	0xbdcef4a7	-0.101052575
195	0xbbc3e4a9	-0.005978186
196	0x3dd7055c	0.10499069
197	0xbd4ea01c	-0.05044566
198	0xbe0cb278	-0.13739955
199	0x3b931736	0.004488851
200	0x3c4e4971	0.012590752
201	0xbdb7c8ab	-0.08973821
202	0xbcffc652	-0.031222496
203	0xbbf29f27	-0.0074042263
204	0x3d270f65	0.040786166
205	0x3df47bd0	0.11937678
206	0xbda250e9	-0.07925589
207	0xbc20b38d	-0.009808433
208	0x3c989def	0.018629996
209	0xbe357016	-0.17718539
210	0x3d26808d	0.04064994
211	0x3c5adb84	0.013358001
212	0xba66e9b3	-0.00088086276
213	0x3c83a783	0.016071087
214	0xbd65be45	-0.05608966
215	0xbd920386	-0.07129578
216	0x3e045f53	0.12926988
217	0xbde870ec	-0.11349663
218	0x3e3b5d64	0.18297344
219	0xbd9624df	-0.07331251
220	0x3db21fde	0.086974844
221	0x3d03136f	0.032000955
222	0x3d4449e9	0.04792205
223	0x3ce35203	0.027749067
224	0xbe78e5e3	-0.24306445
225	0x3d95d753	0.073164605
226	0x3ab1da6c	0.0013569123
227	0x3e098ffe	0.13433835
228	0x3d0c7b75	0.034297425
229	0xbdb9dd47	-0.090754084
230	0x3ded9803	0.116012596
231	0x3b715d2d	0.0036829219
232	0x3e12e623	0.14345603
233	0x3cf38d56	0.02973048
234	0x3cc944a8	0.02456887
235	0x3ba4c984	0.0050289053
236	0x3dcde21f	0.10052895
237	0x3da0da81	0.07854176
238	0xbd223dd9	-0.039609764
239	0xbdb52b86	-0.08846192
240	0xbd7e8c80	-0.06214571
241	0x3e52c163	0.20581584
242	0x3e0b7b5a	0.13621274
243	0x3d1988d0	0.03748399
244	0xbdd2fdec	-0.10302338
245	0x3da137a0	0.07871938
246	0xbd69e1fa	-0.057100274
247	0x3e0b1b3f	0.13584612
248	0xbcbc2ecb	-0.022971531
249	0x3d885aa9	0.06657917
250	0x3d13c040	0.036072016
251	0xbd2989ec	-0.0413913
252	0xbdecefe0	-0.1156919
253	0x3cf444d6	0.02981798
254	0x3d295663	0.04134215
255	0x3d6ce553	0.057835888

network_body._body_endoder.seq_layers.2.bias f4 [128]
0	0x3affe388	0.0019522766
1	0x3c17953b	0.009251888
2	0x3c538926	0.012911117
3	0xb905ce21	-0.00012760657
4	0xbb9cd55d	-0.004786177
5	0x3b9f631a	0.0048641087
6	0x3bab0ace	0.005219794
7	0x3c4d8d62	0.012545915
8	0x3c8b04a4	0.016969986
9	0x3b6b7002	0.0035924916
10	0x3bcc71a8	0.006239135
11	0x3cb8f2d2	0.022576723
12	0x3c7df698	0.015500687
13	0x3c01006e	0.007873638
14	0xbb780987	-0.0037847476
15	0x3c27bc46	0.010237759
16	0x3a0c26e0	0.0005346369
17	0x3c99d9de	0.018780645
18	0x3b5122a9	0.0031911528
19	0x3c2de924	0.010614667
20	0x3c08c1cb	0.008346985
21	0xbb13d1aa	-0.002255539
22	0x39922008	0.00027871155
23	0xbc500b86	-0.01269806
24	0x3c320c8b	0.010867248
25	0x3c969fb7	0.018386705
26	0x3abe2bef	0.0014508943
27	0x3c12c249	0.008957454
28	0x3c7e8dea	0.015536765
29	0x3c4949eb	0.01228569
30	0x3bec7e8f	0.0072172354
31	0xbc97be29	-0.018523293
32	0xbb8d86e5	-0.004319059
33	0x3cb63c2d	0.02224549
34	0x3c819d6f	0.01582214
35	0x3c9d432b	0.019197067
36	0xbc0bc344	-0.008530442
37	0x3b3ae179	0.002851574
38	0xbc65860d	-0.014009011
39	0x3c82459e	0.015902337
40	0x3c051352	0.008122282
41	0x3bc674ec	0.0060564186
42	0x3b8a083b	0.004212407
43	0x3b95caf6	0.004571314
44	0x3c09eae6	0.008417821
45	0x3c14c2bc	0.009079631
46	0x3c0f5405	0.008748059
47	0x3afd2edb	0.0019316332
48	0x3c69f932	0.014280604
49	0x3c956ad6	0.01823942
50	0x3c91deed	0.017806495
51	0xba204b13	-0.00061147026
52	0xbc28d186	-0.0103038605
53	0x3aa213cf	0.0012365523
54	0xbaac8c6f	-0.0013164411
55	0x3c31d6d3	0.010854441
56	0x3b44afba	0.0030011968
57	0x3c8fe4c9	0.017565148
58	0xbb63f7e3	-0.0034785203
59	0xb8bd14f0	-9.016122e-05
60	0x3c3dc8d9	0.01158353
61	0xbb947eef	-0.004531733
62	0x3d041447	0.0322459
63	0x3c2d7c59	0.010588729
64	0x3c10c587	0.008836157
65	0x3ac9445d	0.0015355457
66	0x3ca53f4a	0.02017178
67	0x3c617123	0.013759884
68	0xbae47ab4	-0.0017431588
69	0xbb28fe73	-0.002578643
70	0xbab4e15d	-0.0013800074
71	0x3ca7f67f	0.02050328
72	0x3c6c7c50	0.014433935
73	0x3c884a7a	0.016637076
74	0xb90bc670	-0.00013329997
75	0x3c740998	0.014894865
76	0x3c2a331b	0.010388161
77	0xbc3e7b5b	-0.01162609
78	0x3c85aa60	0.016316593
79	0x3c32113f	0.01086837
80	0xbc8778ec	-0.016537152
81	0x3be7633f	0.0070613916
82	0xbaf46469	-0.0018645647
83	0xbc6fadcd	-0.01462884
84	0xb9c741a6	-0.0003800515
85	0x3abebbee	0.0014551857
86	0xbbc375de	-0.0059649786
87	0x3c675ab7	0.014120749
88	0x3b240348	0.002502637
89	0xbb452708	-0.003008308
90	0xbbca9a53	-0.0061829477
91	0x3be6de66	0.007045555
92	0x3c778e46	0.015109604
93	0x3c45c96f	0.012071951
94	0xb8fa8db0	-0.0001194732
95	0x3b28c439	0.0025751723
96	0x3b83602b	0.004009267
97	0x3c0c7ef0	0.008575186
98	0x3c51e657	0.012811265
99	0xbb9fc3ae	-0.0048756218
100	0x3b8b0ab0	0.0042432174
101	0xbb7adf0d	-0.0038279921
102	0x3acd94f9	0.0015684656
103	0x3c236010	0.009971634
104	0x3c2d63de	0.010582892
105	0x3cdb8f3d	0.0268017
106	0xbb61d74d	-0.0034460605
107	0x3b169e76	0.0022982634
108	0x3b1e8be7	0.0024192275
109	0xbd09fb95	-0.033687193
110	0x3cb99c37	0.022657497
111	0x3c537e88	0.012908585
112	0x3bab96af	0.0052364687
113	0xbc3d4582	-0.0115522165
114	0x3c089347	0.008335895
115	0x3c50939e	0.012730507
116	0xb970c4bf	-0.00022961477
117	0xbb4329b2	-0.002977949
118	0x3c8fa416	0.017534297
119	0x3c109d6e	0.008826597
120	0x3bb19404	0.005419256
121	0x3a92ec4b	0.0011209337
122	0x3bca5eeb	0.006175866
123	0x3b16f684	0.0023035118
124	0x3bdec7b7	0.00679871
125	0x3be0a607	0.0068557295
126	0x3c6ec6d1	0.014573769
127	0x3c175ace	0.009237958

action_model._discrete_distribution.branches.0.weight f4 [3, 128]
0	0xbcb90720	-0.022586405
1	0xbcb8be82	-0.022551779
2	0x3d0ea896	0.034828745
3	0x3c7436fd	0.014905688
4	0xbc9a3f62	-0.018829051
5	0xbc512f16	-0.012767574
6	0x3ce94c30	0.028478712
7	0x3d2026d8	0.039099544
8	0x3cc8a272	0.024491522
9	0x3d11592c	0.03548543
10	0x3bea24c9	0.0071454984
11	0xb9d9b7b7	-0.00041526344
12	0xbcc9ba45	-0.024624953
13	0xbc8c37dc	-0.01711648
14	0xba445858	-0.0007489971
15	0x3b78c2db	0.003795794
16	0xbd06c52a	-0.032902874
17	0x3c63d8dd	0.013906685
18	0xbc6428d3	-0.013925749
19	0x3ce2eed8	0.02770178
20	0x3b277c7a	0.0025556372
21	0xbd0b7603	-0.03404809
22	0x3c9770eb	0.01848646
23	0xbbd2e93d	-0.0064364956
24	0xbd49a1f0	-0.0492267
25	0x3d229e83	0.03970195
26	0xbc8d5b43	-0.017255431
27	0xbce87894	-0.028377809
28	0xbcbd297d	-0.023091072
29	0xbc827b79	-0.015928017
30	0xbd18cae1	-0.037302855
31	0x3a9a4645	0.001177021
32	0xbca2dcdd	-0.019880706
33	0x3cc6576b	0.024211606
34	0x3ca66963	0.020313924
35	0x3cc7addb	0.024374893
36	0x3b9ac077	0.0047226506
37	0xbcd3bb82	-0.025846247
38	0xbc93cda3	-0.018042391
39	0x3d010d75	0.031506974
40	0x3b5fca4d	0.003414768
41	0xbd123463	-0.03569449
42	0xbcd8b88c	-0.026455186
43	0xbd015976	-0.031579457
44	0xbbe3c4ac	-0.0069509353
45	0xbca213df	-0.019784866
46	0x3ba0960a	0.0049006986
47	0x3bcd76c7	0.006270263
48	0xbbf1d679	-0.0073803035
49	0xbca8be35	-0.02059851
50	0x3b031259	0.001999995
51	0xbbf4e7c3	-0.007473917
52	0xba05bc17	-0.0005101575
53	0xbcb7b6d3	-0.022426045
54	0xbce2ecd5	-0.027700821
55	0xbc4404cd	-0.011964035
56	0x3cd87891	0.026424678
57	0x3d32e91f	0.043679353
58	0xbbe10d12	-0.006868013
59	0x3c2511ff	0.010075091
60	0xbca49b25	-0.02009351
61	0xbc9cbcce	-0.019132998
62	0x3aecdccf	0.0018071177
63	0x3cd256d1	0.025676163
64	0xb9d59102	-0.00040734565
65	0xbcc5f9b2	-0.024166916
66	0x3b750d74	0.0037392052
67	0x3c0cbc16	0.008589765
68	0xbb066ea8	-0.0020512734
69	0xbcac7191	-0.021050246
70	0x3c070605	0.008241181
71	0x3bd3b6ff	0.006461024
72	0x3c5975ad	0.013272685
73	0xbccf3b35	-0.025296787
74	0xbbfb60a0	-0.0076714307
75	0x3d208ffe	0.03919982
76	0x3cfccd9d	0.030859763
77	0xbb8c9a21	-0.0042908345
78	0x3d108af4	0.035288766
79	0x3c76898d	0.015047443
80	0xbbc7e97f	-0.006100833
81	0x3ad1980b	0.0015990747
82	0x3c1da7e6	0.00962255
83	0xbca6594f	-0.020306258
84	0x3a81fe08	0.0009917626
85	0x3c18a2c5	0.009316151
86	0xbce396ca	-0.027781863
87	0x3be9c0f3	0.007133597
88	0xbc83be72	-0.016082022
89	0xbc9436a0	-0.018092453
90	0xbd1ad3a4	-0.037799492
91	0x3d149617	0.03627595
92	0x3cf909e2	0.03040022
93	0x3c10a782	0.0088289995
94	0x3c252471	0.010079489
95	0x3bbc4463	0.005745457
96	0xbd428a97	-0.04749545
97	0x3c6bc4f3	0.014390218
98	0xbcbb99bc	-0.022900455
99	0xbc4e64ef	-0.012597307
100	0xbbe80b3d	-0.007081418
101	0xbcc0652f	-0.023485748
102	0x3c1b7e7c	0.009490605
103	0xbb887d10	-0.0041652992
104	0x3c607ba5	0.013701354
105	0xbcf56d4e	-0.029959347
106	0xbcf3e9a8	-0.029774502
107	0xbc838b60	-0.01605767
108	0xbc3284f6	-0.010895958
109	0xb9f1ffa7	-0.00046157578
110	0x3d224f87	0.039626624
111	0x3c41a0f9	0.011818164
112	0xbc9eee02	-0.0194006
113	0xbb04bdb0	-0.0020254664
114	0x3bb84c3e	0.005624323
115	0x3c69fbfd	0.01428127
116	0xbc197dc1	-0.009368361
117	0x3cf9061c	0.030398421
118	0xbc7351a8	-0.014851011
119	0x3b981bbf	0.0046419795
120	0xbbed3c2e	-0.00723984
121	0x3c9c6599	0.019091414
122	0xbc93d724	-0.018046923
123	0xbd037ef5	-0.032103498
124	0xba83578c	-0.0010020598
125	0xbd0caaa4	-0.034342423
126	0xbba4be16	-0.005027543
127	0x3cf09862	0.029369537
128	0xbd20ce90	-0.039259493
129	0xbd26d2bd	-0.04072832
130	0x3bdbc197	0.0067064273
131	0x3bb12d6f	0.0054070274
132	0xbcef294c	-0.029194497
133	0x3a0c53f2	0.0005353085
134	0xbce8f1a4	-0.028435536
135	0xbcbe34cf	-0.02321854
136	0x3cb154cc	0.02164688
137	0xbc144546	-0.009049719
138	0x3d0d1a83	0.03444911
139	0x3d4a8aa3	0.04944862
140	0x3d33c72b	0.043891113
141	0xbcbb2f2b	-0.02284964
142	0x3c4bfc3d	0.012450275
143	0xbc430818	-0.011903785
144	0x3c532517	0.012887261
145	0x3ca83e86	0.020537626
146	0xbb7b7a68	-0.003837252
147	0xbbc19802	-0.0059080133
148	0x3ce40573	0.02783463
149	0x3bdeb292	0.0067961896
150	0xbaafd0bf	-0.0013413652
151	0x3c1c40b2	0.009536909
152	0x3d80bb52	0.062857285
153	0xbb608bac	-0.0034262938
154	0xbc955cd4	-0.01823274
155	0x3d28e67b	0.04123543
156	0x3d3c2486	0.04593327
157	0xbd05006c	-0.032471105
158	0xbca58b7b	-0.020208111
159	0xbb914a5c	-0.004433913
160	0xbc6515b8	-0.013982229
161	0xbd0e4a6f	-0.034738954
162	0xbcef83f7	-0.02923773
163	0x3a83ba07	0.0010049947
164	0x3c855547	0.016276015
165	0x3d180f62	0.037124045
166	0xbc8bc29c	-0.01706057
167	0xbd04bf3b	-0.032408934
168	0xbd04d0f1	-0.032425825
169	0x3d3e29d8	0.046426624
170	0x3d1a835a	0.037722923
171	0xbc0b43b9	-0.008500033
172	0x3cf81311	0.03028253
173	0x3be17f88	0.006881658
174	0xbc9a3cb7	-0.01882778
175	0xbb9e0f14	-0.004823575
176	0x3d04aab2	0.03238935
177	0xbd13964d	-0.03603201
178	0x3cf6cfb7	0.030128343
179	0x3cb15324	0.02164609
180	0x3c6dac6d	0.014506442
181	0xbd053439	-0.032520507
182	0x3ccbbd67	0.024870588
183	0x3b892097	0.004184793
184	0xbcb774c4	-0.022394545
185	0xbc2ecfa5	-0.0106696235
186	0xbc22fffd	-0.009948728
187	0xbc508d82	-0.012729051
188	0xbcab3cea	-0.02090307
189	0xbc8544c0	-0.016268134
190	0x3d1e1e8e	0.038603358
191	0x3af2408b	0.001848237
192	0x3c4e9d13	0.012610692
193	0x3d2d0082	0.042236812
194	0x3d0af496	0.03392466
195	0xbd394a0b	-0.04523663
196	0xbc64838d	-0.01394738
197	0xbc21ba8a	-0.009871135
198	0xbcb27d95	-0.021788398
199	0x3d11b3b2	0.03557176
200	0x3c8196f5	0.015819052
201	0x3bf9eef4	0.0076273624
202	0xbc99ece7	-0.018789722
203	0xbbbee497	-0.00582559
204	0x3b16867d	0.0022968345
205	0xbcdc22cd	-0.026872063
206	0xbc8e49a6	-0.017369103
207	0xbd21d556	-0.039510094
208	0x3cce1a92	0.025159154
209	0x3c37ba74	0.0112138875
210	0xbc9cb5bf	-0.019129632
211	0x3a95666a	0.001139832
212	0x3bf56236	0.0074885143
213	0xbc652150	-0.013984993
214	0x3cbfc959	0.02341144
215	0x3cdedf5e	0.02720612
216	0xbc0a2cc4	-0.0084335245
217	0xba0c7400	-0.00053578615
218	0xbc7651ae	-0.015034122
219	0xbb043879	-0.0020175262
220	0x3c3959db	0.011312927
221	0x3b24b1c5	0.0025130373
222	0xbd4d1090	-0.050064623
223	0xbb1782d0	-0.0023118742
224	0x3d38e891	0.045143668
225	0xbcccde37	-0.025008304
226	0x3d68528b	0.056719344
227	0xbd08720a	-0.03331188
228	0x3d3a05fa	0.045415856
229	0x3d142995	0.03617247
230	0x3cabf7f9	0.020992266
231	0xbc56699f	-0.0130867055
232	0x3c4f7f11	0.012664572
233	0x3cd2ed64	0.025747962
234	0xbb466a94	-0.0030275928
235	0x3bea2041	0.0071449582
236	0xbce8e3b7	-0.028428895
237	0xba9e058d	-0.0012056098
238	0xbcc03f86	-0.02346779
239	0xbc241f47	-0.010017223
240	0x3cffec91	0.031240733
241	0xbbc0d420	-0.0058846623
242	0xbd20d468	-0.039265066
243	0x3c179297	0.009251258
244	0xbce9217c	-0.02845835
245	0x3bc540b5	0.0060196766
246	0x3d17e752	0.03708584
247	0xbc83e456	-0.01610009
248	0x3d0ed47b	0.034870606
249	0xbba5872b	-0.0050515137
250	0xbb2b660c	-0.0026153354
251	0x3d26dee9	0.040739927
252	0xbcb9aa31	-0.022664161
253	0x3c848bcd	0.016179943
254	0x3c8909c0	0.016728282
255	0xbd15d453	-0.03657944

action_model._discrete_distribution.branches.0.bias f4 [3]
0	0x3c04a66f	0.0080963215
1	0x3c1335af	0.008984967
2	0xbc9a0fe0	-0.018806398

action_model._discrete_distribution.branches.1.weight f4 [3, 128]
0	0x3c00e7a2	0.007867726
1	0x3d1ab694	0.037771776
2	0x3c4eb3a2	0.01261607
3	0x3cf203c2	0.029542807
4	0xbc71ccee	-0.014758332
5	0x3a86fe58	0.0010299189
6	0x3cac49ec	0.021031342
7	0x3bb0aded	0.0053918273
8	0xbbd33fff	-0.006446838
9	0x3bb14113	0.005409369
10	0xbbbecce0	-0.005822763
11	0xb9c8466f	-0.0003819945
12	0x3bcb7e00	0.0062100887
13	0xbccacaae	-0.024754848
14	0xbc26083f	-0.010133802
15	0xbbfe216a	-0.007755448
16	0xbb882cf7	-0.004155751
17	0xbc3b84a5	-0.011445199
18	0xbc88a7f8	-0.016681656
19	0xbc3c7c34	-0.011504222
20	0x3b87773b	0.0041340864
21	0xbca08bf4	-0.019597985
22	0xbc56a828	-0.013101615
23	0xbc64e43c	-0.013970431
24	0x39d81392	0.00041213311
25	0x3b500db8	0.0031746458
26	0x3a27d593	0.00064023695
27	0x3b681635	0.0035413627
28	0xbc6732e1	-0.014111252
29	0x3ac78c51	0.0015224313
30	0x3c62f55e	0.013852445
31	0x3b932e67	0.0044916156
32	0xbc963379	-0.018335091
33	0x3ba3ba71	0.004996591
34	0x3c9dcec6	0.019263636
35	0x3abfdf30	0.0014638659
36	0x3d1bf01f	0.038070794
37	0xbc2499a1	-0.010046394
38	0x3b91a0fc	0.0044442397
39	0x3caaf9a0	0.020870984
40	0xbc8a5cc8	-0.016889945
41	0x3aefc477	0.0018292804
42	0x3c053a4a	0.008131573
43	0xbb92fc3a	-0.004485634
44	0x3c0d84e2	0.008637639
45	0x3bcfd160	0.006342098
46	0x3bd3bc7f	0.0064616795
47	0x3b7c0b7e	0.0038458998
48	0x3ce5131c	0.027963214
49	0xbcd3d490	-0.025858194
50	0x3c19871a	0.00937059
51	0xbc560c21	-0.013064415
52	0x3ac070f8	0.0014682105
53	0x3c776afc	0.015101191
54	0xbc9770df	-0.018486438
55	0xbc16105e	-0.009159176
56	0x3b8d7899	0.004317355
57	0x3ca2c583	0.019869572
58	0x3ac4c6ee	0.0015012899
59	0x3cd2bb74	0.02572415
60	0xbd3f4022	-0.04669202
61	0x3bb2c225	0.0054552727
62	0x3c98adc0	0.018637538
63	0x3c586cab	0.013209502
64	0xbabc4a78	-0.0014365455
65	0x3c500897	0.0126973605
66	0xba810a2c	-0.000984495
67	0x3bd40e83	0.0064714565
68	0xbd286e1a	-0.041120626
69	0xbc28d6a0	-0.010305077
70	0x3cb3f19b	0.021965792
71	0x3d1a216d	0.037629534
72	0x3d35ae1a	0.04435549
73	0xbd11921b	-0.035539728
74	0xbbe0082b	-0.006836911
75	0x3bbb6810	0.0057191923
76	0x3ce68a5a	0.028142143
77	0x3c4b6143	0.012413326
78	0x3b953dad	0.0045544715
79	0xbbe8fb50	-0.007110037
80	0x3c4dd812	0.012563722
81	0x3d10efb9	0.035384867
82	0xbb0d516f	-0.002156343
83	0x3b786438	0.0037901532
84	0xbb85edcb	-0.004087185
85	0x3c4ebb1b	0.012617852
86	0xbc3db69d	-0.011579183
87	0x3bb24128	0.005439896
88	0xbb38f62b	-0.00282229
89	0xbc217e67	-0.009856797
90	0x3b9fa576	0.0048720194
91	0x3cb411e3	0.021981185
92	0x3c5f3b08	0.013624914
93	0x3c838889	0.016056316
94	0xbc3a76b5	-0.011380841
95	0x3bb3698d	0.005475229
96	0x3b072e5a	0.0020626993
97	0xbb4232da	-0.002963236
98	0x3aa606e3	0.0012666847
99	0xbc3480f2	-0.011017071
100	0x3c621382	0.013798596
101	0x3b0656ec	0.0020498587
102	0xbb860898	-0.00409038
103	0x3c5a352f	0.013318344
104	0xbc0419a0	-0.00806275
105	0xbcd73722	-0.026271407
106	0xbd410789	-0.047126327
107	0xbd0bdc93	-0.034145903
108	0xbcd48edf	-0.025947032
109	0x39dd5a57	0.00042219713
110	0xb9a1f14f	-0.00030888102
111	0xbc3acca2	-0.011401327
112	0xbc88fe9b	-0.016722968
113	0xbc32e9a8	-0.010919966
114	0xbc85f426	-0.01635177
115	0x3c4d2bc4	0.012522642
116	0x3c3d4ae2	0.011553498
117	0x3c9bef40	0.019034982
118	0xba0d2a7d	-0.00053850544
119	0xbc1ff371	-0.009762631
120	0x3b9e4a9c	0.0048306715
121	0x3b641e41	0.0034808072
122	0xbd1caa12	-0.03824813
123	0x3ba4ca5f	0.0050290073
124	0x3c4096fe	0.011754749
125	0xbbf2182c	-0.0073881354
126	0xbca0c7d8	-0.019626543
127	0x3cad0307	0.021119608
128	0xbc3f43b8	-0.01167386
129	0xbd1b21f5	-0.03787418
130	0x3b1fe11f	0.0024395657
131	0x3c8d8ac2	0.017278079
132	0xbb3f4d11	-0.0029190222
133	0xbcc82033	-0.024429416
134	0xbc44d094	-0.0120126195
135	0xbc8ca35d	-0.017167741
136	0x3c1db0d5	0.00962468
137	0x3b8b153a	0.0042444738
138	0x3c42d888	0.011892445
139	0x3bd664b2	0.0065427655
140	0x3b7c77ed	0.003852363
141	0xbc4d95dd	-0.012547937
142	0x3c3ba395	0.011452575
143	0xbd19b2f9	-0.037524197
144	0xbbfc95ac	-0.007708272
145	0x3c308f36	0.010776332
146	0xbcadeb5c	-0.021230392
147	0xbbed5be6	-0.007243621
148	0x3c752cf2	0.014964329
149	0x3d0c24be	0.034214728
150	0x3c696bea	0.01424692
151	0xbbc61ee0	-0.006046161
152	0xbb6150e6	-0.0034380495
153	0xbc45b864	-0.012067888
154	0xbb24d2c0	-0.002515003
155	0x3c9052b6	0.017617565
156	0x3cb9b0de	0.022667345
157	0xbcf19d85	-0.029494056
158	0xbca4b9c6	-0.020108115
159	0xbb5ef7a8	-0.0034022126
160	0xbc8851e7	-0.016640617
161	0xbc0592b1	-0.00815265
162	0xbd1bf68a	-0.038076915
163	0xbc7bc6f8	-0.015367262
164	0xb9cc19c9	-0.00038929124
165	0x3bf69914	0.0075255726
166	0x3d0d63c9	0.03451899
167	0xbc9fc1f5	-0.019501666
168	0xbcd1e036	-0.025619607
169	0x3cc64bbd	0.024206037
170	0xbc3dc267	-0.011581994
171	0xbc0e5107	-0.008686311
172	0x3acba3eb	0.0015536522
173	0xbc4eb99b	-0.012617494
174	0xbcd81f60	-0.026382148
175	0xbc39116d	-0.011295659
176	0xbc47c911	-0.012193934
177	0xbcb10f45	-0.021613726
178	0x39cd9d13	0.00039217676
179	0x3cbf0853	0.023319399
180	0x3cb63b3e	0.022245046
181	0xbc62c3c4	-0.0138406195
182	0x3c29b33e	0.010357676
183	0xbc2174b3	-0.009854483
184	0x3ce4b4b3	0.027918195
185	0xbca7cce9	-0.020483451
186	0xbca69f9d	-0.020339781
187	0x3a1d6c11	0.0006005178
188	0xbb0c9406	-0.0021450534
189	0xbcb9d817	-0.022686047
190	0xbbbe2482	-0.005802692
191	0xbbc2bbb1	-0.0059427847
192	0xbc14aaa2	-0.009073885
193	0xba3b58e9	-0.00071467325
194	0xbbef1d64	-0.007297205
195	0xbc9f7f4e	-0.019469883
196	0x3bdb95c6	0.006701204
197	0x3c98e28a	0.01866271
198	0xbcc67e72	-0.024230216
199	0x3c13dc6f	0.009024723
200	0xba8c53c9	-0.0010706122
201	0x3ba25637	0.0049541253
202	0xbc420042	-0.011840882
203	0x3c895403	0.016763693
204	0xbca6a924	-0.020344324
205	0xbcd0a7b0	-0.025470585
206	0xbca9f77a	-0.020747889
207	0xbcc3b1e4	-0.023888536
208	0x3c85ba4d	0.016324187
209	0xbc0f8e3d	-0.00876194
210	0xbc1f309e	-0.009716181
211	0x3c82a292	0.01594666
212	0x3bc77db6	0.006087984
213	0xbc6cd81b	-0.01445582
214	0xbb6c5a10	-0.0036064424
215	0xbc720278	-0.014771096
216	0xbb286a50	-0.0025698133
217	0x3ac2b932	0.0014856218
218	0x3c32a046	0.01090247
219	0xb9e351a9	-0.00043357656
220	0xbbd890b3	-0.0066090464
221	0xbcc6614c	-0.024216317
222	0x3a8b7dd6	0.001064236
223	0xbc62d71c	-0.013845231
224	0x3afec8f3	0.001943855
225	0xbccafd75	-0.02477906
226	0x3c521866	0.0128232
227	0xbb4a2944	-0.003084735
228	0xbbc2780d	-0.0059347213
229	0x3b98b589	0.0046603126
230	0x3c7eb5e9	0.0155463
231	0xbc03ee05	-0.008052354
232	0x3c16902c	0.009189647
233	0xbbb33444	-0.005468877
234	0x3c70aaf2	0.014689194
235	0x3c2dc889	0.010606893
236	0xb9fb7163	-0.0004795893
237	0x3c817ab6	0.015805583
238	0xbd03db65	-0.032191653
239	0xbca1cf33	-0.01975212
240	0x3baa9066	0.005205202
241	0xb9e35fc8	-0.00043368177
242	0x3b6d68f1	0.003622588
243	0x3afa7a9f	0.001911003
244	0x3bb8041a	0.0056157233
245	0x3b81a8c7	0.0039568874
246	0x3c5fa0c0	0.013649166
247	0xbc021f27	-0.007941998
248	0x3b586a4f	0.003302235
249	0xbc463bed	-0.012099248
250	0x3c4bf23d	0.012447891
251	0x3b3ce6c9	0.0028824082
252	0xbc847f69	-0.016174035
253	0x3c6f32f5	0.014599551
254	0xbca8bec4	-0.020598777
255	0xbc675de1	-0.014121504

action_model._discrete_distribution.branches.1.bias f4 [3]
0	0xbac36b77	-0.0014909346
1	0xbc34fc60	-0.011046499
2	0x3c47706b	0.012172799
