Assets/results/T2/CarDriver/CarDriver-32000.onnx (onnx, 188993 bytes, 9 tensors)

discrete_act_size_vector f4 [1, 2]
000000 00 00 40 40 00 00 40 40
       3.0 3.0

network_body._body_endoder.seq_layers.0.weight f4 [128, 225]
000000 49 bf e2 bd 26 a0 40 bc 08 86 2d 3d 94 b3 9b 3d
       -0.11071641 -0.011756932 0.04236415 0.07602611
000010 d7 ee 1a 3e bb 33 8d bc 2c f1 7f bd 03 5f 5c 3d
       0.15130173 -0.017236581 -0.06248586 0.053801548
000020 03 f4 4e bd 50 e3 f5 bc 49 dc f4 bc 0b c2 62 3d
       -0.050525676 -0.030015618 -0.029890196 0.055360835
000030 55 d7 f2 bc 53 11 1e bb 57 fa 75 3b 25 30 23 bb
       -0.029643694 -0.0024119213 0.0037533247 -0.0024900523
000040 4f a4 c3 bc fe c5 0a bd 75 4d 39 bd 93 7b 94 bd
       -0.02388206 -0.033880226 -0.045239884 -0.072501324
000050 b5 8d d6 bd fa 2d fe bc 48 95 0c 3c 5d d4 b8 3c
       -0.10476247 -0.031027783 0.008580513 0.0225622
000060 75 fe df 3d 39 40 f4 3b 27 ef 1d 3e e8 c5 20 3e
       0.10937206 0.007453945 0.1542326 0.15700495
000070 ec af 9a bc 8b 60 42 3d ea 29 22 3c 37 07 0a 3b
       -0.018882714 0.04745535 0.009897688 0.002106143
000080 4c 10 22 3d d1 fc 4b 3a 6f 70 5d bd d8 03 d2 3d
       0.039566323 0.0007781508 -0.054062303 0.102546394
000090 13 46 1a 3c 69 4a 9c 3c 08 1d a0 bb 7c 4f 3b bd
       0.009416121 0.01907845 -0.0048862733 -0.0457301
0000a0 c3 0c 2e 3d da f4 6f bc a8 5e 73 bd 9d 89 d1 bc
       0.04249264 -0.0146457795 -0.059416443 -0.025578314
0000b0 2a f3 f9 bd d7 41 86 3d f3 83 8d 3d 0e b8 25 bd
       -0.12204583 0.06555527 0.06909933 -0.04045873
0000c0 76 be 5b 3e fb 17 03 3e 9c 0a b9 3d 26 23 8b 3d
       0.21459374 0.12802117 0.09035227 0.067938134
0000d0 e1 ef bb bc 13 37 69 bd bb d8 db 3c 2a 69 51 3e
       -0.022941532 -0.05693729 0.026836744 0.20450273
0000e0 85 99 5e bc 7f d0 3c bd d7 d2 c0 bd 5b 10 57 bd
       -0.013586407 -0.046097275 -0.094152145 -0.052505832
0000f0 10 f9 b6 bc b5 28 56 3c ef 09 4f bd f3 73 cf bd
       -0.02233556 0.013071229 -0.050546583 -0.101295374
000100 65 be 2a 3d eb 00 34 3c fc b8 87 3d b0 d8 1d bc
       0.04168548 0.010986547 0.0662708 -0.009634182
000110 7e 35 0a 3c 33 4d a4 ba c7 7a e4 bc f2 d0 05 3e
       0.008435605 -0.0012535214 -0.027890576 0.13067988
000120 30 5c c3 bd f2 79 8b bd 84 e8 9a 3d 0b c3 da bd
       -0.09539068 -0.068103686 0.0756388 -0.10681733
000130 e3 58 e8 3d 31 67 75 3c 06 52 47 3d f5 55 1f 3d
       0.11345079 0.014978216 0.048662208 0.038900334
000140 15 11 93 3d dc 45 9c bd 75 c1 45 bd 04 78 18 3d
       0.071809925 -0.07630512 -0.048280198 0.03722383
000150 dc 90 1c 3d a4 fe a9 bd 36 ca a2 3d c5 50 c3 3b
       0.038224086 -0.08300522 0.07948725 0.005960556
000160 57 49 08 bd f4 a5 c2 bd 0e 88 00 be 21 f2 e1 bd
       -0.033273067 -0.09504309 -0.125519 -0.110325105
000170 47 51 00 3d 71 76 aa bd 68 a2 21 bd 2c 1f b3 3d
       0.031327512 -0.08323372 -0.039461523 0.0874618
000180 e1 a6 fb bc fa 05 f5 bd a1 4e 01 bd 6e 02 a9 bd
       -0.030719223 -0.119640306 -0.031569127 -0.082524166
000190 81 48 93 bd c5 20 00 3e a6 a4 4d bd 48 48 60 bd
       -0.071915634 0.125125 -0.05020585 -0.054756433
0001a0 5b f4 d4 bd a6 b3 fe 3c 16 2a b6 3d 9d 22 02 3d
       -0.103981696 0.031091522 0.08894746 0.03177129
0001b0 06 6f e5 bd 8a 2b 48 3d 3d ce 29 3d 6c b8 67 bc
       -0.11202817 0.048869647 0.04145645 -0.014143091
0001c0 6b ed 22 bc 7f 36 09 3c 7d 50 71 3d 9b 70 3f be
       -0.0099443 0.008374809 0.05891465 -0.186953
0001d0 c4 6b 8f 3d 2a 5f 06 bd d9 1e 1b 3d fe 91 9a bd
       0.070029765 -0.0328056 0.037871215 -0.07547377
0001e0 fc 0e 8e bc cb 4a 8f bb 8d 6b 8a 3d ca 1c 51 bd
       -0.01734113 -0.0043729297 0.06758795 -0.051052846
0001f0 33 95 9a bd 2e 53 95 3d 09 ac 7c bd e3 d4 cb 3a
       -0.07547989 0.07291256 -0.061687503 0.0015551116
000200 6b 04 04 3d b3 bf 6c 3a 57 01 26 3c 9d a6 16 3b
       0.032230776 0.0009031251 0.010132155 0.0022987493
000210 31 a0 e7 3d 53 65 33 bc d7 68 d6 3c a1 d0 98 bd
       0.11309851 -0.010949451 0.026173038 -0.07461668
000220 5a d8 b5 bc a9 da fe 3c 49 c5 b5 3d 43 1f a5 bc
       -0.022197891 0.031110125 0.0887552 -0.020156508
000230 f5 44 f4 3c 2b 42 cf 3d 46 d7 1e 3c 66 04 d3 ba
       0.029818038 0.101200424 0.00969488 -0.0016099333
000240 6b 18 98 3c cc 91 17 3d e3 a3 d7 3a 42 76 28 bd
       0.01856633 0.037004277 0.001645204 -0.041128404
000250 01 1b c9 3d b3 f5 95 3d f6 8f 50 bd 78 87 31 3d
       0.09819604 0.07322254 -0.05091854 0.043342084
000260 6a fe cb 3c 45 d5 3b 3d c0 53 e0 3c d7 3f bd 3a
       0.024901588 0.045857687 0.027383685 0.0014438581
000270 b3 19 26 3d 04 db af 3d 23 5d 11 3b 4a fb 19 3d
       0.040551852 0.08586696 0.0022180758 0.037593164
000280 f3 b1 92 3d 0d 0b 9d bc ab 25 cb 3b 6a 46 d5 3d
       0.07162847 -0.019170308 0.0061995587 0.10413821
000290 c2 95 2b 3d 3c 28 b0 3c 4d 10 f7 3d 3a 0e 48 bd
       0.041890867 0.02150356 0.12063656 -0.048841693
0002a0 52 05 72 bc 94 fb d0 3c 9a 08 9a 3d fc 04 8a 3c
       -0.014771776 0.025510587 0.07521172 0.01684808
0002b0 ea 60 4b 3d a9 af af bc 0f ea c6 bd ca fd 26 bd
       0.04965297 -0.021446066 -0.09712612 -0.040769376
0002c0 92 eb 67 bd c1 c3 de 3d 4e a0 be bc 60 93 21 3d
       -0.05662114 0.10877181 -0.023269799 0.03944719
0002d0 96 25 bf bc 98 1f 88 3c cf a5 ac bd d2 c3 66 bc
       -0.023333352 0.016616628 -0.08430063 -0.014084773
0002e0 c1 58 a1 3c 76 2d 5a bd b1 63 7c bd 7e e7 c9 3d
       0.019695641 -0.05326601 -0.06161851 0.09858607
0002f0 9d f2 86 3d ac 8d bf 3d 12 32 1e be 8f 75 89 3c
       0.065892436 0.09353194 -0.15448788 0.01677969
000300 74 df f3 bb 3e cc 70 bd f6 37 bc bd 3a f3 0f bc
       -0.007442409 -0.05878853 -0.09190361 -0.008786017
000310 6f 05 be 3d 4e 71 de ba fd e1 fb 3b ff fc b6 3c
       0.0927838 -0.0016971023 0.007686852 0.022337435
000320 80 a4 01 bd b7 74 f9 bc f7 93 0a 3d cf 68 8f bd
       -0.03165102 -0.030451162 0.033832517 -0.070024125
000330 6e 96 11 3d 01 78 6a 3d 74 d5 dc bc 63 6f eb bc
       0.03554385 0.05724335 -0.026957251 -0.028739637
000340 6a 91 0b 3d 88 00 52 bd c5 e2 0e 3d 28 05 53 3c
       0.034074225 -0.051270038 0.034884233 0.012879647
000350 b2 2e 8d 3c 05 b3 85 3d 69 c2 7a 3d 05 9a df 3d
       0.01723418 0.06528286 0.06122056 0.10918049
000360 5c f4 70 3d 1f 53 d5 bc b5 4d 28 3d 57 ca 38 bd
       0.05882679 -0.026040612 0.041089732 -0.04511484
000370 d5 eb 1b 3c eb f5 32 bc a7 3b 82 3d 1a d0 56 bc
       0.009516676 -0.010922889 0.06359034 -0.013111139
000380 42 5b 91 bc b8 ec 76 bd a8 84 93 3d 54 f8 85 3d
       -0.01774371 -0.060284346 0.072030365 0.065415055
000390 17 f1 68 3d 2f 3a 0d bd a8 f8 0d 3d 00 48 73 3d
       0.056870546 -0.034479316 0.034660965 0.059394836
0003a0 f7 2a a8 b9 66 aa 32 3d c0 ed 9b 3d 13 49 e6 bd
       -0.00032075468 0.043619536 0.076137066 -0.112444066
0003b0 8b ab 59 bd da 5e fc 3c 6a 81 18 bd 0b af 8a bb
       -0.05314211 0.030806947 -0.037232794 -0.0042322925
0003c0 4b fe 29 3c fd 1c ea 3c 09 be b1 3c fe 82 86 3d
       0.01037557 0.028578276 0.021697061 0.065679535
0003d0 b6 15 c8 3d 05 84 d9 bc 79 a6 4a bd ac 1e 44 bd
       0.09769766 -0.02655221 -0.049475167 -0.047880813
0003e0 f9 77 20 bc 2f 60 de bd 43 27 f4 3d 3f 19 f0 bb
       -0.009794229 -0.10858189 0.11921551 -0.0073272283
0003f0 28 d9 11 bc 04 6b cc 3c 73 c6 fa bd 35 11 88 bd
       -0.008901872 0.024953373 -0.122448824 -0.06643907

network_body._body_endoder.seq_layers.0.bias f4 [128]
000000 79 9f 66 3b e9 b1 f9 3a 86 43 27 3c 0e 2e 22 3b
       0.0035190268 0.0019050214 0.01020897 0.002474669
000010 fc f3 ff 3b 5a 43 91 3a ce a7 14 ba d0 de 0e 3b
       0.0078110676 0.0011082694 -0.0005670757 0.0021800287
000020 ff 94 91 bb 6a c7 ba bb 68 bb 9e 3b aa 89 b4 ba
       -0.0044428105 -0.0057000415 0.004844118 -0.0013773937
000030 13 a3 df 3b 01 3d 68 3a fe aa 6a 3b 88 54 74 3b
       0.00682486 0.0008859188 0.0035807486 0.003728183
000040 e8 e0 01 bc ea 90 a5 3b d8 b6 b4 bb 5f f1 86 3b
       -0.007927157 0.0050526755 -0.0055149607 0.004118129
000050 16 f8 7a bb fa 2e bf 3b 8e c5 95 3b 1f b8 f5 3b
       -0.0038294843 0.0058344575 0.0045706695 0.0074987556
000060 83 13 bc 3b 84 19 89 3b 2c 37 60 3b 36 6c 89 3b
       0.0057396307 0.00418395 0.0034212573 0.004193808
000070 76 c3 b8 3b f3 a6 86 bb b1 8d a9 b9 d5 81 c9 bb
       0.005638535 -0.0041092574 -0.0003233976 -0.0061495104
000080 20 34 95 ba 54 15 bc bb 76 d5 c7 38 18 cf 6f bb
       -0.0011383332 -0.005739847 9.52882e-05 -0.0036591943
000090 bf 27 c6 3b d0 b4 39 3b 8b 75 5e 3b dd 93 24 3b
       0.0060472186 0.0028336532 0.0033944573 0.0025112547
0000a0 9f f1 f1 3a 27 24 e0 ba df 12 b6 ba e4 1e 7c 3b
       0.001845885 -0.0017100618 -0.0013891122 0.003847056
0000b0 db 04 2a b8 6d 9a 11 bb 15 07 d2 3b 56 d8 ca 3b
       -4.053568e-05 -0.002221729 0.0064095357 0.00619034
0000c0 b9 3a 7b 3a 20 91 19 36 38 ed d5 3b 16 c1 14 bc
       0.00095836405 2.288325e-06 0.006528523 -0.009079238
0000d0 61 58 26 3c dd f5 f5 3b d4 d7 c1 3b 01 97 a5 bb
       0.010152907 0.007506116 0.0059156213 -0.0050534015
0000e0 d0 db 1a 3c fb f5 d9 bb 2e 13 10 bc a5 f6 08 3a
       0.009451821 -0.0066516376 -0.008793635 0.0005224741
0000f0 5b 7e 2a bc f0 fc d1 ba fa db cd 3a 1a 6b 05 bc
       -0.010406102 -0.0016020816 0.0015705817 -0.008143211
000100 f2 a0 97 bb b0 5c 6e ba a4 e0 9b bb 18 4b 83 3b
       -0.0046273405 -0.0009092791 -0.004757004 0.0040067546
000110 9a 9f c7 ba 11 36 80 bb ec af 11 bb b2 b1 bb 3b
       -0.001523006 -0.003912695 -0.0022230102 0.00572797
000120 ed 87 c5 3a 8a 0e 57 3b 1a e6 4d bb 07 e1 71 39
       0.0015070416 0.0032815062 -0.0031417669 0.0002306738
000130 2b 00 e0 3a f5 a0 ff 39 80 55 1c bc 10 20 8a 3b
       0.0017089894 0.00048757312 -0.009541869 0.004215248
000140 79 5f 6e 3b 2d bc 3d 3b 48 b0 8e bb a0 e2 17 3b
       0.0036372824 0.0028951273 -0.0043545105 0.002317585
000150 4b 7c c6 3b c0 f3 ba bb 13 1c 5b 3c 26 d7 10 3b
       0.0060572973 -0.005705327 0.013373393 0.0022100895
000160 82 7b 7b 3b 9f f8 ae bb 05 14 a4 39 80 dc 60 3c
       0.0038373177 -0.0053396965 0.00031295433 0.013724446
000170 8c 87 60 3a fc f9 33 3c bd af 02 ba f5 bf ec 3b
       0.000856512 0.010984894 -0.00049852935 0.0072250315
000180 e0 f1 04 3c 34 b5 e3 3b ed 64 43 3a cc d5 41 bc
       0.008114308 0.0069490913 0.0007453699 -0.011830758
000190 67 d2 90 ba f1 39 cf b8 e5 37 df 39 b3 67 4c bc
       -0.0011049033 -9.8813216e-05 0.0004257552 -0.012475896
0001a0 1e c2 55 3b ad a1 20 3c 74 9e 88 bb 3a 3d e8 bb
       0.0032616924 0.0098041715 -0.0041692797 -0.007087377
0001b0 d5 28 1b 3c c7 b6 fb 3b bb 9f 1d 3c 49 af 3f 3b
       0.009470184 0.007681701 0.009620602 0.0029248765
0001c0 6c 58 f3 bb 29 52 ab 3b 9b 1b 97 3b bc c6 6a 3b
       -0.007426312 0.0052283 0.004611445 0.0035824021
0001d0 2f d4 bf 3a ac 1a 82 3b e9 4c b5 3b 1f 89 04 3c
       0.0014635379 0.0039704647 0.00553285 0.008089333
0001e0 09 e8 27 bb 4d a8 81 bb d1 7b 20 3b 62 da 94 3b
       -0.0025620481 -0.0039568306 0.0024487863 0.004542635
0001f0 bb 25 2d 3b 4d 05 3c 3c c2 4d f6 b9 cb 23 c7 bb
       0.0026420194 0.011475873 -0.0004697871 -0.006077265

network_body._body_endoder.seq_layers.2.weight f4 [128, 128]
000000 9b 7a 4d 3c be b3 03 3d e1 3c 48 be 10 c4 40 bd
       0.012541438 0.032153837 -0.19554473 -0.04706198
000010 a4 01 4e bd 7f 95 05 bd b1 6f 61 3c 52 2d 49 bc
       -0.050294533 -0.032613274 0.013759539 -0.012278872
000020 91 1c e3 bd 93 77 6a 3d 54 ca d4 3c 4e ed 21 bb
       -0.11089433 0.05724294 0.025975384 -0.0024708095
000030 9b 81 27 bd 19 a4 13 3d 95 c8 bc 3d fa 79 d9 bc
       -0.040895086 0.036045168 0.092179455 -0.02654742
000040 c5 32 98 3d 3a c2 f4 3d 7a cd ea 3b e0 77 48 3d
       0.074315585 0.11951108 0.007165608 0.048942447
000050 11 a2 ad 3d 4a e9 4c bd 57 03 4d be f2 3e f8 3c
       0.08478177 -0.05002717 -0.20020805 0.030303452
000060 8e 12 58 3c 97 7f 68 bd 06 09 4d 3c 32 0c 4e 3d
       0.0131880175 -0.056762304 0.012514358 0.0503046
000070 03 d6 93 bd 70 e3 fe bc e2 e2 8a ba 0d 43 dd 3c
       -0.07218554 -0.03111431 -0.0010596181 0.027009511
000080 79 39 fb bd 8f d5 9d 3d ac 25 a9 bd ab aa bc 3d
       -0.122668214 0.07706749 -0.082591385 0.0921224
000090 10 25 f8 3d 25 3b 59 bd 78 18 11 3d a7 f1 36 3d
       0.12116444 -0.05303492 0.035423726 0.04466405
0000a0 8e a7 2a bd b8 c7 16 3e 21 d3 91 bd 30 b0 30 3d
       -0.0416637 0.14724624 -0.07120348 0.043136775
0000b0 28 86 79 bd 54 58 f6 bd 5f ac 8e bd 9e 17 02 be
       -0.060918957 -0.12028566 -0.06966471 -0.12704322
0000c0 d0 39 3f 3d 0d 86 cf bd 3b 12 23 bc 4f cb 14 3c
       0.046685994 -0.1013299 -0.009953077 0.009081676
0000d0 f4 21 c5 3c 57 bb 21 be 5c ad b1 bd 71 0d c0 bd
       0.024064042 -0.1579412 -0.08675644 -0.09377564
0000e0 ad 43 c1 3c 03 5f 59 bd f0 9e 98 bb 57 37 74 3e
       0.02359184 -0.053069126 -0.0046576187 0.23849235
0000f0 2c 64 c0 3d 4d 36 8a 3d 31 39 10 be 29 a5 56 bc
       0.09394106 0.06748638 -0.14084317 -0.013100901
000100 ca 2e 76 bd 91 a1 14 3c d8 e0 e1 bd 63 2c 3b bc
       -0.060103215 0.009071724 -0.11029214 -0.011424157
000110 93 4e 10 3d 1e 8c 37 bb ce 8d ef bd 67 a6 10 3d
       0.035231184 -0.00280071 -0.11696969 0.035314944
000120 45 63 b2 bc 28 4a ed bd 96 ae bb bd ff 7a 01 3e
       -0.021775851 -0.1158641 -0.09164159 0.12644576
000130 13 d0 9b 3d 95 37 18 3e 86 04 bb bd 81 44 ef bd
       0.076080464 0.14864953 -0.09131722 -0.11682988
000140 0a 69 f1 3d b3 36 3f bd 41 4b e5 bc 5b e2 be 3c
       0.11787613 -0.046683025 -0.027989985 0.023301294
000150 8e 66 04 bc 32 32 24 be 43 7b df bd 32 88 a9 3d
       -0.008081092 -0.16034773 -0.10912182 0.0827793
000160 18 14 76 3d 8a a5 c9 bd 52 89 8e 3d 1a 1e 3f 3d
       0.060077757 -0.09846027 0.069597855 0.046659566
000170 a8 26 98 bd 5c f9 c5 3d 2d f1 8d bd 82 00 ea 3c
       -0.07429248 0.09666702 -0.06930766 0.028564695
000180 cb a3 c5 3c 1f fd f6 bd a3 b5 02 3d 50 3c ad 3c
       0.024125954 -0.12059998 0.031911504 0.021146923
000190 a5 93 b0 3d fc 3e 08 bc 77 10 a7 bd 9d 62 05 3e
       0.08621911 -0.008315798 -0.08157437 0.13025899
0001a0 e1 69 b5 bd 92 a3 29 be 45 e6 69 3d d9 25 43 3b
       -0.088580854 -0.16566303 0.057104368 0.0029777198
0001b0 d2 3c e8 3c 0a d5 7c 3d 6b b8 9a bd a7 a9 b8 3c
       0.028349314 0.061726607 -0.07554706 0.022541834
0001c0 dc 25 05 3e d7 9a 75 bd 6d 79 31 bd 39 37 29 be
       0.13002723 -0.05996212 -0.04332869 -0.16524972
0001d0 69 e5 47 bd 5e dc 6b bd 24 9a fd bc ac d3 a4 3d
       -0.048802767 -0.057583205 -0.030957289 0.08048186
0001e0 20 d2 c7 3d 22 4c b3 bd b3 18 87 ba bb 07 7d 3b
       0.09756875 -0.087547556 -0.0010307044 0.0038609344
0001f0 ae 31 2c be a2 aa 84 bc 80 44 c0 bd 78 3c 07 be
       -0.16815826 -0.016194645 -0.09388065 -0.13206661
000200 5d 00 d2 bd 58 97 f8 bd 2b 67 76 3c 49 ae d0 3d
       -0.102539755 -0.121382415 0.015039246 0.10189492
000210 dd 9c 37 bd 10 53 1c 3e fc 68 db 3d 2a 95 b1 3c
       -0.04482733 0.15266061 0.107133836 0.021677572
000220 cf 82 76 bd f2 64 3e bc 47 3f 10 bd 8c 06 16 bd
       -0.060183343 -0.011620747 -0.035216596 -0.036627337
000230 9b 31 63 bd f0 3d 3f 3d ab e2 21 3e 70 1c fa 3c
       -0.05546723 0.046689928 0.15809123 0.030531138
000240 1a f9 c2 bd e3 0c 83 3c 1e 2f 1f bd d9 bd c3 3c
       -0.095201686 0.015997356 -0.038863294 0.023894237
000250 3a 2a 05 3e cb 8a b6 bd df 10 8a bd b8 c7 57 bd
       0.1300439 -0.089131914 -0.06741499 -0.0526807
000260 59 8b 36 3d e4 c9 80 b9 f9 f0 13 3d ae fa ab 3d
       0.044566486 -0.00024564483 0.03611848 0.08397423
000270 15 c4 d9 3d 60 f1 84 3b 8c e9 f3 bd d5 60 0a bd
       0.10633103 0.0040570945 -0.1190978 -0.033783752
000280 79 45 a6 bd a4 b6 4b 3d 9e 03 e2 3d 89 85 4a bd
       -0.081187196 0.049734727 0.11035846 -0.049443755
000290 81 27 f3 bd 81 d6 8b 3d 8b 60 94 3d 5c db d2 bc
       -0.11872769 0.06828023 0.072449766 -0.025739364
0002a0 6a 90 f0 bc 4f 8c 1d bd 56 a0 03 be d8 79 9f 3d
       -0.029365737 -0.038463887 -0.12854132 0.07786912
0002b0 d7 6b 05 3c ba 39 27 3e 55 5c 0c bc c8 a4 a0 bc
       0.008143387 0.16330615 -0.008566936 -0.019609824
0002c0 ab d0 80 bd cd 01 b3 bd 5d 64 f2 3c fc 0b 8f bd
       -0.062898 -0.08740578 0.029588873 -0.06984708
0002d0 7c 33 d6 bd de 9a 13 3e 54 81 5e 3c 05 cf 09 3e
       -0.104590386 0.14414546 0.013580639 0.13457878
0002e0 65 72 e4 bd af c9 51 3d 0a 42 6d bd 1a fc 3f 39
       -0.111546315 0.05121773 -0.057924308 0.00018309095
0002f0 a9 27 12 bd 20 0d 57 be de 96 29 ba 50 ee 88 3c
       -0.035682354 -0.210011 -0.00064693193 0.016715199
000300 74 24 3a 3a 55 2c 83 bc d8 1d 08 bd 60 29 49 be
       0.0007100769 -0.01601235 -0.033231586 -0.1964469
000310 b4 44 85 3c 0b 86 d8 3c 17 37 a9 3d a8 7e 34 3e
       0.016268112 0.026431104 0.08262461 0.1762644
000320 6b a8 9d 3d d6 1f 33 be 25 ae 9d 3d 67 5f eb bc
       0.07698139 -0.17492613 0.07699231 -0.028732015
000330 0e 0f d0 3d d0 10 2a bc 0a cd 0a be c1 48 f5 3d
       0.101591215 -0.010379985 -0.13554779 0.11976767
000340 4c 50 18 3e 72 ea e4 3d cf de 8b bd ce d1 f1 3d
       0.14874381 0.111775294 -0.06829607 0.11807595
000350 e9 d0 c4 3d ec 82 e9 bd fb fa e4 bd 87 8a 59 3d
       0.09610159 -0.114019245 -0.11180683 0.053110626
000360 97 c6 8c bd 0c 97 7e bd 18 99 20 bd 0f 94 ac bc
       -0.068738155 -0.06215577 -0.0392085 -0.021066694
000370 08 28 2a bd b5 d0 17 be 3f 8c 5b 3d 77 ac fe 3d
       -0.041542083 -0.14825709 0.053600546 0.12435239
000380 6e a3 7e 3d 58 d6 dd bd cc 11 58 3c f8 34 be 3d
       0.062167577 -0.108318985 0.013187837 0.09287447
000390 b4 c8 3c 3d bb 2e 4d bb 49 10 fa 3c 39 86 32 3e
       0.046089843 -0.003130837 0.030525343 0.17434014
0003a0 0e 33 32 be 16 81 01 3e ad de 9e 3d e1 ed 1c 3c
       -0.17402288 0.12646899 0.07757316 0.009578199
0003b0 8a b0 fa 3d f1 d9 d6 bd 24 48 d3 bc cb 15 fa bc
       0.122407034 -0.10490788 -0.025791235 -0.03052797
0003c0 54 62 a1 bc 3f e6 30 3e a4 ab 88 3c 76 fb 1e be
       -0.019700207 0.17275332 0.016683407 -0.15525612
0003d0 6f 37 a0 3d f5 b3 94 3c 15 3b 92 3d a7 5f 95 be
       0.07823073 0.018152216 0.07140175 -0.2917454
0003e0 bf db aa bd 3c 88 88 bc 44 58 92 3d 73 87 ce bd
       -0.083426945 -0.016666524 0.071457416 -0.10084429
0003f0 af f5 ac 3d a3 f4 85 3a 04 20 75 bd 6c f9 b2 bc
       0.08445298 0.0010220002 -0.059844986 -0.02184745

network_body._body_endoder.seq_layers.2.bias f4 [128]
000000 d1 32 4a bb 72 1c 21 bb 1a d6 51 b9 92 10 7d 3c
       -0.0030853043 -0.0024583605 -0.00020011552 0.015445845
000010 7a 8f 16 39 8f e9 de 3a fb 08 fa 3b 4d 9f 1b 3c
       0.00014358564 0.0017006862 0.007630465 0.0094984295
000020 1a ee 57 3b 68 6a b8 bb 6b 2f ba bb b3 1b 16 3b
       0.0032948316 -0.005627919 -0.005681922 0.0022904694
000030 b4 7c 09 ba 5d 52 8d b9 1c 86 92 bb 7a 47 3e 3c
       -0.00052447175 -0.0002695498 -0.0044715535 0.011613721
000040 36 93 27 3a bd 9e 9f 3a fc 60 37 bb f1 93 1b 3b
       0.00063924806 0.0012178045 -0.0027981391 0.0023739303
000050 ad 3c d8 3b 66 82 d2 ba f1 2d b8 3b 0a b5 b8 3a
       0.00659903 -0.001606059 0.005620711 0.001409204
000060 7e 03 d3 3b 0e 7e 45 3b fb f3 1e bb e2 73 37 3b
       0.0064396253 0.003013495 -0.002425431 0.0027992656
000070 8e 81 81 3b 0f c3 ba bb 4f 67 eb ba 19 44 2c bc
       0.0039522117 -0.0056995223 -0.0017959866 -0.010514283
000080 26 c4 cb ba 79 01 a5 bb ac 5e d7 ba 66 ce 28 3a
       -0.0015546128 -0.005035576 -0.0016431413 0.0006439447
000090 24 a8 20 ba 8b cc db 3b 07 f8 83 bb 19 3a 4e bb
       -0.00061285705 0.006707733 -0.00402737 -0.0031467734
0000a0 d7 d1 44 bb 64 32 f1 bb 92 00 08 3c c7 82 a0 39
       -0.00300323 -0.0073607434 0.008300917 0.00030615015
0000b0 59 bd 8c 3a cb 1b 7e bb 8d 15 a1 3b 03 4a 12 3c
       0.0010737582 -0.003877389 0.004915899 0.008928779
0000c0 01 0f e3 3a fa 9c 87 ba 8e 4a ff 3b cd cd dd 3b
       0.0017323197 -0.0010346465 0.00779087 0.006768918
0000d0 e1 09 65 3b d6 74 2a 3c 6c be 96 bb 5d f0 41 bb
       0.0034948515 0.010403832 -0.004600337 -0.002959273
0000e0 8d 4b 83 bb f5 bf 47 bb 59 73 bb 3b 8d b2 09 bc
       -0.004006809 -0.0030479406 0.0057205376 -0.008404386
0000f0 de 4b 45 3a b1 d0 05 3c 32 a7 82 bb 45 c8 a8 3b
       0.00075262587 0.008167432 -0.0039872164 0.005150827
000100 d7 cf 0b 3b b0 83 b0 3b 1b 4f 4a bb 28 2e 21 3b
       0.00213336 0.005386792 -0.0030869904 0.0024594162
000110 9a 4f 38 bb ae c7 ec bb 04 51 0a bc 33 ea f7 b9
       -0.0028123618 -0.007225952 -0.008442167 -0.00047286003
000120 42 f8 1b 3c dc 6a e3 bb 74 35 84 3b fa bf e0 ba
       0.0095196385 -0.006940229 0.0040346924 -0.0017147057
000130 34 85 0e 3b 14 08 e6 bb b6 f9 db 3b aa 6a ae ba
       0.0021746876 -0.007020006 0.0067131175 -0.0013306935
000140 a7 2d 89 ba 10 8b 10 3c b6 2a 81 3a 2b 28 35 3c
       -0.0010465876 0.008822218 0.0009854648 0.01105694
000150 a9 ee b7 bb 91 bb 45 bc 44 93 22 bc 56 d6 9f 3b
       -0.0056131673 -0.012068645 -0.009922806 0.0048778458
000160 29 cc 0b 3b ca 3a ee 3b 59 1e 71 bb 50 06 2b bb
       0.0021331406 0.007270192 -0.003679177 -0.0026096292
000170 b6 ff 06 bc 9f f7 43 bb 07 be 34 bb f5 1b c8 bb
       -0.008239677 -0.0029902232 -0.0027579085 -0.0061068484
000180 0d 15 ed 3b fd 83 cf ba 55 e1 a4 ba b3 8c e0 ba
       0.0072351755 -0.0015832182 -0.0012579361 -0.0017131775
000190 f9 cf f4 3b f6 ca 2b bc f8 df c3 3b e0 98 04 bc
       0.0074710813 -0.010485401 0.005977627 -0.008093089
0001a0 ea 58 a3 39 c6 38 a8 3b 05 56 0c 3b e5 2b e3 3a
       0.0003115603 0.005133721 0.0021413576 0.0017331807
0001b0 40 45 49 3b db ea 2f bb 35 5d 6d bb 5d 80 97 bb
       0.0030711442 -0.0026842866 -0.0036218886 -0.0046234564
0001c0 b9 e3 b5 b9 3b 5b db 3b d5 b9 49 bc 6a eb ca 3b
       -0.00034692677 0.006694225 -0.012312372 0.0061926143
0001d0 68 71 0b 3c a9 8d e9 3a 10 18 f9 bb 78 69 b0 bb
       0.008510925 0.0017818707 -0.0076017454 -0.0053836666
0001e0 9d 8a 83 3b 8b e5 1b bc dc 40 19 bc f2 68 23 3c
       0.0040143267 -0.0095151765 -0.009353843 0.009973751
0001f0 6e 88 bc 3a 66 79 02 bc d9 4f 32 3c 1b 67 4f 3b
       0.0014383921 -0.007963514 0.010883295 0.003164715

action_model._discrete_distribution.branches.0.weight f4 [3, 128]
000000 00 84 06 3a a6 1b c9 ba ee 47 67 bb ce 86 23 bc
       0.0005131364 -0.0015343323 -0.0035290676 -0.00998087
000010 ae d6 a9 bc 0b 39 3c 3b de 57 63 3b 80 ad 10 3b
       -0.02073225 0.0028720524 0.0034689824 0.002207607
000020 fe 03 53 3b 1b c8 9e 3a 63 2f 3b bc 6d 09 15 bb
       0.0032198424 0.001211408 -0.011424872 -0.0022741214
000030 ff 58 27 bc ac df 60 3c 0e 95 ce 3b 0d fd a4 3b
       -0.010214089 0.0137252025 0.00630439 0.005035049
000040 b2 78 2a bc 92 67 8f bb 15 6a 3e 3a 00 05 49 bb
       -0.010404753 -0.00437636 0.0007263732 -0.0030673146
000050 d8 c8 a1 3a 5d 0e 5d 3b 21 02 11 3b b4 9f d4 3a
       0.0012343181 0.0033730485 0.0022126513 0.0016221912
000060 11 d7 2c 3b 12 bb 93 3b e0 c2 f6 3b 3c b4 42 bb
       0.0026373307 0.0045083845 0.007530555 -0.002970948
000070 92 98 a1 bb 02 d6 8a bb ff e1 24 bc fd c1 bf 3a
       -0.004931518 -0.0042369375 -0.010063647 0.0014629957
000080 b4 38 8e 39 81 72 07 3b 4c b9 92 bb 6c 26 15 bc
       0.00027126598 0.0020667615 -0.0044776555 -0.009103399
000090 3d 32 37 bc 33 51 47 bc 9c 46 a1 bb 33 7b 54 3c
       -0.011181411 -0.0121653555 -0.0049217474 0.012968826
0000a0 67 bf 0f 3c ce ef 19 bc 8d 73 0e 3b 40 77 e7 bb
       0.008773661 -0.009395553 0.0021736354 -0.0070637763
0000b0 54 2c 82 b8 76 30 cc bb b0 24 3e 3b a1 3c 98 3a
       -6.20714e-05 -0.006231363 0.0029013567 0.0011614749
0000c0 38 46 1c bc 40 bd 04 3c af 68 7a 3c 17 ce dd bb
       -0.009538226 0.008101761 0.015283748 -0.0067689526
0000d0 7b 0f 82 bc 0e 7d 97 bc 66 f8 e9 3b 3b 04 c3 ba
       -0.015876522 -0.018492248 0.007140207 -0.001487858
0000e0 f6 6d 1a bc 9c 01 40 3b e0 dc 9c 3b 2d 8a c6 bb
       -0.009425631 0.0029297834 0.0047870725 -0.0060589523
0000f0 5e 0d 80 3a b8 d1 7e bc 7d c8 f3 ba a3 e5 e8 bb
       0.0009769609 -0.0155529305 -0.0018599179 -0.007107453
000100 04 62 ed 3b 77 1e 6a bc f1 96 b0 3c ab 82 ff 3b
       0.0072443504 -0.01428949 0.02155635 0.0077975593
000110 e3 1d 16 3c eb 8d ef b9 60 62 ad 3b f8 fe 98 bc
       0.009162399 -0.0004569137 0.005291268 -0.018676266
000120 8e 19 0d bc 64 f2 18 3c fd ef 37 bc 42 34 9b 3b
       -0.00861205 0.009335134 -0.011226651 0.004736454
000130 a3 ad 2c bc ae de 01 3c 0d 12 3d bb 8e c3 81 3b
       -0.010539445 0.007926626 -0.002884987 0.0039600795
000140 fc b3 19 bc bf a6 52 3b 14 71 21 b9 7c 0d 21 bc
       -0.0093812905 0.0032142845 -0.00015396281 -0.009829875
000150 b0 a6 1e bc c7 12 bb 3b ce 26 9c bb 60 ed 15 bc
       -0.009683296 0.0057090255 -0.004765368 -0.009150833
000160 62 c0 33 3c 0e 24 26 3c 2f d3 4d 3c 0b 3c 29 bc
       0.010971161 0.010140432 0.012562557 -0.010329257
000170 27 da ef 3a 58 95 9c bb b9 ee 9f 3b f0 36 c4 bb
       0.0018299267 -0.0047785453 0.004880753 -0.0059879944
000180 a2 d6 9e 3b c3 cb 61 bc a4 4f 07 3b de 7d 8c bc
       0.0048473636 -0.013781491 0.0020646835 -0.017149862
000190 3b 29 df bb f1 44 d3 3b 2c 2d 38 3c 05 b4 a1 3c
       -0.006810335 0.0064474274 0.011241239 0.01973916
0001a0 da 40 29 3c 75 81 2e 3c ee 8b 50 bb 9b e0 23 bc
       0.010330403 0.010650982 -0.0031821686 -0.010002281
0001b0 df db aa bc 40 ae 15 bc 50 9e 5e bc 01 e5 2d 3c
       -0.020856796 -0.009135783 -0.013587549 0.010613681
0001c0 df 39 30 3b 8f da be bb 79 19 17 3c 50 a1 a5 3b
       0.0026889963 -0.005824394 0.009222382 0.0050546303
0001d0 4b 7b 93 3b 25 dd 43 bc 3d bc d1 3a 55 08 b0 3a
       0.0045007817 -0.01195458 0.0016001534 0.0013430218
0001e0 7f 4e 14 bc 4a 60 4e 3c c6 6b 58 3b 56 4c 00 3c
       -0.009051918 0.012596199 0.0033023222 0.0078307
0001f0 d9 8b 21 bc d9 5b b3 bb 20 59 c6 b9 97 ad 18 bc
       -0.009860002 -0.0054735956 -0.00037831906 -0.009318731
000200 28 e2 64 bc 41 71 cc 3a fe 26 30 b9 a9 e4 80 3c
       -0.0139699355 0.0015597717 -0.00016799194 0.015734034
000210 ef 27 cd 3b 8b 39 f3 3b b2 5a 8d 3c ad 02 bd 3c
       0.006260864 0.007422631 0.017255161 0.023072565
000220 fd 21 29 3c 77 86 41 bc ef 59 8b bc cb 81 d7 3a
       0.010323045 -0.011811844 -0.017010657 0.001644188
000230 64 aa cb 3b 3c 6f 65 3b 25 02 46 bb 32 b3 cc 3c
       0.0062153805 0.0035008928 -0.003021368 0.02498779
000240 e4 80 1b 3c 45 2c 2b 3c f5 38 b1 bc 67 94 1c bc
       0.009491179 0.010447566 -0.021633605 -0.009556866
000250 83 ab 3a 3c ec a1 f0 37 28 92 4e ba 6a 54 b4 bb
       0.011393431 2.868563e-05 -0.00078800553 -0.005503227
000260 54 d3 30 39 31 52 e4 3b 8e 17 2d 3b 6f 90 11 3c
       0.00016863394 0.006967806 0.0026411745 0.008884533
000270 f0 3d 25 bb 3e 55 99 b9 d9 6c 9c 3b aa dd c2 bc
       -0.002521392 -0.00029245944 0.004773718 -0.023787338
000280 fa c1 44 bc 74 11 15 bc 3f 4c 5f bb d5 77 bd bc
       -0.012009138 -0.009098399 -0.0034072546 -0.02312843
000290 3d 9f e4 3b bd 58 89 3c 80 61 99 bb 52 c9 a4 bc
       0.0069769905 0.016765947 -0.0046808124 -0.020115528
0002a0 ab cc 55 3a 6c 2f 9c bc 11 48 4f 3c 4e 87 60 bc
       0.0008155803 -0.019065581 0.012651459 -0.013704134
0002b0 ad 99 bb ba de 65 65 ba 6b a1 e9 3a ec d5 16 3c
       -0.0014312767 -0.0008750836 0.0017824596 0.009206276
0002c0 8a 90 03 bb 7e e0 ee bb c2 b2 ba 3c 62 b8 47 b9
       -0.0020075166 -0.007289945 0.022790316 -0.00019046807
0002d0 61 e3 cc 3b f2 f2 82 3c 7b 2b 59 3b dd 34 4b bc
       0.0062526916 0.015984986 0.0033137489 -0.01240274
0002e0 36 1b 02 bc b6 4b ed bb 58 c1 16 3c 9a 9c 88 bc
       -0.007941058 -0.0072416915 0.00920137 -0.016676236
0002f0 6d 60 53 3b d7 13 1d bc 3d eb 7d bc 66 6c a3 3b
       0.003225352 -0.00958725 -0.01549798 0.0049872873
000300 9a 32 b3 3c 90 85 58 3b 6f 6e 79 3c a5 e5 4c bb
       0.021874715 0.0033038594 0.015224083 -0.0031264808
000310 8f a0 0f ba a8 c2 64 bc 8a 0e 81 bc f1 69 8e 39
       -0.0005478942 -0.013962425 -0.015754003 0.00027163283
000320 45 28 81 3c 2a c7 60 bc 4f 61 af 3a 88 3c b2 bb
       0.015766272 -0.013719359 0.0013380441 -0.005439345
000330 91 12 fb 3b 2b 64 6b bc ed 57 33 3c cf ad 33 3b
       0.0076621254 -0.014367144 0.010946256 0.002741683
000340 36 6f 87 bb 65 8b af 3c d1 7c 2e bb 35 fd 38 bc
       -0.0041331304 0.021428773 -0.002662469 -0.011290838
000350 8e e8 49 bc fc a2 fc bb f0 40 75 bc 7b 02 67 3c
       -0.012323512 -0.007709859 -0.014969096 0.0140997125
000360 93 61 28 3c f9 b9 90 3c bb 0d a8 3b 89 65 b1 bc
       0.01027717 0.017666804 0.00512859 -0.021654861
000370 9d 89 75 bb c1 6e 81 bb 26 1b 18 bc d6 33 b9 bb
       -0.0037466057 -0.0039499705 -0.009283816 -0.0056519313
000380 9d 83 9b 3c 0d cd bd 3a ce 12 d9 3b 4e 24 3c 3b
       0.018983657 0.0014480666 0.006624556 0.0028708163
000390 9a 9d 50 3c 76 6b b3 bb 84 22 0e 3c ae 0a 6e 3b
       0.012732888 -0.005475457 0.008675221 0.0036322284
0003a0 87 99 0a 3c 0c 88 b0 3b 58 f3 48 3a e8 3e 2f bc
       0.008459455 0.005387312 0.00076656556 -0.01069615
0003b0 cb 70 91 3a ac d8 75 3c 7a 2e d2 bb 91 53 92 bb
       0.0011096237 0.015005272 -0.006414232 -0.0044655283
0003c0 9c 6d 36 bc fc 8d 29 3c 6a 52 0f bc 35 70 5f 3c
       -0.011134531 0.010348793 -0.008747676 0.013637592
0003d0 2f c1 04 3c d1 1d 2b 3c 97 4d 86 bc 6a 62 73 bb
       0.008102699 0.0104441205 -0.01639442 -0.0037137517
0003e0 84 87 3e 39 89 e8 aa ba 22 5f 3c bc 72 ae e5 3c
       0.00018170296 -0.0013039272 -0.011497291 0.028037284
0003f0 38 37 f6 b9 3b d0 d8 bc 56 ee 3e 3c ac 40 a2 bb
       -0.00046961918 -0.02646648 0.011653503 -0.004951557

action_model._discrete_distribution.branches.0.bias f4 [3]
000000 66 8a f1 ba 82 c1 19 3c fe 8a ec bb
       -0.0018428087 0.009384515 -0.0072187176

action_model._discrete_distribution.branches.1.weight f4 [3, 128]
000000 12 d0 44 3c 8e 80 bb bb 00 88 42 bc cd ac 5f 3c
       0.012012498 -0.005722112 -0.011873245 0.013652039
000010 80 ba 27 3b 1c 9c 9b bb 7b 76 ab 3c 08 7d 9a bc
       0.002559334 -0.0047488343 0.02093052 -0.018858448
000020 0f e1 93 3c ed cb a2 3b 82 d8 8a 3b a7 c6 0a bc
       0.018051652 0.0049681575 0.0042372355 -0.008470214
000030 33 b9 b0 ba 1b 11 da bc 25 16 90 bc b5 b1 eb 3b
       -0.0013482928 -0.026619485 -0.017588684 0.007192815
000040 36 51 02 bc c2 e2 d6 3a ae 35 d7 38 94 8f a9 ba
       -0.0079539325 0.0016394483 0.000102619975 -0.0012936466
000050 c4 b9 c1 bb 86 14 8a bc 49 48 f4 3b 36 10 36 bc
       -0.0059120376 -0.01685549 0.007454906 -0.011112263
000060 7e 1e ad bb a6 3c 83 38 3f b9 df bc 0b f0 af 3b
       -0.005283176 6.2578634e-05 -0.027310012 0.0053691915
000070 28 9c e4 bb 79 7a 3e 3b 73 de 6f bb 6d 71 26 3c
       -0.006976623 0.0029064699 -0.0036601096 0.010158879
000080 7e bd 67 bc 5a 3b 9a bc 70 25 83 bb d3 32 38 3c
       -0.0141443 -0.01882713 -0.0040022656 0.011242586
000090 bb dc c7 bb 3b 36 89 b9 e1 16 56 3c 1f 68 0b 3c
       -0.006099311 -0.0002617108 0.013066978 0.008508711
0000a0 cc a5 d6 ba 32 5c ea 3b 0b 05 87 3c 8e cf 8c 3c
       -0.0016376316 0.007152104 0.016481897 0.017188814
0000b0 92 22 05 3c a0 37 e5 b9 36 55 06 3b b7 a6 e6 3c
       0.008125918 -0.00043719728 0.0020497567 0.028155668
0000c0 28 04 ae bb d2 5f 82 ba 37 76 49 bc ff 65 41 3c
       -0.005310554 -0.000994677 -0.012296251 0.011804103
0000d0 27 44 ac bc 2a 64 9e 3c 97 e7 b8 bc 5f a5 f3 3b
       -0.021028591 0.019334871 -0.022571368 0.0074354853
0000e0 30 26 e3 ba 53 44 b6 bb 42 f2 98 3c 3c 35 6a bb
       -0.0017330106 -0.005562344 0.018670205 -0.0035737297
0000f0 0d b2 84 3c f9 fd 55 3c 8a cb b2 bc ad ba 59 3c
       0.016198182 0.01306104 -0.02182557 0.013289136
000100 3a 18 e0 39 1a 12 a2 3b 2e 78 89 bc 20 3f 0f b9
       0.0004274266 0.0049460055 -0.016780939 -0.00013661059
000110 d5 d7 20 3c ad 82 1a bc 27 5b 20 bc 7d 06 2c 3b
       0.009817083 -0.00943057 -0.009787357 0.0026248985
000120 a1 41 a4 3b 98 fc e0 bb 65 7b 85 bc 18 25 45 3b
       0.0050127064 -0.006866049 -0.01629419 0.0030081924
000130 83 f3 40 bc f0 22 37 3c 5b 01 a6 bc 77 e2 a8 bc
       -0.011776808 0.011177763 -0.020264318 -0.0206158
000140 9c 0a ec bc b8 6e a7 3c 2e 36 0f 3c c3 75 25 3b
       -0.028813653 0.020438537 0.008740945 0.0025247193
000150 8f e9 e0 bc f2 83 9c bc 55 c6 8c bb d3 6a 7e bb
       -0.02745512 -0.019105885 -0.004296104 -0.0038820996
000160 e1 79 39 3b ac 11 e5 3b e1 b0 24 3c 0d b6 11 bc
       0.0028301405 0.006990632 0.010051937 -0.008893502
000170 45 21 b2 39 a2 05 99 ba ff 74 75 39 35 4b e4 ba
       0.00033975593 -0.0011674652 0.00023408605 -0.0017417433
000180 60 af 35 bc e6 74 69 bb d4 15 85 bc 9f 4c ae 3b
       -0.011089176 -0.0035622655 -0.01624576 0.0053191925
000190 86 7a fa 3b 65 ff c8 3a f3 7b c6 3c af f5 d0 bc
       0.0076440005 0.0015334903 0.024229025 -0.025507776
0001a0 0e 1e 7b 3c cd 78 86 3b 68 f3 a6 3c 8f 94 8d 3b
       0.01532699 0.004103756 0.020379737 0.004320688
0001b0 99 d5 30 3c 7d bf ef bb f2 06 a6 3b ee 1c 22 bc
       0.010793113 -0.0073165284 0.005066746 -0.009894593
0001c0 a9 c3 24 3c 8c b7 38 bc 11 c7 90 bc 81 34 b8 3b
       0.010056415 -0.01127423 -0.017673047 0.0056214933
0001d0 db 6b 1a 3c 90 08 9d 3c 98 a9 b0 3b c1 af 89 bc
       0.009425129 0.019169122 0.005391311 -0.016807439
0001e0 4c e9 2f 3c 18 8f a4 bb ce e8 16 3a 7b 60 07 bc
       0.010736775 -0.005021941 0.00057567365 -0.008262749
0001f0 c2 01 b6 bb 23 08 26 3c da 65 b8 3c 4b 19 d5 3c
       -0.0055544088 0.010133776 0.022509504 0.026013037
000200 56 34 e5 3a b7 0a f4 3b 3b a5 64 bb f4 81 87 bc
       0.0017486911 0.0074475664 -0.0034888524 -0.016541459
000210 b5 ec 20 3b 80 cf 2a ba 7d ca de bb 3b c0 96 bc
       0.002455515 -0.0006515905 -0.006799041 -0.01840221
000220 1a 9b bd 3b 77 a1 f3 3b ba 9a 5e 3b e7 46 05 3c
       0.005786312 0.0074350196 0.0033966736 0.00813458
000230 40 45 0c 3c f0 9b 70 3c 67 3d d0 3c a4 00 52 ba
       0.008561432 0.014685616 0.025419904 -0.000801096
000240 99 26 2b bb 85 6e d7 3b 01 97 96 bb 99 32 03 bc
       -0.0026115535 0.0065744543 -0.004595638 -0.008007669
000250 4e ef 43 bc bb d9 98 bb 74 e3 90 bb 5e 2e 57 bb
       -0.01195891 -0.0046646274 -0.004421646 -0.0032834033
000260 a9 92 84 bc fb 0a ea bb bb 71 8d 3c 5a 6e 7c 3c
       -0.016183214 -0.0071424223 0.017266145 0.015407169
000270 bd 83 58 bb 14 47 e8 3b 26 e6 41 bb ef dd 16 3c
       -0.0033037507 0.0070885513 -0.0029586642 0.0092081865
000280 57 4f a1 bb 8e f5 b1 bb e5 13 b7 bb b9 83 95 3b
       -0.004922788 -0.0054308837 -0.0055870884 0.0045628217
000290 21 92 48 3b c1 c8 18 3c f2 1b 1c 3c 9f 30 53 39
       0.0030604678 0.009325207 0.009528147 0.00020140641
0002a0 a9 73 d7 bb f6 90 2c 3c 80 7f 6a bc 07 b5 e1 b9
       -0.006575067 0.010532608 -0.014312625 -0.0004305022
0002b0 95 44 5e 3c 53 10 75 bc a7 a6 a0 bc e6 57 c4 bb
       0.013566156 -0.014957505 -0.019610716 -0.0059919236
0002c0 04 7c d7 ba 91 ce 52 bc c1 d1 8b bb 94 6c 6e bb
       -0.0016440158 -0.012866632 -0.004266948 -0.0036380636
0002d0 51 be b9 3a 1a b0 a4 bc 80 1f f0 3c 16 02 9e bc
       0.0014171099 -0.020103503 0.029311895 -0.019288104
0002e0 d0 9c 7a bc 53 86 92 3b 37 15 d3 bb ad 70 84 bb
       -0.015296176 0.004471579 -0.006441738 -0.0040417523
0002f0 ca 0c 05 bc 5c a8 ff bb 46 b9 af 3c 86 59 2c bc
       -0.008120725 -0.0078020524 0.02145065 -0.010519391
000300 1a 18 c7 39 85 42 d1 b9 e7 78 60 3c b6 b9 cb bb
       0.00037974195 -0.00039913147 0.0137007 -0.006217207
000310 b2 8d 8f 3c 26 ac 84 3c b0 38 f2 ba 37 9d c8 3a
       0.01752362 0.016195368 -0.0018480029 0.0015305643
000320 ae 7c a7 bb c8 22 df 39 db ba 3c 39 29 ef e1 3b
       -0.0051112985 0.0004255979 0.00017998686 0.006894965
000330 8d 79 bf bc 79 17 3d 3c 1a 4f b1 bb 85 47 6f 3b
       -0.02337339 0.011541241 -0.005411041 0.0036511135
000340 b2 7e 04 bc cf 3d 29 bc aa 0f a2 bc 06 c1 60 bb
       -0.008086847 -0.010329678 -0.01978286 -0.0034294738
000350 2a b1 04 3c 09 a1 32 3b 66 ee 1a bb 24 58 b8 bb
       0.00809888 0.002725663 -0.0023640632 -0.0056257416
000360 b6 4a d6 3b 60 57 76 bc 90 ed 32 3c 28 f3 4b 39
       0.006539668 -0.01503548 0.010920897 0.00019450171
000370 f1 0d ac bb 10 68 80 3a e4 fc 5b bc 2f 5a 0a 3c
       -0.0052506854 0.0009796638 -0.013426993 0.008444353
000380 c7 03 f2 3b cb 3c 68 3b 18 bf e2 3a e2 61 78 bb
       0.007385704 0.0035436626 0.0017299382 -0.003790014
000390 d4 65 7f bc be 37 3c 3c fb 4b 62 bc a0 d4 41 bb
       -0.015588243 0.011487899 -0.0138120605 -0.0029576197
0003a0 63 52 86 b9 b4 bf b8 3c 3f 91 83 bc 67 97 33 bc
       -0.00025619855 0.022552349 -0.01606047 -0.01096139
0003b0 52 79 81 bc 60 f5 17 3c 75 d2 98 bb c9 a6 6d 3c
       -0.01580492 0.009274811 -0.0046637603 0.014505097
0003c0 63 32 45 3b f9 e6 9e bc 3e 6f 35 3b 26 af 13 bc
       0.0030089847 -0.019397246 0.0027684714 -0.009013927
0003d0 6f 6e 9a bb 18 48 8e 3b 50 b2 5d ba e8 92 be 3b
       -0.0047128717 0.0043420903 -0.00084570516 0.0058158524
0003e0 91 aa 3f bb a6 42 b1 3c 63 77 b8 3a 31 e8 50 bc
       -0.0029245953 0.021638226 0.0014073666 -0.012750671
0003f0 fd af 2b bc 7f cc 70 3c 3a 13 f2 ba 9a 7b 09 bb
       -0.010478971 0.014697193 -0.0018468865 -0.0020978213

action_model._discrete_distribution.branches.1.bias f4 [3]
000000 ce 60 9c 3b f1 1d b1 bb 13 21 ad 3a
       0.004772282 -0.0054051806 0.001320871
