Assets/results/T2/CarDriver/CarDriver-217600.pt (torch, 632126 bytes, 48 tensors)

discrete_act_size_vector f4 [1, 2]
3.0 3.0
00000000: 0000 4040 0000 4040

network_body._body_endoder.seq_layers.0.weight f4 [128, 36]
-0.26877645 -0.18923908 -0.2658049 -0.037179057 -0.40700406 0.03816062 0.15334001 0.070915714
0.16430552 0.16638057 -0.044765506 -0.23886767 -0.1835084 -0.335152 0.03766477 -0.02257773
-0.11908122 0.057878084 -0.25289968 -0.08321298 -0.30363894 0.14685747 0.11443713 0.12938452
0.32348162 0.2624358 -0.23208602 0.23882149 0.078963965 0.08856759 -0.05798776 0.012310177
-0.2716834 -0.13684173 0.0016856611 0.17004788 0.40961933 -0.1022101 -0.21314436 -0.14533314
-0.15890826 -0.0089060925 -0.210276 -0.25049844 -0.38397205 -0.1454213 0.19817878 -0.130202
-0.33662486 0.13465926 0.09220339 -0.014763095 0.056366123 -0.24273632 0.13869579 -0.11657268
-0.11012743 0.24713661 -0.035503186 -0.011049668 0.053063013 0.24216002 0.14043225 -0.1640365
0.052338876 -0.17347567 0.014081607 0.10274497 0.13678184 -0.19050115 0.34416878 0.05666648
0.06104913 -0.07664922 -0.1931641 -0.22419427 0.11042328 -0.0026126406 0.2172525 0.11739655
0.14037408 -0.027464926 -0.23095773 0.03593849 0.19201186 0.21186292 -0.09823039 -0.06129985
0.32956886 -0.0046977457 0.06596072 0.15782627 -0.042910613 0.36882737 0.20055972 -0.011199003
-0.5361054 0.20718305 0.06554811 0.03165202 -0.08354123 0.13970363 0.12008957 -0.20685397
0.0043319687 -0.16498937 -0.157903 -0.22435261 -0.12900855 0.26958686 0.024411669 -0.29440218
-0.11488919 -0.023925183 -0.33696058 0.19099048 0.023647847 0.15522215 0.17617197 0.067476824
-0.15166155 0.24756256 -0.05084221 0.05371926 -0.027738089 -0.027192947 0.3206209 -0.06891352
-0.31971532 0.26626503 -0.27869982 0.4109416 0.012484983 0.31640816 -0.06531713 -0.23757838
-0.038186613 0.07817992 -0.026018448 -0.16246548 0.027503796 0.02086855 0.21530595 -0.03390186
-0.06582624 0.21903223 -0.080837436 -0.12376228 0.18513991 0.016339706 -0.12427912 0.04795466
0.042570554 0.30388847 -0.04226127 0.02478204 -0.124966145 -0.290705 -0.010753413 -0.06684458
0.12807077 -0.031633202 0.30167508 0.13897447 0.11504973 0.1701908 -0.0045542433 -0.19658566
-0.07766882 0.06512096 -0.593582 -0.043671846 -0.18744989 0.13356864 0.015468309 -0.13526145
0.20710066 -0.05133328 -0.12220764 -0.17779395 -0.004885714 0.07964663 -0.029362205 0.5019161
-0.11738742 0.007445365 0.30018187 0.054603662 -0.2842265 0.17522041 -0.018555166 0.19099714
-0.20740947 -0.08975328 0.11299572 -0.38640538 0.3314565 -0.091770634 0.16850398 0.059498195
0.097908095 0.0899718 0.22533354 -0.4268404 0.07090537 -0.32511166 -0.06985451 0.18768066
0.40614173 0.15415561 0.17116733 -0.060458425 0.091161534 0.048951965 0.16237515 0.12624401
-0.02861616 -0.069541425 0.07135476 0.3344059 0.37455377 0.35027438 -0.0023789955 0.34824908
0.040370062 0.26131257 0.03109025 0.27844366 -0.06656169 0.0073133428 -0.1611157 -0.04150404
0.03209508 0.08355465 0.16789442 0.044834677 0.02467664 -0.19719 -0.19362184 -0.015304172
-0.021299522 -0.013463501 0.24421291 0.23924863 -0.02871383 -0.049454235 0.1381246 -0.10782702
-0.19053243 -0.15186007 -0.09146953 -0.17038846 -0.12788157 0.22885153 0.2239707 0.12802705
00000000: 119d 89be e4c7 41be 9417 88be 1149 18bd
00000010: d662 d0be 4f4e 1c3d 2a05 1d3e 423c 913d
00000020: b53f 283e ab5f 2a3e 095c 37bd ba99 74be
00000030: a0e9 3bbe 0b99 abbe 6046 1a3d eef4 b8bc
00000040: dbe0 f3bd 9211 6d3d 117c 81be 916b aabd
00000050: 9076 9bbe ce61 163e 045e ea3d 607d 043e
00000060: 629f a53e fc5d 863e f5a7 6dbe 9f8d 743e
00000070: dcb7 a13d ed62 b53d 9384 6dbd a0b0 493c
00000080: 161a 8bbe 3d20 0cbe 67f1 dc3a 0821 2e3e
00000090: a0b9 d13e 8753 d1bd 8442 5abe 36d2 14be
000000a0: d9b8 22be dcea 11bc 9752 57be 5541 80be
000000b0: fc97 c4be 52e9 14be 61ef 4a3e ac53 05be
000000c0: 185a acbe 1ee4 093e 22d5 bc3d e9e0 71bc
000000d0: 2ae0 663d df8f 78be 4506 0e3e a8bd eebd
000000e0: 7d8a e1bd 6111 7d3e ca6b 11bd ab09 35bc
000000f0: 9a58 593d ccf8 773e 79cd 0f3e 2ff9 27be
00000100: 4a61 563d 9ba3 31be 8ab6 663c f46b d23d
00000110: 8a10 0c3e bc12 43be e436 b03e 1c1b 683d
00000120: a70e 7a3d 44fa 9cbd cfcc 45be 2f93 65be
00000130: 9a25 e23d d638 2bbb 7077 5e3e 9a6d f03d
00000140: 39be 0f3e 20fe e0bc 2f80 6cbe 3d34 133d
00000150: c29e 443e 98f2 583e 042d c9bd 8d15 7bbd
00000160: 40bd a83e 8cef 99bb 6a16 873d 369d 213e
00000170: 0ac3 2fbd f1d6 bc3e 875f 4d3e 067c 37bc
00000180: 343e 09bf cb27 543e 163e 863d 8ca5 013d
00000190: aa17 abbd 780e 0f3e 85f1 f53d 87d1 53be
000001a0: 30f3 8d3b f9f2 28be 53b1 21be b1bc 65be
000001b0: d11a 04be 4a07 8a3e fbfa c73c e2bb 96be
000001c0: 064b ebbd bffe c3bc 1986 acbe 0293 433e
000001d0: 21b9 c13c 8ef2 1e3e 6d66 343e 4a31 8a3d
000001e0: 2a4d 1bbe 0a81 7d3e ec3f 50bd ba08 5c3d
000001f0: fd3a e3bc bec3 debc 6c28 a43e 8822 8dbd
00000200: bab1 a3be e453 883e beb1 8ebe f066 d23e
00000210: d08d 4c3c 4000 a23e fdc4 85bd bf47 73be
00000220: 9169 1cbd cb1c a03d a424 d5bc 5a5d 26be
00000230: a44f e13c 85f4 aa3c 2a79 5c3e addc 0abd
00000240: e8cf 86bd fc49 603e 198e a5bd 1477 fdbd
00000250: 5195 3d3e d9da 853c 0d86 febd 1b6c 443d
00000260: 765e 2e3d 4597 9b3e 271a 2dbd b403 cb3c
00000270: 40ee ffbd 49d7 94be 152f 30bc d0e5 88bd
00000280: fc24 033e d191 01bd 2875 9a3e 534f 0e3e
00000290: 319f eb3d 7f46 2e3e c33b 95bb c04d 49be
000002a0: d510 9fbd 235e 853d fdf4 17bf 40e1 32bd
000002b0: ddf2 3fbe 38c6 083e ca6e 7d3c fa81 0abe
000002c0: 3212 543e d842 52bd 0048 fabd 9e0f 36be
000002d0: 5718 a0bb c61d a33d 0289 f0bc 937d 003f
000002e0: d168 f0bd 40f8 f33b 70b1 993e 17a8 5f3d
000002f0: 2386 91be fb6c 333e 0101 98bc c194 433e
00000300: 2663 54be 91d0 b7bd 4d6a e73d edd6 c5be
00000310: abb4 a93e 3ef2 bbbd 4f8c 2c3e 61b4 733d
00000320: 0a84 c83d 2343 b83d d6bd 663e d38a dabe
00000330: d636 913d 0975 a6be e20f 8fbd 5c2f 403e
00000340: cff1 cf3e f8da 1d3e 7d46 2f3e 41a3 77bd
00000350: e6b2 ba3d db81 483d ac45 263e 1c46 013e
00000360: 706c eabc bc6b 8ebd 7222 923d 4037 ab3e
00000370: 83c5 bf3e 2a57 b33e ece8 1bbb b44d b23e
00000380: 145b 253d c3ca 853e fbb0 fe3c 2b90 8e3e
00000390: 7f51 88bd c4a4 ef3b 84fb 24be 2400 2abd
000003a0: 2176 033d b31e ab3d 84ec 2b3e 91a4 373d
000003b0: aa26 ca3c 2dec 49be ce44 46be 5abe 7abc
000003c0: 567c aebc 0496 5cbc f312 7a3e 98fd 743e
000003d0: 4439 ebbc 8690 4abd 8970 0d3e 6ad4 dcbd
000003e0: ef1a 43be 3581 1bbe 6054 bbbd 507a 2ebe
000003f0: 63f3 02be 0e58 6a3e 9358 653e 8619 033e

network_body._body_endoder.seq_layers.0.bias f4 [128]
-0.0027112258 0.0056489077 0.014429727 0.019858431 0.021710133 0.03779034 0.02634403 0.025464516
0.033430893 -0.0035268732 0.017225958 -0.0032268914 0.011684458 0.009442656 0.020276593 0.012399433
-0.008883455 -0.0029330687 0.01485826 0.0005182816 -0.013856814 -0.0143731795 0.00671344 -0.013345041
0.015017693 -0.023385726 0.02999206 0.0142259635 -0.0010396196 0.025955753 -0.026471315 0.025880445
0.006775025 -0.004567313 0.0025152764 0.022655942 0.05906011 0.014382875 0.061149243 -0.012013032
0.025362939 -0.007203331 0.024989666 0.030178325 0.03081161 0.011360928 0.023880213 0.010922321
0.040802494 0.026277747 0.016621051 0.01673382 0.02262216 -0.0124932155 -0.0129323825 0.0043002795
0.011555791 -0.024484435 0.01152681 0.020816809 0.018662667 0.005099248 0.023438202 -0.014319127
0.016233724 0.027293662 -0.010065559 0.0476496 0.008910611 0.019170446 0.01823132 0.0015092748
0.04818645 0.0014192988 0.025427911 -0.009136792 0.032255206 0.04071578 0.008291349 0.0069967243
0.016179627 0.057479084 0.018644778 -0.005140778 0.025342027 -0.013599303 0.019799551 0.036522496
0.024823818 0.02635424 0.028726567 0.04029534 0.031612255 0.012237279 0.020425744 0.0036479528
0.034876812 0.0068529435 0.011973575 -0.0028321738 0.03414249 0.034305073 0.05568802 0.056355033
0.05755646 -0.016961612 0.009421818 0.0108460905 -0.008038092 0.050976977 0.023232317 0.015651217
0.020919465 0.016890012 0.031762943 -0.0080943145 0.03200733 0.070038706 0.019714845 0.03372933
0.01243228 0.044360768 -0.012225416 0.040628705 0.023797158 0.019483574 0.014312068 0.02713474
00000000: d2ae 31bb 791a b93b a96a 6c3c 26ae a23c
00000010: 73d9 b13c 0bca 1a3d 6fcf d73c f69a d03c
00000020: d5ee 083d 1d23 67bb 741d 8d3c 417a 53bb
00000030: 2b70 3f3c 5fb5 1a3c 191b a63c fe26 4b3c
00000040: e98b 11bc ba38 40bb 0f70 733c 4add 073a
00000050: b107 63bc 7c7d 6bbc 6bfc db3b 29a5 5abc
00000060: c50c 763c 6c93 bfbc e9b1 f53c 0414 693c
00000070: d843 88ba 29a1 d43c 5fda d8bc 3a03 d43c
00000080: 0701 de3b 66a9 95bb 56d7 243b f498 b93c
00000090: 04e9 713d 26a6 6b3c a177 7a3d 4fd2 44bc
000000a0: f0c5 cf3c ec09 ecbb 21b7 cc3c 8938 f73c
000000b0: a168 fc3c 3023 3a3c 70a0 c33c 89f3 323c
000000c0: 8420 273d 6e44 d73c df28 883c 5d15 893c
000000d0: 1c52 b93c 58b0 4cbc 58e2 53bc 5ce9 8c3b
000000e0: 8054 3d3c 9593 c8bc f2da 3c3c 0388 aa3c
000000f0: 73e2 983c 9817 a73b 7901 c03c c69a 6abc
00000100: 96fc 843c f596 df3c 04ea 24bc 3a2c 433d
00000110: d0fd 113c 570b 9d3c d959 953c dcd2 c53a
00000120: 285f 453d c407 ba3a 324e d03c 7cb2 15bc
00000130: 091e 043d 97c5 263d 70d8 073c c744 e53b
00000140: 238b 843c 306f 6b3d efbc 983c f973 a8bb
00000150: 159a cf3c 9ccf 5ebc ab32 a23c 9d98 153d
00000160: 525b cb3c d9e4 d73c fa53 eb3c ba0c 253d
00000170: da7b 013d de7e 483c e453 a73c 7e12 6f3b
00000180: fdda 0e3d a88e e03b d02c 443c fe9b 39bb
00000190: ffd8 0b3d 7a83 0c3d 1f19 643d 89d4 663d
000001a0: 53c0 6b3d 14f3 8abc f85d 1a3c cdb3 313c
000001b0: 34b2 03bc 3ccd 503d b351 be3c fb36 803c
000001c0: 4c5f ab3c ec5c 8a3c dc19 023d 049e 04bc
000001d0: 1e1a 033d 7470 8f3d 0781 a13c c427 0a3d
000001e0: c3b0 4b3c a3b3 353d 1c4d 48bc 496a 263d
000001f0: 42f2 c23c 049c 9f3c 2a7d 6a3c ad49 de3c

network_body._body_endoder.seq_layers.2.weight f4 [128, 128]
0.027925769 -0.044807125 0.0001366343 -0.08709465 0.029219052 0.13723014 0.061811242 -0.107751
-0.047679666 0.0005523885 -0.054055326 -0.11757359 -0.10894849 -0.15676013 0.13800107 0.04167047
0.06266455 -0.12944134 -0.13508 -0.13345064 -0.03146955 -0.13221066 -0.19664854 -0.098473914
-0.057018008 0.08071362 0.18412769 0.30961442 -0.063321404 -0.13022299 -0.13603738 0.011704904
-0.00076141395 0.18063979 0.064378105 0.117493555 0.17717892 0.06417923 -0.07555 -0.18528809
-0.054291293 -0.049492326 0.13519664 0.00089725124 -0.09015077 -0.100313015 -0.25151289 0.15891364
-0.231925 0.026173795 -0.05239964 -0.18980372 -0.04336114 -0.085049525 -0.17604634 0.2841049
-0.035843804 0.0051577017 -0.20552206 0.06375915 -0.0007074584 -0.15770161 0.1521565 0.08834753
0.054259233 -0.06193434 -0.04664074 0.13637367 0.13382722 -0.104633935 -0.034184556 -0.015590091
0.36702988 -0.026143588 -0.079094976 -0.12787935 0.11108358 -0.059677187 0.23394024 -0.23738107
0.13455373 0.19881403 -0.14703707 -0.11283372 0.09360892 0.07522911 -0.020535996 0.04277032
-0.06262377 0.09217885 0.20375377 -0.0165342 -0.015088256 -0.11416154 -0.08576343 0.2565442
0.106566295 -0.21359275 0.018699469 0.06290882 0.13959403 0.050745413 -0.08268589 0.075594135
0.09914131 0.11202846 -0.20452972 -0.021043288 0.06189728 0.12545799 -0.0013928653 -0.13808624
-0.07994313 -0.2006595 0.17359163 0.1118425 0.03330459 0.13042332 -0.14070454 0.022083765
-0.09342643 0.19276091 0.044909105 -0.17992835 -0.048337422 0.0023282855 -0.15432918 0.04706098
-0.009140077 -0.08602885 -0.042540114 -0.090119444 0.04363833 0.017178226 -0.00821792 0.06534011
0.113546096 0.0076337773 0.10195011 0.043096527 0.163065 0.0091536045 0.004073614 0.03346678
0.063871466 -0.0051769055 -0.010942528 -0.027654333 -0.118060485 -0.016973846 0.13872704 0.15769868
0.15834147 0.08355547 -0.0020624124 0.02228908 -0.03293421 -0.02186369 -0.052327406 0.14791235
-0.034492683 -0.102455266 -0.11729508 0.033136 0.0446992 -0.075232714 0.120052 -0.0562922
0.11884693 0.051875032 0.0024269985 0.07171512 0.06758423 0.043494053 0.06348103 0.11061987
0.016099954 -0.052382085 0.057470545 0.17235054 -0.014966873 0.094429694 -0.08228637 0.041021056
-0.0614268 -0.034629945 -0.09057674 -0.033772286 0.07060092 -0.009003261 -0.051117655 0.062399417
0.09597036 0.1848741 -0.019016786 0.10403455 0.056495316 -0.12070072 -0.0469691 -0.0042506037
-0.025335768 0.0070290435 0.027833326 -0.11989416 0.032158405 0.048814114 0.16917749 -0.12696704
0.091012254 0.050765768 -0.10680133 -0.15030332 0.049069714 -0.038499452 0.105658494 -0.045060873
0.078292824 0.05998293 -0.05263116 -0.021758828 0.093740575 0.15578018 0.01433948 -0.051558364
0.08147511 -0.034200616 -0.060376775 0.014369003 0.093904145 0.115425564 0.05954732 -0.0869002
-0.042199694 0.066697516 -0.079472706 -0.07533686 -0.02690731 0.00650267 -0.08291521 -0.059094936
-0.06899718 -0.055519313 0.02898265 -0.09626822 -0.04637436 -0.027902985 0.022177625 -0.1499658
0.0949436 0.0075219707 -0.03493542 -0.00040075937 0.22010787 0.051274333 -0.05213459 -0.12761109
00000000: 95c4 e43c ad87 37bd 7e45 0f39 ae5e b2bd
00000010: cb5c ef3c 0f86 0c3e c92d 7d3d 8eac dcbd
00000020: c14b 43bd 2ace 103a 1e69 5dbd 6cca f0bd
00000030: 6320 dfbd ba85 20be 2750 0d3e a8ae 2a3d
00000040: 4656 803d 458c 04be 6952 0abe 49a7 08be
00000050: 37e6 00bd 3b62 07be 3c5e 49be b1ac c9bd
00000060: b78b 69bd 2f4d a53d f88b 3c3e c885 9e3e
00000070: a7ae 81bd 2d59 05be 624d 0bbe edc5 3f3c
00000080: a099 47ba a3f9 383e abd8 833d 76a0 f03d
00000090: 646e 353e 6670 833d f5b9 9abd 29bc 3dbe
000000a0: 8c60 5ebd 77b8 4abd fd70 0a3e 8335 6b3a
000000b0: f8a0 b8bd e970 cdbd 4cc6 80be 42ba 223e
000000c0: bf7d 6dbe 6d6a d63c 01a1 56bd e85b 42be
000000d0: 739b 31bd 722e aebd 7e45 34be 3376 913e
000000e0: f4d0 12bd f001 a93b 6074 52be 2894 823d
000000f0: bb74 39ba 887c 21be eace 1b3e 8def b43d
00000100: ee3e 5e3d ddae 7dbd 5c0a 3fbd 8aa5 0b3e
00000110: 010a 093e 514a d6bd 1b05 0cbd 956d 7fbc
00000120: 57eb bb3e 142b d6bc 8cfc a1bd cef2 02be
00000130: ca7f e33d 1170 74bd 088e 6f3e 0614 73be
00000140: 74c8 093e e895 4b3e e390 16be 5e15 e7bd
00000150: 09b6 bf3d b811 9a3d 1b3b a8bc ee2f 2f3d
00000160: e440 80bd 44c8 bc3d d4a4 503e bb72 87bc
00000170: bc34 77bc 87cd e9bd bda4 afbd c359 833e
00000180: 6e3f da3d 0fb8 5abe a12f 993c 57d6 803d
00000190: bdf1 0e3e 6cda 4f3d 3857 a9bd 19d1 9a3d
000001a0: 990a cb3d 2d6f e53d 3d70 51be f962 acbc
000001b0: 0188 7d3d 0f78 003e ce90 b6ba 7b66 0dbe
000001c0: 39b9 a3bd af79 4dbe 01c2 313e ae0d e53d
000001d0: 656a 083d b18d 053e da14 10be 03e9 b43c
000001e0: 5b56 bfbd 1e63 453e 9cf2 373d 233f 38be
000001f0: 76fd 45bd 2696 183b 7808 1ebe 04c3 403d
00000200: 43c0 15bc e52f b0bd 8b3e 2ebd 8b90 b8bd
00000210: 1bbe 323d 5ab9 8c3c 74a4 06bc 09d1 853d
00000220: db8a e83d c424 fa3b 38cb d03d fc85 303d
00000230: 83fa 263e 00f9 153c f37b 853b 7614 093d
00000240: 0bcf 823d 08a3 a9bb 4a48 33bc 578b e2bc
00000250: b2c9 f1bd bc0c 8bbc 760e 0e3e c37b 213e
00000260: 4424 223e 211f ab3d 8a29 07bb 9797 b63c
00000270: 06e6 06bd 7b1b b3bc 4355 56bd 5676 173e
00000280: 3348 0dbd 11d4 d1bd 6738 f0bd 9db9 073d
00000290: 8216 373d 9c13 9abd d3dd f53d a692 66bd
000002a0: 0566 f33d ea7a 543d 470e 1f3b 60df 923d
000002b0: 9a69 8a3d d226 323d 5802 823d ac8c e23d
000002c0: 0de4 833c 998e 56bd 3c66 6b3d a97c 303e
000002d0: 9e37 75bc 5b64 c13d c285 a8bd b205 283d
000002e0: ab9a 7bbd 21d8 0dbd 4c80 b9bd cf54 0abd
000002f0: 3797 903d 6a82 13bc bf60 51bd 8896 7f3d
00000300: 1c8c c43d a34f 3d3e 17c9 9bbc 1110 d53d
00000310: a267 673d f031 f7bd ac62 40bd a648 8bbb
00000320: f58c cfbc e453 e63b b702 e43c 128b f5bd
00000330: 88b8 033d 4ff1 473d dd3c 2d3e a603 02be
00000340: a264 ba3d c4ef 4f3d a8ba dabd 1de9 19be
00000350: 53fd 483d 9ab1 1dbd 7b63 d83d c091 38bd
00000360: fd57 a03d a9b0 753d c593 57bd 923f b2bc
00000370: 0ffb bf3d d784 1f3e 23f0 6a3c dd2e 53bd
00000380: 6cdc a63d f215 0cbd a34d 77bd f76b 6b3c
00000390: d150 c03d 3d64 ec3d e4e7 733d bbf8 b1bd
000003a0: 96d9 2cbd b598 883d 96c2 a2bd 364a 9abd
000003b0: b86c dcbc 5914 d53b 73cf a9bd 880d 72bd
000003c0: 654e 8dbd 3868 63bd 066d ed3c 4628 c5bd
000003d0: 0af3 3dbd cd94 e4bc daad b53c a290 19be
000003e0: ca71 c23d dd7a f63b 7118 0fbd 031d d2b9
000003f0: f563 613e 0905 523d 148b 55bd 7bac 02be

network_body._body_endoder.seq_layers.2.bias f4 [128]
0.03115754 0.018419964 0.02678052 0.02071281 0.020841897 0.019561723 0.006038118 0.013754556
0.027568052 0.022730416 -0.0010462451 0.0074915877 0.010806022 0.019616088 0.013145012 0.00085578416
-0.007782455 -0.00913817 0.0013260471 0.015193291 0.022635307 0.00973087 -0.0013173252 0.00958353
0.01694987 0.021788009 0.011077766 0.04113731 0.016847933 -0.008154514 0.016216923 -0.009430625
-0.00081543095 0.030004516 0.012723123 0.045508757 0.025973756 0.018667601 0.02017636 -0.010423653
0.011463117 0.020692872 0.024474809 -0.0067625367 0.013214822 -0.014662768 0.028755471 0.031816795
-0.0025583096 0.02152253 0.00638663 -0.008122601 0.000728985 0.0147552835 0.021716101 0.0364578
0.027445115 0.02728943 -0.019581467 -0.014766948 0.018760132 -0.0087466305 0.025077349 0.006956008
-0.016775843 -0.024175305 0.0048709265 -0.013718645 -0.013277879 -0.009983008 0.0015234344 0.028926872
0.03326168 0.006859301 0.0084063 0.025394516 0.021175586 0.016477775 -0.0011911468 0.019699119
0.008912555 0.0069703725 -0.008095513 -0.009625989 0.026062448 0.016094651 0.020332072 -0.0017072547
0.027971258 0.0019825532 0.007261921 0.002077565 -0.0022135973 0.034675922 0.0053287623 0.024197424
0.013196672 0.013331672 -0.005875518 0.019029388 0.018594379 -0.0052782283 -0.0017025861 -0.004589711
0.012365965 0.027077613 -0.00993172 0.009502276 -0.01242623 0.0052675577 -0.009321929 0.0110044
0.017662652 0.029628282 0.02987013 0.024960522 0.028909976 0.027039036 0.0005522082 -0.005255257
0.018048426 -0.0066545415 -0.0049338145 -0.0036523817 0.021314163 0.00942454 0.039408598 0.026155034
00000000: 193e ff3c 77e5 963c d262 db3c e9ad a93c
00000010: a0bc aa3c e83f a03c 68db c53b ca5a 613c
00000020: 65d6 e13c 2335 ba3c 2922 89ba fe7b f53b
00000030: be0b 313c ebb1 a03c 2d5e 573c b456 603a
00000040: f703 ffbb 43b8 15bc c2ce ad3a 48ed 783c
00000050: ae6d b93c 3a6e 1f3c 19aa acba 3d04 1d3c
00000060: 74da 8a3c c47c b23c 857f 353c 997f 283d
00000070: ad04 8a3c 839a 05bc 5ad9 843c e882 1abc
00000080: a5c2 55ba 08cc f53c a574 503c 6467 3a3d
00000090: eac6 d43c ccec 983c e548 a53c f8c7 2abc
000000a0: cccf 3b3c 1984 a93c 657f c83c 4598 ddbb
000000b0: fb82 583c 1b3c 70bc 9890 eb3c 5452 023d
000000c0: 50a9 27bb 0450 b03c ef46 d13b a814 05bc
000000d0: 5b19 3f3a 25c0 713c f7e5 b13c c654 153d
000000e0: 94d4 e03c 158e df3c 5069 a0bc 12f1 71bc
000000f0: d9ae 993c 074e 0fbc 036f cd3c 39ef e33b
00000100: 7e6d 89bc 4a0b c6bc 4b9c 9f3b 2bc4 60bc
00000110: 768b 59bc c58f 23bc faad c73a 0cf8 ec3c
00000120: 663d 083d fdc3 e03b 94ba 093c 2908 d03c
00000130: 6c78 ad3c 66fc 863c 4120 9cba 0c60 a13c
00000140: f705 123c b967 e43b 0ba3 04bc 53b6 1dbc
00000150: ea80 d53c eed8 833c 728f a63c f6c5 dfba
00000160: fb23 e53c b9ed 013b 69f5 ed3b c227 083b
00000170: 0012 11bb 5708 0e3d e69c ae3b ad39 c63c
00000180: db36 583c 166d 5a3c 6b87 c0bb 85e3 9b3c
00000190: 3d53 983c fdf4 acbb 4f29 dfba 4965 96bb
000001a0: 9e9a 4a3c dfd1 dd3c a7b8 22bc 6faf 1b3c
000001b0: 6397 4bbc 7a9b ac3b 01bb 18bc cd4b 343c
000001c0: 44b1 903c 03b7 f23c 34b2 f43c 027a cc3c
000001d0: 9dd4 ec3c f880 dd3c 11c2 103a 4a34 acbb
000001e0: 4bda 933c 570e dabb d6ab a1bb cc5c 6fbb
000001f0: 0a9b ae3c 6369 1a3c e96a 213d 1543 d63c

action_model._discrete_distribution.branches.0.weight f4 [3, 128]
0.0007421481 0.018042441 0.029133448 -0.103560984 0.03014545 0.038855072 -0.0015305876 0.04337276
0.019300077 0.0021403544 -0.023919236 -0.002155569 0.0108911265 -0.08388992 0.04310629 0.015853085
-0.044188004 -0.023197975 -0.05653453 0.036783155 0.036249224 -0.10090744 -0.042760145 0.007354388
0.0139534185 0.010556996 2.76262e-05 0.02127108 0.033558726 -0.018120771 0.047451098 -0.04197252
0.06930797 -0.001981006 0.026622128 0.030546496 0.046581607 0.017212741 0.015174113 -0.0216252
0.009120835 0.032974534 0.0050153723 -0.017463056 -0.017193954 -0.031094592 0.0025481381 0.0056117843
-0.022832973 0.0073236655 -0.017009068 -0.021650122 -0.079920664 -0.004243084 0.038431976 0.015287957
0.021785803 0.005717244 -0.025012579 -0.018110162 -0.0109368 -0.014123543 0.029380858 -0.011354338
-0.01419218 -0.024766829 -0.010513944 -0.0068310504 -0.036786616 -0.033346727 -0.05351657 0.031966064
0.030083846 -0.039187044 -0.0043787295 0.01565104 0.0071036136 0.008085283 0.024002079 0.03171966
0.028622858 -0.013778952 -0.021947375 0.004843343 0.043299448 0.042873036 -0.010885164 -0.01255466
0.032067254 0.031158907 -0.022338279 -0.023774743 -0.009807176 0.0549518 0.012326508 0.01743135
0.03004947 0.014664892 0.026713144 0.030222557 0.012043168 -0.0040803873 -0.032 -0.040221233
-0.04582662 -0.0015427236 -0.030432006 -0.0029258104 0.0062088906 -0.0036297324 -0.0066280286 0.044856265
0.03782592 -0.010223078 -0.019261055 0.016472632 0.036774356 0.03973829 -0.017986566 -0.003916311
0.025121907 -0.02156123 -0.010883308 0.002947003 0.055817682 -0.0256488 -0.012243611 0.026653808
-0.06846536 0.017633056 0.0120116295 0.09832032 0.03253666 0.030152304 -0.024594624 0.031501167
0.026638664 0.044465438 -0.018564964 -0.054069996 0.027985062 0.09763202 -0.011686203 -0.04273181
-0.008025492 -0.02235892 0.03888416 0.045955677 -0.019724073 0.093679294 -0.02384281 -0.06556198
0.02066088 -0.07919478 0.056603722 -0.0344451 0.0201772 -0.003309696 0.012827678 -0.009613071
-0.088286586 0.060853716 0.029342797 0.0018209012 0.02358154 0.033566304 0.027187694 -0.020594452
0.02333192 0.018212464 0.05030137 -0.046516176 -0.061785113 -0.010425734 -0.08862726 0.02386152
-0.02273512 0.03920729 0.072194114 0.04961345 0.029464234 0.01101701 0.043577924 0.037148796
0.029207239 -0.07276518 -0.008630007 -0.045417123 0.023036193 -0.016798133 0.059369642 -0.020402025
-0.015289269 -0.022923153 -0.02955303 -0.026713317 -0.0032741618 -9.059932e-05 0.041315638 0.0054374556
0.038466606 -0.027669035 -0.014488181 0.034331784 -0.014071765 0.007119049 0.02306997 0.008894252
-0.021020537 0.034683745 -0.02913758 0.006811297 -0.0623888 0.010154443 0.028974896 -0.020451056
-0.009129013 -0.029889803 0.05624228 -0.00992145 -0.027109027 -0.006080048 0.020569801 0.047411304
0.020268789 0.011893048 -0.026022898 0.010498567 0.02151311 -0.0021167262 -0.047470182 -0.0036894279
0.020113835 0.046048403 -0.020632716 -0.04367227 0.008340307 0.03866683 -0.033582434 0.0015719126
0.003346641 0.026559096 0.018780611 0.021190522 0.004892943 0.032667395 -0.033056792 -0.014849625
0.029495358 -0.03038149 -0.01160714 -0.031219954 0.010940096 0.04079295 0.056330066 0.028755268
00000000: b78c 423a becd 933c 45a9 ee3c c817 d4bd
00000010: 97f3 f63c 7f26 1f3d ff9d c8ba a3a7 313d
00000020: 321b 9e3c 3045 0c3b 46f2 c3bc 7244 0dbb
00000030: b270 323c 7ace abbd 3990 303d 54de 813c
00000040: 7bfe 34bd ae09 bebc c090 67bd efa9 163d
00000050: 117a 143d 8fa8 cebd 4325 2fbd 14fd f03b
00000060: e19c 643c 40f7 2c3c d0be e737 b040 ae3c
00000070: e074 093d 0372 94bc 155c 423d 61eb 2bbd
00000080: 56f1 8d3d c4d3 01bb a616 da3c a53c fa3c
00000090: 5bcc 3e3d bc01 8d3c d89c 783c 5527 b1bc
000000a0: 8e6f 153c 4e10 073d fe57 a43b af0e 8fbc
000000b0: 56da 8cbc 16ba febc aafe 263b 0fe3 b73b
000000c0: 370c bbbc 5cfb ef3b 9a56 8bbc 995b b1bc
000000d0: 72ad a3bd 9209 8bbb d96a 1d3d 577a 7a3c
000000e0: 2478 b23c b857 bb3b 2ee7 ccbc c35b 94bc
000000f0: 4430 33bc 6f66 67bc 20b0 f03c 8c07 3abc
00000100: 5186 68bc cee3 cabc ad42 2cbc 01d7 dfbb
00000110: 90ad 16bd 9496 08bd 3134 5bbd d9ee 023d
00000120: 6672 f63c 9882 20bd 727b 8fbb 9c36 803c
00000130: 6ec5 e83b 2378 043c 02a0 c43c 79ec 013d
00000140: 7c7a ea3c 1dc1 61bc fbca b3bc e8b4 9e3b
00000150: c35a 313d a39b 2f3d b057 32bc 10b2 4dbc
00000160: f458 033d f740 ff3c c4fe b6bc 40c3 c2bc
00000170: 47ae 20bc 2315 613d 1ff5 493c 31cc 8e3c
00000180: 4e2a f63c 0445 703c 86d5 da3c 4c95 f73c
00000190: b550 453c c5b4 85bb 6f12 03bd 05bf 24bd
000001a0: b2b4 3bbd 3735 caba 8b4c f9bc f4be 3fbb
000001b0: f373 cb3b cee0 6dbb ef2f d9bb 34bb 373d
000001c0: 5aef 1a3d b27e 27bc 5cc9 9dbc 9df1 863c
000001d0: b5a0 163d 9ec4 223d 9058 93bc 6654 80bb
000001e0: 75cc cd3c 2da1 b0bc e74f 32bc 8222 413b
000001f0: 15a1 643d 6f1d d2bc 6d99 48bc 1659 da3c
00000200: 9137 8cbd 3373 903c 6dcc 443c 2a5c c93d
00000210: 2945 053d f701 f73c aa7a c9bc 5e07 013d
00000220: 5439 da3c 6421 363d 8d15 98bc 8078 5dbd
00000230: ee40 e53c 4cf3 c73d 7d77 3fbc 8d07 2fbd
00000240: 5a7d 03bc 0e2a b7bc ff44 1f3d 053c 3c3d
00000250: 6194 a1bc eeda bf3d ff51 c3bc 5c45 86bd
00000260: 0141 a93c df30 a2bd 4ed9 673d 4e16 0dbd
00000270: a84a a53c 7ce7 58bb 2e2b 523c 2480 1dbc
00000280: 99cf b4bd bf41 793d 4e60 f03c 4eab ee3a
00000290: 132e c13c d27c 093d bab8 de3c b2b5 a8bc
000002a0: 9522 bf3c 4e32 953c cf08 4e3d bf87 3ebd
000002b0: 6312 7dbd b3d0 2abc 3582 b5bd 3c79 c33c
000002c0: 013f babc d397 203d 82da 933d 7937 4b3d
000002d0: fa5e f13c b080 343c c47e 323d 5629 183d
000002e0: 0544 ef3c e905 95bd df64 0dbc 4e07 3abd
000002f0: 66b6 bc3c 3d9c 89bc 952d 733d 2622 a7bc
00000300: d87f 7abc 56c9 bbbc 3219 f2bc e3d5 dabc
00000310: 5293 56bb 2400 beb8 963a 293d af2c b23b
00000320: 298f 1d3d 2caa e2bc d65f 6dbc 7c9f 0c3d
00000330: 438d 66bc e946 e93b 3cfd bc3c 32b9 113c
00000340: 4333 acbc 8b10 0e3d efb1 eebc 4d31 df3b
00000350: 668b 7fbd d25e 263c c35c ed3c f988 a7bc
00000360: db91 15bc 76db f4bc 4e5e 663d 948d 22bc
00000370: c013 debc 243b c7bb 0082 a83c 5b32 423d
00000380: bb0a a63c 0fdb 423c f92d d5bc 2e02 2c3c
00000390: 433c b03c c6b8 0abb 1870 42bd 54ca 71bb
000003a0: c5c5 a43c 409d 3c3d f105 a9bc b2e1 32bd
000003b0: c8a5 083c 1c61 1e3d bc8d 09bd a208 ce3a
000003c0: 5253 5b3b 7692 d93c ccd9 993c bf97 ad3c
000003d0: fb54 a03b 3fce 053d 8f66 07bd d74b 73bc
000003e0: 40a0 f13c 9ae2 f8bc e02b 3ebc fdc0 ffbc
000003f0: 173e 333c 8216 273d 5bba 663d 2b90 eb3c

action_model._discrete_distribution.branches.0.bias f4 [3]
0.0070737447 0.022310713 -0.01155037
00000000: dfca e73b f5c4 b63c c33d 3dbc

action_model._discrete_distribution.branches.1.weight f4 [3, 128]
-0.025058478 0.042465582 0.014287001 0.011777586 0.024081932 0.030409925 -0.022923063 0.017066943
0.03008988 0.026375849 -0.020750979 -0.008899625 0.0051344247 -0.030563382 0.01678955 -0.0012563942
-0.008425079 -0.026224934 -0.02115775 0.028702842 -0.019327702 0.0077546453 -0.02966654 -0.022565315
0.028510299 0.0049456246 -0.017900571 -0.004688167 0.036160614 -0.0070205373 0.01374028 0.00050470815
-0.028457152 0.042730644 0.028009824 0.015958555 0.024159715 0.018751565 0.052184604 -0.018125474
-0.023182116 0.01934619 0.034367796 -0.01494381 -0.0062248553 -0.024391318 -0.033870235 -0.018804353
-0.013486825 0.022576561 0.018301193 -0.013907503 -0.018179053 -0.0024609258 0.007867567 0.026362501
0.03166291 -0.036797993 -0.010155819 -0.009691186 0.04358355 -0.013978636 0.020054763 -0.026691088
-0.029889118 -0.031443406 -0.013329603 -0.021299554 -0.017502544 -0.03391365 -0.043778393 0.009066347
0.016081402 0.021986654 0.006716166 0.03769734 -0.0625167 0.05398362 0.014088531 0.036472853
0.01791795 0.049663555 -0.015966589 -0.00028223972 -0.06392213 0.018859139 -0.045880307 0.0056406637
-0.005119218 -0.007387641 0.0063453 -0.0038958776 0.0012351011 -0.0121545 0.034414995 0.054297075
0.024153864 0.046029992 -0.0139996 0.010570196 0.04770967 -0.00925409 -0.024992257 -0.010491245
0.048080727 0.034831952 -0.005321342 -0.024158517 0.000439416 0.004160373 -0.024142275 0.026158908
0.035006274 0.028465409 -0.041158363 0.046045788 0.03193107 0.019856226 -0.001721876 -0.03223536
0.021991808 -0.041796394 -0.036491867 -0.015250599 0.050569423 0.019682344 0.05014797 0.053716153
0.10613401 -0.013292569 0.029458754 -0.049442157 -0.0058489814 -0.0100118285 -0.009366576 -0.016767541
-0.018976076 -0.035497304 0.001436307 0.026244368 -0.021380516 -0.037340477 -0.016659714 -0.0040188124
-0.035296608 0.010671905 -0.037947316 -0.02138154 0.06617066 -0.11194798 0.025669862 0.014614903
0.010282241 0.013022223 -0.051018834 0.067216285 -0.020464381 -0.0047071753 0.0078892615 -0.027675873
0.007666317 -0.031986378 -0.058513056 0.054065753 0.03118096 -0.03399671 -0.008513584 0.00048470648
-0.079355866 0.019222153 -0.027071118 -0.02773733 -0.014209228 -0.014623609 0.11508238 0.066327386
0.042782214 0.026316231 -0.031751826 -0.03150185 0.012409851 0.05270209 -0.02395768 0.029988656
-0.051171433 0.08688804 0.014703324 -0.0178064 -0.11655118 0.005162306 -0.048406444 -0.0047742506
-0.0009020518 0.012219865 0.037713356 -0.009947526 -0.023042925 0.0260365 -0.06837519 -0.00010333271
0.01693152 -0.0062811547 -0.06648057 0.0031183294 -0.018919153 -0.09231856 0.0013044587 -0.011567993
-0.07878375 -0.0779394 -0.012348967 0.04670337 0.13327126 -0.03540048 0.11628333 -0.0039156093
0.089236915 0.052220237 -0.05264082 0.039194085 0.017848149 0.061209217 -0.020171048 -0.057773415
-0.013295425 0.0025851727 0.05534657 0.023422087 -0.01941427 -0.010330307 0.06937959 -0.016550768
-0.09758135 -0.052781157 -0.012091444 0.040539734 -0.0046848804 -0.001168749 -0.01474018 -0.043292727
-0.008603756 -0.10993385 0.106498964 -0.016974814 0.01007488 0.02577145 0.016068121 0.0373285
-0.019249031 -0.023583714 0.008783779 0.018978741 -0.030262591 0.0088237915 -0.048778195 -0.06073344
00000000: 7047 cdbc 64f0 2d3d 0714 6a3c c7f6 403c
00000010: 7947 c53c 3c1e f93c 26c9 bbbc f9cf 8b3c
00000020: 0d7f f63c 2a12 d83c f5fd a9bc bccf 11bc
00000030: ad3e a83b 0f60 fabc 3d8a 893c 98ad a4ba
00000040: 5809 0abc acd5 d6bc 0553 adbc 3922 eb3c
00000050: 2155 9ebc ae1a fe3b 3e07 f3bc e5da b8bc
00000060: 6e8e e93c e80e a23b 38a4 92bc 329f 99bb
00000070: 271d 143d 890c e6bb e91e 613c 644e 043a
00000080: f91e e9bc 5406 2f3d dc74 e53c 84bb 823c
00000090: 98ea c53c e29c 993c 86bf 553d e07b 94bc
000000a0: 6ce8 bdbc e77b 9e3c 3fc5 0c3d e2d6 74bc
000000b0: dff9 cbbb 4dd0 c7bc 84bb 0abd 960b 9abc
000000c0: d8f7 5cbc 7bf2 b83c 62ec 953c 4cdc 63bc
000000d0: 3dec 94bc 7c47 21bb f8e6 003c 2cf6 d73c
000000e0: f8b0 013d 7eb9 16bd 9864 26bc c8c7 1ebc
000000f0: aa84 323d a606 65bc e349 a43c 45a7 dabc
00000100: 06da f4bc cdca 00bd 6864 5abc 677c aebc
00000110: 7f61 8fbc 0ae9 0abd f950 33bd 048b 143c
00000120: 25bd 833c 5b1d b43c 4913 dc3b 8768 1a3d
00000130: c108 80bd ee1d 5d3d 95d3 663c 8f64 153d
00000140: aac8 923c 036c 4b3d 5dcc 82bc 93f9 93b9
00000150: 9be9 82bd 7b7e 9a3c fdec 3bbd 51d5 b83b
00000160: 1dbf a7bb 0614 f2bb 3cec cf3b fb51 7fbb
00000170: 1ee3 a13a ab23 47bc bdf6 0c3d 9c66 5e3d
00000180: 53de c53c f289 3c3d 945e 65bc 9e2e 2d3c
00000190: 376b 433d 779e 17bc 90bc ccbc 79e3 2bbc
000001a0: 4cf0 443d f3ab 0e3d a75e aebb 15e8 c5bc
000001b0: 6b61 e639 bd53 883b 05c6 c5bc 354b d63c
000001c0: bd62 0f3d 4a30 e93c ac95 28bd 829a 3c3d
000001d0: 27ca 023d 86a9 a23c 92b0 e1ba 3a09 04bd
000001e0: 2a28 b43c b232 2bbd 7f78 15bd a6dd 79bc
000001f0: e221 4f3d de3c a13c f567 4d3d 7805 5c3d
00000200: ca5c d93d 13c9 59bc 7c53 f13c dc83 4abd
00000210: d0a8 bfbb a708 24bc 4476 19bc 155c 89bc
00000220: b773 9bbc 9f65 11bd 7742 bc3a 6efe d63c
00000230: 3126 afbc 54f2 18bd f479 88bc 3eb0 83bb
00000240: 2d93 10bd 37d9 2e3c a56e 1bbd 5728 afbc
00000250: 7c84 873d fc44 e5bd 9a49 d23c 5973 6f3c
00000260: d876 283c 295b 553c 20f9 50bd b1a8 893d
00000270: eba4 a7bc a63e 9abb f641 013c 83b8 e2bc
00000280: ba35 fb3b 2604 03bd 63ab 6fbd 0d74 5d3d
00000290: 366f ff3c 2240 0bbd 8f7c 0bbc 3420 fe39
000002a0: 5485 a2bd c777 9d3c 40c4 ddbc 6639 e3bc
000002b0: d2cd 68bc dd97 6fbc 50b0 eb3d a7d6 873d
000002c0: 673c 2f3d 2395 d73c 340e 02bd 1508 01bd
000002d0: b052 4b3c 26de 573d e642 c4bc c5aa f53c
000002e0: 2399 51bd 5bf2 b13d 36e6 703c bade 91bc
000002f0: 63b2 eebd 9028 a93b d645 46bd 5171 9cbb
00000300: ac77 6cba d435 483c 5279 1a3d f3fa 22bc
00000310: 84c4 bcbc 804a d53c 4b08 8cbd 54b4 d8b8
00000320: f9b3 8a3c 25d2 cdbb f726 88bd e35c 4c3b
00000330: 57fc 9abc 8311 bdbd 5ffa aa3a ae87 3dbc
00000340: 6059 a1bd b19e 9fbd 5253 4abc 084c 3f3d
00000350: 4378 083e 1800 11bd f425 ee3d 834e 80bb
00000360: d8c1 b63d e3e4 553d e79d 57bd fa89 203d
00000370: 4836 923c 84b6 7a3d c13d a5bc d1a3 6cbd
00000380: 0ed5 59bc 006c 293b 16b3 623d addf bf3c
00000390: ad0a 9fbc 7340 29bc e316 8e3d 7a95 87bc
000003a0: bbd8 c7bd 0e31 58bd 311b 46bc fe0c 263d
000003b0: a083 99bb b530 99ba cc80 71bc b753 31bd
000003c0: c5f6 0cbc 0025 e1bd 211c da3d c40e 8bbc
000003d0: 1c11 253c a61e d33c 4ba1 833c c5e5 183d
000003e0: 25b0 9dbc a232 c1bc d7e9 0f3c 4e79 9b3c
000003f0: 41e9 f7bc aa91 103c a5cb 47bd a1c3 78bd

action_model._discrete_distribution.branches.1.bias f4 [3]
0.018285226 -0.0029450436 -0.027544333
00000000: e6ca 953c a201 41bb a7a4 e1bc

exp_avg f4 [128, 36]
0.00012345557 -8.8852416e-05 0.0 -6e-45 2.3578665e-05 0.0001301503 -9.55472e-05 0.0
-6e-45 2.4315981e-05 9.3509545e-05 -5.890645e-05 0.0 6e-45 1.50104415e-05 3.0882708e-05
3.720382e-06 0.0 -6e-45 1.50453925e-05 7.27626e-05 -3.8159462e-05 0.0 6e-45
1.5316937e-05 3.9816525e-05 -5.2133796e-06 0.0 6e-45 3.0223538e-05 6.774026e-05 -3.313714e-05
0.0 -6e-45 6.8506965e-06 -9.934042e-06 -0.0002772571 -0.00016008876 0.0 -6e-45
-0.00018478543 -0.00041124926 -2.6096592e-05 0.0 -6e-45 -0.00016109318 -0.00021884327 -0.00021850267
0.0 -6e-45 -0.00020964487 -0.00038275644 -5.458956e-05 0.0 6e-45 -0.00019196162
5.4247957e-06 -0.0004427707 0.0 6e-45 -0.00015986692 6.832638e-05 -0.00050567224 0.0
6e-45 -6.9406815e-05 -6.948342e-05 -0.00036786255 0.0 -6e-45 -0.00014159357 -0.00012758767
0.00017615368 0.00022056012 0.0 6e-45 0.000111935915 0.00028805248 0.00010866133 0.0
6e-45 0.00010070067 0.00017358834 0.0002231255 0.0 -6e-45 0.00012558034 0.00029640758
0.00010030627 0.0 6e-45 0.00012538668 1.7077633e-05 0.00037963619 0.0 -6e-45
9.4679934e-05 6.029309e-05 0.0003364207 0.0 6e-45 4.799187e-05 0.00013230117 0.00026441264
0.0 6e-45 8.101558e-05 -3.006346e-05 0.00045218368 2.394809e-05 0.0 -6e-45
0.00017722129 0.00056088105 -8.474931e-05 0.0 6e-45 0.00017231487 0.00033065534 0.0001454764
0.0 6e-45 0.0001746735 0.000432976 4.3155705e-05 0.0 6e-45 0.00017163424
0.00013075648 0.0003453752 0.0 -6e-45 0.00014495122 0.00017738718 0.0002987446 0.0
6e-45 0.00012727197 0.00029169265 0.00018443912 0.0 -6e-45 0.000113442584 2.2091486e-05
0.000115589224 1.6126673e-05 0.0 -6e-45 4.4898414e-05 0.000142764 -1.104812e-05 0.0
6e-45 4.3962726e-05 0.00011942266 1.2293232e-05 0.0 6e-45 4.4222048e-05 0.000103769366
2.7946515e-05 0.0 6e-45 4.349714e-05 8.186803e-05 4.9847844e-05 0.0 6e-45
3.772933e-05 7.630414e-05 5.5411732e-05 0.0 6e-45 3.464055e-05 9.289745e-05 3.881843e-05
0.0 6e-45 2.9856585e-05 -1.1201354e-05 -0.0002049942 0.00015149573 0.0 6e-45
-6.305791e-05 -0.00016443548 0.00011093698 0.0 6e-45 -6.579556e-05 -0.00017980482 0.00012630629
0.0 -6e-45 -6.773201e-05 3.420867e-05 -8.770719e-05 0.0 -6e-45 -3.630164e-05
-5.0206894e-05 -3.2916378e-06 0.0 -6e-45 -5.8651975e-05 -3.2983164e-05 -2.0515352e-05 0.0
-6e-45 -4.5096574e-05 -4.208448e-05 -1.1414091e-05 0.0 6e-45 -4.72686e-05 6.764363e-05
8.4231484e-05 0.00017756813 0.0 6e-45 0.00012738463 0.00023159632 3.0203275e-05 0.0
6e-45 0.000101871876 3.2749904e-05 0.00022904969 0.0 6e-45 0.0001339028 0.00017640817
8.539145e-05 0.0 6e-45 0.00010936083 -1.7858802e-05 0.0002796583 0.0 -6e-45
0.00010834362 -0.00017451284 0.00043631246 0.0 -6e-45 1.614594e-05 4.5470024e-05 0.0002163295
0.0 6e-45 9.179167e-05 0.00012161688 0.0002445827 0.00027014082 0.0 6e-45
00000000: da73 0139 4756 bab8 0000 0000 0400 0080
00000010: ccca c537 f578 0839 8360 c8b8 0000 0000
00000020: 0400 0080 2cfa cb37 8e1a c438 5212 77b8
00000030: 0000 0000 0400 0000 5bd5 7b37 0e88 0138
00000040: adab 7936 0000 0000 0400 0080 786b 7c37
00000050: 2098 9838 690d 20b8 0000 0000 0400 0000
00000060: df7c 8037 ab00 2738 97ee aeb6 0000 0000
00000070: 0400 0000 8e88 fd37 c60f 8e38 bcfc 0ab8
00000080: 0000 0000 0400 0080 09df e536 63aa 26b7
00000090: d15c 91b9 80dd 27b9 0000 0000 0400 0080
000000a0: f6c2 41b9 f19c d7b9 01ea dab7 0000 0000
000000b0: 0400 0080 1feb 28b9 4b79 65b9 dd1d 65b9
000000c0: 0000 0000 0400 0080 1ed4 5bb9 b3ac c8b9
000000d0: 18f7 64b8 0000 0000 0400 0000 4e49 49b9
000000e0: a406 b636 ad23 e8b9 0000 0000 0400 0000
000000f0: f3a1 27b9 724a 8f38 178f 04ba 0000 0000
00000100: 0400 0000 808e 91b8 a1b7 91b8 addd c0b9
00000110: 0000 0000 0400 0080 bc78 14b9 0ec9 05b9
00000120: e5b5 3839 2846 6739 0000 0000 0400 0000
00000130: 23bf ea38 c005 9739 1be1 e338 0000 0000
00000140: 0400 0000 432f d338 4405 3639 ccf6 6939
00000150: 0000 0000 0400 0080 37ae 0339 2767 9b39
00000160: 855b d238 0000 0000 0400 0000 3b7a 0339
00000170: f041 8f37 e809 c739 0000 0000 0400 0080
00000180: e78e c638 36e3 7c38 9f61 b039 0000 0000
00000190: 0400 0000 e14a 4938 53ba 0a39 dda0 8a39
000001a0: 0000 0000 0400 0000 e9e6 a938 ca30 fcb7
000001b0: 1113 ed39 22e4 c837 0000 0000 0400 0080
000001c0: 7ad4 3939 1708 133a 70bb b1b8 0000 0000
000001d0: 0400 0000 6caf 3439 cf5b ad39 068b 1839
000001e0: 0000 0000 0400 0000 9028 3739 0e01 e339
000001f0: 1602 3538 0000 0000 0400 0000 b7f8 3339
00000200: ad1b 0939 7a13 b539 0000 0000 0400 0080
00000210: 0cfe 1739 0201 3a39 d2a0 9c39 0000 0000
00000220: 0400 0000 4f74 0539 53ee 9839 0066 4139
00000230: 0000 0000 0400 0080 06e8 ed38 1b51 b937
00000240: 7e68 f238 c447 8737 0000 0000 0400 0080
00000250: 4e51 3c38 ebb2 1539 505b 39b7 0000 0000
00000260: 0400 0000 9e64 3838 8d72 fa38 083f 4e37
00000270: 0000 0000 0400 0000 107b 3938 c19e d938
00000280: af6e ea37 0000 0000 0400 0000 b370 3638
00000290: 90b0 ab38 b713 5138 0000 0000 0400 0000
000002a0: 8f3f 1e38 7905 a038 e569 6838 0000 0000
000002b0: 0400 0000 024b 1138 f0d1 c238 f9d0 2238
000002c0: 0000 0000 0400 0000 8774 fa37 73ed 3bb7
000002d0: b6f3 56b9 d3da 1e39 0000 0000 0400 0000
000002e0: f53d 84b8 506c 2cb9 d6a6 e838 0000 0000
000002f0: 0400 0000 b9fb 89b8 fd89 3cb9 1671 0439
00000300: 0000 0000 0400 0080 590b 8eb8 487b 0f38
00000310: 70ef b7b8 0000 0000 0400 0080 9742 18b8
00000320: 3e95 52b8 e8e5 5cb6 0000 0000 0400 0080
00000330: 1401 76b8 6757 0ab8 6218 acb7 0000 0000
00000340: 0400 0080 1426 3db8 de83 30b8 267f 3fb7
00000350: 0000 0000 0400 0000 4642 46b8 e6db 8d38
00000360: 6fa5 b038 9531 3a39 0000 0000 0400 0000
00000370: 8d92 0539 aad8 7239 0a5d fd37 0000 0000
00000380: 0400 0000 0ca4 d538 f15c 0938 0f2d 7039
00000390: 0000 0000 0400 0000 4268 0c39 35fa 3839
000003a0: 3014 b338 0000 0000 0400 0000 a658 e538
000003b0: 7ccf 95b7 1a9f 9239 0000 0000 0400 0080
000003c0: 8a36 e338 6ffd 36b9 dec0 e439 0000 0000
000003d0: 0400 0080 2471 8737 11b7 3e38 82d6 6239
000003e0: 0000 0000 0400 0000 4780 c038 910c ff38
000003f0: 563b 8039 b0a1 8d39 0000 0000 0400 0000

exp_avg_sq f4 [128, 36]
3.8194187e-07 5.7878395e-08 0.0 1.7694934e-10 8.892031e-09 4.2169373e-07 2.7748849e-08 0.0
2.6325098e-10 8.180389e-09 3.397075e-07 1.066551e-07 0.0 1.269469e-10 9.39348e-09 4.428916e-07
8.616133e-09 0.0 2.75282e-10 8.482304e-09 2.7185763e-07 1.825014e-07 0.0 2.677013e-10
9.64908e-09 4.399023e-07 1.851891e-08 0.0 3.4885128e-10 9.853756e-09 2.5724702e-07 1.808704e-07
0.0 3.3454525e-10 8.5945295e-09 1.4749338e-07 2.3359455e-06 1.18861294e-07 0.0 8.9263506e-11
4.6616055e-08 2.3093103e-06 1.06056476e-07 0.0 3.074972e-10 4.5824333e-08 2.219932e-06 3.3776266e-07
0.0 2.279081e-10 5.1153943e-08 2.1881567e-06 2.846036e-07 0.0 5.7617067e-10 4.8280608e-08
1.8059538e-06 7.4474775e-07 0.0 7.2287254e-10 4.993765e-08 2.0172256e-06 4.266035e-07 0.0
9.439939e-10 4.5418695e-08 1.6064473e-06 8.457082e-07 0.0 1.639419e-09 4.5960434e-08 7.9172236e-07
1.4503136e-06 2.7379045e-07 0.0 1.5256535e-09 4.6032877e-08 1.3914905e-06 2.6759878e-07 0.0
5.7316645e-09 5.051999e-08 1.3241201e-06 4.5886304e-07 0.0 1.6601501e-09 3.788433e-08 1.3648721e-06
3.6088738e-07 0.0 6.4630514e-09 5.6839376e-08 1.1919735e-06 5.7929844e-07 0.0 9.862555e-10
3.3660925e-08 1.3199161e-06 4.065796e-07 0.0 6.4249988e-09 5.8005824e-08 1.1904962e-06 5.4445127e-07
0.0 1.4118556e-09 3.118218e-08 7.158634e-07 2.0203302e-06 1.6701134e-07 0.0 2.3547413e-09
5.0261253e-08 2.1000199e-06 8.22501e-08 0.0 4.5623234e-09 4.6831303e-08 1.8446075e-06 3.118668e-07
0.0 3.285091e-09 5.1298098e-08 2.0567124e-06 9.625968e-08 0.0 6.3466743e-09 4.8776336e-08
1.6162289e-06 5.454576e-07 0.0 8.30659e-09 4.9258336e-08 1.910352e-06 2.2090323e-07 0.0
5.5387663e-09 4.5355765e-08 1.608162e-06 5.0824366e-07 0.0 9.550781e-09 4.5407084e-08 6.983742e-07
3.460507e-07 3.548485e-08 0.0 1.1975144e-09 8.684891e-09 3.417121e-07 3.1252373e-08 0.0
3.469733e-09 9.846527e-09 3.4531817e-07 3.4381213e-08 0.0 3.9944778e-10 6.002383e-09 3.3694454e-07
3.3853702e-08 0.0 4.2231907e-09 1.0934274e-08 3.3629323e-07 4.427427e-08 0.0 4.0448075e-10
5.172693e-09 3.4416604e-07 2.7057302e-08 0.0 3.570173e-09 1.0968077e-08 3.325108e-07 4.7638903e-08
0.0 8.8198226e-10 5.441908e-09 1.592734e-07 7.7870294e-07 1.4271534e-07 0.0 9.813655e-10
3.5427487e-08 7.770623e-07 1.5231991e-07 0.0 1.9973352e-09 3.593345e-08 6.8042704e-07 2.2914135e-07
0.0 1.7120844e-10 3.290427e-08 7.2069133e-07 2.0763473e-07 0.0 3.572029e-09 3.7730565e-08
6.396148e-07 2.8534515e-07 0.0 2.2084413e-10 2.8684015e-08 6.422973e-07 2.8498178e-07 0.0
5.2315396e-09 3.627092e-08 6.5292227e-07 2.637588e-07 0.0 5.568676e-10 2.3410683e-08 3.2131175e-07
1.4202982e-06 1.2383015e-07 0.0 1.4436675e-09 3.70865e-08 1.4362307e-06 9.570144e-08 0.0
3.1946852e-09 3.863366e-08 1.319937e-06 2.6284312e-07 0.0 9.539215e-10 3.2712624e-08 1.326512e-06
2.1155414e-07 0.0 4.089013e-09 4.1098883e-08 1.2380808e-06 3.719559e-07 0.0 1.7380707e-09
3.194532e-08 1.219454e-06 3.3547906e-07 0.0 3.923522e-09 4.0775713e-08 1.1637361e-06 3.9899777e-07
0.0 2.664789e-09 3.0157807e-08 5.976266e-07 7.357543e-07 2.5903623e-07 0.0 1.7965847e-09
00000000: b10d cd34 f895 7833 0000 0000 d08e 422f
00000010: 91c3 1832 2565 e234 5d5c ee32 0000 0000
00000020: 48b9 902f bb89 0c32 0b61 b634 430a e533
00000030: 0000 0000 6094 0b2f f660 2132 8fc6 ed34
00000040: 2706 1432 0000 0000 7f56 972f 91b9 1132
00000050: d4f3 9134 9af5 4334 0000 0000 9c2b 932f
00000060: 1ac5 2532 b62b ec34 8413 9f32 0000 0000
00000070: 74c8 bf2f 4749 2932 c31b 8a34 4735 4234
00000080: 0000 0000 0feb b72f 24a7 1332 ac5e 1e34
00000090: 3dc3 1c36 b040 ff33 0000 0000 e34a c42e
000000a0: e536 4833 a6f9 1a36 2ac1 e333 0000 0000
000000b0: 620c a92f 63d0 4433 24fa 1436 bf55 b534
000000c0: 0000 0000 6d96 7a2f 5bb4 5b33 3fd8 1236
000000d0: 9fcb 9834 0000 0000 6860 1e30 175d 4f33
000000e0: 1a64 f235 adea 4735 0000 0000 a2b3 4630
000000f0: 077b 5633 ac5f 0736 f007 e534 0000 0000
00000100: d5bd 8130 6212 4333 1c9d d735 a004 6335
00000110: 0000 0000 ee51 e130 0866 4533 bf86 5435
00000120: 65a8 c235 79fd 9234 0000 0000 29af d130
00000130: afb5 4533 40c3 ba35 7faa 8f34 0000 0000
00000140: 41f0 c431 51fb 5833 6cb8 b135 a859 f634
00000150: 0000 0000 572b e430 43b6 2233 a630 b735
00000160: fcbf c134 0000 0000 9a11 de31 8e1f 7433
00000170: e6fb 9f35 1681 1b35 0000 0000 c88c 8730
00000180: 9492 1033 f927 b135 e047 da34 0000 0000
00000190: e3c2 dc31 1422 7933 23c9 9f35 6826 1235
000001a0: 0000 0000 410b c230 2bed 0533 c229 4035
000001b0: 0295 0736 ba53 3334 0000 0000 0cd1 2131
000001c0: d5de 5733 11ee 0c36 78a1 b033 0000 0000
000001d0: 9fc2 9c31 9023 4933 3b94 f735 a66e a734
000001e0: 0000 0000 efbf 6131 db52 5c33 0d06 0a36
000001f0: 52b7 ce33 0000 0000 f011 da31 267e 5133
00000200: 34ed d835 906b 1235 0000 0000 c5b4 0e32
00000210: 1d90 5333 9933 0036 6b31 6d34 0000 0000
00000220: 814f be31 31cd 4233 07d8 d735 3d6e 0835
00000230: 0000 0000 c714 2432 9e05 4333 e977 3b35
00000240: d9c8 b934 0168 1833 0000 0000 cb95 a430
00000250: 8e34 1532 8e74 b734 593a 0633 0000 0000
00000260: 3070 6e31 7c29 2932 2b64 b934 8baa 1333
00000270: 0000 0000 4799 db2f 853d ce31 4ee5 b434
00000280: 8a66 1133 0000 0000 941b 9131 72d9 3b32
00000290: ca8b b434 1328 3e33 0000 0000 9b5d de2f
000002a0: 7dbb b131 d2c5 b834 a36b e832 0000 0000
000002b0: 2657 7531 1d6e 3c32 f083 b234 879b 4c33
000002c0: 0000 0000 fc6f 7230 87fb ba31 bd04 2b34
000002d0: 0f08 5135 4b3d 1934 0000 0000 bbe0 8630
000002e0: ef28 1833 5197 5035 618d 2334 0000 0000
000002f0: 7e41 0931 3f55 1a33 97a6 3635 e509 7634
00000300: 0000 0000 e43e 3c2f a152 0d33 8875 4135
00000310: 33f2 5e34 0000 0000 cc77 7531 320d 2233
00000320: ffb1 2b35 8a31 9934 0000 0000 19d2 722f
00000330: d164 f632 566a 2c35 99ff 9834 0000 0000
00000340: 1cc1 b331 4cc8 1b33 7a44 2f35 bc9a 8d34
00000350: 0000 0000 1312 1930 a318 c932 c080 ac34
00000360: 13a1 be35 2cf6 0434 0000 0000 896a c630
00000370: 0a49 1f33 83c4 c035 6c84 cd33 0000 0000
00000380: 7f89 5b31 29ee 2533 b128 b135 e21c 8d34
00000390: 0000 0000 211b 8330 e97f 0c33 9b0a b235
000003a0: 8f27 6334 0000 0000 577f 8c31 b384 3033
000003b0: 222c a635 3bb1 c734 0000 0000 ede0 ee30
000003c0: 4034 0933 1fac a335 e41b b434 0000 0000
000003d0: aacf 8631 5f21 2f33 ab31 9c35 d635 d634
000003e0: 0000 0000 771f 3731 dc86 0133 966c 2035
000003f0: a780 4535 ab11 8b34 0000 0000 b4eb f630

exp_avg f4 [128]
3.4603134e-05 -0.00043734597 0.00039671373 0.00047613168 0.00013171587 -5.349854e-05 0.00026179952 0.0005147236
0.00061067654 -4.948128e-05 0.0005001722 4.076507e-05 0.00060493196 4.1595096e-05 0.00013774556 0.00010558654
-3.1026026e-05 0.00022695973 0.0004016882 0.00037449173 0.00036793976 0.00013350535 0.0006767031 -2.3588404e-05
0.00031719098 -2.0160549e-05 -0.00022521298 -0.0004661681 -1.0294215e-05 0.0014053463 3.3737513e-05 0.00058385485
0.0001515694 -0.00019941287 -0.00014906772 -0.0007327856 -0.0008236047 0.00020430837 0.00019667762 -4.7273234e-06
0.00051885104 -0.00010039941 -0.00012552716 0.00043447287 -8.1620834e-05 0.00046242002 0.0006206956 0.00019004152
0.00030553335 0.00014186173 0.00036977621 -9.18107e-06 0.00061762135 -3.016072e-05 1.8728896e-06 -0.00047767672
0.00021371618 4.280848e-05 0.0006983925 0.00027482578 0.00029790736 -2.5887533e-05 -0.0006994254 -7.115981e-05
7.026843e-05 0.0004401962 8.11346e-06 -0.00020456992 2.6609168e-06 0.00073156937 -0.00028796305 -1.954446e-05
-0.0006947387 -5.1773655e-05 -0.00078404864 2.4643487e-05 0.00038393997 0.0006004696 0.00027878754 0.00013555904
0.00018896577 -0.00079817727 0.00028503264 0.00027158376 0.00023760897 -0.00015929247 0.00017990547 -0.00064945675
0.00068228354 0.00037696527 -0.00090827566 0.0005724842 -9.0527574e-05 1.1641191e-05 0.00023456577 -0.00072031276
0.00026682124 0.00015793645 0.00023270652 -0.00031695812 -5.590273e-05 0.00040320042 -0.0006988841 0.00010826353
-0.0002929663 -0.0005697906 0.0006749567 -0.00035117482 1.1999247e-05 -0.00066040474 0.000778764 9.13182e-05
-6.931378e-05 0.00045716946 -0.0001780468 -0.00019026811 0.000102301376 -0.00050304027 0.00078806956 0.00025070927
0.00040392258 -0.0006939654 -0.00043022772 9.84794e-05 0.00047080743 0.00037930603 0.000132556 -3.8841397e-05
00000000: d522 1138 954b e5b9 04fe cf39 50a1 f939
00000010: 361d 0a39 9f63 60b8 2342 8939 84ee 063a
00000020: cf15 203a 1f8a 4fb8 fd1d 033a 29fb 2a38
00000030: 4c94 1e3a 6576 2e38 cb6f 1039 586e dd38
00000040: f121 02b8 0afc 6d39 ad99 d239 6e57 c439
00000050: 0ae8 c039 92fd 0b39 c764 313a b6df c5b7
00000060: a74c a639 731e a9b7 2627 6cb9 0668 f4b9
00000070: 51b5 2cb7 9933 b83a 6181 0d38 d60d 193a
00000080: 9aee 1e39 7c19 51b9 104f 1cb9 6918 40ba
00000090: 2de7 57ba 9c3b 5639 3f3b 4e39 669f 9eb6
000000a0: 8103 083a 868d d2b8 f19f 03b9 f6c9 e339
000000b0: da2b abb8 f770 f239 2db6 223a e245 4739
000000c0: fe2f a039 b8c0 1439 86de c139 6508 1ab7
000000d0: dee7 213a a701 fdb7 ff5f fb35 af70 fab9
000000e0: 0019 6039 418d 3338 5414 373a 7e16 9039
000000f0: 7330 9c39 0e29 d9b7 a559 37ba a23b 95b8
00000100: 135d 9338 22ca e639 0c1f 0837 d281 56b9
00000110: 3492 3236 cac6 3f3a bff9 96b9 69f3 a3b7
00000120: 201f 36ba 8a27 59b8 9d88 4dba 7cb9 ce37
00000130: 8d4b c939 d568 1d3a 3b2a 9239 da24 0e39
00000140: 1d25 4639 c53c 51ba 6f70 9539 5b63 8e39
00000150: ac26 7939 bf07 27b9 02a5 3c39 4e40 2aba
00000160: 46db 323a 6ca3 c539 5919 6eba c412 163a
00000170: 9fd9 bdb8 894e 4337 c5f5 7539 5fd3 3cba
00000180: 24e4 8b39 be9b 2539 ae02 7439 662d a6b9
00000190: 1979 6ab8 a564 d339 5135 37ba 8a0b e338
000001a0: 4599 99b9 005e 15ba 94ef 303a e31d b8b9
000001b0: 6050 4937 031f 2dba f825 4c3a 1682 bf38
000001c0: 8d5c 91b8 3fb0 ef39 13b2 3ab9 b582 47b9
000001d0: a28a d638 76de 03ba 7496 4e3a a171 8339
000001e0: 92c5 d339 3beb 35ba 3090 e1b9 ba86 ce38
000001f0: b4d6 f639 98dd c639 bbfe 0a39 a2e9 22b8
