Assets/results/T2/CarDriver/CarDriver-146720.onnx (onnx, 192065 bytes, 9 tensors)

discrete_act_size_vector f4 [1, 2]
000000 00 00 40 40 00 00 40 40
       3.0 3.0

network_body._body_endoder.seq_layers.0.weight f4 [128, 231]
000000 a5 38 9b 3d 88 4a 33 bc 7b 19 ab bd 77 ed 88 bd
       0.075791635 -0.010943063 -0.083544694 -0.06685918
000010 31 60 61 3d 0f 99 cb bd da d3 0c be 13 6a bb bc
       0.055023376 -0.09941303 -0.1375269 -0.022877729
000020 d4 70 7b 3d 00 bc 81 3d 8c 07 a8 3d 96 e5 63 bc
       0.0613869 0.06334686 0.082045645 -0.013909718
000030 b3 0b f3 3d e6 3d e8 bd af 0c 7d bc 47 97 7b bc
       0.11867466 -0.11339931 -0.015444919 -0.015355892
000040 dd 38 bd 3c e4 d6 82 bd 2c 09 dc bd ae 5e b2 3d
       0.023098404 -0.063886434 -0.10743937 0.08709465
000050 15 d0 a0 3d cc a5 0b be 5e d9 88 bd 2f 50 3e be
       0.078521885 -0.13637465 -0.066820845 -0.18585275
000060 9e de 00 3d 34 bd 8b 3c 94 b0 b0 3d c5 6f 1a be
       0.031462304 0.017057993 0.086274296 -0.15081699
000070 51 89 e5 3d 66 22 32 bd 4c b0 8c 3d 62 ac 23 3c
       0.11207832 -0.043489836 0.068695635 0.00998983
000080 a0 68 8f 3c 6c 08 84 bd 18 e5 43 3d 7a 52 74 bd
       0.017505944 -0.06446919 0.047825903 -0.05964897
000090 43 3a d4 3d 03 77 a0 3d 9b b7 b2 bc ba 2b 20 3a
       0.10362675 0.078352 -0.021816066 0.00061100314
0000a0 f5 ca 07 bd da 2e 3e bd e0 30 a1 bd 3e db b3 3c
       -0.03315254 -0.0464314 -0.0787065 0.021955129
0000b0 92 2f dd 3d c5 1a fb bc 9f 03 5a bd ee 7e 0b 3e
       0.10800089 -0.030652413 -0.05322611 0.13622639
0000c0 28 19 e1 3c 12 bd d5 bd b5 37 19 bd 3d 4c 04 3c
       0.027477816 -0.10436453 -0.037406642 0.008074817
0000d0 e6 31 cc 3d be b8 fd bd 57 8c 56 3d 42 46 bd bd
       0.09970455 -0.123887524 0.052379932 -0.09241916
0000e0 57 0f b7 3d db 90 7b bc 9c 6f 0c be bb 55 16 bd
       0.08938473 -0.01535436 -0.1371445 -0.036702853
0000f0 5e 04 1b 3e b6 cb 9e bc 45 02 f7 bd 62 79 81 3d
       0.15138385 -0.019384246 -0.1206098 0.0632198
000100 f8 40 58 3c 3f 3e 50 bc d3 3e 3c be ad ed c7 3c
       0.0131990835 -0.012710153 -0.1838334 0.024405325
000110 1e 83 ed 3d 46 ac e3 bc 7b 31 b4 bc 6b 93 54 bd
       0.11597274 -0.027792107 -0.02199625 -0.0518984
000120 ed df 89 3c 76 e2 d8 bd f2 eb f2 bc b8 4e 5f 3d
       0.016830409 -0.10590069 -0.029653523 0.05451843
000130 72 da 75 3d 10 7b ac 3d cc 80 21 bd 28 f4 db bc
       0.06002278 0.0842191 -0.03942947 -0.026849821
000140 03 85 ba bc 04 85 36 bd 3a f9 5f 3d 57 d5 f4 bc
       -0.022768503 -0.044560447 0.05468104 -0.029886885
000150 97 15 f4 3d f5 7a 34 3d 55 b8 0e bd d6 55 9e bc
       0.119181804 0.044062573 -0.03484376 -0.01932804
000160 63 8b c7 bc 20 61 0a 3d 70 b5 a8 bc db cb 00 be
       -0.024358457 0.033784032 -0.020594329 -0.12577765
000170 8a 22 5a bc 48 43 25 bd 50 a8 88 3b ba ac fd 3c
       -0.013313899 -0.040347368 0.004170455 0.030966152
000180 38 20 d9 3d cc e6 ea 3d 47 2b be bd 3f 0d 0f be
       0.10601848 0.11469802 -0.09285598 -0.13969897
000190 bd df 99 3d 09 a1 10 3d 56 0e 15 bd 87 72 cc 3d
       0.07513378 0.035309825 -0.036390625 0.09982782
0001a0 0f e2 1a 3d 8b bb 23 bc c1 e1 3d be ad 78 ed 3b
       0.037813243 -0.009993444 -0.1854315 0.0072470517
0001b0 81 bb e3 3d eb de eb bd b1 aa a6 3d 5b 33 ef 3c
       0.11119748 -0.115171276 0.081380256 0.029199293
0001c0 3c a7 8a 3d de 34 8b bd ac 89 14 bd 80 26 8e bb
       0.06770179 -0.06797193 -0.036264107 -0.0043380857
0001d0 1e 1b 8a 3d 1d ee 5e 3c ad 34 f3 bc 5f 4e a0 bd
       0.067434534 0.013606575 -0.029688204 -0.07827448
0001e0 dc 81 03 3e 85 fd b7 bc 82 60 11 3c 7f 1d bb 3d
       0.12842506 -0.022459755 0.008873107 0.09136485
0001f0 9e 2c 2f 3e e9 63 80 3d ff e3 1b be 26 b1 94 bd
       0.17106864 0.06269056 -0.15223692 -0.07260351
000200 2d 2c 88 3d 8e 1c 8f 3c 02 e4 7a bd 9e aa eb bb
       0.06649051 0.01746967 -0.0612526 -0.00719197
000210 8d f5 1b bd 2a 66 ef 3b f3 d5 41 bd 4a df e6 bd
       -0.038075972 0.00730588 -0.04732318 -0.11273058
000220 9a 17 8f 3d 5a f1 38 bd 91 35 12 bd 83 46 66 bd
       0.069869235 -0.045152046 -0.035695616 -0.05621959
000230 b6 30 28 3e 6a 70 86 3d 07 95 42 bd 22 2a b9 3d
       0.16424832 0.0656441 -0.047505405 0.09041239
000240 7b 6f 8f 3d 0b 1d f6 3c a3 ed 11 be 9a 65 08 bd
       0.07003685 0.030043146 -0.14250807 -0.03330002
000250 88 04 7b 3d 24 ae c3 3a bb 60 70 bd b7 33 9c bd
       0.06128362 0.0014929217 -0.058686 -0.07627051
000260 93 27 06 3e 41 45 3e bd 8a 37 3f bd 11 b5 8f bb
       0.13101034 -0.046452764 -0.046683826 -0.0043855985
000270 ad 0a 0f 3d b1 e7 d1 bc 05 34 9e bd 8c 1c 56 3d
       0.03492229 -0.025623174 -0.07724766 0.05227332
000280 c7 e7 22 3e f9 bd 49 3d 98 4e 87 bd 77 14 4b 3d
       0.15908729 0.049253438 -0.066067874 0.049580064
000290 1b 0b ba 3b 67 ef 09 bb 36 36 07 3d c2 09 25 bd
       0.0056775934 -0.0021047236 0.033010684 -0.04029251
0002a0 08 fc 95 3d 45 94 03 3d f1 f5 3b bc 89 56 bf bc
       0.07323462 0.032123823 -0.011472211 -0.023356693
0002b0 55 5c cd 3c 10 31 3c 3d 34 70 97 bd 0a c7 ca bd
       0.025068441 0.045945227 -0.07394448 -0.09901245
0002c0 0e 93 1a 3e 15 6d 82 bd 5a 0f 12 bd ca c0 14 be
       0.1509516 -0.06368462 -0.03565917 -0.14526668
0002d0 ef 05 1d 3e 8a 20 06 3d cc 29 69 bd 4d 26 a2 bd
       0.15334295 0.032745875 -0.056924626 -0.079174615
0002e0 16 0d 1a 3e 8c a6 70 bd 51 f7 13 3c ba 81 4c bd
       0.15044054 -0.05875258 0.009031133 -0.049928404
0002f0 55 86 9a 3d 12 fe fe bb 63 93 09 bd e8 9e 08 be
       0.07545153 -0.0077817524 -0.033587825 -0.13341868
000300 4f c4 cd 3d f3 56 ee bd f0 92 e8 bc c2 86 b9 bc
       0.100472085 -0.11637678 -0.028390378 -0.022647265
000310 0a c1 a5 3d ce 2a 08 bd f8 18 07 be ad 10 93 3c
       0.0809346 -0.033243947 -0.13193119 0.017952288
000320 56 63 48 3d 2b 8b a1 3c 4f 6e a3 bd d0 96 00 be
       0.04892286 0.01971968 -0.07980024 -0.1255753
000330 11 27 c4 3d 21 bd 8c 3d 3b 37 30 bd ab 12 03 3d
       0.09577764 0.06872011 -0.043021422 0.032000225
000340 49 64 b7 3d 2a 17 65 bc 27 81 e2 bc a3 46 e6 3d
       0.08954675 -0.0139825735 -0.027649475 0.11243942
000350 79 c8 8d 3d 34 96 8a bd 3f 06 94 3a 78 3a d4 bd
       0.06923003 -0.0676693 0.0011293365 -0.103627145
000360 4b ed 05 3e ad dd 55 3c d4 03 ba bd d2 6d 4f bd
       0.13078801 0.01305334 -0.090827614 -0.050641842
000370 c1 9d 87 3c 9e 3f c8 bd 05 b4 5e bd 9b 56 87 3d
       0.016554715 -0.09777759 -0.0543709 0.066083156
000380 12 aa 92 3d 78 3b a1 bc 35 45 25 bd 62 37 38 be
       0.071613446 -0.019681677 -0.040349204 -0.17989877
000390 7e 90 3d 3d ed bf 46 bd 61 c7 c0 bd 64 55 1b 3e
       0.046280377 -0.04852288 -0.094130285 0.15169293
0003a0 48 11 3b 3b a8 3b 9b bd cd 83 ce bd 3f 82 4c 3c
       0.0028544236 -0.07579738 -0.10083733 0.012482225
0003b0 ec 01 b5 bc 17 85 0c bd ba ae 95 3c 93 a4 de 3c
       -0.022095643 -0.034306612 0.018271793 0.027178084
0003c0 bd e7 11 bd 97 9b a9 3d d4 22 cf bd 92 55 8b 3d
       -0.035621393 0.082816295 -0.10114065 0.068034306
0003d0 cd e8 0b 3e 30 80 28 bd c8 bc d9 bc f0 bd 1e bd
       0.13663025 -0.041137874 -0.026579276 -0.038755357
0003e0 be 49 00 3e b3 df 0b bd 1a 62 12 3d 34 5f 14 bc
       0.1252813 -0.034148883 0.03573809 -0.009055901
0003f0 9f 5e 5c 3b 31 35 16 3d f0 44 e1 3d 0c e1 0e 3c
       0.0033625735 0.03667182 0.10999477 0.008720648

network_body._body_endoder.seq_layers.0.bias f4 [128]
000000 b1 85 c7 bb 57 97 cb b1 29 9b 36 39 65 4f df 3a
       -0.0060889353 -5.925283e-09 0.00017414674 0.0017037211
000010 d5 b1 e3 1f 26 57 67 bb 05 02 fb 10 97 d4 98 bb
       9.643244e-20 -0.0035299747 9.9005155e-29 -0.0046640146
000020 5c ac da 21 00 00 00 00 fc 33 ae bc 66 61 f0 ba
       1.4817878e-18 0.0 -0.021265022 -0.0018339574
000030 93 54 d8 2f f6 98 ba 2f d6 b2 01 af 24 61 9b 2c
       3.9350265e-10 3.3941888e-10 -1.1796017e-10 4.4161497e-12
000040 6d 8d b9 bb 5f 71 fe bb 14 0a 29 ba 54 43 f1 a3
       -0.005662611 -0.0077649797 -0.000644834 -2.6157787e-17
000050 ca 47 c7 bb 23 20 1f bb 0e 17 0f bc 00 00 00 00
       -0.006081556 -0.002428063 -0.008733524 0.0
000060 2d 14 14 20 74 04 0f 3a af 71 fd a6 db 07 1d bb
       1.2542763e-19 0.00054556807 -1.7586216e-15 -0.002396098
000070 ce 1e d2 ba e5 b0 91 3a 06 3d 31 bb 9a cf 19 bb
       -0.0016030909 0.0011115341 -0.002704443 -0.0023469687
000080 fb f6 06 a8 ad ea 92 bc 3c 85 83 bb 0e a6 c6 ba
       -7.49205e-15 -0.017934168 -0.0040136855 -0.0015155689
000090 00 00 00 00 e4 46 6f 19 28 74 10 bc df c1 57 3a
       0.0 1.2370327e-23 -0.008816756 0.0008230488
0000a0 4c 98 c7 2b 59 00 6f bb a2 69 e9 bb 6f 5a da ba
       1.4182071e-12 -0.0036468713 -0.007123188 -0.0016659031
0000b0 da 8e 11 bc 4d 21 1b bb fc a5 0b b9 21 ac 24 bc
       -0.008884156 -0.0023670972 -0.00013317907 -0.010050804
0000c0 ac 39 a0 3a 1f 11 24 bb c1 91 c7 27 e6 5e c9 35
       0.0012224219 -0.002503462 5.5391622e-15 1.5003286e-06
0000d0 51 37 cf 13 f1 ee 11 3a bf 09 44 33 ba 51 12 9b
       5.2308693e-27 0.0005566916 4.564367e-08 -1.2103244e-22
0000e0 a1 c3 98 29 4a ec 68 3b 72 24 95 b5 e4 dd c5 ba
       6.784092e-14 0.003554123 -1.1111972e-06 -0.0015096036
0000f0 8d 73 0b ac 41 a2 08 34 30 5d dc bb f6 8e a6 bb
       -1.9817232e-12 1.2725015e-07 -0.006724976 -0.0050829602
000100 c1 1d 39 bb f5 c8 90 ba 27 55 7f b7 0b a3 15 2f
       -0.0028246494 -0.0011046218 -1.52190105e-05 1.3609396e-10
000110 19 45 17 09 69 09 a1 bc 93 f3 e7 bb 55 e7 0f 3b
       1.8208453e-33 -0.019657807 -0.007078597 0.0021957953
000120 41 95 02 bb 94 ed 6f bb 61 ec 33 a6 18 7b 4b ba
       -0.0019925388 -0.0036610113 -6.2423454e-16 -0.0007762178
000130 de 2a 11 a7 f1 cf 99 28 8f a2 1e b6 b4 32 cc 22
       -2.014603e-15 1.7076592e-14 -2.3638456e-06 5.5347995e-18
000140 23 ea 65 aa eb d4 c1 b7 0b 9d fc 9a 98 e4 d7 bb
       -2.0420518e-13 -2.310654e-05 -1.04478474e-22 -0.00658853
000150 27 66 89 13 13 5a b4 bb 3e 66 0c bb bb 23 01 bc
       3.4684392e-27 -0.0055039017 -0.0021423246 -0.007882054
000160 b4 2e 19 bb b1 85 58 bc b1 fc 55 b6 3d d2 c1 3a
       -0.0023373784 -0.013215468 -3.188656e-06 0.0014787387
000170 20 eb 92 bb e3 35 60 9d 3b cf a3 bb 1e d4 f5 ba
       -0.0044835955 -2.9674012e-21 -0.004999069 -0.0018755232
000180 ac 92 e4 1a 94 ea a1 bb ea de db 39 3a b4 82 bc
       9.453555e-23 -0.004941294 0.0004193702 -0.01595508
000190 03 6f b5 0b e4 cd ad 9e ee 02 95 85 00 00 00 00
       6.9885696e-32 -1.8402242e-20 -1.4012969e-35 0.0
0001a0 8c d6 b4 b6 ca 11 4b b9 00 00 00 00 e5 7e bc bb
       -5.3893946e-06 -0.00019366216 0.0 -0.0057524317
0001b0 e5 e9 38 3b 3e f8 16 18 d2 b3 12 11 00 00 00 00
       0.0028215584 1.9512376e-24 1.1572781e-28 0.0
0001c0 95 fd 63 3b b2 33 c4 33 ec 10 10 3b 51 5b 57 3a
       0.0034788598 9.1363646e-08 0.0021982742 0.00082152063
0001d0 45 17 f7 bb ec ee 0a bc 21 d0 3f 25 da 77 53 16
       -0.0075406157 -0.008479815 1.6637126e-16 1.7082263e-25
0001e0 23 2c ac aa 0c f9 bf b9 c9 43 a3 af 86 cc aa bb
       -3.0583964e-13 -0.00036615913 -2.9697692e-10 -0.0052123694
0001f0 03 79 9a bb 11 93 e3 bb d9 34 0e ba 00 00 00 00
       -0.0047141328 -0.006945022 -0.0005424745 0.0

network_body._body_endoder.seq_layers.2.weight f4 [128, 128]
000000 24 24 c6 3b d4 65 5f bd 04 4f be 3d df f4 82 3d
       0.0060467888 -0.05454047 0.09292415 0.06394362
000010 17 c9 5e bd b4 71 68 3d df 79 86 bd 3e 78 78 bc
       -0.054390993 0.05674906 -0.06566214 -0.015165387
000020 15 37 71 3d d3 52 a6 3d b7 8d 9b bd 66 2f 55 ba
       0.05889042 0.08121266 -0.07595389 -0.0008132368
000030 6f ca 92 3d 5c 84 8d 3d f7 80 a2 3d 1f e4 fb 3d
       0.071675174 0.06910011 0.07934754 0.1229937
000040 dd 72 1d bd 32 ce 40 3e f9 a9 3d bd 6b 18 9a bd
       -0.03843962 0.18828657 -0.046304677 -0.075241886
000050 7d d0 cf 3d 07 d9 ab 3d 6d 53 37 3c 03 06 86 3d
       0.10147188 0.08391004 0.011189324 0.065441154
000060 fa d3 ee bd ab 35 02 3d 98 29 22 3d c9 56 49 3d
       -0.11661525 0.031789463 0.03959045 0.04915503
000070 cc ac 03 3c 3b 33 2f bd fe ab b2 3b 60 f4 d0 bd
       0.008036803 -0.042773467 0.005452632 -0.10202861
000080 30 67 f3 bc 10 17 1d bd 2b c8 ee bd 94 3e 80 bd
       -0.02971229 -0.038352072 -0.11659273 -0.06261936
000090 c9 f5 4a bd 93 8d af bc bd 51 34 3d c1 b4 02 3e
       -0.049550805 -0.021429813 0.044023264 0.12764265
0000a0 b3 0b b7 3d a7 67 db bd 4b 27 81 3c 96 9f ad 3b
       0.08937778 -0.107131295 0.015765807 0.005298565
0000b0 f2 5c 5d bc de 1d 69 3d eb 15 19 bd 54 ab 7e 3d
       -0.013510929 0.05691325 -0.03737442 0.06217511
0000c0 e7 dd f2 bd 54 9e a7 3d c1 de af 3d 67 23 9a bd
       -0.11858731 0.081844956 0.08587409 -0.07526284
0000d0 94 76 cd bb 05 a5 83 3d d8 58 e8 bc 8a 31 15 bd
       -0.006270239 0.06427959 -0.028362677 -0.036424197
0000e0 ad f0 d0 3d c3 a1 c9 ba c0 a5 7a 3c 13 20 49 3d
       0.10202155 -0.0015383292 0.015298307 0.049102854
0000f0 7c 0d ec bc c8 ad 87 be 3c 58 99 bd 2a e9 30 3e
       -0.028815024 -0.26499772 -0.074875325 0.17276445
000100 59 49 c4 3d eb 7c 3c 3d 71 5e bb 3d 11 d6 f3 3d
       0.095843025 0.04601757 0.09148873 0.11906064
000110 f2 16 09 be 9e 18 30 3d 5f bd 28 bd 48 52 5b bc
       -0.13387659 0.042992227 -0.041196223 -0.013386317
000120 a5 d3 75 bd dd 42 e2 bd 0b 7e ca bd a5 d7 8c bc
       -0.060016293 -0.110479094 -0.09887322 -0.017192671
000130 d0 08 9e bd 8a c1 fc bc ca 37 72 3b 57 9a 77 3c
       -0.077165246 -0.030854005 0.0036959522 0.015112481
000140 b0 56 0f 3d c4 59 19 3c 70 c5 b4 3c 85 ac b9 3a
       0.03499478 0.009359781 0.022066802 0.0014165795
000150 44 8f 8b 3c b6 d6 69 bd 24 1e 2f bd c5 8d a4 3c
       0.017036088 -0.05708953 -0.042753354 0.020087132
000160 ec a8 6d 3c 5b 04 44 3e 1a ec 17 3e bf ce c4 bd
       0.014505606 0.19142286 0.1483616 -0.09609746
000170 a1 0e ba bc 1b cc 72 3d 03 5e ab 3c 42 e7 17 be
       -0.022712054 0.05927668 0.020918852 -0.14834312
000180 50 64 09 bd 1a 02 ef bc 34 5c 41 be 7e 9a 24 bd
       -0.03354293 -0.029175807 -0.18882829 -0.040186398
000190 e9 ea 13 3d cc 45 ae bd 20 b1 df bd 14 f6 77 bd
       0.0361127 -0.085094064 -0.10922456 -0.060537413
0001a0 8c d5 98 3b d4 93 ac 3c df dd 04 bd d1 09 34 3e
       0.0046641286 0.021066584 -0.032438155 0.1758187
0001b0 fb ca fb 3c 15 3c b2 3c 47 b8 de 3d 19 27 39 3c
       0.030736437 0.021757165 0.10874992 0.0113008255
0001c0 84 82 24 be a2 ff 25 bd 63 6f 52 3d b4 bb 2f bd
       -0.16065413 -0.040526994 0.051375758 -0.042903617
0001d0 be ac bf 3c 9f a9 1c bd 31 ad 76 3e 60 8b e7 bc
       0.0233978 -0.0382477 0.24089505 -0.028264701
0001e0 d6 49 04 bd d8 a3 bc 3c 6d 19 a8 bc 04 ed 68 bd
       -0.032296978 0.023027346 -0.020519936 -0.05686666
0001f0 ad 02 f0 bd 24 08 4b 3c 4e c3 43 be 27 7b d0 3c
       -0.1171926 0.012392078 -0.19117472 0.025449349
000200 26 fd a3 3d b2 f3 dc 3c 4f 06 54 3e 01 02 b6 3d
       0.080072686 0.026971672 0.20705532 0.08887101
000210 c7 5f 80 bd 39 09 6c bd bf 35 7c bd 6f 7b 63 bd
       -0.06268268 -0.057625983 -0.061574694 -0.055537637
000220 20 6a a7 bd cb 79 11 bd 3c bf d7 3d af 51 fe bb
       -0.081745386 -0.03551654 0.10534522 -0.0077612023
000230 c4 9d c5 bb 49 d8 18 3e 84 54 1f 3c 56 c2 00 3d
       -0.00603077 0.14926256 0.00972474 0.031435333
000240 9b b6 53 3d e6 eb df bd 6e af 6f 3d 15 2a 83 bd
       0.051687818 -0.10933666 0.058516912 -0.06404511
000250 03 17 88 3d 58 f5 8a bd ad a2 74 bd 0d fa 8b 3d
       0.06645014 -0.06785077 -0.059725452 0.06834803
000260 51 0d 04 bd 4c a4 11 bd 0e ba fd 3d f0 c6 a7 bc
       -0.032239262 -0.035557076 0.12389003 -0.020480603
000270 5f 87 b3 3d c4 1e 1b bd 68 2c b3 3d 43 9d 89 3c
       0.08766054 -0.037871137 0.08748704 0.016798621
000280 21 27 ef bd 61 e9 43 bc 2b 58 16 be a9 70 e0 bd
       -0.11677385 -0.011957497 -0.14682071 -0.10958988
000290 a6 3d c8 bd 78 6c 30 3d e5 0d 33 be 3c 4f 53 3d
       -0.097773835 0.043072194 -0.17485769 0.051589236
0002a0 43 69 54 bd 54 76 5d 3c 2f ff 64 bd 80 59 b9 bd
       -0.051858198 0.013516981 -0.055907425 -0.09050274
0002b0 73 de a6 bd 46 df a2 bd ba 23 c2 3d d0 2c c3 bd
       -0.081478976 -0.07952742 0.094794706 -0.09530032
0002c0 6d a9 b1 3d 93 e6 b3 bb d1 7d d5 3d 71 6b 03 be
       0.086748935 -0.005490133 0.10424388 -0.12833954
0002d0 ec 94 f0 bc bb 16 56 bd c5 e1 de bc cc e3 e7 3d
       -0.029367886 -0.05226777 -0.027207265 0.11322746
0002e0 5f 92 5b 3d 9a d9 93 bd 1b b2 83 3b 3d 20 98 3d
       0.053606387 -0.072192386 0.0040190346 0.07428024
0002f0 31 70 ba 3c 53 be 7e bd 44 48 66 bd 63 aa a4 bd
       0.022758575 -0.062193226 -0.05622126 -0.08040311
000300 f2 ef d3 bd 8d 6e 7c bc 34 cf 77 3d 47 14 00 3d
       -0.103485 -0.015407217 0.06050034 0.031269338
000310 b1 64 99 3d 4b d0 12 3e 06 b1 19 bd f3 ee a7 bd
       0.074899085 0.1433727 -0.03752234 -0.08199873
000320 f4 68 08 3d 4d b9 88 3c 69 74 7f 3e 72 1e ef 3c
       0.033303216 0.01668992 0.2494675 0.029189322
000330 65 e4 94 3d 73 d1 be 3d c0 bc 2d bd 70 54 35 3e
       0.07270125 0.09317293 -0.042416334 0.17707992
000340 91 a0 35 be 49 f4 be bc 1d a8 e1 3d 97 a1 fb 3d
       -0.17737032 -0.023309844 0.11018393 0.1228668
000350 d2 45 a8 3d 52 7c 09 3e 9d da 4a bd f1 ca 6c 3d
       0.08216442 0.1342633 -0.049524892 0.057810728
000360 c0 1c 40 3d c2 3f 8f bc 86 d4 e8 bd eb 9f 84 be
       0.046902418 -0.017486457 -0.11368661 -0.25903258
000370 39 e6 cb 3b 88 fd ca bd 3e a7 fb bd 51 91 60 3d
       0.006222513 -0.099116385 -0.12287758 0.054826085
000380 2d 79 3b 3e 4f 62 93 bc d4 02 10 be 09 7f 4a bd
       0.18307944 -0.017991213 -0.14063579 -0.049437556
000390 97 99 ca 3d 16 c0 17 3e 25 82 f2 bc b8 39 3f be
       0.09892576 0.14819369 -0.029603073 -0.18674362
0003a0 95 eb 56 bc 48 bd 1b 3d 5a 93 e6 bd d5 1e 30 bd
       -0.013117691 0.03802231 -0.11258574 -0.042998154
0003b0 4d b9 19 bd f1 a2 95 3c e1 09 76 3b 83 77 f4 bd
       -0.037530232 0.018266173 0.003754251 -0.119368576
0003c0 6b fd 4d 3d c6 50 ab 3d 8d 58 9c bd c4 ad 2a bd
       0.050290506 0.08365016 -0.07634077 -0.041669622
0003d0 4c 41 73 3d f7 2c 8b 3d ba bd d1 bd df 6c 80 bd
       0.059388444 0.06795686 -0.102412656 -0.062707655
0003e0 fd 22 7f 3d 09 25 c0 ba 68 92 bd 3d 25 10 c6 3d
       0.062289227 -0.0014659475 0.092564404 0.09671048
0003f0 fb 7b ea 3d 13 1f e8 bc 47 2a 31 3b 9c f8 95 3c
       0.11449429 -0.02833513 0.0027033256 0.018307023

network_body._body_endoder.seq_layers.2.bias f4 [128]
000000 79 4d 77 bb a7 65 4f ba c5 df 1b b8 5b 1a 05 8c
       -0.0037735386 -0.0007911571 -3.716328e-05 -1.0253878e-31
000010 af 4f 1a 96 51 cd f0 bb 59 a1 e1 bb 00 00 00 00
       -1.2465165e-25 -0.0073486944 -0.006885689 0.0
000020 9b b0 2b b6 71 35 99 a0 70 08 3a ac dc a3 50 ae
       -2.5583784e-06 -2.5954573e-19 -2.6436874e-12 -4.743926e-11
000030 11 c8 e0 3a 6c 68 9d b8 6d 43 0e 98 91 5a 95 bb
       0.0017149468 -7.5057935e-05 -1.8387111e-24 -0.0045579155
000040 cf 21 a0 a4 0d 29 7c bb 43 9d 2f bc 0c f5 1d bb
       -6.944621e-17 -0.0038476617 -0.010718646 -0.0024102358
000050 e2 bb 80 ba 54 4c 9e bb ab 79 3e bc d6 d6 12 2d
       -0.0009821618 -0.0048308764 -0.011625688 8.346842e-12
000060 a7 de e3 b5 a3 e5 28 b7 64 5e 65 b7 24 ec c2 bb
       -1.6977618e-06 -1.0067047e-05 -1.3671441e-05 -0.0059485603
000070 5b 9b 53 bb 10 5c 82 ba c4 3e f5 bb 3c 97 ff ba
       -0.0032288644 -0.000994565 -0.007484289 -0.0019500027
000080 9b bb 16 bb a4 d0 e4 b9 68 1f 06 22 cc 5b 57 bb
       -0.0023000005 -0.00043642998 1.8177013e-18 -0.0032861112
000090 00 00 00 00 38 33 9f b7 f7 7a ad 28 01 2c 75 bb
       0.0 -1.8978128e-05 1.9260186e-14 -0.0037410262
0000a0 6b fd b3 bb 35 7d 43 bc cf 9f 79 26 62 2f 9b bb
       -0.0054928563 -0.011931707 8.660581e-16 -0.004735873
0000b0 2b 96 33 ac 64 d0 0f bb 00 00 00 00 00 00 00 00
       -2.552079e-12 -0.002194428 0.0 0.0
0000c0 5d 6f 5b bb a7 9d 41 1d 6c f3 67 ba d3 5c 90 b7
       -0.0033483126 2.5624842e-21 -0.00088482234 -1.7209362e-05
0000d0 3f 5a 93 ba 85 c0 05 bc 9d f4 91 bb 81 92 44 bb
       -0.0011242105 -0.008163576 -0.004454209 -0.002999455
0000e0 87 9a 80 bb 1a 67 2e bb 6d c6 2e bc 1f ab 1b bb
       -0.003924671 -0.0026611746 -0.010667426 -0.002375312
0000f0 e9 89 31 bb 0c 17 5a bb 51 41 19 2c 88 18 ba bb
       -0.0027090257 -0.0033277897 2.1778866e-12 -0.005679194
000100 d2 a5 85 98 2a 6b c7 bb fe 27 ca bb 6c 28 97 bb
       -3.454713e-24 -0.006085773 -0.006169318 -0.004612973
000110 d0 40 bd ba 63 1c d2 bb c3 a2 ca b2 01 f0 44 ba
       -0.0014438871 -0.0064120754 -2.358991e-08 -0.000751257
000120 5a 22 e5 a1 27 7a 29 97 02 e5 ef 9a c8 d4 b1 aa
       -1.5526736e-18 -5.4761023e-25 -9.9218065e-23 -3.1589163e-13
000130 3a e8 60 bb 00 00 00 00 ef 71 26 1c 10 17 7a ba
       -0.0034318105 0.0 5.507205e-22 -0.000954018
000140 cf d2 2a ba 1e 00 e7 39 bd eb 98 bb c5 98 12 bc
       -0.0006516398 0.0004405984 -0.004666774 -0.008947556
000150 7a a6 f9 34 dd ec a0 b7 ff d4 48 bc 8b 6d 95 bb
       4.6500992e-07 -1.9183784e-05 -0.0122578135 -0.0045601777
000160 df 70 87 bb bd a0 39 b5 42 4a 39 bb cc e9 f3 87
       -0.0041333283 -6.9151776e-07 -0.002827302 -3.669999e-34
000170 a9 c0 ac bc ea 84 8f bb d4 83 05 15 98 86 f5 af
       -0.021087961 -0.0043798583 2.696313e-26 -4.4660875e-10
000180 a3 8a 08 bc 7b 06 09 b0 fe 04 6f bc d9 47 54 bc
       -0.008333835 -4.984952e-10 -0.014588593 -0.012956583
000190 33 7f a7 14 2a 0a 85 b8 27 99 a5 bb 9f 93 50 bb
       1.6912862e-26 -6.3438274e-05 -0.0050536576 -0.003182627
0001a0 dc 54 83 28 04 89 10 bc ad bb 56 95 47 bf bd 1d
       1.4580724e-14 -0.00882173 -4.3365006e-26 5.022566e-21
0001b0 46 cd c5 9b 17 0c 7c bb f9 55 94 bb d5 0d 87 a5
       -3.272357e-22 -0.0038459355 -0.0045268503 -2.342814e-16
0001c0 6f 57 d8 bb 7c 95 80 b8 91 2e 1d 95 5c 02 15 bb
       -0.00660222 -6.131359e-05 -3.1742632e-26 -0.0022737002
0001d0 7a 2d d7 b7 2c b0 86 bb bd 4c 16 b8 2a 43 00 28
       -2.5651174e-05 -0.004110357 -3.5834255e-05 7.119991e-15
0001e0 9b 11 f5 bb 98 aa 17 9d c7 c5 88 29 dd e5 4e b9
       -0.0074789054 -2.0072879e-21 6.073922e-14 -0.00019731322
0001f0 ad 90 b4 bb ec c7 65 b0 8c a1 cf 1d 2f 5c b1 b9
       -0.0055104108 -8.359382e-10 5.495948e-21 -0.00033828753

action_model._discrete_distribution.branches.0.weight f4 [3, 128]
000000 61 a8 e5 3b 84 02 aa 3a fb 6e 13 3c a7 b8 a9 3b
       0.0070085977 0.001297072 0.008998628 0.005179483
000010 0d a6 26 bc 90 d3 b3 ba 43 5c c4 3b 83 ac 88 3a
       -0.0101714255 -0.0013719667 0.0059924438 0.0010427389
000020 0d 5d af bb f6 e4 8e 3b de 7b 11 3c 11 f7 4d 3a
       -0.0053516687 0.0043607904 0.00887963 0.0007856945
000030 e1 6c 66 bc 57 92 0c 3b 0e 58 b5 3b 20 8f 0f bb
       -0.014064045 0.002144953 0.0055341786 -0.0021905378
000040 f3 67 d5 ba 8f c5 00 3c 2e 04 27 3c c0 0e 27 3b
       -0.001628159 0.007859602 0.010193868 0.002549097
000050 cc f6 0a 3c 12 4f 03 3c 45 ab 1d ba c4 66 28 ba
       0.0084816925 0.008014457 -0.0006014596 -0.00064240047
000060 cb 51 f4 bb f5 76 f9 3b d4 a8 09 bb f0 04 7c bb
       -0.0074560395 0.0076130577 -0.002100517 -0.0038455091
000070 43 8d 31 bb f9 b5 0f bb 2e 77 8b bb ab 40 14 bc
       -0.0027092255 -0.0021928533 -0.0042561507 -0.009048621
000080 8c a3 7e 3c 62 20 40 bb 3a 21 6a bb 4b 45 14 3b
       0.015541922 -0.0029316177 -0.003572537 0.002262431
000090 5c 10 c4 bb 2a 53 17 ba eb 6b ca 3b 83 97 85 bb
       -0.0059833955 -0.0005772585 0.0061774156 -0.0040768995
0000a0 67 ac 20 ba a0 f2 5f bb 8b a4 01 bb 48 59 87 bb
       -0.00061292056 -0.0034171715 -0.0019781913 -0.004130516
0000b0 5b 33 45 bb 17 65 e8 bb 0f f8 cf ba 47 93 50 bc
       -0.0030090425 -0.007092129 -0.0015866774 -0.012730426
0000c0 3c 15 06 ba d8 ee a5 3c 91 b7 63 bc 77 e5 28 38
       -0.00051148585 0.020255491 -0.013898746 4.0268027e-05
0000d0 15 54 51 3c d4 93 42 bc 59 46 91 3b e0 dd e2 3b
       0.012776394 -0.011876065 0.004433435 0.006923422
0000e0 cb 59 8c 3b bf 1f 78 3a 74 39 10 bc ee 75 85 bb
       0.004283165 0.000946518 -0.00880276 -0.004072896
0000f0 fe 1c b9 3b af d3 1a 3b 70 35 26 3a 3d 28 1c 3b
       0.005649208 0.0023624708 0.000634036 0.0023827695
000100 69 72 1b ba 09 7f 23 bc ee dd 44 bc 6b 0f a7 bb
       -0.0005929829 -0.009979018 -0.012015803 -0.0050982735
000110 29 08 f2 ba d4 54 c0 3a 10 76 27 bb 38 24 77 bb
       -0.0018465567 0.0014673718 -0.0025552548 -0.0037710797
000120 5a 55 ed 3b e8 a3 6e 3c fd 85 31 3c 16 b3 98 3c
       0.0072428407 0.0145654455 0.010835168 0.018640082
000130 8b 4e 0f bc ff 25 fb 3b d2 00 54 ba e5 1e 0c 3b
       -0.008746753 0.0076644416 -0.00080872804 0.002138072
000140 c9 52 14 3b 4f b0 09 bc aa da 07 3b ad de d7 bb
       0.0022632352 -0.008403852 0.00207297 -0.0065878243
000150 5c b1 35 bb 41 1a d4 3b ec c2 40 bb 4e 8e 67 3a
       -0.0027724123 0.0064728563 -0.0029413057 0.0008833156
000160 7f 8b 08 3c e1 8e db bb 7c b3 ff bb cf f3 37 bb
       0.00833404 -0.006700382 -0.0078033786 -0.0028068905
000170 30 46 47 bc 4d 05 3d bc 78 08 5c 3c de c2 bb 3b
       -0.01216273 -0.011536908 0.0134297535 0.005730017
000180 a6 1e bb ba 4f cb 2a bc 5b 04 f9 3b 3c 14 b0 bb
       -0.0014276102 -0.010424449 0.007599396 -0.005373506
000190 92 bd 9b bb b2 67 e0 ba cf 02 33 3c 30 1a 5c bc
       -0.004752823 -0.0017120747 0.010925963 -0.013433978
0001a0 f6 3e cb bb 01 fe 82 bc d7 d1 0a bc d1 93 aa 3a
       -0.006202574 -0.01599026 -0.008472881 0.0013014023
0001b0 9b e5 24 bc 37 9f a5 bb dd 84 e3 bb d5 da 73 3b
       -0.010064508 -0.0050543803 -0.006943329 0.0037209291
0001c0 16 6d 02 3c 03 99 b8 ba eb 5a 93 bb 98 cc 56 bc
       0.007960578 -0.0014083687 -0.0044969223 -0.013110302
0001d0 3d ef 2e 3c 09 d3 83 bb af bc f2 bb 17 af d0 3b
       0.010677156 -0.00402296 -0.0074077467 0.0063685286
0001e0 9c ac 22 bc ed 68 d7 ba d7 6e d1 ba 7c 58 bd 3c
       -0.009928849 -0.0016434469 -0.0015978467 0.023113482
0001f0 12 4f bb 3a 94 ec 8d ba 18 17 f4 ba d4 e7 4f bc
       0.0014290533 -0.0010827952 -0.0018622605 -0.0126895495
000200 11 f0 89 b9 b6 70 39 3c bd b4 80 3b f4 4e 81 bb
       -0.0002630954 0.011318376 0.0039277957 -0.0039461795
000210 1a 1d 7a 3c 3f 5c bc 3b ea a9 cd bb 3d aa 9c 3b
       0.015265727 0.0057483013 -0.006276359 0.004781036
000220 aa 0a 74 3c 97 56 e9 bb fb 55 84 3c 43 06 72 b8
       0.014895121 -0.007120918 0.01615428 -5.7703128e-05
000230 da c2 34 bb 78 75 15 bc 63 fa f6 3b c3 d9 10 3c
       -0.002758196 -0.009122245 0.0075371726 0.008840981
000240 0b 64 13 3b c6 21 ef bb 24 3c 56 3c 6d df e6 bb
       0.002249005 -0.0072977273 0.013075862 -0.0070456774
000250 15 c5 fa b9 e3 58 8e 3b 60 27 b2 3a 13 28 e7 bb
       -0.00047830553 0.004344092 0.0013592057 -0.0070543378
000260 73 bc 36 bc 33 21 d1 ba 74 18 5d 3b af 70 b4 ba
       -0.011153328 -0.0015955329 0.00337365 -0.0013766492
000270 f1 4f 06 3b a6 49 98 bc f0 03 25 bb 41 f5 19 3b
       0.0020494426 -0.018589806 -0.002517935 0.002349213
000280 0b 21 82 3a 60 a9 8b 3b 3d e7 89 ba 05 94 83 bb
       0.000992806 0.0042621344 -0.0010521185 -0.004015448
000290 05 65 cb 3a 40 c3 cb 3b 5a c2 e4 bb 26 68 c4 b9
       0.0015517777 0.006218344 -0.0069811763 -0.0003746163
0002a0 f4 71 a4 3a a6 12 b6 ba fb e3 2d 39 6c eb 87 bc
       0.0012546168 -0.0013891056 0.00016583495 -0.01659175
0002b0 aa 48 08 3c 87 e1 b3 ba 52 39 ee bb 5f 6c 88 3c
       0.008318106 -0.0013723829 -0.0072700167 0.016653238
0002c0 e9 56 b5 bb ab 6e 1c 3c 0d 78 9f ba 17 53 84 3b
       -0.005534042 0.00954787 -0.0012166515 0.0040382254
0002d0 fb 12 f3 3b 79 bc 1d 3b bb 70 ba ba e1 f9 9b 3b
       0.007418034 0.0024068637 -0.001422427 0.0047600125
0002e0 d2 7d 99 bb a7 0f f0 b9 6f e3 b8 3b 09 72 fb 3b
       -0.0046841884 -0.0004578803 0.0056423466 0.007673506
0002f0 70 df 88 bb c7 b0 f5 bb 5f b4 89 bb 98 96 7d ba
       -0.0041770265 -0.00749788 -0.00420241 -0.00096736243
000300 ad ee a0 bb 61 b6 6b bc 25 44 d2 bb a2 02 9a 3b
       -0.004911265 -0.014386744 -0.006416815 0.004700021
000310 46 4c 96 bc f0 b0 b5 bb 32 cf 67 3b b2 49 8d 3c
       -0.018346917 -0.0055447742 0.00353713 0.017247055
000320 37 35 96 ba 23 d8 2b 3c 37 87 5f 3c 5e f7 a6 bb
       -0.0011459951 0.010488543 0.013643078 -0.0050954064
000330 e9 cd 23 bc 0b fb a7 3c fa ff 37 3c a9 f2 ff bb
       -0.009997823 0.020505449 0.011230463 -0.0078109098
000340 a3 f5 94 3b 1e 22 ad 3b 66 c3 d7 ba 6f 8f f4 bb
       0.0045458837 0.005283608 -0.0016461432 -0.0074633877
000350 5a 56 20 3b f7 25 19 3b ad f8 7e 3b e4 21 21 3c
       0.0024465532 0.0023368576 0.0038905547 0.00983474
000360 79 35 05 bc b2 d7 12 bb ce ff ef bb 2b 25 25 bc
       -0.008130425 -0.0022406396 -0.0073241955 -0.010079662
000370 0c 44 03 bc bd a6 09 bc 77 8d 54 3b 14 ac cc 3b
       -0.008011829 -0.00840157 0.0032432952 0.0062460992
000380 55 f1 b3 bb f0 4d a3 3a 96 8c 96 3a d2 c7 39 b8
       -0.0054914155 0.001245914 0.001148599 -4.4293534e-05
000390 dd 6e 5b 3c d4 d7 3f 3c 72 7f 5e bc 12 19 1b 3c
       0.013393131 0.011709172 -0.01358019 0.009466426
0003a0 70 7b e9 bb 09 07 84 3b 45 06 f2 bb ec 20 24 bb
       -0.0071253106 0.004029159 -0.0073860013 -0.0025044037
0003b0 17 df a5 bb 56 a9 51 3b c5 9a 53 bc 8a 60 67 3c
       -0.005061995 0.0031991801 -0.012915318 0.014122138
0003c0 d5 61 5d bc b2 71 ac 3b ea fa 08 3b 2b 83 07 3c
       -0.0135120945 0.005262577 0.002090151 0.008271019
0003d0 af 0d d6 bb 7d 1a 21 bc 4e bc 2d bc ff dd ce 3b
       -0.006532393 -0.009832975 -0.010603977 0.006313085
0003e0 ed 2e 63 3b bb 6f 01 3c 6d 1e 5a 3c d2 dd a0 3c
       0.003466542 0.007900174 0.013312918 0.019637022
0003f0 61 44 95 bb 98 63 86 3b 07 a0 14 bc e3 15 06 3c
       -0.0045552705 0.004101228 -0.009071357 0.008183929

action_model._discrete_distribution.branches.0.bias f4 [3]
000000 d2 4d 54 bb 01 3d 06 bb df 23 a0 3b
       -0.0032395017 -0.0020483139 0.0048870887

action_model._discrete_distribution.branches.1.weight f4 [3, 128]
000000 38 79 68 b8 a4 63 f9 bb fa 69 9a bc 76 ce 9c 3b
       -5.5426004e-05 -0.007610755 -0.018849362 0.0047853542
000010 b1 92 97 3b 86 67 91 3b db 54 02 bc d2 9a 40 bc
       0.0046256413 0.00443739 -0.007954801 -0.011755662
000020 47 72 2d bb d0 c5 07 bc ad 77 8c 3c 62 a6 e2 3b
       -0.002646582 -0.008286908 0.01714691 0.006916807
000030 a2 31 19 bd b7 8a 16 ba fa f6 84 ba 86 fa aa ba
       -0.03740085 -0.0005742716 -0.0010144406 -0.0013044633
000040 6e d3 3d 3b 8b 19 66 bc b4 0e 8e 3b c4 3d cf bb
       0.0028965133 -0.014044176 0.004335249 -0.0063245017
000050 cd d2 c6 3a 2e 6a 78 3b d2 fa 41 bc 03 49 99 bb
       0.0015169025 0.0037905085 -0.011839585 -0.004677893
000060 73 2d 3c ba db c5 d5 3c b2 a8 b3 ba 83 b5 85 3b
       -0.00071784033 0.026095321 -0.0013706891 0.004080476
000070 7e 5d a5 39 0e 5c 00 bb 4d 9c 89 bc 63 dc e9 bb
       0.0003154091 -0.001958612 -0.016798163 -0.007136868
000080 e6 c3 40 bb 26 fd 51 3a 01 f1 c9 bb ca b8 06 bc
       -0.002941364 0.00080104393 -0.006162763 -0.008222768
000090 27 e8 60 bc d5 d4 57 bc 2a 44 a1 3b 5c ad 78 bc
       -0.013727224 -0.013173302 0.004921456 -0.015178051
0000a0 e9 e0 dd bb 0b 19 b8 bc aa 52 0f 3c 63 0d 1b bc
       -0.006771196 -0.022472879 0.008747736 -0.009463641
0000b0 42 87 65 3b 51 30 fb bb 7b 64 93 3b d7 d9 c8 3b
       0.0035023247 -0.007665672 0.004498062 0.006129484
0000c0 95 20 47 3b d7 55 37 3c f2 5d eb bb 34 2e a5 bb
       0.003038441 0.011189899 -0.00718283 -0.005040908
0000d0 fa b8 8f bb 5e e8 0e 3b 5e 68 ef 3b 6c 84 9c bc
       -0.0043860646 0.0021805982 0.0073061427 -0.019106112
0000e0 a4 d5 8a 3b de 54 cb 3b ed 59 92 ba ee 9c 29 bb
       0.0042368937 0.0062051853 -0.0011165716 -0.002588089
0000f0 10 41 a2 ba a8 4b c7 bb 1f 34 a4 bb 51 54 2d bc
       -0.0012379009 -0.006082017 -0.005011096 -0.010579185
000100 3e 54 9b bb d6 39 43 3c 3d 4c b1 bb 86 3a bf 3a
       -0.004740267 0.011915645 -0.0054106996 0.0014589585
000110 30 72 9c ba 51 57 85 3c 2e 9c 0c bb a2 65 1f 39
       -0.0011935886 0.016276987 -0.0021455395 0.00015201283
000120 f8 01 bd bb 49 82 bb ba 13 18 df bb 18 b8 02 3b
       -0.005768057 -0.0014305796 -0.00680829 0.0019946154
000130 27 2b 81 bb 93 66 66 bc f9 45 96 39 91 5c 91 bc
       -0.0039419117 -0.014062542 0.00028662363 -0.017744334
000140 50 1d 4a bb bd 55 b6 3b 76 eb 51 3b 78 ed 8c bb
       -0.0030840226 0.00556442 0.0032031215 -0.0043007694
000150 31 3a 21 bc 0d f4 71 bb eb 07 c6 ba 4e 76 a7 3a
       -0.009840534 -0.0036919147 -0.0015108561 0.0012776346
000160 bd 3d 33 bc 2d 11 b7 bc 42 82 32 bc 5c c0 25 bc
       -0.0109400125 -0.022347057 -0.010895314 -0.010116663
000170 90 1c 70 bc de 1a bb ba db 60 2f bc 37 a7 45 bc
       -0.014655247 -0.0014274975 -0.0107042445 -0.012063793
000180 51 57 1e bb 84 7f 13 3c 83 b5 6f 3b 54 12 10 3c
       -0.0024160931 0.00900257 0.0036576695 0.008793432
000190 0f 6a 17 bb a0 90 92 3b e6 4a a8 39 10 6d e6 bb
       -0.0023103987 0.004472807 0.0003209926 -0.007032044
0001a0 48 3e 26 bc 76 3f 85 3b 55 c4 ed ba 4f b3 7f bc
       -0.010146685 0.004066403 -0.0018140177 -0.015606715
0001b0 92 e9 ac 3a 5f 40 a4 3b ae 7b 08 3c 20 b4 73 bb
       0.0013192168 0.0050125564 0.008330269 -0.003718622
0001c0 2f 7a c1 b9 f3 d8 1f bc c7 e9 e6 3a 42 51 e2 38
       -0.00036902862 -0.009756315 0.0017617278 0.00010791655
0001d0 ef 25 d3 ba 6d 4b d2 3b 79 bd 69 bb 58 a1 de 39
       -0.0016109328 0.006417683 -0.0035665913 0.0004246335
0001e0 0d af 9c 3a e3 8a c1 3c b7 81 77 3c 98 d9 37 bc
       0.0011954025 0.023625797 0.01510661 -0.011221312
0001f0 b9 3a 88 3c 54 19 f2 3b 57 b6 51 3c 2d ce 26 3c
       0.016629564 0.0073882733 0.012799821 0.010180992
000200 15 ec 7c b9 75 92 8e bc 64 33 90 bb 18 15 54 bc
       -0.0002412054 -0.01740382 -0.0044006575 -0.012944482
000210 53 c7 5e 3c c1 21 42 3c 78 18 3c 3c 15 a7 71 3a
       0.013597327 0.011848868 0.011480443 0.00092183176
000220 b7 24 01 3c 45 13 94 3b 77 78 99 bc 3b 25 6e bc
       0.007882289 0.0045188987 -0.0187342 -0.014535244
000230 9e ea 0c bc 99 7e 23 3c ab 8f c5 3b 29 21 2c bc
       -0.008600859 0.009978914 0.0060290894 -0.010505953
000240 4f 54 64 bc df 76 0a bc d3 f6 2a 3b 59 af ed bb
       -0.013936116 -0.008451193 0.002608706 -0.007253569
000250 d3 f8 be 3b 09 43 39 3c 19 82 6a bb 3a 00 c3 bc
       0.005828002 0.011307486 -0.003578311 -0.023803819
000260 70 5a 2e bc fb 7d c9 bb 53 62 70 bb 8e df c1 3b
       -0.010641679 -0.0061490512 -0.00366797 0.0059165424
000270 cb 30 51 bc 8d 8f 20 3c 7f a5 8d 3b 3d 40 96 bc
       -0.012767981 0.00979985 0.004322707 -0.018341178
000280 d5 5e a5 ba 03 bb 88 3c 43 1c 51 bb 1c eb ab 39
       -0.0012616763 0.016690737 -0.0031907714 0.00032790832
000290 8d b5 dc 3b e1 7b a4 ba 82 46 8f 3b 10 c3 16 bb
       0.0067355097 -0.0012549126 0.004372419 -0.002300445
0002a0 ae e3 44 bb 99 7a 57 ba 9a de 2b bb a8 d6 e0 bb
       -0.0030042934 -0.00082198676 -0.002622521 -0.0068615265
0002b0 95 08 83 bc a7 5b fc ba 1e 78 ae ba 0b 47 94 bc
       -0.015995303 -0.0019253389 -0.0013310944 -0.018100282
0002c0 dd 87 39 3b 7b 31 10 bb e2 42 64 3c 62 0d de 3b
       0.002830974 -0.002200215 0.013931962 0.0067764977
0002d0 bf 01 14 3c 16 d2 05 ba 75 1c 9a 3b 18 44 1a bc
       0.009033619 -0.00051048526 0.0047030994 -0.009415649
0002e0 1c c5 bc bb ea af de 3a 7a 70 97 3b ea 51 d4 bb
       -0.005760802 0.0016989682 0.0046215625 -0.0064794915
0002f0 6c 2b 87 bb 92 70 3d bc 77 02 0f 3c fc 86 4d 37
       -0.0041250493 -0.011562483 0.008728615 1.2250381e-05
000300 1e 86 3b bb 14 77 a1 3c d9 fe 32 3b 9f de 04 bc
       -0.0028613876 0.019710101 0.0027312546 -0.008109718
000310 fe 6f 8c ba 68 9d 55 3b ad cb 19 3c a6 41 03 3c
       -0.0010714529 0.0032595042 0.009386939 0.008011257
000320 1f ae b0 39 4d 4d fb bb ea 1b 6c ba 70 61 73 3c
       0.00033699066 -0.007669127 -0.0009006845 0.014854774
000330 74 99 49 bb 4b 45 65 bc 8b 21 18 bc 39 92 74 3a
       -0.0030761631 -0.0139935715 -0.009285341 0.000932965
000340 9e f0 4f 3c a1 59 07 3c 8a da c5 3a eb 2a 2e 3c
       0.012691645 0.008261115 0.0015095037 0.01063035
000350 ef d2 40 bc a5 0d f7 3b f8 29 f0 3b 76 2a 94 3b
       -0.0117690405 0.0075394684 0.007329222 0.0045216633
000360 90 0d 65 bc b8 46 91 bb de ac 79 3b 61 88 89 3c
       -0.013980284 -0.004433479 0.0038097422 0.016788663
000370 b7 26 00 3b 9d 9a da ba 2d 89 fc 3a 3e 10 86 ba
       0.0019554326 -0.0016678158 0.0019266956 -0.0010228229
000380 c0 b3 a5 3b 6b 30 07 bc b3 0a 1d 3c 41 2d ee 3b
       0.0050568283 -0.00825129 0.00958507 0.0072685783
000390 24 f4 8f 3b 47 9e 7b 3c d6 35 17 3c 24 85 85 ba
       0.0043931175 0.0153575605 0.009229144 -0.0010186774
0003a0 f5 d6 a5 3c 2c fd 7c bb 05 72 d2 ba 77 88 a9 bb
       0.020244101 -0.003860305 -0.0016055709 -0.0051737386
0003b0 6d 3e 9e 3b 37 db cf bb 49 b4 21 39 ed 71 01 3c
       0.004829219 -0.006343271 0.00015421318 0.007900697
0003c0 1b 58 a5 3a a3 10 db 39 5a 13 43 3c 72 60 f2 3b
       0.0012614758 0.0004178333 0.011906469 0.007396751
0003d0 cd 73 14 ba a1 83 16 3c 7a d4 1d bc 97 6d a8 3a
       -0.00056630076 0.009186656 -0.009633178 0.0012850043
0003e0 13 f8 b0 ba d7 f1 69 3b e3 3b d6 bc 2a 84 36 ba
       -0.0013501666 0.0035697126 -0.026151603 -0.0006962443
0003f0 01 6f 71 bb f0 f8 85 bb 6d a1 64 3c 58 9a f3 3b
       -0.0036839845 -0.0040885136 0.0139545025 0.0074341707

action_model._discrete_distribution.branches.1.bias f4 [3]
000000 4a bb a5 ba e2 2f d6 3a e9 6f 9b ba
       -0.0012644317 0.0016341174 -0.0011858913
