Assets/results/T2/CarDriver/CarDriver-3242292.pt (torch, 632126 bytes, 48 tensors)

discrete_act_size_vector f4 [1, 2]
0	0x40400000	3.0
1	0x40400000	3.0

network_body._body_endoder.seq_layers.0.weight f4 [128, 36]
0	0xbe66dc75	-0.22545035
1	0xbd554bac	-0.05207412
2	0xbdf95ce8	-0.121759236
3	0x3ea37179	0.3192251
4	0xbc555fb8	-0.013023309
5	0xbe2f7d7d	-0.17137714
6	0xbae04fa2	-0.0017113576
7	0xbe47d1a6	-0.19513568
8	0xbe9c9962	-0.30585772
9	0xbeabc984	-0.33552182
10	0xbdb4b3ff	-0.08823394
11	0x3dce131e	0.1006224
12	0x3ee8b786	0.45452517
13	0xb90bf344	-0.00013346697
14	0xbef53f5a	-0.47899896
15	0xbd6cdfcf	-0.057830628
16	0xbe019e0f	-0.12657951
17	0x3e79cfdc	0.24395698
18	0xbe7c8ff5	-0.2466429
19	0xbdcd22fc	-0.10016438
20	0x3d23b83d	0.039970625
21	0x3e9b3dd2	0.30320603
22	0x3dec3d7c	0.11535165
23	0x3cc0b1e8	0.023522332
24	0x3ea18071	0.31543306
25	0x3e16d823	0.14730887
26	0x3d36c9bb	0.04462598
27	0xbe1e6898	-0.15469587
28	0xbe9323eb	-0.2873834
29	0xbf078726	-0.52940595
30	0x3e245079	0.16046323
31	0xbd60d9d1	-0.054895226
32	0x3ec17bf2	0.37789875
33	0x3ddd86a9	0.108167
34	0x3ef3e912	0.47638756
35	0x3def8110	0.116945386
36	0xbe596e09	-0.21233381
37	0x3e35b572	0.17744997
38	0xbe806c4b	-0.2508262
39	0xbe09f8fc	-0.13473886
40	0x3d84331a	0.06455059
41	0x3dcf017f	0.10107707
42	0xbd3d6492	-0.04623849
43	0xbe6c420a	-0.23072067
44	0x3d4ad872	0.049522825
45	0x3e823996	0.2543456
46	0x3d8fc38d	0.0701972
47	0x3e7081fe	0.23487088
48	0xbde9fe50	-0.114254594
49	0xbc797e21	-0.015227825
50	0xbe11133c	-0.14167494
51	0xbe078a9b	-0.13236468
52	0x3db348f3	0.08754148
53	0xbe578512	-0.21046856
54	0xbdf93917	-0.12169092
55	0x3e9692db	0.29408917
56	0x3d199ee2	0.037505038
57	0xbe0f6c94	-0.14006263
58	0xbb0d00a8	-0.0021515284
59	0xbe1baeca	-0.15203395
60	0x3c5ed8df	0.013601511
61	0xbe1b6206	-0.15174112
62	0x3ecfe955	0.40607706
63	0xbefef0ba	-0.49793035
64	0x3d093f0f	0.033507403
65	0x3f4cfdb7	0.8007464
66	0xbdb49d9f	-0.08819126
67	0x3ddfdf4b	0.10931262
68	0xbe941cb6	-0.28928155
69	0xbcd3cba7	-0.025853945
70	0xbe5fb56b	-0.21846549
71	0x3e6bbce3	0.23021273
72	0x3d87231f	0.06598496
73	0xbb06598f	-0.0020500158
74	0x3e36a1bf	0.17835139
75	0x3ea15036	0.3150651
76	0xbd986f9f	-0.07443165
77	0xbe2ecb6c	-0.17069787
78	0x3e526f94	0.20550376
79	0xbd495750	-0.049155533
80	0x3d1583ed	0.036502767
81	0xbc9ee284	-0.01939512
82	0x3eab22d2	0.33425003
83	0x3e93e2da	0.28884012
84	0xbdb7fc1a	-0.089836314
85	0xbe8c735c	-0.27431762
86	0x3e4a500f	0.19757102
87	0xbbf9fcca	-0.0076290118
88	0x3e621784	0.22079283
89	0xbe6c69a7	-0.23087178
90	0xbea4bfe2	-0.32177645
91	0x3ee79c64	0.45236504
92	0x3e81711d	0.2528161
93	0xbde7d81d	-0.11320517
94	0xbe2e73ba	-0.17036334
95	0x3c8dc36e	0.017305102
96	0xbee72f85	-0.45153442
97	0x3e7d76a1	0.24752285
98	0xbe589374	-0.21149999
99	0xbda25954	-0.07927194
100	0xbdc3b773	-0.095564745
101	0x3f19eb0d	0.60124284
102	0xbe974905	-0.29547897
103	0x3da23cd5	0.07921759
104	0x3e4e8908	0.20169461
105	0x3d402305	0.046908397
106	0xbee0efc1	-0.43932918
107	0x3de9f6d5	0.114240326
108	0xbe0017a5	-0.1250902
109	0xbe523414	-0.20527679
110	0xbd52ed90	-0.05149609
111	0x3d8b2105	0.06793407
112	0xbd1dbe51	-0.038511578
113	0xbc1c6b91	-0.00954713
114	0x3e115c7b	0.14195435
115	0x3de6ce1a	0.112697795
116	0x3d97503f	0.073883526
117	0x3ee66071	0.44995454
118	0x3c81d659	0.01584928
119	0x3deb8d75	0.1150159
120	0x3d5da552	0.05411274
121	0xbdb3fc95	-0.087884106
122	0x3e6e601f	0.23278855
123	0x3b9dc0dc	0.0048142504
124	0xbd2e7d0f	-0.042599734
125	0x3e62437b	0.22096054
126	0x3c4694de	0.012120454
127	0x3e9f6dd0	0.31138468
128	0xbc5be697	-0.013421676
129	0x3db7c788	0.089736044
130	0x3dfaa940	0.12239313
131	0xbdffd48f	-0.12491714
132	0xbdb209e1	-0.086932905
133	0xbddf4e6d	-0.109036304
134	0xbe2b24c0	-0.16713238
135	0xbd5ab8e0	-0.053398967
136	0xbe1853f4	-0.14875776
137	0x3eb1c852	0.34723145
138	0x3ebd531f	0.3697748
139	0xbeb4f80b	-0.35345492
140	0x3eda63c3	0.42654237
141	0x3db7283c	0.08943221
142	0xbe8d81f1	-0.276382
143	0x3d8a3c06	0.0674973
144	0xbde88157	-0.113527946
145	0x3d020416	0.031742178
146	0xbcde936a	-0.027169902
147	0xbcdda4de	-0.027056154
148	0x3d615b45	0.055018682
149	0xbf336f9b	-0.7009217
150	0x3e101ba9	0.14073052
151	0xbebd28af	-0.36945102
152	0xbe81b722	-0.25335032
153	0x3ea07473	0.31338844
154	0xbe8b8270	-0.27247953
155	0xbcbb969c	-0.022898965
156	0xbdbf6cc2	-0.09346916
157	0xbe280b34	-0.16410524
158	0xbea9723d	-0.3309497
159	0x3e59e74d	0.2127964
160	0xbdaef8ed	-0.085435726
161	0x3e1c3fa8	0.15258658
162	0xbdbd878b	-0.092543684
163	0x3efabddf	0.48972985
164	0x3d9b6809	0.075882025
165	0xbd817359	-0.06320829
166	0xbe2c0efa	-0.16802588
167	0x3d33d0eb	0.04390041
168	0x3d7d9605	0.061910648
169	0xbde4f9e1	-0.11180473
170	0xbed15cd4	-0.40891135
171	0x3dadfc18	0.08495349
172	0x3e411a54	0.188577
173	0x3e9b29c6	0.30305308
174	0x3ead50d9	0.33850744
175	0xbe99dbd4	-0.30050528
176	0x3e99afec	0.3001703
177	0xbe29a566	-0.16567001
178	0x3d35df76	0.044402562
179	0xbe95f628	-0.29289365
180	0xbe9f2dc7	-0.31089613
181	0x3dc4913a	0.09598012
182	0x3dd34dae	0.103175506
183	0xbebc7874	-0.36810648
184	0x3df5862a	0.119884804
185	0x3e53b11f	0.20673035
186	0xbde8b6c2	-0.11362983
187	0x3e604488	0.21901143
188	0xbc9fea2b	-0.01952084
189	0x3e21babb	0.15793888
190	0xbd988590	-0.0744735
191	0x3eae6a87	0.3406565
192	0xbe949378	-0.2901876
193	0xbd84fbba	-0.064933255
194	0x3e2be990	0.16788316
195	0x3d984479	0.07434935
196	0xbe0e2578	-0.1388148
197	0x390ea3a4	0.00013603136
198	0xbe886bb4	-0.2664467
199	0x3e41b2a4	0.18915802
200	0xbdbc205d	-0.0918586
201	0x3e56c115	0.20972092
202	0x3d29ef23	0.041487824
203	0xbd8f56cb	-0.06998976
204	0x3cce122d	0.025155151
205	0x3de5eb84	0.11226562
206	0x3c1cff65	0.009582375
207	0x3dcae696	0.09907262
208	0xbf142e8b	-0.5788352
209	0x3e492e46	0.19646558
210	0x3ea66cf6	0.32505006
211	0xbda99aa7	-0.08281451
212	0x3e9c2bb0	0.3050208
213	0xbe6d457b	-0.23171036
214	0xbecb29e0	-0.39680386
215	0x3de2d0d7	0.11074989
216	0xbe4633c1	-0.1935568
217	0x3defa1ac	0.11700758
218	0x3cbb9262	0.02289695
219	0xbcaab23d	-0.020836944
220	0xbd970601	-0.07374192
221	0x3d82c13b	0.06384512
222	0x3dcd7c1d	0.10033438
223	0xbc00becc	-0.0078579895
224	0x3b4fc9dc	0.003170601
225	0xbe6311be	-0.22174737
226	0xbda27c19	-0.07933826
227	0x3e7fb558	0.24971521
228	0xbdd63a58	-0.10460347
229	0x3e42d9d0	0.19028401
230	0x3c752eac	0.014964741
231	0xbea16695	-0.31523576
232	0x3de90848	0.11378533
233	0xbea99bba	-0.33126622
234	0x3d93fe4e	0.07226239
235	0xbea3c983	-0.3198968
236	0x3e86e6c9	0.2634795
237	0x3e7135f6	0.2355574
238	0xbd806fde	-0.06271337
239	0xbe119f70	-0.14220977
240	0xbe99ae76	-0.30015916
241	0x3d8b65f4	0.068065554
242	0xbda0c55c	-0.07850143
243	0x3dc242d2	0.09485401
244	0xbe0675b1	-0.13130833
245	0x3e96e987	0.29475042
246	0xbbfc7744	-0.0077046473
247	0xbd8a4da0	-0.06753087
248	0xbe6b3f17	-0.22973286
249	0x3d1327d3	0.03592665
250	0x3c3c4c88	0.011492856
251	0x3e5115d3	0.20418482
252	0x3cbd6a3b	0.023121944
253	0xbe136b2d	-0.14396353
254	0x3d5be783	0.053687584
255	0xbe7bac55	-0.24577458

network_body._body_endoder.seq_layers.0.bias f4 [128]
0	0xbcb3f3a7	-0.021966768
1	0x3d2b32bb	0.041796427
2	0x3d8abf64	0.06774786
3	0x3a8b6dd0	0.0010637585
4	0x3d892ee3	0.06698396
5	0xbcdea900	-0.027180195
6	0xbce5c2d1	-0.028046997
7	0xbd130150	-0.035889924
8	0x3d734f92	0.059402056
9	0x3db99e1d	0.09063361
10	0x3c4e1019	0.01257708
11	0x3c433233	0.011913824
12	0x3aa164ae	0.001231333
13	0x3cc4bb9a	0.024015237
14	0xbb3aa74d	-0.0028481067
15	0x3d482b3b	0.048869353
16	0x3dc3f0ef	0.09567439
17	0x3d84a7d8	0.06477326
18	0xbb9a251f	-0.004704132
19	0x3cab6457	0.02092187
20	0xbc35af00	-0.0110890865
21	0x3c989902	0.018627647
22	0xba8ee73a	-0.0010902651
23	0xbd29d3b9	-0.04146168
24	0x3c78f35f	0.015194743
25	0xbcb6d9a8	-0.022320583
26	0x3ccdcb7e	0.025121447
27	0x3d83d053	0.06436219
28	0xbca9dc08	-0.020734802
29	0x3c6a6913	0.014307278
30	0x3d79d835	0.060997207
31	0x3d1af2b3	0.037829112
32	0xbbb70216	-0.0055849655
33	0x3bc8119a	0.006105614
34	0x3dfefa76	0.124501154
35	0x3cf9f72c	0.030513369
36	0x3dd8ea98	0.1059162
37	0x3e379303	0.17927174
38	0x3b2f8bd9	0.0026786237
39	0x3d346ad1	0.04404718
40	0xbda84540	-0.082163334
41	0x3d04cf83	0.03242446
42	0x3d48b904	0.04900457
43	0x3d833435	0.06406442
44	0x3c5b5709	0.01338745
45	0x3d301030	0.042984188
46	0xbc516419	-0.012780213
47	0x3a998376	0.0011712152
48	0x3d07803f	0.03308129
49	0x3aec1be7	0.0018013687
50	0xbc9c4ec7	-0.019080533
51	0x3ca91d63	0.020643895
52	0x3dde449a	0.108529285
53	0x3ddecfe8	0.10879499
54	0x3ddab858	0.10679692
55	0xba519f56	-0.000799646
56	0xbd587adc	-0.052851543
57	0x3d0e9fcb	0.03482036
58	0xbcb18c75	-0.02167342
59	0x3d9197b5	0.07109014
60	0x3d4d14f6	0.050068818
61	0xb7fb4ca0	-2.9957213e-05
62	0x3d4095b2	0.04701776
63	0x3cf251f4	0.029580094
64	0x3d752211	0.05984694
65	0xbc2165c2	-0.009850921
66	0x3dee6b7c	0.11641595
67	0x3d00bf7d	0.031432617
68	0x3d997fe2	0.07495095
69	0x3d4c023f	0.04980683
70	0x3d9c1ab5	0.076222815
71	0x3dc03daa	0.093867615
72	0x3c457dcf	0.012053921
73	0x3e0abfa9	0.13549675
74	0x3b8304b6	0.0039983643
75	0x3d3bc07d	0.045837868
76	0x3db3a2cb	0.08771285
77	0x3cdbfd3d	0.026854152
78	0x3df9e014	0.12200943
79	0x3db9cf8d	0.0907279
80	0x3c7605c6	0.015016025
81	0x3dd6c87f	0.1048746
82	0x3d778cac	0.06043689
83	0x3d40063e	0.046880953
84	0xbbb79f0d	-0.005603677
85	0x3bb145de	0.00540994
86	0x3d20b472	0.039234586
87	0x3dded39c	0.10880205
88	0xbd0ca187	-0.034333732
89	0x3caccb7b	0.02109312
90	0x3e02a8a2	0.12759641
91	0xbbc13178	-0.0058957897
92	0x3e1cdfc8	0.15319741
93	0x3d1f7e06	0.038938545
94	0x3d91eae9	0.07124884
95	0x3e111534	0.14168245
96	0x3b7536ed	0.0037416772
97	0x3d22a885	0.039711494
98	0x3dc37f1a	0.09545727
99	0x3d97eb26	0.07417898
100	0x3d4d0cc6	0.05006101
101	0x3c493e9d	0.012282995
102	0x3d4dc2a8	0.050234467
103	0x3c65d1a2	0.014027031
104	0xb92b4cc3	-0.00016336427
105	0x3d954487	0.07288461
106	0xbcd6c2a9	-0.026215868
107	0x3c8302b9	0.01599251
108	0x3c0371a1	0.008022697
109	0xbc23bf44	-0.009994332
110	0x3bc47e57	0.005996506
111	0x3dbe6054	0.09295717
112	0x3d585857	0.052818622
113	0x3d4723c2	0.048618086
114	0x3b8ecd3c	0.004357962
115	0x3db8feea	0.09032996
116	0x3d2c6d9c	0.04209672
117	0x3dd9de0d	0.10638056
118	0x3bf4c48b	0.007469719
119	0x3d376e0e	0.04478269
120	0x3d95f1ad	0.073214866
121	0x3d7c0f99	0.061538313
122	0x3dac3c25	0.08409909
123	0x3d8f63fa	0.07001491
124	0x3db2dddd	0.08733723
125	0x3e122fd4	0.14276057
126	0x3d020f5f	0.03175294
127	0xbab211da	-0.0013585642

network_body._body_endoder.seq_layers.2.weight f4 [128, 128]
0	0x3d51bb07	0.051203754
1	0x3e3e2932	0.18570402
2	0xbde6ba88	-0.11266047
3	0x3e45e3d3	0.1932519
4	0x3e27c6b2	0.1638439
5	0x3d61c28d	0.05511718
6	0x3da56f2b	0.08077844
7	0x3db77008	0.08956915
8	0x3e3fbd2c	0.18724507
9	0x3da4302e	0.08017002
10	0x3d371018	0.044693083
11	0xbda40d40	-0.0801034
12	0xbd9376d9	-0.07200403
13	0xbd7d3bdc	-0.061824664
14	0x3e04cd6a	0.12968984
15	0xbd1ed874	-0.038780645
16	0x3e1eec82	0.15519908
17	0x3d5a9c69	0.05337182
18	0xbe3d0115	-0.18457444
19	0xbcfb2a1d	-0.03065973
20	0x3b8ccb50	0.0042966977
21	0xbdce7d25	-0.10082463
22	0x3d7dc280	0.061953068
23	0xbd22eeda	-0.039778568
24	0x3c9b7d8d	0.018980766
25	0xbcccd8fa	-0.025005806
26	0xbc1aaf40	-0.009441197
27	0xbe85885b	-0.26080593
28	0xbd0b5be1	-0.03402317
29	0x3e348b35	0.17631228
30	0xbe173906	-0.14767846
31	0xbe493ed9	-0.1965288
32	0xbc86b3cb	-0.016443154
33	0x3e4ebc33	0.2018898
34	0xbdb6bccc	-0.08922729
35	0x3ce116c8	0.027476683
36	0x3d16b79d	0.0367962
37	0xbc3c234f	-0.011483028
38	0xbd064b1a	-0.032786466
39	0x3cae1453	0.021249926
40	0xbaceaf8c	-0.001576887
41	0xbdbd2834	-0.09236184
42	0x3db9049a	0.09034081
43	0x3dc29fcc	0.09503135
44	0x3cdf1e21	0.027236046
45	0x3cd3833e	0.025819417
46	0xbb391684	-0.002824218
47	0x3de3b69e	0.11118816
48	0xbd47a3c1	-0.048740152
49	0xbd98e302	-0.07465173
50	0x3e18e0d3	0.14929514
51	0x3da582ba	0.08081575
52	0xbc8dc8bf	-0.017307637
53	0x3da874e3	0.08225419
54	0x3df46ae9	0.11934454
55	0x3ca3e0ef	0.020004718
56	0x3d7a9e2a	0.061185993
57	0x3d90239e	0.070380434
58	0xbaaab81b	-0.0013024838
59	0xbe14ca68	-0.14530337
60	0x3d71cf60	0.05903566
61	0xbd0d2ff1	-0.03446955
62	0x3e056556	0.13026938
63	0xbdcb39e6	-0.099231526
64	0x3d9fb867	0.07798844
65	0xbcf7ecfc	-0.03026437
66	0x3c8c5301	0.017129423
67	0x3dee957a	0.11649604
68	0x3bcc10e1	0.006227598
69	0xbe1e8c6a	-0.15483251
70	0xbe78ca58	-0.24295938
71	0x3d8409e3	0.06447198
72	0xbd2fbecb	-0.042906564
73	0x3cb974ba	0.022638667
74	0xbd075a4b	-0.033045094
75	0x3c072af6	0.008249989
76	0x3c97b915	0.018520871
77	0x3d930dc9	0.07180364
78	0xbe353ca1	-0.1769891
79	0x3b9a4819	0.0047083017
80	0x3d832b8d	0.06404791
81	0xbcfe107b	-0.031013718
82	0xbb850c83	-0.0040603294
83	0x3da30a9c	0.07961008
84	0x3cd0f7ef	0.025508849
85	0xbd9464f2	-0.07245816
86	0xbb8fd445	-0.004389318
87	0x3bc17b41	0.0059045856
88	0xbd6defd4	-0.058090046
89	0x3e1c4a03	0.15262608
90	0xbdae58f8	-0.08513063
91	0xbe2e138c	-0.16999644
92	0xbdfbe6ba	-0.12299867
93	0x3d85b359	0.065283485
94	0xbd3b7093	-0.045761656
95	0xbd98e4bb	-0.07465502
96	0xbe04ce16	-0.1296924
97	0xbe085bd8	-0.13316286
98	0x3db56487	0.08857065
99	0x3e047168	0.12933886
100	0xbe1d6139	-0.15369119
101	0xbd87b7d9	-0.06626863
102	0xbd1c4eb6	-0.038161002
103	0xbe282091	-0.16418673
104	0xbd5169a5	-0.05112614
105	0x3d5edf49	0.05441216
106	0xbc836233	-0.016038036
107	0x3d9747c3	0.07386734
108	0x3c23b5fb	0.009992118
109	0x3de08068	0.109619915
110	0x3d57dc15	0.05270012
111	0x3e0d5b8e	0.13804457
112	0xbc8666eb	-0.016406497
113	0xbb9ecd00	-0.0048462152
114	0xbd2f1ff9	-0.0427551
115	0xbd59e7e3	-0.05319966
116	0x3e347297	0.17621838
117	0xbe497e2a	-0.19677034
118	0xbc456f18	-0.012050413
119	0x3d86eaf9	0.06587786
120	0xbd0f9209	-0.03505138
121	0xbe05964e	-0.13045618
122	0x3d4b3513	0.049611162
123	0x3d34e27e	0.044161312
124	0x3e1b9a17	0.151955
125	0xbcc16ef4	-0.023612477
126	0x3d2b0395	0.041751463
127	0xbd9db498	-0.07700461
128	0x3e85958f	0.26090667
129	0xbec355b3	-0.3815132
130	0xbe111b3d	-0.14170547
131	0x3c52e8fc	0.012872931
132	0x3e0fcf1d	0.14043851
133	0x3e59c9f6	0.21268448
134	0xbd53b11c	-0.051682577
135	0x3c31b077	0.010845295
136	0x3bb61c08	0.005557541
137	0x3d183110	0.037156165
138	0x3ccf3c9e	0.02529746
139	0xbd4e26ba	-0.0503299
140	0xbd8981e6	-0.06714229
141	0x3e31e451	0.17372252
142	0xbc637de0	-0.013884991
143	0x3e80ff43	0.2519475
144	0x3bf24e92	0.00739462
145	0x3c10b5bc	0.008832391
146	0x3e9f079b	0.3106049
147	0x3e47f6e6	0.19527778
148	0xbdb83272	-0.08993997
149	0x3eb36168	0.35035253
150	0xbe5e8d26	-0.21733531
151	0xbde78d10	-0.113062024
152	0xbcd60012	-0.02612308
153	0xbe7250fe	-0.23663709
154	0x3d0769d8	0.033059925
155	0xbc8c061a	-0.017092753
156	0x3e6acdff	0.22930144
157	0x3eafe062	0.34350878
158	0x3e7075c9	0.23482431
159	0xbdbb5af0	-0.09148204
160	0xbe119592	-0.14217213
161	0xbde10c8d	-0.10988722
162	0xbe3e5444	-0.18586832
163	0x3d0af9d2	0.033929653
164	0xbce0a041	-0.027420165
165	0xbdf1ef7e	-0.11813258
166	0xbd5b7305	-0.053576488
167	0x3ac8a231	0.0015307126
168	0xbe762c7a	-0.24040404
169	0xbe2928c3	-0.16519456
170	0x3dc038c8	0.0938583
171	0x3ce3f281	0.027825596
172	0xbcce4099	-0.025177287
173	0x3d7b8b9a	0.06141243
174	0xbd3fbdab	-0.04681174
175	0x3c838b30	0.01605758
176	0xbe7f07b5	-0.24905284
177	0xbd58232e	-0.052767925
178	0x3dce7584	0.10081008
179	0xbe23c95e	-0.15994784
180	0xbd884bd6	-0.066550896
181	0xbb8180c6	-0.0039521186
182	0xbe24984a	-0.16073719
183	0x3d2e1ce1	0.04250801
184	0x3b83c5b9	0.004021373
185	0x3e615c7e	0.22007939
186	0xbc13812b	-0.009002964
187	0xbe5d53a4	-0.21613938
188	0x3e8004da	0.250037
189	0x3e083a24	0.13303429
190	0xbd4fd18b	-0.050736945
191	0xbd9d74af	-0.07688271
192	0xbe1374c2	-0.14400008
193	0xbdf78709	-0.12086303
194	0xbdeaebac	-0.11470732
195	0x3c3da138	0.011574082
196	0xbe9c9461	-0.30581954
197	0x3e3abd2b	0.18236224
198	0x3e45224d	0.19251366
199	0x3dfdf118	0.123995006
200	0xbde77315	-0.11301247
201	0x3e6fcff8	0.23419178
202	0xbe496a93	-0.19669561
203	0x3ce7e9eb	0.028309783
204	0xbe9ce8e9	-0.30646446
205	0xbea9b627	-0.33146784
206	0xbe7d8758	-0.24758661
207	0xbe4c6cf1	-0.19963433
208	0x3d203f87	0.039123084
209	0xbe28dd2f	-0.16490625
210	0xbea2992d	-0.3175749
211	0xbe09622c	-0.13416356
212	0x3e0e9af9	0.13926305
213	0x3e8850a9	0.2662404
214	0xbdf66e49	-0.12032754
215	0x3e10e80e	0.14151022
216	0x3e40cfd6	0.18829283
217	0xbdbf8512	-0.09351553
218	0xbd2ea250	-0.042635262
219	0x3dadb682	0.08482076
220	0x3e66e937	0.22549902
221	0x3e4751f1	0.19464852
222	0x3ce6f371	0.028192254
223	0x3e7021fd	0.23450466
224	0x3e87a113	0.26490077
225	0x3d2f133e	0.04274296
226	0xbe2e490c	-0.17020053
227	0xbe7d0abc	-0.24711126
228	0xbe399945	-0.18124874
229	0xbabcec68	-0.0014413716
230	0xbc956a5c	-0.018239193
231	0xbdf6114a	-0.120150164
232	0xbda99cb2	-0.082818404
233	0x3dc931f2	0.098239794
234	0xbdef2b14	-0.116781384
235	0xbe12055b	-0.14259855
236	0xbe3f37bf	-0.18673609
237	0xbd41f78e	-0.047355227
238	0x3dc16b01	0.094442375
239	0x3def65a0	0.11689305
240	0x3e5e6c5a	0.2172102
241	0xbe9a23e7	-0.30105516
242	0xbdf856f2	-0.121259585
243	0x3e51415e	0.20435092
244	0xbe733fd2	-0.23754814
245	0xbe086565	-0.13319929
246	0x3e36f639	0.17867364
247	0xbe09b2cc	-0.13447112
248	0x3defc368	0.11707193
249	0x3dd750c9	0.105134554
250	0xbe0d6043	-0.13806252
251	0xbc86ea02	-0.016469005
252	0x3d1d8cb8	0.038464278
253	0xbe0cf28c	-0.137644
254	0xbdf066d7	-0.11738365
255	0xbe4defa6	-0.2011095

network_body._body_endoder.seq_layers.2.bias f4 [128]
0	0x3c4ef021	0.012630493
1	0xbc652812	-0.013986604
2	0xbcf64033	-0.03005991
3	0x3c109f4f	0.008827045
4	0x3d180f93	0.037124228
5	0x3c27def6	0.010246029
6	0xbce3d854	-0.027813114
7	0x3c0da8ae	0.008646173
8	0xbdbd07d4	-0.09230009
9	0xbc184f40	-0.009296238
10	0xbca836c8	-0.020533934
11	0x3cc90c73	0.024542069
12	0x3c6c9e36	0.014442017
13	0x3cbaae3e	0.022788163
14	0xbc37ae01	-0.011210919
15	0x3cf532ee	0.029931512
16	0x3dee634c	0.11640033
17	0x3d5fccf2	0.05463881
18	0xbca8d7a4	-0.020610638
19	0xbd42b602	-0.047536857
20	0x3d24ce77	0.040235963
21	0x3b96e150	0.004604496
22	0x3ba632f4	0.005071992
23	0xbc08586f	-0.008321865
24	0x3d8b4f9c	0.06802294
25	0xbc9ac745	-0.018893847
26	0xbcca2eeb	-0.024680575
27	0x3d216648	0.039404184
28	0x3d0d6d99	0.03452835
29	0x3d599c36	0.05312749
30	0x3d4c580a	0.049888648
31	0xbd2579b7	-0.04039928
32	0xbd7108fa	-0.05884645
33	0x3a1bdc1c	0.00059455796
34	0x3c31c410	0.010849968
35	0xbd75b242	-0.059984453
36	0xbc970278	-0.018433794
37	0x3cc1f01f	0.023674069
38	0x3caed657	0.02134244
39	0x3dd009f1	0.10158146
40	0x3dabd76f	0.083907
41	0x3cd28dea	0.025702436
42	0x3ccb3173	0.024803853
43	0xbd226d36	-0.039654933
44	0xbb25f101	-0.0025320651
45	0x3a7614b3	0.00093872397
46	0x3c636c40	0.013880789
47	0x3ccae672	0.024768088
48	0xbac10f6c	-0.0014729328
49	0xbd7f699a	-0.06235657
50	0x3d0b9818	0.034080595
51	0x3d8b9ae1	0.0681665
52	0xbbcebb46	-0.006308946
53	0xbbaf3586	-0.0053469567
54	0x3bffc1c8	0.007805083
55	0x3d6427e9	0.055702124
56	0x3b902f5a	0.004400176
57	0xbd900399	-0.07031936
58	0x3d55146a	0.05202142
59	0x3c76a1b9	0.015053206
60	0x3d179e91	0.037016455
61	0xbd7754a9	-0.060383473
62	0x3a84c4d8	0.0010129465
63	0x3cf6fb90	0.030149251
64	0x3ded8114	0.11596885
65	0xbc476a7a	-0.012171382
66	0x3c1b4238	0.009476237
67	0x3d49e4b7	0.049290385
68	0xbd578157	-0.052613582
69	0x3d6548ba	0.05597756
70	0xbd15c142	-0.036561258
71	0xbc84e5b8	-0.01622282
72	0x3c444b81	0.011980892
73	0xbcb72748	-0.022357598
74	0x3d74140d	0.059589434
75	0xbca5fdb1	-0.020262571
76	0x3cb96f07	0.02263595
77	0x3c346fde	0.011012999
78	0xbd03b64b	-0.03215627
79	0xbda3bc9c	-0.07994959
80	0xbc658edf	-0.014011114
81	0xbcaa6d81	-0.020804169
82	0x3bf37419	0.0074296114
83	0xbc9bc29e	-0.0190137
84	0xbc90d59f	-0.017679987
85	0x3de49f33	0.11163177
86	0x3cdec53e	0.027193662
87	0xbbd70c38	-0.006562736
88	0x3b88fd66	0.004180598
89	0xbd9f168e	-0.07767974
90	0x3b6b655a	0.0035918565
91	0x3c24a431	0.010048912
92	0x3c84fccb	0.016233822
93	0xbd167f50	-0.03674251
94	0x3d1e74c4	0.038685575
95	0xbb56c458	-0.0032770839
96	0x3b320b1a	0.0027167262
97	0x3d618c9f	0.055065747
98	0xbd814fea	-0.063140705
99	0x3aa4d7ef	0.001257656
100	0x3c54a771	0.012979374
101	0x3db76ec2	0.08956672
102	0xbcda371d	-0.026637608
103	0x3da16911	0.07881368
104	0x3cbdfe64	0.023192592
105	0x3c6346f3	0.013871896
106	0xbcb310e0	-0.021858633
107	0x396f137a	0.00022800072
108	0x3c83a771	0.016071053
109	0x3cd5e220	0.026108801
110	0x3d9e7655	0.07737414
111	0xbc850257	-0.016236467
112	0x3d09c291	0.03363282
113	0xbcbc5f50	-0.022994667
114	0x3ca0529c	0.019570641
115	0x3d160c71	0.03663296
116	0xbce1d7f4	-0.027568795
117	0x3c9be7b7	0.019031389
118	0x3d04c01d	0.032409776
119	0xbd9c2946	-0.0762506
120	0xbd426b4e	-0.047465615
121	0xbd43eff8	-0.047836274
122	0xbb7320b1	-0.0037098343
123	0xbb5b243a	-0.003343834
124	0x3d5ea812	0.054359503
125	0xbcfe6586	-0.03105427
126	0xbc7b4dbb	-0.015338357
127	0x3c8e9e20	0.017409384

action_model._discrete_distribution.branches.0.weight f4 [3, 128]
0	0x3b91f872	0.004454666
1	0xbdcb3b9c	-0.09923479
2	0xbd6ceffc	-0.057846054
3	0xbda93bcf	-0.08263361
4	0x3d5f7dda	0.05456338
5	0x3d1e1090	0.038590014
6	0x3ca2f59e	0.01989251
7	0x3cf5a953	0.029987967
8	0xbe0a4710	-0.1350367
9	0xbdc49557	-0.09598797
10	0xbd924434	-0.07141915
11	0x3db07a84	0.08617118
12	0x3d9cd627	0.07658034
13	0x3d9e75f9	0.07737345
14	0x3e4f45d8	0.20241487
15	0x3ea663b3	0.3249794
16	0x3e0d58cd	0.13803406
17	0x3d34439e	0.044009797
18	0xbd94edbf	-0.07271909
19	0xbdb3defd	-0.08782766
20	0x3d96218c	0.07330617
21	0x3d261603	0.040548336
22	0xbdc18998	-0.09450072
23	0x3d022518	0.031773657
24	0x3d4aaf66	0.04948368
25	0xbc8bc231	-0.017060371
26	0xbd813bf9	-0.06310267
27	0x3e77a400	0.24183655
28	0x3cbacd48	0.022802964
29	0x3db5b885	0.08873085
30	0x3e16d496	0.14729533
31	0x3cbd49d1	0.023106487
32	0xbdcbc54c	-0.09949741
33	0x3d412208	0.047151595
34	0xbe799317	-0.24372517
35	0xbbf6fcf3	-0.007537478
36	0x3eaece3e	0.34141725
37	0x3dfff1e5	0.124973096
38	0xbd5f3cde	-0.054501407
39	0x3d73e46e	0.05954402
40	0x3e061216	0.13092837
41	0x3e928f0e	0.28624767
42	0x3da45d03	0.08025553
43	0x3d2ffd7a	0.042966343
44	0xbe8e7626	-0.27824515
45	0xbda5e501	-0.0810032
46	0x3d3f4d06	0.046704315
47	0x3df7eca2	0.12105681
48	0xbd9357de	-0.07194494
49	0xbe3143d9	-0.17311038
50	0x3e82f3ea	0.25576717
51	0x3e2f092b	0.17093341
52	0x3ec0417f	0.3754997
53	0x3c1cd651	0.009572581
54	0xbd59a8f2	-0.053139634
55	0x3d779296	0.06044253
56	0x3ceba1b6	0.028763633
57	0xbd9d6013	-0.0768434
58	0x3cd20f58	0.025642082
59	0x3d43126b	0.047624987
60	0x3dbb3a7a	0.09142013
61	0xbd6a095b	-0.05713783
62	0x3c88bd79	0.01669191
63	0x3e2d7ddb	0.16942541
64	0x3db528a2	0.08845641
65	0xbd847b77	-0.064688616
66	0x3d08a967	0.03336468
67	0xbe3fc1af	-0.18726228
68	0x3d346003	0.044036876
69	0x3d08e75f	0.033423778
70	0x3e2f8383	0.17140011
71	0x3decb326	0.11557607
72	0x3cfce174	0.030869223
73	0x3ee43ed7	0.44579193
74	0x3e29c165	0.1657768
75	0xbc3293c3	-0.010899487
76	0x3dab42cb	0.08362349
77	0x3bbc8a03	0.005753757
78	0x3eb31f36	0.3498475
79	0xbdeb150e	-0.11478625
80	0xbe8032f0	-0.25038862
81	0x3ce6aec1	0.028159501
82	0x3d13fd04	0.036129966
83	0xbd5061be	-0.050874464
84	0x3cbcb295	0.023034373
85	0x3e2dcb6d	0.16972132
86	0x3dc434f4	0.095804125
87	0x3cce650e	0.025194671
88	0x3d0cf0ea	0.03440944
89	0xbd8c5afe	-0.06853293
90	0x3d28fbbe	0.041255705
91	0xbd752027	-0.059845116
92	0x3be6221c	0.007023109
93	0xbdcec780	-0.10096645
94	0x3dc7f64c	0.09763774
95	0x3e035c7a	0.12828246
96	0x3e11b333	0.14228515
97	0x3df18eef	0.117948405
98	0x3d3ff2cc	0.04686241
99	0x3cf84db7	0.030310495
100	0xbd8e99da	-0.069629386
101	0x3d57b615	0.05266388
102	0x3e237e70	0.15966201
103	0x3d32c989	0.04364923
104	0x3e139975	0.14414008
105	0x3bf296fc	0.0074032526
106	0x3cfcc276	0.030854445
107	0xbd31dbf8	-0.04342267
108	0x3dc6fff6	0.097167894
109	0x3dbf7bbd	0.09349773
110	0x3dad2b13	0.084554814
111	0xbc9b447f	-0.01895356
112	0x3d8f60ba	0.07000871
113	0x3dc5320a	0.09628685
114	0x3d4ceab0	0.050028503
115	0x3d119063	0.03553809
116	0x3c347b19	0.011015677
117	0x3e51f5ea	0.20503965
118	0x3d69e94d	0.05710726
119	0xbde6f3fe	-0.112770066
120	0xbc132fad	-0.008983535
121	0x3bcad2eb	0.006189694
122	0x3d702c56	0.058636032
123	0xbdb6a233	-0.08917656
124	0x3d411e50	0.04714805
125	0x3e5cc3a6	0.21559009
126	0x3e849cb6	0.2590081
127	0x3dedf739	0.116194196
128	0x3d560b63	0.052256953
129	0x3d149603	0.036275875
130	0xb9069dd7	-0.00012838036
131	0x3df4a7c6	0.11946063
132	0xbd9c617a	-0.0763578
133	0x3d787a7d	0.06066369
134	0x3cae36a5	0.02126629
135	0x3c8d6787	0.01726128
136	0x3e2e6742	0.17031577
137	0x3d1fedef	0.03904527
138	0x3b2e6cf3	0.0026615232
139	0x3a7d3764	0.0009659438
140	0x3cae70c1	0.021294
141	0xbb617cbd	-0.0034406625
142	0xbe960426	-0.2930004
143	0xbec400cd	-0.3828186
144	0xbdb4edcb	-0.08834418
145	0x3c8ebc49	0.017423766
146	0xbd435d9b	-0.04769669
147	0x3d6fd3a9	0.058551464
148	0xbd3b4c5a	-0.04572711
149	0x3d3b021a	0.0456563
150	0x3d12c7a3	0.03583492
151	0x39c09f82	0.00036739936
152	0xbd6a160e	-0.05714994
153	0x3d9a25dc	0.07526752
154	0x3d364697	0.044500913
155	0xbe3b5e92	-0.18297794
156	0x3d0ed051	0.034866635
157	0xbd7da66a	-0.061926283
158	0xbd8c4bdc	-0.068504065
159	0x3cbbdc9c	0.022932343
160	0x3d31d7ce	0.043418698
161	0x3d0e5957	0.03475317
162	0x3e4da51f	0.2008252
163	0x3cdd9aa8	0.027051285
164	0xbec2f72e	-0.38079208
165	0xbe144796	-0.14480433
166	0xbc0ba82b	-0.008523981
167	0x3d6f14a4	0.058369294
168	0xbdf0dc0d	-0.11760721
169	0xbe89eb3b	-0.2693728
170	0xbc72ecb0	-0.0148269385
171	0xbe147080	-0.1449604
172	0x3e57ddc0	0.21080685
173	0x3df832d1	0.121190675
174	0xbd3308a4	-0.043709412
175	0xbe87ab02	-0.26497656
176	0x3da80a69	0.082051106
177	0x3e6cf73e	0.2314119
178	0xbe8ad1e2	-0.27113253
179	0xbe1de2bf	-0.15418528
180	0xbeda60b7	-0.42651913
181	0x3d242365	0.040072817
182	0xbdb193c8	-0.08670765
183	0x3c9c353a	0.01906835
184	0x3c5d0143	0.01348907
185	0x3cac3380	0.02102065
186	0xbce787e3	-0.028263038
187	0x3d3c4403	0.0459633
188	0x3bcd6d37	0.006269123
189	0xbc03b65f	-0.008039086
190	0x3d479fca	0.04873637
191	0xbe63fcba	-0.22264376
192	0xbd182bf5	-0.037151296
193	0x3da12222	0.078678384
194	0x3d95b128	0.073091805
195	0x3de0fb4d	0.10985432
196	0xbe0ec3cc	-0.13941878
197	0x3cd704a7	0.026247336
198	0xbe8cce61	-0.27501205
199	0xbe06407d	-0.13110538
200	0x3c3c12c4	0.011479083
201	0xbf1d5826	-0.6146263
202	0xbda10648	-0.07862526
203	0xbd4f45a9	-0.050603542
204	0xbd00701b	-0.031356912
205	0x3d39f3e0	0.045398593
206	0xbee787f2	-0.45220906
207	0x3d8cf39a	0.06882401
208	0x3e5b4061	0.21411277
209	0xbc0d1fc8	-0.008613534
210	0x3d2cc6fc	0.042181954
211	0x3d39c4e8	0.0453538
212	0x3d021787	0.03176072
213	0xbe31be45	-0.17357738
214	0xbc289b51	-0.010290937
215	0x3d145eaa	0.03622309
216	0x3d48f5e3	0.04906262
217	0x3ca00a6f	0.019536225
218	0x3c0fc17b	0.008774157
219	0x3dc4b888	0.09605509
220	0x3d92c96e	0.07167326
221	0x3d8691b9	0.06570763
222	0xba0beb26	-0.0005337469
223	0xbe468c88	-0.19389546
224	0xbe6597c0	-0.2242117
225	0xbd20b9f4	-0.03923984
226	0xbdedf67d	-0.116192795
227	0x3d203b95	0.03911932
228	0xbcc01594	-0.02344779
229	0x3af9105f	0.0019002071
230	0xbe80794a	-0.25092536
231	0x3b1c31a0	0.002383329
232	0xbd904cc7	-0.07045894
233	0x3cc75b27	0.024335457
234	0x3d43c7b8	0.04779789
235	0x3d6a964d	0.057272244
236	0xbcfa9723	-0.030589646
237	0xbb11bb22	-0.0022236784
238	0xbd5749c0	-0.052560568
239	0x3d046457	0.032322254
240	0x3c192c21	0.0093489
241	0xbe27e21f	-0.16394852
242	0xbb6e3f71	-0.0036353732
243	0xbd689cf6	-0.056790315
244	0xbda3f6fa	-0.080060914
245	0xbe39f98b	-0.181616
246	0x3cb55478	0.022135004
247	0x3d9f728c	0.0778552
248	0xbc710e78	-0.014712922
249	0xbdae30ce	-0.085054025
250	0xbcc4ae29	-0.024008827
251	0x3e037d0e	0.12840673
252	0x3d3e9520	0.046528935
253	0xbe895d51	-0.26829007
254	0xbec49c3b	-0.38400444
255	0xbe15c127	-0.14624463

action_model._discrete_distribution.branches.0.bias f4 [3]
0	0x3d9cd9b5	0.07658712
1	0xbcdbfee5	-0.026854942
2	0xbe119c5f	-0.14219807

action_model._discrete_distribution.branches.1.weight f4 [3, 128]
0	0x3d459805	0.04824068
1	0xbdbb5ee9	-0.09148962
2	0xbd9bbc7a	-0.076043084
3	0x3d9edfe2	0.07757546
4	0x3df1934d	0.117956735
5	0x3d36fde2	0.044675715
6	0xbd89930c	-0.067175
7	0x3d87ac08	0.06624609
8	0xbd5d6d30	-0.054059207
9	0xbd9248ce	-0.07142793
10	0xbded00bc	-0.11572406
11	0xbc8812a1	-0.016610445
12	0xbc3119c2	-0.010809364
13	0x3ccda1bd	0.025101537
14	0xbe3aeef9	-0.18255223
15	0xbc85c793	-0.016330516
16	0x3d24414a	0.040101327
17	0x3d0c6d5b	0.034283977
18	0x3dcd6cb4	0.10030499
19	0xbd34ce2a	-0.044141926
20	0x3d463102	0.04838658
21	0x3d3f05c8	0.046636373
22	0xbe94c686	-0.2905771
23	0x3d13d654	0.03609307
24	0x3d5c6a88	0.053812534
25	0x3d56361e	0.052297704
26	0xbe035258	-0.1282438
27	0xbd8ac06e	-0.06774984
28	0x3c32813c	0.01089507
29	0x3c2395e6	0.009984469
30	0x3d61665a	0.05502925
31	0x3d2a56f3	0.041586827
32	0xbd2e981a	-0.042625524
33	0x3da17b8b	0.07884892
34	0x3dad5e7b	0.08465286
35	0xbd881aca	-0.066457346
36	0xbdcc48db	-0.099748336
37	0xbc69f321	-0.014279158
38	0xbdd89024	-0.10574368
39	0x3c7a1883	0.015264633
40	0x3c6223e1	0.0138024995
41	0x3d812530	0.06305921
42	0x3ad6fce7	0.0016402275
43	0xbde49151	-0.111605294
44	0x3da8fb96	0.08251111
45	0x3d8bf28c	0.068333715
46	0x3ca03277	0.019555314
47	0xbd457059	-0.048202846
48	0x3db772e0	0.089574575
49	0xbda0904e	-0.07840024
50	0xbd2c0f3e	-0.042006724
51	0x3e193f09	0.14965452
52	0xbe85eeb2	-0.26158673
53	0x3dab608a	0.08368023
54	0x3c119d8a	0.008887658
55	0x3c4a20a8	0.012336887
56	0x3d8daa3c	0.06917235
57	0xbd811da9	-0.06304485
58	0x3c6b901e	0.014377622
59	0x3dad4efc	0.08462331
60	0x3c0c75d4	0.008573014
61	0xbd78363b	-0.060598593
62	0x3d9abede	0.07555936
63	0xbd911088	-0.07083231
64	0x3cdc5db7	0.026900155
65	0xbbe1f6fa	-0.006895897
66	0x3deea7e9	0.1165312
67	0x3d9868a2	0.07441832
68	0xbe9c0fc1	-0.3048077
69	0x3ceb5ce9	0.028730826
70	0x3e5e6d32	0.21721342
71	0xbd44e97f	-0.04807424
72	0xbcdd91e2	-0.027047101
73	0xbe8e1424	-0.2774974
74	0xbd4e1117	-0.050309267
75	0xbe5abbec	-0.21360749
76	0x3ed27132	0.41101986
77	0x3e134d6e	0.14385006
78	0xbe9dd70d	-0.30828133
79	0xbd884a4e	-0.066547975
80	0x3dd16b56	0.10225551
81	0x39bee02b	0.00036406642
82	0x3d51730c	0.051135108
83	0xbda212fb	-0.079137765
84	0x3d1fb04b	0.038986485
85	0x3a514690	0.0007983232
86	0x3c1fc8c7	0.009752459
87	0x3d95bd35	0.07311479
88	0x3d43f156	0.047837578
89	0xbdaf9aca	-0.085744455
90	0x3a72feff	0.0009269565
91	0x3d462747	0.0483773
92	0x3d70b18d	0.058763076
93	0xbd6fae31	-0.05851573
94	0x3c819062	0.015815917
95	0xbdc581bd	-0.09643886
96	0xbdf4d361	-0.1195438
97	0xbcf1eecf	-0.029532818
98	0xbde38189	-0.11108691
99	0x3d997559	0.074930854
100	0xbdb37e97	-0.087643795
101	0x3d08b374	0.033374265
102	0xbdfddbfd	-0.12395475
103	0x3bc4203c	0.005985288
104	0xbd4937c1	-0.049125437
105	0x3abbbba6	0.0014322891
106	0x3dac15be	0.084025845
107	0x3cadec5b	0.021230867
108	0x3a4ec8b2	0.00078881823
109	0x3c7e2338	0.0155113265
110	0x3ce84b1d	0.02835613
111	0x3ccca1ea	0.02497955
112	0x3cfc1862	0.030773345
113	0xbda96bd9	-0.082725234
114	0x3bcfb052	0.0063381577
115	0xbc877729	-0.016536312
116	0xbe0ba9f2	-0.13639048
117	0xbc74c780	-0.014940143
118	0x3c355eb5	0.011069943
119	0xbd3b550d	-0.045735408
120	0xbdb4f3fc	-0.08835599
121	0xbdf2b5f9	-0.11851115
122	0x3d6684a8	0.056278855
123	0x3d967ff3	0.07348623
124	0x3d41ae78	0.047285527
125	0x3e9aefb1	0.30260995
126	0xbe60b857	-0.2194532
127	0xbd8a3811	-0.06748975
128	0x3cff9377	0.031198246
129	0x3dda65bf	0.10663938
130	0x3d38b6dd	0.045096267
131	0xbe1afbb8	-0.15135086
132	0xbdad7145	-0.0846887
133	0xbc8355c6	-0.01603211
134	0x3bb30aba	0.005463925
135	0xbc947a4b	-0.01812472
136	0xbe2aef95	-0.16692956
137	0xbcb3932a	-0.02192076
138	0x3d9c34ad	0.076272346
139	0x3d5d3357	0.05400404
140	0xbd66f914	-0.056389883
141	0x3c9d5ea7	0.019210173
142	0x3e5d0dbc	0.2158727
143	0x3d33a05d	0.043854106
144	0x3dab4f35	0.08364717
145	0x3d6e55d8	0.058187336
146	0xbd202cf1	-0.03910536
147	0xbc494580	-0.0122846365
148	0x3c78efc0	0.01519388
149	0xbcc58672	-0.02411196
150	0x3e52bac8	0.20579064
151	0x3b15ec3f	0.002287641
152	0x3d3d97e7	0.046287443
153	0xbd54a684	-0.051916614
154	0x3e014e7d	0.12627597
155	0x3dc1dd1a	0.09466
156	0x3d6694ad	0.056294132
157	0x3d976604	0.07392505
158	0xbe0d2402	-0.13783267
159	0x3b5bfece	0.0033568623
160	0x3c81c92d	0.015842998
161	0xbdc99a6b	-0.09843906
162	0xbe4c926a	-0.19977728
163	0x3a0823d8	0.00051933294
164	0x3de191e2	0.11014153
165	0x3d490a9b	0.04908238
166	0x3e04b3c1	0.12959196
167	0xba04b7ac	-0.00050627696
168	0x3df18f8d	0.11794958
169	0xbc55a456	-0.013039669
170	0x3d1cc823	0.038276803
171	0x3da5aeb3	0.08089962
172	0xbe412c68	-0.18864596
173	0xbe46ce61	-0.19414665
174	0x3d84bdce	0.06481515
175	0x3e12ec25	0.14347894
176	0xbe6f18ed	-0.23349352
177	0xbe309bb5	-0.17246898
178	0x3d503691	0.05083329
179	0xbdad7f5a	-0.08471556
180	0x3e98583f	0.29754826
181	0xbd06ca29	-0.03290764
182	0x3e3ed838	0.18637168
183	0x3c2b12ef	0.010441526
184	0xbdde490b	-0.108537756
185	0x3d0bb5ae	0.03410881
186	0x3d7fb7c0	0.062431097
187	0xbd3755fb	-0.04475973
188	0xbb653048	-0.0034971405
189	0x3d19cf69	0.037551317
190	0xbd33d86f	-0.04390758
191	0x3da9b2ea	0.08286078
192	0x3dce73bd	0.10080669
193	0x3d5c515b	0.053788524
194	0xbd4eba59	-0.050470684
195	0xbe07cdb4	-0.13262063
196	0x3ea2b36c	0.31777513
197	0x3d55bfa6	0.052184723
198	0xbe83f9d9	-0.25776556
199	0x3d10acea	0.035321154
200	0xbdc8334f	-0.09775411
201	0x3eb41965	0.35175624
202	0x3dcec4e8	0.10096151
203	0x3e719db3	0.23595314
204	0xbef1c9c9	-0.47224262
205	0xbe27b80d	-0.16378804
206	0x3e9c611a	0.30542833
207	0x3cf39ab1	0.029736849
208	0xbe8b9460	-0.2726164
209	0x3d36a25c	0.04458843
210	0xbd4953a5	-0.049152035
211	0x3deccc4c	0.11562404
212	0xbd1c4619	-0.038152788
213	0x3dc1e468	0.09467393
214	0x3ae5517a	0.0017495595
215	0xbcd0bdaf	-0.025481073
216	0x3b14a852	0.0022683335
217	0x3dabe488	0.08393198
218	0xbd9b89ce	-0.075946435
219	0xbde78ade	-0.11305784
220	0xbca8f7d2	-0.020625982
221	0x3b57a34f	0.0032903736
222	0xbdf852e0	-0.12125182
223	0x3d017a3d	0.031610716
224	0x3e41979e	0.18905494
225	0x3dca96e4	0.09892061
226	0x3d10db45	0.03536536
227	0xb99f5276	-0.0003038828
228	0x3e151595	0.14559014
229	0x3da006f8	0.07813829
230	0x3e2793ea	0.16365018
231	0x3dba7eae	0.091061935
232	0x3d8ad231	0.06778372
233	0x3d810e77	0.06301587
234	0xbcae2f1b	-0.021262696
235	0xbe1bc643	-0.1521235
236	0x3c811f9f	0.015762148
237	0x3bfaa0db	0.00764857
238	0x3d9150a8	0.07095462
239	0x3d5e5c9d	0.05428754
240	0x3d030e0e	0.031995825
241	0x3e33dedd	0.17565484
242	0x3d003409	0.031299625
243	0x3d274696	0.0408388
244	0x3dd741c5	0.105105914
245	0x3d2a663d	0.04160141
246	0x3d1c0406	0.038089775
247	0x3b1abcd4	0.0023611085
248	0x3d79c4b8	0.06097862
249	0x3dad738d	0.08469305
250	0xbd810a0c	-0.063007444
251	0xbdede8a7	-0.116166405
252	0x3d00b989	0.03142694
253	0xbe9aca39	-0.3023241
254	0x3e44ccdf	0.19218777
255	0x3d872dbe	0.066005215

action_model._discrete_distribution.branches.1.bias f4 [3]
0	0x3d612cda	0.054974414
1	0xbd18b676	-0.037283383
2	0xbc8ebca4	-0.017423935

exp_avg f4 [128, 36]
0	0xb7fb98d2	-2.9992694e-05
1	0xb9a10939	-0.00030715184
2	0x00000000	0.0
3	0xb73f613b	-1.1407125e-05
4	0xb8e35106	-0.00010839295
5	0xb81875ac	-3.6349214e-05
6	0xb9a52e93	-0.00031505953
7	0x00000000	0.0
8	0x363fbce2	2.8571162e-06
9	0xb8ed95d7	-0.000113289505
10	0xb8836064	-6.264521e-05
11	0xb99d74d1	-0.00030032409
12	0x00000000	0.0
13	0x3771e366	1.4417665e-05
14	0xb8e3144e	-0.000108279855
15	0xb8f8ebe1	-0.000118694974
16	0xb96dea75	-0.00022689423
17	0x00000000	0.0
18	0xb646cdb1	-2.9624027e-06
19	0xb9042723	-0.0001260308
20	0xb49e87ea	-2.9528684e-07
21	0xb9b2181c	-0.0003396877
22	0x00000000	0.0
23	0xb70fc219	-8.568656e-06
24	0xb901aa80	-0.00012365915
25	0xb96b42d8	-0.00022436248
26	0xb9028603	-0.0001244769
27	0x00000000	0.0
28	0x349a8104	2.8778607e-07
29	0xb92614c5	-0.00015838731
30	0xb9b817d4	-0.00035112968
31	0x3702e90e	7.802866e-06
32	0x00000000	0.0
33	0xb6af5175	-5.2248893e-06
34	0xb93e795f	-0.00018165026
35	0xb8bd5247	-9.027548e-05
36	0xb839d6f4	-4.4307628e-05
37	0x3a3d8ffb	0.00072312326
38	0x00000000	0.0
39	0x37f9ad97	2.9763947e-05
40	0x3985356e	0.00025407545
41	0xb85c5ad6	-5.2536685e-05
42	0x3a308ee5	0.000673516
43	0x00000000	0.0
44	0x38b7b606	8.7600245e-05
45	0x3948c6a6	0.00019147489
46	0x3911e226	0.00013912524
47	0x3a0439c5	0.0005044009
48	0x00000000	0.0
49	0x38886d57	6.5053515e-05
50	0x39a650b8	0.00031722127
51	0xb8a49ac4	-7.848957e-05
52	0x3a49eb1c	0.00077025755
53	0x00000000	0.0
54	0x378d0705	1.6811779e-05
55	0x391fe41d	0.000152484
56	0x39e3a1c9	0.00043417353
57	0x39933e80	0.0002808459
58	0x00000000	0.0
59	0xb6d812b5	-6.4394794e-06
60	0x3991e304	0.00027825695
61	0xb9c163d0	-0.00036886195
62	0x3a8ef866	0.0010907769
63	0x00000000	0.0
64	0xb75fbb15	-1.3335394e-05
65	0x38f8faa4	0.00011872247
66	0x3a2b31d3	0.0006530557
67	0x385d195a	5.2714116e-05
68	0x00000000	0.0
69	0x363c9267	2.80994e-06
70	0x39982dc8	0.0002902581
71	0xba2e261b	-0.00066432514
72	0x38d2eda1	0.00010057842
73	0x3abf1d2e	0.001458084
74	0x00000000	0.0
75	0x364ad93f	3.02268e-06
76	0x3a01f625	0.0004957638
77	0x390dd421	0.00013525832
78	0x3abd732d	0.0014453881
79	0x00000000	0.0
80	0xb79f0f36	-1.896136e-05
81	0x3a0b90d7	0.0005324012
82	0x39999d12	0.0002929946
83	0x3aa9d5a4	0.0012957347
84	0x00000000	0.0
85	0xb7e2dd22	-2.7044272e-05
86	0x3a094ce8	0.0005237595
87	0x38f25a5d	0.00011556291
88	0x3abac810	0.0014250297
89	0x00000000	0.0
90	0x37b0ef7e	2.1092357e-05
91	0x3a1c35ce	0.0005958945
92	0x39823ca7	0.00024840722
93	0x3aa80391	0.0012818446
94	0x00000000	0.0
95	0x3803d6dd	3.143294e-05
96	0x3a0dd28e	0.0005410098
97	0x3a878f5a	0.0010342405
98	0x3a09329a	0.00052336755
99	0x00000000	0.0
100	0x3688cc59	4.076905e-06
101	0x3a5b331d	0.00083618035
102	0x3a9a87bf	0.0011789723
103	0x39cace21	0.0003868202
104	0x00000000	0.0
105	0xb689d32e	-4.1075027e-06
106	0x3a2294c0	0.0006201975
107	0xb814d9b9	-3.548872e-05
108	0xb7c7ce25	-2.3818642e-05
109	0x3a267e43	0.0006351212
110	0x00000000	0.0
111	0x38831835	6.251076e-05
112	0x39ba4c07	0.0003553333
113	0x3833111f	4.269287e-05
114	0x3a099821	0.0005248804
115	0x00000000	0.0
116	0x38decd20	0.000106239924
117	0x39c09064	0.00036728673
118	0x3809c6ef	3.2848617e-05
119	0x3a17a2ea	0.0005784469
120	0x00000000	0.0
121	0x38831c0d	6.251792e-05
122	0x39cb4985	0.00038773954
123	0x399d6481	0.00030020255
124	0x39be0279	0.00036241466
125	0x00000000	0.0
126	0x373bd804	1.1196364e-05
127	0x39abe7b8	0.00032788306
128	0x39be3c36	0.00036284485
129	0x39a2c4b8	0.00031045615
130	0x00000000	0.0
131	0x350991f7	5.1248884e-07
132	0x39d7298c	0.0004103895
133	0x39a561ac	0.00031544024
134	0x39bfa0eb	0.00036550252
135	0x00000000	0.0
136	0xb6ef3821	-7.1292893e-06
137	0x399319d4	0.00028057268
138	0x3a45053b	0.0007515733
139	0xb8b48dbd	-8.60947e-05
140	0x00000000	0.0
141	0x370bd51b	8.334663e-06
142	0x39b706cc	0.00034909544
143	0x39349a7a	0.00017223685
144	0xb8544418	-5.0608156e-05
145	0x3a1db405	0.00060158997
146	0x00000000	0.0
147	0x390c3361	0.0001337058
148	0x39b43317	0.0003437034
149	0x38d377e2	0.00010083594
150	0x39bfe2eb	0.00036599426
151	0x00000000	0.0
152	0x396470ae	0.00021785751
153	0x39caac8e	0.00038657006
154	0xb8578630	-5.1384966e-05
155	0x3a15533d	0.00056963024
156	0x00000000	0.0
157	0x392e86fe	0.00016644222
158	0x39be769c	0.00036327995
159	0x39a94b6c	0.00032290386
160	0x39bbfe02	0.0003585667
161	0x00000000	0.0
162	0x3657eadf	3.217421e-06
163	0x3996c48e	0.00028756674
164	0x3934ddbc	0.0001724874
165	0x3a07aa60	0.0005175229
166	0x00000000	0.0
167	0xb6b29aab	-5.322819e-06
168	0x39d6a256	0.0004093821
169	0x39c016ba	0.00036638026
170	0x39ab46af	0.00032668325
171	0x00000000	0.0
172	0xb70c85f4	-8.375839e-06
173	0x39be980e	0.00036352914
174	0x3a5b84c1	0.0008373969
175	0xb921d5bb	-0.00015433777
176	0x00000000	0.0
177	0x35da96b0	1.6286122e-06
178	0x39d146fe	0.0003991648
179	0x3959281c	0.00020709675
180	0x3862a79f	5.403871e-05
181	0x37b4b25c	2.1540727e-05
182	0x00000000	0.0
183	0xb84e4b07	-4.9184102e-05
184	0x3822598d	3.870721e-05
185	0x37be6b76	2.2699805e-05
186	0x36f17f86	7.1972054e-06
187	0x00000000	0.0
188	0xb66afda3	-3.5016353e-06
189	0xb7b980d9	-2.2113718e-05
190	0x37fa112f	2.9810324e-05
191	0x362b5f11	2.5536322e-06
192	0x00000000	0.0
193	0xb6c846d5	-5.9687104e-06
194	0x38a669c2	7.935196e-05
195	0x37b521b3	2.1592574e-05
196	0x3757620f	1.283783e-05
197	0x00000000	0.0
198	0xb706cdd9	-8.03495e-06
199	0xb82793a5	-3.9953407e-05
200	0x39a2e5ae	0.00031070173
201	0xb99a8bc2	-0.00029477297
202	0x00000000	0.0
203	0x372f99e3	1.0466642e-05
204	0x38a9b649	8.092501e-05
205	0xb9e38cb0	-0.00043401634
206	0x39ed4eaf	0.00045262786
207	0x00000000	0.0
208	0x370297f2	7.783981e-06
209	0xb90eed57	-0.00013630591
210	0x38c6a482	9.472018e-05
211	0xb87ba676	-5.9998092e-05
212	0x00000000	0.0
213	0xb70bb38a	-8.326848e-06
214	0x3863e0df	5.4330445e-05
215	0xb8f940c9	-0.000118853124
216	0xb6c34532	-5.8195083e-06
217	0x380c8d63	3.3510278e-05
218	0x00000000	0.0
219	0x35a065ff	1.1950614e-06
220	0x381d41bd	3.749294e-05
221	0x34c1e8b3	3.6118362e-07
222	0x37dddccf	2.6448075e-05
223	0x00000000	0.0
224	0x360b5b7e	2.076587e-06
225	0x3827f568	4.0044455e-05
226	0x381e0b28	3.7680526e-05
227	0xb787721b	-1.6146389e-05
228	0x00000000	0.0
229	0x36f6ae7f	7.3516853e-06
230	0x383ef94e	4.5531713e-05
231	0xb85b3fa9	-5.2272957e-05
232	0x38a90eca	8.061303e-05
233	0x00000000	0.0
234	0x3512845c	5.4581847e-07
235	0x382ecfe3	4.1678442e-05
236	0x37e55ba0	2.7341594e-05
237	0x3561a5d3	8.406034e-07
238	0x00000000	0.0
239	0x353cdc94	7.035644e-07
240	0x37b13cb3	2.112831e-05
241	0x38a12844	7.684578e-05
242	0xb8434d15	-4.656341e-05
243	0x00000000	0.0
244	0xb5bb702e	-1.3965234e-06
245	0x385e6a7a	5.302809e-05
246	0x390b70c1	0.00013298077
247	0xb8e1209e	-0.000107349115
248	0x00000000	0.0
249	0x365a63b6	3.254257e-06
250	0xb783ea6c	-1.5725578e-05
251	0xb92e1557	-0.00016601883
252	0xb8265466	-3.9656086e-05
253	0x3929d3cc	0.00016195996
254	0x00000000	0.0
255	0xb76988fd	-1.3919777e-05

exp_avg_sq f4 [128, 36]
0	0x342ae4d9	1.5915738e-07
1	0x367df79a	3.784406e-06
2	0x00000000	0.0
3	0x328d2174	1.6429773e-08
4	0x34f4f4aa	4.5626558e-07
5	0x3515e20f	5.5835784e-07
6	0x3661853e	3.360517e-06
7	0x00000000	0.0
8	0x31cc91d9	5.9537624e-09
9	0x34f105e1	4.4894026e-07
10	0x346f8ea5	2.2310503e-07
11	0x36797834	3.7173859e-06
12	0x00000000	0.0
13	0x32678ae8	1.3477553e-08
14	0x35070aba	5.030703e-07
15	0x363e60b0	2.8368486e-06
16	0x359359ff	1.0978546e-06
17	0x00000000	0.0
18	0x316192f8	3.2825351e-09
19	0x34b1e923	3.3138448e-07
20	0x35c0154a	1.4311311e-06
21	0x361ef4d1	2.3686337e-06
22	0x00000000	0.0
23	0x32c4ca41	2.2909378e-08
24	0x3521b60f	6.0242104e-07
25	0x365a44ce	3.252458e-06
26	0x353ca41d	7.0274274e-07
27	0x00000000	0.0
28	0x2f02830b	1.1869987e-10
29	0x348ec2ab	2.65912e-07
30	0x36515bdf	3.1196903e-06
31	0x35401fdb	7.157193e-07
32	0x00000000	0.0
33	0x32351f04	1.0542639e-08
34	0x3519ca6a	5.729149e-07
35	0x3676efa0	3.6796337e-06
36	0x34c3fee1	3.650703e-07
37	0x37d02c68	2.481621e-05
38	0x00000000	0.0
39	0x33d7bea1	1.0046393e-07
40	0x36604ffa	3.3425154e-06
41	0x360ee7bb	2.1294534e-06
42	0x37b90533	2.205614e-05
43	0x00000000	0.0
44	0x343b404b	1.7439122e-07
45	0x367aa3f0	3.7348327e-06
46	0x3552913a	7.844243e-07
47	0x37cc7a1a	2.4375553e-05
48	0x00000000	0.0
49	0x33b9f6f1	8.659652e-08
50	0x3670751e	3.5830958e-06
51	0x3749a8ca	1.2019833e-05
52	0x375367ae	1.260072e-05
53	0x00000000	0.0
54	0x339cc9d5	7.301029e-08
55	0x366784b4	3.4498926e-06
56	0x3716fe28	8.999872e-06
57	0x3780172d	1.5269581e-05
58	0x00000000	0.0
59	0x335e2f2e	5.1731313e-08
60	0x367a3151	3.728161e-06
61	0x37936405	1.757034e-05
62	0x36fb7035	7.4934455e-06
63	0x00000000	0.0
64	0x331ef43e	3.700938e-08
65	0x363c44ef	2.8054308e-06
66	0x3781d137	1.5475422e-05
67	0x371465e2	8.845209e-06
68	0x00000000	0.0
69	0x3196ef88	4.392806e-09
70	0x36495985	3.0003441e-06
71	0x37d28ae3	2.5098625e-05
72	0x3503dd9a	4.9123776e-07
73	0x37894c4c	1.6367201e-05
74	0x00000000	0.0
75	0x34227ddf	1.5133217e-07
76	0x36541b10	3.1606214e-06
77	0x358a001b	1.0281832e-06
78	0x3783ba8c	1.5703285e-05
79	0x00000000	0.0
80	0x344d862e	1.9140927e-07
81	0x36698057	3.479441e-06
82	0x35db1e27	1.6325547e-06
83	0x377d28c0	1.5089463e-05
84	0x00000000	0.0
85	0x33c5379a	9.183641e-08
86	0x3666b209	3.43763e-06
87	0x3719b41f	9.161448e-06
88	0x36f997bf	7.438444e-06
89	0x00000000	0.0
90	0x3415e882	1.3961292e-07
91	0x3676afc4	3.6759166e-06
92	0x3708a9d0	8.145769e-06
93	0x370b92be	8.319212e-06
94	0x00000000	0.0
95	0x33db3b08	1.020872e-07
96	0x365aeced	3.262244e-06
97	0x377931ed	1.4853181e-05
98	0x361ee693	2.3678047e-06
99	0x00000000	0.0
100	0x321a536d	8.982949e-09
101	0x365246c0	3.133362e-06
102	0x37525c1d	1.2538422e-05
103	0x3690143a	4.293889e-06
104	0x00000000	0.0
105	0x33850b3c	6.1953386e-08
106	0x362f10bb	2.608677e-06
107	0x37841459	1.5745101e-05
108	0x33bdd75e	8.8401734e-08
109	0x36dec2ad	6.638779e-06
110	0x00000000	0.0
111	0x32e17d28	2.6250362e-08
112	0x35a6b0a3	1.2419372e-06
113	0x3550e268	7.78155e-07
114	0x36be4fcc	5.671731e-06
115	0x00000000	0.0
116	0x333d8860	4.4129024e-08
117	0x35b9e2b1	1.384955e-06
118	0x34a73ba3	3.1149565e-07
119	0x36d8d6a1	6.4622877e-06
120	0x00000000	0.0
121	0x3306c9ad	3.138273e-08
122	0x35b12702	1.319888e-06
123	0x36a58960	4.9333757e-06
124	0x35e62699	1.7147569e-06
125	0x00000000	0.0
126	0x326ea2d8	1.389045e-08
127	0x3596ea69	1.1244093e-06
128	0x365a8a8a	3.2565172e-06
129	0x3651a0e1	3.123707e-06
130	0x00000000	0.0
131	0x32d3c029	2.4651017e-08
132	0x35bb693f	1.3963216e-06
133	0x36c9c41a	6.013096e-06
134	0x355d1db0	8.2372117e-07
135	0x00000000	0.0
136	0x31fcf9f4	7.3625817e-09
137	0x3553b609	7.886852e-07
138	0x36c3c504	5.8343885e-06
139	0x3555d381	7.965646e-07
140	0x00000000	0.0
141	0x316f2b24	3.48036e-09
142	0x358991b0	1.0249696e-06
143	0x36de8fca	6.632855e-06
144	0x337af024	5.8426068e-08
145	0x37b347ce	2.13719e-05
146	0x00000000	0.0
147	0x3481d643	2.4184018e-07
148	0x36910fc3	4.3231717e-06
149	0x354c51e6	7.61151e-07
150	0x37a982f7	2.0207355e-05
151	0x00000000	0.0
152	0x347c4c98	2.3497194e-07
153	0x369e50e0	4.718182e-06
154	0x3611cf7c	2.1727456e-06
155	0x37a2e7fd	1.9419933e-05
156	0x00000000	0.0
157	0x348acf8e	2.585552e-07
158	0x369ed4e4	4.7335507e-06
159	0x373f5401	1.1404046e-05
160	0x37293e5f	1.0087707e-05
161	0x00000000	0.0
162	0x339dc632	7.346934e-08
163	0x36913435	4.3274144e-06
164	0x3742c852	1.1609942e-05
165	0x371af018	9.2350165e-06
166	0x00000000	0.0
167	0x34112484	1.3517462e-07
168	0x36a67797	4.9611076e-06
169	0x378a6a25	1.650031e-05
170	0x36a5579f	4.9275836e-06
171	0x00000000	0.0
172	0x32aa8ffa	1.9856078e-08
173	0x366a7b84	3.4940613e-06
174	0x37a4dd2c	1.9653315e-05
175	0x35fa87df	1.8665995e-06
176	0x00000000	0.0
177	0x31d5bf4a	6.220863e-09
178	0x368e7d50	4.246518e-06
179	0x37a66ff6	1.9840878e-05
180	0x3485d521	2.4928252e-07
181	0x37274e5b	9.972219e-06
182	0x00000000	0.0
183	0x33a47a0c	7.659045e-08
184	0x35c6ef0b	1.482172e-06
185	0x35d7b6a1	1.60719e-06
186	0x370ab756	8.268127e-06
187	0x00000000	0.0
188	0x33d4eaca	9.914727e-08
189	0x35d8fd9c	1.6167064e-06
190	0x34c86f77	3.7334004e-07
191	0x3725497f	9.8518785e-06
192	0x00000000	0.0
193	0x33915b54	6.768701e-08
194	0x35cca786	1.524794e-06
195	0x36d14e7b	6.2378217e-06
196	0x367efa94	3.7994805e-06
197	0x00000000	0.0
198	0x3305ac49	3.1123168e-08
199	0x35bc71f2	1.4040254e-06
200	0x366d007c	3.5316034e-06
201	0x36d16a83	6.241085e-06
202	0x00000000	0.0
203	0x3334aaa7	4.2064723e-08
204	0x35d4172e	1.5801977e-06
205	0x3703d8e8	7.858711e-06
206	0x3611fa19	2.175226e-06
207	0x00000000	0.0
208	0x32a8db8e	1.9657616e-08
209	0x35993e3e	1.1417503e-06
210	0x36f2c601	7.2352127e-06
211	0x3636322c	2.7149317e-06
212	0x00000000	0.0
213	0x320116d2	7.513977e-09
214	0x35a6ed91	1.2437105e-06
215	0x372894e7	1.0048249e-05
216	0x33129d1c	3.4136164e-08
217	0x363c699f	2.8075663e-06
218	0x00000000	0.0
219	0x312823e9	2.446763e-09
220	0x349a7e16	2.8776475e-07
221	0x33d50bc2	9.920724e-08
222	0x3638683f	2.7478816e-06
223	0x00000000	0.0
224	0x3187d089	3.952725e-09
225	0x34ac0ea5	3.2048152e-07
226	0x33af736b	8.170067e-08
227	0x36380aad	2.742435e-06
228	0x00000000	0.0
229	0x315a12a3	3.173377e-09
230	0x34af107d	3.2608287e-07
231	0x35afec58	1.3107301e-06
232	0x35c54260	1.4696961e-06
233	0x00000000	0.0
234	0x31f8c071	7.239628e-09
235	0x34b73941	3.4128064e-07
236	0x35717d85	8.996215e-07
237	0x35fd0cf0	1.8853734e-06
238	0x00000000	0.0
239	0x2fae918b	3.175383e-10
240	0x34c65b54	3.6946824e-07
241	0x3600221d	1.9093343e-06
242	0x355e53f2	8.28236e-07
243	0x00000000	0.0
244	0x3017b5e2	5.519195e-10
245	0x34b315ca	3.3357202e-07
246	0x36010de6	1.9230588e-06
247	0x355f2ad0	8.3136274e-07
248	0x00000000	0.0
249	0x3035ae52	6.609514e-10
250	0x34c45f67	3.657726e-07
251	0x3631d704	2.650021e-06
252	0x340bbb56	1.3013536e-07
253	0x35e45f16	1.7014997e-06
254	0x00000000	0.0
255	0x32585154	1.2591347e-08
