Assets/results/T2/CarDriver/CarDriver-7500320.onnx (onnx, 188993 bytes, 9 tensors)

discrete_act_size_vector f4 [1, 2]
00000000: 0000 4040 0000 4040
3.0 3.0

network_body._body_endoder.seq_layers.0.weight f4 [128, 225]
00000000: 156c b0bc 8bcf 9abc b7c1 febd ddaa 2fbd
00000010: 506a 0fbb 6266 2c3e 277e 5ebd cbc7 12bd
00000020: eb26 37be 7ae0 d03d c38b 0abd 56da e1bc
00000030: 306d ad3c cc14 923d 9269 8a3d 33db 163d
00000040: 0199 c1bd f5e0 26be 4c2d b23d 4bb7 b6bd
00000050: 246c 683d 6855 353d b1ec 8e3b 5ecc babb
00000060: 866d e53d 5272 cabd a150 1d3e 6fd4 843c
00000070: f7b7 7bbd 5b8e f8bd d50e c73d 6ef1 4d3c
00000080: 1cce f13d 10d1 9fbc b974 7cbd 8f52 fabd
00000090: 98dc 08bd efcb ca3c 36ef dfbb 6500 93bd
000000a0: 5564 82bc 0312 80bd eef7 64bc 413d a83d
000000b0: e57d cc3d 50ee 70bd 3544 9c3d 7ec6 5ebd
000000c0: 587d 07be 7010 59be 8934 fd3d cd9f e2bc
000000d0: 589c 023e 6d6d 47bd 7284 763d 5548 543e
000000e0: 2ba5 dc3d 7dba 35be 2caa 083e 9c07 0fbe
000000f0: 05d9 b6bc d041 52be 75cf a33c 4a44 3d3d
00000100: 7086 903d 5eb4 56bd 9d5a 3e3c 6645 293d
00000110: 8144 a8bd f77b 3dbe 7e93 5f3d 1660 443d
00000120: 682b c3bd 3153 0ebc bf7d 853d 47b1 c9bd
00000130: c26c f3bd 759f 19be 725f aa3d e580 7dba
00000140: 784d 903b 88b1 7c3c d110 15bd 21dd 2bbd
00000150: d65b 813d c311 ca3c 53ec c23c e0c7 1ebe
00000160: b9f0 0c3c 2f5f 213d 0348 d6bc 5634 adbd
00000170: de20 e13c 7daf 1cbd cb06 e4bc 0d3d 1dbe
00000180: 9f05 4d3d 07ae 893b c826 89bd ae62 993b
00000190: 2217 8bbb 21f1 adbc d9f0 5abd e96b babc
000001a0: 1363 70bc 43d0 17bd ea8f 9a3d f60a 78bd
000001b0: 136d d2bd 3f08 57bc 168f 17be fb4a 633c
000001c0: 6bb6 cbbb 123f 133c 650d d63d 7670 fdbd
000001d0: 4d6c 64bd a6d0 af3d 78bd 5c3d d378 2c3d
000001e0: a7ac 0c3d 939c 39be 6453 ee3d f85b 0a3d
000001f0: 4efc e03d 2e34 debc 6d71 f63c 6af3 b0bc
00000200: 5683 c73c 25c9 93bd fb05 823d f6b7 0a3d
00000210: 73c9 16bd 78a9 03be adf6 cc3d 1d35 50bb
00000220: 1b17 fb3c e437 6dbd 54f1 93bd 88ac 7dbd
00000230: 2cd8 bf3d 985c edbd 258d 8bbc 1a7d 26bd
00000240: 3b93 8e3d 5359 2eba 3f3c ca3c 7126 e0bc
00000250: 1727 e73c d197 82bd 8694 223d 3228 a5bd
00000260: 2124 973d b565 e4bc 2f5a 2bbd e7d2 c8bb
00000270: 448e c13d 1185 74bc 42b6 d33c e92c a23d
00000280: c4bd f6bd 1ed4 453c 6458 10bb ff3c 2ebc
00000290: 0218 e23d 26fb 2e3e 7bfe 62be 3e63 af3c
000002a0: 570d 023e 3f13 83bd 8611 28be 8dce 80be
000002b0: 860c 65bc 2bc4 61bd c90f 69bd 3d2c 8abc
000002c0: 06ed 80bc 11ec c5bd c2ed 46bd 6c71 6cbd
000002d0: 2e86 aa3d 868c c2bd 5e00 2abc 1974 d4bb
000002e0: ef03 123c bb26 96bd 5c47 103e efb2 e8bc
000002f0: ab05 40be b8ce 90bd 9301 053e f91b ed3d
00000300: 2570 603c 6530 64bd bdb5 77bb 410f 36bd
00000310: fd6f f83d 1b92 32be bee5 06be fdbe 23bd
00000320: d320 083e b4f9 e93d 1d08 63be b7b4 b5bd
00000330: 3b2c d03d 1058 523c 8089 ee3c 4183 98bd
00000340: 3104 ed3d 39c8 acbd 946e c4bd 9dc3 8f3c
00000350: ee9b 253d 73e8 0a3c 9fc3 123e b569 acbd
00000360: 99ea 06be 59b6 c5bd 86ea db3d 33f8 8d3d
00000370: 1326 613d 300f 56bd d1b5 73bc e2f8 d1bc
00000380: 67a4 bf3d e45b 7c3d c46b 673d fb3d 7b3d
00000390: ecce 0abd ef71 16bd b729 ad3d 1b8c 243d
000003a0: 0e5b e8bd d95a 283b 374d b13c a24b f6ba
000003b0: e414 17be 9ca6 7ebd a59e 98bc d7e7 af3d
000003c0: 89b3 3c3d 63c3 ba3d 77cb 963c f4c7 eabc
000003d0: ced8 0d3b 7715 a5bd f46a 16be 6e99 55bd
000003e0: 040d 9d3d d7bd acbc 6455 653d 5476 8d3d
000003f0: dce8 25bd 63a7 f93b 4b83 0fbd b970 333d
-0.021535913 -0.018897792 -0.12439292 -0.042887557 -0.0021883436 0.16835931 -0.054319527 -0.03583507
-0.1788594 0.101990655 -0.033824693 -0.027569931 0.021170229 0.07132873 0.06758417 0.03683014
-0.09453011 -0.16296752 0.08700046 -0.08921679 0.056743756 0.044270903 0.004361712 -0.005700632
0.112025306 -0.09885086 0.15362789 0.016214577 -0.06145474 -0.12136527 0.09719626 0.012569768
0.1180689 -0.019508868 -0.061634753 -0.12222778 -0.0334135 0.024755446 -0.006833936 -0.071778096
-0.015916983 -0.062534355 -0.013975127 0.08214808 0.0998495 -0.058821023 0.07630197 -0.054388516
-0.13231409 -0.21197677 0.12363536 -0.02766409 0.12754953 -0.04868834 0.060184903 0.20730717
0.10773691 -0.17746921 0.13346165 -0.13967746 -0.02232028 -0.20532918 0.019996384 0.046207704
0.07056892 -0.052418105 0.011618284 0.04132595 -0.08216191 -0.1850432 0.05458402 0.047943197
-0.095297635 -0.008686827 0.06518125 -0.09848266 -0.11885978 -0.15002234 0.08318986 -0.0009670391
0.0044037662 0.015423186 -0.03639299 -0.04195893 0.063163444 0.024666673 0.023794329 -0.15505934
0.008602315 0.039397415 -0.026157385 -0.08457248 0.027481493 -0.038253296 -0.02783527 -0.1535532
0.05005419 0.004201654 -0.0669685 0.004680953 -0.004244701 -0.021233143 -0.053452346 -0.022756534
-0.014672059 -0.03706385 0.07546981 -0.06055733 -0.102747105 -0.013124525 -0.14800677 0.013872857
-0.0062168143 0.008987205 0.104517736 -0.12374966 -0.055767346 0.085847184 0.05389163 0.042107414
0.03434434 -0.18126135 0.11636999 0.033779114 0.10985623 -0.02712449 0.030083383 -0.021600444
0.024354618 -0.072161 0.06348797 0.033866845 -0.03681321 -0.12857616 0.10007987 -0.003176994
0.030650666 -0.05791463 -0.07223764 -0.061932117 0.093674034 -0.115899265 -0.017035076 -0.04064665
0.06961676 -0.00066508836 0.02468693 -0.02736208 0.028216882 -0.06376613 0.039692424 -0.08064307
0.07379938 -0.027880529 -0.041834053 -0.006128657 0.09450963 -0.014924304 0.025843743 0.07918722
-0.12047914 0.012074498 -0.0022025341 -0.01063466 0.110397354 0.17087993 -0.22167389 0.021409627
0.12700401 -0.06400155 -0.16412935 -0.25157586 -0.013980037 -0.05511872 -0.05689982 -0.016866798
-0.015738022 -0.09664167 -0.048566587 -0.057725355 0.08326374 -0.09499459 -0.010376064 -0.0064835665
0.008912071 -0.07331606 0.14089721 -0.028405635 -0.18752162 -0.070706785 0.12988882 0.11577601
0.013698612 -0.055710215 -0.0037797533 -0.04444814 0.12130735 -0.17438547 -0.13173577 -0.039977062
0.13293771 0.1142458 -0.22171064 -0.08872359 0.10164686 0.012838379 0.0291183 -0.0744691
0.11573065 -0.08436627 -0.095914036 0.01754933 0.04043191 0.008478272 0.14332436 -0.084185995
-0.1317543 -0.09653921 0.10738091 0.06932106 0.05496795 -0.052260578 -0.014874891 -0.025631372
0.09357529 0.06161107 0.056499258 0.061338406 -0.033888742 -0.03672975 0.08455222 0.040172677
-0.11345492 0.0025688915 0.021643264 -0.0018790851 -0.14754063 -0.06217061 -0.018630335 0.08589142
0.046069656 0.09119298 0.018407566 -0.028659798 0.0021644118 -0.08060735 -0.14689237 -0.052148275
0.07668498 -0.021086616 0.055989638 0.06907335 -0.040505275 0.007618831 -0.03503732 0.043808673

network_body._body_endoder.seq_layers.0.bias f4 [128]
00000000: e383 a8bb df68 fd3b d4aa ed3a 933f 12bb
00000010: 1a15 5f3b da6d 07bc 348b 2fbb 0a21 5dbc
00000020: 7a4e 53bc 36f1 27bd 6baf fcbb 3405 6dbc
00000030: 4b31 403c 94c2 7dbc da95 223c d0ea a13c
00000040: a476 b33c 369f 7abb 3beb fb3c 6ab2 49bb
00000050: fc21 62bb cb90 8ebc 3061 94bd d976 9cbb
00000060: b3d3 b8bc 17b6 01bb 15a8 25bc e5c5 463c
00000070: f3bc 89bc 4b14 bcbc b047 723b ba7d 85ba
00000080: 2598 00bd 5b51 7cbc 05f8 423c fcc8 34bd
00000090: ae05 b73c b3bc a93b 20ce ce3c 8160 0f3b
000000a0: 80be 64bc 1fb8 cb3c f038 a73c b248 b8bb
000000b0: e65b 1c3c 9adc 33bc db46 d13b 8913 6cbc
000000c0: acfa 5a3c 3149 fabb 8dde 0c3b 4b05 963b
000000d0: 9b7c 46ba 2e50 d2bc fcd3 80bc 15a3 873a
000000e0: b592 48bc f70c 3b3c 5c9b 003d 1a3b 043c
000000f0: 3ca1 cf3c a8f4 4a3c 99fa 23bc a4ba c239
00000100: a5a2 cdbc df7c 89bc 49ed cfbb d27d 0f3d
00000110: 29fd c23c 2664 d23c 7420 aebc 3e90 72bc
00000120: 589b 203c 0299 0fbb 939a 6fbc 24d0 0fbc
00000130: 0334 99bb cafd 20bb ab69 8a3a 4be4 92bb
00000140: dad6 31bb 8b29 0abc 0fe9 293c d42d 9d3a
00000150: fa5c cb3c fe62 afbc 241a f43c 8f85 babc
00000160: 55d4 1b3d 3674 fcbb cf1e 363c b723 c33c
00000170: 6b99 ad3b adad 91b9 1551 dabc f4f7 4abb
00000180: 96b4 673c cd2d 203b 3721 27bc 10be 72bc
00000190: 2827 0abd 0c4d 05bc b08b ac3c 8ee3 333c
000001a0: eecd b1bb f39c fa3c 8f05 bfbb abf6 28bc
000001b0: 6773 ee3a aa96 a2bb 4a58 a33c fb29 c33c
000001c0: a485 013b 23c0 70bc 9bc1 cf3c 9bf5 dcbc
000001d0: f819 88bb c2ec b0bc 6846 c4bc 513a e63c
000001e0: 89ba 533c 8348 cebc 10fe 013d d989 013c
000001f0: 3022 a3bc 06f8 fe3a f9b5 cebc cf5a 8c3c
-0.0051426752 0.007733449 0.0018132576 -0.0022315725 0.0034039677 -0.008265937 -0.0026785852 -0.013496647
-0.012897128 -0.04100152 -0.007711341 -0.014466573 0.011730502 -0.015488286 0.009923423 0.019765288
0.021907158 -0.003824187 0.030751815 -0.003077651 -0.003450512 -0.017403027 -0.072450995 -0.00477491
-0.022561884 -0.0019792372 -0.010110875 0.012132143 -0.01681373 -0.022958895 0.0036968999 -0.0010184564
-0.031395096 -0.015400256 0.011899953 -0.044136986 0.022341575 0.0051799654 0.025244772 0.002187759
-0.013961434 0.02486807 0.020412892 -0.0056239003 0.009543395 -0.0109778885 0.0063866205 -0.014408954
0.013365429 -0.0076381196 0.0021494955 0.0045782677 -0.0007571668 -0.025672998 -0.015726082 0.0010348285
-0.012242009 0.011416665 0.031398162 0.008070732 0.025345437 0.012387432 -0.010008478 0.00037141622
-0.025101969 -0.016783176 -0.0063454253 0.0350321 0.023802357 0.02568252 -0.02125571 -0.014804898
0.009802662 -0.0021911268 -0.014624256 -0.008777652 -0.0046753897 -0.0024565333 0.0010560056 -0.004482781
-0.0027136118 -0.008432756 0.010370507 0.0011991807 0.024824608 -0.021409508 0.029797621 -0.022768764
0.038044292 -0.007704283 0.011115744 0.023820741 0.00529783 -0.00027785954 -0.026649991 -0.0030970545
0.014142176 0.0024441362 -0.01020079 -0.014815822 -0.03372875 -0.008136045 0.021062702 0.010979546
-0.00542616 0.030592417 -0.00582952 -0.0103127165 0.0018192352 -0.004961808 0.01993956 0.023823729
0.0019763494 -0.014694246 0.025360873 -0.026972583 -0.0041534863 -0.02159727 -0.023959354 0.02810398
0.012922891 -0.02518106 0.031736434 0.007906401 -0.019913763 0.0019452579 -0.025233256 0.017133145

network_body._body_endoder.seq_layers.2.weight f4 [128, 128]
00000000: 117e 013e 3cc9 00bd 1586 1b3d 7ec4 95bd
00000010: 0a2b 20bd 354e 42be cd79 12be 3e16 3b3d
00000020: a9a4 e5bb b996 b1bd 25e6 12be bddc f33d
00000030: bac0 02be 6ee3 503d 8858 25be 5518 af3d
00000040: b482 54bd 60cd dfbd 05d5 80bc a45f 51be
00000050: 9330 80bd c6f1 9bbd 7cc1 a9bd f319 0ebd
00000060: 5370 803d 6194 12bd 1557 b83c 331e 93bc
00000070: fa7b 04be d979 bebd f60a 5ebe de15 693d
00000080: 1c4d 263d 621f 213e d3cd 1ebe 1f58 66bd
00000090: 4c5e c13c ae51 a4bd 9e12 e0bd a45a a1bc
000000a0: 9f95 08bd 9a65 603d dd56 853e e92a 003d
000000b0: 6509 f0bd a9d9 f1bd c49d 173d dc94 b93a
000000c0: 2f89 debd 92d7 953d 6bbd 1dbe 76db c9bc
000000d0: fd13 dbbd b099 44bd 3fda 743a f477 febc
000000e0: b795 11be 08f6 87bd 5015 773d 7f47 0aba
000000f0: 4b4a 8dbd fbf0 f03c 889b 893e f27e 10bc
00000100: f158 f7bb 37ef 1a3e 984e 0fbe 5aa4 82bd
00000110: 28a0 333c 1288 013d 6fcd f6bd cfa5 323d
00000120: 1973 aebd 6972 16be 1d8a 12bd eadf d83d
00000130: d58f 5ebd 02fc 53bb cb0d 01bc b5da b93d
00000140: 3905 3d3d 326f 073b 1a9c cdbc 032e 263e
00000150: 318a e93d fb44 c9bd 71be 91bd 82a2 c13c
00000160: 25f0 90bc 5149 6cbd 4521 023e 383d 23bd
00000170: 2cf8 06bd 3d89 2b3d 415b de3d a90c 26bd
00000180: 602a e2bd 123a fabd e92c 543d 36a0 0fbe
00000190: 1af7 be3d 6709 afbd 4de1 013e 54d7 8d3c
000001a0: bc35 673d bb8a bc3c 72d3 44be 1ee8 763d
000001b0: 9707 25be 6ae4 eabd acb1 113e 760a 82be
000001c0: c728 f93c 9677 583d d453 ad3c 42b7 5ebc
000001d0: 3341 893d 1a38 37be 4019 46be b693 743e
000001e0: 6e15 fd3d f023 a53c 0f5e e33d 601c ef3d
000001f0: 6226 5d3d aba7 8d3d ef4e 123e 7dde 7abd
00000200: 02c6 9bbd 5611 a63d 1a2d ff3d ec7a a63e
00000210: a693 3e3d 240d 083e 9c2a 9a3d 223d 343d
00000220: 105b 903d af47 86bc 2339 e7bc 1d99 36bc
00000230: 0590 09bc b5fb 69bd 0ec9 823c 8f11 f23d
00000240: a242 943d e6e0 d13c 5e17 a03d 91a6 283e
00000250: a73e 4a3d c6f9 9cbc fb44 57bd 9864 92bd
00000260: 4c3a 1f3e f1fa 263d 55a7 413e a8e4 b0bd
00000270: 07ef 3d3e d618 ec3d cd48 52bd 5f3f 10be
00000280: 50b5 9ebd 3da9 58bd 19ee 4ebd ede4 39bd
00000290: a833 9dbc 45e9 103d 76d7 19bd 856a 9ebe
000002a0: 8012 dfbd 9fea 873d 9e9e e03d efaa 043d
000002b0: 4139 74bd 27f4 f8bd 6094 ebbd 4621 533c
000002c0: 6176 453d 91be 24be 5e9e 38be f25e db3c
000002d0: 9aab 263d 1ace 1ebe c08d 4dbd c8c6 e3bb
000002e0: b721 7fbd 1047 753d b495 753d e75b 90bb
000002f0: c132 4cbd 2d6d ac3d c734 98bc ffdc e4bd
00000300: 24cb bb3d 4a49 443d 0c25 40bd 8ea6 08bc
00000310: 4b0b a6bd 0125 a2bc 3814 ed3c 0360 d3bd
00000320: b16c 8b3d 7769 dcbd 0a23 dabd 0c98 863d
00000330: 5234 f0bc 1366 19bd 528e e4bd 4595 4a3d
00000340: 8820 0c3e 573e e3bd 05b1 793d bb73 583d
00000350: cba8 e43d 8855 2abe 5bb2 4c3d bbb9 37be
00000360: afdd a4bd 359e a3bd cc06 60b9 3566 eb3d
00000370: caa2 60be 1168 403e 27f8 85bd a746 4f3d
00000380: f965 153e 204d cbbd f76a b93b 2904 88bd
00000390: 51dc babd f818 833d 6fec cabd 4c75 ab3d
000003a0: f9e6 303d 51a6 c63d 3292 eb3d 04e6 5cbc
000003b0: a40e 39be 185d e83d 3dd1 6c3e cbb7 30be
000003c0: 2c33 37bc c2d1 38bc a16c 083e ff08 e4bd
000003d0: 3ef2 1fbc f640 0dbb d350 183e 2c4d 693d
000003e0: 4ba5 823d 8b67 c33d a94b ab3c a282 5e3e
000003f0: cdc6 32be 5007 b63d 07c1 c43d 690c 19bd
0.12645747 -0.031441912 0.037969667 -0.073128685 -0.039103545 -0.18975146 -0.14304276 0.04567551
-0.0070081544 -0.08671326 -0.14345606 0.11907337 -0.12768832 0.050998144 -0.16147053 0.08549563
-0.05188246 -0.10927844 -0.015726576 -0.2044664 -0.06259265 -0.07614474 -0.08288857 -0.034692716
0.06271424 -0.035786036 0.022502461 -0.017958736 -0.12937918 -0.09300584 -0.21683869 0.05690562
0.04060088 0.15734628 -0.15508203 -0.056236383 0.023604535 -0.08023392 -0.10941051 -0.019696541
-0.033345815 0.054784395 0.26042834 0.031290922 -0.11720542 -0.118090935 0.03701569 0.0014158743
-0.108660094 0.073165074 -0.15404288 -0.02464078 -0.10697172 -0.04799813 0.00093403825 -0.031063057
-0.14217268 -0.066387236 0.06032306 -0.0005274936 -0.06898936 0.029411783 0.26876473 -0.008819329
-0.0075484444 0.15130316 -0.13994825 -0.06379004 0.010963477 0.031623907 -0.12050902 0.04361516
-0.08518047 -0.14692082 -0.035776246 0.10589583 -0.054336388 -0.0032346253 -0.007876824 0.09074918
0.04614756 0.0020665643 -0.02509885 0.1622849 0.11403311 -0.0982761 -0.07116402 0.02363706
-0.017692635 -0.057687107 0.12708004 -0.039853305 -0.03295152 0.041878927 0.10857249 -0.040539417
-0.11043239 -0.12218107 0.051800642 -0.1402596 0.09324475 -0.08546715 0.12683602 0.01731459
0.05644773 0.02301537 -0.19221285 0.060279958 -0.16116177 -0.11469348 0.14227933 -0.25398606
0.030414952 0.05284842 0.021158136 -0.013593497 0.06701889 -0.17892495 -0.1934557 0.23884472
0.12357603 0.020158738 0.11101925 0.11675334 0.053991683 0.06916746 0.14287923 -0.061247338
-0.07606126 0.08108775 0.12459774 0.32515657 0.046527527 0.13286263 0.07527658 0.044003613
0.07048619 -0.016391603 -0.028225487 -0.0111449035 -0.008396153 -0.057124812 0.015965011 0.11819755
0.07239272 0.025619935 0.07816957 0.1646979 0.049376156 -0.01916207 -0.05255602 -0.07148093
0.15549582 0.04076666 0.18911488 -0.08637363 0.18548213 0.115281746 -0.05133896 -0.14086674
-0.07749426 -0.052895773 -0.050520036 -0.045384336 -0.01918967 0.035378713 -0.037558995 -0.30940643
-0.108922005 0.06636547 0.10967754 0.032389577 -0.059624914 -0.12155943 -0.1150291 0.012886351
0.048208598 -0.1608832 -0.18029162 0.026778672 0.040690996 -0.15508309 -0.05018401 -0.006951187
-0.062288012 0.059882224 0.05995722 -0.004405487 -0.04985309 0.08419261 -0.018579854 -0.11174964
0.091696054 0.047921456 -0.04691033 -0.008340491 -0.08107623 -0.019793035 0.028940305 -0.10321047
0.068078406 -0.10762303 -0.106512144 0.065719694 -0.029321823 -0.03745086 -0.11159958 0.04945876
0.13684285 -0.11095875 0.060959835 0.052844744 0.11165007 -0.1663419 0.04997478 -0.17941944
-0.08050095 -0.0798916 -0.00021364837 0.11494104 -0.21937099 0.18789698 -0.06541472 0.05060449
0.1458968 -0.0992682 0.005658503 -0.066414185 -0.09124053 0.06401247 -0.099083774 0.08371982
0.043189023 0.09699691 0.11502494 -0.013482574 -0.18071991 0.11345881 0.23126693 -0.17257611
-0.011181634 -0.011280479 0.13322689 -0.11134528 -0.009762345 -0.0021553612 0.14874582 0.056958362
0.063791834 0.09541234 0.020910101 0.2172952 -0.17458649 0.088881135 0.096071295 -0.03736535

network_body._body_endoder.seq_layers.2.bias f4 [128]
00000000: 565f 2c3a b9c7 3d3c d6e4 d53b 803b 293c
00000010: 7082 f4bb 5a5c a4bb 80c4 823c f16b 3dbc
00000020: 961f 623d 0511 9d3c 6737 86bc 5b5f 3bbb
00000030: 9254 c5bb afa1 a8bb 55b5 ac3c b4b5 25bd
00000040: 9c7e 40bd 95a2 d93b 8dad 30bc 7158 673c
00000050: 41e4 1bbc c6dd 783c 50a3 4a3a b94d 30bc
00000060: 1ac6 8dbc de51 733d f231 4abc adba 463c
00000070: 9f4a ee3c 9c52 be3c 28ee ffbb da4f b23c
00000080: 0774 f43c 0310 833c f124 353c 3b42 063d
00000090: f19b c7bc 9ecb 223c 78c3 713c 0a3b 443c
000000a0: a449 9a3c 94b3 41bc b443 c73c 7ffa a6bc
000000b0: 9c97 5f3b 81f4 eeb9 739f b03c 9f01 0f3c
000000c0: 5e08 16bd 2e3b 84bc d61b ce3c d1a1 d83c
000000d0: d54f a7bc 48b7 953c 6f53 5fbd 4be8 693c
000000e0: d718 de3c 48b0 dcba ead7 60bd ac01 6cbc
000000f0: 2db7 2abd dab8 523d 4ab9 3b3d 9059 483d
00000100: c083 1c3c d702 933c dab5 063d 2031 f0bb
00000110: fe6a cbbc f99f 8cbc 92b5 fbba e0e4 f33a
00000120: 7637 7a3c 6c88 f13c baf1 363b 9e8d ccba
00000130: ac17 213c 3ef2 81bc abdc 8d3a 4c74 c23c
00000140: 6b96 6ebc f99f 62bd 9aba 04bc 87de 0e3d
00000150: 37ca bebc d5ac de3c 6080 41bd a8b3 e6bc
00000160: 8979 683d ae06 5bba 3b26 d73a 68a8 1abb
00000170: bd92 19bc b4f4 afbc cb99 f5bb 872b 203c
00000180: c2ac 7cbc 5337 4bbd bdbc 433d 8f1c f73c
00000190: 2f1a 243b 5667 41bc 2c72 a5bc abac 92bc
000001a0: 6be9 c4bc 0333 a83c 909d f63a 8e1c 9ebc
000001b0: ee00 a53c 06e4 50bb 5872 e8bc ed54 28bb
000001c0: cfc5 f03a 91b4 763d 62dd eb3a b593 1b3c
000001d0: 056b 34bb 2b3c 113d bea9 e23c 3d92 483c
000001e0: 8328 173d 5800 d73b 9812 c7b9 0bc0 86bc
000001f0: c32c 7c3c e6d6 bfbc 28d7 ba3c 779c 3b3d
0.00065754855 0.011583262 0.0065275235 0.010329127 -0.0074618384 -0.005015892 0.01596284 -0.01156138
0.055205904 0.019173155 -0.01638384 -0.0028590772 -0.0060220445 -0.0051462273 0.02108256 -0.04045649
-0.046995744 0.0066416957 -0.010783565 0.014120207 -0.009514869 0.015189594 0.0007730024 -0.010760718
-0.017306376 0.059404247 -0.012341009 0.012129468 0.029088316 0.02323275 -0.007810373 0.021766592
0.029840482 0.015998846 0.011056171 0.032778006 -0.02436635 0.009936241 0.014756076 0.011976967
0.018833943 -0.0118226 0.024324276 -0.020383118 0.0034117466 -0.00045577067 0.021560406 0.008728414
-0.036629073 -0.0161415 0.025159758 0.026444348 -0.020423809 0.018275872 -0.054522928 0.014276574
0.027111454 -0.0016837204 -0.05489341 -0.0144046955 -0.041678596 0.05144582 0.045831002 0.04891354
0.009552896 0.01794569 0.03288827 -0.007330075 -0.024831291 -0.017166125 -0.0019203892 0.0018607639
0.015272012 0.029483996 0.0027915076 -0.001560617 0.009832304 -0.01586258 0.001082321 0.023737095
-0.01456223 -0.055328343 -0.00810113 0.034880187 -0.023289783 0.027182022 -0.04724157 -0.028161839
0.05675653 -0.00083551824 0.0016414592 -0.0023598913 -0.009373364 -0.021478988 -0.00749514 0.009776003
-0.015422048 -0.04961331 0.047787417 0.030164985 0.002504002 -0.011804422 -0.020196043 -0.0179046
-0.024037084 0.020532137 0.0018815268 -0.019300725 0.020142045 -0.0031874194 -0.028374836 -0.0025685385
0.0018369498 0.060230795 0.0017995054 0.009495665 -0.002752961 0.03545777 0.02766883 0.012241897
0.03690387 0.0065613203 -0.0003797009 -0.016448995 0.015391531 -0.023417901 0.022807673 0.045803513

action_model._discrete_distribution.branches.0.weight f4 [3, 128]
00000000: 0041 58bd e0a5 93bd 816f e23b 81d3 6e3b
00000010: 93a4 1ebd 7fc2 883c d38d 6dbc aac2 01bd
00000020: 0001 323d eb0d 64bc d932 b9bd 619d 713c
00000030: 5de4 66bd d22c 953b 8900 c9bc 36c1 acbd
00000040: 8f90 cfbd 0e63 41bd cda3 eebc 963d 8dbd
00000050: 9751 9ebd c28b 67bc b551 03be 87d3 b0bc
00000060: cd86 83bd deaa 4b3d 32bb d93b 1ae0 523d
00000070: 3f25 5fbb cb5f e53c 6c1a 22bd 04d2 803d
00000080: 1495 823d 92c8 22bc 88ed 12bd c84c f03c
00000090: 1e42 ff3c fa51 00be 07ed 803c a1aa 88bd
000000a0: ec34 8a3d 7a33 83bd 061f 93bd 9a92 87bc
000000b0: f993 4c3c e0e5 b7bb b7f8 ddbd 2db3 293d
000000c0: 5b81 94bd e50a 8b3c 274b 383d 58d4 05be
000000d0: bd78 473d ca67 de3c e6ae 2dbd 7511 453c
000000e0: 5b9a 7fbc 2b68 bcbd b639 2fbb be79 3bbc
000000f0: 6248 10bd c9da 70bd 1182 91bd 18dd 153d
00000100: a227 ecbd 0baa 183d cf93 6bbd 70d0 cbbc
00000110: 5600 01be 3466 babd 426f 0cbd 7f30 44bd
00000120: 9ac6 60ba dbbe a2bd a3d9 6d3d 182f c5bd
00000130: 9495 60bd 9a8c a039 0afc b43c c3ca 9b3d
00000140: ab49 92bd 31d5 82bd 4dc8 71bd 1fb3 b63c
00000150: 293e debd e8be 583d 2899 d73c dc61 36bd
00000160: ede3 1b3d e878 d83c 5fb9 7ebd ba0c d0bb
00000170: 54bf 0dbc 45e1 13bd 154f 4a3d b75e a5bd
00000180: 2544 4cbb 0c3f 4f3d cd86 853c 593a 3d3c
00000190: 31dc afbd 3104 963d b4dd 33bd a709 11bc
000001a0: 72bd 80bd 0263 463c 2968 5dbd 8d32 27bd
000001b0: 6d2a 653d 0f52 eabd 5273 f1bd 71b5 2dbd
000001c0: 5427 91bd 63ea 073d a7de a8bd 9037 afbd
000001d0: f63f 70bc 1be8 aabb d8f1 cf3a 7fe0 a8bc
000001e0: c5bb 253d 1055 0ebb 25df 63bd 64d1 62bd
000001f0: 2aa9 bfbc addb 973d 3ede 25bd 08f8 873c
00000200: 5f06 8dbc f8e4 26bd 4d92 d6bd e19d 763d
00000210: ba30 c33d 430f 2a3d 50af 9fbd 0fea b43d
00000220: d18d 06be 3599 623d 31cb 853d fa91 113d
00000230: d86a a53d 4d7e 453d c0f6 a73d d5a1 333d
00000240: bb93 af3d c9da cd3d f9ae d4bd 7607 103e
00000250: b05e 2e3c 5b9c 56bd cde7 843d 4917 5c3d
00000260: cfb8 0cbc 371c 153d 9f1a 64bd 45ed 9b3c
00000270: e117 993d daaf d7bd 49cd 6dbd 1ae1 3c3c
00000280: deef 1cbc aed9 00be 29e5 bb3d 1d31 b83c
00000290: 0477 063c ac45 ca3d dfa5 3f3d d094 b33c
000002a0: bde7 5abc 7a8f 5e3d d62f a83d e299 26bc
000002b0: 4c05 afbd c678 a9bd 1fef 393c 2da3 a3bd
000002c0: def9 733d 5831 15bd a10c 353d ab0c 463d
000002d0: bca4 9dbc b843 493b 3a29 73bc 87ea 993c
000002e0: 7a94 aa3d 8b91 47bc 3d59 18bd f743 693d
000002f0: baa2 25bd a7bf a5bd d563 ae3d ebee 973d
00000300: ae66 d63c 81a6 e03c b087 9dbd e26d fc3c
00000310: 92b3 cd3d 3761 e43c 6bb5 a23d 73f1 5cbd
00000320: 3a38 993d 7911 633c a2eb 873b 12a7 d03d
00000330: 01ac e0bc d353 d83b de2d 5cbd 4344 dbbc
00000340: b979 8d3d ef86 0a3d 0341 ca3c 0c67 e2bc
00000350: de08 a73c d383 0cbe 9c2c 48bd 5fe4 313b
00000360: 4b2d 703d ee7a fc3c 260f ad3c ef1b 803d
00000370: 987a d73c 16f7 183d ef99 8cbb f192 483d
00000380: d90c b8bd 8184 febc 94e1 0bbe decd b73c
00000390: 8276 abbc cf23 1cbd da31 883d 0a0e 303b
000003a0: 331f 913d 5526 6c3d 6440 99bd 6be0 53bc
000003b0: 42c0 0e3c c535 003e 5ae7 cf3d 65a5 b13c
000003c0: 43e6 40bd 42d5 3c3d 87cd 423d 836b 65bb
000003d0: 664f 7e3d c21d bd3d e38c 4bbd 0aad ac3d
000003e0: 5365 1dbe 2ebb 243d 1e79 9cbc 9b21 bd3d
000003f0: 88ff ffbc cf7a bbbc ff9e ec3b e065 27bc
-0.052796364 -0.072093725 0.006910265 0.0036441984 -0.03873117 0.016694305 -0.014499146 -0.031679787
0.043457985 -0.013919334 -0.090429015 0.014746995 -0.056370128 0.004552462 -0.024536388 -0.084352896
-0.10134994 -0.047213607 -0.02913084 -0.06896512 -0.07730406 -0.014132442 -0.12824138 -0.02158524
-0.064221956 0.0497235 0.00664463 0.05148325 -0.00340493 0.02799978 -0.03957598 0.06290057
0.06376091 -0.009935515 -0.03587106 0.029333487 0.031159457 -0.12531272 0.015738023 -0.0667317
0.06748375 -0.06406303 -0.071836516 -0.016549397 0.012486451 -0.00561212 -0.10838454 0.04143064
-0.07251235 0.016972968 0.044993546 -0.13069284 0.04869913 0.0271491 -0.042403124 0.012028088
-0.015600766 -0.09199556 -0.002673728 -0.0114426 -0.03522528 -0.0588024 -0.07104886 0.036587805
-0.11530997 0.03727154 -0.057514008 -0.024879664 -0.12597784 -0.09101525 -0.03428579 -0.047897812
-0.0008574516 -0.07946559 0.058068883 -0.09628123 -0.05483015 0.00030622334 0.022092838 0.07607033
-0.07142957 -0.06388319 -0.059028912 0.022302208 -0.108517 0.052916437 0.026318148 -0.04452692
0.038059164 0.02642484 -0.062188502 -0.0063491734 -0.008651573 -0.036103506 0.049391825 -0.08074706
-0.0031168547 0.050597236 0.01629963 0.011549556 -0.0858692 0.07325018 -0.043912604 -0.008852399
-0.06286134 0.012108566 -0.054054413 -0.040819693 0.055948664 -0.11441433 -0.11789574 -0.042409364
-0.07087579 0.033182513 -0.082455926 -0.085555196 -0.014663687 -0.0052156574 0.0015864922 -0.02061486
0.040462274 -0.0021718182 -0.05563273 -0.05537547 -0.023396093 0.07414947 -0.04049515 0.016597763
-0.017214952 -0.040745705 -0.104771234 0.06020916 0.09530778 0.04151846 -0.0779711 0.08833706
-0.13140036 0.05532189 0.06532896 0.035539605 0.080770195 0.048216153 0.08201361 0.043855507
0.08573099 0.100514956 -0.10384936 0.14065346 0.010642692 -0.052395206 0.06489525 0.053733144
-0.008588984 0.03640386 -0.05568945 0.019034037 0.07475258 -0.10531588 -0.058057103 0.011528278
-0.009578673 -0.12583038 0.09174568 0.022484357 0.0082070865 0.0987657 0.046789046 0.021921545
-0.013360915 0.05433605 0.08212249 -0.010168524 -0.08545932 -0.08274989 0.011348515 -0.07990108
0.059564464 -0.03642401 0.044201497 0.048351925 -0.01924359 0.003071053 -0.014841372 0.01878859
0.08329101 -0.012180696 -0.03719448 0.056949582 -0.04043839 -0.080931954 0.08515135 0.07418617
0.026172008 0.027423145 -0.07691896 0.030814115 0.10044016 0.027878387 0.07944759 -0.0539412
0.074814275 0.013859146 0.0041479627 0.10188116 -0.027425768 0.0066017895 -0.05375468 -0.026765948
0.069079824 0.03382009 0.024689203 -0.027637027 0.02038997 -0.13722162 -0.048870668 0.0027144176
0.058636945 0.030820336 0.021125387 0.06255328 0.026303574 0.037345015 -0.0042908113 0.04896826
-0.089868255 -0.031069042 -0.1366027 0.022437032 -0.020930532 -0.038120087 0.066501334 0.0026863837
0.07086029 0.057653744 -0.07482985 -0.012931923 0.00871283 0.12520511 0.10151549 0.021685312
-0.047094595 0.046101816 0.047559287 -0.003500671 0.06208744 0.092341915 -0.049694907 0.08431442
-0.15370683 0.04021757 -0.019100722 0.09234925 -0.031249776 -0.022885708 0.0072211022 -0.01021716

action_model._discrete_distribution.branches.0.bias f4 [3]
00000000: e9d6 9b3d 465f c1bc e606 85bd
0.0760935 -0.023605 -0.064954564

action_model._discrete_distribution.branches.1.weight f4 [3, 128]
00000000: eed9 343a 9ce0 c63b 1d11 363d 39a8 36bd
00000010: b761 823b 0e23 fc3c f0fa 723d bf53 983d
00000020: b5bd 67bd f7cf 9a3d dc91 b63c dc7a 473d
00000030: dcef 0dbd 550d 1e3d 501a 033d 6446 88bd
00000040: f8e2 14bd 1f17 303d fa48 4d3d 3fcd 163c
00000050: 39bf 1fbc f692 683d 3a4c 393d c114 0b3c
00000060: 69de bbbc b0c1 ce3c 2d54 273d 0698 e73a
00000070: 8faf a23d 546d 933d ac31 3fbc 4b11 7d3d
00000080: e3f9 b93d ca6c 833d 94cc e9ba 1953 963d
00000090: 5d1d c33c 7ec2 f63c d8b7 5c3c ed74 323d
000000a0: f4af 90ba f109 2439 28d5 c43c 85c0 92bc
000000b0: 58e3 683b 998b 983c 9f71 9c3d e91b d93c
000000c0: 9a42 dabb 8620 b53d 9e15 ac3c 58f5 7e3d
000000d0: 5d93 773c 994b 853c 4d68 9ebc dc95 6f3d
000000e0: d205 003d 595e 24ba 5fa9 6cbb 61b4 63bc
000000f0: 16f3 b0bc 273d 213d bfc8 ae3d 8089 a2bc
00000100: 82ae 133d 0a3b ef3c 6478 523c 296a 1c3d
00000110: 2c94 afbd 1e1a 1c3c 3ca5 073d fe5c 2ebd
00000120: 5093 123d cc57 b93d 5e59 553d e7af e13c
00000130: 7be4 14ba 552d ad3d 98ef 14bd 494c 253d
00000140: 0571 1ebc 1f4c 243b 3096 093d 6504 db3c
00000150: 8719 f9bb 3438 983d cfc3 b43b 749e 25bb
00000160: 7e28 1dbc 17d0 8dbc 1a82 85bd a0be 973c
00000170: 36a9 493d c53c ab3c c1da 88bc 3de9 4d3d
00000180: cc1b e5bc 28bb 2d3c dac1 afbc c220 d2bc
00000190: 7cd6 a43c cf6d 91bb f781 613d 6a67 5bbd
000001a0: 3acd 5ebd 4f07 f53b bb59 343b 76b1 3dbd
000001b0: 9e5e 6f3d f4be 2bbd 8b49 6d3d 481f cebb
000001c0: ab23 1abc acda 143d 372b 8b3d b1ab 8ebc
000001d0: 1d9e c43c 341d b43c 10cf 9c3d 7240 203d
000001e0: facd 0fbc 08db 7e3d 8bb8 08bd 43d2 e23c
000001f0: 8ea5 933d da7a dab7 e282 9a3d 0618 a83d
00000200: 7ae6 293c 3993 383b 3409 33bd 984b 09bd
00000210: 7e98 943c 5c7e 873c adfa 3fbc 02b1 68bd
00000220: 6c40 b83d 9997 a3bd 0d77 3e3b 39b6 e939
00000230: 0dbe 093d b780 8ebc 736c 283d 9d96 9b3d
00000240: 6041 a7bb deb6 1a3c f378 59bd c402 21ba
00000250: e1f4 203d 4419 c1bc 1891 54bd 4e73 003d
00000260: 2ede 733d 46a8 0dbc 65cf f53c 4179 90bd
00000270: b1e8 4dbd c172 85bc a533 36bd cbaf a5b9
00000280: 46c6 96bc b694 f9bc 0b59 043d 92a1 cfbd
00000290: d973 f8bb 9fc5 c6bc 77cc 773c 43ed 27bc
000002a0: 6894 97bc 0e54 303d fec2 883c 8af3 e13b
000002b0: 4b7b 0b3a 04d8 403d 817b 46bd f1b8 023c
000002c0: 9b99 6abc 294f ecbb f4c5 81bc a3ea fdbc
000002d0: d1e5 fbbc e16f 90bc 383c e0ba 10ed a6bd
000002e0: 660f 013d 2d8e 30bd 7067 49bc f831 fabc
000002f0: 29e0 b2bb c246 93bc 7578 d6bd 9a59 dbbc
00000300: afeb be3c 44d9 de3c 3fc5 8b3b 8fa5 67bc
00000310: 576d 833c 7a6a 603d 118e 0f3c 3af4 203d
00000320: 6f56 83bc 9c70 b4bd d6b9 b9bc f8fe a03a
00000330: 33d8 633d 0ab3 acbc 0027 843a a4fb 31bd
00000340: 32f7 4abd cc01 9f3c d29b ea3b 2658 fcbd
00000350: 95eb 3f3c 1a0e 58bd bb6e 2c3d a761 2a3d
00000360: 306f 72bc b48e 803a c961 073c 3ae2 ed3c
00000370: f41f e43c 7082 9c3c 904b 043c 8f13 dbbd
00000380: 5353 843c bd06 6b3c 4b0c 493d 2cf0 b4bd
00000390: 59f0 9bbc d6ae 433c 5b3b 42bc 728f 7abb
000003a0: 34c7 0c3b 7ff6 a63c 8638 103c 0957 5c3d
000003b0: df5f d6bc f048 3f3c 370c 6ebd 9436 213d
000003c0: 7b6b 893c 206a 79bd acc1 e7bc 30c2 893d
000003d0: 63c3 24bd c1b8 68bd 2e69 af3c 61ae 78bb
000003e0: 871d abbb 576d 18bd 467f e23c bcda 82bc
000003f0: c169 8abd a619 353d aa8f 3dbd c55c 5abd
0.0006898929 0.006069256 0.044449914 -0.044594023 0.0039789337 0.030778434 0.059321344 0.07437848
-0.056577403 0.075591974 0.022286348 0.048701152 -0.034652576 0.038586933 0.032007515 -0.06654051
-0.036349267 0.0429908 0.050118424 0.009204208 -0.009750181 0.056780778 0.04523871 0.008488835
-0.022933202 0.025238842 0.04085176 0.0017669208 0.079436414 0.07198587 -0.011669558 0.06178407
0.09080865 0.06417234 -0.0017837458 0.07340068 0.023817712 0.030122038 0.013471566 0.04356854
-0.0011038766 0.00015643962 0.024027422 -0.017914066 0.0035535898 0.018621253 0.07638859 0.026502566
-0.0066607716 0.08844094 0.021006402 0.062245697 0.015110818 0.0162714 -0.019336844 0.058492526
0.03125555 -0.00062701624 -0.0036111695 -0.013897986 -0.021600287 0.03936496 0.08534383 -0.019840956
0.036055095 0.029202957 0.012846086 0.03818718 -0.085731834 0.009527711 0.033116564 -0.042569153
0.03578502 0.09049949 0.05208718 0.027549697 -0.0005679798 0.08455912 -0.036361307 0.040355954
-0.009670501 0.0025069786 0.033590496 0.026735494 -0.00760192 0.07432595 0.0055165063 -0.0025271447
-0.009592174 -0.017311139 -0.065189555 0.018523514 0.049233638 0.020903 -0.016705872 0.05027126
-0.027967356 0.010603704 -0.02145474 -0.025650386 0.020121805 -0.004438139 0.055055585 -0.05356542
-0.054394938 0.007477678 0.0027519304 -0.046311818 0.058439843 -0.041930154 0.057931464 -0.00629035
-0.009407918 0.036341354 0.06795352 -0.017415853 0.024001176 0.021986581 0.076566815 0.03912396
-0.008777136 0.062220603 -0.03337912 0.027688151 0.072093114 -2.6044832e-05 0.07544495 0.08207707
0.010369891 0.0028163923 -0.04370995 -0.033519357 0.01813912 0.016539745 -0.011717481 -0.056809433
0.089966625 -0.07987899 0.002906266 0.0004457699 0.033628512 -0.01739536 0.04111905 0.075970866
-0.005104229 0.009443013 -0.05309386 -0.00061420747 0.039296035 -0.023571618 -0.051896185 0.031359963
0.05953806 -0.008646077 0.03000612 -0.07054377 -0.05027074 -0.01629007 -0.044482846 -0.00031602228
-0.018405091 -0.030466419 0.03231148 -0.10138239 -0.0075821695 -0.024264155 0.015124432 -0.010249439
-0.018503383 0.04304891 0.016694542 0.006895487 0.0005320801 0.04708101 -0.048457626 0.007978664
-0.014318849 -0.007211585 -0.015841462 -0.030995673 -0.030749233 -0.017631473 -0.001710779 -0.08150685
0.031508826 -0.04310434 -0.012292728 -0.030541405 -0.005458851 -0.017978076 -0.10472194 -0.026776124
0.023305742 0.02720321 0.004265457 -0.014138593 0.016043348 0.054789044 0.008761899 0.039295413
-0.016032426 -0.08810541 -0.022671621 0.0012283018 0.055626106 -0.021081466 0.0010082424 -0.043452874
-0.04955215 0.019410037 0.0071596885 -0.123215005 0.011713882 -0.052747823 0.04209779 0.041597035
-0.014797017 0.0009808154 0.00826306 0.029038537 0.027847268 0.019105166 0.008074656 -0.1069709
0.016153013 0.014344868 0.04908399 -0.08834872 -0.019035505 0.01194354 -0.011854972 -0.0038232473
0.002148104 0.02038121 0.008802539 0.05379394 -0.026168762 0.0116751045 -0.058117118 0.03935869
0.016774883 -0.060892224 -0.028290592 0.067264915 -0.040225398 -0.05681682 0.021412458 -0.0037945735
-0.005222026 -0.03721365 0.02764858 -0.015973441 -0.06758452 0.044213913 -0.046279587 -0.05331113

action_model._discrete_distribution.branches.1.bias f4 [3]
00000000: ae5d 003c 4871 163c 685c 33bc
0.007834835 0.009182282 -0.010947324
