Assets/results/T2/CarDriver/CarDriver-2499983.onnx (onnx, 188993 bytes, 9 tensors)

discrete_act_size_vector f4 [1, 2]
3.0 3.0
00000000: 0000 4040 0000 4040

network_body._body_endoder.seq_layers.0.weight f4 [128, 225]
-0.17690597 -0.026786676 0.05530716 0.084266834 0.014155106 0.031396106 0.0434207 0.09979526
-0.11652561 0.032839254 -0.06348522 -0.13199955 0.07952511 -0.019873135 -0.004627736 0.10002891
0.055784944 0.010502857 0.01748725 -0.19655882 -0.048575874 0.13193421 -0.045465063 0.0636106
0.11039533 -0.016574172 0.0071910038 -0.079279296 -0.14610249 -0.02946623 -0.029001886 -0.021135483
0.10625232 0.118922144 0.14507748 0.019376017 -0.016164653 0.1351663 0.038211726 0.016871419
0.03218256 -0.10189143 -0.13529524 0.19054829 0.03700306 0.040461082 0.036925398 0.050070733
0.027814481 -0.0628378 0.07390157 0.1341019 -0.014018281 0.049068302 0.075785674 -0.071697
-0.118525915 -0.0081667425 0.048234187 -0.1250908 -0.073648274 0.08917115 -0.04524075 0.04427166
-0.18389498 0.076513685 -0.094347864 0.03654765 0.11441756 -0.060440887 -0.11272699 -0.13740109
-0.06589277 0.073767185 -0.0024743187 -0.035981156 -0.022736903 -0.12915595 0.022561725 0.101902865
-0.00797334 -0.101273365 0.0026559567 0.06777618 -0.09236958 0.10464755 0.1120059 0.07290515
0.04442543 -0.054513834 0.039062623 0.025927136 -0.21151312 0.066162646 -0.043536164 -0.16117546
0.06062654 -0.05961724 0.05529506 0.015073148 -0.042506203 0.08243361 -0.16408503 -0.05883081
-0.06792982 -0.0021572807 -0.13367811 0.12750745 -0.03489733 -0.09879889 0.06870363 -0.14208014
-0.043636914 0.04398571 0.0979683 0.12383413 0.080909565 0.01714237 -0.15273693 -0.0008190523
-0.13317476 0.019311767 -0.017210914 -0.006583973 0.13195358 -0.11270727 -0.091079175 0.15586467
-0.081352554 0.0645716 -0.096662164 -0.07925309 -0.021355737 -0.09338116 -0.0015497738 0.13290639
-0.07110858 0.25915256 -0.03929541 -0.036475644 -0.08381287 -0.05430811 0.09938692 0.07519096
0.12355368 -0.11401121 -0.2854832 -0.13038069 -0.14872302 0.15639149 -0.039943717 -0.080112904
0.24054079 -0.05856001 -0.10396667 0.12144901 -0.052525938 -0.029782468 -0.063214496 -0.023296695
0.112072594 -0.047511216 -0.014356661 0.07303252 -0.044028573 0.15847264 0.09240984 -0.013841724
-0.083583795 -0.057851337 0.07232997 0.013053177 0.27429423 -0.18545316 -0.26473126 0.0033061453
-0.16596362 0.14276455 0.037957337 -0.045890283 0.18055351 -0.15738402 -0.0011299974 0.13372204
-0.13817488 0.0049995803 0.114024326 0.086742006 0.118096314 -0.26993492 -0.026981134 0.1674512
-0.071618386 0.0721423 -0.1622441 0.121246316 -0.027379418 -0.0363156 0.016692068 0.10233619
0.12667601 -0.16997609 -0.032387227 0.11040329 -0.08908259 0.13355312 -0.07203864 0.09350398
0.10692237 -0.16986054 -0.15502653 -0.06192806 -0.33608454 0.16802369 0.05975341 -0.0059974375
0.065766074 -0.25014952 0.078952305 0.05915558 -0.038943984 0.04857498 -0.004888754 0.012951773
0.023828287 -0.050433505 0.03166005 -0.007567669 -0.14098856 -0.004141627 -0.023079725 -0.06129014
0.022613404 -0.015016776 0.02560676 0.054657146 -0.061474707 -0.10028958 0.020011982 0.004622985
-0.07933922 0.0003516974 -0.17647514 -0.16001315 -0.13106011 0.014100401 -0.10293126 0.20140769
-0.06864471 -0.11284925 0.16064033 0.05480898 -0.1923258 -0.03247681 0.04188347 -0.072327435
00000000: d726 35be bb6f dbbc c389 623d 1794 ac3d
00000010: d1ea 673c 3499 003d e7d9 313d 7561 cc3d
00000020: fba4 eebd 7482 063d 8a04 82bd e42a 07be
00000030: 10de a23d fccc a2bc 43a4 97bb f5db cc3d
00000040: c17e 643d 2d14 2c3c 6c41 8f3c b746 49be
00000050: 7ff7 46bd c319 073e 9339 3abd 4646 823d
00000060: f216 e23d 8fc6 87bc 83a2 eb3b 2f5d a2bd
00000070: e49b 15be 2a63 f1bc 5d95 edbc 5224 adbc
00000080: d19a d93d 748d f33d 318f 143e 74ba 9e3c
00000090: bc6b 84bc 0969 0a3e e683 1c3d ee35 8a3c
000000a0: dcd1 033d 74ac d0bd d68a 0abe 171f 433e
000000b0: 8590 173d 85ba 253d 163f 173d f816 4d3d
000000c0: 32db e33c 1bb1 80bd b559 973d 0252 093e
000000d0: efac 65bc d8fb 483d 8535 9b3d e0d5 92bd
000000e0: b7bd f2bd cdcd 05bc 3691 453d cd17 00be
000000f0: e8d4 96bd 5d9f b63d 5d4e 39bd 3356 353d
00000100: f74e 3cbe 35b3 9c3d 7439 c1bd fdb2 153d
00000110: c153 ea3d dd90 77bd 68dd e6bd dfb2 0cbe
00000120: caf2 86bd 4013 973d 2e28 22bb fa60 13bd
00000130: be42 babc 7541 04be 5ed3 b83c 73b2 d03d
00000140: 9da2 02bc 6968 cfbd 8f0f 2e3b 3dce 8a3d
00000150: 432c bdbd 7451 d63d 5963 e53d 4c4f 953d
00000160: 71f7 353d e649 5fbd 2100 203d 2565 d43c
00000170: e596 58be 4880 873d fa52 32bd 2e0b 25be
00000180: 8953 783d 3531 74bd 137d 623d 5df5 763c
00000190: fc1a 2ebd f4d2 a83d e805 28be 93f8 70bd
000001a0: ca1e 8bbd 2a61 0dbb eae2 08be 5091 023e
000001b0: 81f0 0ebd 1357 cabd 7db4 8c3d 757d 11be
000001c0: 9fbc 32bd 5c2a 343d 9ba3 c83d c09c fd3d
000001d0: eab3 a53d 286e 8c3c 1267 1cbe abb5 56ba
000001e0: f75e 08be b633 9e3c e7fd 8cbc 5ebe d7bb
000001f0: d71e 073e 12d3 e6bd b887 babd fd9a 1f3e
00000200: 2b9c a6bd 1d3e 843d d0f6 c5bd 724f a2bd
00000210: 3af2 aebc 9f3e bfbd c821 cbba 9d18 083e
00000220: 60a1 91bd a5af 843e 39f4 20bd 7c67 15bd
00000230: 15a6 abbd 2e72 5ebd 5f8b cb3d b8fd 993d
00000240: b609 fd3d b67e e9bd db2a 92be 8482 05be
00000250: d94a 18be 1725 203e 069c 23bd 3c12 a4bd
00000260: 5350 763e 9fdc 6fbd 7aec d4bd 42ba f83d
00000270: 7025 57bd 5dfa f3bc 9a76 81bd b6d8 bebc
00000280: 5186 e53d 1f9b 42bd 3338 6bbc 1392 953d
00000290: 4e57 34bd a746 223e 5f41 bd3d 66c8 62bc
000002a0: fb2d abbd 86f5 6cbd bc21 943d fedc 553c
000002b0: 4b70 8c3e 6fe7 3dbe db8a 87be eaab 583b
000002c0: 5ef2 29be df30 123e 2779 1b3d 73f7 3bbd
000002d0: 05e3 383e 4729 21be 6c1c 94ba 6eee 083e
000002e0: b77d 0dbe 85d3 a33b 9685 e93d cba5 b13d
000002f0: 7bdc f13d e934 8abe 8a07 ddbc 5478 2b3e
00000300: a9ac 92bd 58bf 933d 5123 26be fd4f f83d
00000310: cd4a e0bc abbf 14bd cebd 883c a395 d13d
00000320: 5bb7 013e 360e 2ebe 78a8 04bd 1f1b e23d
00000330: ef70 b6bd 26c2 083e ff88 93bd 047f bf3d
00000340: 1efa da3d ecef 2dbe 46bf 1ebe 47a8 7dbd
00000350: 4613 acbe 670e 2c3e febf 743d 2786 c4bb
00000360: 5db0 863d 9913 80be bfb1 a13d 1f4d 723d
00000370: ba83 1fbd 8ff6 463d d731 a0bb ac33 543c
00000380: 8a33 c33c 5d93 4ebd f8ad 013d 35fa f7bb
00000390: 4e5f 10be 7cb6 87bb b111 bdbc 5f0b 7bbd
000003a0: bf3f b93c ec08 76bc 45c5 d13c 2ce0 5f3d
000003b0: e7cc 7bbd a064 cdbd 2bf0 a33c 697c 973b
000003c0: 9a7c a2bd 0764 b839 e6b5 34be 7dda 23be
000003d0: 9f34 06be 5e05 673c a0cd d2bd d13d 4e3e
000003e0: 9995 8cbd 821d e7bd e67e 243e 627f 603d
000003f0: 0ef1 44be 6706 05bd 008e 2b3d 6820 94bd

network_body._body_endoder.seq_layers.0.bias f4 [128]
0.008863007 -0.049244545 0.0107517755 0.036728874 0.00035159025 -0.056424275 0.03809857 0.02113769
-0.020599402 -0.030688366 0.037725233 -0.007510692 -0.025363196 0.0050789197 -0.010409173 -0.026672728
0.009239159 -0.056611236 0.03451363 0.019169744 -0.023031607 -0.054840103 0.051381264 -0.0027750153
-0.01610658 0.020681074 0.031009909 -0.01944623 0.026035557 -0.016985053 0.0012736503 -0.05800523
-0.00900939 0.00198201 0.034300655 0.033519737 0.03504912 -0.019360354 -0.06141966 -0.015675971
0.032260917 0.012396935 0.017098997 -0.0117624365 -0.022708362 -0.007448342 -0.06934222 -0.0084642675
0.0069821225 -0.0020052262 0.000739637 0.038445182 -0.0106518725 -0.042368438 0.010458269 -0.024051778
0.04487887 -0.06108325 -0.012667536 0.045384727 0.031923223 -0.038101602 -0.03325298 0.0036778834
0.03988752 0.01829257 0.017030273 -0.00078265986 -0.018939735 0.056196433 -0.09077585 0.012501683
0.045852937 -0.009576353 0.039662495 0.010507809 0.01908553 -0.0012586204 0.03824571 0.039077487
0.0035656972 0.05556464 0.0129811345 0.009684424 0.068869315 0.052918088 0.013764674 -0.06524341
-0.022266557 -0.02039047 0.044587445 -0.04927882 -0.07761735 -0.052333668 0.040629238 0.039927818
0.021756208 -0.018388703 0.029837294 0.033849828 0.005191591 0.030217439 0.015201565 0.014861094
0.04384393 0.029296102 -0.02815256 -0.00042360436 0.0019695817 0.041171946 -0.008128614 0.0021482287
0.009975213 -0.035873394 0.05583263 -0.034436245 -0.0192345 0.036376063 -0.019004649 0.056360286
0.03903298 0.0028328747 -0.011724045 0.016617008 -0.011314332 0.010807914 0.007748938 0.033156402
00000000: 2536 113c a6b4 49bd 3728 303c 0471 163d
00000010: a555 b839 241d 67bd 3f0d 1c3d f328 ad3c
00000020: 14c0 a8bc 2b66 fbbc c685 1a3d 401c f6bb
00000030: 7ac6 cfbc 116d a63b 3c8b 2abc c480 dabc
00000040: d75f 173c 2fe1 67bd 2a5e 0d3d de09 9d3c
00000050: c8ac bcbc 04a0 60bd 2975 523d 08dd 35bb
00000060: f2f1 83bc 5b6b a93c 7e08 fe3c b34d 9fbc
00000070: 8548 d53c 3d24 8bbc 9df0 a63a e496 6dbd
00000080: 1f9c 13bc 9ce4 013b d87e 0c3d fe4b 093d
00000090: ab8f 0f3d 9b99 9ebc 2e93 7bbd e56a 80bc
000000a0: 0624 043d 841c 4b3c 3213 8c3c 3cb7 40bc
000000b0: e306 babc 3911 f4bb 4b03 8ebd b6ad 0abc
000000c0: 4aca e43b 1d6a 03bb 33e4 413a b278 1d3d
000000d0: 3185 2ebc 878a 2dbd 2959 2b3c 3c08 c5bc
000000e0: e8d2 373d 6e32 7abd 7f8b 4fbc 56e5 393d
000000f0: edc1 023d 6d10 1cbd 4734 08bd a508 713b
00000100: 1961 233d 4dda 953c 1283 8b3c 6a2b 4dba
00000110: 8127 9bbc 3b2e 663d b0e8 b9bd dcd3 4c3c
00000120: 4ad0 3b3d 23e6 1cbc 2475 223d f228 2c3c
00000130: 4259 9c3c 4bf8 a4ba 89a7 1c3d b70f 203d
00000140: 79ae 693b bf97 633d d3ae 543c 6bab 1e3c
00000150: 5b0b 8d3d a3c0 583d 3a85 613c 569e 85bd
00000160: 5b68 b6bc ea09 a7bc 53a1 363d 97d8 49bd
00000170: d8f5 9ebd d45b 56bd d86a 263d 5a8b 233d
00000180: 133a b23c e8a3 96bc 576d f43c 1ea6 0a3d
00000190: 391e aa3b 908a f73c fc0f 793c f27b 733c
000001a0: b195 333d 61fe ef3c 33a0 e6bc 3717 deb9
000001b0: 1914 013b eaa3 283d e12d 05bc 4cc9 0c3b
000001c0: 136f 233c fbef 12bd c1b0 643d 050d 0dbd
000001d0: ac91 9dbc 11ff 143d a3af 9bbc 0bda 663d
000001e0: 0ce1 1f3d c0a7 393b 3516 40bc 6420 883c
000001f0: bf5f 39bc ad13 313c ceea fd3b 02cf 073d

network_body._body_endoder.seq_layers.2.weight f4 [128, 128]
-0.13950913 -0.031889968 0.13281555 0.22568029 0.014843647 -0.00093576394 -0.041171756 0.033303056
0.20614225 0.015093681 -0.0133985905 -0.0027990167 -0.18257515 0.027649112 -0.041018218 0.116038695
0.08016449 -0.23824811 -0.13557114 -0.07496741 -0.111570425 -0.13806382 0.15031992 -0.15725261
0.047976665 -0.028867804 0.17939353 -0.11529904 -0.038672328 -0.08636028 -0.094153225 -0.06451915
-0.060552463 0.11851035 -0.051305935 -0.06233972 0.050058197 -0.06025949 -0.1657587 0.13114418
-0.087034635 -0.15256019 -0.10611512 -0.004573848 0.03356522 0.25981045 -0.15079725 0.12639166
0.11201582 0.10948834 0.06403689 0.11049396 0.019876711 -0.043307386 -0.09737945 -0.00082557165
-0.023028763 -0.20147036 0.050503634 0.022227867 0.051341247 -0.07487752 -0.072060764 -0.0076587684
0.104049765 -0.009351866 0.1462016 0.007114113 0.08950792 0.08170679 -0.16617686 -0.04785208
0.16514905 0.009661931 0.09146247 0.08229159 -0.037545886 -0.07572585 -0.011070441 0.15566045
0.15492654 -0.17428963 0.09093626 0.034438584 0.06641265 -0.010578686 -0.08190768 0.037000306
-0.086010955 -0.15093645 0.012137021 0.102373235 -0.08766734 -0.0029554777 -0.0015686078 0.08932782
-0.0127795525 0.22010164 -0.025881141 0.19103862 -0.0916591 0.13328306 0.077431165 -0.0050034123
0.038687058 -0.0027506512 -0.058692213 0.154179 -0.13073403 0.032810535 -0.18318368 0.04830474
0.06737598 0.05791576 -0.04722876 -0.28388306 0.059022643 -0.12882921 -0.079402514 0.095500514
-0.0089854 -0.076113984 -0.003754896 0.071479365 -0.013590308 -0.035234127 0.024194077 -0.017421156
0.08839589 -0.086629525 0.12537669 -0.01527729 -0.17917073 0.014861202 -0.021199847 0.11990407
0.060836874 -0.117010884 -0.018726932 -0.18901236 0.028251722 -0.0017740501 -0.1991747 -0.058893796
-0.17524602 0.087211266 -0.123382054 0.0842735 0.13029219 -0.010607968 0.11259204 0.15615192
0.17247641 0.0955802 -0.16244806 0.0060265753 0.079749696 0.087883726 0.025067203 0.006779796
-0.14280066 0.008062481 0.0033506355 -0.13124768 -0.0183971 -0.009553891 -0.036025267 -0.053287596
-0.07736406 0.1192591 0.17723785 -0.25141284 -0.010786905 0.065410376 -0.17548986 0.16165526
-0.109814495 -0.21989606 -0.13897659 0.09874249 -0.0010167062 -0.20090757 -0.1370752 -0.0055686957
-0.15488963 0.08243877 -0.09995086 0.0608836 0.07406603 0.13878171 -0.17605504 -0.20779844
0.060113747 0.12332323 -0.1281928 0.0066028954 0.08903751 0.18850675 0.004408384 0.12142639
0.14489776 0.077466644 -0.18272944 -0.07128458 0.2782834 0.23701559 0.057628345 0.044626374
-0.17228611 -0.090721786 -0.14069635 0.004429714 -0.19134201 -0.019416146 -0.0147067895 -0.06080996
-0.042797644 -0.17346407 0.14823358 0.1028529 0.091994636 -0.167987 0.06084694 -0.092298016
-0.23224726 0.13471447 0.18268046 -0.2273845 -0.18448603 0.14279471 0.004373863 -0.24762906
0.13494715 0.18955475 0.04072796 0.092877805 -0.16745134 -0.0599928 -0.010710029 -0.20011975
0.1757535 -0.09103506 -0.07463523 -0.087445214 -0.10778906 -0.08865295 0.15425237 -0.036875993
-0.28802818 -0.08852955 -0.0409628 -0.07824507 -0.11589983 0.00014008139 0.13545762 0.19704854
00000000: 7bdb 0ebe 0e9f 02bd cd00 083e bc18 673e
00000010: c532 733c 0e4e 75ba b7a3 28bd c968 083d
00000020: f416 533e 7d4b 773c c385 5bbc b56f 37bb
00000030: fbf4 3abe 6480 e23c b802 28bd b2a5 ed3d
00000040: 482d a43d 50f7 73be 29d3 0abe 8388 99bd
00000050: 097f e4bd 9a60 0dbe 77ed 193e d406 21be
00000060: 2e83 443d 2c7c ecbc f0b2 373e e721 ecbd
00000070: e066 1ebd a9dd b0bd 68d3 c0bd 9e22 84bd
00000080: dc05 78bd 8eb5 f23d 2c26 52bd ef57 7fbd
00000090: d309 4d3d a8d2 76bd a6bc 29be a94a 063e
000000a0: 373f b2bd bd38 1cbe e252 d9bd 38e0 95bb
000000b0: af7b 093d e005 853e 986a 1abe d16c 013e
000000c0: 8d68 e53d 6c3b e03d c625 833d a84a e23d
000000d0: 7cd4 a23c 1663 31bd e16e c7bd 2d6b 58ba
000000e0: d1a6 bcbc 3f4e 4ebe e6dc 4e3d 3717 b63c
000000f0: 334b 523d 6359 99bd 9894 93bd 68f6 fabb
00000100: 0b18 d53d 9238 19bc dfb5 153e 811d e93b
00000110: ee4f b73d e455 a73d 442a 2abe 8b00 44bd
00000120: d51c 293e 134d 1e3c ad50 bb3d 7e88 a83d
00000130: b7c9 19bd 2816 9bbd cc60 35bc 7465 1f3e
00000140: 10a5 1e3e fb78 32be ca3c ba3d 790f 0d3d
00000150: 5b03 883d 3a52 2dbc 37bf a7bd a28d 173d
00000160: 8326 b0bd 168f 1abe 5bda 463c 0fa9 d13d
00000170: ef8a b3bd b0b0 41bb be99 cdba 81f1 b63d
00000180: 5461 51bc 5362 613e b004 d4bc a19f 433e
00000190: c4b7 bbbd 5b7b 083e 3b94 9e3d aaf3 a3bb
000001a0: 5276 1e3d 4544 34bb 3f67 70bd 1ae1 1d3e
000001b0: 24df 05be 5764 063d 8194 3bbe 31db 453d
000001c0: 6bfc 893d 1339 6d3d f272 41bd 1f59 91be
000001d0: bac1 713d ceeb 03be c99d a2bd c695 c33d
000001e0: 8037 13bc a6e1 9bbd b414 76bb c663 923d
000001f0: e2a9 5ebc a951 10bd a832 c63c d0b6 8ebc
00000200: e808 b53d d26a b1bd bf62 003e 994d 7abc
00000210: 8878 37be 667c 733c 4dab adbc 4490 f53d
00000220: 1630 793d 67a3 efbd 3969 99bc 758c 41be
00000230: 2870 e73c 3e87 e8ba 74f4 4bbe 9f3a 71bd
00000240: b173 33be d29b b23d bbaf fcbd 9697 ac3d
00000250: 516b 053e 0bcd 2dbc a896 e63d 4ae6 1f3e
00000260: a89d 303e 8dbf c33d c958 26be 947a c53b
00000270: cf53 a33d 62fc b33d bc59 cd3c 0d29 de3b
00000280: 563a 12be 7f18 043c 5696 5b3b cb65 06be
00000290: 84b5 96bc ec87 1cbc 3b8f 13bd 1844 5abd
000002a0: 0c71 9ebd 1d3e f43d d77d 353e 2fb9 80be
000002b0: 8fbb 30bc e0f5 853d 9db3 33be f588 253e
000002c0: 6ce6 e0bd 6f2c 61be e14f 0ebe 8139 ca3d
000002d0: 0043 85ba b7ba 4dbe 715d 0cbe 9b79 b6bb
000002e0: 639b 1ebe a8d5 a83d 09b3 ccbd 1561 793d
000002f0: eeaf 973d cb1c 0e3e c647 34be 1dc9 54be
00000300: d539 763d e490 fc3d f944 03be 1a5d d83b
00000310: 4c59 b63d ea07 413e 3574 903b 66ae f83d
00000320: 1460 143e d5a6 9e3d 6d1d 3bbe a6fd 91bd
00000330: 297b 8e3e 37b4 723e b30b 6c3d 25ca 363d
00000340: c56b 30be 58cc b9bd b412 10be 2227 913b
00000350: 29ef 43be 9c0e 9fbc bff4 70bc dd13 79bd
00000360: 954c 2fbd 91a0 31be 8bca 173e 8ba4 d23d
00000370: af67 bc3d c904 2cbe a43a 793d be06 bdbd
00000380: 3ad2 6dbe 97f2 093e 9610 3b3e 7bd7 68be
00000390: e8e9 3cbe c738 123e 9f52 8f3b 7992 7dbe
000003a0: 962f 0a3e a41a 423e 5dd2 263d b836 be3d
000003b0: 5d78 2bbe 03bb 75bd 1e79 2fbc 31ec 4cbe
000003c0: baf8 333e 9770 babd 5bda 98bd 7a16 b3bd
000003d0: 83c0 dcbd ae8f b5bd 55f4 1d3e 480b 17bd
000003e0: 6e78 93be fb4e b5bd 9cc8 27bd f43e a0bd
000003f0: e45c edbd d0e2 1239 67b5 0a3e 18c7 493e

network_body._body_endoder.seq_layers.2.bias f4 [128]
0.036350712 0.05548849 -0.07637943 0.022213655 -0.01936715 0.014672388 -0.055445302 -0.06768403
0.076307416 0.0605194 -0.0012665855 0.0445856 -0.0076067755 0.038253915 -0.040779065 -0.0152651
0.03181096 0.0132236695 -0.044698417 0.060664963 -0.10208791 0.03042677 0.020585882 -0.05859559
0.047149666 -0.04770519 0.05747269 -0.009783394 -0.018314354 -0.04463312 -0.051431973 -0.049933884
0.05258536 -0.0026695356 -0.013064434 0.023264252 -0.049165785 -0.048193146 0.023958843 0.016367115
0.023325646 0.02476407 -0.043385863 0.059585143 -0.018279444 0.041006975 -0.09441723 -0.049121
0.038150426 0.038945626 -0.05430798 -0.0024567638 0.037642147 0.05472119 0.008223181 0.028341683
-0.066536196 0.019699803 0.047134895 -0.02717208 0.058104865 0.01193752 -0.065243185 0.06760952
0.0461445 0.072188586 -0.06215774 0.0055577643 0.09822246 -0.06878899 -0.09443917 0.055546813
-0.010854502 0.044690948 0.031164765 -0.03084469 -0.05760758 0.03093091 -0.06966046 0.037466556
-0.017423937 -0.050320014 -0.048415937 -0.10109564 -0.05295294 -0.039293554 0.06052237 0.0014823107
-0.02007629 0.062150836 0.052276682 0.0058388123 -0.04344392 0.011403051 0.032318536 -0.022866443
-0.031433772 -0.040946405 -0.014672421 -0.00056462036 -0.057828005 0.03845689 0.024908625 0.039919596
-0.015723187 0.015645508 -0.040030107 -0.041721318 0.014066795 -0.07027131 -0.032940645 -0.059960537
0.048646837 -0.015391373 0.03843467 -0.04262884 0.03148708 -0.08249067 0.011254965 0.010991186
0.00079321687 0.07222657 -0.057064056 0.068004064 0.028121116 -0.07368618 0.009526797 0.03074644
00000000: 7ce4 143d e647 633d d26c 9cbd 69f9 b53c
00000010: dba7 9ebc 7564 703c 9d1a 63bd ed9d 8abd
00000020: 1047 9c3d 31e3 773d 8f03 a6ba 649f 363d
00000030: 4242 f9bb 23b0 1c3d f307 27bd 781a 7abc
00000040: 364c 023d 17a8 583c b015 37bd d37b 783d
00000050: 7713 d1bd 9041 f93c b9a3 a83c ee01 70bd
00000060: 0220 413d 8466 43bd 7c68 6b3d 874a 20bc
00000070: fc07 96bc 38d1 36bd 55aa 52bd 7987 4cbd
00000080: bf63 573d 60f3 2ebb 350c 56bc ac94 be3c
00000090: 1062 49bd 2d66 45bd 5645 c43c 5414 863c
000000a0: 6d15 bf3c 05de ca3c 60b5 31bd 8d0f 743d
000000b0: c6be 95bc eef6 273d d25d c1bd 1a33 49bd
000000c0: 9f43 1c3d 7385 1f3d 0b72 5ebd a801 21bb
000000d0: a72e 1a3d 5423 603d 85ba 063c d12c e83c
000000e0: 2144 88bd 7b61 a13c 8510 413d fb97 debc
000000f0: 5eff 6d3d 9695 433c 389e 85bd dc76 8a3d
00000100: 0402 3d3d 9cd7 933d 1d99 7ebd e81d b63b
00000110: db28 c93d 3ee1 8cbd 5369 c1bd 0e85 633d
00000120: 15d7 31bc db0d 373d 404d ff3c 01ae fcbc
00000130: edf5 6bbd d262 fd3c 25aa 8ebd 8876 193d
00000140: a5bc 8ebc 5c1c 4ebd ca4f 46bd 3b0b cfbd
00000150: 2fe5 58bd 47f2 20bd 4ee6 773d 184a c23a
00000160: 0877 a4bc e091 7e3d 1320 563d 8253 bf3b
00000170: 40f2 31bd ddd3 3a3c 7160 043d 6852 bbbc
00000180: b3c0 00bd 6bb7 27bd 9864 70bc 0803 14ba
00000190: 0fdd 6cbd f984 1d3d 2c0d cc3c bb82 233d
000001a0: eacd 80bc 022b 803c 9cf6 23bd f9e3 2abd
000001b0: 6a78 663c 68ea 8fbd c5ec 06bd 2e99 75bd
000001c0: e841 473d 192c 7cbc ac6d 1d3d 949b 2ebd
000001d0: 99f8 003d def0 a8bd bf66 383c 6014 343c
000001e0: e2ef 4f3a 86eb 933d 00bc 69bd b745 8b3d
000001f0: 415e e63c c8e8 96bd 4816 1c3c f5df fb3c

action_model._discrete_distribution.branches.0.weight f4 [3, 128]
0.020979324 -0.0009236732 0.06564234 -0.028099712 0.023941386 0.01874927 0.06442634 0.03918935
-0.03532494 -0.051307477 -0.025049161 -0.05263435 0.111862145 0.03837754 0.09131581 -0.014922767
-0.033179957 0.023571804 0.09552499 -0.0059300065 0.06136212 -0.039300587 0.011790212 0.057962153
-0.04275622 0.0720699 -0.03743502 0.1135478 0.044498205 0.054650795 0.029710611 0.080898054
0.013489267 -0.005477736 0.07945378 -0.006056844 0.05814918 -0.03787425 0.016535645 -0.009734725
0.015479849 0.03119371 -0.029295515 -0.0076232823 0.02556234 -0.0206636 0.06696305 0.069839776
0.015737394 0.0056117233 0.03462547 -0.035016138 -0.05689736 -0.04187895 0.037774783 -0.041361902
0.06451632 0.005153171 -0.02814225 0.06592445 -0.0057583866 0.034467727 0.10321326 -0.007995064
-0.058889084 -0.01616955 0.069266096 -0.0063306955 -0.04247259 0.07018616 0.05348522 -0.01613615
-0.03693359 0.024176069 0.04269099 0.026775723 0.05932316 0.053115126 0.06485155 -0.061442055
0.010410615 0.074150585 0.10095012 0.05559522 -0.004314447 0.06179249 -0.04174799 0.022342062
0.05747838 0.0043678735 -0.029862808 0.0065401136 0.027864682 0.0070665986 0.024653526 0.0044055595
0.091235325 0.09804879 0.056484394 -0.09541911 0.035471324 0.013093201 0.025089065 -0.036955185
-0.00071425235 0.028355105 0.052742876 -0.017801724 -0.009582281 0.10913822 0.018422833 0.07487659
-0.012218117 0.10031349 0.010194435 -0.04047699 -0.022059599 0.022072561 0.02498884 0.0099112205
-0.0018704692 -0.080281846 -0.010952373 -0.007885111 -0.049315616 0.100331485 -0.043174885 -0.007783022
0.04292329 0.0521573 -0.12655792 0.047926925 0.0029385209 0.029861081 -0.06510034 -0.09140103
0.044179615 0.02491735 0.023983037 0.032951713 -0.090953514 0.03567869 -0.090680525 -0.0025623543
0.07827363 -0.045370616 -0.087855056 0.047915418 -0.057980917 -0.0100188665 0.035182443 -0.09776557
0.030364947 -0.090976246 0.06618932 -0.13265824 0.012191559 -0.107665196 -0.07563555 -0.105738156
0.049828976 0.0008498402 -0.014442497 0.06916758 -0.109124124 -0.0096035935 0.021035267 0.058446705
0.044915292 -0.0022247308 0.005251016 0.066043094 0.024111534 0.056914236 -0.10873337 -0.107136175
-0.008721176 -0.01866553 -0.06858475 -0.016478084 0.07883835 0.02947803 0.015064975 0.07537333
-0.096196875 0.017547375 0.00395412 -0.062503204 0.055348016 0.0076738587 -0.115719326 0.01853822
0.072364144 0.060637217 -0.10800096 -0.005156105 0.06302451 -0.108055055 -0.058710903 0.03470993
0.012044559 0.027956665 0.03939372 -0.05602726 -0.0854473 -0.051718306 -0.0948315 0.025953174
0.002203419 -0.09977233 -0.10773098 -0.0687772 -0.019299885 -0.111186154 0.051951423 0.01236608
-0.06910881 0.070427075 0.030138077 0.038039785 -0.06313382 0.0009721858 0.05249841 -0.015567464
-0.115748815 -0.087595135 -0.054219067 0.05242837 -0.08216997 0.057702456 0.02576992 0.008821882
0.0056633954 -0.0031507283 -0.034610957 -0.054274786 0.03498775 -0.051219612 -0.06444547 -0.046478942
0.036933497 -0.10998496 0.02452516 -0.008666305 0.061780382 -0.053310774 0.043985866 0.040653042
-0.0011004969 0.11083347 -0.055808354 0.054592755 0.059298113 -0.09506895 0.033941373 0.0319446
00000000: d5dc ab3c a922 72ba 7e6f 863d 5e31 e6bc
00000010: ba20 c43c 1298 993c f5f1 833d 0385 203d
00000020: e2b0 10bd ca27 52bd e633 cdbc 1e97 57bd
00000030: fb17 e53d c431 1d3d c903 bb3d 9f7e 74bc
00000040: b5e7 07bd a819 c13c 9ba2 c33d 8050 c2bb
00000050: d956 7b3d a7f9 20bd bc2b 413c b969 6d3d
00000060: 2521 2fbd 6299 933d 7755 19bd c08b e83d
00000070: c043 363d 83d9 5f3d ab63 f33c e1ad a53d
00000080: 1602 5d3c 947e b3bb aab8 a23d 7d78 c6bb
00000090: d62d 6e3d 0822 1bbd c375 873c 657e 1fbc
000000a0: 319f 7d3c f489 ff3c 26fd efbc bacc f9bb
000000b0: 1d68 d13c b646 a9bc ec23 893d 2808 8f3d
000000c0: b5eb 803c 8ce2 b73b 70d3 0d3d 156d 0fbd
000000d0: 350d 69bd 4389 2bbd bbb9 1a3d 196b 29bd
000000e0: 2221 843d eedb a83b 938a e6bc 6603 873d
000000f0: d9b0 bcbb 082e 0d3d 7961 d33d bbfd 02bc
00000100: ae35 71bd 0176 84bc 62db 8d3d b971 cfbb
00000110: bdf7 2dbd c3bd 8f3d 5113 5b3d f62f 84bc
00000120: ad47 17bd e40c c63c bfdc 2e3d c358 db3c
00000130: d8fc 723d 3f8f 593d e4d0 843d aaaa 7bbd
00000140: 4991 2a3c 43dc 973d f0be ce3d d0b7 633d
00000150: 3460 8dbb 1f1a 7d3d f1ff 2abd b306 b73c
00000160: 736e 6b3d 6120 8f3b d9a2 f4bc 734e d63b
00000170: 7944 e43c ed8e e73b 31f6 c93c 835c 903b
00000180: 96d9 ba3d cecd c83d 2e5c 673d 186b c3bd
00000190: 614a 113d de84 563c 9587 cd3c 525e 17bd
000001a0: aa3c 3bba f748 e83c ea08 583d ecd4 91bc
000001b0: 00ff 1cbc dc83 df3d 7beb 963c e658 993d
000001c0: 7f2e 48bc 2971 cd3d 8f06 273c 33cb 25bd
000001d0: 55b6 b4bc 84d1 b43c 65b5 cc3c ac62 223c
000001e0: 882a f5ba cf6a a4bd 9571 33bc 8d30 01bc
000001f0: 2cff 49bd 987a cd3d 26d8 30bd b808 ffbb
00000200: 55d0 2f3d e5a2 553d 6698 01be 064f 443d
00000210: 3394 403b 3a9f f43c 5453 85bd 7730 bbbd
00000220: aff5 343d 781f cc3c 1378 c43c 60f8 063d
00000230: d645 babd d123 123d b6b6 b9bd 2ced 27bb
00000240: ed4d a03d 8ad6 39bd 5aed b3bd f542 443d
00000250: 667d 6dbd 2c26 24bc 771b 103d 5139 c8bd
00000260: e9bf f83c c151 babd 448e 873d 90d7 07be
00000270: 1bbf 473c 927f dcbd d0e6 9abd 3f8d d8bd
00000280: 7819 4c3d cfc7 5e3a 39a0 6cbc bba7 8d3d
00000290: 787c dfbd 6458 1dbc 2752 ac3c d065 6f3d
000002a0: 19f9 373d cacc 11bb b710 ac3b 9a41 873d
000002b0: 8d85 c53c e71e 693d 9aaf debd 366a dbbd
000002c0: 43e3 0ebc 74e8 98bc 2976 8cbd 0cfd 86bc
000002d0: 0076 a13d e97b f13c 16d3 763c 555d 9a3d
000002e0: de02 c5bd 83bf 8f3c 9091 813b ae01 80bd
000002f0: 9ab4 623d fe74 fb3b 41fe ecbd 77dd 973c
00000300: a733 943d bb5e 783d 9b2f ddbd 8bf4 a8bb
00000310: ff12 813d f84b ddbd d87a 70bd 002c 0e3d
00000320: 8b56 453c 6005 e53c 4f5b 213d d77c 65bd
00000330: fefe aebd 93d6 53bd 0437 c2bd c09b d43c
00000340: 3d67 103b 6f55 ccbd 0fa2 dcbd 10db 8cbd
00000350: cb1a 9ebc 91b5 e3bd 04cb 543d 199b 4a3c
00000360: eb88 8dbd 123c 903d 21e4 f63c 9bcf 1b3d
00000370: 4e4c 81bd 49da 7e3a 9308 573d ad0e 7fbc
00000380: b70d edbd 1465 b3bd d014 5ebd 21bf 563d
00000390: bb48 a8bd 6959 6c3d 701b d33c a889 103c
000003a0: 0194 b93b 737c 4ebb 38c4 0dbd 3d4f 5ebd
000003b0: 514f 0f3d a8cb 51bd fdfb 83bd b460 3ebd
000003c0: 9447 173d cb3f e1bd fde8 c83c 1efd 0dbc
000003d0: 6d0d 7d3d 665c 5abd 862a 343d ce83 263d
000003e0: 8c3e 90ba a9fc e23d 4d97 64bd a79c 5f3d
000003f0: 94e2 723d 82b3 c2bd 1c06 0b3d 57d8 023d

action_model._discrete_distribution.branches.0.bias f4 [3]
-0.07625494 0.11035417 -0.0720199
00000000: 8d2b 9cbd 5e01 e23d 2b7f 93bd

action_model._discrete_distribution.branches.1.weight f4 [3, 128]
0.0022719163 0.029477267 -0.019183751 -0.012928873 -0.100859165 -0.010385657 -0.01665539 -0.025324248
0.08807747 -0.0038851458 -0.0662784 0.043459944 0.023693372 -0.10356404 -0.018724427 0.028143853
-0.0011578287 0.10342385 -0.048891097 0.102967024 -0.021430472 -0.0125327315 0.022298358 -0.038745567
0.06637961 -0.0059954477 -0.025133938 -0.0329358 0.02699737 -0.02530179 -0.0643222 -0.004772846
-0.0027977407 -0.019149942 -0.04142778 0.029929718 -0.020829974 -0.048443474 -0.051391724 0.011328635
-0.044965923 0.08671369 -0.011367602 0.034978993 0.019610157 0.02982576 -0.025125585 -0.04852573
0.12497581 0.12254158 -0.01233975 0.07695545 -0.050602093 -0.018388249 -0.067697994 -0.020552332
-0.011792623 0.029829107 0.083481 -0.10153407 0.035204127 -0.11461759 -0.017722448 -0.00078181067
-0.02642119 0.0065494725 -0.02175601 -0.09574146 0.08688362 -0.012787946 -0.027372466 0.11683053
-0.09191351 -0.078490525 -0.028804373 -0.08943188 -0.049213044 0.017185995 -0.09959075 0.025966078
-0.062165808 -0.066260606 -0.06653067 -0.013772227 0.02337717 -0.042599514 0.05893601 -0.08908819
0.028247366 0.031523794 0.03537501 -0.10459495 -0.003573962 0.08925402 -0.03247305 -0.099276476
-0.0358915 -0.044913817 -0.10087326 -0.091767624 -0.046403456 0.085206844 0.040449403 0.015833184
0.01711251 -0.0027681387 -0.039046403 -0.0587063 -0.07426868 0.009949326 -0.018189736 -0.037624825
0.02350112 -0.030649401 -0.09397586 -0.054801807 0.017331876 -0.057369072 0.07510181 0.04814797
-0.13629726 0.014258327 -0.047085438 0.084418364 -0.02568399 -0.037274808 -0.094099276 -0.081743225
0.03970773 -0.15822427 0.00038951752 -0.14025943 0.07406572 0.026942132 0.008848712 0.019381868
0.022083428 0.045301937 -0.023713272 -0.044952948 0.06777443 0.08546645 -0.018102154 -0.027487714
-0.03175154 0.037667666 0.033587404 -0.054248057 0.008054374 0.023417374 -0.1033382 -0.0022493438
-0.07219256 0.0036073488 0.06224409 0.004683551 -0.02854124 0.02017146 0.0005207111 -0.02683539
0.044692874 0.0055782604 0.026203072 -0.0053090756 0.013641414 0.027707301 0.08737598 0.02709405
-0.07279293 -0.0115809655 0.0044606645 0.001959711 -0.09699303 0.006982086 0.0070705735 0.02853299
-0.033937033 0.009261894 0.028832354 -0.09002042 0.009902504 0.06982884 0.043584865 -0.07891999
0.011439677 0.04755705 -0.026077915 -0.017879598 -0.120170295 0.025558569 -0.025756368 0.051098995
-0.07789451 0.071003765 -0.013199469 0.09499946 0.050358437 0.0054977117 0.02767765 -0.019109227
0.075906 0.095945925 0.044137396 0.04433585 0.011226876 0.050626185 -0.019232104 -0.014479782
-0.049040742 -0.0037766183 0.030123392 -0.019845959 -0.051986527 0.0077453344 0.022621429 0.04281234
0.019858766 -0.16270709 0.028319694 0.029885808 -0.011419237 0.022415495 0.013594638 0.09784903
0.026542623 0.0012571309 0.1210936 -0.015199692 -0.014699314 -0.021012185 -0.0071606324 0.038083553
-0.12932305 0.003724257 -0.007394539 0.01787658 0.03649069 -0.013322903 0.0074335434 0.04510073
0.070829734 0.013643549 0.10212738 0.041661087 -0.0476613 0.016936583 -0.050228693 -0.07407105
0.1352249 -0.09795459 -0.004038237 -0.017825006 0.028476723 0.010122783 0.027139485 0.08666893
00000000: 6ee4 143b 4f7a f13c 3e27 9dbc a0d3 53bc
00000010: 408f cebd 9a28 2abc e270 88bc cc74 cfbc
00000020: f661 b43d ee9d 7ebb f8bc 87bd 0e03 323d
00000030: 9a18 c23c 6219 d4bd f863 99bc f08d e63c
00000040: 49c2 97ba e2cf d33d 0842 48bd 60e0 d23d
00000050: f58e afbc 1656 4dbc 0cab b63c acb3 1ebd
00000060: 08f2 873d 7675 c4bb b0e5 cdbc b0e7 06bd
00000070: 9729 dd3c b345 cfbc 5cbb 83bd 8965 9cbb
00000080: 4d5a 37bb 57e0 9cbc 2db0 29bd 2b2f f53c
00000090: 9fa3 aabc aa6c 46bd 2180 52bd bd9b 393c
000000a0: 302e 38bd f296 b13d 2e3f 3abc 2246 0f3d
000000b0: 7ba5 a03c 2755 f43c 2cd4 cdbc eac2 46bd
000000c0: 51f3 ff3d 14f7 fa3d aa2c 4abc d29a 9d3d
000000d0: 2444 4fbd f4a2 96bc 3fa5 8abd 5d5d a8bc
000000e0: d935 41bc 2c5c f43c 16f8 aa3d 18f1 cfbd
000000f0: 3432 103d a1bc eabd ab2e 91bc 6df2 4cba
00000100: 4071 d8bc f59c d63b a939 b2bc 1914 c4bd
00000110: 0af0 b13d 8884 51bc 393c e0bc d844 ef3d
00000120: 263d bcbd a4bf a0bd 26f7 ebbc 1028 b7bd
00000130: 9e93 49bd a5c9 8c3c 3cf6 cbbd d0b6 d43c
00000140: 93a1 7ebd a4b3 87bd 3b41 88bd e8a4 61bc
00000150: 7b81 bf3c d47c 2ebd e366 713d de73 b6bd
00000160: 0567 e73c 181f 013d 63e5 103d e135 d6bd
00000170: 2239 6abb d0ca b63d 7602 05bd 7751 cbbd
00000180: f702 13bd 8df7 37bd a496 cebd aaf0 bbbd
00000190: 8d11 3ebd ed80 ae3d 46ae 253d 98b4 813c
000001a0: 892f 8c3c a969 35bb 1fef 1fbd 0476 70bd
000001b0: 2d1a 98bd 7f02 233c a402 95bc 7d1c 1abd
000001c0: 6c85 c03c 7414 fbbc 6a76 c0bd dc77 60bd
000001d0: 94fb 8d3c d5fb 6abd face 993d ce36 453d
000001e0: 8291 0bbe c29b 693c a9dc 40bd 89e3 ac3d
000001f0: 3b67 d2bc 78ad 18bd 1fb7 c0bd fe68 a7bd
00000200: 93a4 223d 8b05 22be 2838 cc39 2ba0 0fbe
00000210: c5af 973d bfb5 dc3c 30fa 103c b9c6 9e3c
00000220: 4ee8 b43c 868e 393d 5642 c2bc 9520 38bd
00000230: 52cd 8a3d 0909 af3d f84a 94bc ea2d e1bc
00000240: e70d 02bd 6949 1a3d f292 093d 3633 5ebd
00000250: 7ef6 033c cbd5 bf3c faa2 d3bd ba69 13bb
00000260: b1d9 93bd 4569 6c3b a9f3 7e3d 7978 993b
00000270: 52cf e9bc 9e3e a53c 5580 083a e4d5 dbbc
00000280: e00f 373d d7c9 b63b d3a7 d63c c1f7 adbb
00000290: 3d80 5f3c 6cfa e23c 2ef2 b23d 57f4 dd3c
000002a0: 7614 95bd 17be 3dbc c42a 923b 7f6e 003b
000002b0: 48a4 c6bd fcc9 e43b 45b0 e73b 04be e93c
000002c0: 8f01 0bbd 33bf 173c d431 ec3c a05c b8bd
000002d0: 1d3e 223c 6c02 8f3d 0b86 323d cea0 a1bd
000002e0: 7c6d 3b3c 2ecb 423d 5aa1 d5bc 3c78 92bc
000002f0: d81b f6bd 3460 d13c 05ff d2bc 2e4d 513d
00000300: 2887 9fbd 6c6a 913d 9642 58bc 148f c23d
00000310: a644 4e3d 2626 b43b 3dbc e23c f48a 9cbc
00000320: 9b74 9b3d 4c7f c43d 6ac9 343d 8299 353d
00000330: eef0 373c 675d 4f3d a58c 9dbc 9c3c 6dbc
00000340: f2de 48bd 2481 77bb 55c5 f63c fe93 a2bc
00000350: d3ef 54bd 93cc fd3b 9350 b93c fe5b 2f3d
00000360: daae a23c b09c 26be b4fe e73c 15d3 f43c
00000370: c017 3bbc b3a0 b73c 0bbc 5e3c 1265 c83d
00000380: ea6f d93c 50c6 a43a ecff f73d 2108 79bc
00000390: 64d5 70bc bf21 acbc bda3 eabb 80fd 1b3d
000003a0: 436d 04be aa12 743b e44d f2bb e871 923c
000003b0: 4377 153d 4e48 5abc 1595 f33b 8bbb 383d
000003c0: 2e0f 913d 3189 5f3c 2928 d13d d1a4 2a3d
000003d0: 7f38 43bd 97be 8a3c 9abc 4dbd 90b2 97bd
000003e0: 6578 0a3e 6b9c c8bd 3053 84bb bf05 92bc
000003f0: 0448 e93c 07da 253c a053 de3c 7b7f b13d

action_model._discrete_distribution.branches.1.bias f4 [3]
0.026167408 0.0038409657 -0.02044228
00000000: 085d d63c b6b8 7b3b 9276 a7bc
