Assets/results/T2/CarDriver/CarDriver-3499996.onnx (onnx, 188993 bytes, 9 tensors)

discrete_act_size_vector f4 [1, 2]
000000 00 00 40 40 00 00 40 40
       3.0 3.0

network_body._body_endoder.seq_layers.0.weight f4 [128, 225]
000000 22 30 1c be d0 11 ad bc f9 5a 38 3c 37 6a b7 3d
       -0.15252736 -0.021126658 0.011252158 0.08955806
000010 6c d0 36 3c 33 5d e5 3c cd 89 60 3d c8 53 dc 3d
       0.01115809 0.027998542 0.054818917 0.107581675
000020 4d 7e 11 be ac f4 3d 3d eb 5f d6 bd 6c 0c 00 be
       -0.14208336 0.046375915 -0.10467514 -0.12504739
000030 57 0e 85 3d fd 3a 9e 3a 20 54 39 bd de e7 fe 3d
       0.06496876 0.0012072023 -0.045246243 0.12446569
000040 10 66 ab 3d dc 26 20 bd ab 0c 95 3d 65 39 58 be
       0.08369076 -0.03909956 0.07277807 -0.21115644
000050 ba e8 5e bd 82 8d 0c 3e 82 4b 36 3c ae a9 af 3d
       -0.054421164 0.13725856 0.011126401 0.08577286
000060 32 ce cf 3d 93 56 63 bc f8 5a 8e 3d 68 78 df bd
       0.101467505 -0.013875621 0.06950945 -0.109116375
000070 09 4a 06 be 28 08 a7 bc 92 02 bf bd 30 03 8f bc
       -0.1311418 -0.020389631 -0.09326662 -0.017457575
000080 20 c1 ea 3d 55 d6 df 3d dc f1 09 3e b7 d5 dc 3c
       0.11462617 0.109295525 0.13471168 0.026957376
000090 c6 3a 62 bc 67 2f 13 3e ef 1f 22 bc 39 f6 b2 3c
       -0.013807958 0.14373551 -0.009895309 0.021845924
0000a0 02 68 13 3c 6c 1e 97 bd ca d1 30 be ef 7b 59 3e
       0.008996965 -0.073788494 -0.17267528 0.21238683
0000b0 fb bc 6f 3d 2f 06 f5 3b d2 ee 4c 3d 4e 6b 29 3d
       0.058529835 0.007477544 0.050032444 0.0413621
0000c0 ff d0 b1 3c ab 8f 8d bd ac b1 07 3e d0 c5 22 3e
       0.021706102 -0.06912168 0.1325137 0.15895772
0000d0 d6 4c af bc 6c b9 3f 3d 3a 78 a5 3d 02 4e cf bd
       -0.021398943 0.04680769 0.08079572 -0.10122301
0000e0 3a 82 b3 bd e6 a9 73 bb ef b8 0d 3c 65 5f 07 be
       -0.08765073 -0.0037180125 0.008650049 -0.13219984
0000f0 60 a4 8c bd 92 14 ac 3d 2f 33 5f bd 96 df 3c 3d
       -0.068672895 0.08402361 -0.05449217 0.046111666
000100 ca c9 2f be 17 46 b9 3d 22 a8 1e be 02 16 f0 3c
       -0.1716682 0.09046572 -0.15493825 0.02930737
000110 d0 9f b7 3d 17 bc d1 bc 4c de 0e be 24 98 f6 bd
       0.08966029 -0.025602384 -0.13951987 -0.12040737
000120 12 61 61 bd bb aa 70 3d 3c 90 86 bb a5 71 50 bd
       -0.055024214 0.05875657 -0.0041065495 -0.05088963
000130 c1 0f f3 bc 2e 71 ee bd 9f 41 bd 3c 41 87 fc 3d
       -0.029670598 -0.11642681 0.02310258 0.12330485
000140 2d 55 78 bc ff 94 c2 bd 1c eb 8b bb 84 44 05 3d
       -0.015157026 -0.09501075 -0.0042699706 0.032536045
000150 02 0f bf bd f3 74 ba 3d 10 f2 19 3e bf 5c 98 3d
       -0.093290344 0.091043375 0.15033746 0.07439565
000160 c7 a7 19 3d 62 ee 44 bd b7 37 c1 3c 55 eb 07 3d
       0.03751352 -0.048078902 0.023586137 0.033183414
000170 35 63 4b be 9c 31 7c 3d 37 dd 09 bd 69 f0 25 be
       -0.19862063 0.06157075 -0.033658233 -0.1620499
000180 eb 1a 4f 3d 7e 33 31 bd f9 1a 6e 3d 22 89 0d 3d
       0.05056278 -0.043261997 0.058131192 0.03455461
000190 a2 2f 6a bd 6a 05 b7 3d 46 63 26 be b7 ed 7e bd
       -0.057174332 0.089365795 -0.16248807 -0.06223842
0001a0 21 e7 78 bd 76 27 13 bd b4 cd 0b be 77 97 25 3e
       -0.060767297 -0.035926305 -0.13652688 0.1617106
0001b0 ad 6d 3c bd f4 e5 af bd 56 c8 e5 3d 25 28 29 be
       -0.046003032 -0.08588782 0.11219852 -0.1651922
0001c0 8b 5b 9b bd b2 8c 16 3d f0 8a f0 3d f5 63 ed 3d
       -0.0758582 0.03675527 0.1174525 0.11591331
0001d0 bc 03 a2 3d c2 5f ad 3c 3e 72 3a be 45 40 dc bb
       0.079108685 0.021163825 -0.18207642 -0.0067215287
0001e0 2e c1 1e be 12 52 88 3c e2 6c 63 bc e4 5c 91 bc
       -0.1550338 0.016640697 -0.01388094 -0.017744489
0001f0 41 9a ef 3d 8f 9b bd bd 7f 94 0a be f1 37 27 3e
       0.116993435 -0.09258186 -0.1353321 0.16329934
000200 ee ab d7 bd b3 2a 90 3d ae 7a 9e bd 48 90 b6 bd
       -0.1053084 0.07039394 -0.07738243 -0.08914238
000210 33 9b ef bc bf f4 a0 bd 75 43 28 bc cd 5f 24 3e
       -0.02924881 -0.078591816 -0.010269989 0.1605217
000220 4e a3 a6 bd 03 a1 88 3e a5 15 7c bc aa 13 74 bd
       -0.08136617 0.26685342 -0.01538602 -0.059589066
000230 96 b7 82 bd 33 06 67 bd ab b2 e3 3d 23 8e 92 3d
       -0.063826725 -0.056402396 0.111180626 0.07156017
000240 00 b4 08 3e e6 ed d4 bd 3d d9 b0 be 37 cc 06 be
       0.13349915 -0.10396938 -0.3454074 -0.1316384
000250 62 0a 40 be fe cc 29 3e a2 54 3a bd 15 55 b3 bd
       -0.1875396 0.16582105 -0.04549087 -0.087564625
000260 f5 12 7c 3e ac bb 79 bd 72 36 24 be 66 05 0b 3e
       0.24616607 -0.060969993 -0.16036394 0.13576278
000270 95 77 a8 bd ee 96 cf bb 53 80 5c bd bf f9 02 bd
       -0.082259335 -0.006335131 -0.053833317 -0.031976458
000280 07 0e e9 3d 7b 09 05 bd 1d 15 05 bd 5a a3 cf 3d
       0.11379629 -0.032479744 -0.03249084 0.10138579
000290 98 de 21 bd 90 dd 1a 3e 27 63 26 3e 22 bb 08 bd
       -0.039518923 0.15123582 0.16248761 -0.03338159
0002a0 72 69 d6 bd 1e f8 6d bd e7 89 cc 3d d1 ec d4 3c
       -0.10469331 -0.05809795 0.0998724 0.02599183
0002b0 1c 14 96 3e 72 58 43 be 09 1e 80 be 41 0e 79 3c
       0.29312217 -0.19076708 -0.25022915 0.015201152
0002c0 cc bb 1e be c2 9d 25 3e b5 f6 0f 3c a3 65 25 bd
       -0.15501326 0.16173461 0.008786847 -0.04038013
0002d0 42 3b 4c 3e a2 d5 2f be a4 8c d6 bc 7a 52 2b 3e
       0.1994448 -0.17171338 -0.02619011 0.16730681
0002e0 84 a2 10 be 1b d2 8b 3c 68 80 f5 3d 65 96 ad 3d
       -0.14124495 0.01706796 0.11987382 0.08475951
0002f0 73 6b 0b 3e b0 1c a2 be a3 50 0f bd bb 0e 5d 3e
       0.13615207 -0.31662512 -0.03498901 0.2158765
000300 ad 0b 74 bd a4 be 81 3d f8 95 d2 bd 7d da e5 3d
       -0.059581447 0.0633519 -0.102825105 0.11223314
000310 6d ac eb bc 55 54 01 bd 94 86 b3 3c 0c e0 cf 3d
       -0.028768742 -0.031574566 0.021914758 0.101501554
000320 86 49 12 3e 58 ef 30 be 0d 70 15 bd 8c 38 d8 3d
       0.1428586 -0.17278802 -0.036483813 0.105576605
000330 0f 84 7a bd eb 9a 20 3e d2 ef f8 bd 89 17 ae 3d
       -0.061161097 0.15684097 -0.12155117 0.08500583
000340 f0 43 dd 3d b9 44 23 be b4 46 2c be 86 3f 2e bd
       0.10803974 -0.15944184 -0.16823846 -0.04254105
000350 5f a4 b4 be 9f da 48 3e 96 d7 20 3d b0 22 8c bc
       -0.35281655 0.19614647 0.0392681 -0.017106384
000360 23 10 90 3d da 1b 78 be 57 98 a6 3d 15 dd c1 3d
       0.07034328 -0.24229375 0.08134525 0.09465996
000370 05 db 23 bd 23 b3 77 3d 37 8b 58 3d 50 d9 e2 b9
       -0.040003795 0.060473572 0.05286714 -0.0004326799
000380 8e c0 fe 3c f9 72 91 bd a5 ad 4b 3c cc 58 30 3c
       0.031097677 -0.071020074 0.012431537 0.010763358
000390 9c a3 14 be ba 38 96 3c 5b f8 43 bd ca f8 a8 bd
       -0.14515537 0.018337596 -0.047844272 -0.08250578
0003a0 01 90 34 3c b7 85 fd bb d5 1f 92 bb 03 81 cb 3d
       0.011020661 -0.0077368873 -0.004459361 0.099367164
0003b0 95 2b 8a bd 7d 6d b1 bd 81 d3 cf bc 89 60 07 3d
       -0.06746594 -0.08663461 -0.025369408 0.033051047
0003c0 1a c0 df bd 71 6c 67 bc 20 ca 43 be 7a 7e 1c be
       -0.10925312 -0.014124976 -0.19120073 -0.15282622
0003d0 2e d9 03 be 67 15 5a 3b 4f ce fe bd 02 7f 36 3e
       -0.12875816 0.0033276917 -0.12441694 0.17821887
0003e0 9a df d0 bd 1b 9b 02 be d2 88 17 3e 35 d9 90 3d
       -0.101988986 -0.1275448 0.14798287 0.07072679
0003f0 33 4a 34 be ee 27 21 bd 4f b2 be 3c 47 76 88 bd
       -0.1760643 -0.03934472 0.023278384 -0.066631846

network_body._body_endoder.seq_layers.0.bias f4 [128]
000000 3d 4e 75 3c f7 b6 88 bd 71 0f e1 3b 19 16 13 3d
       0.014972267 -0.06675523 0.006868296 0.035909746
000010 72 6d 3e bb 8c d5 f7 3c dd 83 c4 3c 82 76 99 3c
       -0.0029056934 0.030253194 0.023988659 0.018733267
000020 30 68 1c bc 4a d4 1b bd 1e 22 84 3c 30 08 ec ba
       -0.009546325 -0.03804425 0.01612955 -0.0018007811
000030 02 56 a9 bc 25 25 8e bd 4e d4 31 bc 71 aa 08 bd
       -0.020670895 -0.069406785 -0.01085384 -0.03336567
000040 2d 29 2b bc c7 67 4a bd af 0e a3 3c 8d 00 be 3c
       -0.010446829 -0.049415376 0.019904463 0.023193622
000050 5b a3 88 bc 40 24 48 bd 8d d2 12 3d ec cd 8b 3a
       -0.016679456 -0.048862696 0.035845328 0.0010666228
000060 9c 02 e0 39 09 43 6c 3b ca f7 72 3c 0d b9 81 bc
       0.00042726554 0.0036050698 0.014829585 -0.01583531
000070 ea fd 6e 3c d2 82 67 bc e4 d5 cd 3b cd fc 1f bd
       0.014586905 -0.014130311 0.0062816013 -0.03905945
000080 88 30 04 bc 15 c9 17 bc 3b 7d 12 3d 54 eb dc 3c
       -0.008068211 -0.00926425 0.03576396 0.026967682
000090 8f 23 f2 3c a2 d7 de bb bc 8a e1 bc 37 5a af bb
       0.029557971 -0.006800608 -0.027531974 -0.0053513306
0000a0 43 6d f0 3c b2 3b 45 3c 4c 28 bf 3c 2b 70 00 3d
       0.029348975 0.012038158 0.023334645 0.03135697
0000b0 8c 46 2e 3b f4 c3 26 bc 9b bb b6 bc ae f1 6b bb
       0.0026592342 -0.010178555 -0.022306254 -0.0036002207
0000c0 dc 8f 99 3a 07 ab 2e bd a6 75 4d bb 48 c7 04 3d
       0.0011715847 -0.042643573 -0.0031350642 0.032416612
0000d0 70 33 c6 bb 9f 48 bc bb 4f 34 d0 bb 64 85 98 bc
       -0.0060486123 -0.005745962 -0.006353892 -0.018618293
0000e0 95 81 22 3d 7c a5 72 bd e4 c6 89 bb 48 f7 32 3d
       0.03967436 -0.05923985 -0.004204618 0.043692857
0000f0 2e f7 71 3c 2a 1d 2a bd 7d 3c 6d ba 74 10 4b bc
       0.014768405 -0.04153172 -0.0009049846 -0.012394059
000100 e9 49 c9 3c 3a 18 ab 3c f8 ea 35 3c b6 e8 16 bb
       0.024571376 0.020885576 0.011103384 -0.002302689
000110 c3 ba b5 bc 14 77 45 3d ca f4 6d bd 0c 0e 94 3c
       -0.022183781 0.048209265 -0.058094777 0.018073104
000120 fd 86 ba 3c c5 9f c3 bb 60 27 14 3d c7 f5 9e 3c
       0.022769446 -0.0059699737 0.036170363 0.019404305
000130 81 91 a5 b9 d6 66 1d 3a ed de b6 3c 01 d8 04 3d
       -0.0003157966 0.00060043985 0.022323096 0.03243256
000140 eb 29 77 3b 03 ff 0f 3d 05 87 cb 3b 3c 78 4e 3c
       0.0037714194 0.035155308 0.006211164 0.012601908
000150 33 b0 3b 3d 8d d4 42 3d 23 8e e5 bc 1f 62 58 bd
       0.045822334 0.047565985 -0.028021878 -0.05282795
000160 bc 37 59 bc 0f 93 22 bd 03 a8 ee 3c d3 1d 88 bd
       -0.013257917 -0.039691027 0.029132849 -0.066463135
000170 1e f1 1c bd cb d1 8b bc 34 14 1d 3d 12 f6 fb 3c
       -0.038315885 -0.01706781 0.038349345 0.030756984
000180 17 a6 91 3c 24 f6 ca bc eb fe a9 3c f5 d9 f0 3c
       0.017779393 -0.024775572 0.020751437 0.029400805
000190 84 91 92 3b d7 e7 d8 3c 9c 30 1f 3c 6e ec aa 3c
       0.004472913 0.026477737 0.009716179 0.020864692
0001a0 de bc d1 3c 20 d1 d4 3c cd 8b aa bc 97 fb bd bc
       0.025602754 0.025978625 -0.020818615 -0.023191256
0001b0 90 60 df ba e0 fd f0 3c 1e c0 38 3c 6c 8b 83 3c
       -0.0017042328 0.029417932 0.011276273 0.016057692
0001c0 6e 05 9d 3b b3 44 b6 bc 6e 91 56 3d 2f cd e3 bc
       0.004791907 -0.022249555 0.052384786 -0.0278078
0001d0 f9 d6 c0 bb b3 88 10 3d ba 46 87 bc d8 d7 38 3d
       -0.0058850017 0.035286617 -0.016513217 0.04512772
0001e0 83 4c ed 3c e4 8c b6 3b 36 52 db 3b 64 12 b8 3c
       0.028967148 0.0055709947 0.00669315 0.022469707
0001f0 6a f0 66 bb c8 8d 91 3c 8a 1b 8c 3b 61 1f 0b 3c
       -0.0035238513 0.017767802 0.004275744 0.008491368

network_body._body_endoder.seq_layers.2.weight f4 [128, 128]
000000 dd c9 3c be 03 ca 3d 3c 44 33 61 3d a3 2d 83 3e
       -0.1843638 0.011583808 0.05498053 0.25620756
000010 ff ec 51 3c a8 30 b9 3a ef 7d f4 bc 51 4e 93 3c
       0.012812852 0.001412888 -0.029845206 0.01798168
000020 b2 f0 64 3e 23 ae d2 3c e0 7c d8 bc e8 e7 13 3c
       0.22357443 0.0257178 -0.026426733 0.009027459
000030 11 ed 1e be ee d2 9e 3d d5 bc 79 bd bf 43 07 3e
       -0.15520121 0.077550754 -0.0609711 0.13209437
000040 28 e3 8a 3d 1d e5 78 be ae 44 bd bd fc 00 e5 bd
       0.06781608 -0.2430615 -0.09241615 -0.111818284
000050 10 e2 b1 bd 2d 98 cf bd b8 db 12 3e d4 07 40 be
       -0.08685696 -0.10136447 0.14341629 -0.18752986
000060 75 d1 ad 3c 18 5d 7b bc 0e c1 39 3e d3 03 e9 bd
       0.021218041 -0.0153420195 0.18140051 -0.113776825
000070 f9 ce a3 bd fc 4d 08 be f0 c3 94 bd dd 85 6b bc
       -0.07998461 -0.13310999 -0.072639346 -0.014375177
000080 59 9d 42 bd 19 d7 a2 3d 6e c0 f9 bc d7 04 da bc
       -0.04751334 0.07951183 -0.030487265 -0.026613636
000090 51 0c 09 3d 8a 8e e3 bd 40 ad 3e be a0 ce 0e 3e
       0.03345901 -0.111111715 -0.18620777 0.13946009
0000a0 e1 cf a6 bd 4e 7c 38 be 41 64 17 be 1b 9c 69 bd
       -0.081451185 -0.18016168 -0.14784338 -0.05703364
0000b0 87 91 22 3d 66 c4 80 3e b0 97 29 be 83 a0 bf 3d
       0.039689567 0.2514984 -0.1656177 0.09356787
0000c0 66 66 05 3e 0b c3 f5 3d ce d8 57 3d d9 70 92 3d
       0.13027343 0.12000092 0.052696995 0.0715043
0000d0 49 b9 17 bb bc 00 7d bd 78 62 e1 bd b1 43 cd 3c
       -0.002315121 -0.06176828 -0.110051095 0.025056692
0000e0 a4 42 a5 bc 78 44 36 be b2 1b f0 3b e1 ac 8d 3c
       -0.020173378 -0.17799556 0.0073275203 0.01729435
0000f0 cb c5 82 3d 93 b9 43 bd b4 6d cd bd 58 c5 a0 3c
       0.06385382 -0.0477844 -0.1003069 0.01962535
000100 e3 b1 a4 3d 32 bb a0 bc 97 49 12 3e 12 a9 97 3a
       0.08041742 -0.019620512 0.14285885 0.0011570773
000110 5c c4 dd 3d 31 97 9c 3d 34 ff 2d be 62 ee 41 bd
       0.10828468 0.07646025 -0.16991884 -0.04734648
000120 69 85 06 3e 90 4c 2d 3d c7 aa c1 3d b5 f5 e2 3d
       0.1313683 0.042309344 0.09456401 0.11082021
000130 84 fc 67 bd a6 0b b6 bd 58 85 d4 bc bb 38 1c 3e
       -0.056637302 -0.088889405 -0.02594249 0.15256016
000140 d2 9c 26 3e ef 88 0d be 54 4b bb 3d 1b 55 e0 3c
       0.1627076 -0.13821767 0.09145227 0.027384331
000150 a9 bc 3e 3d e7 84 d1 bc 3f b4 d5 bd e5 4c 9c 3d
       0.04656664 -0.025576068 -0.1043477 0.07631854
000160 eb 9a e8 bd 06 84 22 be cd 5d 06 3d 27 ca 08 3e
       -0.11357673 -0.15870675 0.0328043 0.13358365
000170 f6 89 e0 bd fd 51 5c 3c 1d 5b e7 bc e2 cf 01 3e
       -0.10963814 0.013447282 -0.028241688 0.12676957
000180 4a 2a ae bc e5 ab 79 3e 9d 6c 07 bd 11 30 4c 3e
       -0.0212604 0.24381979 -0.033062566 0.19940211
000190 08 5d d9 bd 13 17 0a 3e 19 64 46 3d 9a 62 75 bc
       -0.106134474 0.13485365 0.048435304 -0.014977122
0001a0 58 9d 72 3c 5d 4e ca bb 14 1d 81 bd 2c 87 2f 3e
       0.0148080215 -0.0061738924 -0.06304374 0.17141408
0001b0 88 3f c9 bd d9 75 47 3d 42 c3 38 be aa 1a 54 3d
       -0.09826571 0.048696373 -0.18043235 0.05178324
0001c0 8d 78 47 3d cd 16 ae 3d 7b d3 2e bd 97 00 84 be
       0.04869895 0.08500443 -0.042682152 -0.257817
0001d0 ba fc 9f 3d ad d2 05 be bc d1 e8 bd e0 bf 65 3d
       0.07811876 -0.13068648 -0.11368129 0.05609119
0001e0 3e 71 64 3b 59 76 c4 bd af 4b a0 3b cf 91 ae 3d
       0.0034857537 -0.095928855 0.0048918347 0.085239045
0001f0 98 bb f4 bb a5 d6 2a bd 17 7c 0c 3d 0e 48 1f bd
       -0.007468652 -0.041708607 0.03429803 -0.038887076
000200 ba 5e 06 3e 8b 3a a9 bd 62 a4 1d 3e 52 55 d2 bc
       0.13122073 -0.08263119 0.15394738 -0.02567545
000210 af 4e 33 be 4e 7e 5c 3b ca da 06 ba ba 12 1f 3e
       -0.17510484 0.003364462 -0.00051442964 0.15534487
000220 87 8e d9 3d 10 60 01 be 2e b3 24 bd a9 80 69 be
       0.10622888 -0.12634301 -0.04020994 -0.22802986
000230 08 03 e9 3c 46 bd 56 bd ed ff 2d be de c7 a0 bd
       0.028443828 -0.0524266 -0.16992159 -0.07850622
000240 68 f2 3f be ac ab bc 3d 18 58 f2 bd 8d 97 aa 3d
       -0.18744814 0.09212431 -0.11833209 0.08329687
000250 70 d4 0d 3e e5 6a 48 bd c8 3d 00 3e e5 d2 2a 3e
       0.1385057 -0.048930068 0.12523568 0.16682012
000260 2b cb 4c 3e 9d 54 9f 3d 00 51 26 be 3b 8f 10 3d
       0.19999377 0.077798106 -0.16241837 0.035292845
000270 07 50 bc 3d db 8a f0 3d 5c bd 7e 3d 7b 82 05 bc
       0.091949515 0.117452346 0.062192306 -0.008148785
000280 58 cd 1e be c4 af 22 3c 4c c4 e2 b9 fc 72 06 be
       -0.1550802 0.009929601 -0.00043252332 -0.131298
000290 e6 9c 0a 3c bd c0 23 3b b9 dd 75 bd ff c7 20 bd
       0.008460259 0.0024986707 -0.060025904 -0.03925323
0002a0 76 28 9f bd fd 90 0d 3e 0c c2 5a 3e 56 ff 75 be
       -0.07771389 0.1382484 0.21363086 -0.24023184
0002b0 1b a1 ad bc a1 75 8b 3d 76 8c 34 be 23 ca 4b 3e
       -0.021194985 0.06809545 -0.17631707 0.19901328
0002c0 3c 07 12 be 38 17 94 be db e1 db bd 09 38 fb 3d
       -0.14260572 -0.28923965 -0.10736438 0.12266547
0002d0 39 ff 00 bd 2b 51 57 be 73 6e 0d be eb 26 66 3b
       -0.0314934 -0.21027057 -0.13811664 0.0035118412
0002e0 76 8b 58 be 08 c4 b3 3d 17 03 b9 bd fc 6f b6 3d
       -0.2114695 0.08777624 -0.090337925 0.08908078
0002f0 58 e6 aa 3d 15 05 19 3e 03 22 3a be e7 0f 34 be
       0.08344716 0.14943345 -0.18177037 -0.17584191
000300 e0 d9 8e 3d d9 73 0f 3e 2b 61 ce bd e3 9d 63 3c
       0.0697515 0.14009036 -0.10077127 0.013892624
000310 ea 11 99 3d 84 96 60 3e 07 5e 73 bc 07 8d 14 3e
       0.0747412 0.21932417 -0.014853961 0.14506923
000320 e0 20 cc 3d 32 aa e2 3d 87 cb 1b be b8 6e af bd
       0.09967208 0.110676184 -0.15214358 -0.0856604
000330 8b 94 8c 3e b9 ac 69 3e 75 20 2c 3d c5 7c 98 3d
       0.2745708 0.22819795 0.04202314 0.07445673
000340 fd a6 42 be 02 69 d2 bd 08 09 04 be 38 51 cb b8
       -0.19009013 -0.10273935 -0.1289407 -9.6949225e-05
000350 d0 e3 3c be 4a c2 62 3b 40 27 f5 bc 6e 76 f8 bd
       -0.18446279 0.0034600669 -0.029925942 -0.12131964
000360 4e c0 31 bd 00 c7 16 be 4a 3c 1e 3e 35 b2 a2 3d
       -0.043396287 -0.1472435 0.15452686 0.079441465
000370 8f 5e 7a 3d 2f 05 42 be cb ef b9 3d 11 a7 99 bd
       0.061125334 -0.1894729 0.0907894 -0.075025685
000380 f0 5a 50 be 6a 40 c4 3d 34 c4 36 3e 8a 55 8c be
       -0.2034719 0.095825985 0.17848283 -0.2740901
000390 33 e7 5c be ea 6c 1a 3e d5 aa 97 bc 26 99 64 be
       -0.2157257 0.1508061 -0.018514076 -0.22324046
0003a0 41 08 09 3e a3 f4 50 3e eb 4b ac 3d 82 79 33 3d
       0.13382055 0.20405822 0.08412918 0.04381705
0003b0 e7 45 db bd fb 10 98 bd 02 b1 04 bd e6 db 7f be
       -0.10706692 -0.07425114 -0.03239537 -0.24986228
0003c0 16 a7 42 3e 6a 1a c2 bd da 1f 52 bd 9a dc c4 bd
       0.1900905 -0.09477694 -0.051299907 -0.09612389
0003d0 2e 33 a1 bd 2b be a7 bd cb a0 22 3e 56 9a 57 bd
       -0.0787109 -0.081905685 0.1588165 -0.05263742
0003e0 07 62 96 be 8e 44 dd bd 92 3f b1 bd 63 19 aa bd
       -0.29371664 -0.108040914 -0.08654703 -0.083056234
0003f0 2f 65 cf bd f2 b1 e2 3c 81 f8 c4 3d c8 b2 47 3e
       -0.10126721 0.027672742 0.09617711 0.19501793

network_body._body_endoder.seq_layers.2.bias f4 [128]
000000 e1 ae 17 3c e2 37 b6 3d 16 c6 a4 bd 91 d3 19 3d
       0.009258003 0.088973776 -0.080455944 0.03755528
000010 49 13 cc bc 47 3c 0b bc 7a 3e 54 bd cf 77 4a bd
       -0.02491154 -0.008498258 -0.051817395 -0.049430665
000020 a0 f0 92 3d 71 23 1f 3d 9e e5 3b bb ba 4c 41 3d
       0.07174802 0.03885216 -0.0028670798 0.047192313
000030 7d 5f 33 bc a0 05 ec 3c 0f 6e 33 bd e7 c6 78 ba
       -0.010948059 0.028811276 -0.043806132 -0.0009490088
000040 a6 67 d7 3c 7d f4 e3 3a 58 2c 66 bd 49 dc 71 3d
       0.02629454 0.0017391589 -0.056194633 0.05904797
000050 cc 2e e4 bd 0a 3b ff 3c e9 f3 f4 3c 4f 01 18 bd
       -0.11141738 0.031156082 0.029901462 -0.037110623
000060 64 c8 38 3d 55 33 4d bd ad de 53 3d d6 4d 0c bc
       0.045112982 -0.050097782 0.051726032 -0.008563479
000070 c9 cc e9 bc a4 52 26 bd ca 26 9c bd be 1c 95 bc
       -0.028540032 -0.040606156 -0.07624586 -0.018202182
000080 37 8c ef 3c 00 af 14 3d 07 56 0c bd 94 9d 2d 3c
       0.029241664 0.036299706 -0.03426173 0.010596652
000090 60 96 77 bc 51 78 24 bd 84 bc 3d 3c b9 16 ba bb
       -0.015111536 -0.040153805 0.01158059 -0.0056789783
0000a0 83 de 03 3d 82 11 74 3c 01 2e e8 bc 5e 47 6e 3d
       0.032194626 0.014896752 -0.028342249 0.05817353
0000b0 9a fc 68 bc cb 83 0a 3d d1 5e c3 bd 5d ce 27 bd
       -0.014220381 0.033817094 -0.09539569 -0.040968288
0000c0 11 a2 0b 3d d5 3f e5 3c 6a bc 0a bd b7 86 5b 3b
       0.034090105 0.027984539 -0.033871092 0.0033497044
0000d0 fb 36 19 3d e0 b2 2e 3d 5e 17 8a bb 83 52 07 3d
       0.03740595 0.042651057 -0.0042142114 0.033037674
0000e0 a1 ba 46 bd c0 9a 6c 3c 4c 4a d5 3c 1b fe a1 bc
       -0.048517827 0.014441192 0.026036404 -0.019774487
0000f0 fa 63 a6 3d 0d 9e 9a 3c e7 4e 72 bd bf 6c 55 3d
       0.08124538 0.018874193 -0.05915728 0.05210566
000100 64 ea 5b 3d 8d a1 7b 3d fe 49 54 bd 17 62 15 3c
       0.05369033 0.061433364 -0.051828377 0.009117625
000110 83 e4 c1 3d 7c d2 8a bd e4 8c c5 bd ca 87 56 3d
       0.09467413 -0.06778428 -0.096460134 0.052375592
000120 75 e5 a3 bc 3b 02 0f 3d 4a 22 4e 38 21 65 4f bd
       -0.020006875 0.034914237 4.914616e-05 -0.050633553
000130 fc 5d 63 bd 1f d9 0b 3d 34 83 89 bd 40 4a 0f 3d
       -0.055509552 0.03414261 -0.06714478 0.03498292
000140 c5 cb c0 bb 9a ff 63 bd 5b 92 26 bd e0 0b b5 bd
       -0.005883666 -0.055663683 -0.04066692 -0.088401556
000150 ef 16 2d bd 87 fb 2a bd 2d 36 67 3d f2 44 40 3c
       -0.0422582 -0.04174378 0.05644815 0.011735188
000160 22 b2 7a bc 8e 18 a1 3d 48 cd 50 3d 67 bc 2e 3c
       -0.015301259 0.078660116 0.05097702 0.010665036
000170 41 5a 67 bc c6 06 86 ba 26 cc 2a 3c 92 d9 c0 bc
       -0.014120639 -0.0010225407 0.010424649 -0.023541246
000180 10 36 4c bc b2 60 5f bd de 8c bc bc 1f ed d3 3b
       -0.012464061 -0.054535575 -0.02301639 0.006467476
000190 b6 5d 5d bd 2e c6 0a 3d b3 04 73 3c 36 4b 28 3d
       -0.054044448 0.033880405 0.014832663 0.04108735
0001a0 f8 ae cf bb b2 06 e8 bb 34 e6 2d bd d8 63 42 bd
       -0.0063379966 -0.0070808763 -0.042455867 -0.0474585
0001b0 42 7d 5e 3c 6f d5 a0 bd b6 d9 bf bc 17 67 67 bd
       0.0135796685 -0.07853209 -0.023419242 -0.0564948
0001c0 c0 d6 33 3d 79 a5 84 bc f6 a3 d2 3c 86 cf f7 bc
       0.043905973 -0.016192185 0.025712948 -0.030250322
0001d0 96 17 15 3d 00 2c a4 bd 07 1c df 3b d2 21 56 3c
       0.036399446 -0.08016205 0.006808761 0.013069587
0001e0 49 4a 40 3a e0 a2 bd 3d f0 b4 88 bd e8 15 6b 3d
       0.0007335288 0.092595816 -0.06675136 0.05739394
0001f0 a4 e5 44 3c ba 0d 9c bd a8 58 f8 3b a0 82 c2 3c
       0.012017641 -0.07619806 0.007578928 0.023743927

action_model._discrete_distribution.branches.0.weight f4 [3, 128]
000000 75 07 87 3c 0e 52 25 bc a7 3e 81 3d e5 c0 1f bd
       0.016483048 -0.010090364 0.06310778 -0.039002318
000010 56 fd 11 3b 84 6c e5 3c fb b3 96 3d 77 34 80 3b
       0.0022276244 0.028005846 0.07358547 0.0039125043
000020 c5 c3 b0 bd 52 e8 88 bd f6 b8 06 bc 23 99 9a bd
       -0.0863109 -0.066849366 -0.008222809 -0.0754874
000030 91 fc ee 3d c5 51 e6 3c 35 3d b0 3d 80 04 6b bd
       0.11669267 0.028115163 0.08605424 -0.05737734
000040 da ac ef bc 29 99 30 bb 34 81 ad 3d d2 ec 4c bd
       -0.029257227 -0.002694676 0.08471909 -0.050030537
000050 16 34 ce 3d 4b e9 72 bd c4 fe f4 3b 03 43 ce 3d
       0.10068528 -0.059304517 0.0074766595 0.10071375
000060 f4 f3 46 bd 76 55 d8 3d e4 31 43 bd 4f 3a 0a 3e
       -0.048572496 0.105631754 -0.047655 0.13498805
000070 f5 50 e0 3c e2 61 ae 3d 74 d8 82 3d ae 00 ba 3d
       0.027382353 0.085147634 0.063889414 0.09082161
000080 46 02 e7 ba a6 cc 0b bd e3 76 b7 3d ad d5 ae bc
       -0.0017624579 -0.034130715 0.08958223 -0.021342123
000090 ce 39 bb 3d 82 0e c1 bc 95 e9 90 3c a1 8b 1d bd
       0.09141885 -0.023566488 0.017689506 -0.03846324
0000a0 0b d2 f2 3c 75 fb 6d 3b 22 92 b9 3b 52 3d 64 bd
       0.029641172 0.003631321 0.0056631723 -0.055722542
0000b0 ee 89 31 3d aa ab 81 bd 91 b0 af 3d 7e 5a de 3d
       0.04334443 -0.063315704 0.08578599 0.10857104
0000c0 03 29 29 3b ff 97 b9 bc 6e a8 78 3d ac 87 40 bd
       0.0025811798 -0.022655485 0.060707502 -0.047004387
0000d0 c2 c5 32 bd a7 19 3c bd 5c e8 2e 3d ce d1 1d bd
       -0.043645628 -0.0459229 0.042702064 -0.038530163
0000e0 82 31 9f 3d 4f 91 a9 bc 71 36 00 bc b2 38 8b 3d
       0.07773115 -0.020699171 -0.00782548 0.06797923
0000f0 d9 06 b9 bc e0 c6 75 3d 59 b4 d6 3d 9f ea 94 bc
       -0.022586273 0.060004115 0.10483617 -0.018178282
000100 ed 04 6e bd f8 17 06 bd b0 62 1a 3d 33 81 3b bd
       -0.058110166 -0.032737702 0.037691772 -0.04577751
000110 17 2d b7 bd 2a 83 a7 3d df 2f 97 3d 0d 62 21 bd
       -0.08944147 0.081793144 0.073821776 -0.03940015
000120 e9 78 17 bd e7 f7 b1 3c c7 5a 34 3d 03 14 b2 3c
       -0.036980543 0.021724654 0.044031885 0.021738058
000130 c8 9e c6 3d 92 4a 84 3d 3a 31 92 3d 3a 89 c3 bc
       0.09698254 0.06459536 0.071382955 -0.023869146
000140 c0 f9 ac 3c a5 04 c7 3d fb 2e 11 3e 04 5c 90 3d
       0.021115184 0.09717683 0.14178078 0.070488006
000150 9a cf 92 3c 34 09 37 3d 61 1c fa bd 94 c3 43 3d
       0.017921258 0.04468651 -0.12212444 0.04779394
000160 fc 6e 92 3d 75 30 4b bc 20 b7 cb bd 5e 5c d2 3c
       0.07150075 -0.01240169 -0.09947038 0.02567881
000170 7d ef 7d 3d b7 db e4 bc f8 eb 18 3d d7 6d ad bc
       0.061995972 -0.0279368 0.037334412 -0.02117054
000180 4b d3 02 3e c2 5a b7 3d a9 d4 1a 3d 87 76 a8 bd
       0.12775914 0.089528576 0.037800465 -0.08225732
000190 ea 6f 94 3d 88 11 95 bc 6b 72 21 bb b4 97 40 bd
       0.072479084 -0.018196836 -0.0024634849 -0.047019675
0001a0 36 54 2a 3c fc 4d dd 3c 5a 50 19 3d e0 d2 e5 3c
       0.010396054 0.027014725 0.037430145 0.028054655
0001b0 45 e7 1c 3c c6 44 05 3e 44 e4 36 bc 80 cc b7 3d
       0.009576623 0.13014516 -0.011162821 0.08974552
0001c0 6b 26 a8 bd c1 35 c3 3d f6 7b 03 bb 48 82 a7 bd
       -0.08210453 0.09531737 -0.00200629 -0.08179146
0001d0 f4 15 be bc 15 c4 75 bb 66 fd d5 bc df 4b 1d 3c
       -0.023203827 -0.0037500907 -0.026121806 0.009600609
0001e0 2d ce 11 bd 8e 20 bd bd b1 a8 09 3d ee 72 cb bc
       -0.035597015 -0.09234725 0.033608142 -0.024835076
0001f0 12 18 82 bc b0 b6 0f 3e df 21 d3 bc 01 c3 9e bc
       -0.015880618 0.14034534 -0.025772987 -0.019380094
000200 c9 24 46 3d 94 28 87 3d 1e 6c f5 bd 6d c7 7a 3d
       0.048374925 0.065995365 -0.11983512 0.061225343
000210 c8 81 15 3c f1 30 b0 3c cf 17 c4 bd 16 88 a5 bd
       0.009125181 0.021507712 -0.09574854 -0.08082597
000220 55 3f a0 3d 3e 4a d7 3c 47 72 32 3c 06 46 55 3d
       0.078245796 0.026280519 0.010891504 0.052068733
000230 58 62 b1 bd 8a ea 48 3d cf 71 9f bd 20 c3 32 3d
       -0.08661336 0.0490518 -0.07785379 0.043643117
000240 43 e4 aa 3d 1e 4b 1b bd 2a ac a3 bd 29 1d aa 3d
       0.08344319 -0.037913434 -0.07991822 0.08306343
000250 2b f2 ac bd fd 07 2e 3b d0 bd 3e 3d 71 8e 08 be
       -0.084446274 0.0026555054 0.046567738 -0.13335587
000260 74 55 2a 3d 22 42 eb bd 99 40 a4 3d fe 86 18 be
       0.0415854 -0.11487223 0.080201335 -0.14895245
000270 21 b2 27 3d 96 ea f8 bd 3d c9 b2 bd 0a da e5 bd
       0.04094136 -0.12154119 -0.087297894 -0.11223228
000280 ba fb 57 3d 77 08 1c 3c 1b a8 52 bc 08 fa b3 3d
       0.0527303 0.009523503 -0.012857462 0.08787924
000290 3a ce f6 bd dc 63 77 bc f6 c0 9e 3c 14 73 a2 3d
       -0.12051053 -0.015099492 0.01937912 0.07932106
0002a0 3c 0d 17 3d 49 75 3f 3c 5a 74 9f bb 83 3f c9 3d
       0.036877856 0.011685678 -0.004866165 0.09826567
0002b0 bf 25 ff 3c 0f 18 bb 3d a2 26 f1 bd a3 bf 07 be
       0.031145928 0.09135448 -0.11774947 -0.13256697
0002c0 cf cd 27 3c cc 77 81 3a 8b c6 a5 bd bc c2 ab bc
       0.01024194 0.0009877621 -0.0809451 -0.02096688
0002d0 70 f6 8f 3d 3d 72 04 3d 87 12 ef 3c 9b 0b b0 3d
       0.07029426 0.03233551 0.02918364 0.085959636
0002e0 3d 15 d0 bd b3 1e 4b 3d 93 d2 b1 bb f0 cc 84 bd
       -0.10160301 0.049589824 -0.0054267137 -0.06484401
0002f0 67 4b 81 3d 8f 61 13 bc 92 47 0d be 8b c8 f2 3c
       0.0631321 -0.008995428 -0.13796833 0.029636642
000300 b0 86 a2 3d 52 d6 94 3d e6 c7 f2 bd 8d d3 1e 3c
       0.07935846 0.07267441 -0.11854534 0.009693992
000310 b4 36 cd 3d 9e 4b e9 bd fc e9 9a bd d5 9c 75 3d
       0.100201994 -0.11391376 -0.0756416 0.05996402
000320 b4 fd 92 3c d2 5a 0c 3d 89 5b 32 3d c7 fa 59 bd
       0.01794324 0.0342663 0.043544326 -0.053217676
000330 6c 52 df bd f9 b0 63 bd 67 42 f3 bd d0 50 73 bc
       -0.109043926 -0.055588696 -0.118778996 -0.01485081
000340 2a 50 74 b9 56 26 e4 bd 29 d8 02 be 0a 35 9a bd
       -0.00023299517 -0.111401245 -0.12777771 -0.07529648
000350 73 4f ce bc 41 a8 e2 bd 8a 65 da 3d 72 83 9b 3b
       -0.025184369 -0.11067248 0.10663898 0.004745894
000360 22 d2 a2 bd f0 c4 b5 3d d5 89 87 3d 89 f9 e1 3c
       -0.07950236 0.088754535 0.06618086 0.027584808
000370 00 ef c3 bd 0e b9 d9 3c 46 e4 15 3d 7f 73 da 3b
       -0.0956707 0.026577499 0.03659465 0.0066666002
000380 0c 48 15 be 7e 5f af bd a2 96 0b bd 6b 3f 5a 3d
       -0.14578265 -0.085631356 -0.0340792 0.053283136
000390 b7 79 e0 bd 7c b7 9e 3d da 95 89 3d df 45 60 3d
       -0.10960715 0.077498406 0.06718035 0.054754134
0003a0 53 ff 83 3c 65 ff 99 39 b4 00 31 bd bf 24 a3 bd
       0.016112959 0.00029372718 -0.04321356 -0.07965993
0003b0 17 ef f3 3c 7d 02 8c bd 14 f7 6a bd 27 7c 87 bd
       0.029777093 -0.06836412 -0.05736454 -0.06615477
0003c0 4a 02 b6 3d 26 31 db bd 69 47 00 3d 73 b9 93 3c
       0.08887155 -0.10702734 0.031318102 0.018032765
0003d0 af 2d 7e 3d c6 7f 83 bd a7 03 98 3d 04 cd 87 3d
       0.062055286 -0.06420855 0.07422572 0.066309005
0003e0 b8 8a ba 3c 8c ae fb 3d 9b ef 92 bd eb 68 8c 3d
       0.022771224 0.122891515 -0.07174607 0.06855949
0003f0 40 f5 1d 3d 44 fc c7 bd 6e 14 e6 3c 0f 8d 3d 3d
       0.038563967 -0.09764913 0.028085914 0.046277102

action_model._discrete_distribution.branches.0.bias f4 [3]
000000 47 44 d8 bd 50 ca ff 3d c3 ae 63 bd
       -0.10559898 0.1248976 -0.055586588

action_model._discrete_distribution.branches.1.weight f4 [3, 128]
000000 06 64 49 bb d8 d9 d0 3c 5d 75 a2 bc aa 2d a8 bc
       -0.0030729785 0.025494501 -0.019831354 -0.020529587
000010 7b da fa bd 8e ee f1 bb 5f 94 68 bc 35 40 13 bd
       -0.12248703 -0.0073831743 -0.014195531 -0.035949904
000020 37 77 bb 3d 7e 25 37 bc 23 7d 7c bd c8 cc 26 3d
       0.09153598 -0.011178372 -0.061642777 0.04072264
000030 8c 38 1d 3d a6 6f e3 bd df f7 72 bc 99 4d 07 3d
       0.038384005 -0.111052796 -0.014829605 0.033032987
000040 80 4f 2a bc f2 1d f7 3d d1 0f 39 bd bc 7c e0 3d
       -0.010394931 0.120662585 -0.0451811 0.10961291
000050 0d 14 e2 bc 34 36 96 bc 75 2e cc 3c e9 c0 96 bc
       -0.027597452 -0.018336393 0.024924496 -0.018402534
000060 49 80 59 3d 7e fc a1 bb 67 ed 1c bd 9b 7a e1 bc
       0.053100858 -0.0049434295 -0.038312342 -0.027524283
000070 7c ad 18 3d 68 5f 2b bc ec 47 36 bd c2 3f 2b 3b
       0.037274823 -0.010459758 -0.044502184 0.0026130532
000080 3c 95 1b bc 90 0b 96 bc 46 81 23 bd 3d 27 03 3d
       -0.0094960295 -0.01831606 -0.039918207 0.032019842
000090 9b 18 33 bc 16 b8 07 bd c3 ce 7b bd 82 d1 47 3c
       -0.010931159 -0.033134542 -0.06147648 0.012195947
0000a0 fc 75 72 bd 3a 5f ce 3d d1 95 41 bc 91 cd f7 3c
       -0.05919455 0.10076757 -0.011815504 0.030249389
0000b0 07 c6 16 3c 3a 06 e2 3c b8 31 a4 bc 44 8b 1e bd
       0.009202487 0.02759086 -0.020043239 -0.038707033
0000c0 aa e4 08 3e 7e c3 07 3e a9 38 ff ba eb 52 c7 3d
       0.13368478 0.13258168 -0.0019471842 0.09732612
0000d0 f8 84 8a bd 4b 45 ad bc 59 c3 90 bd 60 fd 04 bd
       -0.06763643 -0.021151206 -0.070685096 -0.0324682
0000e0 a6 f9 32 bc 5d 53 f0 3c 91 3a 8f 3d e3 d5 e8 bd
       -0.010923779 0.029336626 0.069935925 -0.11368921
0000f0 4b c0 12 3d 3d 97 02 be c1 88 ff bc 3f b3 c6 ba
       0.035827916 -0.12753005 -0.031193139 -0.0015159621
000100 24 4c 15 bd ec 47 85 3b 2d 21 49 bd 14 5b df bd
       -0.036449566 0.0040674116 -0.049103905 -0.10906044
000110 bc 4c b5 3d 56 f1 e9 bb 2d 02 1e bd af d0 ef 3d
       0.088525265 -0.007139365 -0.038576294 0.11709725
000120 77 c8 c3 bd c8 84 af bd e2 80 be bc 65 ea 83 bd
       -0.0955972 -0.08570248 -0.023254815 -0.064411916
000130 70 62 d3 bc de 19 a2 3c 4a 8e 08 be 2d f2 91 bc
       -0.025803775 0.019787725 -0.13335529 -0.017815674
000140 28 ba a4 bd 9a 87 5c bd b1 9d 72 bd 87 12 67 bc
       -0.08043319 -0.053840257 -0.059232417 -0.014103538
000150 f3 af 3b 3d b4 4e 49 bd c2 52 72 3d cc 05 ce bd
       0.045822095 -0.049147323 0.059160955 -0.100596994
000160 6b 64 1f 3d 4e 89 f2 3c e5 ea 05 3d d8 72 ec bd
       0.038914125 0.029606488 0.032694716 -0.11545342
000170 e3 2e 82 3c 80 3d c4 3d 64 ba 0d bd d9 ac e4 bd
       0.015891498 0.09582043 -0.034601584 -0.111657806
000180 60 c6 b9 bc 08 6b f4 bc ac 2a e6 bd 4c 76 dd bd
       -0.0226776 -0.029836193 -0.11238608 -0.10813579
000190 23 40 ed bc 52 8c a6 3d 41 b0 24 3d 44 a8 e1 3b
       -0.028961247 0.08132233 0.04020715 0.006886514
0001a0 48 84 3d 3c 9b 66 e5 3a 51 74 67 bd 5c 18 15 bd
       0.011567183 0.0017501892 -0.056507412 -0.036400184
0001b0 96 f6 a0 bd f8 fe 80 3c 7b 0b 00 bb 17 12 2f bd
       -0.078595325 0.015746579 -0.0019538093 -0.04274186
0001c0 d6 78 c8 3c 4a a1 ac bc aa b6 c0 bd 63 88 71 bd
       0.024471682 -0.021073002 -0.094098404 -0.05896796
0001d0 a6 8a 7a 3c fe af 97 bd a9 52 b8 3d 23 0e 62 3d
       0.015291845 -0.07406615 0.09000141 0.055189263
0001e0 07 0f 1e be 98 3a c0 3b 66 be d9 bc 7f 64 8e 3d
       -0.1543542 0.00586636 -0.026580047 0.06952762
0001f0 f5 a5 2f bd 4e 40 dc bc 74 19 cc bd cd 73 bf bd
       -0.04288288 -0.026886132 -0.09965792 -0.09348259
000200 51 f8 4a 3d 4c 80 34 be 1d 8d 3e 3c 1b ae 11 be
       0.04955322 -0.17627066 0.011630324 -0.14226572
000210 7f ae f5 3d 60 a4 88 3d 35 85 19 3c bf 77 ff 3c
       0.11996173 0.06671977 0.009370138 0.03118503
000220 0e 7e b5 3c 59 c9 3e 3d a5 01 b3 bc 84 db 53 bd
       0.022154834 0.04657874 -0.02185137 -0.05172302
000230 c7 8b a5 3d c1 4f e9 3d f4 9e 24 3c 95 98 4b bd
       0.08083301 0.11392165 0.010047663 -0.04970606
000240 65 7f 1a bd ab 38 eb 3c 54 14 3e 3d e2 b5 5b bd
       -0.03771915 0.028713545 0.046406105 -0.053640254
000250 87 45 02 bc 2e 00 f0 3c 9b f5 e9 bd 40 ea ae bc
       -0.007951147 0.02929696 -0.11423799 -0.021351933
000260 35 bf 85 bd e5 f8 95 3c 5b 7d 8a 3d 75 9e 8d 3c
       -0.065306105 0.018307159 0.06762191 0.017287472
000270 b3 e1 21 bd a4 43 f3 3b 00 a9 d5 bb e2 97 87 bc
       -0.039521884 0.007423835 -0.0065203905 -0.016551916
000280 77 94 57 3d b7 ab e6 bc 74 d3 43 3d b5 94 21 bb
       0.05263182 -0.028158052 0.04780908 -0.0024655287
000290 ae 23 08 3c c5 85 bc 3b 08 97 db 3d eb 32 f5 3c
       0.008309288 0.0057532513 0.10722166 0.029931506
0002a0 58 5d 95 bd c7 30 a7 bc 0e ec 99 3b 48 46 09 3c
       -0.072931945 -0.020409001 0.0046973294 0.008378573
0002b0 91 e0 97 bd b2 b0 50 3c 7e f7 9a 3c 6c 4e f3 3c
       -0.074158795 0.01273744 0.018916842 0.02970048
0002c0 2d e6 0b bd 45 d1 d3 3b 4a ea 1e 3d d4 fc 09 be
       -0.03415506 0.006464156 0.038797654 -0.13475353
0002d0 a4 8d 18 bb fd 04 92 3d 92 a2 3f 3d 7f 3a a8 bd
       -0.0023277784 0.07129858 0.0467859 -0.08214282
0002e0 d9 58 1a 3d 40 74 61 3d b2 92 2a bd 54 4a f0 bc
       0.037682388 0.055042505 -0.041643806 -0.029332317
0002f0 65 b4 18 be ef 37 e4 3c 77 f8 ab bc 69 be 68 3d
       -0.14912565 0.027858702 -0.0209925 0.056822214
000300 3b b6 c4 bd 27 bf 9b 3d f5 27 b8 bc 77 69 fc 3d
       -0.0960507 0.07604819 -0.02247999 0.12324803
000310 25 87 56 3d c0 52 39 3c f7 3e 21 3d 70 0f 5e bc
       0.052374978 0.011311233 0.03936669 -0.013553485
000320 26 96 aa 3d 35 23 eb 3d c6 21 89 3d bc 8d dd 3c
       0.0832942 0.114813246 0.06695895 0.027045123
000330 28 ba 08 bc 7b c0 80 3d bd 0f ba bc 85 6c 93 3c
       -0.008345164 0.06286713 -0.022712583 0.017996082
000340 8a 10 11 bd e9 75 de ba 4b c5 2b 3d ef 02 92 bc
       -0.035416164 -0.0016972396 0.0419362 -0.017823664
000350 59 f9 94 bd 39 0f 97 3c 0e 49 cd 3c e3 47 cb 3c
       -0.07274122 0.018439876 0.02505925 0.024814552
000360 89 e2 d7 3c 34 e1 38 be 12 39 06 3d b0 88 ba 3c
       0.026353138 -0.18054658 0.03276927 0.022770256
000370 32 d3 f1 bc fa 66 b6 3c 48 07 aa 3c 8c 3a 00 3e
       -0.029519651 0.0222659 0.020755425 0.12522334
000380 3f 7d da 3c ac 85 9b 3b 1d a0 1c 3e 95 8c d7 bc
       0.02667105 0.0047461595 0.15295453 -0.026312152
000390 03 76 af bc 2b 87 51 bc 8d 94 56 bb 33 3d 47 3d
       -0.021418577 -0.012788574 -0.0032742352 0.04864235
0003a0 f9 77 dc bd 72 db 81 3c 29 68 96 3a 85 cf f9 bb
       -0.107650705 0.01585171 0.0011475134 -0.007623615
0003b0 c0 39 f8 3c ca 1b 3b bb e3 53 8d bc ed 7c 79 3d
       0.030300975 -0.00285505 -0.017251914 0.060910154
0003c0 e6 d9 98 3d 86 9b fd 3c fe 36 fa 3d 3d 5f 13 3d
       0.07463436 0.030957948 0.1221752 0.0359795
0003d0 bd a8 8a bd dc 96 11 3c 28 2b 6d bd 34 05 a0 bd
       -0.067704655 0.008886065 -0.057902485 -0.078134924
0003e0 e9 02 1c 3e e7 0d ee bd 95 92 a8 bc c0 eb 91 bb
       0.15235485 -0.116237454 -0.020577708 -0.0044531524
0003f0 23 f0 29 3d 44 1f bb 3c 07 98 74 3c 2d 6d e6 3d
       0.041488778 0.022842057 0.014928824 0.112512924

action_model._discrete_distribution.branches.1.bias f4 [3]
000000 71 6a b8 3c 25 01 dd bb 13 09 15 bc
       0.022511693 -0.006744521 -0.009096402
