Assets/results/T2/CarDriver/CarDriver-499984.onnx (onnx, 192065 bytes, 9 tensors)

discrete_act_size_vector f4 [1, 2]
3.0 3.0
00000000: 0000 4040 0000 4040

network_body._body_endoder.seq_layers.0.weight f4 [128, 231]
0.017253386 -0.033887587 -0.12300347 -0.16906847 0.002540829 0.07262474 -0.08384798 0.05551145
0.05133521 0.040403962 -0.036374502 -0.014880015 0.035778597 -0.048205353 -0.025518395 -0.02926302
0.06336396 -0.056823242 -0.05711595 0.043467034 0.041720707 0.042566158 0.06834938 -0.10471421
-0.077641025 0.14532985 0.02962783 0.035500623 -0.03234025 -0.042911272 -0.066033386 -0.019306308
0.09717322 -0.038002424 0.015574386 0.07059043 -0.1905234 -0.08277986 -0.055357516 0.10418324
-0.06608759 -0.071415536 0.07497876 -0.095965594 -0.07722032 0.033872005 -0.020020533 0.05235858
0.013298337 0.03763893 0.022477552 0.04951397 -0.04434332 0.060134925 0.11386744 0.054068867
-0.050969366 0.010378046 0.03430055 0.16469832 0.038141314 -0.015367626 -0.052738007 -0.037074152
-0.013533954 -5.680096e-05 0.016655458 0.045160107 -0.06987242 -0.057838272 -0.043010958 0.12520011
-0.009183186 -0.07563005 0.056538854 0.1011914 0.023274265 -0.072689176 -0.058963396 -0.055976067
0.029627427 0.030593697 -0.040998835 -0.04189445 0.0076567507 -0.0045165056 -0.10132408 0.06042233
0.14086492 -0.09151355 0.106391795 -0.016393298 -0.0014998931 0.10055529 0.08268031 0.0016651787
0.008887576 0.08808185 0.009171302 -0.08198389 0.07576033 0.01782615 0.059824128 0.0057755974
-0.054403126 -0.001092799 -0.027694067 0.014313969 -0.01470814 0.016965093 -0.0031701433 -0.059571624
-0.009058684 0.08020916 0.00800732 0.02741303 0.058020197 -0.0562114 -0.017635798 -0.1042973
0.012102534 -0.0073276996 -0.01107973 0.05707486 0.0282838 -0.14712024 -0.05770314 -0.067173265
-0.1308016 0.09120985 -0.04744719 -0.0805265 0.02644258 0.058592677 0.15804528 -0.025208374
-0.06490835 0.08756847 0.04166432 -0.03419848 -0.08647129 -0.042761568 -0.0073428093 0.04492545
-0.037235375 -0.11075333 0.01202031 0.01557052 -0.05428962 0.008981609 -0.035793867 0.005259931
0.016839836 -0.10727012 -0.03402518 0.011259134 -0.08024349 0.060027298 0.06228391 -0.032760926
-0.034360666 -0.019963754 -0.03585505 -0.11290229 0.10545209 -0.046988685 0.08377437 0.050586186
-0.04206827 0.01664615 -0.113554 -0.0075479574 -0.01476896 0.044681787 -0.037867345 -0.013712442
0.13658673 -0.05185523 0.0582458 0.07920636 -0.0947069 -0.102053516 -0.039241355 -0.03177676
-0.03340837 -0.016450267 0.13919385 -0.005737837 0.06577567 -0.0791936 0.10959388 0.026815508
-0.05125127 -0.012000852 0.029127756 -0.009921666 0.00056773913 0.0896981 -0.040787302 -0.07547026
0.021528441 0.046523944 -0.02077141 -0.088484235 0.06253405 -0.054227833 0.0941419 0.041852042
-0.0983219 -0.13631497 0.02764037 0.031002264 -0.0067841387 -0.09570487 0.07777772 -0.003368138
-0.00080049253 -0.12179404 0.07570784 0.060086727 0.0379278 0.10136091 -0.15423591 0.0010799353
-0.03354189 0.0063740243 0.024013717 0.05443669 -0.13936102 -0.07345242 -0.094558105 0.05574336
-0.026603973 0.009134158 -0.0789681 -0.06359612 0.014757316 -0.09767797 0.018121816 -0.06279128
-0.028007401 -0.0090323435 0.02614094 0.0106943175 -0.07779079 0.10685133 0.02761383 0.07795653
-0.14451611 0.14725274 0.047614392 -0.046364807 -0.0001285175 -0.04596046 -0.11671164 -0.011529056
00000000: f956 8d3c b6cd 0abd 3ee9 fbbd 4920 2dbe
00000010: 0984 263b 48bc 943d 7db8 abbd f95f 633d
00000020: df44 523d a07e 253d 6efd 14bd 4ecb 73bc
00000030: 948c 123d fa72 45bd f40b d1bc 00b9 efbc
00000040: f7c4 813d 7dbf 68bd 6af2 69bd 7d0a 323d
00000050: 55e3 2a3d da59 2e3d c2fa 8b3d 6774 d6bd
00000060: 4202 9fbd 59d1 143e 10b6 f23c 1a69 113d
00000070: 3677 04bd bbc3 2fbd 833c 87bd 4328 9ebc
00000080: c102 c73d 6ea8 1bbd b62b 7f3c b791 903d
00000090: 9118 43be 7d88 a9bd 90be 62bd 065e d53d
000000a0: ee58 87bd 4f42 92bd 778e 993d 9c89 c4bd
000000b0: b025 9ebd 5fbd 0a3d 1a02 a4bc f375 563d
000000c0: 45e1 593c 472b 1a3d d822 b83c 29cf 4a3d
000000d0: 57a1 35bd 0a50 763d 5533 e93d 5177 5d3d
000000e0: 41c5 50bd ae08 2a3c bc7e 0c3d ada6 283e
000000f0: 113a 1c3d 7fc8 7bbc cf03 58bd 11db 17bd
00000100: 84bd 5dbc 913d 6eb8 0771 883c cef9 383d
00000110: 4519 8fbd d3e7 6cbd 422c 30bd 7534 003e
00000120: 1375 16bc ede3 9abd 4995 673d 703d cf3d
00000130: aca9 be3c 10de 94bd 9a83 71bd 2947 65bd
00000140: 38b5 f23c a29f fa3c 65ee 27bd 8499 2bbd
00000150: 7be5 fa3b 32ff 93bb 0083 cfbd 687d 773d
00000160: e53e 103e 756b bbbd f1e3 d93d 3d4b 86bc
00000170: 1098 c4ba efef cd3d 4b54 a93d 2042 da3a
00000180: 329d 113c 4264 b43d 3b43 163c 2be7 a7bd
00000190: 3b28 9b3d 2508 923c 250a 753d 3941 bd3b
000001a0: d0d5 5ebd 403c 8fba abde e2bc 2385 6a3c
000001b0: 69fa 70bc 61fa 8a3c 2ec2 4fbb 6001 74bd
000001c0: e06a 14bc b344 a43d 2231 033c 4a91 e03c
000001d0: 96a6 6d3d ed3d 66bd f378 90bc d399 d5bd
000001e0: b549 463c 331d f0bb c187 35bc 54c7 693d
000001f0: 6eb3 e73c b0a6 16be 215a 6cbd 2392 89bd
00000200: dbf0 05be 3bcc ba3d fc57 42bd 14eb a4bd
00000210: 1c9e d83c e0fe 6f3d 9fd6 213e cb81 cebc
00000220: abee 84bd 1957 b33d 35a8 2a3d b513 0cbd
00000230: dc17 b1bd c126 2fbd f39b f0bb c003 383d
00000240: 1f84 18bd a4d2 e2bd d6f0 443c 7f1b 7f3c
00000250: cb5e 5ebd 9927 133c 979c 12bd 805b ac3b
00000260: b2f3 893c 70b0 dbbd fd5d 0bbd 3b78 383c
00000270: b356 a4bd 2fdf 753d 6a1d 7f3d 5230 06bd
00000280: c5bd 0cbd 078b a3bc bfdc 12bd 5139 e7bd
00000290: 44f7 d73d 3577 40bd e691 ab3d 7633 4f3d
000002a0: c74f 2cbd 825d 883c 008f e8bd db54 f7bb
000002b0: 82f9 71bc 4004 373d ca1a 1bbd 26aa 60bc
000002c0: 64dd 0b3e 2666 54bd 2693 6e3d f236 a23d
000002d0: b1f5 c1bd 6f01 d1bd 8bbb 20bd 5928 02bd
000002e0: 37d7 08bd b6c2 86bc d588 0e3e 7704 bcbb
000002f0: 65b5 863d 4130 a2bd c272 e03d 32ac db3c
00000300: daec 51bd 399f 44bc 559d ee3c 7c8e 22bc
00000310: 54d4 143a a3b3 b73d 9610 27bd 2790 9abd
00000320: 6a5c b03c e48f 3e3d ce28 aabc 3937 b5bd
00000330: da11 803d 011e 5ebd 78cd c03d 0c6d 2b3d
00000340: fe5c c9bd 2796 0bbe 0f6e e23c 76f8 fd3c
00000350: 7b4d debb ea00 c4bd ed49 9f3d fbbb 5cbb
00000360: 25d8 51ba 276f f9bd b60c 9b3d 801d 763d
00000370: 2e5a 1b3d 4f96 cf3d 05f0 1dbe 9e8c 8d3a
00000380: 3963 09bd 31dd d03b 6ab8 c43c 02f9 5e3d
00000390: a8b4 0ebe 396e 96bd aea7 c1bd 2653 643d
000003a0: 93f0 d9bc 6fa7 153c 07ba a1bd af3e 82bd
000003b0: abc8 713c 630b c8bd 3474 943c b798 80bd
000003c0: c76f e5bc 65fc 13bc 8625 d63c 3837 2f3c
000003d0: c750 9fbd dfd4 da3d 6636 e23c aca7 9f3d
000003e0: 08fc 13be 6cc9 163e 4f07 433d 06e9 3dbd
000003f0: a7c2 06b9 0941 3cbd 8306 efbd 5ee4 3cbc

network_body._body_endoder.seq_layers.0.bias f4 [128]
0.005316195 2.7400744e-12 0.0037993232 -0.0062415586 -0.002502141 0.0041022636 -0.0023466765 0.0011639846
-0.0016764478 -0.0043009915 -0.004241641 -0.0020449124 -0.003088594 3.8931285e-06 2.868935e-28 -0.00059577316
0.0 0.0031621868 0.002639623 -0.005180696 -0.00050621136 -5.6955834e-10 0.0 0.00054418674
-3.1985512e-09 -0.003995466 -0.005697368 0.004711962 0.0001481135 -0.0006519102 -2.3609124e-16 2.179012e-21
5.9961417e-07 6.072719e-27 -0.0049078153 0.0 0.0037384594 9.897029e-15 1.4084526e-22 0.0011531744
8.0884984e-13 2.3389846e-31 0.0017183563 -0.0028560278 4.1233866e-16 0.0 -0.001700669 2.0267063e-08
0.0033556167 0.0031409636 -2.3753482e-17 -0.00041001063 0.0 0.0031583824 0.0044574453 -9.246215e-12
-0.005198294 -0.0023652338 0.0023434476 0.0052907 -2.7855819e-08 -0.0041315816 -1.8658436e-10 -0.0013179994
-0.0019172574 6.3960545e-21 -0.002100566 0.0 0.0 0.0042037517 0.0 0.0041740495
0.0046712942 9.825353e-13 -1.0543406e-28 6.8383695e-34 -0.00035289963 0.0 0.00033957252 -0.0019953125
9.310377e-19 0.0042384802 0.002381075 0.004702951 0.0031812333 0.0017474064 1.5339721e-30 1.4568224e-22
-0.0012593108 0.0030551811 0.0014306026 0.0059554325 -0.0018791142 -6.5143694e-27 -0.002809632 0.00034487766
-0.001712792 -1.3023114e-05 -2.5796046e-20 0.00015338177 2.662467e-36 0.0029517042 -2.8039962e-34 0.0049003093
0.00045579224 -0.00068026426 0.0011918315 -1.7099171e-11 0.0 0.007021389 -0.0054184194 -0.0026763252
-0.0012863746 0.0038344173 0.0041088685 -0.0007077865 0.0 -0.0013438588 -0.003311426 -0.0037081405
-3.1437835e-25 -7.905881e-05 -0.0037944904 -0.0028141679 0.000122037985 0.0029499338 0.0039358614 0.004538022
00000000: 7a33 ae3b cbd0 402c 11fe 783b fd85 ccbb
00000010: f6fa 23bb 486c 863b b3ca 19bb d890 983a
00000020: 41bc dbba 55ef 8cbb 77fd 8abb f003 06bb
00000030: 026a 4abb b8a1 8236 22d7 b511 a92d 1cba
00000040: 0000 0000 b13c 4f3b 86fd 2c3b d4c2 a9bb
00000050: 45b3 04ba 1b8f 1cb0 0000 0000 c1a7 0e3a
00000060: 82cd 5bb1 66ec 82bb fdb0 babb cd66 9a3b
00000070: ea4e 1b39 f4e4 2aba eb18 88a5 39a4 241d
00000080: 2cf5 2035 b090 f013 bdd1 a0bb 0000 0000
00000090: f100 753b fe49 3228 7f45 2a1b 1d26 973a
000000a0: c6ab 632b 0ccf 970c 783a e13a 322c 3bbb
000000b0: 72b2 ed25 0000 0000 fbe8 deba be17 ae32
000000c0: e8e9 5b3b a0d8 4d3b 5316 dba3 b2f6 d6b9
000000d0: 0000 0000 ddfc 4e3b c30f 923b 40a9 22ad
000000e0: 7356 aabb 0a02 1bbb 8794 193b 9c5d ad3b
000000f0: 9847 efb2 3862 87bb d426 4daf b9c0 acba
00000100: 7c4c fbba d8a2 f11d a6a9 09bb 0000 0000
00000110: 0000 0000 a0bf 893b 0000 0000 77c6 883b
00000120: a811 993b 9147 8a2b 4fa7 0591 6a3e 6308
00000130: 6305 b9b9 0000 0000 a708 b239 cac3 02bb
00000140: 9c65 8921 f3e2 8a3b cf0b 1c3b 361b 9a3b
00000150: 3d7c 503b 3b09 e53a b5e6 f80d 781e 301b
00000160: 750f a5ba 6f39 483b 0f83 bb3a ca25 c33b
00000170: 9c4c f6ba c707 0194 ce21 38bb b2d0 b439
00000180: c37f e0ba d97d 5ab7 03a3 f39e 1bd5 2039
00000190: 667f 6204 6171 413b 865b ba87 c692 a03b
000001a0: 66f7 ee39 c353 32ba 3b37 9c3a e967 96ad
000001b0: 0000 0000 ae13 e63b ff8c b1bb 4965 2fbb
000001c0: 929b a8ba d94a 7b3b b0a3 863b bf8a 39ba
000001d0: 0000 0000 6b24 b0ba 8204 59bb 4604 73bb
000001e0: 3d97 c296 60cc a5b8 fcac 78bb e76d 38bb
000001f0: a5ee ff38 ad53 413b 66f8 803b b0b3 943b

network_body._body_endoder.seq_layers.2.weight f4 [128, 128]
-0.058817465 0.08751586 -0.00796045 -0.058397233 0.03686556 -0.08020796 0.030461071 0.0652377
-0.06680667 0.12272548 -0.014260428 0.03909371 -0.16059585 -0.10536503 -0.123292334 0.012900407
-0.19608366 0.04775596 -0.019295985 0.033840038 0.006615464 0.12770548 -0.12783228 0.16523746
0.076895155 -0.025456557 0.031667147 -0.0024875938 -0.08202438 0.16040252 -0.17787951 -0.07823609
-0.043808106 -0.022318326 0.06203187 0.049484026 0.060206167 0.061655927 0.08277444 -0.09435809
-0.078450754 0.05090481 -0.07111351 -0.006593834 0.27210444 0.14357692 -0.07603058 0.052635677
-0.056425937 -0.15808474 0.19673097 -0.039016884 -0.0055056973 -0.123811215 -0.20337269 -0.04925385
0.038306326 0.013893919 -0.20501168 -0.121688664 0.0041193883 0.007936745 -0.100530304 -0.10422843
0.02012854 0.05536202 -0.03271049 0.08492466 0.033206288 -0.010553254 0.0012387539 0.13351311
0.08966256 0.15048265 0.0009825577 -0.26428217 -0.054774486 0.04141485 0.035760004 0.004781795
-0.23262934 -0.18100959 0.099501066 0.107972026 0.12738204 0.010700317 0.025902921 -0.047608517
0.17200851 0.038863156 0.009413809 0.015419492 -0.111345105 -0.040689263 0.053922363 0.0050989925
0.058198668 -0.09525727 -0.021311305 0.06580322 0.10542047 -0.113490485 0.07170262 0.104408234
-0.069609225 -0.08462279 -0.05140156 -0.1225726 0.23566552 -0.023176607 0.013866357 0.13168775
-0.03524165 -0.29071057 0.1512877 -0.044895872 -0.041182537 -0.0086880615 -0.14732407 -0.19216044
0.28497523 0.124199204 -0.0548801 -0.051087227 0.01729908 -0.11415076 -0.08544665 0.06788385
-0.09321079 0.17570123 0.027911188 -0.044469915 0.0022810036 -0.01626496 -0.0037046396 -0.039419495
0.041589905 0.1457783 0.030860616 -0.12255049 0.08249605 0.11712234 -0.03039657 -0.0028894357
-0.074529134 -0.059386436 0.14504115 -0.08846242 -0.008207078 -0.063153096 0.049617425 0.03032175
0.060315367 0.058016337 -0.15540378 -0.023354823 0.16720551 0.0140930945 0.02269838 -0.01282738
0.08895271 -0.10242313 -0.042577624 -0.08443902 0.06531403 0.023864072 -0.06688311 -0.06773817
0.07531519 -0.09925651 -0.12678272 0.16795047 0.071675524 -0.040765733 -0.047944125 -0.11135745
0.11224636 -0.16902418 -0.045381755 -0.00317566 0.10754788 0.08180904 -0.08577309 0.055215616
0.09503547 0.0025299476 0.08709379 -0.051578183 -0.09332955 -0.068931244 -0.16855688 -0.031224007
-0.022076404 -0.05326874 -0.057878993 0.006143144 -0.061259817 0.009305051 -0.06583005 -0.22183642
0.09042202 0.003374295 0.14265421 -0.04788573 -0.009533753 -0.052466784 -0.047212593 0.061662197
-0.06084227 -0.07024542 0.057487518 0.018269446 -0.058830727 -0.034574453 0.18418899 -0.05863089
-0.1597181 -0.12770912 -0.12542519 -0.006883217 -0.071880355 0.036654025 0.19293828 -0.05025692
0.10835863 0.080907084 -0.059112407 -0.15020902 -0.1803702 -0.14305797 0.059099652 -0.00012657506
0.14889789 -0.005257382 -0.073218256 -0.12308472 -0.00368056 -0.07584223 0.03886965 0.004027264
-0.059892345 -0.077665046 0.08111393 0.05926042 0.11194247 -0.015396691 0.013946305 0.10776382
0.12474172 0.093007006 -0.01563824 0.06498851 -0.1247826 -0.10311341 -0.135497 -0.02422805
00000000: 95ea 70bd 843b b33d 8c6c 02bc f031 6fbd
00000010: 5700 173d 1244 a4bd 7f89 f93c 589b 853d
00000020: efd1 88bd 7f57 fb3d 92a4 69bc ba20 203d
00000030: 3d73 24be 9fc9 d7bd b180 fcbd 3b5c 533c
00000040: 28ca 48be c19b 433d 9d12 9ebc da9b 0a3d
00000050: 89c6 d83b 3ac5 023e 77e6 02be 0234 293e
00000060: 357b 9d3d 458a d0bc 69b5 013d e606 23bb
00000070: 66fc a7bd 8f40 243e 0c26 36be 3e3a a0bd
00000080: 2170 33bd ecd4 b6bc 2115 7e3d c3af 4a3d
00000090: be9a 763d ed8a 7c3d a585 a93d d03e c1bd
000000a0: caaa a0bd 9081 503d f6a3 91bd 1711 d8bb
000000b0: 4651 8b3e d405 133e ecb5 9bbd 8298 573d
000000c0: e21e 67bd f7e0 21be d873 493e 2bd0 1fbd
000000d0: 2369 b4bb bc90 fdbd ee40 50be 68be 49bd
000000e0: 18e7 1c3d 52a3 633c 95ee 51be e837 f9bd
000000f0: effb 863b 1f09 023c d5e2 cdbd b775 d5bd
00000100: 9ce4 a43c 49c3 623d 6ffb 05bd fbec ad3d
00000110: 5103 083d 8ee7 2cbc af5d a23a a9b7 083e
00000120: 01a1 b73d 2018 1a3e 2ac9 803a fe4f 87be
00000130: 365b 60bd 9ea2 293d 1579 123d 9bb0 9c3b
00000140: 6336 6ebe 945a 39be 37c7 cb3d 7020 dd3d
00000150: 7070 023e 6250 2f3c 5d32 d43c 2601 43bd
00000160: 0023 303e f92e 1f3d 603c 1a3c 09a2 7c3c
00000170: e708 e4bd c9a9 26bd b2dd 5c3d 7315 a73b
00000180: ba61 6e3d 3e16 c3bd 0c95 aebc d7c3 863d
00000190: b0e6 d73d b36d e8bd d3d8 923d fcd3 d53d
000001a0: 488f 8ebd b74e adbd 718a 52bd 5807 fbbd
000001b0: 4d52 713e dedc bdbc b72f 633c 27d9 063e
000001c0: 8c59 10bd 04d8 94be 2aeb 1a3e bce4 37bd
000001d0: 05af 28bd 5f58 0ebc 1fdc 16be b5c5 44be
000001e0: 46e8 913e 275c fe3d f5c9 60bd d740 51bd
000001f0: cdb6 8d3c e0c7 e9bd a7fe aebd b006 8b3d
00000200: 4ce5 bebd 06eb 333e 01a6 e43c 1626 36bd
00000210: e47c 153b 183e 85bc 8ac9 72bb 5676 21bd
00000220: 2d5a 2a3d e846 153e 67cf fc3c c0fb fabd
00000230: b0f3 a83d d6dd ef3d 3a02 f9bc b05c 3dbb
00000240: bba2 98bd 313f 73bd ab85 143e c92b b5bd
00000250: fb76 06bc 6956 81bd a43b 4b3d 5265 f83c
00000260: 3f0d 773d 8aa2 6d3d 2b22 1fbe 9d52 bfbc
00000270: ec37 2b3e b9e6 663c f4f1 b93c ee29 52bc
00000280: d72c b63d 38c3 d1bd e065 2ebd 5dee acbd
00000290: 5dc3 853d 967e c33c 03fa 88bd 4fba 8abd
000002a0: da3e 9a3d ff46 cbbd 54d3 01be 35fb 2b3e
000002b0: 9eca 923d f8f9 26bd 0f61 44bd 600f e4bd
000002c0: 6be1 e53d ad14 2dbe 38e2 39bd bc1e 50bb
000002d0: 1042 dc3d 7f8b a73d cda9 afbd c529 623d
000002e0: f5a1 c23d 7acd 253b 3b5e b23d a543 53bd
000002f0: 9023 bfbd d32b 8dbd 2d9a 2cbe 7dc9 ffbc
00000300: 93d9 b4bc 5330 5abd 8612 6dbd 6d4c c93b
00000310: 93eb 7abd 3674 183c e8d1 86bd 1629 63be
00000320: 2e2f b93d 4723 5d3b f213 123e d423 44bd
00000330: 7533 1cbc 69e7 56bd fe61 41bd 8091 7c3d
00000340: be35 79bd d5dc 8fbd 0878 6b3d cea9 953c
00000350: 7df8 70bd f19d 0dbd 0a9c 3c3e f226 70bd
00000360: 248d 23be 2ec6 02be 766f 00be 9c8c e1bb
00000370: 0236 93bd 8822 163d 9d91 453e 33da 4dbd
00000380: 21eb dd3d 9db2 a53d da1f 72bd 65d0 19be
00000390: f7b2 38be ca7d 12be 7a12 723d 3cb9 04b9
000003a0: b078 183e 1e46 acbb 74f3 95bd d713 fcbd
000003b0: 8d35 71bb 2c53 9bbd c835 1f3d 24f7 833b
000003c0: ad51 75bd da0e 9fbd 0f1f a63d 0ebb 723d
000003d0: 1842 e53d 6742 7cbc 0b7f 643c 47b3 dc3d
000003e0: 9678 ff3d 757a be3d c41b 80bc b218 853d
000003f0: 058e ffbd 202d d3bd babf 0abe e779 c6bc

network_body._body_endoder.seq_layers.2.bias f4 [128]
-2.3597946e-34 -6.1956893e-09 0.0054385895 0.0013200698 -2.9804342e-33 1.391276e-08 8.108718e-19 0.00032684434
-0.0036244397 -2.0090277e-12 -0.0031178957 -2.8771865e-26 0.0037293436 -0.003574846 -0.001473194 1.295522e-07
-0.00023309926 -0.00086964376 0.0053589214 2.724499e-08 3.0797122e-14 -1.1800525e-11 1.0472517e-31 2.5836453e-11
5.1802613e-16 -0.004342798 2.1837192e-07 -4.3368832e-14 0.0 -6.3511314e-11 2.0009218e-25 4.2039105e-36
1.157596e-19 -0.0024010802 -0.00030243804 -0.0035865381 -0.00503748 -2.264923e-11 0.0060666227 -0.0015943315
0.0 -2.1190128e-05 -0.0015211096 -0.0013349596 -0.0032004816 0.0011125884 7.293057e-16 2.9374126e-25
-0.0039873184 -0.005267457 0.0034794656 3.985124e-15 0.0016266478 -0.0027489373 2.1387842e-17 0.0
0.00012903714 -7.6465984e-16 -1.494258e-06 5.51181e-21 2.4522718e-35 1.097103e-06 -0.0035355263 -0.0042194785
0.00026698032 0.0038394749 -2.335223e-16 -0.0019673968 0.0 0.0063717375 -0.0012436316 4.7801875e-23
-2.1387784e-11 -0.0030697617 -0.0015462951 0.0043108333 -0.00089308224 0.0036434277 -0.0006771213 0.0022537226
-0.0020778724 0.0021619 -0.00038403156 -3.2826026e-06 -3.2864165e-05 -1.1937672e-07 -0.0029704364 -0.00047093158
-0.00485628 -1.4956803e-05 -0.0018206838 0.005929169 1.2025262e-28 -0.0024740258 0.0037071307 8.85251e-09
2.2297909e-18 0.0048496877 5.110936e-28 -0.0016183894 1.1853538e-28 -9.071769e-16 -0.00047891866 0.003915926
-2.1030422e-05 1.7897122e-16 0.003984062 -0.001065284 -0.0022836917 -0.002911205 -0.0016206208 0.0
0.0017524326 -0.0010216061 -0.0012427043 3.740754e-13 3.990247e-30 -0.004837925 -0.0029658352 -6.3477203e-24
-0.0043003913 -0.0011356421 -0.00042765928 5.245385e-17 -1.9519775e-06 0.0 3.3838703e-21 -0.0008581565
00000000: d3d5 9c87 dce1 d4b1 3236 b23b 3106 ad3a
00000010: d39a 7789 f704 6f32 be53 6f21 4e5c ab39
00000020: 0288 6dbb 6d5f 0dac 9c55 4cbb ac78 0e95
00000030: 0168 743b f747 6abb 3018 c1ba 0a1b 0b34
00000040: 1b6c 74b9 cef8 63ba e499 af3b 5e08 ea32
00000050: aab2 0a29 d798 4fad e8f0 070c 8542 e32d
00000060: 954f 1526 084e 8ebb 9e79 6a34 dc50 43a9
00000070: 0000 0000 b1a9 8bae beb3 7716 88d0 b204
00000080: 31aa 0820 715b 1dbb 8c90 9eb9 200c 6bbb
00000090: 7211 a5bb 8839 c7ad 85ca c63b e3f8 d0ba
000000a0: 0000 0000 74c1 b1b7 f85f c7ba d0f9 aeba
000000b0: 2cbf 51bb 46d4 913a 4335 5226 29d1 b516
000000c0: 0da8 82bb a29a acbb bf07 643b 4894 8f27
000000d0: 3e35 d53a 8427 34bb 9d44 c523 0000 0000
000000e0: 254e 0739 f065 5ca6 508e c8b5 f53a d01d
000000f0: 9862 0206 2c40 9335 4ab4 67bb 8d43 8abb
00000100: 7ef9 8b39 b39f 7b3b cf9d 86a5 71ef 00bb
00000110: 0000 0000 02ca d03b 5a01 a3ba db27 671a
00000120: 0221 bcad 0e2e 49bb 0ead caba e441 8d3b
00000130: bc1d 6aba 93c6 6e3b d780 31ba 31b3 133b
00000140: ea2c 08bb aaae 0d3b d857 c9b9 af4a 5cb6
00000150: a1d7 09b8 062e 00b4 a7ab 42bb 5ee7 f6b9
00000160: 6e21 9fbb fbee 7ab7 03a4 eeba 7949 c23b
00000170: 3570 1811 4423 22bb 55f3 723b c015 1832
00000180: 8f87 2422 21ea 9e3b d7f8 2112 2320 d4ba
00000190: ee42 1611 ecbc 82a6 6017 fbb9 2b51 803b
000001a0: 7d6a b0b7 fb56 4e25 bc8c 823b 00a1 8bba
000001b0: fda9 15bb eac9 3ebb 036b d4ba 0000 0000
000001c0: e1b1 e53a 6ae7 85ba 3de2 a2ba f295 d22a
000001d0: 18dd a10e 7587 9ebb 755e 42bb c790 f598
000001e0: 4cea 8cbb d3d9 94ba 7537 e0b9 93e6 7124
000001f0: b8fe 02b6 0000 0000 92ad 7f1d e8f5 60ba

action_model._discrete_distribution.branches.0.weight f4 [3, 128]
-0.011974004 0.014327245 -0.011150871 0.002260567 0.0032172326 -0.008795619 -0.009522856 0.0024311044
0.014414347 0.004731499 -0.008047965 -0.020468486 -0.006555436 -0.0042786766 0.009302904 0.0002737407
-0.013443208 -0.0018593341 -0.010610765 0.008388702 0.002105036 -0.009138147 -0.0003973396 -0.006341404
0.02203423 -0.018668722 0.001285949 0.007717145 0.005543637 -0.004912931 -0.0051329704 -0.005150448
0.0059542744 0.0019288684 0.014356799 -0.008212809 0.008197904 0.0071612606 -0.014690934 -0.0034910187
-0.0038748083 0.0008991254 0.007078241 -0.008115247 -0.005833871 -0.0011454885 0.006496176 -0.0020220492
-0.022126947 0.0024396232 -0.012224462 0.0050519835 -0.007087413 0.005493789 0.007987891 -0.01523749
-0.00018090072 -0.0022146811 0.010726324 0.007290572 -0.018995538 0.008443682 -0.0022181508 0.008349855
-0.006214242 0.006162726 0.0037061793 0.0006097984 -0.005122047 -0.01607327 -0.0012197695 0.0051359944
-0.010652352 -0.003705827 -0.003589899 0.011417649 0.0076898877 -0.003901001 0.0039606923 -0.02222215
-0.006853145 0.0028129122 -0.0065511204 0.015244669 0.009916632 -0.0057151653 -0.003009794 -0.0011707902
0.013670699 0.0077520437 -0.00071530766 -0.017146122 -0.0073697604 0.0024362304 0.002112876 -0.00035949508
-0.011803685 -0.008838301 -0.0033499287 0.005574015 -0.0020162042 -0.0036459302 -0.006414523 0.003946882
0.014649399 0.006760042 0.004412099 0.00196612 0.013574149 -0.008309944 0.008202894 0.012326706
-0.0017416491 -0.012760111 -0.000614914 -0.00019759369 -0.012236697 -0.007424218 -0.001631844 -0.008069459
-0.004649676 -0.0016205694 0.0008087434 0.0049839695 -0.0034954143 -0.006331765 0.0049373386 0.008370275
0.0005939614 -0.005115924 -0.013215107 -0.0041674566 0.009257276 -0.0037001437 0.0038183227 -0.011286632
0.0009949558 -0.001675839 0.0023554051 -0.009029418 -0.0221897 0.01802763 0.000486059 -0.005899546
0.007804449 -0.004723175 -0.013427705 0.011541206 -0.0015872021 0.0005861161 -0.0063717775 0.001877479
0.00218059 -0.0073679425 -0.0053585996 0.0041278047 -0.010059471 -0.0040931124 -0.0013937386 -0.01216912
0.0005013437 -0.006142898 0.0032527065 0.003990752 0.0056887385 0.0034552692 -0.00042689286 0.008003968
0.012146873 0.019471085 8.949153e-05 -0.006938428 -0.0016219594 0.006964649 -0.00042087908 0.005397442
0.008921143 -0.0066918484 0.010726225 -0.0073558055 -0.0069600656 -4.3658445e-05 0.008037616 0.005031055
0.00508408 -0.0049953396 0.014202789 -0.010916252 0.008365954 0.0039957734 0.003615855 0.0011933635
-0.00476888 -0.014345499 -0.00039558095 -0.0055926014 -0.0014755029 -0.010610463 0.00016125868 0.0043692845
0.016547166 0.004094434 -0.00888106 -0.005266508 0.010314929 -0.008383448 -0.01191408 -0.0007815348
0.012425973 -0.009230402 -0.00085938367 0.0065544033 -0.0095072305 0.005985239 -0.0017126179 0.008033643
-0.0011484349 -0.00067756086 -0.008493708 -0.01406337 -0.0047868 -0.0049780635 -0.01330765 0.019753983
0.0015529984 0.0075395107 -0.0047680372 -0.0006023406 0.0059298077 0.0075492314 -0.013699362 -0.011152177
-0.0031146808 0.013682606 -0.01653299 0.013631016 -0.014599196 0.0046448726 0.0016837264 0.008703827
-0.01439832 -0.0013950672 -0.0005368463 0.0057673627 -0.004670588 0.00864668 0.00881594 0.016070401
0.00066897884 -0.0029415486 0.0019059739 0.0053521884 -0.0063446974 0.015388201 -0.0037289527 -0.016641427
00000000: 9d2e 44bc d2bc 6a3c 25b2 36bc 0526 143b
00000010: 35d8 523b 801b 10bc c105 1cbc 2a53 1f3b
00000020: 272a 6c3c b10a 9b3b 9ddb 03bc 87ad a7bc
00000030: fcce d6bb 2434 8cbb 356b 183c db84 8f39
00000040: e740 5cbc e6b4 f3ba c6d8 2dbc c470 093c
00000050: a5f4 093b 2bb8 15bc 0552 d0b9 8dcb cfbb
00000060: 2181 b43c 26ef 98bc 4a8d a83a 1be0 fc3b
00000070: 66a7 b53b a7fc a0bb 7a32 a8bb 17c5 a8bb
00000080: 131c c33b 15d2 fc3a c838 6b3c 058f 06bc
00000090: 8050 063c 02a9 ea3b 3eb2 70bc 93c9 64bb
000000a0: 7ff0 7dbb 49b3 6b3a 97f0 e73b d0f5 04bc
000000b0: 0f2a bfbb 3724 96ba e0dd d43b 5b84 04bb
000000c0: 9243 b5bc 16e2 1f3b 1c49 48bc 1c8b a53b
000000d0: 883d e8bb 3e05 b43b a5df 023c aaa6 79bc
000000e0: 2bb0 3db9 2f24 11bb 77bd 2f3c c0e5 ee3b
000000f0: 889c 9bbc 5f57 0a3c 655e 11bb d5cd 083c
00000100: d7a0 cbbb b1f0 c93b 5fe3 723b e1da 1f3a
00000110: d8d6 a7bb 17ac 83bc ace0 9fba d84b a83b
00000120: 3487 2ebc 76dd 72bb 8344 6bbb 1711 3b3c
00000130: 74fb fb3b f0a7 7fbb b2c8 813b 3a0b b6bc
00000140: 5990 e0bb d658 383b c8aa d6bb c7c4 793c
00000150: 5f79 223c 4846 bbbb f73f 45bb 3375 99ba
00000160: 11fb 5f3c db04 fe3b 7c83 3bba 0676 8cbc
00000170: 087e f1bb 2aa9 1f3b 2d78 0a3b 9d7a bcb9
00000180: 3e64 41bc 85ce 10bc 7a8a 5bbb 3aa6 b63b
00000190: 4b22 04bb 8ff0 6ebb eb30 d2bb d954 813b
000001a0: 0804 703c 5883 dd3b 5e93 903b 05da 003b
000001b0: 1c66 5e3c 6e26 08bc 6e65 063c f4f5 493c
000001c0: 0c48 e4ba c90f 51bc 2e32 21ba 2731 4fb9
000001d0: 6d7c 48bc db46 f3bb 99e3 d5ba c435 04bc
000001e0: 4f5c 98bb 4969 d4ba da01 543a 9150 a33b
000001f0: 5213 65bb b27a cfbb 66c9 a13b 7a23 093c
00000200: 13b4 1b3a 7ba3 a7bb 2d84 58bc 298f 88bb
00000210: d4ab 173c 1c7e 72bb d33c 7a3b 91eb 38bc
00000220: 2d69 823a d3a7 dbba 245d 1a3b 20f0 13bc
00000230: 2cc7 b5bc aeae 933c bcd5 fe39 fb50 c1bb
00000240: 77bc ff3b ddc4 9abb e0ff 5bbc 5417 3d3c
00000250: aa09 d0ba 96a5 193a 58ca d0bb be15 f63a
00000260: 3be8 0e3b c86e f1bb 3197 afbb 8942 873b
00000270: 7bd0 24bc 841f 86bb 1bae b6ba fd60 47bc
00000280: 9b6c 033a 5d4a c9bb 5c2b 553b dbc4 823b
00000290: 9968 ba3b cc71 623b 97d0 dfb9 1323 033c
000002a0: ae03 473c d381 9f3c 66ad bb38 c15b e3bb
000002b0: ed97 d4ba b637 e43b 6fa9 dcb9 06dd b03b
000002c0: fc29 123c 4b47 dbbb 0cbd 2f3c f808 f1bb
000002d0: 4311 e4bb e61d 37b8 34b0 033c 8cdb a43b
000002e0: 5b98 a63b f2af a3bb d1b2 683c 14da 32bc
000002f0: 5b11 093c faee 823b fbf7 6c3b a26a 9c3a
00000300: 4444 9cbb 6209 6bbc fa65 cfb9 2442 b7bb
00000310: a965 c1ba 82d7 2dbc 8c17 2939 372c 8f3b
00000320: ec8d 873c 9a2a 863b de81 11bc ac92 acbb
00000330: f3ff 283c bb5a 09bc 4633 43bc eadf 4cba
00000340: 4f96 4b3c 1d3b 17bc 4348 61ba 52c6 d63b
00000350: 37c4 1bbc d31f c43b ec79 e0ba 8a9f 033c
00000360: 1587 96ba 579e 31ba 3229 0bbc 0d6a 66bc
00000370: 97da 9cbb 061f a3bb 5408 5abc 1bd3 a13c
00000380: fb8d cb3a 000e f73b 323d 9cbb 65e6 1dba
00000390: d54e c23b 8b5f f73b 4a73 60bc 9fb7 36bc
000003a0: ac1f 4cbb 022d 603c 3170 87bc a054 5f3c
000003b0: 7731 6fbc 0434 983b 7cb0 dc3a 7f9a 0e3c
000003c0: eee6 6bbc b0da b6ba 25bb 0cba 25fc bc3b
000003d0: bb0b 99bb ceaa 0d3c bb70 103c 13a6 833c
000003e0: 695e 2f3a ffc6 40bb dfd1 f93a 6961 af3b
000003f0: 2ee7 cfbb cb1e 7c3c 7261 74bb 9a53 88bc

action_model._discrete_distribution.branches.0.bias f4 [3]
-0.0014793405 -0.004796753 0.0051589957
00000000: 6ee6 c1ba 152e 9dbb cb0c a93b

action_model._discrete_distribution.branches.1.weight f4 [3, 128]
0.009404225 -0.00028276996 -0.01656084 -0.011195598 -0.0048951916 -0.007607062 0.004686478 0.007713373
-0.011557069 -0.0070971064 -0.0003037073 0.0011496583 -0.0012740357 -0.010816069 -0.00345382 -0.01578571
-0.0021060326 -0.00012377214 -0.012290697 0.015185494 0.019704865 -0.00073179783 -0.007062102 0.010748855
-0.0154619245 0.008836959 0.0020722959 -0.010152023 0.0038592783 -0.0011763558 0.005292893 0.002134264
-0.014938548 0.0038141648 0.016696326 -0.012493438 0.011100013 0.0068575735 -0.006493386 -0.0145012
0.0059451866 0.008589724 -0.020470135 0.00215008 0.0026140886 -0.00962876 -0.006812919 -0.007940933
-0.01308067 -0.012741522 0.0045581707 0.013853269 -0.0028852485 -0.01032358 0.0034008124 -0.004574281
-0.012003365 -0.012168917 0.004023135 -0.023812553 -0.0035588106 0.0011272886 -0.0007473716 0.008799025
0.004490342 0.0046651782 -0.0027400553 0.0028516916 -0.004396672 -0.011192539 0.015460061 0.009525955
-0.021026466 0.014257532 0.015321385 -0.00695336 -0.005517981 -0.002328352 0.0013935836 0.0022355318
-0.004395899 -0.0021342628 0.0027964883 -0.016856508 0.016661607 -0.00033916676 -0.0008681269 0.00035506656
-0.009570399 0.0067589637 -0.011655671 -0.0090150535 -0.0009804865 -0.014783545 0.018921042 0.013933744
0.022517977 -0.004198456 0.004588535 -0.005715037 0.012769694 -0.0028496564 0.004222719 -0.020309038
-0.00948006 -0.0048773726 -0.011705084 -0.002304391 -0.001658013 0.002455755 0.010904353 0.02176585
0.0114464965 -0.01529485 0.0021977855 -0.0002895155 0.0059327953 -0.010598115 -0.016412603 -0.0046761036
-0.00033509167 -0.0118468655 0.0030279881 -0.0060433736 -0.0036654437 0.0041946056 -0.018765343 0.011430611
0.0043055783 0.013467642 -0.007723865 0.0014396906 -0.0027720595 0.0007340415 0.009701077 -0.0022077055
2.756362e-05 -4.2780088e-05 0.005430841 -0.0144138355 -0.011031506 -0.0019488728 0.0026435533 0.0147490995
-0.0073997322 -0.015438944 -0.006788559 0.003431261 0.00656113 -0.019852435 0.0009930645 -0.0050285994
0.004398815 -0.006862728 -0.0063651 -0.0027778123 0.0016129656 0.011379269 0.015856918 -0.0008909103
0.019712262 0.0034218384 -0.00521883 0.011307119 0.0049399626 -0.0006222517 0.00050129177 -0.012989062
-0.012331656 -0.009429833 -0.009676957 0.0063304356 -0.006672453 -0.008556913 -0.010301343 0.0015570143
0.0009747573 -0.010038532 0.004052536 0.004594244 0.004379502 -0.003593108 -0.010120603 0.0069534294
0.00070872303 0.015783621 -0.0032262385 -0.005305454 0.0076517174 0.0022804781 0.0056852982 -0.012277583
-0.006693245 -0.0042025154 -0.003995796 -0.006735339 0.0143023925 0.0017715985 -0.013672127 0.0056962525
0.010711004 -0.0037408527 0.009576654 -0.002310621 -0.01720217 -0.00587086 0.007557403 -0.005021414
-0.019024527 0.006074908 -0.0042493693 -0.003558675 -0.0028854492 -0.0014673204 0.015708694 0.0093888445
0.0012406752 0.008871446 -0.00415068 -0.0026518337 -0.029325446 -0.009893225 -0.016695937 -0.007985173
-0.003633131 0.013814967 0.002785343 0.0068487935 0.00072603853 0.004096949 0.014728394 -0.007307989
0.00073149893 -0.0018327713 -0.0072605987 0.006680066 0.009409548 0.026265793 0.0038500112 0.0022412871
0.013002211 -0.0008627554 -0.015034543 -0.014165813 0.023019638 -0.0055473624 -0.008010633 -0.00045136322
0.008255425 0.0073477267 0.007616073 -0.0024412302 -0.0024878816 0.0063355253 -0.0142374635 -0.0067244493
00000000: 2e14 1a3c be40 94b9 99aa 87bc be6d 37bc
00000010: d867 a0bb a944 f9bb 0791 993b 76c0 fc3b
00000020: dc59 3dbc d88e e8bb e73a 9fb9 22b0 963a
00000030: 8bfd a6ba e235 31bc 7c59 62bb 0951 81bc
00000040: 5d05 0abb d5c8 01b9 eb5e 49bc 94cc 783c
00000050: 196c a13c 1fd6 3fba 3569 e7bb f71b 303c
00000060: 0354 7dbc e4c8 103c 5bcf 073b ac54 26bc
00000070: f2eb 7c3b f32f 9aba 0170 ad3b 02df 0b3b
00000080: d0c0 74bc 11f7 793b bcc6 883c 47b1 4cbc
00000090: d4dc 353c 7fb5 e03b 78c6 d4bb 7196 6dbc
000000a0: d7cf c23b eabb 0c3c fcb0 a7bc 5be8 0c3b
000000b0: 2151 2b3b f2c1 1dbc e83e dfbb b01a 02bc
000000c0: 4e50 56bc d1c1 50bc b55c 953b d2f8 623c
000000d0: 7016 3dbb 3c24 29bc 2ae0 5e3b dae3 95bb
000000e0: c3a9 44bc 2360 47bc 81d4 833b 8b12 c3bc
000000f0: ef3a 69bb 87c1 933a 42eb 43ba c929 103c
00000100: b823 933b 5ade 983b 8092 33bb 72e3 3a3b
00000110: f511 90bb e960 37bc 324c 7d3c c012 1c3c
00000120: b23f acbc 6c98 693c 8c06 7b3c 03d9 e3bb
00000130: 2ed0 b4bb 4497 18bb e8a8 b63a 0082 123b
00000140: 790b 90bb fdde 0bbb 4a45 373b a916 8abc
00000150: ec7d 883c 31d2 b1b9 0393 63ba 3a28 ba39
00000160: 2acd 1cbc 4c7a dd3b 6df7 3ebc e0b3 13bc
00000170: ab83 80ba af36 72bc 4d00 9b3c 5c4a 643c
00000180: 9f77 b83c 3493 89bb 6c5b 963b 3545 bbbb
00000190: fb37 513c 4dc1 3abb bc5e 8a3b 245f a6bc
000001a0: 4152 1bbc 5ed2 9fbb aec6 3fbc 4405 17bb
000001b0: af51 d9ba bbf0 203b 2ca8 323c 4c4e b23c
000001c0: 168a 3b3c 4097 7abc b908 103b 1dca 97b9
000001d0: e567 c23b b7a3 2dbc b973 86bc 003a 99bb
000001e0: 3eaf afb9 5b19 42bc 3671 463b 7e07 c6bb
000001f0: f137 70bb e772 893b c7b9 99bc 7547 3b3c
00000200: cf15 8d3b 62a7 5c3c 7a18 fdbb 00b4 bc3a
00000210: 71ab 35bb b16c 403a 44f1 1e3c 27af 10bb
00000220: 6c38 e737 c56e 33b8 32f5 b13b 0228 6cbc
00000230: 7dbd 34bc 5271 ffba 773f 2d3b 35a6 713c
00000240: 7479 f2bb a0f3 7cbc 8f72 debb 02df 603b
00000250: bffe d63b 93a1 a2bc b729 823a f3c6 a4bb
00000260: ef23 903b bce0 e0bb 5492 d0bb f50b 36bb
00000270: 256a d33a 1d70 3a3c 5ee6 813c fa8b 69ba
00000280: 9c7b a13c ec40 603b b802 abbb 7f41 393c
00000290: 69df a13b 9b1e 23ba 1f69 033a 13d0 54bc
000002a0: b70a 4abc 967f 1abc 198c 1ebc 8b6f cf3b
000002b0: 98a4 dabb 4b32 0cbc f7c6 28bc bb14 cc3a
000002c0: db86 7f3a a878 24bc 23cb 843b 508b 963b
000002d0: ed81 8f3b 597a 6bbb e3d0 25bc 98d9 e33b
000002e0: 99c9 393a a74c 813c 4d6f 53bb 60d9 adbb
000002f0: 42bb fa3b 1374 153b bd4b ba3b ea27 49bc
00000300: 0253 dbbb 41b5 89bb 2bef 82bb 1eb4 dcbb
00000310: 9554 6a3c fb34 e83a 0f01 60bc a1a7 ba3b
00000320: 357d 2f3c 1829 75bb 66e7 1c3c ca6d 17bb
00000330: 91eb 8cbc 5860 c0bb 17a4 f73b ac8a a4bb
00000340: 53d9 9bbc 0610 c73b 4b3e 8bbb a938 69bb
00000350: ce19 3dbb 1a53 c0ba 85af 803c abd3 193c
00000360: 279e a23a 8b59 113c 6d02 88bb 63ca 2dbb
00000370: eb3b f0bc 3117 22bc ebc5 88bc 3ed4 02bc
00000380: d319 6ebb 2c58 623c 4d8a 363b d86b e03b
00000390: 9f53 3e3a b33f 863b 5d4f 713c db77 efbb
000003a0: 10c2 3f3a 9a39 f0ba 51ea edbb 75e4 da3b
000003b0: 812a 1a3c 5c2b d73c 7850 7c3b 8fe2 123b
000003c0: 3a07 553c 892a 62ba 7253 76bc ba17 68bc
000003d0: ae93 bc3c a6c6 b5bb 083f 03bc f2a4 ecb9
000003e0: c341 073c 33c5 f03b 4090 f93b 0cfd 1fbb
000003f0: ba0b 23bb 3d9a cf3b 4044 69bc c558 dcbb

action_model._discrete_distribution.branches.1.bias f4 [3]
-0.0029701253 -0.00045641273 0.002172105
00000000: 6fa6 42bb ae4a efb9 e059 0e3b
