Assets/results/T2/CarDriver/CarDriver-500640.onnx (onnx, 188993 bytes, 9 tensors)

discrete_act_size_vector f4 [1, 2]
000000 00 00 40 40 00 00 40 40
       3.0 3.0

network_body._body_endoder.seq_layers.0.weight f4 [128, 225]
000000 e5 e4 cc 3c fa 3c ea 3d 98 ee e1 3d 25 68 b9 3d
       0.02501149 0.114374116 0.11031836 0.09053067
000010 e7 cc 0b bc 46 c0 a9 bd 18 f1 c1 3d f1 1b 5e bd
       -0.008532739 -0.082886264 0.09469813 -0.054225866
000020 0b 95 a1 3d 79 5b d3 3d 0e ae 34 3d 37 e6 fe bc
       0.07889756 0.103201814 0.044111304 -0.031115634
000030 15 85 b3 3c a1 e9 de 3c 45 d1 8c 3d 2f 00 0e bd
       0.021914044 0.027211012 0.068758525 -0.034668144
000040 d1 ce 85 bc f1 55 6c bc 37 b5 a1 3d 99 6f ab 3d
       -0.01633397 -0.014424787 0.07895892 0.08370895
000050 a7 8a 3f bc 25 7f 2e 3c 83 5c b7 3c 3c 0b bb bc
       -0.011690772 0.010650431 0.02238298 -0.022832505
000060 c5 8f 8f 3b 5a 9c ba bc 34 f9 9b 3d c8 84 6e 3d
       0.0043811523 -0.022779632 0.07615891 0.0582321
000070 19 49 1b 3d ca c9 0c 3c 8c 10 6f bd 25 b5 3a bd
       0.03791151 0.008593032 -0.05836539 -0.04558291
000080 01 d0 c0 3b 3e 0f 8f bd bb 6a 24 3d 14 e9 17 be
       0.005884171 -0.06985329 0.04014085 -0.14835006
000090 82 2b 23 3d 7d b1 ed bd 1a fb f5 bd a5 c8 8c 3d
       0.039836414 -0.11606119 -0.120107844 0.068742074
0000a0 ae be 32 3d 42 ae 35 bd 17 7e 8f bd 91 a1 5f 3e
       0.043638878 -0.04435564 -0.070064716 0.21838976
0000b0 9e 68 a3 bc 75 59 cb 3c da 29 3a bd 8c 85 83 bd
       -0.019947346 0.02482293 -0.04545007 -0.064219564
0000c0 8f e8 0a 3b db f8 57 3c 98 b7 b9 3d 69 49 33 bd
       0.0021195745 0.01318189 0.09068221 -0.04377118
0000d0 65 39 a7 3d c3 69 45 be 95 58 2f bd 6b 87 5b 3c
       0.08165244 -0.19278626 -0.042809088 0.013398985
0000e0 5a 3c f0 bc 38 3f 8d 3d 9f 07 f6 3c 59 09 17 be
       -0.029325653 0.06896824 0.03003293 -0.1474966
0000f0 52 eb 1e 3c 3e db df bc ad 3b d0 3d 65 c9 27 bd
       0.009699659 -0.027326223 0.10167632 -0.04096355
000100 51 9e 8a 3d 5d 85 39 bd 70 e6 30 3c 76 62 ae bc
       0.06768478 -0.0452932 0.010797128 -0.021287184
000110 16 39 2c 3e a6 f0 db 3c b7 3c ad 3d 80 34 ae 3d
       0.16818652 0.026848149 0.08458846 0.08506107
000120 62 02 59 bc 06 3d d5 3c 42 8b a5 3d e6 4a e4 bd
       -0.013245197 0.026030075 0.08083202 -0.11147098
000130 3d 70 a2 bd 16 aa 10 3c 86 2c c9 bd 65 a9 04 3d
       -0.07931564 0.008829614 -0.09822945 0.03238811
000140 80 d3 3d bc 80 d6 a3 bd 4c 81 ee bd 5c 27 9e bd
       -0.01158607 -0.07999897 -0.11645755 -0.07722351
000150 4c c8 cb bd 42 5a 2f be 3d fe 01 bd e2 65 38 bd
       -0.09950313 -0.17124274 -0.0317366 -0.045019038
000160 3c a5 3a bd d1 62 61 bd 50 41 48 3d c3 0f 6f bc
       -0.045567736 -0.05502588 0.04889041 -0.01459116
000170 01 35 82 bc f3 61 d1 bc 77 03 58 3d c4 e2 ef bc
       -0.015894415 -0.025559401 0.05273768 -0.029282935
000180 77 f1 85 3d 71 48 d7 3d 3d 47 88 bd 2e ad 82 3d
       0.065401964 0.10511864 -0.066542126 0.06380688
000190 54 09 aa 3d 5a f3 04 bc d5 61 cd 3d 2b 27 cd bc
       0.083025604 -0.00811466 0.100284256 -0.02504309
0001a0 32 9c 96 ba 00 c4 70 bd e8 d1 2c 3e 83 55 ec 3c
       -0.0011490642 -0.05878067 0.16876948 0.028849369
0001b0 f0 b5 e1 3c d1 63 cd ba 88 35 da 3d 93 97 bf 3d
       0.027552575 -0.0015670006 0.106547415 0.09355082
0001c0 f6 34 a7 3a aa 1e eb bd df 01 25 bd 5f e6 3e bc
       0.0012756872 -0.11480458 -0.040284988 -0.011651604
0001d0 0c f5 e1 bd 66 10 39 be d2 f5 e7 3c f8 cf 19 3d
       -0.11033067 -0.18072662 0.028315458 0.03755185
0001e0 4d 40 6c bd 37 a9 1d bc 2b a1 22 be 12 dd 91 3a
       -0.05767851 -0.0096228635 -0.15881793 0.0011128506
0001f0 a2 67 4c bd f7 57 90 3d 8c ff bf bd df b1 f0 3d
       -0.04990352 0.07048028 -0.093749136 0.11752676
000200 de e5 f7 3c dc 32 4f bc 8c 79 11 3d c2 24 b8 3b
       0.030260976 -0.012646403 0.035516307 0.0056196162
000210 88 e7 8a bd 52 8e ab bd 32 b8 25 3e 6e dc 9b 3d
       -0.06782442 -0.08376755 0.16183546 0.07610403
000220 51 56 2d be bd 7a aa 3c 7c 6f 81 bc aa e3 6f bc
       -0.16927458 0.02081048 -0.01580023 -0.014641682
000230 f6 ea 5d bd e1 de c8 bd 70 f9 de 3d 94 2b 24 3d
       -0.054179154 -0.09808136 0.1088742 0.04008062
000240 8b 67 22 bd 1a 7b 04 bd 44 5d 73 3c ad 2e 3f 3d
       -0.039649528 -0.03234396 0.014853779 0.046675373
000250 fc 11 a4 bd 9c 09 3a 3c 6d f3 8c 3d 15 88 4a bd
       -0.08011243 0.01135483 0.06882367 -0.049446184
000260 cc 18 99 3c 5d d2 89 3d 74 e9 0c 3e 8c f2 be bd
       0.018688582 0.06729577 0.1376093 -0.09323606
000270 11 70 df 3d 69 54 65 3c aa fb 88 bd 7e 78 01 be
       0.10910047 0.013997176 -0.06688626 -0.1264362
000280 06 6f fd bc bc 89 ab 3c d1 8e 90 3d c2 b1 51 3d
       -0.03093673 0.0209397 0.0705849 0.051194914
000290 a9 a4 b2 bd e9 30 f5 bc 95 77 55 3d 68 91 cb 3c
       -0.08722813 -0.029930549 0.052115995 0.024849609
0002a0 bf 44 62 3d ef 8a 86 3d 9d 46 f0 bd 59 ba b4 3d
       0.055241343 0.06569468 -0.117322184 0.088246055
0002b0 5c b5 72 3c de 94 30 bd 3b f5 df 3d 7c 68 b4 3c
       0.014813747 -0.04311072 0.10935446 0.022022478
0002c0 c3 35 88 bb ad 1f cb ba 23 29 1a 3d 19 f1 98 3d
       -0.0041567995 -0.0015497111 0.037636887 0.07467861
0002d0 1f 25 07 bd f6 3f 3f 3e a7 4b 1c bd b8 f9 bd bb
       -0.032994386 0.18676743 -0.038158085 -0.005797591
0002e0 44 8c 58 bd ee fd 23 be 12 53 72 bd 3b 71 4c 3d
       -0.052868143 -0.16014835 -0.059161253 0.049912672
0002f0 f0 30 eb 3c 1a b7 90 3c da bf 9c 3d e1 28 27 bd
       0.028709859 0.017665435 0.0765378 -0.04081047
000300 02 bc b7 3b 2b 4a 7a 3d 7f 26 5e 3d 78 59 03 be
       0.005607129 0.06110589 0.05423593 -0.12827098
000310 05 aa 86 bd 21 09 f8 3c 53 35 e0 bd 73 06 59 3d
       -0.065753974 0.03027779 -0.10947671 0.052984666
000320 68 00 bb bc d6 af 7d bd ab 9b 5b bd 3a 92 a5 bd
       -0.022827342 -0.06193527 -0.053615253 -0.08084531
000330 48 79 02 bd d9 62 ac 3d 2c 2c 80 bd 1c c3 05 3e
       -0.031853944 0.08417291 -0.06258425 0.1306271
000340 6f dd b3 bd 78 e8 37 3d ea 2d 09 ba d9 40 30 be
       -0.087824695 0.044899434 -0.0005232977 -0.17212237
000350 f9 5f ec 3d 64 e2 4e bd 37 94 94 bb 57 f8 84 bc
       0.11541743 -0.05050887 -0.00453427 -0.016231699
000360 09 61 12 3c 72 aa 7a 3b 5d 1d 66 3e a7 3f 11 3b
       0.008934268 0.0038248566 0.22472139 0.0022163184
000370 0e da 34 bd 98 47 b8 bc 3c e9 b9 bd b0 78 0a be
       -0.044153266 -0.022495076 -0.09077689 -0.13522601
000380 a4 ea 52 3c c8 8e 28 3e 3e c4 9e bd 68 4a 5a 3c
       0.0128733255 0.16460717 -0.07752274 0.013323404
000390 a5 4a 68 bd db 4d 22 bd 77 71 d5 3c 48 55 e7 3c
       -0.05671181 -0.03962503 0.02605508 0.028238907
0003a0 60 94 37 bd 67 f4 36 3c 79 65 cc 3d 61 5a d6 bc
       -0.044819236 0.0111666685 0.09980292 -0.026166143
0003b0 8b 42 68 bb 91 4a e5 3d 63 64 1b bd 69 a9 24 3e
       -0.0035440053 0.11195863 -0.037937533 0.1608025
0003c0 59 5f b6 bd 50 81 f7 bc 17 c8 97 bb 50 08 55 bd
       -0.08904905 -0.030213028 -0.004632007 -0.05200988
0003d0 48 16 a6 3d 3a 05 0d 3e 5c 1d 32 bc 69 3f 73 3b
       0.081097186 0.13771525 -0.010871258 0.0037116653
0003e0 99 ce a5 3d 92 3d 6a 3d cf 8e 30 bb 6c 2c 8f 3d
       0.08096046 0.057187624 -0.002694059 0.06990895
0003f0 49 f3 da 3d b8 d7 1a 3e de 98 32 bd 76 02 97 bd
       0.10690934 0.15121353 -0.043602817 -0.07373516

network_body._body_endoder.seq_layers.0.bias f4 [128]
000000 ff 4d 39 bb 5a 2b 59 3c 53 36 8a 3c 79 5f 09 3c
       -0.002827525 0.013254965 0.016871607 0.008384579
000010 e9 59 83 3c e4 d7 95 3b 7c 7e 89 3c 80 fb 95 bc
       0.016034083 0.0045728553 0.016783945 -0.018308401
000020 ba 17 2e 3b 95 cc 09 bc 30 04 42 39 eb 1e 2c 3b
       0.0026564435 -0.008410593 0.00018502842 0.0026263546
000030 3d b0 1e 3c 1a 71 5f 3c 65 69 5c bb a7 9c 6f bc
       0.009685573 0.013637805 -0.0033632156 -0.014624751
000040 a6 b5 7a 3c f8 29 1f 3c 47 b8 f2 bb df e2 82 3c
       0.015302097 0.009714596 -0.0074072215 0.015977321
000050 af 26 49 3b 51 3a 22 3c 52 80 44 3c 7d 25 61 3b
       0.0030693223 0.009901599 0.011993485 0.003435462
000060 37 16 aa 3b 46 85 46 3c 2a 54 2a 3c df 40 68 3b
       0.0051906365 0.012116736 0.010396043 0.0035439057
000070 06 6d 0c 3c 42 1b a2 3c de 40 3c 3c 74 a8 83 3c
       0.008570915 0.019788388 0.011490075 0.016071536
000080 d9 a5 27 3b f9 cd e0 ba 18 96 10 3c 5c 06 84 3c
       0.002558103 -0.0017151228 0.008824848 0.016116314
000090 39 73 45 3c 6c 35 95 3a a4 a1 6a 39 56 f2 4e 3c
       0.012051397 0.0011383719 0.00022376195 0.01263102
0000a0 2d 05 b1 3b 20 63 16 3c 79 e5 10 3c 9e a6 2a 3c
       0.0054022283 0.009178907 0.008843773 0.010415701
0000b0 ee d5 8b bc 21 5f 7e 3c 49 46 7d 3b c6 de 5c 3c
       -0.017069783 0.01552561 0.003864663 0.013480848
0000c0 13 59 a4 bb 4f 08 86 3c af 20 0a bc 17 17 35 3c
       -0.0050155013 0.016361384 -0.008430644 0.011052868
0000d0 64 a3 16 3c 58 78 17 3c 8d 20 8d bc 9a d2 6d 3c
       0.009194229 0.009245001 -0.017227435 0.014515543
0000e0 ef 1f a0 3b 30 39 79 3c 2f 3a 38 3c fc f2 07 3c
       0.0048866193 0.0152113885 0.011244341 0.008297678
0000f0 30 4d 7d 3c de 53 58 ba cd 7c c5 b8 2a eb 3d bc
       0.015460297 -0.0008252243 -9.416938e-05 -0.011591712
000100 31 2b 0b bc 83 8f 0e 3c a9 ba 71 3a f9 c6 53 3c
       -0.008494184 0.008701208 0.0009221235 0.012925857
000110 bd 21 0e 3c 4e b9 75 3c 50 40 84 3c 5b ef 7e bc
       0.008675036 0.014997793 0.016143948 -0.0155599965
000120 b6 b4 9a 3b 3e 04 81 3c 2c 54 0c 3c fe 70 0f 3b
       0.0047212495 0.015749093 0.00856499 0.0021887417
000130 43 53 bb 3c 98 07 cb bc ff 7d e6 3b 67 88 e9 3a
       0.02286685 -0.024783894 0.007034063 0.001781714
000140 83 6f f2 3b f5 e3 26 3c d6 83 a0 bc df ea 45 3b
       0.007398547 0.010186185 -0.019594114 0.0030199809
000150 87 d1 d2 bc 74 ba 8e 3c ed f9 81 3b 71 8a 10 bc
       -0.025734676 0.017422892 0.003966561 -0.0088220695
000160 b7 5e 21 3c 8f d8 d5 bc d7 0f 7d bb 89 22 81 ba
       0.009849242 -0.02610424 -0.0038614178 -0.0009852211
000170 c8 b3 4f bb 47 e5 8b 3c 7a ed 98 3b 50 40 0d bc
       -0.0031692851 0.017077101 0.0046669813 -0.00862129
000180 de 49 66 3c cf 5d b6 3c e1 84 ff 3b 8f 4f 3f 3b
       0.014055697 0.022261528 0.007797823 0.0029191708
000190 0f 7c a9 ba 9f c3 39 3c 37 d5 a9 3c 9d 67 2a 3c
       -0.0012930649 0.011338144 0.020731552 0.01040068
0001a0 b0 ae 75 3c c4 42 19 3c 3c dc 84 3b c4 82 55 39
       0.014995262 0.009354297 0.0040545743 0.00020361977
0001b0 6c a1 69 bc 7f 1f a1 bc 00 64 56 3c 0a 3d 19 3c
       -0.014259677 -0.019668339 0.013085365 0.009352932
0001c0 96 bf 16 ba cb d9 6d 3c e8 a0 a9 bc fa 36 9a bb
       -0.00057505944 0.014517258 -0.020706609 -0.0047062607
0001d0 71 9e be bb 33 c8 30 3a ed 61 00 bc 4b 9d f1 3b
       -0.0058172275 0.0006743699 -0.007835847 0.007373487
0001e0 73 3f a2 bb f2 7c e8 3a 91 86 e3 bb 0b 54 a1 3c
       -0.0049514114 0.0017737432 -0.006943532 0.019693395
0001f0 0f 61 52 bc e0 ed 8d 3c b8 d1 3e ba 98 6a 80 3b
       -0.012840523 0.017325342 -0.00072791753 0.003918957

network_body._body_endoder.seq_layers.2.weight f4 [128, 128]
000000 3f 55 99 3d d1 c6 b7 bc 61 a4 e2 3c 99 69 b1 bd
       0.074869625 -0.02243367 0.027666273 -0.08662719
000010 12 58 8f 3d b0 d8 24 3d d5 a4 6e 3d a7 89 0a be
       0.0699922 0.04024571 0.058262665 -0.13529073
000020 a7 64 80 be 39 50 89 bd c1 5a 20 3e cb 95 39 3c
       -0.25076792 -0.067047544 0.1565962 0.011327217
000030 ec c7 82 bc 91 b7 36 3e 86 b9 aa bd 4e 04 dc bc
       -0.01596447 0.17843463 -0.08336167 -0.026857521
000040 bf a4 43 3e c7 51 26 3d 0d bd cb bd cf 73 62 be
       0.19105814 0.040605333 -0.09948168 -0.2211449
000050 23 ef 80 bd ac 4f c9 bd df 8e 3c 3d 2b 6c c5 bd
       -0.06295612 -0.09829649 0.04603469 -0.09639772
000060 58 9b 10 bd 76 29 1d 3d 7b 4a e3 bc e4 d9 04 be
       -0.035304397 0.03836962 -0.027745476 -0.12973744
000070 b5 ce 80 bc 98 1b d7 bd 95 ae de bd 1d 67 e9 3a
       -0.015723566 -0.1050331 -0.10873143 0.0017807219
000080 60 a6 c5 3d 04 d3 46 bd d7 5b c3 bd 5f 8e 7c 3e
       0.09650874 -0.048541084 -0.095390014 0.24663685
000090 cf 92 6b 3d a8 2e 92 bd 06 3d 96 bd d7 89 92 3d
       0.057513054 -0.07137805 -0.07335858 0.07155197
0000a0 f3 be 85 3b 96 db 52 bc 5f 25 cc bb 1b ef 14 3e
       0.004081601 -0.012869736 -0.006230041 0.14544336
0000b0 8a 32 b0 3b 46 88 ba 3d db ae 72 3a 20 6c 30 3e
       0.0053771185 0.09108023 0.0009257623 0.17228746
0000c0 96 0d 82 be c6 f7 d8 3c 68 9d 60 bd 0f 62 85 3b
       -0.2540099 0.026485335 -0.054837614 0.0040705274
0000d0 33 46 07 3d cc 5c ab 3d 20 fc a3 bd 05 9e 94 3d
       0.03302593 0.08367309 -0.080070734 0.07256702
0000e0 18 78 d4 bb 0f 06 f1 bc 43 35 76 3d b5 1f d2 3d
       -0.006484043 -0.029421834 0.060109388 0.10259954
0000f0 03 96 1d 3e 54 42 7b bd 85 f9 71 bd dd c4 3b bd
       0.15389256 -0.061342552 -0.05907585 -0.04584204
000100 1a 35 04 be 06 e6 41 3d 7f 34 22 3d 0c 29 bc bd
       -0.12910882 0.047338508 0.039600845 -0.091875166
000110 e7 8f 0f bd 59 fb d5 bb 96 24 df 3c 72 18 28 bd
       -0.035049345 -0.006530207 0.027239125 -0.041038938
000120 8a 4b 83 3a 07 2f 1f bc b5 71 83 bd 6f 8b a6 3b
       0.0010017019 -0.009715802 -0.06418172 0.0050825397
000130 ac ac 79 3c 47 5a b6 bd e1 ab 85 bc df f4 08 3c
       0.015238922 -0.08903938 -0.01631731 0.008359163
000140 56 05 b6 3a c3 b6 6b 3d 4d 14 7a bd f2 bf 80 bd
       0.0013887088 0.057547342 -0.061054517 -0.06286611
000150 98 a5 9c 3d af fe c2 3c a4 56 58 be 13 91 68 bd
       0.07648772 0.023803083 -0.21126801 -0.05677898
000160 4b d0 74 bd a8 c3 08 3d 93 ee b8 3c 46 77 5f 3d
       -0.059768956 0.033389717 0.022574699 0.054557107
000170 bb 13 d9 3d 0e 35 06 3e 19 c6 29 be ab 0c 23 3d
       0.105994664 0.13106176 -0.16579475 0.039807003
000180 46 ed 4a 3d a4 a0 c6 3c ba 25 97 bd de 2b 82 3d
       0.049542688 0.024246521 -0.07380243 0.06356023
000190 4e 4b 4d 3d 29 89 90 3b fd 54 82 3e 6a 84 fa bb
       0.050120644 0.004410882 0.25455466 -0.0076451795
0001a0 df 9c ce 3d cc 8f b1 3d 05 0c 91 bd eb e3 92 3d
       0.100885145 0.08670005 -0.07082371 0.07172378
0001b0 3a 32 60 3e ef 09 20 bd 3f 44 64 bd a7 55 7e bd
       0.2189416 -0.039071973 -0.055729147 -0.062093403
0001c0 ff a5 c7 3d d7 e0 d1 3d 2b 33 60 3c f3 d7 e1 bd
       0.09748458 0.10247963 0.013684074 -0.11027517
0001d0 9d 6d 18 bc 51 d1 b4 bd 5b 4d 8f 3d 51 e0 19 3d
       -0.009303478 -0.088289864 0.06997176 0.03756744
0001e0 3c 2c 99 bd b3 df 13 bd 5e 01 2c 3e ee c8 aa 3d
       -0.0747914 -0.036102008 0.16797397 0.083391055
0001f0 08 5b 99 bd af 6d 03 be c4 82 26 be ae 57 07 3c
       -0.07488066 -0.1283481 -0.1626082 0.008260651
000200 e2 00 03 bc e5 ec a5 bd 9c 1a 22 bd c1 68 8b bd
       -0.007995816 -0.08101825 -0.039576158 -0.068070896
000210 f7 9c 31 be 2c 69 20 3d cd 7a bd 3d 30 43 45 bd
       -0.17345034 0.0391628 0.09251938 -0.048159778
000220 72 54 a0 3b e0 da 81 bd fb fc 95 3d ac b4 35 bd
       0.004892879 -0.06340575 0.07323643 -0.044361755
000230 af 5e 1b 3e 72 3a 65 bd 5a 9d 21 3d aa 83 4a bd
       0.15172838 -0.05596394 0.039456703 -0.04944197
000240 b6 ee 66 3c 5b d6 df bd 34 f3 e7 bd 5b 79 2a be
       0.014094999 -0.10929557 -0.11325684 -0.16647856
000250 f0 f1 07 be de bf 0c be 38 6f 8e 3c 1d 7b 77 ba
       -0.13275886 -0.13745067 0.017387018 -0.00094406476
000260 f1 60 99 3c 04 b6 f6 3d f1 36 8e 3c 0a ef f6 3d
       0.018722983 0.120464355 0.017360182 0.12057312
000270 3e 62 a4 3d 29 23 9f bb 31 94 47 3d 8d 63 ae 3d
       0.08026551 -0.0048564863 0.04872531 0.085150816
000280 ef 84 84 bd 3b 91 b1 bd 35 60 4e 3e 9d a4 d6 3d
       -0.064706676 -0.08670279 0.20153888 0.10480616
000290 14 ae 76 bb f2 ef 03 be a3 4c f0 3d 0c 88 09 bc
       -0.003764038 -0.128845 0.11733367 -0.0083942525
0002a0 1f 58 a4 3d b7 9d b1 bd 2d 1f d4 3d 2c 71 ae bb
       0.0802462 -0.0867266 0.10357509 -0.0053235497
0002b0 77 73 5c 3d 16 c4 d3 3d 28 f7 e1 bd 22 90 96 3c
       0.053821053 0.10340135 -0.110334694 0.018379275
0002c0 4d fb 24 bd 55 f7 c9 3d 47 00 97 bd 9d 92 f6 3d
       -0.04027872 0.09861628 -0.073731 0.12039683
0002d0 9d 7a 43 bd 49 e4 0b 3e a0 41 be 3d 81 f1 66 3d
       -0.047724355 0.13661303 0.09289861 0.05638266
0002e0 fa 2e a7 3c 52 53 a0 bd 82 56 d4 bb f4 e6 1e 3e
       0.020408142 -0.07828392 -0.006480039 0.15517789
0002f0 1c ff 69 bd 6e 72 d6 bd 49 c1 95 bd 7a 40 88 3d
       -0.057128057 -0.104710445 -0.07312257 0.06652923
000300 55 ed 4e bc 5a 41 5c bd 13 8e cf 3c 53 51 b7 bd
       -0.012629827 -0.05377326 0.025336301 -0.08951058
000310 e9 fa 8c 3c a1 1f 85 3d 97 e6 19 3e e6 17 2e 3d
       0.017209487 0.06500173 0.1502937 0.04250326
000320 94 6d 2d 3a 02 43 26 3d 2b 79 0a 3e a7 23 c7 bd
       0.00066157547 0.040591247 0.13522784 -0.09723597
000330 42 87 f6 3d f5 bc 5c 3e 49 84 a2 bd f0 08 74 bd
       0.12037517 0.21556456 -0.07935388 -0.059578836
000340 29 8c a4 bd ff e0 57 be 16 e1 42 3e dd 35 11 3d
       -0.08034546 -0.21081923 0.19031176 0.03545176
000350 ee 09 a9 3d 56 3b 8c 3d 38 99 4f bd e3 d6 c2 3b
       0.08253847 0.06847255 -0.05068323 0.0059460266
000360 90 30 79 bc 3a 9f f7 3c 46 b8 dd 3d 2b ad a0 bd
       -0.015209332 0.030227292 0.10826163 -0.07845529
000370 07 92 57 3d 6f 86 11 bd fa 22 2f 3e 54 00 b9 bd
       0.052629497 -0.035528596 0.17103186 -0.09033266
000380 98 74 ef 3d 87 43 1b 3c ee a4 86 3d 22 ae 8f bb
       0.1169216 0.009476549 0.065744266 -0.004384772
000390 a9 49 c7 3c 43 8c b6 bd 0f 37 17 be c5 7c 13 3a
       0.024327116 -0.089134715 -0.14767097 0.0005626197
0003a0 a6 1b 2c 3d c0 cd cf bd d7 f1 2b 3d 65 dc 33 3a
       0.042018555 -0.101466656 0.041978683 0.00068611494
0003b0 a6 09 04 be 59 6f 02 bd 34 a4 20 be 4f 33 6a bd
       -0.12894306 -0.03184447 -0.15687639 -0.057177838
0003c0 68 e8 f0 bd bd 2b b0 3d 1e 03 39 3d 2e 99 99 3c
       -0.11763078 0.086020924 0.04516899 0.0187498
0003d0 ad 44 b5 3c dd 90 f5 bd e2 d9 a7 bd 90 12 85 bd
       0.022127474 -0.11990521 -0.08195855 -0.06497681
0003e0 63 eb e2 bd 2c 7a ac 3d cf 94 c1 bd 1e 11 ba bd
       -0.11080053 0.0842174 -0.09452211 -0.09085296
0003f0 6e f2 18 3e 4f 27 10 bd c0 cc 64 3d 53 a7 8c bd
       0.1493623 -0.035193738 0.055859327 -0.06867852

network_body._body_endoder.seq_layers.2.bias f4 [128]
000000 5c 47 fb 3c d2 59 30 bc e8 8a a2 bb 65 8d e0 3b
       0.030673675 -0.010763602 -0.0049604066 0.006852793
000010 1d 7e 82 3b b6 4a 51 bc dc 58 83 3b 02 8a 26 3c
       0.003982319 -0.01277416 0.0040083956 0.01016474
000020 09 24 32 bc 7c b5 41 b9 b1 c7 92 3c 21 19 bc bb
       -0.010872849 -0.00018473523 0.017917486 -0.0057403003
000030 5f 0c 4a bc 44 a9 9e bc 14 ba 24 3a 88 62 ae bc
       -0.012332051 -0.019367822 0.00062838313 -0.021287218
000040 b5 99 4f 3c 86 38 66 3c 0a 4b f9 3b 08 5c ca 3c
       0.012670924 0.014051562 0.0076078223 0.024702087
000050 cb 12 99 bc da 60 bc bc eb ab 98 3c bc 58 b6 bb
       -0.018685719 -0.022995401 0.018636664 -0.005564777
000060 86 f3 11 3c ff 97 d7 bc 64 b5 d8 3c 0e 90 80 3b
       0.008908158 -0.026317595 0.026453681 0.0039234227
000070 f4 c7 72 3c ad 8a df 3b 95 06 83 3c 9d f9 0a bc
       0.01481818 0.0068219514 0.01599435 -0.008482364
000080 62 8e 39 3b aa d9 62 bb f9 67 1e bb 2f fa 90 3c
       0.0028313627 -0.0034614601 -0.002417086 0.017697422
000090 bf f2 51 bc 90 84 46 3c ed 35 65 3b 13 7e d0 3c
       -0.012814223 0.012116566 0.003497477 0.025450742
0000a0 af 6c 92 3c 38 61 c8 bc 7c 13 93 3b 4c 15 b3 ba
       0.01787409 -0.02446042 0.0044884067 -0.0013662963
0000b0 da fc 19 3c 34 92 9b 3b cf b2 11 3b 7f eb f5 3a
       0.009398663 0.0047476534 0.0022231822 0.00187622
0000c0 6f 24 85 3c 5d 29 42 bc 14 db 20 3a b6 f2 2d 3c
       0.016252724 -0.011850682 0.0006136161 0.010616949
0000d0 36 6e 80 3b 4f 15 c9 3b 76 84 1e ba c2 f9 ae 3b
       0.003919388 0.0061365734 -0.000604696 0.005339832
0000e0 43 3c d9 3b 79 e8 1a 3c ac a9 da bc c9 2d 79 b8
       0.006629498 0.00945484 -0.026692234 -5.9408867e-05
0000f0 b6 08 3c 3c a7 66 18 bc 9d 59 60 3c 60 28 56 3c
       0.011476686 -0.009301818 0.0136932405 0.01307115
000100 5d 59 1c 3c b2 6b 37 3c d2 0a ae 3c 5b 60 88 bb
       0.00954279 0.01119511 0.021245394 -0.004161877
000110 33 7c 5a 3c a7 f0 e7 3b ea b5 45 3c 45 0a 00 3b
       0.013335275 0.0070782485 0.0120672975 0.001953737
000120 fe 72 3b bc fd e6 a2 3c f0 23 9b 3c 2c 1c d1 b9
       -0.0114409905 0.019885534 0.018938035 -0.00039884576
000130 d2 77 b8 b8 ab 38 b2 3b 0c fe cb ba 97 1b 84 3c
       -8.796122e-05 0.0054388843 -0.0015563383 0.016126437
000140 90 4d 37 3c 8a 86 3e bc 8a 7c 7e 3c 86 2b 37 3c
       0.011187926 -0.011628756 0.015532622 0.01117981
000150 3f eb 1e bb e4 13 78 bc 5f 6d 4c 3c 64 82 f0 3b
       -0.0024249104 -0.015141461 0.012477248 0.0073397625
000160 42 05 21 3c dc 39 32 3c 5e ee d7 3b a0 16 6e 3c
       0.009827914 0.010878053 0.006589695 0.014531761
000170 43 4d 83 bc 8a 71 d6 bb 1f 74 9d 3c e0 d9 e1 bb
       -0.016028052 -0.0065442966 0.01922041 -0.006892428
000180 76 ba 1e 3c 42 e3 7a 3c 74 66 dd 3b e8 1a 84 3c
       0.00968801 0.015312972 0.006756598 0.016126111
000190 0a 74 53 bb c4 c0 ef bb 25 fd 68 bb 5c e5 35 3b
       -0.003226521 -0.0073166806 -0.0035551277 0.0027755117
0001a0 6c 97 9a 3c b2 31 f9 3a 26 29 85 bc b3 11 f1 3a
       0.018871032 0.0019012003 -0.016254973 0.0018392116
0001b0 08 aa b9 bb fa b7 f5 bb 36 8e 30 3c 67 f8 cf 3c
       -0.0056660213 -0.0074987384 0.010776093 0.025387002
0001c0 2e fe d7 3b da 75 04 bb 83 88 8d 3c cb 8a 3d 3c
       0.00659158 -0.0020211847 0.017277008 0.011568735
0001d0 68 f6 9f 3c 10 77 48 bc c2 ba ba 3c f0 f8 e6 38
       0.019526675 -0.012235418 0.022794131 0.00011013623
0001e0 f4 95 c7 bb 06 fe e5 39 41 91 c3 3b a3 c0 d2 b9
       -0.006090874 0.00043867546 0.0059682433 -0.00040197847
0001f0 15 59 33 3b 0e f4 87 bb dc 2b 94 3c 2a 55 30 3c
       0.002736633 -0.0041489666 0.01808732 0.010762492

action_model._discrete_distribution.branches.0.weight f4 [3, 128]
000000 70 01 1e 3c b3 ea 5f bc 6e b7 ad 3b 8f f3 03 bd
       0.009643897 -0.0136667965 0.0053014075 -0.032214697
000010 89 50 08 bd e7 15 fe bc d1 7c 43 bd d3 be 6f bc
       -0.03327993 -0.031016303 -0.047726456 -0.014632898
000020 52 26 b0 bc 54 dd 29 bc 70 5d 09 bc d7 e5 85 bc
       -0.021502648 -0.01036771 -0.008384094 -0.016344948
000030 43 ec 43 3c b7 65 1a bd 3d 03 2c 3c b0 40 cd bc
       0.011958185 -0.03769466 0.010498819 -0.02505526
000040 11 f2 bf 3c 42 51 d9 3c 00 48 27 3c d4 d4 2c 3d
       0.023430856 0.026528005 0.010210037 0.042195156
000050 3f df b2 bb 22 02 36 bd 99 cf 06 3c 31 7d 8f bc
       -0.005458742 -0.044435628 0.008228206 -0.01751575
000060 1c 38 e1 3c 87 bf 82 bc 94 e4 b1 3c 10 8f a7 3b
       0.027492575 -0.015960468 0.02171544 0.00511349
000070 c3 8c e5 3c 9a 6e ac bc d1 aa 0a 3d f2 a1 27 bb
       0.028021222 -0.021048833 0.03385431 -0.0025578705
000080 68 05 c8 3b 3c 37 0e bd a3 fc 8a bb 21 67 08 3d
       0.00610416 -0.034720644 -0.0042415424 0.033301476
000090 2a 7d ae bc 00 02 81 bc 00 1f 36 bb 81 fd 26 3d
       -0.021299917 -0.015748024 -0.0027789474 0.040769104
0000a0 32 5c f0 3c df b6 56 bb ff fe 9d bb db 81 64 bd
       0.029340837 -0.0032762808 -0.0048216577 -0.055787902
0000b0 ff ff 02 3d a0 e7 ca 3c 69 48 54 3c b9 ba f8 39
       0.03198242 0.02476865 0.012956717 0.00047441365
0000c0 04 d4 b3 bb 15 f4 0c bd 6f a1 7b bc e6 34 b4 bc
       -0.0054879207 -0.034412462 -0.015358313 -0.02199788
0000d0 f6 30 0c bd 49 2d cd bb 03 a9 06 bd 43 d8 f8 3b
       -0.03422638 -0.006261502 -0.032876026 0.00759414
0000e0 57 5f 69 3c dc 24 45 3b 81 77 99 bb a1 aa d6 bc
       0.014243922 0.0030081784 -0.0046834354 -0.02620441
0000f0 9d da 3e bb f6 97 76 bc 67 10 2d 3c 06 ff 91 3c
       -0.0029122003 -0.015050879 0.010562993 0.0178218
000100 b9 36 5f bb 34 6b 86 bc 64 8c 14 3c b6 d6 2f bc
       -0.0034059717 -0.01640854 0.009066675 -0.010732343
000110 b1 26 66 ba 20 48 12 bd 3d d5 74 3c 38 0e 15 bc
       -0.0008779569 -0.035713315 0.014943418 -0.009097628
000120 f3 17 e3 bc c1 31 fb bc 34 e9 1e 3d 14 a8 8f 3c
       -0.02772138 -0.030663373 0.03879662 0.0175362
000130 5f 49 b3 bc 7a 08 c3 bc da fb ea b9 05 9d b7 3b
       -0.021885572 -0.023807753 -0.00044819602 0.005603435
000140 d1 fe 4a bb d2 1e f4 bc 21 cc ce 3c 98 3f df bb
       -0.0030974636 -0.029799853 0.02524382 -0.006813001
000150 17 da d1 bb 09 e6 82 bc 48 15 d1 bc 1f 51 5b bb
       -0.006404172 -0.01597883 -0.025522843 -0.00334651
000160 37 52 78 bb 9b e8 84 3c 55 3f 46 bc 58 bc c5 3c
       -0.00378908 0.016224196 -0.0121000605 0.02413766
000170 2c 48 16 bd d3 bd 3b bd b7 c4 05 3d 7c 3f 33 bd
       -0.036689922 -0.045835327 0.032658305 -0.043761715
000180 53 41 5d 3c cb 55 c1 3a 51 35 00 bc ec bc da 3c
       0.013504344 0.00147503 -0.007825212 0.026701413
000190 dd 10 36 bd eb 18 67 bc 02 ba ec bb d0 d7 f7 bc
       -0.044449676 -0.014105062 -0.0072243223 -0.030254275
0001a0 9e d3 23 3c 39 8d 32 bc b4 02 2b bd cd b8 92 bc
       0.009999184 -0.010897928 -0.041750625 -0.017910386
0001b0 68 6a 61 bc 11 f3 22 bc 17 91 95 3c 60 14 d5 3c
       -0.013758279 -0.009945647 0.01825766 0.026010692
0001c0 05 76 32 3c d7 33 63 bd b8 75 00 3d 12 ee 2f 3c
       0.010892396 -0.05546936 0.031362265 0.010737913
0001d0 bc a2 0f 3d 60 e5 ef bc ca a8 ef bb 15 5d 08 3d
       0.035067305 -0.02928418 -0.0073138224 0.033291895
0001e0 cc c2 12 bd ff b0 eb bb 03 23 34 3c 7d 66 31 bc
       -0.035830304 -0.0071927304 0.010994676 -0.010827658
0001f0 81 83 b3 3b a9 89 ba bb 80 91 d9 3c 8b 3e 2d 3c
       0.005478323 -0.00569268 0.026558638 0.010573993
000200 4f eb c6 3c 41 52 e6 bb 49 e5 1f bb 5d aa a9 bc
       0.024282126 -0.0070288484 -0.002439814 -0.020711118
000210 de cc ca bc 62 dd 0c 3d e1 fe eb bb 9b 48 db bc
       -0.024755891 0.034390815 -0.007202015 -0.02676802
000220 52 e0 09 3d 84 0a f6 3c 66 9a eb 3c 0c a1 06 3d
       0.033661194 0.030034311 0.028760146 0.03286843
000230 3f bd 41 3b e0 e9 a1 3c 9a 1b a7 bc 52 15 20 3c
       0.0029562262 0.01976484 -0.020398904 0.009770708
000240 c2 d5 08 bd a1 3a 85 3c 04 90 d6 3c 91 8d 06 bd
       -0.03340698 0.016263308 0.026191719 -0.032849852
000250 f0 8e bf 3c 2a 1e 10 3c 20 ad 29 3d 8e 8b 97 39
       0.023383588 0.008796254 0.04142487 0.0002890494
000260 8b 8f c5 bc 9c 6d 75 3c 01 43 1e bd 87 86 73 3c
       -0.024116298 0.014979746 -0.03863812 0.014863617
000270 81 b8 b1 3c 26 ba 1a 3d bc 29 2d bd 4e 1c 41 bc
       0.021694424 0.03777518 -0.04227613 -0.0117865335
000280 66 87 b5 bc a6 6c 90 3b 4b 35 b4 3c bb 29 91 bb
       -0.02215929 0.004407483 0.021998068 -0.0044300235
000290 06 b8 66 3c 08 fd 5a 3c 2a 12 cf bc e0 0c 9a 3c
       0.014081961 0.013365991 -0.025277216 0.018804967
0002a0 b6 7e b8 bb f2 e6 59 3c c9 2d aa 3c 70 d0 a6 bc
       -0.0056303395 0.013299691 0.020773785 -0.020363063
0002b0 7a 4e 09 bd e8 f0 d9 ba 32 5d 9b ba 1c 42 8f 3b
       -0.033522107 -0.0016627582 -0.0011853336 0.0043718945
0002c0 4d e6 10 3d 7b 5a d6 3c f2 cd ed 3c 7f bb 20 3d
       0.035375882 0.026166191 0.029028866 0.03924131
0002d0 55 29 19 3d ae 0d c4 3c 0a e8 6e bc 0d c9 0c bd
       0.037392933 0.023932304 -0.01458169 -0.034371424
0002e0 d8 85 2d 3c 56 ef 0b 3d a0 bf 37 bc 27 24 7e 3c
       0.010590993 0.034163795 -0.011215121 0.015511549
0002f0 ed 98 0b 3d 7f 10 b6 3c 49 78 40 3d 23 99 e0 bc
       0.03408139 0.022224663 0.046989713 -0.027416771
000300 7f bc 2c 3d c9 bc 0a bd 74 58 ed bc b7 39 97 bc
       0.04217195 -0.033871446 -0.028972842 -0.018460138
000310 18 47 b6 bc ae ee b8 bc e7 48 03 bd 53 11 f5 3b
       -0.022250697 -0.022574749 -0.032051947 0.007478872
000320 6e 6b 60 3c 34 2c 27 3d 7e eb d1 ba c9 51 06 bd
       0.013697488 0.04081364 -0.0016015617 -0.03279284
000330 c1 4f d6 3b 5e ad 4e 3d 87 f1 97 3b 5e e1 9e bc
       0.006540269 0.050458305 0.0046369466 -0.019394573
000340 c3 6a 0b 3d ab 54 a5 3c 0e b1 2e bc 37 2b 45 3d
       0.034037363 0.020181974 -0.01066233 0.048136916
000350 f2 33 28 bb df aa ca 3c b4 12 4a 3d bb 08 f9 3c
       -0.0025665727 0.02473968 0.049334243 0.03039967
000360 59 73 8b bc 55 3b ef 39 46 97 8b bc 32 24 18 bd
       -0.017022775 0.00045629838 -0.017039906 -0.037143894
000370 33 be 84 3c 60 43 46 bc bd f8 61 3a 49 5a 01 bc
       0.016203975 -0.012101024 0.0008620134 -0.007895061
000380 46 be 12 bd fb 87 96 3a 2f 11 09 3d 53 c3 44 3b
       -0.03582599 0.0011484617 0.033463653 0.003002365
000390 cf c3 8e bb ea 66 7b 3c f5 fd 1a 3d 6c b1 8f 39
       -0.0043568383 0.015344361 0.03783985 0.00027407275
0003a0 0c 5e aa 3c 25 b8 22 3d ce 1f 9a 3c ba f4 b9 bc
       0.020796798 0.039726395 0.018813994 -0.022699703
0003b0 89 c9 c4 3c 59 7a 33 3d b3 0a 90 bc 32 5a 90 bb
       0.02402188 0.04381785 -0.017583227 -0.0044052834
0003c0 1f 2f 6a bb 4e 12 8a 3c 02 2f 0c bb 53 23 c6 bc
       -0.0035733653 0.016854431 -0.0021390324 -0.024186766
0003d0 5e 67 09 3b 34 91 48 3c 88 e7 92 bc 50 cb bb bc
       0.0020966153 0.01224165 -0.017932668 -0.022924095
0003e0 9b 8a f2 bc 6d ce a3 bc c9 63 3d 3c 4a 61 b6 3c
       -0.029607108 -0.019995892 0.011559435 0.022263188
0003f0 c9 93 09 bd ac ec 39 3c 16 e8 01 bc ce 8a a2 bc
       -0.033588205 0.011347931 -0.007928869 -0.019841578

action_model._discrete_distribution.branches.0.bias f4 [3]
000000 b7 94 b1 3c a4 08 dd bb d1 df 84 bc
       0.021677358 -0.006745415 -0.016220005

action_model._discrete_distribution.branches.1.weight f4 [3, 128]
000000 23 9a cd bb 63 d1 e5 bc 15 f2 ff bc 4e 47 32 bd
       -0.006274478 -0.028053945 -0.031243363 -0.043525033
000010 75 57 e7 bc 65 a4 d1 b9 32 1a 1c bd 11 2a f9 bc
       -0.028239945 -0.0003998607 -0.03811092 -0.030415567
000020 04 60 9a 3c 40 99 72 bb 96 99 df 3c 45 65 ae 3c
       0.018844612 -0.0037017614 0.027294915 0.021288523
000030 e7 00 2a 3c 67 62 30 bc 3b 65 01 3d 94 06 fa 3b
       0.010376192 -0.010765648 0.03159068 0.0076301787
000040 59 79 32 bc c7 6a c6 bb a8 fb 3e bc 80 69 aa bc
       -0.010893189 -0.0060552093 -0.011656679 -0.02080226
000050 52 33 7e 3c 0b 06 09 bc e2 99 f3 bb f2 30 a4 bc
       0.015515165 -0.008363257 -0.0074341157 -0.02004287
000060 c8 aa 08 bc e5 68 c0 3c 72 08 a4 3c 69 3c 94 3c
       -0.008341499 0.023487518 0.020023558 0.018095212
000070 55 fd 8f bc f5 9c 01 3d c5 53 0a bb 25 5c c3 3c
       -0.017576853 0.031643827 -0.002110706 0.023847649
000080 80 66 fa 3c ff cb 20 bb cf 03 da 3b c6 b1 18 b9
       0.030566454 -0.0024535654 0.006653286 -0.00014562075
000090 bd 25 78 3c 8d 7b f0 3c 38 3d 11 3c 2d 3d 53 bc
       0.015145716 0.029355789 0.008864693 -0.012893003
0000a0 c1 d4 a1 ba c9 af af 3b 0a 5f bf 3c 1b 31 8b bc
       -0.0012346731 0.0053615314 0.023360748 -0.016991189
0000b0 40 27 bd bb 78 49 1e 3c e1 49 b3 3c 4d 37 4d 3c
       -0.005772501 0.009661071 0.021885814 0.012525392
0000c0 c1 aa 45 3c fa 5c f1 3c 42 a8 cb 3c 83 4f 21 3d
       0.012064637 0.02946328 0.024860505 0.03938247
0000d0 89 66 d3 3c 52 3c 98 3c 81 4f 41 bb a0 9b a2 bc
       0.025805729 0.01858345 -0.002949685 -0.019849598
0000e0 88 6f 15 3c 90 e2 99 3c 2d b4 39 3c 92 c2 e7 3c
       0.009120829 0.018784791 0.011334461 0.02829102
0000f0 c8 3b 45 bb 04 78 81 3c 0b 1c 00 3d 94 b7 b1 bc
       -0.0030095447 0.015804298 0.031276744 -0.021693982
000100 df ca 92 bb 07 db d4 bc 22 1b 50 bb ea aa f7 bc
       -0.0044797505 -0.025983347 -0.0031754454 -0.030232865
000110 0d a7 b8 bc 9e ed 16 bc 05 aa 0b bd 78 a8 c8 3c
       -0.022540594 -0.009211926 -0.03409769 0.024494395
000120 ea 2e cd 3c f0 20 a2 3c 51 5b 81 3c 4b 87 14 3c
       0.025046784 0.019791096 0.015790613 0.0090654595
000130 3d ad 63 3b 5c b9 ea 3c 75 12 63 bc b4 dc 23 bd
       0.003474071 0.02865284 -0.013859381 -0.0400054
000140 50 91 3d 3d b1 52 a4 3c 85 83 91 3b f8 98 ce 3b
       0.04628116 0.020058962 0.004440727 0.0063048564
000150 98 69 ea bc bf 42 1f bc d4 f9 a3 3c a1 b0 89 3c
       -0.028614804 -0.009720503 0.020016588 0.016807856
000160 38 29 1e bd 3a 03 b3 bc 79 d6 22 bc c7 7c e8 bc
       -0.038613528 -0.021852124 -0.00993883 -0.028379811
000170 e8 69 26 3d 82 f3 f5 bb 72 fd 43 bb e7 8c 93 bc
       0.040628344 -0.007505835 -0.0029905704 -0.018011523
000180 ab 9e d8 3a ba fa 0b 3a 3f d6 d6 3c e3 b3 3a 3c
       0.0016526779 0.00053397904 0.026225207 0.011395427
000190 bf f8 74 bb a4 6a 84 3c df 0d 91 ba 6c fa a3 3c
       -0.003737971 0.016164131 -0.0011066756 0.020016871
0001a0 a6 41 79 3b a3 72 8d 3b d0 36 fe bb 15 60 b9 bc
       0.0038033514 0.0043166443 -0.007757999 -0.022628823
0001b0 86 ca 10 3d 31 a5 b3 bb 96 ec 58 3b 5b 32 32 3c
       0.03534939 -0.005482339 0.00331 0.0108762635
0001c0 ec ac f5 3b a1 46 61 3b fb 06 a6 bc 52 00 b1 bc
       0.0074974205 0.0034374373 -0.020267 -0.021606598
0001d0 31 fc 8b 3b b2 f9 9b bc 8c 40 c4 bc 33 d4 75 3c
       0.004272007 -0.019039962 -0.02395656 0.0150042055
0001e0 35 fd 6f bc a9 21 9b bc 9a 95 c1 bb 46 eb 10 3d
       -0.014647772 -0.018936949 -0.0059077265 0.035380624
0001f0 fb ca b3 3c e5 f2 59 3b 43 a8 2e bd bb fd 13 3a
       0.021947375 0.0033256349 -0.042640936 0.0005645414
000200 a7 90 08 bb 4e 91 b6 3c 8e 94 fe 3b 5a 48 08 3c
       -0.0020838173 0.022286084 0.007769174 0.008318031
000210 b0 c2 9a 3c 83 8a 7d 3c a8 a4 5f 3c b6 ab f4 3a
       0.018891662 0.015474918 0.013650097 0.0018666897
000220 31 07 a4 bb 6d 30 ea 3c 70 6e 84 bc c7 6c 36 bc
       -0.00500574 0.028587544 -0.016165942 -0.011134333
000230 1d 90 b7 3c 2f ca b0 3b 25 0f ca 3b b0 df ab 3c
       0.022407586 0.005395196 0.006166356 0.020980686
000240 d3 9a ce bb 9b 8d eb bb 28 6d 31 3c 43 c3 ec bb
       -0.0063050776 -0.0071885115 0.0108292475 -0.0072254254
000250 c6 a1 ec 3b 71 0a b6 3c 5d b3 7c 3c aa d5 11 3d
       0.0072214333 0.022221776 0.015423623 0.035604157
000260 ef 82 12 3c 8c 9b 5a bc b7 fe 08 bc d5 42 6f bc
       0.00894235 -0.013342749 -0.00836151 -0.014603336
000270 2c ca 57 3c 8f 2b ef bc 9e 15 2b bb 77 6a aa ba
       0.01317076 -0.029195575 -0.0026105414 -0.00130017
000280 07 70 85 bc be 38 f0 bb c6 7a 2c 3c 25 da 2a 3c
       -0.01628877 -0.007330983 0.010527318 0.010427986
000290 8b 3f 97 bb fc 7a 3a bd 12 c6 5e bc 36 a0 50 bb
       -0.004615729 -0.045527443 -0.013597028 -0.0031833774
0002a0 21 b7 88 3b b5 b8 90 bc e8 ed 3c 3c ca f9 d8 bb
       0.0041722213 -0.0176662 0.011531331 -0.006621574
0002b0 9c 00 33 bb d1 bf 61 bb 12 4e 01 bc 4a f5 d7 bc
       -0.0027313596 -0.0034446607 -0.007892149 -0.02636208
0002c0 dd 09 40 bc 15 75 01 bc 1d 56 9a ba 5b e0 0c 3c
       -0.011721102 -0.00790145 -0.0011774931 0.008598412
0002d0 a5 a9 69 bc 06 f7 0d bd ec 86 dc 3c 60 2c 5d 3c
       -0.014261638 -0.034659408 0.026919805 0.013499349
0002e0 dc 77 ac 3c cf d4 31 3b b9 19 f3 3b c7 4f 13 bc
       0.021053247 0.00271349 0.007418838 -0.008991188
0002f0 4b 4a c7 3a 2c 8c 41 ba 4f 25 93 bc aa 04 3a 3b
       0.0015204636 -0.0007383253 -0.017962126 0.0028384128
000300 44 22 a5 38 d8 8e 32 3c 84 36 13 bd f9 c7 b4 3c
       7.8741956e-05 0.010898314 -0.035940662 0.02206801
000310 67 fc a2 3c 67 57 a2 39 c6 84 30 3c 71 92 04 bd
       0.019895745 0.00030964168 0.010773843 -0.03236622
000320 07 0d 2b bb 43 2e 54 bc e3 2c 5b 38 49 81 3c 3c
       -0.0026100294 -0.012950483 5.2255473e-05 0.011505433
000330 b4 65 3b 3c ac b5 65 bc a5 74 3c bb 7b f7 4c 3c
       0.011437822 -0.014020365 -0.002875605 0.012510176
000340 c4 6f 64 bb e7 e5 a7 bc a6 a0 97 39 37 eb 71 3c
       -0.0034856657 -0.020495368 0.00028920657 0.014765552
000350 b6 7c 73 3c 07 a6 9d 3c c7 04 37 bc cc 19 81 bc
       0.014861276 0.019244207 -0.011170573 -0.015759371
000360 38 21 ba 3c 72 e6 cc 3c d2 77 d8 3b 02 a2 b2 3c
       0.022720918 0.025012229 0.0066060806 0.021805767
000370 15 f3 11 bc 0e 80 26 bc a4 c1 1a 3b 40 a9 c5 3c
       -0.008908053 -0.010162367 0.0023613954 0.024128556
000380 4e f5 6a 3b 09 b4 f8 bc 9a dd 98 bc a0 8d 08 bc
       0.003585178 -0.030359285 -0.018660355 -0.008334547
000390 d3 49 81 bb a3 4d e1 3b 0f 71 7e bb 9e 55 de bc
       -0.003945568 0.00687571 -0.0038824712 -0.027140435
0003a0 35 e7 50 3c 08 9f bc ba f1 b6 62 3a ec 1d f7 3b
       0.012750437 -0.0014390657 0.0008648476 0.0075414088
0003b0 22 9d 31 bc 37 21 26 3d 32 03 6b bc 7d 29 11 bc
       -0.010840686 0.04055902 -0.014344024 -0.008859989
0003c0 7a 52 5a bc 0e ef 60 bb 21 78 df 3c 5d 29 6d bb
       -0.013325328 -0.0034322175 0.027278962 -0.0036187985
0003d0 4d 4b 38 3c 78 e4 b5 3c 6f 0f ce 3b b6 f5 8e ba
       0.011248422 0.022203669 0.006288461 -0.0010906968
0003e0 c5 29 43 3c c9 a6 fe 3b 3d d1 cd 3c 04 e4 bd bc
       0.011911814 0.007771347 0.025124187 -0.023180015
0003f0 da 9c 6d bc f7 b5 8d 3c 58 45 8e 3c a6 5f 97 3a
       -0.014502728 0.017298682 0.01736705 0.0011548891

action_model._discrete_distribution.branches.1.bias f4 [3]
000000 7b 23 3c 3b ca 10 6f bc 64 f3 42 3c
       0.0028707671 -0.014591405 0.011898849
