Assets/results/T2/CarDriver/CarDriver-934688.onnx (onnx, 192065 bytes, 9 tensors)

discrete_act_size_vector f4 [1, 2]
00000000: 0000 4040 0000 4040
3.0 3.0

network_body._body_endoder.seq_layers.0.weight f4 [128, 231]
00000000: 634e db3c 1609 d9bc 7c86 00be de65 29be
00000010: 66e4 2e3c 6847 a23d 4699 adbd 3050 743d
00000020: d2fe 7d3d 4472 3f3d 9078 21bd 663c 31bc
00000030: 37c6 293d 5de7 2abd 7bf7 b4bc e6fe c1bc
00000040: 98ea 963d 6a02 4dbd 5420 69bd 0f3e 443d
00000050: 9795 3f3d 9d84 4c3d 9483 963d 824b c8bd
00000060: 373a 88bd 72af 1a3e e804 fd3c b896 253d
00000070: 1f34 bbbc d092 12bd a759 8bbd ae5e 80bc
00000080: 5b9a d73d fbdd 00bd 354a 653c 4e37 993d
00000090: d24b 38be 8e33 9dbd f034 6dbd f4d5 dd3d
000000a0: cc93 79bd ed6e 83bd 834e 9f3d 791d b9bd
000000b0: efe7 88bd f4f9 253d fa97 a6bc a2e9 683d
000000c0: 6670 963c 6f9f 363d 89c4 e73c a911 673d
000000d0: 6a8b 09bd c7d0 843d 99f7 ec3d f8be 713d
000000e0: 7c80 2abd 880c 943c 9885 033d e341 2c3e
000000f0: ff37 3e3d ddf6 05bc ce18 61bd 3f5d 07bd
00000100: 6a42 51bb 29cd bf3b 95b0 5e3c 551c 493d
00000110: 3b0c 86bd a338 4ebd 8c07 1cbd e3dd 053e
00000120: 3848 823a 685a 8dbd 9472 663d 9248 d83d
00000130: 659f f23c a587 87bd 985f 66bd 8ddd 49bd
00000140: 089c 263d 5856 0f3d 315e 20bd d8c0 17bd
00000150: 1083 8b3c bb6e 553b 6a6e d5bd 02b4 823d
00000160: 0d72 183e 0695 acbd 6675 d53d ae00 4abc
00000170: 2c6a 133c 71d3 dd3d 6bf7 a03d b36d b63b
00000180: f97b 643c 6af0 c23d b093 5c3c e374 9cbd
00000190: a702 b03d 25a6 cb3c 3fdd 723d e6fe 263c
000001a0: 62f5 46bd 22ae bc3b 728c c3bc 8816 ac3c
000001b0: 5c93 72bb f3a9 b13c a7d7 bdba 5c05 60bd
000001c0: 56de 053a d76c b33d a089 ac3b 390e 003d
000001d0: d495 863d c311 44bd a4b8 a6bc 5b10 cdbd
000001e0: 68c0 b23c 48f7 1a3a 1e15 54bc 7de4 793d
000001f0: 0248 093d c67b 0fbe fc3c 5cbd adb9 7bbd
00000200: 48d8 f5bd 9542 c63d b60a 45bd 62dd 9bbd
00000210: e917 063d ee66 853d 5440 253e cb91 97bc
00000220: 6c11 5ebd efb8 be3d 3fbc 313d 3f1b f0bc
00000230: 8642 9ebd 1636 10bd 2450 2ebc 1b29 473d
00000240: 39c1 f9bc f5f6 d1bd a2c8 323c e38e a13c
00000250: f050 36bd 8c0d 843c 1e4d 17bd 3ecf 123c
00000260: e141 bb3c 6535 cebd d574 02bd a957 893c
00000270: b185 8fbd 2c83 883d c9f4 7b3d 1f41 eabc
00000280: bf8d e8bc 2220 50bc 1a16 0abd f5c1 d9bd
00000290: 9d24 eb3d 3220 25bd 55f3 af3d 3678 623d
000002a0: aa9b 08bd cd56 c73c cba9 efbd a7a2 80bb
000002b0: 2877 00bc 4188 573d cc8f 1ebd 8a30 1bbc
000002c0: d13a 163e 1021 37bd 123b 673d 97a7 a93d
000002d0: 9f3e b7bd 1c1d c4bd 5d88 11bd 046b d5bc
000002e0: b81b bdbc e76d 1cbc 6d87 0c3e 90d0 f7ba
000002f0: 101c 933d 899e 94bd 58d3 e33d 0e8d 083d
00000300: cce0 2abd 8059 b4bb 9477 fc3c 1282 b2bb
00000310: 846c 113c 86d4 c83d 6c82 34bd 07c6 92bd
00000320: 1152 ef3c f3fd 5d3d 4cf5 b2bc 5528 acbd
00000330: bf8e 943d 0326 41bd 5c2d bd3d cb0c 3c3d
00000340: bddd bebd 505c 04be b9ed f93c 9721 173d
00000350: deb3 5f3b fdcf b3bd 4e19 9b3d 9a46 b139
00000360: ee6d 9d3b 7e3c ecbd ef47 a13d 72cb 883d
00000370: 7de3 413d d836 dd3d 9c34 1cbe fa89 b23b
00000380: b2e6 d2bc 0302 433c 5c01 f23c c514 483d
00000390: 859a 09be 65c8 89bd 8e12 cdbd 2653 643d
000003a0: 93f0 d9bc 6fa7 153c 07ba a1bd af3e 82bd
000003b0: abc8 713c 630b c8bd 3474 943c b798 80bd
000003c0: c76f e5bc 65fc 13bc 8625 d63c 3837 2f3c
000003d0: c750 9fbd dfd4 da3d 6636 e23c aca7 9f3d
000003e0: 08fc 13be 6cc9 163e 4f07 433d 06e9 3dbd
000003f0: a7c2 06b9 0941 3cbd 8306 efbd 5ee4 3cbc
0.026770776 -0.02649359 -0.12551302 -0.16542765 0.010674572 0.07923776 -0.084765 0.059646785
0.062010594 0.04673983 -0.039421618 -0.010817623 0.041448798 -0.04172455 -0.022090664 -0.023681115
0.07368964 -0.05005113 -0.056915596 0.047910746 0.04677352 0.049931157 0.07349315 -0.09780027
-0.066517286 0.1510599 0.030886129 0.04042694 -0.022852002 -0.035784543 -0.06804209 -0.015670147
0.10527488 -0.031461697 0.013994743 0.07481252 -0.17997673 -0.07675849 -0.057911813 0.10831824
-0.060931966 -0.06417642 0.07778647 -0.090388246 -0.06684863 0.040521577 -0.02033614 0.056863435
0.018364143 0.04458564 0.028291957 0.056413326 -0.03358022 0.064851336 0.11570663 0.059020013
-0.04162644 0.018072382 0.032109827 0.16822009 0.04644012 -0.008176533 -0.054955296 -0.03304791
-0.0031930455 0.0058533144 0.013591905 0.049099285 -0.065453015 -0.05034698 -0.038093135 0.13072924
0.0009939736 -0.06902009 0.056261614 0.10560717 0.02961702 -0.06617669 -0.05624351 -0.049283553
0.040676147 0.034994453 -0.039152328 -0.037049145 0.017030269 0.0032567221 -0.104214504 0.0638199
0.14887257 -0.084268615 0.104227826 -0.012329264 0.008997481 0.10831345 0.07859691 0.0055672764
0.013945573 0.095185116 0.013462946 -0.07639482 0.08594256 0.024859497 0.059293028 0.010192608
-0.04857386 0.005758063 -0.02387068 0.021006837 -0.0037014103 0.021687483 -0.0014483825 -0.05469261
0.0005106678 0.08760994 0.0052654296 0.031263564 0.06571546 -0.0478685 -0.020351715 -0.10012885
0.021820262 0.00059114816 -0.012944488 0.06100892 0.033515938 -0.1401206 -0.053769097 -0.06145637
-0.12004143 0.09680668 -0.048105918 -0.07610585 0.032737646 0.06513773 0.1613782 -0.018502137
-0.054215834 0.09312617 0.043392416 -0.029309867 -0.07727532 -0.03520783 -0.010639224 0.048623186
-0.030487644 -0.102521814 0.010912092 0.019721454 -0.04451078 0.01611974 -0.03693878 0.008960543
0.022858562 -0.10068778 -0.0318497 0.016765432 -0.070079215 0.06665644 0.061512742 -0.028595505
-0.028387902 -0.012702974 -0.033712484 -0.106326975 0.11481593 -0.040313907 0.08591334 0.055290423
-0.033351578 0.024333382 -0.11702307 -0.0039256397 -0.007840909 0.052620176 -0.038711354 -0.009472022
0.14670874 -0.044709265 0.05645282 0.08283918 -0.08947491 -0.09575865 -0.035530437 -0.026052006
-0.023084506 -0.009547687 0.13723536 -0.0018906761 0.07183087 -0.07256801 0.11124295 0.033337645
-0.04171829 -0.0055038333 0.030818738 -0.0054476345 0.00887597 0.09806161 -0.044069692 -0.07166677
0.029213937 0.054197263 -0.021845482 -0.0840613 0.07253789 -0.04715539 0.09237167 0.045910638
-0.09319637 -0.1292584 0.030508863 0.03689727 0.0034134309 -0.08779905 0.07573186 0.00033812673
0.0048043644 -0.115349755 0.07875048 0.06679429 0.04733609 0.10801476 -0.15254444 0.005448577
-0.02574477 0.011902335 0.029541664 0.048847932 -0.13437851 -0.06727675 -0.10013305 0.05574336
-0.026603973 0.009134158 -0.0789681 -0.06359612 0.014757316 -0.09767797 0.018121816 -0.06279128
-0.028007401 -0.0090323435 0.02614094 0.0106943175 -0.07779079 0.10685133 0.02761383 0.07795653
-0.14451611 0.14725274 0.047614392 -0.046364807 -0.0001285175 -0.04596046 -0.11671164 -0.011529056

network_body._body_endoder.seq_layers.0.bias f4 [128]
00000000: 38a0 313c 269c 302c 1330 1c3c 5ec8 36bc
00000010: 8240 c1bb 6c82 053c d233 173b f80f cd3b
00000020: 48e6 56bb 3aef 8cbb 8bc3 1cbc 7d2b 893b
00000030: fb51 343b cdf5 5fb7 e356 c511 1607 ccbb
00000040: 0000 0000 a95d 85bb 7617 0a3c 9bb1 22bc
00000050: 6768 e7b9 3322 20b0 0000 0000 d510 a6bb
00000060: ab73 3bb1 ad29 1bbc e33b 78b9 7e10 1dba
00000070: 2119 b83b 4e68 7dbb f818 88a5 14a6 241d
00000080: a3af 3635 0054 1814 ff01 1bb9 0000 0000
00000090: 9720 163c 8f4e 0328 2b63 2a1b 75db bf3b
000000a0: c0f2 622b 5ece 970c 77dd 74bb 0592 383b
000000b0: 4e1d ed25 0000 0000 6109 f4bb bbf6 af32
000000c0: 509c 073c 5af0 0a3c ffaf d9a3 90f3 993b
000000d0: 0000 0000 8130 fc3b ef11 5b3b fd1c 38ad
000000e0: 23b0 32bc 2c37 3b3b 68ce ea3b e34e 2c3c
000000f0: 1e42 eeb2 5ad0 c5bb 87a4 6eaf 56a5 cabb
00000100: 78a7 c739 caa1 f11d 353c a43b 0000 0000
00000110: 0000 0000 7793 b4ba 0000 0000 2a28 083c
00000120: 2ccd 253c 8b46 8a2b 5e98 0991 0077 5908
00000130: 3524 6f3b 0000 0000 8406 9ebb ccac 06bb
00000140: 1866 8921 0e91 6fbb 6970 64bb a5df 203c
00000150: eb48 4ebb 848f 013c 01e9 f80d dc18 301b
00000160: eedc a2ba 40d7 003c b948 47bb 86c3 1e3c
00000170: 5684 eabb 06fa fe93 2970 03bc fe01 b3bb
00000180: fa87 823b de7d 5ab7 9492 f59e c0ab e13b
00000190: 667f 6204 3aec 41bb 1e32 bb87 58a2 70b8
000001a0: cc9e 9fbb 0d5a 32ba 0cad ce3b 9969 abad
000001b0: 0000 0000 1d1e 413c 19ab 33bc a1ef 47ba
000001c0: 89c2 5d3b 4ea0 0e3c 6c49 253c 4f23 573b
000001d0: 0000 0000 61d0 b1ba 449f 11bc 32a5 73bb
000001e0: 7ab8 b996 58cc a5b8 f0d2 79bb d014 11bc
000001f0: 89d7 9ebb efc4 073c 7432 d83b 4512 263c
0.010841422 2.5097784e-12 0.009532946 -0.01115617 -0.0058975825 0.008148771 0.0023071659 0.006258007
-0.0032791067 -0.004300979 -0.009568105 0.0041860924 0.0027514684 -1.3349066e-05 3.1134668e-28 -0.0062264306
0.0 -0.004070003 0.008428445 -0.00993004 -0.0004413754 -5.825626e-10 0.0 -0.0050679245
-2.727783e-09 -0.0094703855 -0.00023673433 -0.0005991532 0.00561823 -0.0038666907 -2.360916e-16 2.179108e-21
6.805587e-07 7.690605e-27 -0.00014782696 0.0 0.009163043 7.2889955e-15 1.4094113e-22 0.0058550187
8.062821e-13 2.3389436e-31 -0.0037363449 0.0028163206 4.1132804e-16 0.0 -0.007447407 2.0484881e-08
0.008277014 0.008480156 -2.3601724e-17 0.0046982244 0.0 0.007696212 0.0033427437 -1.0465626e-11
-0.010906252 0.002856682 0.007165719 0.010516855 -2.7736913e-08 -0.0060368003 -2.1704426e-10 -0.0061842604
0.00038081012 6.3959455e-21 0.00501206 0.0 0.0 -0.0013776858 0.0 0.008310357
0.010119718 9.825069e-13 -1.0854346e-28 6.5440946e-34 0.0036490087 0.0 -0.004822554 -0.0020549772
9.310505e-19 -0.0036554965 -0.003485704 0.009818946 -0.0031476568 0.007907752 1.5340274e-30 1.4566411e-22
-0.0012425461 0.00786382 -0.0030408336 0.009690171 -0.007156889 -6.4365157e-27 -0.0080223465 -0.005462884
0.003983495 -1.3023118e-05 -2.6001007e-20 0.0068869293 2.662467e-36 -0.0029590265 -2.816609e-34 -5.7371653e-05
-0.004871225 -0.000680358 0.00630725 -1.9487344e-11 0.0 0.011786965 -0.010966086 -0.0007626955
0.0033837876 0.008705212 0.010088306 0.0032827442 0.0 -0.001356613 -0.00888807 -0.0037177322
-3.0004783e-25 -7.905875e-05 -0.0038120113 -0.00885506 -0.004847471 0.008286699 0.0065978114 0.010136192

network_body._body_endoder.seq_layers.2.weight f4 [128, 128]
00000000: 95ea 70bd 843b b33d 8c6c 02bc f031 6fbd
00000010: 5700 173d 1244 a4bd 7f89 f93c 589b 853d
00000020: efd1 88bd 7f57 fb3d 92a4 69bc ba20 203d
00000030: 3d73 24be 9fc9 d7bd b180 fcbd 3b5c 533c
00000040: 28ca 48be c19b 433d 9d12 9ebc da9b 0a3d
00000050: 89c6 d83b 3ac5 023e 77e6 02be 0234 293e
00000060: 357b 9d3d 458a d0bc 69b5 013d e606 23bb
00000070: 66fc a7bd 8f40 243e 0c26 36be 3e3a a0bd
00000080: 2170 33bd ecd4 b6bc 2115 7e3d c3af 4a3d
00000090: be9a 763d ed8a 7c3d a585 a93d d03e c1bd
000000a0: caaa a0bd 9081 503d f6a3 91bd 1711 d8bb
000000b0: 4651 8b3e d405 133e ecb5 9bbd 8298 573d
000000c0: e21e 67bd f7e0 21be d873 493e 2bd0 1fbd
000000d0: 2369 b4bb bc90 fdbd ee40 50be 68be 49bd
000000e0: 18e7 1c3d 52a3 633c 95ee 51be e837 f9bd
000000f0: effb 863b 1f09 023c d5e2 cdbd b775 d5bd
00000100: 9ce4 a43c 49c3 623d 6ffb 05bd fbec ad3d
00000110: 5103 083d 8ee7 2cbc af5d a23a a9b7 083e
00000120: 01a1 b73d 2018 1a3e 2ac9 803a fe4f 87be
00000130: 365b 60bd 9ea2 293d 1579 123d 9bb0 9c3b
00000140: 6336 6ebe 945a 39be 37c7 cb3d 7020 dd3d
00000150: 7070 023e 6250 2f3c 5d32 d43c 2601 43bd
00000160: 0023 303e f92e 1f3d 603c 1a3c 09a2 7c3c
00000170: e708 e4bd c9a9 26bd b2dd 5c3d 7315 a73b
00000180: ba61 6e3d 3e16 c3bd 0c95 aebc d7c3 863d
00000190: b0e6 d73d b36d e8bd d3d8 923d fcd3 d53d
000001a0: 488f 8ebd b74e adbd 718a 52bd 5807 fbbd
000001b0: 4d52 713e dedc bdbc b72f 633c 27d9 063e
000001c0: 8c59 10bd 04d8 94be 2aeb 1a3e bce4 37bd
000001d0: 05af 28bd 5f58 0ebc 1fdc 16be b5c5 44be
000001e0: 46e8 913e 275c fe3d f5c9 60bd d740 51bd
000001f0: cdb6 8d3c e0c7 e9bd a7fe aebd b006 8b3d
00000200: 4ce5 bebd 06eb 333e 01a6 e43c 1626 36bd
00000210: e47c 153b 183e 85bc 8ac9 72bb 5676 21bd
00000220: 2d5a 2a3d e846 153e 67cf fc3c c0fb fabd
00000230: b0f3 a83d d6dd ef3d 3a02 f9bc b05c 3dbb
00000240: bba2 98bd 313f 73bd ab85 143e c92b b5bd
00000250: fb76 06bc 6956 81bd a43b 4b3d 5265 f83c
00000260: 3f0d 773d 8aa2 6d3d 2b22 1fbe 9d52 bfbc
00000270: ec37 2b3e b9e6 663c f4f1 b93c ee29 52bc
00000280: d72c b63d 38c3 d1bd e065 2ebd 5dee acbd
00000290: 5dc3 853d 967e c33c 03fa 88bd 4fba 8abd
000002a0: da3e 9a3d ff46 cbbd 54d3 01be 35fb 2b3e
000002b0: 9eca 923d f8f9 26bd 0f61 44bd 600f e4bd
000002c0: 6be1 e53d ad14 2dbe 38e2 39bd bc1e 50bb
000002d0: 1042 dc3d 7f8b a73d cda9 afbd c529 623d
000002e0: f5a1 c23d 7acd 253b 3b5e b23d a543 53bd
000002f0: 9023 bfbd d32b 8dbd 2d9a 2cbe 7dc9 ffbc
00000300: 93d9 b4bc 5330 5abd 8612 6dbd 6d4c c93b
00000310: 93eb 7abd 3674 183c e8d1 86bd 1629 63be
00000320: 2e2f b93d 4723 5d3b f213 123e d423 44bd
00000330: 7533 1cbc 69e7 56bd fe61 41bd 8091 7c3d
00000340: be35 79bd d5dc 8fbd 0878 6b3d cea9 953c
00000350: 7df8 70bd f19d 0dbd 0a9c 3c3e f226 70bd
00000360: 248d 23be 2ec6 02be 766f 00be 9c8c e1bb
00000370: 0236 93bd 8822 163d 9d91 453e 33da 4dbd
00000380: 21eb dd3d 9db2 a53d da1f 72bd 65d0 19be
00000390: f7b2 38be ca7d 12be 7a12 723d 3cb9 04b9
000003a0: b078 183e 1e46 acbb 74f3 95bd d713 fcbd
000003b0: 8d35 71bb 2c53 9bbd c835 1f3d 24f7 833b
000003c0: ad51 75bd da0e 9fbd 0f1f a63d 0ebb 723d
000003d0: 1842 e53d 6742 7cbc 0b7f 643c 47b3 dc3d
000003e0: 9678 ff3d 757a be3d c41b 80bc b218 853d
000003f0: 058e ffbd 202d d3bd babf 0abe e779 c6bc
-0.058817465 0.08751586 -0.00796045 -0.058397233 0.03686556 -0.08020796 0.030461071 0.0652377
-0.06680667 0.12272548 -0.014260428 0.03909371 -0.16059585 -0.10536503 -0.123292334 0.012900407
-0.19608366 0.04775596 -0.019295985 0.033840038 0.006615464 0.12770548 -0.12783228 0.16523746
0.076895155 -0.025456557 0.031667147 -0.0024875938 -0.08202438 0.16040252 -0.17787951 -0.07823609
-0.043808106 -0.022318326 0.06203187 0.049484026 0.060206167 0.061655927 0.08277444 -0.09435809
-0.078450754 0.05090481 -0.07111351 -0.006593834 0.27210444 0.14357692 -0.07603058 0.052635677
-0.056425937 -0.15808474 0.19673097 -0.039016884 -0.0055056973 -0.123811215 -0.20337269 -0.04925385
0.038306326 0.013893919 -0.20501168 -0.121688664 0.0041193883 0.007936745 -0.100530304 -0.10422843
0.02012854 0.05536202 -0.03271049 0.08492466 0.033206288 -0.010553254 0.0012387539 0.13351311
0.08966256 0.15048265 0.0009825577 -0.26428217 -0.054774486 0.04141485 0.035760004 0.004781795
-0.23262934 -0.18100959 0.099501066 0.107972026 0.12738204 0.010700317 0.025902921 -0.047608517
0.17200851 0.038863156 0.009413809 0.015419492 -0.111345105 -0.040689263 0.053922363 0.0050989925
0.058198668 -0.09525727 -0.021311305 0.06580322 0.10542047 -0.113490485 0.07170262 0.104408234
-0.069609225 -0.08462279 -0.05140156 -0.1225726 0.23566552 -0.023176607 0.013866357 0.13168775
-0.03524165 -0.29071057 0.1512877 -0.044895872 -0.041182537 -0.0086880615 -0.14732407 -0.19216044
0.28497523 0.124199204 -0.0548801 -0.051087227 0.01729908 -0.11415076 -0.08544665 0.06788385
-0.09321079 0.17570123 0.027911188 -0.044469915 0.0022810036 -0.01626496 -0.0037046396 -0.039419495
0.041589905 0.1457783 0.030860616 -0.12255049 0.08249605 0.11712234 -0.03039657 -0.0028894357
-0.074529134 -0.059386436 0.14504115 -0.08846242 -0.008207078 -0.063153096 0.049617425 0.03032175
0.060315367 0.058016337 -0.15540378 -0.023354823 0.16720551 0.0140930945 0.02269838 -0.01282738
0.08895271 -0.10242313 -0.042577624 -0.08443902 0.06531403 0.023864072 -0.06688311 -0.06773817
0.07531519 -0.09925651 -0.12678272 0.16795047 0.071675524 -0.040765733 -0.047944125 -0.11135745
0.11224636 -0.16902418 -0.045381755 -0.00317566 0.10754788 0.08180904 -0.08577309 0.055215616
0.09503547 0.0025299476 0.08709379 -0.051578183 -0.09332955 -0.068931244 -0.16855688 -0.031224007
-0.022076404 -0.05326874 -0.057878993 0.006143144 -0.061259817 0.009305051 -0.06583005 -0.22183642
0.09042202 0.003374295 0.14265421 -0.04788573 -0.009533753 -0.052466784 -0.047212593 0.061662197
-0.06084227 -0.07024542 0.057487518 0.018269446 -0.058830727 -0.034574453 0.18418899 -0.05863089
-0.1597181 -0.12770912 -0.12542519 -0.006883217 -0.071880355 0.036654025 0.19293828 -0.05025692
0.10835863 0.080907084 -0.059112407 -0.15020902 -0.1803702 -0.14305797 0.059099652 -0.00012657506
0.14889789 -0.005257382 -0.073218256 -0.12308472 -0.00368056 -0.07584223 0.03886965 0.004027264
-0.059892345 -0.077665046 0.08111393 0.05926042 0.11194247 -0.015396691 0.013946305 0.10776382
0.12474172 0.093007006 -0.01563824 0.06498851 -0.1247826 -0.10311341 -0.135497 -0.02422805

network_body._body_endoder.seq_layers.2.bias f4 [128]
00000000: e32c 280f dce1 d4b1 e4a4 313c 83c1 85bb
00000010: cc6f 1c92 d3a8 4532 d20e 5a26 a4e3 ad3b
00000020: ae5f 6fbb 7549 0dac 9c55 4cbb 773f 819b
00000030: 437b 163c 0845 fc3a 4717 c1ba 9f68 2eb5
00000040: 4fe4 09bc 9209 883b 15c8 303c 5e08 ea32
00000050: aab2 0a29 5b25 9fb4 0b18 478e a563 ba3a
00000060: c4da 36b8 84c3 5a3a 5e8e e3bb ac3d 43a9
00000070: 0000 0000 a7d9 8b32 7f45 cf16 65ca c58c
00000080: 32aa 0820 6d5b 1dbb 9b91 9eb9 a08c 15bc
00000090: cf3e 2dbc 3b1c dead a77e 3c3c 2152 a8bb
000000a0: ccdf 9686 74c1 b1b7 f1fa 00bb 2081 dabb
000000b0: d14a 52bb e61d c73b 6335 5226 29d1 b516
000000c0: f47e 1cbc c2cf 71ba 90ef 0b3c 4894 8f27
000000d0: 2963 7fbb e579 05bc f2cf 15a3 0000 0000
000000e0: 7640 af3b b99e 732d 0b8d c8b5 b72d d01d
000000f0: 1db1 170e b748 9335 32b4 67bb 1e3d 243b
00000100: 7281 a83b 22b7 793b c99d 86a5 71ef 00bb
00000110: 0000 0000 afb2 413c a5f8 a2ba bb76 94aa
00000120: a177 bcad 83e6 213b 1842 e4bb 5790 1d3c
00000130: 9d76 933b 4eb7 563b cf80 31ba 568e f03b
00000140: 64d0 563b d2e4 58bb 28df c2bb 4503 04bb
00000150: 8413 30b7 823d 00b4 d619 42bb 5ee7 f6b9
00000160: 48f9 c2bb 830d 1fb8 b4b8 e9bb 3e42 3b3c
00000170: 5ff7 8894 a295 3f3b 8074 153c e070 c534
00000180: 3b3f b121 5f78 44ba c298 b019 d9a4 37b9
00000190: 243b 1611 7df4 82a6 45c3 c4bb 5df3 153c
000001a0: 8f4e a93b 21c8 21af 8250 193c 1090 d1bb
000001b0: 76c9 99ba 3a30 3fbb 036b d4ba 2612 0c05
000001c0: 9b73 78bb 55d3 d3bb 24b3 b4bb f295 d22a
000001d0: 18dd a10e 2dc7 a8bb 82b3 673b f88b f598
000001e0: 4cea 8cbb b07a 37bb 7537 e0b9 decf 40ad
000001f0: b8fe 02b6 0000 0000 89ad 7f1d 7a8d 5fbb
8.291684e-30 -6.1956893e-09 0.010842536 -0.0040819063 -4.936272e-28 1.1505295e-08 7.565403e-16 0.005306678
-0.0036525535 -2.0078082e-12 -0.0031178957 -2.1382273e-22 0.009184661 0.0019246647 -0.0014731669 -6.4972295e-07
-0.008416249 0.0041515315 0.010789891 2.724499e-08 3.0797122e-14 -2.9643238e-07 -2.454022e-30 0.001422037
-4.3595923e-05 0.0008345174 -0.0069444617 -4.335219e-14 0.0 1.6280707e-08 3.3486512e-25 -3.0474468e-31
1.1575961e-19 -0.0024010793 -0.00030244593 -0.009127766 -0.010574057 -2.5251015e-11 0.011504806 -0.0051367437
-5.675257e-35 -2.1190128e-05 -0.0019680823 -0.006668225 -0.003208805 0.006076562 7.293074e-16 2.9374126e-25
-0.009551752 -0.0009224379 0.008541003 3.985124e-15 -0.0038969016 -0.008146738 -8.12134e-18 0.0
0.0053482605 1.3848194e-11 -1.494221e-06 5.510441e-21 1.8697464e-30 1.0973516e-06 -0.0035355208 0.0025060843
0.005142384 0.003810354 -2.3352214e-16 -0.0019673968 0.0 0.011822387 -0.0012433721 -2.6372467e-13
-2.1426251e-11 0.0024704046 -0.006965887 0.009616933 0.004500224 0.0032763067 -0.0006771208 0.0073411865
0.003277802 -0.0033095372 -0.0059470125 -0.002014355 -1.0494961e-05 -1.1943305e-07 -0.002961745 -0.00047093158
-0.005950127 -3.7921138e-05 -0.007132614 0.011429368 -1.3830061e-26 0.0029233475 0.009122014 3.6776237e-07
1.2010723e-18 -0.00074947433 1.8259672e-23 -0.0001751365 1.1851138e-28 -9.086831e-16 -0.0060047233 0.009152261
0.0051668356 -1.4713965e-10 0.009357573 -0.0063953474 -0.0011733014 -0.0029173032 -0.0016206208 6.586102e-36
-0.0037910703 -0.0064644017 -0.0055145193 3.740754e-13 3.990247e-30 -0.0051506967 0.0035354798 -6.3472348e-24
-0.0043003913 -0.0027996711 -0.00042765928 -1.0960092e-11 -1.9519775e-06 0.0 3.3838685e-21 -0.0034111426

action_model._discrete_distribution.branches.0.weight f4 [3, 128]
00000000: 9d2e 44bc d2bc 6a3c 25b2 36bc 0526 143b
00000010: 35d8 523b 801b 10bc c105 1cbc 2a53 1f3b
00000020: 272a 6c3c b10a 9b3b 9ddb 03bc 87ad a7bc
00000030: fcce d6bb 2434 8cbb 356b 183c db84 8f39
00000040: e140 5cbc e6b4 f3ba c6d8 2dbc c470 093c
00000050: a5f4 093b 2bb8 15bc 0552 d0b9 0a80 cfbb
00000060: 2181 b43c 26ef 98bc 4f8d a83a 1be0 fc3b
00000070: 66a7 b53b a7fc a0bb 7a32 a8bb 17c5 a8bb
00000080: 131c c33b 15d2 fc3a c838 6b3c 058f 06bc
00000090: 8050 063c 02a9 ea3b 3eb2 70bc 93c9 64bb
000000a0: 7ff0 7dbb 49b3 6b3a 97f0 e73b d0f5 04bc
000000b0: 0f2a bfbb 3724 96ba e0dd d43b 5b84 04bb
000000c0: 9243 b5bc 16e2 1f3b 1c49 48bc 1c8b a53b
000000d0: 883d e8bb 3e05 b43b a5df 023c aaa6 79bc
000000e0: 2bb0 3db9 2f24 11bb 77bd 2f3c c0e5 ee3b
000000f0: 889c 9bbc 5f57 0a3c 655e 11bb d5cd 083c
00000100: d7a0 cbbb b1f0 c93b 5fe3 723b e1da 1f3a
00000110: d8d6 a7bb 17ac 83bc ace0 9fba d84b a83b
00000120: 3487 2ebc 76dd 72bb 8344 6bbb 1711 3b3c
00000130: 74fb fb3b f0a7 7fbb b2c8 813b 3a0b b6bc
00000140: 5990 e0bb d658 383b c8aa d6bb c7c4 793c
00000150: 5f79 223c 4846 bbbb f73f 45bb 3375 99ba
00000160: 11fb 5f3c db04 fe3b 7c83 3bba 0676 8cbc
00000170: 087e f1bb 2aa9 1f3b 2d78 0a3b 9d7a bcb9
00000180: 3e64 41bc 85ce 10bc 7a8a 5bbb cab4 b63b
00000190: 4b22 04bb 8ff0 6ebb eb30 d2bb d954 813b
000001a0: 0804 703c 5883 dd3b 5e93 903b 05da 003b
000001b0: 616e 5e3c 6e26 08bc 6e65 063c f4f5 493c
000001c0: 0c48 e4ba c90f 51bc 9832 21ba 2731 4fb9
000001d0: 6d7c 48bc db46 f3bb 3e7a d4ba c435 04bc
000001e0: 4f5c 98bb 4969 d4ba da01 543a 9150 a33b
000001f0: 5213 65bb b27a cfbb 66c9 a13b 7a23 093c
00000200: 13b4 1b3a 7ba3 a7bb 2d84 58bc 298f 88bb
00000210: d4ab 173c 1c7e 72bb d33c 7a3b 91eb 38bc
00000220: 2d69 823a d3a7 dbba 245d 1a3b 20f0 13bc
00000230: 2cc7 b5bc aeae 933c bcd5 fe39 fb50 c1bb
00000240: 77bc ff3b ddc4 9abb e0ff 5bbc 5417 3d3c
00000250: aa09 d0ba 96a5 193a 58ca d0bb 231c f63a
00000260: 3be8 0e3b c86e f1bb 3197 afbb 8942 873b
00000270: 7bd0 24bc 841f 86bb 1bae b6ba fd60 47bc
00000280: 9b6c 033a 5d4a c9bb 5c2b 553b dbc4 823b
00000290: 9968 ba3b cc71 623b 97d0 dfb9 1323 033c
000002a0: ae03 473c d381 9f3c 66ad bb38 c15b e3bb
000002b0: ed97 d4ba b637 e43b 6fa9 dcb9 06dd b03b
000002c0: fc29 123c 4b47 dbbb 0cbd 2f3c f808 f1bb
000002d0: 4311 e4bb e61d 37b8 34b0 033c 8cdb a43b
000002e0: 5b98 a63b f2af a3bb d1b2 683c 14da 32bc
000002f0: 5b11 093c faee 823b fbf7 6c3b a26a 9c3a
00000300: 4444 9cbb 6209 6bbc fa65 cfb9 2442 b7bb
00000310: a965 c1ba 82d7 2dbc 8c17 2939 372c 8f3b
00000320: ec8d 873c 9a2a 863b de81 11bc ac92 acbb
00000330: f3ff 283c bb5a 09bc 4633 43bc eadf 4cba
00000340: 4f96 4b3c 1d3b 17bc 4348 61ba 52c6 d63b
00000350: 37c4 1bbc d31f c43b ec79 e0ba 8a9f 033c
00000360: 1587 96ba 579e 31ba 3229 0bbc 0d6a 66bc
00000370: 97da 9cbb 061f a3bb 5408 5abc 1bd3 a13c
00000380: fb8d cb3a 000e f73b 323d 9cbb 65e6 1dba
00000390: d54e c23b 8b5f f73b 4a73 60bc 9fb7 36bc
000003a0: ac1f 4cbb 022d 603c 3170 87bc a054 5f3c
000003b0: 7731 6fbc 0434 983b 7cb0 dc3a 7f9a 0e3c
000003c0: eee6 6bbc b0da b6ba 25bb 0cba 25fc bc3b
000003d0: bb0b 99bb ceaa 0d3c bb70 103c 13a6 833c
000003e0: 695e 2f3a ffc6 40bb dfd1 f93a 6961 af3b
000003f0: 2ee7 cfbb cb1e 7c3c 7261 74bb 9a53 88bc
-0.011974004 0.014327245 -0.011150871 0.002260567 0.0032172326 -0.008795619 -0.009522856 0.0024311044
0.014414347 0.004731499 -0.008047965 -0.020468486 -0.006555436 -0.0042786766 0.009302904 0.0002737407
-0.013443203 -0.0018593341 -0.010610765 0.008388702 0.002105036 -0.009138147 -0.0003973396 -0.006332402
0.02203423 -0.018668722 0.0012859496 0.007717145 0.005543637 -0.004912931 -0.0051329704 -0.005150448
0.0059542744 0.0019288684 0.014356799 -0.008212809 0.008197904 0.0071612606 -0.014690934 -0.0034910187
-0.0038748083 0.0008991254 0.007078241 -0.008115247 -0.005833871 -0.0011454885 0.006496176 -0.0020220492
-0.022126947 0.0024396232 -0.012224462 0.0050519835 -0.007087413 0.005493789 0.007987891 -0.01523749
-0.00018090072 -0.0022146811 0.010726324 0.007290572 -0.018995538 0.008443682 -0.0022181508 0.008349855
-0.006214242 0.006162726 0.0037061793 0.0006097984 -0.005122047 -0.01607327 -0.0012197695 0.0051359944
-0.010652352 -0.003705827 -0.003589899 0.011417649 0.0076898877 -0.003901001 0.0039606923 -0.02222215
-0.006853145 0.0028129122 -0.0065511204 0.015244669 0.009916632 -0.0057151653 -0.003009794 -0.0011707902
0.013670699 0.0077520437 -0.00071530766 -0.017146122 -0.0073697604 0.0024362304 0.002112876 -0.00035949508
-0.011803685 -0.008838301 -0.0033499287 0.005575751 -0.0020162042 -0.0036459302 -0.006414523 0.003946882
0.014649399 0.006760042 0.004412099 0.00196612 0.013576121 -0.008309944 0.008202894 0.012326706
-0.0017416491 -0.012760111 -0.00061492017 -0.00019759369 -0.012236697 -0.007424218 -0.0016210747 -0.008069459
-0.004649676 -0.0016205694 0.0008087434 0.0049839695 -0.0034954143 -0.006331765 0.0049373386 0.008370275
0.0005939614 -0.005115924 -0.013215107 -0.0041674566 0.009257276 -0.0037001437 0.0038183227 -0.011286632
0.0009949558 -0.001675839 0.0023554051 -0.009029418 -0.0221897 0.01802763 0.000486059 -0.005899546
0.007804449 -0.004723175 -0.013427705 0.011541206 -0.0015872021 0.0005861161 -0.0063717775 0.0018776696
0.00218059 -0.0073679425 -0.0053585996 0.0041278047 -0.010059471 -0.0040931124 -0.0013937386 -0.01216912
0.0005013437 -0.006142898 0.0032527065 0.003990752 0.0056887385 0.0034552692 -0.00042689286 0.008003968
0.012146873 0.019471085 8.949153e-05 -0.006938428 -0.0016219594 0.006964649 -0.00042087908 0.005397442
0.008921143 -0.0066918484 0.010726225 -0.0073558055 -0.0069600656 -4.3658445e-05 0.008037616 0.005031055
0.00508408 -0.0049953396 0.014202789 -0.010916252 0.008365954 0.0039957734 0.003615855 0.0011933635
-0.00476888 -0.014345499 -0.00039558095 -0.0055926014 -0.0014755029 -0.010610463 0.00016125868 0.0043692845
0.016547166 0.004094434 -0.00888106 -0.005266508 0.010314929 -0.008383448 -0.01191408 -0.0007815348
0.012425973 -0.009230402 -0.00085938367 0.0065544033 -0.0095072305 0.005985239 -0.0017126179 0.008033643
-0.0011484349 -0.00067756086 -0.008493708 -0.01406337 -0.0047868 -0.0049780635 -0.01330765 0.019753983
0.0015529984 0.0075395107 -0.0047680372 -0.0006023406 0.0059298077 0.0075492314 -0.013699362 -0.011152177
-0.0031146808 0.013682606 -0.01653299 0.013631016 -0.014599196 0.0046448726 0.0016837264 0.008703827
-0.01439832 -0.0013950672 -0.0005368463 0.0057673627 -0.004670588 0.00864668 0.00881594 0.016070401
0.00066897884 -0.0029415486 0.0019059739 0.0053521884 -0.0063446974 0.015388201 -0.0037289527 -0.016641427

action_model._discrete_distribution.branches.0.bias f4 [3]
00000000: 6ee6 c1ba 152e 9dbb cb0c a93b
-0.0014793405 -0.004796753 0.0051589957

action_model._discrete_distribution.branches.1.weight f4 [3, 128]
00000000: 2e14 1a3c be40 94b9 e1ac 87bc 2573 37bc
00000010: d867 a0bb a944 f9bb 0791 993b bdbf fc3b
00000020: dc59 3dbc d88e e8bb e73a 9fb9 22b0 963a
00000030: b026 a7ba e537 31bc 7c59 62bb 0c51 81bc
00000040: 3eda b038 dd3e 02b9 0463 49bc 94cc 783c
00000050: 196c a13c 1fd6 3fba 3569 e7bb 0c41 303c
00000060: 3655 7dbc c9c6 103c 2d5e 0f3b ac54 26bc
00000070: f2eb 7c3b f32f 9aba 0170 ad3b 02df 0b3b
00000080: d0c0 74bc 11f7 793b bcc6 883c abbd 4cbc
00000090: d4d7 353c 7fb5 e03b 15ce d4bb 3a96 6dbc
000000a0: d7cf c23b eabb 0c3c b7da a7bc 8ac2 0c3b
000000b0: 2151 2b3b f7c5 1dbc e83e dfbb b01a 02bc
000000c0: 3753 56bc 89c3 50bc f64f 953b d2f8 623c
000000d0: 3932 3dbb 6b2b 29bc 2ae0 5e3b dae3 95bb
000000e0: e7ab 44bc 2360 47bc 81d4 833b 8b12 c3bc
000000f0: ef3a 69bb 87c1 933a 42eb 43ba d528 103c
00000100: c921 933b 88de 983b 8092 33bb 72e3 3a3b
00000110: f511 90bb c563 37bc 324c 7d3c c012 1c3c
00000120: b23f acbc 7b98 693c f9ff 7a3c f3e0 e3bb
00000130: 63cf b4bb b0b1 18bb e8a8 b63a 2674 123b
00000140: 4b10 90bb 8af4 0bbb 2c3b 373b b7f3 89bc
00000150: f97d 883c 31d2 b1b9 8e92 63ba 3a28 ba39
00000160: 24cd 1cbc bb77 dd3b 24fa 3ebc 74bb 13bc
00000170: ab83 80ba bb39 72bc 55f7 9a3c 5c4a 643c
00000180: 9f77 b83c 52a0 89bb 6c5b 963b 3559 cebb
00000190: fb37 513c 4dc1 3abb 6d48 8a3b a361 a6bc
000001a0: 5f53 1bbc 5ed2 9fbb 2dc8 3fbc a91a 17bb
000001b0: 2d7b d9ba bbf0 203b 2ca8 323c 4c4e b23c
000001c0: 6c84 3b3c a6fc 6ebc 9ad6 063b 1dca 97b9
000001d0: e567 c23b 93a6 2dbc adfc 88bc 003a 99bb
000001e0: 3eaf afb9 5b19 42bc 3671 463b 7e07 c6bb
000001f0: f137 70bb e772 893b c7b9 99bc f143 3b3c
00000200: cf15 8d3b 62a7 5c3c bf92 55bc 533a 73bb
00000210: 71ab 35bb 378e 403a 44f1 1e3c fa57 e9bb
00000220: 5065 cd37 c56e 33b8 32f5 b13b 0228 6cbc
00000230: 49e6 84bc 5c77 eebb 943f 2d3b 6a2f 703c
00000240: 4d0b 6b39 7720 adbc de40 45bc 02df 603b
00000250: bffe d63b 957e a2bc b729 823a 8194 293b
00000260: d696 773a 9b93 48bc 549c 6f3a f50b 36bb
00000270: 256a d33a f273 3a3c 5ee6 813c fa8b 69ba
00000280: 9c7b a13c 693f 603b 61fb aabb 4563 e73b
00000290: 0f18 c8b9 9b1e 23ba 9262 a1bb 2fec 4ebc
000002a0: b70a 4abc 967f 1abc 8385 bbbc 1eca 173b
000002b0: 306c dabb 75ed 69bc f7c6 28bc bb14 cc3a
000002c0: 9f88 8cbb 9efc 7bbc b3ec 0bba 508b 963b
000002d0: eafc 04ba a883 0cbc e3d0 25bc 98d9 e33b
000002e0: 8217 9fbb a74c 813c 4d6f 53bb 60d9 adbb
000002f0: 42bb fa3b 1c74 153b bd4b ba3b 6eca 92bc
00000300: a256 4cbc 978b 88bb 2bef 82bb 16b4 dcbb
00000310: 9554 6a3c d3a8 79bb 8b01 60bc a1a7 ba3b
00000320: 357d 2f3c f1f4 5fbb d214 a83b 4e83 fabb
00000330: 77bb 99bc 92ad 34bc 20a4 f73b 0186 28bc
00000340: 2f65 cbbc 4b10 7b3a 8f2d 1ebc 0355 1bbc
00000350: bcfa 31ba 0153 c0ba d4bd 803c abd3 193c
00000360: 71ff e93a fd7a f93b a367 24bc ef28 08bc
00000370: eb3b f0bc c0e5 79bc fc4f 9cbc 0c47 02bc
00000380: d319 6ebb 4835 0d3c 4d8a 363b 886e 7c3c
00000390: 9f53 3e3a b33f 863b 042a 123c 163d 49bc
000003a0: af7e a0bb 4b38 f0ba c375 4dbc d2a3 f33a
000003b0: 95a8 273c 8427 d73c 7850 7c3b 8fe2 123b
000003c0: 10c0 013c a0e8 7fbc 5739 47bd ba17 68bc
000003d0: ae93 bc3c 8f05 34bc b815 81bc f2a4 ecb9
000003e0: c341 073c 1319 f83b 4090 f93b acfc 1fbb
000003f0: ba0b 23bb 3d9a cf3b 4044 69bc 9fed 49bc
0.009404225 -0.00028276996 -0.016561927 -0.011196886 -0.0048951916 -0.007607062 0.004686478 0.0077132867
-0.011557069 -0.0070971064 -0.0003037073 0.0011496583 -0.0012752619 -0.010816549 -0.00345382 -0.015785716
8.432985e-05 -0.00012421185 -0.012291674 0.015185494 0.019704865 -0.00073179783 -0.007062102 0.010757696
-0.01546221 0.008836457 0.0021876201 -0.010152023 0.0038592783 -0.0011763558 0.005292893 0.002134264
-0.014938548 0.0038141648 0.016696326 -0.012496392 0.011098821 0.0068575735 -0.0064942935 -0.014501149
0.0059451866 0.008589724 -0.020490034 0.002147826 0.0026140886 -0.009629718 -0.006812919 -0.007940933
-0.013081363 -0.012741932 0.004556651 0.013853269 -0.0028869046 -0.010325293 0.0034008124 -0.004574281
-0.012003875 -0.012168917 0.004023135 -0.023812553 -0.0035588106 0.0011272886 -0.0007473716 0.008798798
0.0044901115 0.0046651997 -0.0027400553 0.0028516916 -0.004396672 -0.0111932205 0.015460061 0.009525955
-0.021026466 0.014257546 0.015319818 -0.0069543063 -0.0055178865 -0.002329927 0.0013935836 0.0022347062
-0.0043964735 -0.0021355473 0.0027958853 -0.016839845 0.016661631 -0.00033916676 -0.0008681201 0.00035506656
-0.009570394 0.0067586577 -0.011656318 -0.00901686 -0.0009804865 -0.014784272 0.018916765 0.013933744
0.022517977 -0.00420002 0.004588535 -0.0062972554 0.012769694 -0.0028496564 0.0042200596 -0.020310229
-0.009480326 -0.0048773726 -0.0117054405 -0.0023056662 -0.0016592495 0.002455755 0.010904353 0.02176585
0.011445146 -0.014586603 0.002057469 -0.0002895155 0.0059327953 -0.010598796 -0.016722048 -0.0046761036
-0.00033509167 -0.0118468655 0.0030279881 -0.0060433736 -0.0036654437 0.0041946056 -0.018765343 0.011429773
0.0043055783 0.013467642 -0.013035475 -0.0037113621 -0.0027720595 0.00073454104 0.009701077 -0.0071210833
2.4485082e-05 -4.2780088e-05 0.005430841 -0.0144138355 -0.01622309 -0.0072774123 0.00264356 0.014659742
0.00022415556 -0.021133645 -0.012039391 0.003431261 0.00656113 -0.01983575 0.0009930645 0.0025875869
0.00094447786 -0.012242223 0.0009140421 -0.0027778123 0.0016129656 0.011380183 0.015856918 -0.0008909103
0.019712262 0.0034217483 -0.005217955 0.0070613944 -0.00038164898 -0.0006222517 -0.0049250806 -0.012629553
-0.012331656 -0.009429833 -0.022890812 0.0023161243 -0.006665729 -0.014277806 -0.010301343 0.0015570143
-0.0042887474 -0.015380053 -0.00053377 0.004594244 -0.00050730875 -0.008576311 -0.010120603 0.0069534294
-0.0048550973 0.015783621 -0.0032262385 -0.005305454 0.0076517174 0.0022804802 0.0056852982 -0.017918792
-0.012471827 -0.004167031 -0.003995796 -0.006735335 0.0143023925 -0.0038095012 -0.013672243 0.0056962525
0.010711004 -0.0034173096 0.005129435 -0.0076450473 -0.018766148 -0.0110277105 0.007557407 -0.010285855
-0.024828522 0.0009577318 -0.009654417 -0.009480718 -0.00067893765 -0.0014673175 0.015715517 0.0093888445
0.0017852617 0.0076135383 -0.010034475 -0.008310541 -0.029325446 -0.015252531 -0.019081108 -0.007951509
-0.003633131 0.00861866 0.002785343 0.015407212 0.00072603853 0.004096949 0.00892115 -0.01228263
-0.0048979144 -0.0018327323 -0.012540284 0.0018588251 0.010233064 0.02626396 0.0038500112 0.0022412871
0.007919326 -0.015619427 -0.048638668 -0.014165813 0.023019638 -0.010987653 -0.015757427 -0.00045136322
0.008255425 0.0075713485 0.007616073 -0.0024412079 -0.0024878816 0.0063355253 -0.0142374635 -0.01232472

action_model._discrete_distribution.branches.1.bias f4 [3]
00000000: ddb6 42bb 502f b9bb afef f23b
-0.0029711046 -0.005651392 0.0074138264
