Assets/results/T2/CarDriver/CarDriver-82217.onnx (onnx, 92223 bytes, 9 tensors)

discrete_act_size_vector f4 [1, 2]
0	0x40400000	3.0
1	0x40400000	3.0

network_body._body_endoder.seq_layers.0.weight f4 [128, 36]
0	0xbe60ca32	-0.21952131
1	0x3ebabf95	0.3647429
2	0x3d79bf23	0.060973298
3	0x3d6f5c8e	0.058437876
4	0xbd5248c6	-0.051338933
5	0x3e0c5f55	0.13708241
6	0xbbac4a99	-0.005257916
7	0x3dc85f53	0.09783807
8	0xbd56c713	-0.052435946
9	0x3d8b355c	0.06797287
10	0xbca5c218	-0.020234153
11	0xbde05dbc	-0.109553784
12	0x3cde2b80	0.027120352
13	0x3e7f89f7	0.24954973
14	0x3bc92722	0.006138698
15	0xbdb6946c	-0.08915028
16	0x3e6add3d	0.22935958
17	0x3ede5f47	0.43432066
18	0x3e45fd23	0.19334845
19	0xbcd90198	-0.026490018
20	0x3e390952	0.18069962
21	0x3e17a02d	0.14807196
22	0x3e141652	0.1446164
23	0x3c0889e2	0.008333655
24	0x3e44409f	0.19165276
25	0x3e73c253	0.23804598
26	0x3e8167d3	0.25274524
27	0x3e2dd744	0.16976649
28	0xbe3ae8d9	-0.18252887
29	0x3d57611f	0.052582856
30	0xbdf599bc	-0.11992213
31	0xbea47ce0	-0.32126522
32	0xbc9c2288	-0.019059435
33	0x3d8657fb	0.0655975
34	0x3d0f70cf	0.035019692
35	0x3aa660fc	0.0012693699
36	0xbbf74d64	-0.0075470675
37	0xbe8dfc10	-0.2773137
38	0x3e5bf598	0.21480405
39	0xbe004bac	-0.12528867
40	0x3e3fafef	0.18719457
41	0x3c1f1d1c	0.00971153
42	0xbe43dd3a	-0.1912736
43	0x3e6a85fc	0.22902673
44	0xbe49a8ac	-0.1969325
45	0x3d95559d	0.0729172
46	0xbd6693ab	-0.05629317
47	0xbb642cc6	-0.0034816726
48	0x3c9f6517	0.019457383
49	0x3e20d758	0.15707147
50	0xbd626e80	-0.055281162
51	0xbe7442af	-0.23853563
52	0x3d8f5ea3	0.070004724
53	0xbd7ddfb4	-0.061980918
54	0xbdd026d4	-0.10163656
55	0x3e737e1b	0.23778574
56	0x3e71349a	0.23555222
57	0xbd7ba8b3	-0.06144018
58	0xbe0082d5	-0.12549908
59	0xbdf069cc	-0.11738929
60	0x3d9d4206	0.076786086
61	0xbe14f600	-0.14546967
62	0x3e60d9ec	0.2195813
63	0xbd5f1abc	-0.054468855
64	0xbd3b2a31	-0.045694534
65	0x3e87b82f	0.26507708
66	0xbe2ae3e9	-0.16688503
67	0xbdaf4ad0	-0.08559191
68	0xbe88b971	-0.2670398
69	0x3c1fba34	0.009748984
70	0x3ca7d750	0.020488411
71	0xbe0e006c	-0.13867348
72	0xbe98462d	-0.2974104
73	0x3e2db5b5	0.16963847
74	0x3e9535f4	0.29142725
75	0x3d8f687d	0.070023514
76	0x3dc8e2bf	0.098088734
77	0x3e0a97e4	0.13534504
78	0xbc280530	-0.010255143
79	0x3d7e651e	0.06210815
80	0x3eab00fb	0.33399186
81	0x3bc1c577	0.005913432
82	0x3e15b875	0.14621146
83	0x3e45273b	0.19253246
84	0xbe7c31c8	-0.24628365
85	0x3d87798b	0.06614979
86	0x3ebc9000	0.36828613
87	0x3e2e23d7	0.1700586
88	0x3d05a9d5	0.032632668
89	0xba673152	-0.00088193
90	0x3e8672bb	0.26259407
91	0x3d2a0ad0	0.041514218
92	0xbcad5999	-0.021160888
93	0xbd9b4bc9	-0.07582814
94	0xbdbf2d7b	-0.093348466
95	0x3d02fc06	0.03197863
96	0xbe16cc98	-0.14726484
97	0x3e9f46e9	0.31108788
98	0x3c8d0174	0.017212607
99	0x3e8c5d55	0.27414957
100	0x3d2d02d4	0.042239025
101	0x3eb47d0b	0.3525165
102	0xbd8c9c5b	-0.0686576
103	0xbdf77d9c	-0.12084505
104	0x3eb8865b	0.36040005
105	0x3e089427	0.13337766
106	0x3dda8178	0.106692255
107	0xbda8472a	-0.082166985
108	0xbdc0ee87	-0.094204955
109	0x3e016c8b	0.12639062
110	0x3d6600a3	0.05615295
111	0x3d998be9	0.07497389
112	0x3dccdc04	0.10002902
113	0x3e70c456	0.23512396
114	0xbd92a1fd	-0.07159803
115	0xbdc166be	-0.09443425
116	0x3ed9143a	0.42398244
117	0x3ec2007a	0.3789099
118	0xbe3e1eba	-0.18566409
119	0xbd25118a	-0.04029993
120	0x3d8c9016	0.0686342
121	0x3eba1922	0.363473
122	0x3e86be13	0.2631689
123	0x3d2d62b3	0.042330455
124	0x3e13c7da	0.14431706
125	0xbc9ebfaa	-0.019378502
126	0x3e1705bb	0.1474828
127	0x3e485bcb	0.19566266
128	0xbed2e9b0	-0.41193914
129	0x3d981f1d	0.074278094
130	0xbdcb73a0	-0.09934163
131	0xbdd6678a	-0.10468967
132	0x3c7f51a9	0.015583434
133	0x3e90b6c1	0.2826443
134	0xbdfb6524	-0.122751504
135	0xbe4716b8	-0.1944226
136	0xbe22a33a	-0.15882578
137	0xbdb14b77	-0.08656972
138	0xbdbac483	-0.09119513
139	0xbee7142b	-0.45132574
140	0xbd88b9e1	-0.066760786
141	0xbc914e31	-0.01773748
142	0x3e3aae9b	0.18230669
143	0x3daa216d	0.08307157
144	0xbe7004a7	-0.23439275
145	0xbd6ae656	-0.05734857
146	0xbb988b0d	-0.004655248
147	0xbdcb72d7	-0.09934013
148	0xbcf9225c	-0.030411892
149	0x3e4c57c9	0.19955362
150	0xbe476736	-0.19472966
151	0xbdd8d3f8	-0.10587305
152	0xbb5835cc	-0.003299105
153	0x3e628985	0.22122772
154	0x3e02cb9f	0.12772988
155	0x3db8e191	0.090273984
156	0x3dc71ba2	0.097220674
157	0xbdd27bd0	-0.102775216
158	0x3e1aadcf	0.15105365
159	0x3e64e8aa	0.2235438
160	0xbe8c9266	-0.27455443
161	0x3e585f9b	0.2113022
162	0x3c115ffa	0.00887298
163	0xbdba5aad	-0.09099326
164	0x3d1f0b6c	0.038829252
165	0x3d5a6488	0.05331853
166	0xbe35d313	-0.177563
167	0x3e8d5513	0.2760397
168	0xbe5187c5	-0.20461948
169	0x3e2f1a85	0.1709996
170	0xbda956af	-0.08268487
171	0xbe07deee	-0.13268635
172	0x3e28183c	0.16415495
173	0x3e1e6b6d	0.15470667
174	0xbd56f902	-0.052483566
175	0xbe761576	-0.24031624
176	0x3ec5b7b0	0.38616705
177	0xbe02a3a9	-0.12757744
178	0x3d6ba80b	0.057533305
179	0x3daa04b5	0.08301679
180	0xbe8a9320	-0.27065372
181	0x3b15d312	0.0022861403
182	0x3cd2e41a	0.025743533
183	0xbe91d354	-0.28481543
184	0x3e095da2	0.13414624
185	0x3de79ac2	0.113088146
186	0xbde94d1b	-0.1139166
187	0x3d541130	0.051774204
188	0xbe010785	-0.12600525
189	0x3e2f14a2	0.17097715
190	0x3c56750f	0.013089432
191	0xbe6e60c3	-0.23279099
192	0xba4d54e8	-0.00078327814
193	0xbe0264b4	-0.12733728
194	0xbe80016c	-0.25001085
195	0x3b79ce72	0.0038117436
196	0xbc193b10	-0.0093524605
197	0xbe09f187	-0.13471042
198	0x3d952901	0.072832115
199	0x3b70cd34	0.0036743404
200	0xbc8157c4	-0.01578892
201	0x3e8cd083	0.27502832
202	0x3ed61bb2	0.41818005
203	0x3d628291	0.0553003
204	0xbd7be549	-0.06149796
205	0xbd58a556	-0.05289205
206	0xbdf220fb	-0.11822697
207	0x3d7f806e	0.06237834
208	0xbc28d519	-0.010304713
209	0x3e3657c8	0.17806923
210	0xbe3096cb	-0.17245023
211	0xbe3dcfcf	-0.18536304
212	0xbe0f3aa2	-0.1398721
213	0xbb35fcd0	-0.0027769096
214	0xbd3c6fdc	-0.046005115
215	0x3a8ea977	0.0010884245
216	0x3e54e82e	0.20791695
217	0xbdc39d49	-0.09551484
218	0xbcde21cb	-0.027115723
219	0xbe3b0df9	-0.18267049
220	0x3e2df5ea	0.1698834
221	0x3c27f2b2	0.010250734
222	0xbe5a3c6c	-0.21312112
223	0x3e9527d3	0.29131946
224	0xbd7a94ba	-0.061176993
225	0xbe5b41ed	-0.21411867
226	0xbe5fe03a	-0.2186288
227	0x3da234d7	0.07920235
228	0x3cd2af5b	0.025718382
229	0xbdde07a6	-0.108413026
230	0xbeed3717	-0.46331093
231	0x3b8581d1	0.004074313
232	0x3eb4062c	0.3516096
233	0x3e4c1bd2	0.19932488
234	0xbe45b87c	-0.19308656
235	0xbe2a4d73	-0.16631107
236	0x3e6a4cae	0.22880813
237	0xbda86768	-0.08222848
238	0x3e445952	0.19174698
239	0xbda93b35	-0.08263246
240	0x3e8187f8	0.25299048
241	0xbe922036	-0.285402
242	0x3bc62953	0.0060474067
243	0x3d9b29ee	0.07576357
244	0x3d98db62	0.07463719
245	0x3db601b5	0.08887044
246	0x3ebb2a65	0.36555782
247	0xbe0729bb	-0.13199513
248	0x3d6ec35c	0.058291778
249	0xbe250cfb	-0.16118233
250	0x3daa44d8	0.08313912
251	0xbd5651da	-0.052324153
252	0xbd90413e	-0.07043694
253	0x3e97287f	0.29523084
254	0xbe19921c	-0.14997143
255	0x3e46d1f0	0.19416022

network_body._body_endoder.seq_layers.0.bias f4 [128]
0	0x3cbd962c	0.023142897
1	0x3c053285	0.008129721
2	0x3c8ed145	0.017433772
3	0x3ca18eb9	0.019721376
4	0xbbe42247	-0.006962094
5	0xbc83b336	-0.016076665
6	0x3cc93149	0.024559634
7	0x3cc42c8a	0.02394702
8	0x3c606cbd	0.0136978
9	0xbc4aa0d6	-0.012367448
10	0x3cc0258d	0.023455406
11	0xbcea8376	-0.028627139
12	0x3c846e73	0.016165948
13	0x3ce02dfe	0.02736568
14	0x3d5f11fa	0.054460503
15	0xbc256574	-0.010094989
16	0x3cc5c71b	0.024142792
17	0x3c211b96	0.009833237
18	0xbc897efe	-0.016784187
19	0x3d0985ef	0.033574995
20	0x3ca17fd2	0.01971427
21	0xbc5e7eee	-0.013580067
22	0x3c894a80	0.016759157
23	0x3ce7841d	0.028261239
24	0x3c7d89cb	0.015474747
25	0x3ac2d4c5	0.0014864436
26	0xbcec6851	-0.028858336
27	0xbcc16368	-0.02360697
28	0x3d171572	0.036885686
29	0x3c9a972c	0.018870912
30	0x3c986090	0.018600732
31	0x3c3f5d28	0.011679925
32	0x3c0983f5	0.008393277
33	0x3d341207	0.043962505
34	0x3c944f6c	0.018104278
35	0x3d32b0c4	0.043625608
36	0x3d139884	0.036034122
37	0x3ce66e84	0.02812887
38	0x3d135016	0.035965048
39	0x3c9915b8	0.018687114
40	0xbc9b5487	-0.018961204
41	0xbc2b7407	-0.010464675
42	0x3c57ff37	0.013183407
43	0x3bb71bd5	0.0055880346
44	0x3d11c26c	0.035585806
45	0x3cd3f462	0.025873367
46	0x3d19ab19	0.037516687
47	0x3cb6d06e	0.022316184
48	0xbc73414b	-0.01484711
49	0x3d008a89	0.031382117
50	0xbc101046	-0.008792942
51	0x3c8dc61e	0.017306384
52	0xbc969294	-0.01838044
53	0x3cd3cfbd	0.025855893
54	0x3c3ed5e9	0.01164768
55	0x3d5c22a0	0.05374396
56	0xbc1b6d67	-0.009486533
57	0x3cbed422	0.023294512
58	0xbc505139	-0.0127146775
59	0x3cae62ca	0.02128734
60	0xbca32e1c	-0.019919448
61	0xbad0860d	-0.0015909091
62	0x3b898476	0.004196699
63	0xbc46c582	-0.0121320505
64	0xbc90360f	-0.017603902
65	0x3ce34e7a	0.027747381
66	0x3c8ed0ac	0.017433487
67	0xbc887245	-0.01665605
68	0xbc00b9c4	-0.00785679
69	0x3d0350dd	0.03205954
70	0x3cabfeb7	0.020995481
71	0x3d1ba802	0.03800202
72	0x3d4cd3cf	0.050006684
73	0x3c0d8ead	0.008639974
74	0x3a51878e	0.00079929165
75	0x3cf3a9fe	0.029744145
76	0x3c8e0492	0.017336164
77	0xbc156db7	-0.009120396
78	0x3c790da0	0.015201002
79	0x3bbb79eb	0.005721321
80	0x3ca62d5a	0.020285297
81	0x3c953ef7	0.0182185
82	0xbc9c274f	-0.019061713
83	0x3b847d4d	0.0040432573
84	0xbd3a1412	-0.045429297
85	0x3b53326f	0.0032226106
86	0xbd568b72	-0.05237908
87	0x3cad0d6a	0.02112456
88	0x3c224ee2	0.009906502
89	0x3d25015b	0.040284496
90	0x3cf09b72	0.029370997
91	0x3d0fd773	0.035117578
92	0xbcc08c82	-0.0235045
93	0x3d260f2f	0.040541824
94	0xbca3bd3f	-0.0199877
95	0x3c50a313	0.012734192
96	0xbc1eb650	-0.009687021
97	0xbcd56226	-0.026047777
98	0x3c113c0b	0.008864413
99	0x3c02a568	0.007974006
100	0x3cf23d8d	0.029570365
101	0x3ca37c75	0.019956807
102	0x3cc24e10	0.023718864
103	0xbba19b81	-0.0049318676
104	0xba93e632	-0.0011283814
105	0x3d49ef9c	0.049300775
106	0xbc81627d	-0.015794033
107	0xbceb124f	-0.028695254
108	0x3cf41ea2	0.029799763
109	0xbc5a1b23	-0.013312134
110	0xbc9b1695	-0.018931666
111	0x3cf423f6	0.029802304
112	0xbc81a5bb	-0.015826097
113	0xbca2c451	-0.019869002
114	0xbcc326b0	-0.023822159
115	0x3d236d57	0.039899196
116	0xbca44994	-0.020054616
117	0x3d2d17d8	0.042259067
118	0x3c8d6b99	0.01726322
119	0x3cf6a43d	0.030107612
120	0x3d22c2cf	0.039736565
121	0x3cebf95c	0.028805427
122	0xbc8ff134	-0.01757107
123	0x3ca110d6	0.019661348
124	0x3cc0e5b5	0.023547033
125	0x3c1e9c1b	0.009680773
126	0x3cba9547	0.02277626
127	0x3cc4e811	0.02403644

network_body._body_endoder.seq_layers.2.weight f4 [128, 128]
0	0x3ddca4ce	0.107736215
1	0xbdf34ce2	-0.118798986
2	0x3e7625ac	0.24037808
3	0x3e5dcf2a	0.21661058
4	0xbdba4d64	-0.09096792
5	0xbd02b31b	-0.03190909
6	0x3dd5af0a	0.10433777
7	0x3dde307a	0.1084909
8	0x3e684f2e	0.22686455
9	0x3db45a51	0.08806289
10	0x3e1f8a35	0.15580066
11	0xbc88305e	-0.016624626
12	0x3dc52228	0.096256554
13	0x3dc23fc2	0.09484817
14	0x3dc1a7b0	0.09455812
15	0xbc3e839f	-0.011628061
16	0xbd02fdd2	-0.031980343
17	0xbc85b477	-0.016321404
18	0x3cb2a455	0.021806875
19	0x3c3c390c	0.01148821
20	0xbdc97d4e	-0.09838353
21	0xbd94c961	-0.072649725
22	0x3d971423	0.07376888
23	0xbd33ab75	-0.043864686
24	0x3c642eaf	0.013927146
25	0xbd81b78d	-0.06333838
26	0xbe312741	-0.1730013
27	0x3d166e39	0.03672621
28	0xbc9b1b14	-0.01893381
29	0x3db6485f	0.089005224
30	0x3dbd65f4	0.09247962
31	0xbc919d38	-0.017775163
32	0xbde13fcb	-0.10998496
33	0x3dcf280a	0.10115059
34	0xbd9baefd	-0.07601736
35	0xbd58b78c	-0.05290942
36	0xbe0562f0	-0.13026023
37	0xbde593b2	-0.11209811
38	0x3db08cc1	0.08620597
39	0xbc5f9081	-0.013645292
40	0xbdb76fde	-0.08956884
41	0x3dcf3d6e	0.10119139
42	0x3cd8cd46	0.02646507
43	0x3c8f5ebb	0.017501226
44	0x3e1a6021	0.15075733
45	0x3dbac8de	0.091203436
46	0x3e9b958d	0.30387536
47	0x3b9eedd3	0.004850128
48	0x393e16d9	0.00018128323
49	0xbd83e77c	-0.064406365
50	0xbdc13172	-0.09433259
51	0x3e036e16	0.12834963
52	0x3d72c489	0.05926946
53	0x3d70560f	0.058675822
54	0xbd24bb4f	-0.040217694
55	0x3d30a054	0.04312165
56	0xbe5317ed	-0.20614596
57	0x3d006d74	0.031354383
58	0x3d117d7a	0.035520054
59	0x3dae5889	0.085129805
60	0xbd27f62b	-0.04100625
61	0x3d17e97c	0.037087902
62	0x3d05e6dc	0.032690868
63	0xbd4bbde0	-0.049741626
64	0x3c1a2eca	0.009410569
65	0xbc8357f5	-0.016033152
66	0x3e41447d	0.18873782
67	0xbc5430d2	-0.012951093
68	0x3dccad57	0.099939995
69	0x3c62d4a4	0.013844643
70	0x3c3027ec	0.010751706
71	0xbb278d7c	-0.002556651
72	0xbe18781d	-0.1488957
73	0x3dc9c8ac	0.09852728
74	0xbe5e90c5	-0.21734913
75	0xbcfb489e	-0.030674275
76	0x3df1ce73	0.11806955
77	0x3d6e32f8	0.058154076
78	0x3dffd2d6	0.12491386
79	0xbda04950	-0.07826483
80	0x3d7f47cc	0.06232433
81	0x3de7d69d	0.11320231
82	0x3cbe82cf	0.023255734
83	0xbcf04092	-0.029327665
84	0xbca45175	-0.020058373
85	0xbc85ccef	-0.016333072
86	0x3d59454d	0.053044606
87	0x3d69de7b	0.05709694
88	0xbdb2797a	-0.08714576
89	0x3dc63cc0	0.09679556
90	0x3d0f4356	0.034976326
91	0x3cc205ef	0.02368447
92	0xbdf4a1b0	-0.11944902
93	0x3c2cbe8e	0.010543479
94	0x3d632026	0.05545058
95	0x3cfd0d76	0.030890208
96	0x3e152172	0.1456354
97	0x3d80b228	0.062839806
98	0xbc577a25	-0.01315168
99	0x3d5633a9	0.05229536
100	0xbd8d4955	-0.068987526
101	0xbda41e02	-0.08013536
102	0xbd12925a	-0.035784103
103	0x3d86deda	0.06585474
104	0x3cf97869	0.030452924
105	0xbdcb355b	-0.09922286
106	0x3d5ca8c6	0.053871892
107	0xbdfd998b	-0.123828016
108	0xbce7bf6a	-0.028289516
109	0xbca47f6e	-0.020080294
110	0x3c10fbe6	0.00884912
111	0x3dbba36d	0.0916203
112	0xbdac8be0	-0.084251165
113	0x3dbfc4ec	0.09363732
114	0x3cecc7da	0.02890389
115	0xbdb23d26	-0.087030694
116	0x3deeeb3a	0.1166596
117	0xbd15d078	-0.036575764
118	0xba818926	-0.0009882792
119	0xbe15d6dc	-0.14632744
120	0xbc596546	-0.013268774
121	0x3e106013	0.1409915
122	0x3c9de621	0.019274773
123	0x3d795de5	0.06088056
124	0x3d6561e1	0.056001548
125	0xbdab1eac	-0.083554596
126	0x3dd44bc8	0.103660166
127	0xbdf9463e	-0.12171601
128	0x3d704b36	0.058665477
129	0xbde25357	-0.11051052
130	0x3d9a90db	0.0754716
131	0x3d1bb610	0.038015425
132	0x3d1e0a77	0.0385842
133	0xbce92ef7	-0.028464777
134	0x3e060227	0.13086759
135	0x3d8bfbc0	0.06835127
136	0xbdd0186e	-0.101609096
137	0x3e380609	0.17971052
138	0x3dc58549	0.09644563
139	0x3dc68622	0.096935526
140	0x3d1f6933	0.038918685
141	0x3c1bb85c	0.009504404
142	0xbdade629	-0.08491165
143	0xbdd3628d	-0.103215314
144	0xbd17d74e	-0.037070565
145	0xbc8bf3dd	-0.017084057
146	0x3de4e7a2	0.11176993
147	0x3cb02e96	0.021506589
148	0xbdcfd291	-0.10147584
149	0x3d740db1	0.05958337
150	0xbdfa6104	-0.122255355
151	0xbd019e47	-0.031645086
152	0xbb97b381	-0.004629553
153	0x3cf5be08	0.02999784
154	0xbde8d90d	-0.11369524
155	0xbdf1dbba	-0.11809488
156	0x3daf0cf7	0.08547395
157	0x3e2d5ebb	0.16930668
158	0x3e3d4581	0.18483545
159	0x3c5602c7	0.013062186
160	0x3cf08af9	0.029363142
161	0x3be09eb1	0.006854855
162	0x3cd0809b	0.025451949
163	0xbcd5f7fa	-0.026119221
164	0xbd619f5b	-0.055083614
165	0x3d37ba6e	0.044855528
166	0x3ba5b2c1	0.0050567095
167	0xbbd6d3ed	-0.0065560252
168	0xbe962af8	-0.29329658
169	0x3d9e7f9b	0.077391826
170	0xbe1b3001	-0.15155031
171	0xbb17594f	-0.0023094004
172	0xbe3addd3	-0.18248682
173	0xbcc8c7f1	-0.024509402
174	0x3dcd8bd2	0.10036434
175	0xbdb47ce2	-0.08812882
176	0xbe00086c	-0.12503213
177	0x3cd3e1d2	0.025864515
178	0xbdf195f6	-0.11796181
179	0x3e277da9	0.1635653
180	0xbe01ee0a	-0.12688461
181	0xbd1a6171	-0.037690584
182	0xbe03cebd	-0.12871833
183	0x3dcc11eb	0.09964355
184	0xbdf5d829	-0.1200412
185	0xbdeafda9	-0.11474163
186	0x3c09ca33	0.008410024
187	0x3e33d2d6	0.17560896
188	0xbd9e520e	-0.077304944
189	0xbd5b4f8b	-0.053542655
190	0xbd8aea26	-0.067829415
191	0xbd42032a	-0.0473663
192	0x3d0e3dc2	0.034726866
193	0xbd976b0e	-0.07393466
194	0xbd0c82f2	-0.034304567
195	0x3c86b5ab	0.016444048
196	0x3e263e72	0.16234758
197	0x3e0fffa3	0.14062361
198	0x3d57ea5f	0.052713748
199	0xbbd3504b	-0.0064487807
200	0xbc51fe07	-0.0128169125
201	0x3dfc041c	0.12305471
202	0xbd8807a9	-0.06642086
203	0x3db57572	0.088602915
204	0x3e470723	0.19436316
205	0xbdacabd9	-0.08431215
206	0x3e52b104	0.20575339
207	0xbd573b5d	-0.052546848
208	0xbcf657e0	-0.030071199
209	0x3c8a52bb	0.016885152
210	0xbe2c01a3	-0.167975
211	0x3de18d00	0.11013222
212	0xbcb69441	-0.02228749
213	0xbd764da3	-0.060132634
214	0x3b90b1a5	0.004415708
215	0x3cbea93e	0.02327406
216	0x3d2ac918	0.041695684
217	0x3d8fe6bf	0.07026433
218	0x3d37eaa7	0.044901516
219	0xbd3c1de1	-0.045926932
220	0xbb0fee93	-0.002196227
221	0x3cd9f8ad	0.026607836
222	0x3d9fa732	0.07795562
223	0x3cd25f68	0.025680259
224	0x3db7d38a	0.08975895
225	0xbb41a772	-0.0029549268
226	0x3db65a95	0.08903996
227	0xbd9319d7	-0.07182663
228	0x3d49ca17	0.049264994
229	0xbce5cbfe	-0.028051373
230	0x3e363f3d	0.17797561
231	0x3dc08e47	0.09402137
232	0xbdc678cd	-0.0969101
233	0x3dea94bf	0.11454152
234	0xbd26f105	-0.040757198
235	0x3cadabb9	0.021200048
236	0x3d88577b	0.066573106
237	0xbd4ddfae	-0.050262146
238	0xbc21464c	-0.00984342
239	0xbd2f4130	-0.042786777
240	0x3d3ef3c4	0.04661919
241	0xbdccc2fa	-0.09998126
242	0xbcf2dd03	-0.029646402
243	0xbd882bb8	-0.06648964
244	0xbdf01613	-0.1172296
245	0xbd1ab2ac	-0.03776805
246	0x3d8209f3	0.06349554
247	0xbc8eb5b3	-0.017420625
248	0x3dee7928	0.116442025
249	0x3dac9e81	0.0842867
250	0xbb6f811d	-0.0036545463
251	0xbd39c8c8	-0.045357496
252	0x3d70f797	0.05882987
253	0x3e1eebeb	0.15519683
254	0x3d946879	0.07246489
255	0x3dcbcc90	0.099511266

network_body._body_endoder.seq_layers.2.bias f4 [128]
0	0x3c634692	0.013871806
1	0x3ca4500f	0.020057706
2	0xbce76f1c	-0.028251223
3	0xbc1b6d7d	-0.009486553
4	0x3c664e54	0.014056761
5	0x3c72a612	0.014810102
6	0x3cc2f842	0.02380002
7	0xbc9f9d4f	-0.01948419
8	0x3c129f54	0.00894912
9	0x3cbf2343	0.023332244
10	0x3cd0e920	0.025501788
11	0xbbbe4cf7	-0.005807515
12	0x3c92ec38	0.017934904
13	0xbb145923	-0.0022636137
14	0x3cc4b97e	0.02401423
15	0x3c579510	0.013158098
16	0x3cc09723	0.023509568
17	0x3ac5e769	0.0015098873
18	0xbc9b1926	-0.01893289
19	0x3ce3a211	0.02778724
20	0x3d17bf8c	0.037047908
21	0x3c3e942a	0.011632005
22	0xbc0c13eb	-0.008549671
23	0x3c9ec39a	0.01938038
24	0xbc8a0d36	-0.016852003
25	0x3cc32c5f	0.023824869
26	0x3ca7164e	0.020396378
27	0x3d0a8cd3	0.033825707
28	0xbc5375e0	-0.012906522
29	0xbb2a1f39	-0.0025958552
30	0xbccb1bf3	-0.0247936
31	0x3cba4ae2	0.022740785
32	0x3c8f8d6b	0.017523488
33	0x3ca8c7b9	0.020603048
34	0x3cb03cdb	0.021513393
35	0x3cc80271	0.024415227
36	0x3cefa7f1	0.029254885
37	0x3c942f24	0.018088885
38	0xbc5ddd52	-0.013541536
39	0xbcd3905f	-0.025825677
40	0x3cab4f38	0.020911798
41	0x3ca93282	0.020653967
42	0x3c82761d	0.015925461
43	0x3c86a443	0.016435748
44	0x3c98bff9	0.018646227
45	0x3c986195	0.018601218
46	0x3ca83398	0.020532414
47	0x3b84ab5c	0.004048748
48	0x3c6d155f	0.014470427
49	0x3ca527cb	0.020160576
50	0x3c95abca	0.018270392
51	0x3c625f67	0.013816691
52	0x3c61ccd2	0.013781743
53	0x3c754a6c	0.014971357
54	0xbc05a528	-0.008157052
55	0x3d38d25f	0.0451225
56	0x3b9ee4ae	0.004849038
57	0x3ca705fc	0.020388596
58	0x3cb18261	0.021668615
59	0xbc93f096	-0.018059056
60	0x3cab6744	0.020923264
61	0x3cc9c951	0.024632128
62	0x3d0aa420	0.033847928
63	0xbc83615a	-0.016037632
64	0x3d1224c7	0.035679605
65	0x3c5df2b2	0.013546633
66	0xbc219c77	-0.009863964
67	0x3ccf6f4f	0.02532163
68	0xbcb1370a	-0.02163269
69	0xbc822527	-0.015886856
70	0x3ce40eae	0.027839031
71	0x3c36c09b	0.011154319
72	0x3c8b102c	0.016975485
73	0x3c5b9989	0.013403305
74	0x3d237192	0.03990323
75	0x3c274220	0.0102086365
76	0xbc77f485	-0.015133982
77	0xbb841c1f	-0.0040316726
78	0x3ad0d5de	0.0015932878
79	0xbc91d3a9	-0.017801123
80	0x3c9c9503	0.019114023
81	0x3ca0a729	0.019610958
82	0x3bc98125	0.0061494284
83	0x3c95af46	0.018272053
84	0xbc69539a	-0.014241124
85	0x3c87872a	0.016543943
86	0xbc5644ee	-0.013077958
87	0x3a42f093	0.0007436361
88	0x3cec13d0	0.028818041
89	0x3c9d3250	0.01918903
90	0x3cccde5d	0.025008375
91	0x3cf1533e	0.029458638
92	0x3c929826	0.017894816
93	0x3ca6e3da	0.02037232
94	0x3c6e89e9	0.0145592475
95	0xbc292902	-0.010324718
96	0xbc14273c	-0.009042557
97	0x3ccf5b55	0.025312105
98	0x3cd355a5	0.025797674
99	0xbb4e3f27	-0.0031470747
100	0xbc016bb7	-0.007899216
101	0x3bbe7c21	0.005813137
102	0x3cc098d7	0.02351038
103	0x3caf8bc6	0.021428954
104	0xbc435a92	-0.011923449
105	0x3cb3d2d5	0.021951118
106	0x3c91cc35	0.017797569
107	0x3c85b582	0.016321901
108	0x3c49eefe	0.012325047
109	0xbc2ed58d	-0.010671032
110	0xbc6ffa3c	-0.014647063
111	0x3c71eb6c	0.014765602
112	0xbca17c60	-0.019712627
113	0x3c779d39	0.015113168
114	0x3c44b22b	0.012005369
115	0x3c8adba0	0.016950428
116	0x3c9154c3	0.017740613
117	0xbc85200c	-0.016250633
118	0x3c9a1d3b	0.018812766
119	0x3cd3d8b8	0.025860175
120	0x3ca3f2fe	0.020013329
121	0xbc0ef3bb	-0.008725102
122	0xbc33312f	-0.010937019
123	0x3cc68a2b	0.024235805
124	0x3c457628	0.012052096
125	0x3cf21ada	0.02955382
126	0x3c92b8b9	0.017910348
127	0xbcc5c106	-0.024139892

action_model._discrete_distribution.branches.0.weight f4 [3, 128]
0	0xba5eb542	-0.00084956374
1	0xba90331c	-0.001100156
2	0xbcaa7b27	-0.020810677
3	0xbc9c8263	-0.019105142
4	0x3c17598c	0.009237658
5	0x3d0e67c0	0.034766912
6	0x3ce7e573	0.028307652
7	0xbc3ed572	-0.011647569
8	0x3b3e6ab5	0.0029055302
9	0x3d068814	0.032844618
10	0x3c149799	0.009069347
11	0xbcfcee7a	-0.030875433
12	0x3bcea709	0.0063065332
13	0xbcf83836	-0.030300241
14	0x3d03e2b7	0.032198634
15	0x3c02b374	0.007977355
16	0x3cfd740f	0.03093913
17	0xbd23aa91	-0.039957587
18	0xbcc87060	-0.024467647
19	0x3b0334b5	0.002002043
20	0x3c93f56e	0.018061366
21	0xbc11ca43	-0.008898321
22	0xbc8e72f7	-0.017388804
23	0x3ceae701	0.028674604
24	0xbd0f24f1	-0.03494734
25	0x3b4a6b0f	0.0030886566
26	0x3cd71128	0.026253298
27	0x3cfc4f0a	0.030799408
28	0xbbed4c16	-0.007241736
29	0x3c59c4ac	0.013291519
30	0xbd1c3308	-0.038134605
31	0x3c4cde03	0.012504104
32	0x3c70eae4	0.01470444
33	0x3caeb029	0.021324234
34	0x3cbf7211	0.02336982
35	0x3c80ffd2	0.015746985
36	0x3cbb2e74	0.022849299
37	0x3c519097	0.012790821
38	0xbca729bf	-0.020405648
39	0xbceea7d2	-0.029132757
40	0x3ce7f7d3	0.028316414
41	0x3c9e7264	0.019341655
42	0x3d38ee88	0.045149356
43	0xbc0fdbee	-0.008780463
44	0x3cb69ec4	0.022292502
45	0x3b185f9a	0.0023250342
46	0x3cf12c9c	0.029440217
47	0x3cd7641b	0.026292851
48	0x3bc1e63e	0.0059173396
49	0x3c5b3186	0.0133785065
50	0x3ca4e304	0.02012778
51	0x3ba39350	0.0049919263
52	0xbb0f1b1f	-0.0021836234
53	0x3c92065b	0.017825296
54	0xbc2a66eb	-0.010400514
55	0x3a8859d0	0.0010402743
56	0xbc286f34	-0.010280419
57	0x3c87ee15	0.016593019
58	0x3c4af552	0.0123875905
59	0xbcad1cbd	-0.021131868
60	0x3cc561ae	0.024094429
61	0x3c86785f	0.01641482
62	0x3b8bfe95	0.004272292
63	0xbd0e93a3	-0.034808766
64	0x3d3c0d15	0.045910913
65	0x3cd3c885	0.025852451
66	0xbd121f15	-0.035674173
67	0x3c386df6	0.0112566855
68	0xbcee1e5b	-0.029067209
69	0xbd3dc9bd	-0.04633497
70	0x3b1cc6aa	0.0023922124
71	0xbc04c0e9	-0.008102634
72	0x3ceb8af3	0.02875278
73	0x3c879929	0.016552525
74	0x3d3b99d7	0.04580101
75	0xbb004856	-0.0019574366
76	0xbd19c819	-0.037544344
77	0xbbfeeb60	-0.0077795237
78	0xbc222fd4	-0.009899098
79	0xbd197ba6	-0.037471436
80	0x3ccf2354	0.0252854
81	0x3c89a912	0.016804252
82	0x3c839bcc	0.0160655
83	0x3d00b597	0.031423178
84	0xbcdf70bf	-0.027275441
85	0x3c16aeda	0.009196961
86	0xbcd2f574	-0.025751807
87	0xbc80683c	-0.015674703
88	0x3c820c96	0.015875142
89	0x3cd22b23	0.025655335
90	0x3d22263e	0.03958725
91	0x3d0b4d51	0.03400928
92	0x3c629c3e	0.013831196
93	0x3c8ed995	0.017437736
94	0x3bc7c065	0.0060959333
95	0xbcd5581d	-0.026042992
96	0x3b89e114	0.0042077396
97	0x3c1f7f69	0.009734967
98	0x3cfa79ab	0.030575594
99	0xbc98311d	-0.018578107
100	0xbc84f988	-0.016232267
101	0x3c222406	0.009896284
102	0x3cfd03ba	0.030885566
103	0x3c6a97a7	0.014318383
104	0xbc6ba64f	-0.014382913
105	0x3cce5503	0.025187021
106	0x3cb3cf46	0.021949422
107	0x3c13f425	0.009030377
108	0x3b833211	0.004003771
109	0xbbadb1fb	-0.005300758
110	0xbd075a6f	-0.03304523
111	0x3c934346	0.017976414
112	0xbd176b61	-0.03696764
113	0x3cfd4f4e	0.030921604
114	0x3c5af74b	0.013364623
115	0x3b037d46	0.0020063682
116	0x3ca604e2	0.020266
117	0xbd0b7ec3	-0.034056436
118	0x3c9655f8	0.01835154
119	0x3c06fdfd	0.008239266
120	0x3d1811cb	0.037126344
121	0xbc8807a7	-0.016605211
122	0xbce59b83	-0.028028255
123	0x3d404541	0.046941046
124	0x3c817b95	0.015805999
125	0x3d03425d	0.03204571
126	0xbcba75ee	-0.022761311
127	0xbcceb93f	-0.025234817
128	0x3d0aef72	0.03391976
129	0x3d0bf776	0.034171544
130	0xbc347312	-0.011013763
131	0xbc45f8be	-0.012083231
132	0x3c6536ff	0.013990163
133	0x3cf5dd11	0.03001264
134	0x3b1bc2ef	0.0023767313
135	0xbcd584d2	-0.02606431
136	0xbd51667a	-0.05112312
137	0x3c869c75	0.016432026
138	0x3cd3aff9	0.025840746
139	0xbc96f8c6	-0.018429171
140	0x3cdce222	0.026963297
141	0x3d57ad4e	0.05265551
142	0x3ce9574e	0.028484013
143	0x3c3e0af9	0.011599296
144	0x3bd0d010	0.006372459
145	0xbcefc6d1	-0.029269608
146	0xbb94cd45	-0.0045410716
147	0xbd73db03	-0.059535038
148	0x39f05bf3	0.00045844875
149	0x3cc27853	0.023739016
150	0xbcac34d1	-0.021021279
151	0x3cf2f665	0.029658506
152	0xbb714f3a	-0.0036820904
153	0x3d02bef1	0.031920377
154	0x3c97a7c9	0.018512623
155	0xbd590a3a	-0.05298827
156	0xbc8ba969	-0.017048554
157	0x3d340165	0.043946642
158	0xbb6e7285	-0.0036384177
159	0x3cc03751	0.023463877
160	0x3c985099	0.01859312
161	0x3cf6a849	0.030109541
162	0x3bfe126b	0.0077536604
163	0xbaffcb33	-0.0019515514
164	0x3c5cfab6	0.0134875085
165	0xbb4d7f46	-0.0031356378
166	0xbcbce763	-0.023059553
167	0xbcaba5b0	-0.02095303
168	0x3b7b44e1	0.0038340616
169	0x3d0fc652	0.035101242
170	0xbd424e29	-0.04743782
171	0xbd05b7f6	-0.032646142
172	0x3c77a2c1	0.015114487
173	0x3d0739ff	0.033014294
174	0xbc3ae331	-0.011406706
175	0xbc7d2697	-0.015451095
176	0x3cd770d1	0.026298912
177	0x3c2f33c8	0.010693498
178	0x3cb14b75	0.021642426
179	0x3c2ed08d	0.01066984
180	0x3d4a1af4	0.04934211
181	0x3d0eb478	0.034840077
182	0xbc3b144c	-0.011418413
183	0x3c7d770c	0.0154702775
184	0xbc85655c	-0.016283683
185	0x3cf9a76a	0.030475337
186	0x3bb70db3	0.00558635
187	0xb9887432	-0.00026026514
188	0x3c4a2058	0.012336813
189	0x3cfbb7be	0.030727264
190	0xbbbbae40	-0.0057275593
191	0x3baa332f	0.00519409
192	0x3b737f03	0.0037154562
193	0x3c800bfd	0.015630716
194	0xbd0a228a	-0.033724345
195	0xbbba3b24	-0.0056833196
196	0xbc50c4a1	-0.0127421925
197	0x3b89e33f	0.004207998
198	0xbd383786	-0.044974826
199	0x3c6cca2f	0.014452501
200	0x3a4cab68	0.0007807524
201	0x3ce67177	0.028130276
202	0xbbd6d8af	-0.0065565924
203	0xbd32fffe	-0.043701164
204	0xbcc30fc0	-0.023811221
205	0xbc90b053	-0.017662203
206	0xbca24d46	-0.019812237
207	0xbc4e5a96	-0.01259484
208	0x3c6aa884	0.014322404
209	0x3d2f65e1	0.04282177
210	0xbc1d037e	-0.009583352
211	0xbc946da0	-0.01811868
212	0xbd03ac42	-0.0321467
213	0x3b4fe30c	0.0031721024
214	0xb9648508	-0.00021793332
215	0xbc1d1a85	-0.009588842
216	0x3ccfc357	0.0253617
217	0x3c85d4a7	0.016336752
218	0x3c86fd22	0.016478125
219	0xbbaf4f07	-0.005349997
220	0x3d27a5ab	0.040929478
221	0x3c6e37eb	0.014539699
222	0x3ab661bb	0.0013914624
223	0xbd0d053a	-0.034428813
224	0xbcef87b0	-0.029239506
225	0xbcad40a4	-0.021148987
226	0x3b8e9247	0.0043509337
227	0xbafc2cb0	-0.0019239392
228	0xbcf3c856	-0.029758614
229	0xbcf6ff39	-0.030150997
230	0x3d13d105	0.03608801
231	0x3b53b215	0.003230219
232	0xbcb39971	-0.021923753
233	0xba76c3ae	-0.0009413314
234	0x3ca0b5fb	0.019618025
235	0x3cba6422	0.022752825
236	0xbc8e6222	-0.017380778
237	0xbc264bf9	-0.010149949
238	0xbc94eebd	-0.018180246
239	0x3cce2d75	0.02516816
240	0xbca7bc1e	-0.020475443
241	0x3c9b54e6	0.018961381
242	0x3c14c4cc	0.009080123
243	0x3c9659d9	0.01835339
244	0x3c8be8a0	0.017078698
245	0xbbda76bf	-0.0066669877
246	0x3a188ebf	0.00058196107
247	0x3d37bcdf	0.044857856
248	0xbc8f3a9c	-0.017484002
249	0xbd309e06	-0.043119453
250	0xbc9b0624	-0.018923827
251	0xbbff1767	-0.007784772
252	0x3bcc0ad5	0.006226877
253	0xbbacde83	-0.005275549
254	0x3d1f6d27	0.038922455
255	0x3b0db6b7	0.00216238

action_model._discrete_distribution.branches.0.bias f4 [3]
0	0x3cc0300a	0.023460407
1	0x3bec6c31	0.007215046
2	0xbca8b2dd	-0.020593101

action_model._discrete_distribution.branches.1.weight f4 [3, 128]
0	0x3cee3a7a	0.029080618
1	0x3ce111ea	0.027474362
2	0xbc34021e	-0.010986833
3	0xbd1ecc5d	-0.038769115
4	0x3cb9ec6b	0.02269574
5	0x3c893aeb	0.016751727
6	0x3c63bfc1	0.013900698
7	0xbbe5846a	-0.0070043104
8	0xbd47b51f	-0.048756715
9	0xbbaeec09	-0.005338196
10	0x3cedde56	0.029036682
11	0xbb383375	-0.0028106843
12	0x3cd24bef	0.025670974
13	0x3ca8ca91	0.020604404
14	0x3b224ce1	0.0024765062
15	0x3d0e5730	0.034751117
16	0x3bdc3e99	0.0067213294
17	0xbb8e0e44	-0.0043351967
18	0xbd216919	-0.03940687
19	0xbc930e3e	-0.017951127
20	0xbcc8d15e	-0.024513897
21	0x3d2120a4	0.03933777
22	0xbc8cefbd	-0.01720416
23	0x3d3efa1b	0.046625238
24	0xbc3affd3	-0.011413532
25	0x3cdd43ce	0.02700987
26	0x3b9003ed	0.0043949992
27	0xbbcf782c	-0.0063314643
28	0xbceb2c47	-0.028707637
29	0x3b918746	0.0044411747
30	0xbc91b525	-0.017786572
31	0x3ccc1834	0.024913885
32	0x3d18ae31	0.037275497
33	0x3c6b8aa9	0.014376321
34	0x3cd783ee	0.026308026
35	0x3c71a9a6	0.01474992
36	0x3c071bdb	0.008246387
37	0x3d24200d	0.04006963
38	0xbc881985	-0.016613731
39	0xbbd0b326	-0.0063690124
40	0xbc0a0582	-0.008424165
41	0x3d05fb0b	0.032710116
42	0xbd15cb60	-0.036570907
43	0x3c2269ff	0.009912967
44	0x3ccea257	0.025223894
45	0x3d4f204e	0.050567918
46	0x3ca5a5e6	0.020220708
47	0x3c1ee9e8	0.009699322
48	0x3d17da47	0.0370734
49	0x3d1321df	0.035920974
50	0x3cad1b42	0.021131162
51	0x3cd99003	0.026557928
52	0x3ccbf8b5	0.024898866
53	0x3ce748c6	0.028232943
54	0xbd0587e5	-0.032600302
55	0x3d86b8da	0.065782264
56	0xbcd6fc40	-0.026243329
57	0x3cc970cc	0.024589919
58	0x3d31feb2	0.043455787
59	0xbc4fc09b	-0.012680198
60	0x3c3f9007	0.011692054
61	0x3d3390d5	0.043839294
62	0x3d79e39c	0.06100808
63	0xbc3c1b6e	-0.011481149
64	0xbc0555f8	-0.008138172
65	0x3cd004a6	0.025392842
66	0xbd161423	-0.036640298
67	0x3c28ffe7	0.010314918
68	0xbcff051c	-0.031130366
69	0xbcd5d5fe	-0.026103016
70	0xbd35b448	-0.044361383
71	0x3d252ecd	0.040327836
72	0x3cd6ea42	0.02623475
73	0x3ca04e5f	0.01956862
74	0xbcebba86	-0.028775465
75	0xbca587cb	-0.020206353
76	0xbccc3acc	-0.02493038
77	0xbd094902	-0.03351689
78	0xbc463d94	-0.012099642
79	0xbc15e930	-0.0091498345
80	0x3ce51547	0.027964247
81	0x3cd70066	0.026245307
82	0x3c4cf0cc	0.012508582
83	0x3c1c125b	0.009525861
84	0xbbdb81dd	-0.0066988305
85	0x3ca9c2b0	0.020722717
86	0xbd324cfc	-0.04353045
87	0xbcbbf364	-0.022943206
88	0x3d32f20c	0.043687865
89	0x3cad295e	0.02113789
90	0x3ca6441c	0.020296149
91	0xbcccbe75	-0.02499316
92	0x3cd0be35	0.025481323
93	0x3cbadb2d	0.02280959
94	0x3d14ad12	0.036297865
95	0xbcaaa82d	-0.020832146
96	0xbcccffd8	-0.02502434
97	0xbd654a68	-0.055979162
98	0x3ba14912	0.0049220407
99	0xbd056add	-0.032572616
100	0xb9d90a31	-0.00041397059
101	0xbd409180	-0.04701376
102	0x3c984a41	0.018590095
103	0x3d13dad4	0.036097363
104	0xbd148b64	-0.036265746
105	0x3c2a2cc7	0.010386652
106	0x3cdf6a50	0.027272373
107	0x3d008878	0.031380147
108	0x3d140caf	0.03614491
109	0xbcc4effa	-0.024040211
110	0xbcd89116	-0.02643637
111	0x3d107167	0.0352644
112	0xbcf74aa9	-0.030186968
113	0x3cc2e8cd	0.023792649
114	0x3d25fe8e	0.040525965
115	0x3d28eee4	0.04124345
116	0x3cbea5ae	0.023272362
117	0xbbc5f553	-0.006041208
118	0x3d0edd11	0.034878794
119	0x3cbb7a9e	0.022885617
120	0x3ce2f74e	0.027705815
121	0xbd2412f9	-0.040057156
122	0xbce618f9	-0.02808808
123	0x3c291de3	0.010322067
124	0x3c90942f	0.017648784
125	0x3d247939	0.04015467
126	0x3d74411e	0.059632413
127	0xbcd1e381	-0.025621178
128	0xbbc1fc70	-0.0059199855
129	0x38efda9a	0.00011437126
130	0xbc001ddd	-0.00781962
131	0x3d409e3d	0.047025908
132	0xbd177108	-0.03697303
133	0xbc34aba8	-0.011027254
134	0x3cc3bf56	0.023894947
135	0xb827bc8c	-3.99915e-05
136	0x3d63aac3	0.055582773
137	0x3cfa4ae2	0.030553285
138	0xbd1d63bc	-0.038425192
139	0x3ca2f680	0.019892931
140	0xbcc87c94	-0.024473466
141	0xbd8a7777	-0.06761067
142	0x3ce04242	0.027375344
143	0xbb93e999	-0.004513931
144	0x3d364472	0.04449887
145	0xbd19c23e	-0.03753876
146	0x3c3cc8ff	0.011522531
147	0x3d6bc44a	0.057560243
148	0x3dac2efe	0.084074005
149	0x3ad4d3df	0.0016237459
150	0x3c91a9fe	0.017781254
151	0xbcbaf756	-0.022823017
152	0xbc9eb3c3	-0.019372826
153	0xbd1b8630	-0.037969768
154	0x3d30e828	0.04319015
155	0x3d786027	0.060638573
156	0xbcb9b13e	-0.022667523
157	0xbc341781	-0.010991932
158	0xbc076cd2	-0.008265691
159	0xbb9b4e60	-0.0047395676
160	0xbcf02e47	-0.029318942
161	0x3a08c9f7	0.00052180834
162	0xbca0db5e	-0.019635852
163	0x3d322d30	0.043500125
164	0x3d3b3ed6	0.045714222
165	0xbb62f2d6	-0.0034629605
166	0x3a08d579	0.0005219798
167	0x3ae4a67e	0.0017444638
168	0x3d60b861	0.054863337
169	0xbc7e6b87	-0.015528566
170	0x3ceb43f8	0.028718933
171	0xbc04215b	-0.008064593
172	0xbd006539	-0.031346533
173	0xbd6ad314	-0.057330206
174	0x3cb51505	0.02210475
175	0xbcd30115	-0.025757352
176	0xbd7d65a8	-0.061864525
177	0xbd1bf1e1	-0.03807247
178	0x3cf8e0a5	0.030380556
179	0xbcb5c302	-0.022187714
180	0xbc9d7bf9	-0.019224154
181	0xbc7f16c4	-0.015569393
182	0x3cb548d3	0.022129452
183	0xbdc81126	-0.09768896
184	0x3d7c7d91	0.061643187
185	0x3888049f	6.485846e-05
186	0xbd1bb7cb	-0.038017076
187	0xbbb30bf4	-0.0054640714
188	0xbc6894c8	-0.014195628
189	0x3b111437	0.0022137293
190	0xbdb0dc03	-0.08635714
191	0x3b02adb7	0.0019939968
192	0x3d58afbb	0.052901965
193	0xbbb79fda	-0.0056037726
194	0x3c43e557	0.011956534
195	0x3d3badab	0.04581992
196	0x39e550b2	0.00043738406
197	0xbcf91788	-0.030406728
198	0x3db21cbc	0.08696887
199	0xbca34c40	-0.01993382
200	0xbc78179a	-0.015142346
201	0x387e3e04	6.0616076e-05
202	0x3d9e028b	0.07715329
203	0x3d5888a9	0.052864704
204	0x3ce5adf7	0.028037054
205	0x3c3132a0	0.010815293
206	0x3be49227	0.0069754305
207	0xbc774975	-0.015093197
208	0x3c28d295	0.010304113
209	0xbc18cebc	-0.009326633
210	0x3bf5a2ae	0.0074961996
211	0x3c7eff7c	0.015563842
212	0xbcb2df2c	-0.021834932
213	0x3c85bd88	0.016325727
214	0x3cb51fd2	0.0221099
215	0xba28b8c6	-0.0006436225
216	0xbd034438	-0.03204748
217	0x3bafa166	0.0053598164
218	0x3d2b604a	0.041839875
219	0x3da7c1b7	0.08191245
220	0x38d9c0f1	0.000103833045
221	0x3c1eeb6f	0.009699686
222	0x3c9f833b	0.019471755
223	0xbb5b76d6	-0.003348758
224	0x3d0d2eda	0.03446851
225	0x3db90c09	0.09035499
226	0x3d3611af	0.04445046
227	0xbd112d17	-0.03544339
228	0x3c8f83a5	0.017518828
229	0x3d1dc72d	0.038520027
230	0x3b9d5bba	0.0048021944
231	0xbd07f03d	-0.033188093
232	0x3cb4755b	0.022028616
233	0x3c959a5f	0.018262086
234	0xbc45cfd2	-0.012073474
235	0xbc9a41ee	-0.018830266
236	0xbc5232f2	-0.012829529
237	0xbbeb965b	-0.0071895546
238	0xbc391b91	-0.011298076
239	0xbc0c076f	-0.008546694
240	0xbc688fed	-0.014194471
241	0x3982a258	0.00024916488
242	0xbd1606f9	-0.036627743
243	0xbd003366	-0.031299017
244	0xbbba7367	-0.0056900266
245	0xbd1000bb	-0.035156947
246	0x3b32779c	0.0027231937
247	0xbc8948ec	-0.016758405
248	0x3c64b147	0.013958282
249	0x3d3d0d7b	0.046155434
250	0x3ca0f020	0.01964575
251	0x3cadf3f3	0.021234488
252	0x3ba44a0a	0.005013709
253	0xbbf39dbb	-0.0074345744
254	0xbdc26686	-0.09492211
255	0xbc56f818	-0.013120674

action_model._discrete_distribution.branches.1.bias f4 [3]
0	0x3c80ddc3	0.015730744
1	0x3a8b1308	0.001061053
2	0xbcafee8c	-0.021476053
