Assets/results/T2/CarDriver/CarDriver-2270716.onnx (onnx, 188993 bytes, 9 tensors)

discrete_act_size_vector f4 [1, 2]
000000 00 00 40 40 00 00 40 40
       3.0 3.0

network_body._body_endoder.seq_layers.0.weight f4 [128, 225]
000000 fa 41 00 be a4 6c 50 3d 9e 1e 2c 3e 4d fd 25 bd
       -0.12525168 0.050884858 0.16808555 -0.04052477
000010 4d a3 2e 3d 46 ed ed bd 25 2b ae bd 8c e9 84 bd
       0.042636205 -0.11617522 -0.08504323 -0.06489858
000020 8f 3d 47 3d 55 f2 29 bd 09 d8 96 bd bf 01 36 bc
       0.04864269 -0.04149087 -0.07365424 -0.011108815
000030 d8 b5 0d 3e 2a 49 be 3d e2 90 1f be 41 5a 3d bd
       0.13838899 0.09291299 -0.15582612 -0.04622865
000040 49 09 94 bd 46 12 cf bd 2e 26 40 be 77 d6 d2 bd
       -0.072283335 -0.10110907 -0.18764564 -0.10294812
000050 a3 2e d7 bc 7e 04 ea 3b dd cf 30 be cc d6 59 bd
       -0.026267355 0.007141649 -0.17266794 -0.053183362
000060 ce 96 1a be 49 be 0e 3e 1b be 90 3c 96 56 44 bd
       -0.1509659 0.13939776 0.017668774 -0.047934137
000070 25 db c5 bd 31 02 36 bd c0 8f 33 3d a1 32 86 bb
       -0.09660939 -0.044435684 0.043838263 -0.004095391
000080 40 fa 60 3d 89 6f 8e 3d e8 3f 04 3d ad 29 ea bd
       0.054926157 0.069548674 0.03228751 -0.1143373
000090 74 0d 73 3d f2 53 8b bd da aa 3e bc 32 5b 54 bd
       0.059339 -0.06803121 -0.011637414 -0.051844783
0000a0 2a e9 9a 3c 2e e3 0b bd ed 80 1c 3d f9 62 e4 bc
       0.01891001 -0.034152202 0.03820889 -0.027879225
0000b0 23 40 ec 3d 73 1c 6b bd f7 a1 a3 bd ab 2a b8 3c
       0.115356706 -0.05740018 -0.07989877 0.022481283
0000c0 2a 06 91 3d ed 85 15 be 2d 5c 5d be 3f 5a b5 ba
       0.07081254 -0.1460187 -0.21617194 -0.00138361
0000d0 34 a0 ec bc 40 21 44 3d e7 9d 8a 3c e4 ce 38 bc
       -0.028884985 0.047883272 0.016920997 -0.011279795
0000e0 ab c1 01 bd 81 0e f4 3d 30 62 c9 3d a9 c8 97 3c
       -0.031678837 0.11916829 0.09833181 0.0185283
0000f0 f4 f8 72 be 29 79 26 bd e6 f5 63 bd 1c a0 49 bc
       -0.2372778 -0.04064289 -0.05565443 -0.012306239
000100 94 2e a5 3b 93 cd c5 bd 4e 16 bd bc 1e db 36 3c
       0.005040953 -0.09658351 -0.023081925 0.01116064
000110 bd a8 c7 bd dd e8 b9 bc 57 26 db 3d 64 81 f4 3b
       -0.09748981 -0.022694046 0.10700672 0.0074617136
000120 26 5e f7 3d b0 ef c9 bd 27 8b b1 3d b8 42 b9 3d
       0.12078504 -0.0986017 0.08669119 0.09045929
000130 41 f5 b0 3d 6b 63 90 bd d4 d7 26 bc f8 6a 6b bd
       0.086405285 -0.070502125 -0.010183293 -0.05747506
000140 9e f9 5a 3e 0f f8 09 bb fd 48 cd bc dc e3 00 3c
       0.21384284 -0.0021052395 -0.025059218 0.007866826
000150 f8 db e3 bd df 0f e0 3d 83 eb d7 3d 30 af 9c 3d
       -0.1112594 0.10940527 0.10542967 0.07650602
000160 e5 4a f1 bd 40 04 62 3e fb a9 be 3d 3b 53 c2 bc
       -0.11781863 0.22071934 0.09309765 -0.023721328
000170 3b b3 17 3d a3 26 3c be 2f 57 16 be 5e de 3b 3d
       0.037036162 -0.18374114 -0.14681695 0.045866363
000180 ad c7 83 3c 92 c5 41 3d 21 7d f9 bc 3b d9 2d 3d
       0.016086424 0.04730756 -0.030455174 0.042443495
000190 a0 f6 c9 3d 25 e7 a0 bd 34 5f b8 bd 64 3a 3c 3c
       0.09861493 -0.07856587 -0.090025336 0.011488531
0001a0 01 ac 21 3e 2c 1c 01 bc 08 50 08 3d 95 8a 1f 3c
       0.1578827 -0.007880252 0.03327945 0.00973763
0001b0 6f 6d ac bc ab af 6a 3d 31 32 55 bd c6 6e af 3c
       -0.021048276 0.057296436 -0.05204982 0.021415126
0001c0 80 91 86 3d 9e 16 03 be 3d f8 84 bc cb 1a 05 bd
       0.06570721 -0.12801597 -0.01623165 -0.032496255
0001d0 43 15 44 3e ad d7 f7 bd 02 f9 86 3d 02 4c 25 3e
       0.19148736 -0.12101684 0.06590463 0.16142276
0001e0 3b 6a 0f 3e 37 5b 4c be 34 51 0e 3d 01 14 43 3c
       0.14005367 -0.1995667 0.03474541 0.011906625
0001f0 d5 b8 55 be ac a1 4e 3d e0 2a cd 3d cf 74 79 3d
       -0.20871289 0.05044715 0.100179434 0.060902413
000200 33 d4 59 3e 93 6e 43 be 29 5f a0 bd 0d 93 09 3e
       0.21272354 -0.1908515 -0.0783065 0.13435002
000210 f6 7f 93 3d 34 dd de bd 9b f7 f3 3a 62 ce 56 bd
       0.07202141 -0.10882035 0.0018613221 -0.052442916
000220 da ae a3 bc 49 fd 47 bd cd 92 11 3d 21 e5 09 bb
       -0.019980837 -0.048825536 0.03554039 -0.0021041112
000230 70 ca b3 3d 18 e4 a5 bd 06 84 98 3d 8d bc 18 3d
       0.08778846 -0.08100146 0.074470565 0.03728919
000240 bd 68 b2 bd 66 c8 15 bd ed 7e 85 3d 07 60 fd 3d
       -0.087113835 -0.036568068 0.0651835 0.123718314
000250 98 ea 90 3d 44 93 c2 3b 16 07 24 3d 5f 4d cd bb
       0.07075995 0.0059379656 0.04004582 -0.006265327
000260 8e df ea bd f6 43 3f 3d 0d 6e e4 3d 7f 90 c6 3d
       -0.11468421 0.046695672 0.11153803 0.09695529
000270 9b c7 62 3d 08 53 02 3e 48 3d f3 bb e8 1d 0c 3c
       0.05536614 0.12726986 -0.007423077 0.008552052
000280 3f 3c ab 3d b1 d5 5d bd be 58 7f 3d 82 4b 7a 3c
       0.083611004 -0.05415887 0.06234049 0.0152767915
000290 84 7b 09 bd ed eb 00 3e f8 d2 bc 3d e1 e7 99 3d
       -0.03356506 0.12589999 0.092199266 0.075149305
0002a0 6b 57 56 3e 19 c9 b9 bd 05 a1 98 bd 3f 24 de 3c
       0.20931785 -0.090715595 -0.07452587 0.027116893
0002b0 95 35 ba 3c bf 7b 19 3d 06 77 92 3d d9 8e 32 bd
       0.022730628 0.03747153 0.07151608 -0.04359326
0002c0 6c d2 7e 3e 2f 0d c6 bd da 3a 1a bd b8 24 9b bd
       0.24884957 -0.09670483 -0.03765378 -0.07575363
0002d0 03 75 66 be e3 e3 96 3d 80 a5 47 3e a2 42 ca 3c
       -0.22505574 0.07367685 0.19496727 0.024689976
0002e0 93 d8 3c 3d 2b b8 c5 bd a5 fe db bd c4 e8 98 3d
       0.04610498 -0.09654268 -0.10741929 0.074662715
0002f0 ba 42 08 bd 70 78 6b 3d 79 a9 91 bb 21 12 03 3e
       -0.03326676 0.057487905 -0.0044452515 0.12799884
000300 27 81 03 be a6 c9 25 3e a7 9f e0 3d 98 1c 7e bd
       -0.12842236 0.16190204 0.10967951 -0.062038988
000310 ca 74 75 3e 17 14 65 bd 47 35 54 be a1 95 57 bc
       0.23970333 -0.055927362 -0.20723449 -0.013158233
000320 2a 96 44 3c 14 75 dc bc d1 25 fc 3d bc e7 cd 3d
       0.0119986925 -0.026911296 0.123119004 0.100539654
000330 4b b8 4e 3e db 5f 81 be 3b 86 f4 bd b3 0d a3 3d
       0.2018749 -0.25268444 -0.11939665 0.07961597
000340 eb e7 de be be 64 a8 3d 04 18 eb bb 5b 03 71 3d
       -0.43536314 0.0822234 -0.0071744937 0.05884109
000350 6e 2a 3c bc 4f c1 69 3c 24 a7 a5 bd 1f 00 95 3d
       -0.011484725 0.01426728 -0.0808852 0.07275414
000360 ae 2f 2b 3d 15 78 95 3d 45 1c d9 3d eb 0a 6a bc
       0.041793518 0.072982945 0.10601095 -0.01428483
000370 3b 14 ba bd 2a 79 d8 3d 13 4e 31 bd 6a 02 ac 3c
       -0.0908589 0.10569985 -0.043287348 0.020997245
000380 82 17 26 be 1f 2e 7b bd a4 dd d2 3c 60 97 be bd
       -0.16219905 -0.06132328 0.025740452 -0.09306216
000390 ee 22 1e bc 18 5e 82 3d cc d6 32 3d 01 2a 90 3d
       -0.009651883 0.06365603 0.043661878 0.070392616
0003a0 40 26 35 be c9 64 24 be 41 3b 10 3d 48 4c 9c bd
       -0.17690372 -0.16054071 0.03521276 -0.07631737
0003b0 ab 18 85 bd 58 a2 93 bd 65 cc 36 3d c2 be d9 bc
       -0.06498846 -0.07208699 0.04462852 -0.026580218
0003c0 5c 1e 5c 3d e9 8d 46 bc 5f 44 21 bc 8d dd c5 bd
       0.05373989 -0.012118795 -0.009842961 -0.09661398
0003d0 44 ff 22 bd 8b 29 29 bd ba 1d 9e bc f5 b2 21 bd
       -0.03979422 -0.041299384 -0.019301284 -0.039477307
0003e0 29 19 df bc 9d 92 56 bc 61 45 bc bc 4d ea 18 be
       -0.027233677 -0.013096479 -0.022982301 -0.14933129
0003f0 72 67 d0 bd b5 89 5c 3d cd f8 46 3d 85 36 cf 3c
       -0.10175981 0.053842265 0.04857712 0.025294552

network_body._body_endoder.seq_layers.0.bias f4 [128]
000000 9a 32 dd 3b b7 2a 05 bc e2 c8 08 3d 00 76 e5 3c
       0.006750417 -0.00812786 0.0333947 0.028010368
000010 e9 71 a3 3c 7d 96 2a 3d db 3a 0a bc 6f 1c 24 3d
       0.019951778 0.041647423 -0.008436884 0.04006618
000020 a0 dc 19 3c 94 20 8d bd 78 67 81 3c 47 27 96 bb
       0.00939098 -0.068909794 0.015796408 -0.004582319
000030 f3 43 6e bd 41 0c 9f 3c bd 25 7b 3d bc 9b 27 3d
       -0.05817027 0.019415023 0.061315287 0.040920004
000040 c4 b0 64 bd af ea 28 3d 81 ae 23 3d 25 0b 49 bd
       -0.05583264 0.041239437 0.03996134 -0.049082894
000050 41 7a b1 bc 09 a6 03 bd e3 57 50 3c e6 0e 3d bd
       -0.02166474 -0.032140765 0.012716266 -0.046156786
000060 3f c4 07 bd ac 5b 0c bb 1b 47 6f 3c 38 a9 e5 bc
       -0.03314614 -0.0021416945 0.014604355 -0.028034791
000070 69 cc 85 3c 7b 17 17 3d 46 8b 8b bc a3 f4 00 bc
       0.016332822 0.036887627 -0.017034184 -0.007870826
000080 31 b1 41 bd 73 4a 25 3d b4 18 37 3b 5c f2 13 3b
       -0.047288124 0.040354203 0.0027938308 0.0022574877
000090 88 ec 9d 3b 4d 46 86 bd b0 90 11 bd df 3a 55 bd
       0.0048194565 -0.065563776 -0.035538375 -0.052058097
0000a0 64 3e c4 3b bf 01 c6 3c 66 7f bf bc 2a 56 34 bc
       0.005988883 0.024170754 -0.023376178 -0.011006871
0000b0 d9 8e 47 bb 0f 33 4b 3d 4e 79 8a bb 33 b1 a6 3c
       -0.0030450134 0.04960924 -0.0042258864 0.020348167
0000c0 c1 e3 44 bc d8 6c 43 3d 7c 3a d8 3c e5 4f 59 bc
       -0.012017191 0.047711223 0.026395075 -0.013263677
0000d0 b1 38 b2 3c 83 da 61 bb c8 63 45 bd 85 40 ee 3c
       0.021755548 -0.0034462519 -0.048190862 0.0290835
0000e0 da df 37 bc b4 0a c3 3c 45 44 28 bc 7d ae 77 3d
       -0.011222804 0.023808815 -0.010270183 0.06046914
0000f0 65 9e a4 3c 95 5c 50 bd 52 f3 43 3d de e9 88 3c
       0.02009506 -0.050869543 0.04783947 0.016713079
000100 68 20 91 bd 86 60 57 bc 85 83 15 bd ce fe 1d 3c
       -0.07086259 -0.013145572 -0.03650238 0.00964327
000110 69 da 02 3d e9 69 51 3c 0c fb f3 bc 0a 24 39 bd
       0.031946573 0.012781599 -0.029782794 -0.045200385
000120 22 d2 a6 3c 49 f4 6d 3c 1c 4a 83 bd f9 7e 01 bb
       0.020363871 0.014523574 -0.064106196 -0.001975952
000130 35 39 8d 3b df 86 eb 3c f2 0e d0 bd 62 d4 42 3d
       0.004309798 0.028750835 -0.101591006 0.047565825
000140 f8 d1 b5 3b d0 0d 98 3c c3 69 3b bd fc 33 10 bd
       0.005548712 0.018561274 -0.04575516 -0.035205826
000150 2e 06 4b 3b e0 6e 1e 3b d6 dc 77 3b b1 42 90 bc
       0.0030979025 0.0024174973 0.0037820837 -0.017609926
000160 ec 52 87 bd 5e 21 23 bc 3c 5e 5d bc 3d 4e ab bd
       -0.06607613 -0.009956686 -0.013511237 -0.08364532
000170 fd ae 9a 3b 70 11 12 3d 6f 2c a4 3c 79 cf ea 3c
       0.0047205673 0.03566116 0.020040719 0.028663384
000180 2c 03 88 3c 61 38 69 3c d3 33 ae 3c 1a 7e 2c 3d
       0.016603075 0.014234633 0.021264946 0.042112447
000190 da e4 05 3d cb 3f 2e 3d 1c 6a fe ba 01 c2 56 bd
       0.032688953 0.042541306 -0.0019410285 -0.05243111
0001a0 61 b5 e6 3c 4b d3 2f 3d 0b 0f a1 3b 12 34 59 3c
       0.02816266 0.042926114 0.0049151233 0.013257043
0001b0 45 e4 04 3d b5 8b a0 3c 7b 6c 9f bb 0d ee 87 3c
       0.032444257 0.019597868 -0.004865227 0.016593004
0001c0 bd 0d 0f 3d 59 ce a6 bd 2a 9e 46 3c 7a 76 04 3d
       0.03492521 -0.081448264 0.01212267 0.03233955
0001d0 ca 32 d0 3b 11 6f 80 bd 44 61 48 bd 8c 3b 0b bd
       0.006353711 -0.06271184 -0.048920885 -0.033992335
0001e0 74 5b d1 bb 22 d7 f9 39 5c fe 4f 3c 49 fa b6 3b
       -0.006389076 0.00047653267 0.012694921 0.0055840355
0001f0 75 84 d2 3b 8b 62 3a bd 65 e4 f4 ba 52 75 86 bc
       0.0064244815 -0.045504134 -0.001868379 -0.016413365

network_body._body_endoder.seq_layers.2.weight f4 [128, 128]
000000 3a e4 69 bd 77 9a 2a bd 8b d7 8f 3c ea a2 3a 3d
       -0.05710242 -0.041651215 0.017558834 0.045565523
000010 7a 97 81 3d 20 42 7f 3e 05 9d 73 3d 9e 38 05 3e
       0.0632772 0.24927568 0.059475917 0.13009879
000020 d5 85 c3 bb 6d 56 b8 3c 8e e4 c1 3c 0c d3 60 be
       -0.0059668818 0.022502149 0.023668554 -0.21955508
000030 ac 1b 44 bd 52 35 cc 3c ac 4e 90 3d b4 42 ff 3d
       -0.047877952 0.024927769 0.070462555 0.124638945
000040 8f bb d5 3c be ac 1b bd e0 9f 17 bd 19 07 8a 3b
       0.026090411 -0.038006537 -0.037017703 0.004212272
000050 c9 c8 34 be ce 26 59 bd 2d e1 30 be 10 85 01 3e
       -0.17654718 -0.053015523 -0.17273398 0.12648416
000060 97 85 36 3d b4 23 39 3c 6d be 0a 3d 8e 57 c9 3d
       0.044560995 0.011300016 0.03387301 0.09831153
000070 32 fd 08 3d 02 38 5f 3e 4b ef 7b bd eb 8c db bd
       0.03344459 0.21798709 -0.061507504 -0.10720237
000080 00 00 fc 3d 61 e8 d6 3c 6e 92 7d be b6 e2 8c 3e
       0.123046875 0.026233854 -0.2476289 0.27516717
000090 6e e0 77 bc 4c 56 a2 bc fa d8 31 be e8 2f 1f 3e
       -0.015129192 -0.01981654 -0.17367926 0.15545619
0000a0 b8 12 d6 bd c4 16 de bb 4a e5 14 be 20 0a 3e be
       -0.10452789 -0.006777616 -0.14540592 -0.1855855
0000b0 01 c0 0f be ff 17 c3 3d 07 fd 7f 3b 5f 16 76 be
       -0.14038087 0.09526061 0.0039060728 -0.24031971
0000c0 81 34 32 3a 3a e4 9d 3d 02 8e f0 bd 82 36 9b bd
       0.0006797985 0.077095464 -0.11745836 -0.07578756
0000d0 4f b8 2d 3d 98 03 2a be e6 87 21 be fc dd 8e 3e
       0.0424121 -0.16602933 -0.15774497 0.27903736
0000e0 87 e0 7a 3d b0 9f 8a bd c3 d7 c2 3d d1 d8 87 3c
       0.061249282 -0.06768739 0.095138095 0.016582878
0000f0 f5 58 62 bc a2 6c b1 3c 2a 36 37 3e 15 3d 14 be
       -0.013815154 0.021658245 0.17891756 -0.14476426
000100 71 c8 e0 bd b5 ac e2 bd 53 28 9b bd 3f 89 8b bd
       -0.10975731 -0.110680975 -0.075760506 -0.06813287
000110 a2 b6 73 bc 4c 70 93 3a b2 4d 86 3c 15 e9 9e 3c
       -0.014875086 0.0011248677 0.01639447 0.019398252
000120 2c 0a 0e 3d 0e b9 14 3d f9 c7 65 3c 90 dd 10 be
       0.03467767 0.036309294 0.014024728 -0.1414702
000130 70 48 91 bd 3a 9d 2b bd 7a 22 92 bd be f5 1e 3e
       -0.070938945 -0.04189799 -0.07135482 0.1552343
000140 fa 6b 9a 3d 84 97 ff bd 90 f5 6a 3d 2f 81 76 bd
       0.07540126 -0.12480071 0.057363093 -0.060181793
000150 84 6f 27 bd c2 81 06 bc 97 fa 7c bd 9b ee 90 3d
       -0.040877834 -0.008209648 -0.06176242 0.070767604
000160 a7 90 d6 bc ac 1c 19 3d e1 a3 b0 bd e7 ef 02 be
       -0.026192022 0.03738086 -0.086250074 -0.12786828
000170 05 08 d6 bd 3c 1a bd 3d 75 08 b4 bd d6 81 69 3e
       -0.10450748 0.092335194 -0.087906756 0.22803435
000180 7f 86 67 bc f0 05 07 3e 16 db 09 3e 8d 13 05 bd
       -0.014131187 0.13185859 0.13462481 -0.03248935
000190 4a 0e c4 3c 12 0a db 3d 07 13 a7 bd bf ee 2a 3d
       0.023932595 0.1069528 -0.08157926 0.041731592
0001a0 5e c5 03 bc 0b d1 f8 3d 8d 2a 94 3c 49 82 28 be
       -0.0080426615 0.12149247 0.018086696 -0.1645595
0001b0 4e 75 47 3e 38 72 6e 3e 4c 15 37 be 6c ef 1d be
       0.19478342 0.23285758 -0.17879218 -0.15423363
0001c0 7e 25 1e 3e 7c 75 45 bd 14 c3 9b 3d 86 9e fc bc
       0.1544399 -0.048207745 0.076055676 -0.030837309
0001d0 13 80 c1 3d af 4e 9f bd b5 7b 17 be 86 4b 09 3e
       0.09448256 -0.077786796 -0.14793284 0.13407716
0001e0 4a cd 8c bd 2b 47 1f be b1 cb a7 bc f6 e6 a4 bd
       -0.06875093 -0.15554492 -0.02048287 -0.08051865
0001f0 c3 d7 26 3e ac da 86 3d f8 c1 f5 bd d9 26 ea bb
       0.16293244 0.06584677 -0.11999887 -0.0071457443
000200 5e 71 0d 3d c8 cb ec 3d a1 11 91 3e ee 37 89 bd
       0.034531944 0.11562306 0.28333762 -0.06700121
000210 6f 63 66 be a4 da 8e bb f4 7b fe 3d 66 1e 1a 3d
       -0.22498868 -0.00435956 0.12425986 0.037626646
000220 30 cb 5e 3e 72 99 d5 bd 48 c6 b2 bd b9 ef fe 3d
       0.21757197 -0.10429658 -0.087292254 0.12448067
000230 5f 68 b6 3d ce 42 25 3e 32 1c 35 be 5c f6 22 be
       0.08906626 0.16138765 -0.17686537 -0.15914291
000240 81 f5 83 bd b3 02 27 bd 67 75 9d b9 9d f3 81 bb
       -0.064433105 -0.04077406 -0.00030032845 -0.0039658085
000250 f3 bc 0e bc de 7b 69 3d 1f 84 5d 3e cc 01 03 be
       -0.008712041 0.057002895 0.21632431 -0.12793654
000260 2b d4 cd bd 1d fb e4 3d 69 62 34 3d 32 07 8d 3d
       -0.100502335 0.111807086 0.044039164 0.06886138
000270 d2 79 8a 3d 35 52 b7 3d f4 9b 8f 3e 8b 91 00 3d
       0.06761517 0.089512266 0.2804867 0.0313888
000280 d3 1d 4e be 73 71 c7 bd 18 17 3e 3d e7 cc d0 bd
       -0.20128565 -0.097384356 0.046408743 -0.10195332
000290 03 d7 0d 3d 10 87 66 3d 6a 75 65 3e 52 74 1c 3d
       0.03462888 0.05628115 0.22408071 0.03819687
0002a0 c1 40 14 3e 87 90 33 be 69 d0 06 3d 68 39 52 3d
       0.14477827 -0.17535602 0.0329136 0.051324278
0002b0 50 e5 9a 3a 8c b0 d9 3d 56 a3 8d bd a1 68 9d bc
       0.0011817608 0.10629377 -0.069159195 -0.01921493
0002c0 31 da 68 3d 03 c6 a6 bd 59 c4 07 3e 36 9e bf 3c
       0.05684871 -0.081432365 0.13258494 0.02339087
0002d0 d4 94 43 be 43 4c 12 bd be f4 d9 3d bf 4c ad be
       -0.19099742 -0.03571726 0.10642384 -0.33847615
0002e0 aa d4 24 bd a7 a6 02 3d e7 8e 62 bc 35 02 00 3d
       -0.040241875 0.031897213 -0.013828016 0.031252105
0002f0 2c 79 a1 bd 05 0e 9b bd 51 93 4e 3d b3 dc 04 3e
       -0.0788444 -0.075710334 0.05043346 0.12974815
000300 85 f3 34 3e 87 9d 18 bd 1c fc 96 bd eb ce 2b be
       0.1767102 -0.037259605 -0.07372305 -0.16778152
000310 fa ec 04 3e a5 25 11 bc 5e 49 16 bd 34 89 71 bd
       0.12981024 -0.008859073 -0.036691062 -0.058968738
000320 d7 77 11 3e d8 8e 81 bc 8a e5 81 3e 8c df 87 bd
       0.14205872 -0.015815184 0.25370437 -0.06634435
000330 d8 88 cb 3d a6 8c 48 3d 17 dd e9 3d c4 bc aa be
       0.0993821 0.048962258 0.11419123 -0.33347142
000340 76 8e 88 be 51 90 71 3c 3b 31 ac bb c1 cc 27 be
       -0.2667119 0.01474388 -0.005254892 -0.16386701
000350 5c 6c 9a bc e9 fa 28 3d d2 8e 5f 3d ca 56 2b be
       -0.018850498 0.04125491 0.054579563 -0.16732326
000360 4f 48 09 bc 96 76 3d 3d 1c 62 93 bd 82 db 5f 3c
       -0.008379056 0.04625567 -0.07196447 0.013663175
000370 f5 db 7c 3c fd 11 d8 bc 01 e4 13 3d a7 5e af bd
       0.015433301 -0.026375765 0.036106113 -0.085629754
000380 4a a1 b0 bc eb 85 7e 3d 89 a8 1a bd f6 6a a5 bd
       -0.021561284 0.062139433 -0.037758384 -0.08077042
000390 b1 d0 b5 3c 6f 44 20 3e 7b 61 84 bc 8d e9 6a 3e
       0.022194238 0.15651105 -0.016159764 0.22940655
0003a0 d8 0b da bd aa d1 52 bc 1e 2b 58 3e f4 3c 45 3e
       -0.1064679 -0.012867371 0.21110198 0.19261533
0003b0 79 f5 8c bd 60 f8 69 bd 29 e5 fd 39 f6 e3 ae bd
       -0.06882758 -0.057121634 0.00048426658 -0.08539574
0003c0 e5 49 9e bd c2 0c 4a 3e 53 11 1d 3d fd 0f d4 3d
       -0.07728938 0.19731429 0.0383466 0.10354612
0003d0 b9 8a 2a be 44 0d 23 3e 8a 39 14 be 59 ae 43 be
       -0.16654481 0.15923029 -0.14475074 -0.19109477
0003e0 7b cd 86 3d ee bc 8d bd 5c e0 1e bd 58 61 1c be
       0.06582161 -0.06920801 -0.038788185 -0.15271509
0003f0 1b d2 b4 3d 78 80 4b 3e ad b0 9e 3d a3 58 01 be
       0.08829137 0.19873226 0.07748542 -0.12631468

network_body._body_endoder.seq_layers.2.bias f4 [128]
000000 3c 11 d4 3c 22 f0 95 bc f0 d5 7b 3d 18 68 f5 bc
       0.025887124 -0.01830298 0.061483324 -0.029956862
000010 de 6d d2 bb 1c 22 8a 3d e2 76 f8 bc 19 7b 25 bc
       -0.0064217886 0.06744787 -0.030330125 -0.01010015
000020 35 75 f0 3c 01 ee e8 3c bf 15 c7 3b 8e 7d 8b 3d
       0.029352764 0.028433802 0.0060755904 0.06811057
000030 69 f9 76 bd 95 21 8f 3d 67 e9 48 bd 00 6b 87 bd
       -0.06029645 0.06988827 -0.049050715 -0.066122055
000040 2b 3e 7d bd 5b b1 4d bc 8a 0a 13 3d 45 80 82 bd
       -0.061826866 -0.012554492 0.035898723 -0.06372122
000050 b9 1d 41 3c 5b 34 e6 3c fb 98 8d 3d 4e 18 90 bd
       0.011786872 0.028101137 0.06913944 -0.07035886
000060 d5 24 68 3d 5a 6d fa 3a af 6b 88 3d cb 05 37 3d
       0.05667575 0.0019106076 0.06661164 0.04468326
000070 cc 44 42 3d bd b2 32 bd 9e c5 99 3d 6c f7 1d 3d
       0.04742889 -0.04362749 0.075083956 0.038566038
000080 da 23 89 bd e3 7f 3c 3c 8f ac 0f bd 21 20 9e 3a
       -0.06696291 0.0115051 -0.035076674 0.0012064019
000090 80 9b 2a bd 30 88 7b bc 65 26 ab bd a1 47 ac 3d
       -0.041652203 -0.015352294 -0.083569326 0.084121
0000a0 de e2 ad 3d fe 9a 25 bd 1c 4a 88 3d 85 59 65 bd
       0.08490537 -0.040431015 0.0665476 -0.055993576
0000b0 48 4a 82 bd a4 f9 dd bd fc 8a d1 bd c0 b9 d8 bc
       -0.06361824 -0.10838631 -0.10231587 -0.02645576
0000c0 ff 0d 94 3d 7f af 84 3d ed 72 2d 3c 4d d7 dc bc
       0.07229232 0.06478786 0.0105864825 -0.026958132
0000d0 9e 89 22 3d 04 37 a6 3b 5c f5 c9 3c 23 6d 72 3d
       0.039682023 0.0050724763 0.02465313 0.059186112
0000e0 7f 14 c3 bb 7e d9 d5 3b 11 fb 52 3d 60 be 28 3d
       -0.005953371 0.006526171 0.051508967 0.04119718
0000f0 64 56 7c 3d f7 38 c0 bc b7 b7 47 3d 7b f3 5f 3d
       0.061605826 -0.023464663 0.04875919 0.05467556
000100 8e ef ae 3c 17 6f 56 bd 29 a0 01 bd 3f f6 87 bd
       0.021354463 -0.052352037 -0.03164688 -0.066387646
000110 e8 15 54 3d ae c1 27 bd 96 1b 18 bd 1e 9a 98 bd
       0.051778704 -0.04095619 -0.037135683 -0.074512705
000120 0d aa 91 bc e5 a3 a2 3d 00 e4 94 bd d0 a8 55 bc
       -0.017781282 0.07941417 -0.0727005 -0.013040736
000130 93 6d 64 bd 8d 2e 73 bd b4 75 8f bd 94 8f ce 3c
       -0.05576856 -0.059370566 -0.07004872 0.025214948
000140 57 60 96 bd 81 c7 d7 bc 1b 80 3c 3d 02 f6 a5 bd
       -0.07342594 -0.026340248 0.04602061 -0.08103563
000150 5a 8c 45 3c 85 07 88 bd 6f f3 34 bd 76 ca 8d bb
       0.012057388 -0.06642059 -0.04417747 -0.0043271137
000160 81 74 6f bc 3c 7e ef 3c d3 e8 a9 3d 05 94 97 bc
       -0.014615179 0.029234998 0.08296361 -0.018503198
000170 d2 45 21 3d bb 5a 83 3d fd 4c 87 3d e5 9e 9b ba
       0.039373226 0.0641379 0.06606481 -0.0011872916
000180 67 7c 0e 3d 1b c7 89 3d 44 e4 83 3d 8b ff 64 3d
       0.034786608 0.067274295 0.064400226 0.055907767
000190 25 02 6d bd 7d 50 53 bd cd 1f 2d 3d 8e 13 60 3d
       -0.057863373 -0.05159043 0.042266656 0.05470615
0001a0 18 3f b5 3d 76 23 68 3c 44 1c 14 3d 72 92 83 3d
       0.08849925 0.014168611 0.03615977 0.064244166
0001b0 74 92 ca 3c 2c 4f a1 bd ca 07 8f bb b7 48 0d 3d
       0.024728037 -0.07876429 -0.004364942 0.034493174
0001c0 91 b5 45 3d cc fc 76 bd 19 63 45 bd e8 90 a6 3d
       0.04826886 -0.06029968 -0.04819021 0.081331074
0001d0 de fc c9 3c 2a 87 58 3c c3 fb 09 3d f6 da 6d bd
       0.02465671 0.013215819 0.033687364 -0.058070146
0001e0 85 a9 17 bd a1 f1 78 3d 62 07 b8 3c 3b 1a 91 bd
       -0.0370269 0.06077731 0.022464458 -0.07085081
0001f0 62 17 b7 bb 8e 1d e6 3c 0f 96 94 3c 23 fc 01 3d
       -0.0055875042 0.028090265 0.01813796 0.031734597

action_model._discrete_distribution.branches.0.weight f4 [3, 128]
000000 80 b1 cf bd 96 c2 cb bc e0 cc 63 bd cb 44 17 3c
       -0.10141277 -0.02487306 -0.055615306 0.00923271
000010 ca 4b f3 3c 7a 54 9f bd 92 0d 9b bc 1a e2 ba bb
       0.029699225 -0.077797845 -0.01892737 -0.005703223
000020 6f a2 74 bd b0 d0 0f bd e9 db fb bc d9 32 9d bd
       -0.05972522 -0.03511113 -0.03074451 -0.07675714
000030 8b 3a b9 3d ef 62 fd bd 98 d9 b9 3d 75 57 49 3d
       0.09044369 -0.12372386 0.09074706 0.04915567
000040 e1 63 bc 3d f4 d8 66 3c 2e f1 fc bc cd 96 c5 3d
       0.09198738 0.014089812 -0.030876722 0.096479036
000050 b7 52 6d bd 6e 19 e9 bb 0a 79 26 bd f6 76 b1 3d
       -0.05794021 -0.007113627 -0.040642776 0.08665268
000060 5b 73 bd bd 13 b1 5a bd 1e df a9 bd f2 e7 89 bd
       -0.09250518 -0.053391527 -0.08294509 -0.06733693
000070 37 0d 67 bd f6 be f2 3d ad 8c 04 bd fd 39 15 bd
       -0.056409087 0.11852829 -0.03236072 -0.036432255
000080 d9 81 c1 3d a6 13 58 bc 62 1a eb bc 75 aa 48 3a
       0.094485946 -0.013188278 -0.028699104 0.00076547946
000090 11 6a 0e 3e 29 13 46 3b 0e 88 b7 3d 0c 3e ab bd
       0.13907649 0.0030223823 0.08961497 -0.08361444
0000a0 75 ac 8a bd 8f 5b f0 3d 14 bd a0 bd 6e 97 b8 3c
       -0.06771175 0.117362134 -0.07848564 0.022533145
0000b0 b4 85 85 bc 65 fa 95 3d 7d 9e a2 3d 28 cc f2 3d
       -0.016299106 0.073231496 0.079403855 0.11855346
0000c0 6d 90 0c be d0 3e b8 bd d7 0a 2d 3d 5f df 3a 3c
       -0.13726969 -0.089963555 0.042246666 0.011405795
0000d0 e8 3d 68 bd 3f b8 5f 3d 2e 38 f4 3c a7 e6 85 bd
       -0.056699663 0.05461907 0.029811945 -0.06538134
0000e0 51 6c d8 3c aa 43 86 bc eb fd 82 bd 27 98 60 3b
       0.026418837 -0.016389687 -0.06396087 0.0034270377
0000f0 c5 12 f8 bd a4 8e 28 bd ec ca cc bd 96 51 ea bc
       -0.12112955 -0.041151658 -0.09999642 -0.028603356
000100 3d 68 d1 bc 93 73 fc 3c c2 a2 b7 3c e6 c7 7e 3d
       -0.0255624 0.030816829 0.022416476 0.062202357
000110 d4 c5 eb bd e7 cd 3b 3d 1a 03 79 bd 04 6c 04 bb
       -0.11512342 0.04585066 -0.060793974 -0.0020205984
000120 53 b3 43 bd 24 11 b6 bd d8 37 5e 3b 2c 2f 01 3d
       -0.04777844 -0.08889988 0.0033907797 0.031539127
000130 67 af 0f 3d 1d 7b c4 3d 7a dd e3 3d ac b0 64 bc
       0.035079386 0.095937945 0.11126228 -0.0139581375
000140 0f e4 6f 3d d2 73 cf 3d 0f 94 76 ba 9e 24 c9 3d
       0.058567103 0.10129513 -0.0009406218 0.09821437
000150 bb 6e 7d bd 74 99 af 3d f2 ab f9 3d 21 1d 06 bd
       -0.06187318 0.08574191 0.12190999 -0.032742623
000160 a7 59 25 3c af d3 1d bd ae 18 a0 bd a7 46 b3 ba
       0.010092176 -0.038531955 -0.07817207 -0.0013677672
000170 d8 32 2b bd c0 e2 e6 bc ba 89 86 bd 88 de 6b bd
       -0.041796535 -0.028184295 -0.06569238 -0.05758527
000180 20 26 28 bd c3 59 98 bd 5f 23 92 bc f8 9f d8 bd
       -0.041051984 -0.07438996 -0.017839132 -0.105773866
000190 cc 92 df 3d 8c 24 96 bc 71 16 45 bc 02 a1 92 bd
       0.10916671 -0.018327974 -0.012029276 -0.07159616
0001a0 34 69 97 bd 5e 60 b8 3c 3a af 89 bd c7 dd 19 be
       -0.07393113 0.022506889 -0.06722875 -0.15026008
0001b0 24 06 7e bd 30 37 9e 3d 67 66 1e 3d d8 51 b4 bb
       -0.062017575 0.0772537 0.038671877 -0.0055029206
0001c0 4e 0c d0 bd cf d8 48 3d 3f 9b 97 3d 70 f7 b8 bd
       -0.10158597 0.04903489 0.07402658 -0.0903157
0001d0 3d 95 53 bc 19 cf 89 3b fd ae 32 3c d0 af 14 bd
       -0.012913999 0.004205596 0.010905978 -0.03630048
0001e0 0b 84 c8 3d 29 10 fc bd 20 2f 4c bd 75 c9 99 3b
       0.0979081 -0.1230777 -0.04984963 0.004693205
0001f0 88 11 77 bd 19 64 1d bd b3 35 77 bd d3 cc f2 bc
       -0.060319453 -0.03842554 -0.060353946 -0.029638683
000200 38 5e 67 3d 49 68 b7 bc 6c b4 88 3d 37 e2 bf bd
       0.05648634 -0.022388594 0.06675038 -0.09369319
000210 4d 4a 87 bc 18 c1 70 3d f4 da c2 bd b8 42 1a bd
       -0.016514922 0.0587779 -0.09514418 -0.037661284
000220 d1 af 22 3d 82 4d 31 3c e8 da bd bc 79 0d ac 3d
       0.039718453 0.010821702 -0.023175672 0.08401007
000230 c4 55 04 be 92 31 e4 3d ae 38 16 be 7a de c5 bd
       -0.12923342 0.11142267 -0.14670059 -0.09661575
000240 ec 88 fc bd a8 1a e9 bb e9 9d 1f 3d aa 15 07 be
       -0.12330803 -0.0071137734 0.038968954 -0.13191858
000250 41 a8 0d 3c 75 66 e5 3c ae 36 99 3d 3c 66 00 be
       0.008646072 0.028002957 0.074811324 -0.12539
000260 c8 ac 97 3d c2 9f cf bc 80 78 a4 3d df c2 bf 3c
       0.07406002 -0.025344733 0.08030796 0.023408351
000270 bf ad 94 3d 17 83 26 be 89 f1 a4 3d d3 2e 94 3d
       0.07259702 -0.16260944 0.08053882 0.072354935
000280 e6 74 07 be 58 6c 82 3b 32 1c 93 bd 96 09 aa bc
       -0.13228187 0.0039802007 -0.07183112 -0.020756524
000290 8c d5 0c be cc 6d cd bc 6a 69 1c be 01 49 fd 3d
       -0.13753337 -0.02507677 -0.15274587 0.1236744
0002a0 31 75 ba 3d 41 b8 2c be 8b e7 79 3d 21 03 06 be
       0.09104384 -0.16867162 0.061011832 -0.13087131
0002b0 8c 1c 7b bd 4e 55 de bd 2a 0d 00 be dd d2 57 bd
       -0.06130652 -0.10856114 -0.12505022 -0.05269133
0002c0 88 26 06 3e bc c2 b5 3d 28 3d d6 3b d5 4e 85 bd
       0.13100636 0.08875033 0.006538052 -0.06509177
0002d0 9f 4e ac 3d 01 86 65 bb 2d 6f 4a 3b 38 1e 98 3d
       0.08413433 -0.00350225 0.003088902 0.07427639
0002e0 eb 3a 54 bc c3 40 b1 bc 9f 86 e7 3d 53 55 0d 3d
       -0.0129535 -0.021637326 0.11304974 0.0345052
0002f0 cd 64 d3 3d 01 61 67 bd 07 03 91 3d 8e 8b ac 3d
       0.103219606 -0.056488995 0.070806555 0.084250554
000300 84 4c 3f 3d 90 b2 fe bc 16 a1 5e bd fa 29 d6 bd
       0.04670383 -0.031091005 -0.054352842 -0.10457225
000310 1c 2d 86 3d d8 83 cd bd 10 df 4e bd a9 b1 e0 bd
       0.06551573 -0.10034913 -0.050505698 -0.10971386
000320 8b 6f 88 bd 80 0b 01 3e cb 4b df bd 38 9b 15 bd
       -0.066619 0.12602043 -0.10903128 -0.03652498
000330 51 ab 37 bd e2 c6 20 be 3a 52 0a be c8 86 a8 3c
       -0.044841114 -0.15700868 -0.1350793 0.020572081
000340 4a 93 e9 bd fd 6e dd bd c9 77 2e 3d b3 c6 0c be
       -0.11405046 -0.10812185 0.042594705 -0.13747673
000350 9d b6 d2 3c ae 76 f2 bd 7b 41 04 be c4 47 57 3c
       0.025721842 -0.118390426 -0.12915604 0.013139669
000360 a1 1f 69 bd 2f 1e 23 3d 30 17 d3 3d b3 79 70 bc
       -0.05691493 0.039823707 0.10307157 -0.014677453
000370 78 a6 6e 3c 8e 5f c0 3d 82 32 a9 3d 5d b7 d5 3c
       0.014566056 0.093932256 0.08261587 0.026088411
000380 d8 d6 6e 3d 89 8b 8d 3d 4e af 04 3d 74 ed 4e 3d
       0.05831036 0.0691138 0.032393746 0.05051942
000390 0e 4c 0e be d2 62 9b bd cf 98 74 3d c6 31 a9 3d
       -0.138962 -0.07587208 0.059716042 0.08261447
0003a0 cb e4 b2 3d a4 61 90 3c 63 9d 97 3d 35 10 c0 3d
       0.08735045 0.017624684 0.07403066 0.09378091
0003b0 25 80 49 3d 90 bd 8e bd 08 21 2b 39 55 7a 84 3d
       0.049194474 -0.0696975 0.00016320136 0.064686455
0003c0 2b 6f b8 3c 04 44 cf bd fe d8 8b bd a4 c9 92 3d
       0.022513947 -0.10120395 -0.06828497 0.07167366
0003d0 fa 50 45 3c 85 91 bb 3c 16 56 68 3c d4 4c a2 bd
       0.012043232 0.022896538 0.014180681 -0.0792481
0003e0 26 6e 1b be 13 e9 9d 3d e1 fb 17 3d b7 a5 ed bd
       -0.15178737 0.07710471 0.037105445 -0.11603873
0003f0 ec bf 84 3b 6a a2 4f 3d 97 af 68 3c 4b 1f 6a 3d
       0.004051199 0.050692 0.01420202 0.05715875

action_model._discrete_distribution.branches.0.bias f4 [3]
000000 ae 5c ce bd 0c c6 0f 3e 91 d2 92 bd
       -0.10076271 0.14040393 -0.071690686

action_model._discrete_distribution.branches.1.weight f4 [3, 128]
000000 bb 11 57 3d 80 7b c3 bd e7 62 0b bd 29 3b 98 bd
       0.052507143 -0.0954504 -0.034029868 -0.07433159
000010 99 ab c1 bd 55 30 11 3c 53 83 fb bc c7 af c7 bd
       -0.09456558 0.008861621 -0.030702269 -0.09750324
000020 6a 07 d9 bd b3 4e f0 bd 1c 7b c3 bd da 08 0e 3d
       -0.10597117 -0.11733761 -0.095449656 0.03467641
000030 7e 4b e0 bb 61 7d 4f 3c 49 31 83 3a 07 99 7f bd
       -0.006844937 0.01266417 0.0010009195 -0.062401798
000040 91 2e 62 bc cb 3a 3d bc a4 2a 40 3b 30 96 b1 bb
       -0.013805048 -0.011549662 0.002932229 -0.005419515
000050 68 88 a6 bd e9 5f 6e bb e7 d7 86 3c c2 bf bd 3c
       -0.08131486 -0.0036373085 0.016460372 0.023162726
000060 94 00 04 3d 68 ef f0 bd 63 47 d4 3c 20 6f 8f 3d
       0.032227114 -0.11764413 0.025912946 0.07003617
000070 6a d7 22 bd 0b 7a 84 bc cf 53 96 3d d1 2f 97 3c
       -0.039756216 -0.016171476 0.07340204 0.018455418
000080 f2 95 b1 bc 36 91 e6 bd d1 f7 b5 bd b8 73 e5 bd
       -0.021677945 -0.112581655 -0.08885158 -0.11203712
000090 c3 72 e3 ba 12 7b 54 bd d2 c5 d2 bb fc 40 99 3c
       -0.0017352927 -0.05187518 -0.0064322734 0.018707745
0000a0 41 12 3c 3c 2b b7 70 bc 9b 10 25 3d a6 46 cc bc
       0.011478961 -0.014692108 0.04029904 -0.024936032
0000b0 cd 49 85 bd ae 23 8e bc bf 90 2a bb 56 34 28 bd
       -0.06508217 -0.017350998 -0.0026026217 -0.041065536
0000c0 cc 34 4e 3d 2b 46 f4 3c ed 26 ae bd ce 73 cb bd
       0.05034332 0.029818615 -0.08503518 -0.09934197
0000d0 e8 8f b3 3d 94 1d 4d bd 0d 8e 14 be 5e 4d 69 3d
       0.08767682 -0.050077036 -0.14507313 0.05695855
0000e0 3c 12 fb bd a9 73 e1 bd 51 46 36 b9 76 02 2d bd
       -0.12259337 -0.110083885 -0.00017383067 -0.042238675
0000f0 06 8b 4e 3d 39 3c ac bd 4e 59 22 3d 0d d5 4a 3d
       0.05042555 -0.08409924 0.03963595 0.049519587
000100 2d 82 71 bd 5d 5c fe 3b 44 79 d9 bd 1d b5 00 bd
       -0.058962036 0.0077624754 -0.10618833 -0.031422723
000110 8a 6f a8 3d 0f cf 32 3c ea 1d 36 bc 01 6e fd bc
       0.082243994 0.010913624 -0.0111155305 -0.030936243
000120 12 9b 11 bd 4d 80 67 3d ad f2 af bc 9e 5a ba bd
       -0.035548277 0.05651884 -0.021478022 -0.09099315
000130 ed 12 20 bd 54 59 6b bc 8d ec 25 bc 30 8e dd bd
       -0.03908055 -0.014364559 -0.010127199 -0.10818136
000140 48 82 03 bd ef e6 36 3c 99 1c 9e bc ae ad dd bc
       -0.032106668 0.011163457 -0.019300746 -0.027060356
000150 5e 44 49 bd 23 f7 c3 bc e9 b5 4d bc 2e 02 bd bc
       -0.049137466 -0.023921555 -0.012555578 -0.023072328
000160 e0 0e 9f bd 9d 57 03 3c 65 b8 40 3d fd 4c 99 bd
       -0.07766509 0.008016494 0.047050852 -0.074853875
000170 b3 49 e7 3b 5c 76 cd 3b 81 39 82 bc 0d 8d df bc
       0.007058346 0.006270213 -0.01589656 -0.027288938
000180 04 1c a0 3c 0f 09 58 3d ee ae 51 3c 41 81 36 3d
       0.019544609 0.052743014 0.012798054 0.04455686
000190 ef c1 1e bd f5 92 9c bb d3 76 2e bd c6 48 ea 3c
       -0.03875917 -0.004778261 -0.04259379 0.028599154
0001a0 9c e1 92 3b 40 f4 c4 bd 09 85 ab 3b f4 2a a5 3d
       0.004482461 -0.096168995 0.005234365 0.08064833
0001b0 cf db 49 bd 47 7c 4b bd b4 23 bd bd 82 58 6c bd
       -0.04928189 -0.049679067 -0.092353255 -0.057701595
0001c0 6b b4 ed 3c 36 21 66 bd ae 7b ef bc d8 35 82 3c
       0.029016694 -0.056184016 -0.02923378 0.015894815
0001d0 b0 24 a4 bb 78 b8 d4 bd 2f a6 15 be 07 2b 4d bd
       -0.0050092563 -0.10386747 -0.14614175 -0.050089862
0001e0 d8 14 aa bb fd 4e 14 3d 6c fd 06 bd f0 b1 b5 bc
       -0.005190473 0.03620814 -0.032956526 -0.022179574
0001f0 64 35 e7 bc 2d bd 2c 3c b3 4c c7 ba 4d ae a5 bd
       -0.0282237 0.01054315 -0.0015205353 -0.08089886
000200 07 4e 48 3c 9f 9a 2b 3d c7 64 93 bd f8 b4 8d 3d
       0.012225634 0.041895505 -0.07196956 0.06919283
000210 f4 1d 61 ba 02 b0 05 be ad 62 c6 3c e4 f0 d2 3d
       -0.0008587532 -0.13055423 0.024216974 0.102998525
000220 1c 10 b7 3c d0 4b 82 bc 35 c8 68 bb 49 b9 01 3d
       0.022346549 -0.01590529 -0.0035519723 0.031670842
000230 c5 8c 9a bc 3f 29 b6 bb 45 76 4c 3c a2 bc 94 3b
       -0.018865952 -0.005559116 0.0124793695 0.0045390883
000240 8c 35 8d 3b dd 49 87 bc 1f 3b 5d 3d 06 5c 38 3c
       0.004309362 -0.016514713 0.05401146 0.011252409
000250 28 53 ea bc 8e 2c ca 3b e4 07 2e bd 49 05 5b 3b
       -0.028604105 0.006169862 -0.042487994 0.0033419898
000260 ad 21 e6 3c 80 22 f2 bb f2 29 d1 bd 86 de ff 3c
       0.02809223 -0.0073893666 -0.102130786 0.031234037
000270 70 8b 1b bd 61 01 1c 3d 1b d6 f0 bd ec f7 1a 3c
       -0.037974775 0.038087253 -0.117595874 0.009458523
000280 6e 3d 0d 3d e4 66 d0 3a c4 6a a2 3d e9 df 05 3e
       0.034482412 0.0015899804 0.0793052 0.13073696
000290 11 b8 82 bc de 43 6a 3a d6 d1 c2 3c 4e eb f0 bc
       -0.01595691 0.00089365046 0.023781698 -0.029409077
0002a0 4d 29 92 bd ba 37 22 3d c1 69 08 be c2 fc f5 3c
       -0.07136784 0.039603926 -0.13321592 0.03002775
0002b0 da 14 1d 3d 04 78 44 3b 89 15 3c bb 63 37 8e bb
       0.038349964 0.0029978761 -0.002869936 -0.0043400987
0002c0 47 48 46 bd 8d b1 bb bd ff 48 7e 3d 5d ad 9b 3d
       -0.048408773 -0.091647245 0.062081333 0.07601426
0002d0 2c ec dc bc 92 10 19 3d 9f 64 ce 3d e6 77 15 bd
       -0.026968084 0.03736932 0.10077786 -0.036491297
0002e0 49 69 1a 3e 9d e6 f1 3c 90 4d cb 3a 59 98 c4 bc
       0.15079226 0.02952891 0.0015510786 -0.023998426
0002f0 55 c7 11 bb b1 9f 9b 3d ca d6 22 ba 6b 1f 87 bd
       -0.0022244055 0.07598818 -0.00062118156 -0.065977894
000300 a6 0a 85 3c be 48 05 3c 37 75 94 3d 3a dd 95 3c
       0.01624043 0.008135019 0.072489195 0.018293966
000310 c5 07 91 3b ef 7a 50 3b 85 46 5a 3d 18 0e ab 3c
       0.004425975 0.0031811555 0.05328991 0.020880744
000320 a2 d3 78 3d e3 1b 80 bd 4e dd 07 3c 1d 52 00 3d
       0.060748704 -0.06255319 0.008292509 0.03132831
000330 62 d7 0f 3c 98 ef d6 3b 6a eb ad 3c 54 8e 27 3c
       0.008779379 0.0065593235 0.021230418 0.010226805
000340 99 de 4d bc 02 de 64 3c 1a 1d 65 3d 6a e1 91 3c
       -0.012565278 0.013968946 0.055935957 0.017807681
000350 f2 58 de 3d f8 f0 26 bb 38 ec 37 3b 7e df a1 bc
       0.10856809 -0.0025473218 0.0028064381 -0.01975989
000360 00 9c 93 3d 6b 6f 21 3d ee 4d f6 bd a1 2c 92 3c
       0.07207489 0.039412897 -0.12026583 0.017843546
000370 81 66 6a 3d 32 45 26 bc 21 34 87 bd 03 46 38 bd
       0.05722666 -0.010148333 -0.0660174 -0.044988643
000380 97 90 10 3c 66 fe 10 be 30 0c a8 bc d7 3e 43 3c
       0.008823535 -0.14159545 -0.020513624 0.011916838
000390 2a a0 81 bb 9c 9b ec 3a 13 5a 29 bc e2 9a ed 3b
       -0.0039558606 0.0018051746 -0.010336417 0.0072511295
0003a0 1d 22 a6 bd 47 af ca 3d 57 53 9c 3c 8b 10 69 bb
       -0.08111975 0.09896713 0.019082708 -0.003556284
0003b0 03 00 1a bd 6d 49 0e bb 9a e8 ad 3d ff 63 a1 bb
       -0.037597667 -0.0021711246 0.08491631 -0.0049252505
0003c0 8f 2b 18 3d 7a 6f d6 3b 44 15 3c 3c 10 cf c9 bd
       0.037150916 0.0065440508 0.0114796795 -0.09853947
0003d0 a9 70 12 3d 36 4a 97 bc d4 12 5d 3d 7f 76 fd 3b
       0.035751972 -0.018468004 0.053973034 0.007735073
0003e0 65 07 65 3d f2 8d a4 3c 8f b2 52 bd 90 ed 8a 3c
       0.055915255 0.020087216 -0.051439818 0.016958982
0003f0 c1 47 b4 3d 97 f3 d1 3c d2 83 5a 3d e8 28 f2 3b
       0.088027485 0.025628848 0.05334837 0.0073901303

action_model._discrete_distribution.branches.1.bias f4 [3]
000000 0d c3 62 3c 8b 47 94 bc 49 8c e5 3a
       0.013840449 -0.01810052 0.0017513122
