Assets/results/T2/CarDriver/CarDriver-499952.onnx (onnx, 188993 bytes, 9 tensors)

discrete_act_size_vector f4 [1, 2]
000000 00 00 40 40 00 00 40 40
       3.0 3.0

network_body._body_endoder.seq_layers.0.weight f4 [128, 225]
000000 bf 0f 02 be f5 83 7b 3d 34 42 5f 3e bf 49 8f bc
       -0.12701319 0.06140514 0.21802598 -0.01749122
000010 6f 8a 1c 3d a8 64 02 be be 27 1a b9 80 a4 23 bd
       0.038217958 -0.1273371 -0.0001470139 -0.0399518
000020 bb 7d 3b 3d 6d 5b 13 3b 39 66 f3 bc 13 0c 0d 3c
       0.045774203 0.0022484914 -0.02971183 0.008608836
000030 47 1e e3 3d ef cb f2 3d 7a f8 d3 bd 64 5c b7 bc
       0.11089759 0.118553035 -0.103501275 -0.022382922
000040 80 ad 88 bd c0 cb 70 bd 00 f6 fb bd e8 e4 ac bd
       -0.066737175 -0.05878806 -0.1230278 -0.08442098
000050 56 db e7 bc dc 12 94 3d 9e 02 4a be a0 15 42 bc
       -0.02830283 0.0723016 -0.19727561 -0.011845976
000060 4f 18 d3 bd c8 37 91 3d 50 32 e2 3c 72 96 78 bc
       -0.10307371 0.070907176 0.027611881 -0.015172588
000070 62 5b 8e bd 4c 71 c8 bc 9e 58 73 3c 94 55 9a bc
       -0.06951024 -0.024468087 0.014852671 -0.018839635
000080 95 5e 88 3d 6d ad 9a 3d b5 84 43 3d 44 b4 00 be
       0.06658665 0.075526096 0.04773398 -0.12568766
000090 ed 35 f2 3c b3 ab 06 3d 74 fb 6a bc bb a1 62 bd
       0.02956673 0.03287859 -0.014342178 -0.05533002
0000a0 9f 3f 49 bd 9c 88 e1 3c 84 99 5d 3d a6 41 28 bd
       -0.04913294 0.02753096 0.054101482 -0.041078232
0000b0 38 1d da 3d c3 6e b4 3b 2c 62 0a bd e7 79 31 3c
       0.10650104 0.005506368 -0.03378503 0.010832286
0000c0 42 86 3e 3d f6 6c 56 bd 54 70 7f be 19 cc d4 3b
       0.046514757 -0.052350007 -0.24945194 0.006494057
0000d0 42 55 b2 bc 78 02 96 3d 06 7a 6b 3c 67 51 b9 ba
       -0.02176917 0.073246896 0.014372354 -0.001413864
0000e0 d7 b2 9d bb 39 ec ea 3d 2a 89 cc 3d d2 b8 68 3c
       -0.004812579 0.11470837 0.099870995 0.014204221
0000f0 d9 d1 5b be 4a c7 71 bd c9 72 9a bc 4f e8 88 bc
       -0.2146677 -0.059027947 -0.018853562 -0.016712336
000100 c5 a8 99 bb ae 53 70 bd 12 2b fa bc 0a fd 91 3c
       -0.0046893083 -0.058673553 -0.030538116 0.017820854
000110 c4 c7 ad bd a4 84 93 bb e1 22 7e 3d ea 8d 2b ba
       -0.08485368 -0.004501896 0.062044982 -0.0006544279
000120 41 c2 f0 3d 1f 5f 95 bd 1b ac e4 3d c0 8b b8 3d
       0.11755801 -0.072935335 0.11165639 0.0901103
000130 e1 a4 93 3d 01 03 8e bb 00 06 79 bd a9 20 39 bd
       0.072091825 -0.004333854 -0.060796738 -0.045197163
000140 ba 18 6d 3e cc 2e b3 bd 37 0a 9b 3c bd b0 f9 3b
       0.23153964 -0.0874916 0.01892577 0.007619946
000150 1f 80 a5 bd 15 6a ed 3d c1 c2 6a 3d 18 1d 39 3d
       -0.08081078 0.11592499 0.057314638 0.04519376
000160 6a de 9d bd 5e 7f 40 3e 92 60 03 3e 80 e7 50 bd
       -0.07708438 0.18798587 0.12829807 -0.051002026
000170 1e 9a ce 3c be 0f ff bd 88 9b 47 be ac 23 f1 3c
       0.025219973 -0.124541745 -0.19492924 0.029435955
000180 1c e7 05 3d a3 eb 17 3d 93 09 41 bd f5 51 58 3c
       0.032691106 0.037089955 -0.04712827 0.013203134
000190 13 8c 98 3d 4b fc 83 3c 5a ce 5c bd 35 bb b2 bb
       0.07448592 0.016111514 -0.05390773 -0.0054544457
0001a0 3f ad fd 3d 4d 3c 83 3d e9 97 02 3d a9 13 00 3b
       0.1238656 0.06407986 0.031883154 0.0019542968
0001b0 19 3a 7d bc d4 55 82 3a 1c 9b a4 bc 8f f0 09 3c
       -0.015455746 0.0009943792 -0.020093493 0.00841917
0001c0 a4 98 67 3d 99 56 b5 bd b3 51 ce bd bc 98 8b bd
       0.056542054 -0.08854408 -0.10074177 -0.06816241
0001d0 37 e6 68 3e 1e 54 09 be f8 41 8b 3d 47 b2 08 3e
       0.2274407 -0.13410994 0.06799692 0.13349257
0001e0 4d 41 e9 3d 08 88 01 be 9d 4f ae 3d 99 eb b1 3a
       0.11389408 -0.12649548 0.08511279 0.0013574242
0001f0 51 83 1c be fc b9 b6 3c 60 ee 64 3d dd 67 e3 3c
       -0.15284468 0.022305481 0.055891395 0.027759487
000200 a8 3a 3e 3e 7c 2a 87 bd 20 9a 4e bd 24 3b ea 3d
       0.18577063 -0.065999 -0.050439954 0.114370614
000210 1f 16 3f 3d 60 4e 32 bd 51 07 11 bd 18 e5 8f bd
       0.046651956 -0.043531775 -0.035407368 -0.07026118
000220 11 e8 94 bc 72 b5 a3 bd 53 0e 2e 3d 56 ff 17 bc
       -0.018177064 -0.07993592 0.04249413 -0.009277185
000230 2a 51 89 3d 60 4d 4f bd b7 23 79 3c ff 9e 4c 3c
       0.06704934 -0.0506109 0.015206269 0.0124890795
000240 a2 8c 98 bd dd 94 4e bd 05 f4 a1 3d a2 2b e1 3d
       -0.074486986 -0.050434936 0.07907871 0.109946504
000250 75 50 67 3d e8 97 2b 3d dc eb bf 3d 53 ae e7 bb
       0.056473214 0.041892916 0.093711585 -0.0070703416
000260 ef dd 9f 3c a2 99 b6 bc 90 e8 9f 3d 19 c1 a2 3d
       0.019515006 -0.022290055 0.0780803 0.07946987
000270 67 02 1e 3d f5 ac 22 3e ab 47 df 3c 22 ec 35 bc
       0.03857651 0.1588629 0.027255854 -0.011103662
000280 ed c7 a0 3d 49 a9 25 bd 29 fd cb 3c c6 63 da 3b
       0.07850633 -0.040444646 0.02490099 0.006664726
000290 00 0f 7f bc 8e d6 15 3d ff 58 6e 3d 72 e8 57 3d
       -0.015567541 0.03658157 0.058190342 0.05271191
0002a0 af ed 31 3e fc 66 96 bd 0f 8a c5 bd 11 04 4b bc
       0.17375825 -0.073438615 -0.09645473 -0.012391106
0002b0 dd e6 43 3d 41 fa 40 3d 64 ba c4 3c d3 de 8c bd
       0.04782759 0.04711366 0.02401466 -0.06878438
0002c0 cf 84 44 3e 34 b5 fb 3c 53 f1 48 3d 01 65 ad bd
       0.19191287 0.030726053 0.04905827 -0.084665306
0002d0 04 f2 ac bd 22 4b 0a 3d 12 a1 1e 3e 68 99 2f 3b
       -0.08444598 0.03376306 0.15491131 0.0026794318
0002e0 f6 fb 8d 3c df b0 0d 3c b5 29 1b bd 9a 97 24 3d
       0.017332058 0.008648126 -0.03788157 0.04018364
0002f0 74 60 41 bd 8b ad a8 3d e5 dc 9d bc cd fb dd 3d
       -0.047211125 0.08236226 -0.01927037 0.10839043
000300 7b 16 01 be 02 bf 15 3e e3 ba 8d 3d a1 0f e4 bd
       -0.12606232 0.14623645 0.069204114 -0.111357935
000310 16 33 31 3e f6 f2 20 bd ad 8d 1b be 53 d7 3b bd
       0.17304644 -0.039294206 -0.15190764 -0.045859646
000320 e3 e1 cf 3c eb c8 f2 bc 5d 04 fb 3d 6f 3a a4 3d
       0.025376266 -0.02963682 0.122566916 0.08018958
000330 2d 56 07 3e 59 2f 0d be 85 13 18 3d e0 e9 8d 3d
       0.13216467 -0.13787593 0.03712799 0.06929374
000340 a7 b0 9a be 64 69 13 3d 56 98 e3 bb fa 6c 34 3d
       -0.302129 0.03598918 -0.00694565 0.04404924
000350 36 55 0c bd 31 62 c5 3d e7 60 0a bc bf 7a 31 3d
       -0.03426095 0.09637869 -0.008445955 0.04332995
000360 c7 6b 3e 3d 23 89 af 3d 73 06 68 3d 20 cd ff bc
       0.046489503 0.08571079 0.056646775 -0.03122574
000370 bb a1 a4 bd c1 33 66 3d b2 33 2a bd 3d cf de bc
       -0.0803866 0.0562017 -0.041553207 -0.027198428
000380 5d 1c 18 be 76 27 6a bd aa fa d5 3c 93 3b 8a bd
       -0.1485457 -0.05716654 0.026120503 -0.06749644
000390 fd 6f 87 3b 1c fb f1 3d d6 80 22 3d 86 e2 99 bb
       0.004133223 0.118154734 0.03967365 -0.004696193
0003a0 3f 3d 30 be 29 91 34 bd a9 7c b9 3c 06 23 a9 bd
       -0.17210864 -0.044083748 0.02264245 -0.08258633
0003b0 1e a5 48 bd 99 63 4b bc 31 84 00 bd 75 15 04 bd
       -0.048985593 -0.012413883 -0.031376068 -0.032247026
0003c0 bf 3c 13 3d ae 51 9d bc c0 2c 19 3b 3c 78 c1 bd
       0.035946604 -0.019203987 0.002337262 -0.09446761
0003d0 d8 00 9f bc 58 07 0c bd 61 51 9d bc 5a 86 12 bd
       -0.019409582 -0.03418669 -0.019203844 -0.03577266
0003e0 cd 67 89 bd b9 8d 1e bc 21 3a 51 bc fa 41 f8 bd
       -0.067092516 -0.009677344 -0.012770207 -0.12121959
0003f0 08 3b 4b bd 62 58 d8 3c fc f0 60 3d 1a 9d 26 3d
       -0.049616843 0.026409332 0.05491732 0.040677167

network_body._body_endoder.seq_layers.0.bias f4 [128]
000000 af 78 b2 3b 85 98 fa bb 68 87 a1 3c 45 38 9a 3c
       0.0054465155 -0.0076475763 0.019717887 0.01882566
000010 2f 52 a4 3c b1 57 00 3d 27 a5 22 bc d4 0a 03 3d
       0.02005872 0.03133363 -0.009927071 0.03199275
000020 48 05 4e 3c 41 7b 03 bd 00 f7 89 3c 38 c1 58 3c
       0.012574501 -0.032099966 0.016841412 0.013229661
000030 53 f2 1f bd 52 29 c3 3c 0a 6d 39 3d 2a e7 0d 3d
       -0.039049458 0.023823414 0.045270003 0.034644283
000040 81 fc 47 bd d9 23 ec 3c 30 0c e4 3c 4b 45 f9 bc
       -0.04882479 0.028825687 0.027837843 -0.03042855
000050 96 2b 04 bc 0a ef 53 bc 76 ba 04 3c 66 d1 58 bc
       -0.008067032 -0.012935409 0.008101096 -0.013233518
000060 da bd b2 bc 63 9b 64 bb fe fe 8f 3c 14 9f 8e bc
       -0.021819044 -0.0034882657 0.017577644 -0.017409839
000070 0f b3 a3 3c f2 78 bd 3c e1 2c 6c bc a0 43 ce ba
       0.019982843 0.02312896 -0.014414997 -0.0015736707
000080 cf 1e 56 bd 62 c3 0a 3d 9b df d5 ba 63 42 83 3a
       -0.052275475 0.033877738 -0.001631725 0.0010014292
000090 85 81 88 3b 11 7c e3 bc a8 0b e4 bc 33 20 ec bc
       0.0041658306 -0.02776912 -0.02783759 -0.028823948
0000a0 59 7f 83 3c 80 3e b4 3c 07 9e 19 bc ab 5f 46 bc
       0.016051935 0.022002459 -0.009376056 -0.01210777
0000b0 df 09 db 3b 22 cb 19 3d 41 b4 df ba f9 73 da 3c
       0.0066845263 0.03754724 -0.001706727 0.026666628
0000c0 06 9a 9b bb 87 a1 01 3d 06 a3 c5 3c 70 55 79 bb
       -0.0047485856 0.031648185 0.024125587 -0.003804531
0000d0 c3 7f b4 3c c7 d1 30 bb 72 6e 40 bd 19 d1 61 3c
       0.022033578 -0.0026980506 -0.04698033 0.013782763
0000e0 ae 34 c9 bb 81 18 c8 3c 7d ce 61 bc 7a 7f 3b 3d
       -0.006140313 0.024425747 -0.013782141 0.045775868
0000f0 6c 16 85 3c d6 f5 37 bd 57 10 26 3d be 55 96 3c
       0.016246043 -0.04491218 0.040542927 0.018351432
000100 d6 c4 f9 bc e1 5a bb b9 e0 0f ce bc 55 4a 50 3c
       -0.030489367 -0.0003573513 -0.025154054 0.012713035
000110 8f d0 bc 3c c7 27 a0 3c 8f b7 c3 bc 44 14 08 bd
       0.023048667 0.019550217 -0.023891238 -0.03322245
000120 15 db 8e 3c 11 9b 26 3c e2 bf 3a bd 2c fc cd bb
       0.01743845 0.010168807 -0.04559315 -0.0062861647
000130 8d 6b 1e 3b cc a7 c9 3c a2 6b 92 bd da 1f 22 3d
       0.0024172992 0.024616145 -0.071494356 0.039581157
000140 36 a8 7d 3a db c7 91 3c d5 b2 21 bd 5c 6b 08 bd
       0.00096762495 0.017795494 -0.03947719 -0.03330551
000150 bf 29 33 3b 29 f4 fc 3b fa bb 7e bb 94 7a 97 bc
       0.0027338115 0.007719536 -0.0038869367 -0.018491067
000160 d4 49 08 bd 8f 22 53 bb 50 9f ce bb 7a 5f 3b bd
       -0.033273533 -0.0032216643 -0.0063056126 -0.04574535
000170 0c 76 0c 3c 4f 57 d7 3c 29 86 9f 3c f2 64 9b 3c
       0.008573066 0.02628675 0.019473152 0.018969033
000180 ac 4a 8e 3c 48 85 93 3c f5 3e ca 3c 59 43 0d 3d
       0.01736959 0.01800789 0.024688223 0.034488056
000190 ff 35 b3 3c d9 9c e6 3c f0 37 c5 bb 6b e1 cb bc
       0.021876333 0.028150963 -0.006018631 -0.024887761
0001a0 66 f3 ca 3c d1 d6 08 3d 3e 73 23 3b 31 9d bc 3b
       0.024774265 0.03340799 0.0024940516 0.0057560434
0001b0 bf 3a df 3c a7 b6 a8 3c 8c eb f6 3a 68 f0 88 3c
       0.027249692 0.020594908 0.0018838509 0.016716197
0001c0 e1 04 09 3d fe 38 2b bd e7 ad b9 3c 08 3e dc 3c
       0.03345192 -0.0418024 0.02266593 0.026885048
0001d0 6c 51 2c 3c 51 a6 1e bd da 2e ed bc a7 e5 ab bc
       0.010517459 -0.03873283 -0.028953005 -0.02098353
0001e0 21 d8 e2 bb d1 fc 2d 3a b2 ee ea 3b 79 22 41 3c
       -0.006922737 0.0006637099 0.007169568 0.011788004
0001f0 45 1c e0 3a 22 dc 89 bd fa 65 79 3a 11 0b 7c bc
       0.0017098269 -0.0673144 0.0009513792 -0.015383498

network_body._body_endoder.seq_layers.2.weight f4 [128, 128]
000000 e4 a6 67 bd 5f eb 2f bd 87 22 ac bc 02 90 e0 ba
       -0.056555644 -0.042949077 -0.021012558 -0.0017132761
000010 87 8e 83 3d 1b 34 51 3e a2 fc cb 3d fa ef d8 3d
       0.06423669 0.20430033 0.09960295 0.10592647
000020 fb 0c 30 3c 57 e1 38 3d db f1 fd 3c 83 51 63 be
       0.010745282 0.045136776 0.030999115 -0.22199063
000030 ff 5b a9 bb 88 5b 30 bc 74 4a 56 3d 29 55 e9 3d
       -0.0051684375 -0.01076401 0.052317098 0.11393196
000040 11 aa 4a 3d 51 e8 5e bd d7 99 57 bd 4e 74 89 3c
       0.049478594 -0.054420773 -0.052636947 0.016779091
000050 63 83 1c be 8f bd 6a bd b5 3d 0c be 7a 77 05 3e
       -0.15284495 -0.057309683 -0.13695414 0.13033858
000060 d6 f4 6f 3d f1 7a 2c 3d 93 fe 22 3d db 1a 04 3e
       0.058583103 0.042109434 0.039793562 0.1290087
000070 0e 39 ed 3c 7c 4f 29 3e a2 3c 3e bc ae 0d c4 bd
       0.02895787 0.16534227 -0.011611136 -0.09572922
000080 31 6c 25 3e f7 8f dc 3a 06 da 4a be 4d 34 82 3e
       0.16154553 0.0016827573 -0.19809732 0.25430527
000090 ea 6c 40 bc 32 7b 86 bb 0e 0f 2b be e1 30 25 3e
       -0.011744717 -0.0041040415 -0.16704962 0.16131927
0000a0 a1 d1 cc bd c0 68 d4 bb 6e c7 fa bd 85 8b 21 be
       -0.10000921 -0.0064822137 -0.122450694 -0.15775879
0000b0 1a fb da bd 60 3d af 3d ae 9c 88 3c 59 04 55 be
       -0.10692425 0.08556628 0.016676273 -0.2080244
0000c0 73 72 71 3c 3e 74 65 3d 01 34 b9 bd 6f b1 29 bd
       0.0147367595 0.05601906 -0.09043122 -0.04142898
0000d0 1d e2 01 3d b8 43 ec bd 5e 5f 03 be 53 87 55 3e
       0.03170978 -0.11536354 -0.12829348 0.20852403
0000e0 bd d2 df 3d ac e7 6e bd 1d dc cc 3d 36 9b 9e bb
       0.10928867 -0.05832641 0.10002921 -0.00484028
0000f0 f5 8f 77 bd 48 a2 fe 3c 24 55 19 3e 93 a9 ed bd
       -0.060440022 0.031083241 0.14973885 -0.11604609
000100 ca 0b dd bd 3e 9d da bd aa 0d 6a bd fe bb 82 bd
       -0.10793264 -0.10674523 -0.057141937 -0.06383513
000110 aa 21 43 bd dc 52 74 3a 9d 72 a9 bc c4 1c 06 3d
       -0.047639526 0.00093202083 -0.020684535 0.032742277
000120 80 80 d5 3c 5a 73 65 3d 1c 7b 4a 3d 6c 27 b7 bd
       0.02606225 0.05601821 0.049433812 -0.08943066
000130 64 5b 06 bd 74 b6 1b bd 17 93 0c bd 62 2f 03 3e
       -0.032802 -0.038015798 -0.034319963 0.12811044
000140 a0 00 b9 3c 3d 82 e0 bd 17 98 6c 3d d4 3b 8d bd
       0.022583306 -0.10962341 0.05776223 -0.06896177
000150 da 91 72 bd 1b 7f 9e bb d3 29 d8 bd d9 b1 90 3d
       -0.059221126 -0.0048369295 -0.10554852 0.07065172
000160 9b a7 7c bc 60 2b 1f 3d 1a 7f 88 bd 82 04 ea bd
       -0.01542082 0.038859725 -0.06664868 -0.11426641
000170 37 ec 8e bd 98 f3 7f 3d 2f 09 a7 bd ba 9a 30 3e
       -0.06978648 0.06248817 -0.081560485 0.17246523
000180 69 c2 b5 bc 66 18 0f 3e 06 c3 de 3d b3 d2 24 bd
       -0.022187429 0.13974151 0.108770415 -0.04024
000190 02 ed e9 bc 4e ba d0 3d 17 cd ed bb 61 1a 4d 3d
       -0.028555397 0.10191785 -0.0072571146 0.050073985
0001a0 8d 1a 20 bd b3 c8 e7 3d df d6 88 3b 7e 2f da bd
       -0.03908782 0.11317577 0.0041760053 -0.1065359
0001b0 46 0d 29 3e 02 64 63 3e 17 9c 11 be 43 f0 09 be
       0.1650897 0.22206119 -0.142197 -0.13470559
0001c0 9c e8 07 3e bf bc c4 bc 39 f4 9f 3d 2e 2f 36 bd
       0.13272327 -0.024015782 0.07810254 -0.044478588
0001d0 53 21 b5 3d 39 80 65 bd 60 0d de bd a7 2f fe 3d
       0.08844247 -0.056030486 -0.10842395 0.12411433
0001e0 f2 a1 f8 3b 37 71 27 be b1 bd 79 bd c7 35 8f bd
       0.0075876648 -0.16351782 -0.06097192 -0.06992679
0001f0 15 5e 02 3e ea 58 6f 3d 21 22 a2 bd d1 d8 a4 bd
       0.12731202 0.058434404 -0.07916666 -0.08049167
000200 36 76 ef 3d 6c c9 c4 3d 49 4a 93 3e 35 06 53 bb
       0.11692469 0.09608731 0.28767613 -0.0032199745
000210 44 f4 68 be d1 bb 5d 3c 08 10 ca 3d 12 25 1a 3d
       -0.2274943 0.013533548 0.09866339 0.03763301
000220 c8 a5 45 3e a8 d5 e4 bd c4 66 e7 bd ca d6 e1 3d
       0.19301522 -0.11173564 -0.11298898 0.11027296
000230 a4 77 4e 3d 54 74 2f 3e c6 2b 32 be 39 09 22 be
       0.050407067 0.1713422 -0.1739951 -0.1582383
000240 0c d6 63 bd 0e d1 26 bb ec 1c a6 ba 95 bf 0b 3c
       -0.055624053 -0.0025454196 -0.0012673414 0.008529563
000250 5a 51 aa 3c e1 fb 8c 3d 54 ad 31 3e 72 9a 0a be
       0.020790745 0.068839796 0.17351276 -0.13535479
000260 d4 98 8a bd 51 c8 e5 3d 58 ef ff 3c bc e3 ad 3d
       -0.06767431 0.11219848 0.031242058 0.084907025
000270 21 30 95 3d 39 d5 f4 3d d1 dc 7b 3e 3a a4 db 3c
       0.072845705 0.119547315 0.24595954 0.026811708
000280 47 fb 61 be f5 37 ab bd d3 83 b3 3c ef 7c f8 bc
       -0.22068511 -0.08360282 0.021913445 -0.03033301
000290 8d 2d 5f 3c c1 6e 83 3d cf 1f 52 3e 97 6e 68 3d
       0.0136217 0.06417609 0.20519947 0.05674609
0002a0 0c 03 fe 3d 1b e6 04 be 6d 74 47 3d 34 50 7e 3c
       0.12402925 -0.12978403 0.048695017 0.015522052
0002b0 af 83 38 bd 9b 8b c7 3d 2d 0a 31 bd 8f 42 0c bd
       -0.04504746 0.097434245 -0.043222595 -0.034243163
0002c0 08 9f 7e 3d 11 5b a9 bd c5 4b a4 3d 2a 0d 8f 3c
       0.062163383 -0.08269323 0.080222644 0.017462332
0002d0 de f8 c6 bd 9c 10 3f bd e2 3f 16 3e c6 77 82 be
       -0.097154364 -0.0466467 0.14672807 -0.25482005
0002e0 42 f2 69 bd a5 98 80 3c 33 fd 08 bc 72 cc 0a 3d
       -0.0571158 0.015697787 -0.008361149 0.03388638
0002f0 82 83 29 bd 6b b1 e3 bc e6 52 48 3d 1b db c7 3d
       -0.04138518 -0.02779456 0.048907183 0.09758588
000300 80 d0 38 3e f6 4f 5e bd 71 0c 87 bd e2 4e 1f be
       0.18048286 -0.054275475 -0.0659417 -0.15557435
000310 9e 8a 0e 3e 32 78 68 3d 21 19 9d bb dd 87 7a bd
       0.13920066 0.056755252 -0.0047942554 -0.061164726
000320 6b f6 05 3e a9 2c 43 bd d3 9d 80 3e 66 7b 9d bd
       0.13082282 -0.047650013 0.2512041 -0.07689552
000330 40 4c 5f 3d fb 44 bc 3c 21 59 b9 3d 55 e3 a7 be
       0.054516077 0.022982111 0.09050203 -0.32790628
000340 d3 67 4b be 77 5f 6a bc c2 36 8e 3b fb d5 17 be
       -0.19863825 -0.014304987 0.0043400237 -0.14827721
000350 9d 2e 31 3d c4 f2 97 3b 56 48 c3 3c 14 54 0b be
       0.043257345 0.004637094 0.023838203 -0.13606292
000360 37 e5 34 bc ab bd cc 3d f0 29 4e bd bb 59 46 3c
       -0.011040977 0.09997114 -0.050332963 0.012106354
000370 76 9d 92 bc 6f 8d 09 bd da 9f 0a ba 5c 4c 52 bd
       -0.017897349 -0.033582147 -0.0005288102 -0.051342353
000380 98 c0 04 bd 8a 40 18 3d e2 d2 44 bd 7a f7 b9 bd
       -0.032410234 0.037170924 -0.048052676 -0.090804055
000390 65 1e 86 3d 0e f9 35 3e 1e 25 7f bd 7c 8f 71 3e
       0.06548766 0.17770788 -0.062291257 0.23589891
0003a0 35 1b 00 be db c5 a3 bc 37 a4 42 3e a1 1b ea 3d
       -0.12510379 -0.019991806 0.19007955 0.11431051
0003b0 aa 33 5e bd 19 4f 12 3c f8 fe b5 bc 26 80 df bd
       -0.05424849 0.008929991 -0.022216305 -0.10913114
0003c0 9d 78 9b bd ef 40 43 3e bc 61 98 bb 22 00 ea 3d
       -0.075913645 0.19067739 -0.0046503227 0.114258066
0003d0 71 3d e5 bd 84 2a 2c 3e 11 44 fb bd 3c 40 3b be
       -0.1119336 0.16813093 -0.12268842 -0.18286222
0003e0 d5 f6 d5 3c b3 00 67 bd 62 63 b3 bc 39 d5 07 be
       0.026118675 -0.05639715 -0.021897975 -0.13264932
0003f0 98 11 ac 3d ea 33 7e 3e e6 43 e7 3c 09 c1 2a bb
       0.08401793 0.24824491 0.028230619 -0.0026055

network_body._body_endoder.seq_layers.2.bias f4 [128]
000000 a9 d1 39 3c 8e bd 53 bc 08 09 28 3d 60 59 6d bc
       0.011341491 -0.012923611 0.041024238 -0.014486641
000010 10 01 a1 b9 bd 95 df 3c e3 2b 37 bc ad bc 8f bc
       -0.00030709105 0.02729308 -0.011179897 -0.017546022
000020 dc cf 93 3c 72 c8 80 3c f8 f8 c5 3b 7a 55 35 3d
       0.018043451 0.01572058 0.0060416423 0.04427097
000030 59 77 14 bd d9 51 03 3d 75 17 af bc 65 dd 22 bd
       -0.03624663 0.032060478 -0.02137349 -0.03976192
000040 8b 45 1d bd 64 7c ac 3b 4d e5 c7 3c 01 4b f2 bc
       -0.0383964 0.005263852 0.024401331 -0.02957678
000050 d9 76 fd 3b d8 e0 f1 3c 70 ad 15 3d 89 56 3f bd
       0.007735115 0.02952616 0.036542356 -0.046713386
000060 59 df 23 3d 30 1b b0 bb a9 9b 00 3d 44 30 ec 3c
       0.040007923 -0.0053743348 0.03139845 0.028831609
000070 b7 24 0c 3d 34 32 14 bd 04 5f 31 3d b0 a2 bf 3c
       0.0342147 -0.03618069 0.043303505 0.023393005
000080 30 b6 13 bd 45 38 e8 3b 08 6d fd bc 35 4c 9c bb
       -0.03606242 0.007086786 -0.03093578 -0.004769827
000090 d6 e5 d2 bc 2b 52 a2 bb 1b da 1b bd 3a 8a 31 3d
       -0.02574436 -0.004953643 -0.0380498 0.043344714
0000a0 22 f5 0a 3d 7e 8f c5 bc 90 92 e2 3c 24 16 ba bc
       0.033925183 -0.024116274 0.027657777 -0.022715636
0000b0 75 07 15 bd 20 66 38 bd d5 09 29 bd e7 98 6f bc
       -0.036384065 -0.04501927 -0.041269142 -0.014623857
0000c0 99 59 0f 3d 69 d7 96 3c 66 7a 70 3c 0e 5f bd bc
       0.034997556 0.018413262 0.01467762 -0.023116615
0000d0 48 8d 0b 3d 00 fc 10 3c e1 d6 5c 3c ef db 11 3d
       0.034070283 0.008849144 0.0134789655 0.035610136
0000e0 cd 93 09 bc a4 3f 4f 3b 67 f2 df 3c fc e2 f4 3c
       -0.008397055 0.0031623626 0.027337266 0.02989339
0000f0 93 58 18 3d 7d d2 ef bc 1f a7 03 3d 42 b9 f8 3c
       0.037193846 -0.029275173 0.0321418 0.030361775
000100 2c d7 63 3c c5 0c 5e bc 10 83 b6 bc 47 11 0a bd
       0.013906281 -0.013552849 -0.022279292 -0.033707883
000110 74 39 16 3d 51 2b 12 bd 28 c4 9a bc ba 35 03 bd
       0.036675885 -0.03568584 -0.018892363 -0.03203366
000120 ae 34 e7 bb 90 ba 29 3d 4c 5a e9 bc 3a 9c 94 bb
       -0.0070558405 0.041437685 -0.02848544 -0.004535225
000130 ee 0c 9d bc 9c 32 ed bc 76 b7 47 bd 44 fe 84 3c
       -0.019171204 -0.028954796 -0.048758946 0.016234525
000140 e1 4b ef bc 90 1e 59 bb ba 9f 0b 3d 07 75 3a bd
       -0.029210987 -0.003312979 0.034087874 -0.045521762
000150 c6 be 3d 3c 0a 85 d2 bc ca 61 0b bd 5e 75 a2 bb
       0.011581128 -0.025698204 -0.034028806 -0.004957839
000160 89 ee f0 bb 03 94 85 3c c1 42 4e 3d 7f 21 5f bc
       -0.0073526544 0.016305929 0.05035663 -0.013618826
000170 1a 82 c3 3c 21 87 16 3d 3f 80 13 3d 66 73 aa bb
       0.023865748 0.036749963 0.036010977 -0.005201745
000180 41 8c a8 3c 83 c1 09 3d 40 ca 1f 3d 91 5c 09 3d
       0.02057469 0.033631813 0.03901124 0.033535544
000190 a0 64 07 bd a8 ab de bc 6a bc eb 3c 24 80 20 3d
       -0.033054948 -0.027181461 0.028776366 0.039184704
0001a0 9a 48 11 3d 28 88 9a 3a db 91 e5 3c fe 96 33 3d
       0.03546963 0.0011789845 0.02802365 0.04384517
0001b0 3c 9d 56 3c 71 d7 20 bd 09 3a 9e bb 88 25 c4 3c
       0.013099011 -0.03926796 -0.0048286957 0.023943678
0001c0 ed 4d 8e 3c cc 09 01 bd ed 12 e4 bc 1b c8 00 3d
       0.017371142 -0.031503484 -0.027841056 0.031440835
0001d0 8a 7c e9 3c 84 9f 83 3b 81 ee 7a 3c 2b 83 eb bc
       0.028501768 0.0040168185 0.015315653 -0.02874907
0001e0 b0 20 d0 bc 05 33 1a 3d 85 19 41 3c ce 4c 31 bd
       -0.025406212 0.037646312 0.0117858695 -0.043286137
0001f0 a5 4f 60 3b 3d b0 02 3d ba fc 1f 3c e3 57 b0 3c
       0.003422716 0.031906355 0.009764845 0.021526283

action_model._discrete_distribution.branches.0.weight f4 [3, 128]
000000 7a 62 95 bc 52 d4 7d bb bb 25 6f bc 53 cb 01 3d
       -0.018235434 -0.003873129 -0.014596398 0.031688046
000010 72 8e 2d 3d ce f3 76 bb 4e e3 b0 3c 59 04 98 3c
       0.042372175 -0.003768194 0.021592762 0.01855676
000020 58 ab 05 bd 7e 32 aa bc 36 3f ed bc 5b 43 62 bc
       -0.03263411 -0.02077603 -0.028960805 -0.013810004
000030 46 0c 15 3d 2a a3 cf bc cd 2a f3 3c 49 a5 c1 3c
       0.036388658 -0.025346357 0.029683495 0.023638384
000040 4d 11 07 3d 14 6d 63 3c b9 7e df bb 23 88 8b 3c
       0.032975484 0.013880987 -0.0068205264 0.017032688
000050 2b d3 0e bd 37 29 6b bc ae 6c 90 bc fa c2 01 3d
       -0.034869354 -0.014353088 -0.017629948 0.031680085
000060 3d fe 09 bd db 6e d5 bc 74 c0 27 3b e9 12 3e bc
       -0.033689726 -0.026053837 0.0025596889 -0.011601188
000070 61 c7 7a bc 3c 76 e4 3c 8d f0 f3 ba ce de 3f bc
       -0.015306325 0.02788841 -0.0018611118 -0.011710836
000080 e8 b3 95 3c bd c8 82 3c 60 6a 0c 3d c4 66 9a 3c
       0.018274263 0.01596486 0.034281135 0.01884783
000090 fb 9d 00 3d 10 52 35 3c a7 6a 02 3d ac e5 c9 bc
       0.031400662 0.0110669285 0.031839993 -0.024645649
0000a0 7d be 22 39 fd 6d 6c 3c 16 c8 49 bc 0a d1 1c 3d
       0.00015520486 0.01443052 -0.012315771 0.038285293
0000b0 cf 4b 09 3d bf 5e c0 3c 5a 85 09 3d e5 e3 81 3c
       0.033519562 0.023482678 0.03357444 0.015855739
0000c0 08 be c2 bc 6f 95 56 bd 3e e9 85 3c 6a 0c 3e 3d
       -0.023772255 -0.052388605 0.01634657 0.046398558
0000d0 14 7d 4e bc 00 06 75 3c 4e 70 7f 3c 2c 02 00 bc
       -0.012603063 0.014955044 0.01559074 -0.007813018
0000e0 9b 8b ec 3c fc 2f 82 ba 93 1d 76 bc 7f d3 05 3c
       0.028875163 -0.0009932513 -0.0150216995 0.0081681
0000f0 e9 b3 bf bc b8 4f 8f 3c ec 3c 10 bd 90 f4 d3 39
       -0.023401218 0.017494068 -0.03521435 0.0004042727
000100 b7 fc 99 bb aa 08 91 ba ea 78 19 3d 72 80 4c 3d
       -0.0046993154 -0.0011065204 0.03746883 0.049927182
000110 75 71 d8 bc da b7 34 bc ba 07 f5 39 0e 67 bd 3c
       -0.026421288 -0.011030162 0.00046735798 0.02312043
000120 57 1e b2 3c 8e 8f 66 bc f2 33 8c 3c 86 40 1e 3c
       0.021742983 -0.014072312 0.017114613 0.009658938
000130 16 16 fa 3b 65 42 91 3c be fd f9 3c 05 50 63 3c
       0.0076320274 0.017731855 0.030516502 0.013874059
000140 4e 8d 06 3d 95 eb 47 bb c9 6d 1d bb ce 4e 14 3d
       0.032849602 -0.0030505408 -0.0024021736 0.036207967
000150 e2 95 d8 bc 22 1c f0 3c 78 5c 2a 3d 4b 19 f1 bc
       -0.026438657 0.02931029 0.04159209 -0.029431006
000160 6d e6 11 3d 5d df ed bc e2 bc 10 bc bd 17 9a 3b
       0.03562014 -0.029037172 -0.008834096 0.004702537
000170 4e c7 f8 bc df f8 de bb a7 d4 00 bd df 1d 1a bd
       -0.030368473 -0.00680457 -0.0314528 -0.037626144
000180 20 ca 80 3a 1e dc 43 bc b5 31 a2 3b 78 f0 91 bc
       0.0009825863 -0.0119543355 0.004949773 -0.01781486
000190 2d 8a f2 3c 51 43 bc 3c 35 96 21 bc da dd 3b bc
       0.029606903 0.022981318 -0.009862472 -0.011466468
0001a0 cf ce 4b bc 62 04 ff 3b aa 93 ce bc 27 7f 08 bd
       -0.012439444 0.007782505 -0.025216896 -0.033324387
0001b0 ba eb 01 bd 80 fa 54 3d 09 ae 87 3c d6 83 20 bb
       -0.031718947 0.051996708 0.016562479 -0.0024492643
0001c0 ee 9f 8d bc 86 ab f1 3c 41 8f 24 3d 55 cf a6 bc
       -0.017288174 0.029500734 0.04017568 -0.020362535
0001d0 7c 7b 17 bc 29 b5 35 3c 39 2c 88 bb f3 58 a1 3c
       -0.00924575 0.011090555 -0.0041556624 0.019695735
0001e0 2d d7 b4 3c 7b 3a df bc 19 cc d3 bc be 71 f8 3c
       0.02207526 -0.027249565 -0.025854157 0.030327674
0001f0 4b e4 fa bc 17 5a 9f bc 71 08 da bb a0 7a ac bc
       -0.030626437 -0.019452138 -0.0066538383 -0.021054566
000200 ba eb 19 3c 88 ae 36 bd e3 db 07 3d ef 17 52 bd
       0.0093945805 -0.04460004 0.033168685 -0.051292356
000210 00 42 53 bc 33 4e 92 3b 44 a9 40 bd 2e 60 14 bd
       -0.012894154 0.0044648885 -0.047036424 -0.036224537
000220 9f 92 23 3c a2 5b 15 bc 67 d1 8c bc 6d 59 1c 3d
       0.009983688 -0.009116085 -0.017189695 0.03817122
000230 5e 94 87 bd 77 03 08 3d f3 a8 88 bd 05 f9 91 bd
       -0.06620096 0.03320643 -0.066728495 -0.07127575
000240 33 62 39 bd 98 7b 60 bc 61 b4 de 3c c0 c8 72 bd
       -0.045259666 -0.013701342 0.02718562 -0.05927348
000250 46 75 d3 bb 67 c1 19 3d 21 c1 18 3d ec a6 48 bd
       -0.006453189 0.03753796 0.037293557 -0.048987314
000260 39 64 22 3d b3 d6 06 bd 69 d8 18 3c cb 73 23 bb
       0.03964636 -0.032919597 0.00932894 -0.0024940844
000270 15 6b 1c 3d 1d 91 7f bd ce 6c 11 3d 41 ce f8 3c
       0.03818806 -0.06239425 0.035504155 0.030371787
000280 b8 4f 41 bd 48 74 98 bc 27 3b 8e bd 30 54 c6 bc
       -0.047195166 -0.018610135 -0.06944876 -0.024210066
000290 76 cf 4a bd 71 21 d6 bb 31 84 79 bd cc 1e 63 3d
       -0.049514256 -0.0065347482 -0.060917083 0.055449292
0002a0 ac 4e 04 3d 65 50 83 bd d8 87 9a bb a2 d2 7c bd
       0.03230159 -0.064118184 -0.004715901 -0.061724313
0002b0 de 27 67 bd 69 71 4e bd 95 fc 69 bd b8 35 e9 bc
       -0.056434505 -0.050401125 -0.057125647 -0.028467998
0002c0 02 f8 d1 3c b2 32 ee 3c a1 eb 52 3c af f1 6e bd
       0.025630955 0.029076908 0.012873561 -0.058335956
0002d0 f1 8b 34 3c 95 08 f5 ba fb 02 45 3c 56 fa 03 3d
       0.011019693 -0.0018694574 0.012024636 0.03222116
0002e0 58 e3 9b bc 91 9a de bc 3f 9d 08 3d 2a 88 19 3c
       -0.019029304 -0.027173312 0.033353087 0.009370843
0002f0 fb e6 29 3d 2a 39 65 bd 1c 94 f7 3c 4a 76 aa 3c
       0.041480046 -0.05596272 0.030221991 0.020808358
000300 af e2 ce 3c 7d 97 b0 bb 9a b0 48 bd 93 d8 57 bd
       0.025254576 -0.0053891526 -0.048996545 -0.052696776
000310 80 fd 94 3c 32 dc 3a bd 89 06 f2 bc 13 84 8a bd
       0.018187284 -0.04562015 -0.029544132 -0.067634724
000320 5b 75 62 bd 92 5b 1a 3d 76 82 6f bd 46 3f ae bc
       -0.0552877 0.037684985 -0.058474027 -0.021270406
000330 f2 32 ed bc 55 89 8d bd 88 a8 57 bd e7 3a 47 3c
       -0.028954957 -0.0691096 -0.05265096 0.0121600395
000340 57 c3 45 bd fe 72 d4 bc 5f 64 08 3d 46 c4 34 bd
       -0.048281994 -0.025933739 0.033298846 -0.044132493
000350 5a 6f 78 3c 49 1f 42 bd 0d 36 55 bd b0 19 8d 3c
       0.015163267 -0.047393117 -0.0520535 0.017224163
000360 ab 8c 29 bd 5d ed bd 3c a6 42 11 3d 63 93 e0 bb
       -0.041393917 0.023184473 0.03546395 -0.0068535074
000370 63 85 9f ba 1e cf 3c 3d fd db 3c 3d a9 eb 01 3c
       -0.001217049 0.04609596 0.046108235 0.007929721
000380 4e 8e 92 3c 16 59 30 3a 0f 41 1f 3d 65 01 90 3c
       0.017890122 0.0006727142 0.038880404 0.01757879
000390 58 4f 34 bd 4b 12 5c bd ef 40 1d 3d 82 c4 1f 3d
       -0.04402098 -0.053728383 0.038392004 0.039005764
0003a0 1b 17 02 3d 5a 85 9e 3c 89 39 25 3d 3b 1b 13 3d
       0.031760316 0.019350696 0.040338073 0.03591464
0003b0 d9 4b cc 3c 26 ac 4e bd 57 15 57 3c 00 2c 00 3d
       0.02493851 -0.050457142 0.013127646 0.03129196
0003c0 3e c1 11 bc d9 24 57 bd 80 35 22 bd af e9 d2 3c
       -0.00889617 -0.052525375 -0.039601803 0.025746195
0003d0 fa 6d c2 3c 98 c7 05 3a 8d 03 87 3c 39 ec 53 bd
       0.023734082 0.0005103289 0.016481185 -0.05173895
0003e0 2e c9 81 bd 85 90 31 3d e5 4d ea 3b e9 80 74 bd
       -0.063372 0.043350715 0.007150399 -0.05969325
0003f0 8f d7 2b bc cf 41 27 3d 55 a3 eb bb 05 e4 1b 3d
       -0.010488405 0.040834244 -0.0071911016 0.038059253

action_model._discrete_distribution.branches.0.bias f4 [3]
000000 6a 17 02 bd 63 a0 67 3d 81 b8 23 bd
       -0.03176061 0.05654944 -0.03997088

action_model._discrete_distribution.branches.1.weight f4 [3, 128]
000000 8c 5a 04 3d 7d 08 a8 bc 4c a7 c6 bc f8 76 f6 bc
       0.032312915 -0.02051186 -0.024249695 -0.030086026
000010 4f c4 19 bd 59 1e 24 ba d7 9b 90 bc fb 6c 0b bd
       -0.03754073 -0.00062606257 -0.017652435 -0.03403948
000020 52 78 37 bd ef 15 3c bd 6c 5b fb bc d7 a8 cf 3c
       -0.04479248 -0.045919355 -0.030683242 0.025349064
000030 1a 1d 34 bc a9 89 2e 3c d8 e5 f9 39 28 38 0a bd
       -0.0109932665 0.010652938 0.00047664228 -0.03374496
000040 f2 3f 94 bc db 12 db 39 72 ce 06 3c 02 7d 95 3a
       -0.018096898 0.00041784983 0.008227931 0.0011405053
000050 42 0a 1d bd 4c 73 18 3b 49 f8 1e 3c 1e 74 84 3c
       -0.03833986 0.0023262082 0.0097027505 0.01616865
000060 fe a9 e3 3c 72 9b 54 bd 88 c8 a1 3c 8c 1f 57 3d
       0.02779102 -0.051906057 0.019748941 0.05252032
000070 08 08 76 bc 80 cb d4 bb b4 67 48 3d da 1b c1 3c
       -0.015016563 -0.0064939857 0.048927024 0.023572851
000080 2e 65 87 bc b3 3e 62 bd 5f 7f a8 bc c1 09 21 bd
       -0.016527738 -0.055235576 -0.020568548 -0.039315943
000090 fd eb ad 3b eb b3 79 bc 95 0a a9 bb f1 82 81 3c
       0.005307673 -0.01524065 -0.005158732 0.015809508
0000a0 a9 7a 0d 3c a1 b4 5f bb 20 36 ee 3c 6c 73 98 bc
       0.0086352015 -0.0034134763 0.029078543 -0.018609725
0000b0 60 9e 9e bc 2c 68 7a bc 3b c7 14 bc 53 c3 e7 bc
       -0.019362628 -0.015283626 -0.009080703 -0.02829138
0000c0 3b 10 1f 3d fa 18 89 3c 65 36 24 bd 99 19 f9 bc
       0.038833838 0.016735543 -0.040090937 -0.030407714
0000d0 9b 33 8c 3d 84 93 f4 bb f7 52 98 bd c4 52 1a 3d
       0.068457805 -0.0074638743 -0.07437699 0.037676588
0000e0 23 97 2c bd 99 88 34 bd 97 17 15 3b dc ec a2 bc
       -0.042136323 -0.044075582 0.0022749656 -0.019888334
0000f0 0f 26 33 3d 69 e6 d9 bc 5d 08 fb 3c c6 53 0d 3d
       0.043737467 -0.026599126 0.030643636 0.03450372
000100 0c 34 da bb 18 04 05 3b 83 d4 3e bd e3 bc 98 bc
       -0.0066590365 0.002029663 -0.046589386 -0.018644756
000110 4b 43 7a 3d de 15 8c 3c df 76 78 3b d9 d1 ec bb
       0.06109933 0.01710027 0.003791265 -0.007227164
000120 33 67 8d ba da 77 1b 3d fe c8 6f ba 51 af 05 bd
       -0.0010788202 0.037956096 -0.00091470766 -0.032637898
000130 96 23 b1 bc 42 35 9e bc a6 5f df bb 2a db e8 bc
       -0.021623414 -0.019312505 -0.006816822 -0.028424818
000140 29 cf bb bc 21 13 86 3c 21 ba 0b bc 12 a6 ab bc
       -0.02292593 0.016366543 -0.008528263 -0.020953212
000150 69 c8 77 bc df ff a6 bc 89 ea f6 bb d5 71 08 bb
       -0.015123465 -0.02038568 -0.007535283 -0.0020819802
000160 61 71 93 bc be 0c e4 3b d8 f4 12 3d 7f f3 b9 bc
       -0.0179984 0.006959527 0.035878032 -0.022699116
000170 c6 07 4d 3b 87 68 28 3b 81 34 92 bc b5 f8 65 bc
       0.003128515 0.0025697069 -0.017847301 -0.014036347
000180 17 42 86 3c 34 8a 3c 3d f4 96 8a 3c 41 28 0d 3d
       0.016388936 0.04603024 0.016917683 0.034462217
000190 f4 c7 5e bc c4 5d 93 bb 49 00 87 bc 10 1b c8 3c
       -0.013597477 -0.0044972617 -0.016479628 0.024426967
0001a0 82 0f 39 39 8b 77 40 bd f2 22 e3 3b 66 19 67 3d
       0.00017648752 -0.046989005 0.006931656 0.056420706
0001b0 d4 5d d8 bc de 9c d6 bc 68 fc b5 bc ba 11 f4 bc
       -0.026411928 -0.026197847 -0.022215083 -0.029793609
0001c0 0a 38 7d 3c 65 63 c8 bc a6 84 54 bc 5e 5a 1e 3c
       0.015455255 -0.024461458 -0.012971079 0.0096651
0001d0 2d 8c a7 39 34 f8 4e bd 2b eb 4b bd dd db 07 bd
       0.0003195716 -0.050529674 -0.04978482 -0.033168662
0001e0 ef e0 0d bb 14 d4 d9 3c f5 b2 4c bc 63 a5 bd bb
       -0.0021648963 0.026590385 -0.012493839 -0.005787538
0001f0 63 97 4e 3b 92 bc 27 3c 25 aa 14 bb d1 ab f9 bc
       0.003152334 0.01023783 -0.0022684422 -0.030477436
000200 5f 4b e6 3b 1f 66 27 3c dd 59 62 bd 88 cb ae 3c
       0.007028028 0.010217219 -0.05526148 0.021337286
000210 5a 68 20 bb 4d 9f 6a bd 81 93 c6 3c 3b fd 5d 3d
       -0.002447626 -0.057280827 0.024240257 0.054196578
000220 c8 26 2c bc 7e c3 42 bb 4e 05 63 bc 4f bc 95 3c
       -0.010507293 -0.0029718573 -0.013856245 0.01827827
000230 2b 58 73 3b a0 96 b4 b9 26 38 8a bb 4e 87 80 39
       0.003713141 -0.000344445 -0.004218119 0.00024514872
000240 9f cf aa 3b c0 04 03 bd d7 07 1a 3d 35 56 b3 3a
       0.0052127386 -0.03198695 0.037605133 0.0013682308
000250 19 56 a2 bc 08 cd ca ba 60 71 94 bc 7f 58 a1 3b
       -0.019816445 -0.0015472481 -0.018120468 0.0049238796
000260 d9 34 5f 3c 91 93 22 bc cf 46 5c bd 38 9e f6 3c
       0.01362344 -0.009922878 -0.053778466 0.030104741
000270 e9 3f 08 bd 55 71 8c 3c 4a e7 88 bd bf 32 86 bb
       -0.033264074 0.017143885 -0.0668474 -0.004095405
000280 ed 05 84 3c bd 51 fc bc 10 b7 c3 3c 32 f1 98 3d
       0.016116107 -0.030800695 0.023891002 0.07467879
000290 a1 79 18 bc 76 0a 0a bc ca 72 b0 3b 12 b8 99 bc
       -0.009306342 -0.008425346 0.0053847777 -0.01876453
0002a0 28 78 0b bd b0 85 82 3c 67 a5 8d bd 59 19 98 3c
       -0.034050137 0.015932888 -0.069163136 0.018566774
0002b0 1a 2e 17 3d 50 2f a5 3c fc b0 d0 3b e1 9f 91 3a
       0.0369092 0.020164162 0.0063687544 0.001111027
0002c0 8e 27 f5 bc 83 f2 0a bd 76 b7 14 3d 78 76 eb 3c
       -0.029926088 -0.033922683 0.036307774 0.028743014
0002d0 23 38 bf bc 83 a0 7d 3a 72 c6 75 3d 6d b0 ad bc
       -0.023342198 0.0009675102 0.060003705 -0.02120229
0002e0 33 27 a8 3d 7f 43 94 bb 91 99 90 bc c4 1b 26 bd
       0.08210602 -0.0045246477 -0.017651351 -0.040553823
0002f0 01 03 29 bc c4 0c c7 3c 7b 11 14 bc ef 5f 14 bd
       -0.010315658 0.02429808 -0.009037371 -0.036224302
000300 1f c6 85 bc 50 38 31 3c 87 c3 41 3d b2 a7 05 3d
       -0.016329823 0.010816649 0.04730561 0.03263063
000310 4d 3f 10 3c 85 c9 fe bb 11 32 33 3c d9 f6 b7 3b
       0.008804155 -0.007775488 0.01093723 0.0056141433
000320 66 50 e3 3c f7 22 ad bc 1a a9 50 3b 6e ef 39 3a
       0.027748298 -0.021134837 0.0031839074 0.0007092868
000330 8d 6b f0 3b ec b5 34 bc ea 44 16 3c f3 78 07 3c
       0.00733704 -0.011029702 0.009171704 0.008268583
000340 d4 fe 38 3b 71 a6 79 3a c5 42 fc 3c ac 54 61 3a
       0.0028228061 0.0009523398 0.030793557 0.0008595686
000350 a5 e4 8b 3d 1b 2b a8 b8 6a a0 d6 bb 0a 09 8f bc
       0.0683072 -8.018893e-05 -0.0065498846 -0.017460365
000360 91 fa 5a 3c b7 a0 ce 3c bf f5 98 bd d6 20 a1 bb
       0.013365404 0.02522312 -0.07468747 -0.0049172444
000370 1e cd 22 3d 09 d6 40 bc 1a 88 0a bd 5b c9 d8 bc
       0.039746396 -0.01176978 -0.033821203 -0.026463201
000380 4b be 9b bb 08 f9 a8 bd 88 8a 32 bc bf f4 da 3b
       -0.0047529093 -0.08250624 -0.010897286 0.006682008
000390 b7 4b 95 3a 66 37 90 3b dd 45 2c bc 3c 35 fa ba
       0.0011390363 0.0044011353 -0.010514704 -0.0019089351
0003a0 71 88 1f bd f6 3d 43 3d af 30 28 3c 88 74 e2 ba
       -0.03894848 0.047666512 0.010265513 -0.0017277161
0003b0 ec d0 a9 bc df 25 9d 3c ce fa 1b 3d a3 fe dd bc
       -0.020729505 0.019183097 0.038080983 -0.02709896
0003c0 ae e8 c2 3c 7b 5e 9e 3c 0e 4f bd 3c 67 17 41 bd
       0.023792591 0.019332161 0.023108985 -0.04714146
0003d0 70 58 b8 3c 30 f9 80 bc 18 8f 7f 3c 0e 97 55 bb
       0.022503108 -0.015743822 0.015598081 -0.0032591256
0003e0 74 e3 e9 3c f3 fa 59 3c b8 e7 46 bd ef 08 7b 3c
       0.02855084 0.01330446 -0.048560828 0.015321954
0003f0 94 6b 68 3d 61 e7 99 3c 26 fc 25 3d 05 37 72 bb
       0.05674322 0.018787088 0.04052367 -0.0036959064

action_model._discrete_distribution.branches.1.bias f4 [3]
000000 62 58 2a 3c 35 5a 20 bc d0 fb e0 ba
       0.010397049 -0.009787132 -0.001716489
