Assets/results/T2/CarDriver/CarDriver-6499936.onnx (onnx, 188993 bytes, 9 tensors)

discrete_act_size_vector f4 [1, 2]
3.0 3.0
00000000: 0000 4040 0000 4040

network_body._body_endoder.seq_layers.0.weight f4 [128, 225]
-0.023063818 -0.022764841 -0.12423955 -0.042060047 -0.0017737551 0.16102493 -0.052742045 -0.034247637
-0.17864063 0.1012518 -0.040794842 -0.029105773 0.019583372 0.064849444 0.071295194 0.039328214
-0.092493385 -0.1655946 0.08269434 -0.09167086 0.058042925 0.0358156 0.0066107223 -0.003586969
0.1125997 -0.100659646 0.15093462 0.0131434575 -0.06362891 -0.12238186 0.09507034 0.01229803
0.117656976 -0.024018554 -0.06307438 -0.12231486 -0.03181274 0.022203138 -0.014590714 -0.07338236
-0.015873997 -0.0703925 -0.012891229 0.08332905 0.09975062 -0.06004423 0.073263474 -0.056889925
-0.1295187 -0.22104318 0.12426749 -0.026987132 0.12742862 -0.05034222 0.058197875 0.20405784
0.10566169 -0.17778333 0.12981895 -0.13996705 -0.022919772 -0.21026966 0.019152816 0.04619696
0.07013555 -0.055658698 0.008201931 0.040524 -0.08168382 -0.19277404 0.054949608 0.048885927
-0.09690774 -0.009591521 0.063414 -0.09968545 -0.11600876 -0.1588603 0.083427034 -0.00018261057
0.0034971668 0.012719832 -0.036019284 -0.044503648 0.06085858 0.024199568 0.023631534 -0.1552398
0.008285791 0.036973238 -0.029627996 -0.08434675 0.025114821 -0.037665855 -0.031433787 -0.15521786
0.049418326 -0.0025728634 -0.06419321 0.005414301 -0.0069746315 -0.020533592 -0.055770997 -0.024529878
-0.012952428 -0.043637898 0.07602731 -0.059832074 -0.103129156 -0.014703784 -0.14929557 0.010654492
-0.0083900085 0.0118508935 0.09936288 -0.12436813 -0.05661193 0.08452585 0.051306933 0.042222288
0.032073714 -0.18113895 0.11448845 0.032968972 0.10889809 -0.03200223 0.03270996 -0.021306
0.02245948 -0.07163918 0.060826134 0.032616574 -0.037114736 -0.13339387 0.10115314 -0.0031365305
0.032209784 -0.06041747 -0.073828414 -0.06404321 0.09286885 -0.11374707 -0.025071768 -0.04021736
0.06869747 -0.0030379063 0.02557315 -0.02592962 0.02747433 -0.064911306 0.03832498 -0.08038683
0.07420862 -0.032653853 -0.040146865 -0.0049873944 0.09332614 -0.01443041 0.023708327 0.07848214
-0.117645115 0.0070893904 -0.0018794726 -0.010080294 0.111169316 0.16943303 -0.22300833 0.020565964
0.12617855 -0.06157809 -0.1743028 -0.25195026 -0.01409989 -0.059084408 -0.0569738 -0.015352049
-0.017173622 -0.09577593 -0.052662328 -0.058658525 0.08292673 -0.09918218 -0.0077897706 -0.0050613643
0.00814069 -0.07235812 0.13673043 -0.03023871 -0.18483959 -0.07504038 0.12938862 0.11626017
0.012762187 -0.0564764 -0.0048656506 -0.045837723 0.121722125 -0.17246757 -0.14136028 -0.039162803
0.13391292 0.11164867 -0.2237063 -0.086442366 0.10226228 0.010559238 0.027456323 -0.07377996
0.1145904 -0.08567874 -0.092526086 0.019364143 0.039204214 0.010358178 0.14105959 -0.0843824
-0.12684087 -0.10000016 0.1060432 0.06968423 0.054971546 -0.053328454 -0.014042261 -0.024924392
0.098704815 0.06432597 0.054515198 0.060438722 -0.032531705 -0.032519113 0.08213749 0.039145783
-0.11231272 0.0067577707 0.018203836 -0.0055892365 -0.14635065 -0.05825588 -0.020102702 0.08526237
0.048095416 0.095548525 0.015799562 -0.028890528 0.0041216766 -0.079288095 -0.14657824 -0.05142133
0.07817027 -0.02201943 0.057458427 0.07369624 -0.037538886 0.009339711 -0.036222734 0.046199862
00000000: 55f0 bcbc 557d babc 4e71 febd 2847 2cbd
00000010: 587d e8ba b8e3 243e 0b08 58bd 4047 0cbd
00000020: 92ed 36be 1b5d cf3d 7e18 27bd 3b6f eebc
00000030: 4f6d a03c c9cf 843d 3703 923d 9f16 213d
00000040: 2c6d bdbd a191 29be a65b a93d efbd bbbd
00000050: 6bbe 6d3d 61b3 123d c29e d83b 5b13 6bbb
00000060: ac9a e63d a526 cebd 9b8e 1a3e a857 573c
00000070: e04f 82bd 57a3 fabd 3db4 c23d ad7d 493c
00000080: 24f6 f03d 8fc2 c4bc 242d 81bd 3780 fabd
00000090: 134e 02bd 5be3 b53c e40d 6fbc 7e49 96bd
000000a0: 2f0a 82bc f129 90bd bc35 53bc 6ca8 aa3d
000000b0: 0e4a cc3d f0f0 75bd 290b 963d 6905 69bd
000000c0: 8da0 04be 2559 62be f47f fe3d 1e14 ddbc
000000d0: a67c 023e a533 4ebd e560 6e3d 8af4 503e
000000e0: 2865 d83d d50c 36be 42ef 043e 8653 0fbe
000000f0: 3fc2 bbbc ee50 57be 5ee6 9c3c 0639 3d3d
00000100: 3aa3 8f3d 60fa 63bd 6461 063c 7efc 253d
00000110: d949 a7bd 8f66 45be d712 613d 9c3c 483d
00000120: 9177 c6bd c125 1dbc 33df 813d e327 ccbd
00000130: 0096 edbd 46ac 22be cbdb aa3d 277b 3fb9
00000140: b930 653b d866 503c f588 13bd 7549 36bd
00000150: d946 793d 2c3e c63c eb96 c13c 2ff7 1ebe
00000160: 20c1 073c 4071 173d 69b6 f2bc fdbd acbd
00000170: 99bd cd3c 8347 1abd b7c0 00bd 6ef1 1ebe
00000180: df6a 4a3d 7c9d 28bb bb77 83bd 736a b13b
00000190: 738b e4bb 1036 a8bc 2170 64bd e2f2 c8bc
000001a0: 6c36 54bc a7bd 32bd 35b4 9b3d 7a12 75bd
000001b0: 6135 d3bd 24e8 70bc f0e0 18be 2e90 2e3c
000001c0: 3f76 09bc 402a 423c c47e cb3d b8b4 febd
000001d0: e9e1 67bd e41b ad3d 3827 523d 47f1 2c3d
000001e0: ba5f 033d 7d7c 39be ec78 ea3d 790a 073d
000001f0: f605 df3d c514 03bd e1fa 053d ec89 aebc
00000200: f2fc b73c 90b7 92bd d324 793d f598 053d
00000210: 9f05 18bd 6798 08be 6129 cf3d 408e 4dbb
00000220: 68ee 033d 4f78 77bd 5a33 97bd 1629 83bd
00000230: 0632 be3d 39f4 e8bd 4f63 cdbc f5ba 24bd
00000240: 42b1 8c3d 9c17 47bb c87e d13c 5b6a d4bc
00000250: d911 e13c 38f0 84bd a7fa 1c3d daa1 a4bd
00000260: b0fa 973d 0cc0 05bd 0a71 24bd 4c6d a3bb
00000270: c621 bf3d 876d 6cbc f737 c23c 3fbb a03d
00000280: ecef f0bd 1e4e e83b a358 f6ba d127 25bc
00000290: bdac e33d da7f 2d3e 4c5c 64be f479 a83c
000002a0: f334 013e 4f39 7cbd 6f7c 32be a0ff 80be
000002b0: 3a03 67bc 7e02 72bd 5c5d 69bd 2987 7bbc
000002c0: b2af 8cbc 2c26 c4bd 74b4 57bd ec43 70bd
000002d0: 7dd5 a93d 0720 cbbd 5541 ffbb cdd9 a5bb
000002e0: 8760 053c 7e30 94bd 1003 0c3e 2cb7 f7bc
000002f0: 9746 3dbe c5ae 99bd 737e 043e d019 ee3d
00000300: 7e18 513c cc53 67bd 0970 9fbb 56c0 3bbd
00000310: 7349 f93d 579b 30be c0c0 10be 2d69 20bd
00000320: 7820 093e 0fa8 e43d 4413 65be b208 b1bd
00000330: e36e d13d a700 2d3c 15ec e03c f319 97bd
00000340: 5fae ea3d 5678 afbd 517e bdbd 8da1 9e3c
00000350: 9994 203d 59b5 293c ed71 103e aed0 acbd
00000360: 93e2 01be e2cc ccbd 2d2d d93d 9bb6 8e3d
00000370: d829 613d f06e 5abd 8311 66bc 3d2e ccbc
00000380: c025 ca3d 56bd 833d 544b 5f3d 988e 773d
00000390: f73f 05bd c332 05bd b337 a83d 5457 203d
000003a0: 3604 e6bd 4a70 dd3b 3620 953c ea25 b7bb
000003b0: f2dc 15be b89d 6ebd 6cae a4bc 0a9e ae3d
000003c0: b3ff 443d f2ae c33d 156e 813c d4ab ecbc
000003d0: 210f 873b cc61 a2bd 9b18 16be 2c9f 52bd
000003e0: bc17 a03d 1762 b4bc 8759 6b3d 0eee 963d
000003f0: 60c2 19bd 9605 193c 4a5e 14bd 113c 3d3d

network_body._body_endoder.seq_layers.0.bias f4 [128]
-0.0056103454 0.010055135 -4.5190864e-05 -0.0032040875 0.003421543 -0.003879609 -0.0034479112 -0.012699019
-0.015779598 -0.03890178 -0.004822116 -0.011886261 0.01503574 -0.013405071 0.0063173035 0.02278183
0.02011149 -0.0007807393 0.02876913 -0.0016691673 0.0002955133 -0.014802075 -0.072597206 -0.004959811
-0.024180507 0.00062342855 -0.014643634 0.01178484 -0.017914873 -0.018620618 0.002210841 0.00088737445
-0.028649421 -0.017943647 0.012300335 -0.048350353 0.021473972 0.0028067918 0.028610487 0.0011255256
-0.012308658 0.02790153 0.022613917 -0.005306038 0.008887396 -0.012175621 0.002459647 -0.009990126
0.010530588 -0.012419946 6.983226e-05 0.0036332873 -0.0012931763 -0.020439794 -0.013178311 0.0028511765
-0.014940087 0.011722004 0.032617386 0.010196017 0.025683524 0.013287035 -0.007222435 -0.00011832211
-0.020970572 -0.0114429 -0.00064109184 0.034202427 0.023978034 0.02411449 -0.016531348 -0.015292064
0.00963148 0.0009466388 -0.014514878 -0.012590008 -0.004732539 -0.004042918 0.0011912091 -0.00680889
-0.003239447 -0.010338808 0.009597392 -0.0005243601 0.022879474 -0.01855402 0.02834784 -0.018874241
0.036541738 -0.005846166 0.012247943 0.02488609 0.005027209 -0.0017956534 -0.019996827 -0.0077121486
0.016813878 0.003163613 -0.010307258 -0.015550666 -0.030506745 -0.0077664237 0.020152878 0.011461562
-0.0070821573 0.034140557 -0.011351815 -0.012195953 0.0016309784 -0.006545113 0.02052906 0.025419293
0.0034116413 -0.010434729 0.026051547 -0.028570296 -0.004517056 -0.01980348 -0.020790083 0.02985376
0.008992396 -0.024448724 0.029666146 0.006715423 -0.021958921 6.385587e-05 -0.023162806 0.015185622
00000000: fdd6 b7bb 4bbe 243c 528b 3db8 abfb 51bb
00000010: f73b 603b 0a41 7ebb 5af6 61bb 8c0f 50bc
00000020: 3744 81bc 7957 1fbd d702 9ebb 98be 42bc
00000030: 7758 763c f1a0 5bbc 6201 cf3b f6a0 ba3c
00000040: dac0 a43c 87aa 4cba 3dad eb3c f6c7 daba
00000050: 20ef 9a39 6784 72bc d8ad 94bd e985 a2bb
00000060: 3316 c6bc 956d 233a daeb 6fbc 3415 413c
00000070: 36c2 92bc 448a 98bc c2e3 103b b19e 683a
00000080: 31b2 eabc 8efe 92bc 5887 493c 050b 46bd
00000090: 2fea af3c 27f2 373b 8a60 ea3c 5f86 933a
000000a0: 41aa 49bc c091 e43c d240 b93c 46de adbb
000000b0: 719c 113c 427c 47bc 0732 213b a0ad 23bc
000000c0: 7d88 2c3c 077d 4bbc e972 9238 721c 6e3b
000000d0: cc7f a9ba 5b71 a7bc d8e9 57bc ceda 3a3b
000000e0: 44c7 74bc a60d 403c cf99 053d 320d 273c
000000f0: 4166 d23c ddb1 593c 2daa ecbb b323 f8b8
00000100: 7aca abbc 007b 3bbc f20e 28ba d817 0c3d
00000110: 956d c43c c08b c53c c06c 87bc 918b 7abc
00000120: 5bcd 1d3c db27 783a d0cf 6dbc 5246 4ebc
00000130: 6a13 9bbb 747a 84bb 5822 9c3a 1c1d dfbb
00000140: e74c 54bb 1b64 29bc 613e 1d3c 3675 09ba
00000150: bc6d bb3c 9afe 97bc bb39 e83c 279e 9abc
00000160: caac 153d 3291 bfbb 99ab 483c eadd cb3c
00000170: 49bb a43b 215c ebba 63d0 a3bc 31b6 fcbb
00000180: 42bd 893c 9e54 4f3b c6df 28bc 38c8 7ebc
00000190: 48e9 f9bc 7c7d febb a617 a53c 46c9 3b3c
000001a0: 7111 e8bb f8d6 0b3d f7fc 39bc 89d1 47bc
000001b0: 8ec6 d53a 6378 d6bb 8f2c a83c 1f3c d03c
000001c0: d895 5f3b 6df6 2abc 0e6a d53c 410c eabc
000001d0: d003 94bb e83a a2bc f74f aabc df8f f43c
000001e0: d854 133c b148 c8bc 6b06 f33c 0d0d dc3b
000001f0: 32e3 b3bc 5cea 8538 edbf bdbc 1dcd 783c

network_body._body_endoder.seq_layers.2.weight f4 [128, 128]
0.131798 -0.021600772 0.036640044 -0.07141627 -0.032440204 -0.19216402 -0.13896969 0.045476865
-0.0052509205 -0.086074114 -0.14797877 0.12133096 -0.13240477 0.049820904 -0.16443054 0.08934826
-0.053167403 -0.11361514 -0.016411372 -0.205338 -0.06363913 -0.08036382 -0.08524543 -0.039673373
0.06601957 -0.03430375 0.023453271 -0.017668488 -0.12896039 -0.09348603 -0.21323557 0.0535096
0.037079 0.15553068 -0.15635295 -0.058103476 0.02605025 -0.0816688 -0.11206892 -0.024041504
-0.032002337 0.06120743 0.26974297 0.030533819 -0.11699379 -0.1183141 0.034679584 -0.004141833
-0.11071833 0.070485964 -0.15612444 -0.02179384 -0.109654866 -0.048277993 -0.0028127767 -0.037755378
-0.1408055 -0.065807395 0.060804114 -0.00075137604 -0.06596056 0.027349124 0.26774558 -0.007566131
-0.0059309457 0.15488763 -0.14365163 -0.06543118 0.007944627 0.035231337 -0.120817445 0.043884527
-0.0850005 -0.15047728 -0.03686971 0.10661024 -0.051921487 -0.0027262054 -0.006367515 0.08652053
0.05170366 -0.00037021728 -0.021762779 0.16102071 0.11644507 -0.09698322 -0.06969399 0.025592253
-0.018403063 -0.059267234 0.13079014 -0.032375004 -0.034861673 0.047382597 0.10943434 -0.04453629
-0.10813738 -0.12045378 0.055090357 -0.14360368 0.091492675 -0.08359546 0.12714517 0.023138512
0.058952544 0.026553838 -0.1877684 0.063024364 -0.1637554 -0.114903115 0.1454401 -0.25589392
0.03474195 0.053528547 0.02235186 -0.013146575 0.07152846 -0.1834032 -0.19324507 0.23750436
0.1217894 0.021665763 0.10731195 0.11813501 0.05603846 0.07675636 0.14454255 -0.059862453
-0.07579241 0.08605119 0.12543775 0.32806522 0.04832759 0.1333255 0.07772332 0.042224813
0.07287609 -0.017895345 -0.031550575 -0.011379336 -0.00963734 -0.06000171 0.013484562 0.115636595
0.06740338 0.025993258 0.07672069 0.16749384 0.04871311 -0.01849118 -0.054425765 -0.077937506
0.15396875 0.041865073 0.18973973 -0.0846381 0.18444565 0.11598195 -0.055078477 -0.14082274
-0.077943586 -0.048949346 -0.058204185 -0.046867616 -0.016549787 0.032541174 -0.037646912 -0.31039
-0.108283184 0.06639575 0.113812566 0.031012993 -0.05769308 -0.11784414 -0.11574686 0.010929684
0.048261546 -0.16651596 -0.1789034 0.028377395 0.042117663 -0.15628672 -0.051566646 -0.0085123
-0.06472814 0.06322913 0.060517006 -0.0010125824 -0.048101626 0.085992046 -0.02056928 -0.113401875
0.08999552 0.04949421 -0.047494713 -0.00498431 -0.080427185 -0.014346124 0.030123876 -0.105109185
0.070506245 -0.10667813 -0.10417708 0.062604986 -0.027683046 -0.03812364 -0.11392215 0.050379068
0.13791904 -0.1088272 0.06567195 0.053427275 0.11151873 -0.16742513 0.0490193 -0.17905827
-0.08145782 -0.07980802 0.00030360214 0.11664821 -0.21696591 0.19207561 -0.06484773 0.050438505
0.14563353 -0.099952325 0.009595032 -0.06704788 -0.08912283 0.06671925 -0.101981506 0.08454604
0.04652458 0.09312931 0.12110395 -0.013977115 -0.18170355 0.112971924 0.23509279 -0.17038159
-0.0040749563 -0.0095343795 0.13164882 -0.11309039 -0.007038867 -0.0016326553 0.14938892 0.055623446
0.061056264 0.09440943 0.019267717 0.21895508 -0.17622401 0.090287805 0.09445056 -0.03747032
00000000: 0ef6 063e 1af4 b0bc df13 163d b242 92bd
00000010: 05e0 04bd a5c6 44be 124e 0ebe f345 3a3d
00000020: ea0f acbb a047 b0bd bf87 17be 5e7c f83d
00000030: 1e95 07be 0111 4c3d 7b60 28be 38fc b63d
00000040: 10c6 59bd 0eaf e8bd 2471 86bc 2044 52be
00000050: 3b55 82bd c995 a4bd 2895 aebd 8c80 22bd
00000060: 4535 873d 1782 0cbd 1321 c03c 81bd 90bc
00000070: 310e 04be 9b75 bfbd 6d5a 5abe e22c 5b3d
00000080: 26e0 173d 6f43 1f3e fd1a 20be e9fd 6dbd
00000090: 5567 d53c f941 a7bd 6484 e5bd b0f2 c4bc
000000a0: e214 03bd a4b4 7a3d c01b 8a3e 0f22 fa3c
000000b0: 719a efbd aa4e f2bd 2e0c 0e3d 37b8 87bb
000000c0: 4bc0 e2bd f25a 903d 16df 1fbe ff88 b2bc
000000d0: bb92 e0bd 25bf 45bd 9056 38bb 62a5 1abd
000000e0: 512f 10be 07c6 86bd bc0d 793d fef7 44ba
000000f0: 5516 87bd 450b e03c f315 893e 4fed f7bb
00000100: 6158 c2bb dd9a 1e3e 6a19 13be c800 86bd
00000110: 2e2a 023c bc4e 103d 236f f7bd 43c0 333d
00000120: be14 aebd b716 1abe b104 17bd 7856 da3d
00000130: a0ab 54bd 23aa 32bb 96a6 d0bb ad31 b13d
00000140: 38c7 533d b919 c2b9 db47 b2bc 9de2 243e
00000150: c17a ee3d 239f c6bd b9bb 8ebd d8a6 d13c
00000160: 05c2 96bc 33c2 72bd daed 053e a79b 04bd
00000170: 1dcb 0ebd 4114 423d 1c1f e03d af6b 36bd
00000180: 2177 ddbd 79b0 f6bd 6da6 613d d80c 13be
00000190: 8360 bb3d 1934 abbd 5832 023e fa8c bd3c
000001a0: 3978 713d 6f87 d93c 5c46 40be eb12 813d
000001b0: 7faf 27be 5352 ebbd 40ee 143e 8704 83be
000001c0: 934d 0e3d c040 5b3d 3f1b b73c bb64 57bc
000001d0: 837d 923d 0cce 3bbe 09e2 45be 5834 733e
000001e0: b96c f93d 667c b13c 5ec6 db3d c5f0 f13d
000001f0: 9688 653d 7032 9d3d f602 143e 5532 75bd
00000200: 0d39 9bbd 9b3b b03d c172 003e 2af8 a73e
00000210: 27f3 453d 7b86 083e 672d 9f3d edf3 2c3d
00000220: 0f40 953d 4299 92bc 2d3b 01bd 6570 3abc
00000230: efe5 1dbc 5ac4 75bd 5aee 5c3c e1d2 ec3d
00000240: c90a 8a3d d0ef d43c bd1f 9d3d 8183 2b3e
00000250: 6687 473d d17a 97bc 8ded 5ebd b39d 9fbd
00000260: fca9 1d3e b67a 2b3d 224b 423e bd56 adbd
00000270: 52df 3c3e f287 ed3d f899 61bd d633 10be
00000280: e3a0 9fbd 1c7f 48bd 8367 6ebd 42f8 3fbd
00000290: 6b93 87bc e549 053d a633 1abd 70eb 9ebe
000002a0: 93c3 ddbd 7ffa 873d 9016 e93d f60e fe3c
000002b0: 944f 6cbd 4558 f1bd b10c edbd 6b12 333c
000002c0: e6ad 453d 2983 2abe 7432 37be b677 e83c
000002d0: 9283 2c3d a009 20be 8c37 53bd 2d77 0bbc
000002e0: 3090 84bd 467e 813d aee0 773d a1b8 84ba
000002f0: 3606 45bd 991c b03d e880 a8bc 3e3f e8bd
00000300: 924f b83d 71ba 4a3d d189 42bd 6c53 a3bb
00000310: 02b7 a4bd 010c 6bbc 59c6 f63c 7c43 d7bd
00000320: 9465 903d 107a dabd cb5a d5bd 0b37 803d
00000330: 8ec7 e2bc 8927 1cbd 0450 e9bd 485a 4e3d
00000340: a63a 0d3e cce0 debd 047f 863d 8fd6 5a3d
00000350: ef63 e43d 7e71 2bbe 76c8 483d 0d5b 37be
00000360: 5cd3 a6bd 6372 a3bd ca2c 9f39 42e5 ee3d
00000370: 502c 5ebe 78af 443e e3ce 84bd 9b98 4e3d
00000380: f520 153e ceb3 ccbd 7b34 1d3c 6650 89bd
00000390: 0886 b6bd 1aa4 883d aedb d0bd 7926 ad3d
000003a0: 8f90 3e3d 94ba be3d 5905 f83d 4500 65bc
000003b0: 7f10 3abe d35d e73d 2abc 703e 8378 2ebe
000003c0: 3687 85bb 1636 1cbc f3ce 063e ef9b e7bd
000003d0: 4ca6 e6bb d2fe d5ba 69f9 183e 69d5 633d
000003e0: 2216 7a3d bb59 c13d 55d7 9d3c c335 603e
000003f0: 1174 34be d0e8 b83d 4c6f c13d 7a7a 19bd

network_body._body_endoder.seq_layers.2.bias f4 [128]
-0.00010863185 0.013369585 0.004512067 0.015110942 -0.004805926 -0.0061288523 0.01680863 -0.014884973
0.054322116 0.018159606 -0.019080436 -0.0076842806 -0.0024471465 -0.006338216 0.01978441 -0.038648974
-0.047583714 0.0076498236 -0.010200802 0.014265608 -0.010819128 0.014877048 -0.002856049 -0.009934787
-0.018500302 0.057729475 -0.015794484 0.013727952 0.026446523 0.019847574 -0.0065261503 0.016683651
0.026196957 0.015649462 0.013372394 0.03171228 -0.025135117 0.0063147587 0.013268719 0.0095247915
0.01800731 -0.011716436 0.02494883 -0.019914322 0.0015747623 -0.0035988516 0.021508122 0.0070404834
-0.045514468 -0.018370513 0.024129396 0.025636239 -0.016958477 0.018244363 -0.053588722 0.011396012
0.02529843 -8.1811915e-05 -0.052757777 -0.012329368 -0.0389523 0.051649775 0.042890582 0.05327285
0.007635094 0.0125171365 0.032018986 -0.010455647 -0.026610758 -0.019251985 -0.0011376907 0.0046509216
0.014032289 0.030524867 -0.00017151915 -0.0044000116 0.006013704 -0.017977193 0.0071851434 0.02184469
-0.020197812 -0.059054866 -0.009445956 0.0351594 -0.022231739 0.024112377 -0.0516631 -0.027449531
0.06085942 0.0046461495 0.0058929864 -0.0027573125 -0.014933138 -0.026988514 -0.007238885 0.009948143
-0.013848844 -0.052591696 0.04599656 0.03482978 0.0029977371 -0.013291215 -0.022637766 -0.015092157
-0.020297479 0.021512074 -0.00012660732 -0.021261219 0.01750537 -0.0073827445 -0.02935009 -0.0029215075
0.0015030054 0.059009843 -0.00085371564 0.0059227953 -0.0059604053 0.035750195 0.024531173 0.010502402
0.035745755 0.006020623 -0.0005874748 -0.016705316 0.017697463 -0.028240936 0.023087915 0.04196252
00000000: 48d1 e3b8 1b0c 5b3c f6d9 933b e293 773c
00000010: 077b 9dbb 8ad4 c8bb 41b2 893c 1ae0 73bc
00000020: de80 5e3d 74c3 943c 934e 9cbc 6bcc fbbb
00000030: 4e60 20bb cfb0 cfbb ea12 a23c 634e 1ebd
00000040: 24e7 42bd 5fab fa3b 4421 27bc 4cba 693c
00000050: b642 31bc ddbe 733c 8d2c 3bbb 84c5 22bc
00000060: f28d 97bc be75 6c3d 6f63 81bc 34eb 603c
00000070: 61a6 d83c 6197 a23c 51d9 d5bb 27ac 883c
00000080: 009b d63c 4d33 803c e317 5b3c bce4 013d
00000090: 29e8 cdbc 09ec ce3b 0b65 593c df0d 1c3c
000000a0: 1184 933c 4bf6 3fbc 7d61 cc3c 5c23 a3bc
000000b0: 4168 ce3a b6da 6bbb cd31 b03c dbb3 e63b
000000c0: 616d 3abd c27d 96bc 03ab c53c 1703 d23c
000000d0: 81ec 8abc 3475 953c d97f 5bbd 57b6 3a3c
000000e0: a73e cf3c 7092 abb8 8a18 58bd 1e01 4abc
000000f0: 728c 1fbd b78e 533d 09ae 2f3d a234 5a3d
00000100: d02f fa3b ad14 4d3c 5726 033d 294e 2bbc
00000110: cefe d9bc 57b6 9dbc 911e 95ba c266 983b
00000120: b0e7 653c 490f fa3c d2d9 33b9 f92d 90bb
00000130: 9b0e c53b e844 93bc 5a71 eb3b a3f3 b23c
00000140: e275 a5bc 84e3 71bd 36c3 1abc 4e03 103d
00000150: 561f b6bc 5287 c53c b09c 53bd d7dd e0bc
00000160: ba47 793d ba3e 983b f419 c13b 07b4 34bb
00000170: 1faa 74bc 0417 ddbc 2b34 edbb 89fd 223c
00000180: 43e6 62bc 646a 57bd e466 3c3d aca9 0e3d
00000190: af75 443b 65c3 59bc d672 b9bc 1845 77bc
000001a0: e646 a6bc 173a b03c e5c1 04b9 022c aebc
000001b0: 6c67 8f3c f3ea f1bb 9a6f f0bc c376 3fbb
000001c0: 7e00 c53a 4eb4 713d e3cb 5fba 0214 c23b
000001d0: 814f c3bb cc6e 123d 99f5 c83c 4412 2c3c
000001e0: 246a 123d a548 c53b c400 1aba 96d9 88bc
000001f0: 45fa 903c 8959 e7bc de22 bd3c e4e0 2b3d

action_model._discrete_distribution.branches.0.weight f4 [3, 128]
-0.052758977 -0.073933855 0.0015399049 0.0056973826 -0.037096042 0.013489816 -0.01816479 -0.029865691
0.040265925 -0.0080153225 -0.084533684 0.013577975 -0.050760616 0.0045993156 -0.023829617 -0.082918435
-0.096414365 -0.04879533 -0.029563226 -0.06596498 -0.07345187 -0.01437155 -0.11872647 -0.0179682
-0.06446011 0.050494574 0.005605471 0.051857013 -0.005179859 0.02318644 -0.03677836 0.06071398
0.06420665 -0.014778114 -0.033111647 0.031614468 0.030329281 -0.11896021 0.016045798 -0.065145046
0.06667673 -0.061429147 -0.0701428 -0.013101112 0.007984536 -0.0074412716 -0.10703928 0.038251996
-0.06735378 0.020070763 0.043707494 -0.12814267 0.053623848 0.032077003 -0.03744148 0.013907124
-0.018512452 -0.091632485 -0.005292701 -0.008701961 -0.035800442 -0.05979749 -0.0681815 0.0388811
-0.11278276 0.036247108 -0.060100302 -0.027706902 -0.11853249 -0.08866063 -0.035384353 -0.046790704
-0.0020846121 -0.07987325 0.059235204 -0.08510877 -0.05253872 0.00647671 0.021787053 0.076929644
-0.06614482 -0.06122631 -0.058146257 0.024819259 -0.10706574 0.051700376 0.026809542 -0.044291135
0.039774355 0.026648471 -0.054158553 -0.004699684 -0.0116476985 -0.030581478 0.04864047 -0.07248993
-0.004952764 0.049179405 0.012800176 0.015305407 -0.08617876 0.072188415 -0.04033073 -0.0081814295
-0.05901424 0.011558722 -0.05285112 -0.037626747 0.05697193 -0.10440668 -0.11790518 -0.04185827
-0.07003781 0.03598832 -0.07971642 -0.08374527 -0.011113473 -0.0026522297 0.00221707 -0.017459877
0.03454234 -0.0008786792 -0.05495989 -0.05309188 -0.02584461 0.073699385 -0.041613698 0.016046116
-0.017650837 -0.043130413 -0.10045931 0.059028585 0.09379462 0.045384634 -0.07591842 0.08559449
-0.12774193 0.050489597 0.059323452 0.03690835 0.07493525 0.046907496 0.08071198 0.04076403
0.08230043 0.1024044 -0.10414475 0.13703409 0.0080068465 -0.052293163 0.059600104 0.050366618
-0.0086681135 0.035371713 -0.05781501 0.018474458 0.0760459 -0.10135836 -0.062325526 0.013277505
-0.012084313 -0.12145244 0.08917505 0.020441642 0.005765125 0.09731646 0.04698518 0.0213197
-0.01283422 0.05257471 0.08112183 -0.012838801 -0.08016435 -0.08084048 0.009629902 -0.07906846
0.05454213 -0.04210444 0.045618914 0.045432433 -0.024293875 -0.0010300612 -0.01688536 0.016604658
0.086342506 -0.015642036 -0.036875658 0.055230822 -0.039757956 -0.07904486 0.08128927 0.07322302
0.024802972 0.02858179 -0.07663982 0.033210453 0.0946015 0.026378442 0.081077136 -0.054726142
0.07552524 0.013102047 0.00025281467 0.09474234 -0.028527131 0.0012453883 -0.053559765 -0.028438883
0.06414124 0.03159394 0.023250924 -0.028968496 0.017803188 -0.13618189 -0.048290618 0.0030174605
0.057271075 0.030721685 0.016098632 0.06077283 0.02892474 0.033487923 -0.0040570605 0.04297451
-0.08710105 -0.029519012 -0.13365896 0.019071957 -0.02277972 -0.03792232 0.06243538 0.0058159186
0.06804282 0.058370966 -0.073446766 -0.016654743 0.0077545205 0.11713973 0.10119786 0.02279066
-0.046921942 0.042500652 0.04517438 -0.0047880085 0.05787889 0.089899026 -0.052647218 0.081076935
-0.146165 0.037982117 -0.01886364 0.08918932 -0.03114517 -0.022893675 0.0078109475 -0.0112991175
00000000: cc19 58bd a26a 97bd a2d6 c93a 1cb1 ba3b
00000010: 05f2 17bd 6404 5d3c 53ce 94bc e5a8 f4bc
00000020: e2ed 243d b352 03bc ff1f adbd 2876 5e3c
00000030: 5dea 4fbd dbb5 963b 5436 c3bc 24d1 a9bd
00000040: e574 c5bd 9ddd 47bd 942e f2bc a618 87bd
00000050: ef6d 96bd a676 6bbc dd26 f3bd 0c32 93bc
00000060: aa03 84bd 66d3 4e3d 19ae b73b 0568 543d
00000070: cfbb a9bb 7df1 bd3c e8a4 16bd 39af 783d
00000080: c77e 833d e71f 72bc 14a0 07bd 2c7e 013d
00000090: 1d75 f83c 69a1 f3bd 7a72 833c c46a 85bd
000000a0: cf8d 883d 219d 7bbd 07a7 8fbd 0ca6 56bc
000000b0: 92d1 023c e9d5 f3bb 6937 dbbd 20ae 1c3d
000000c0: c7f0 89bd 716b a43c a106 333d d537 03be
000000d0: aea4 5b3d 2d63 033d 3d5c 19bd b5da 633c
000000e0: 6da7 97bc d0a9 bbbd 656e adbb ab92 0ebc
000000f0: 7ca3 12bd 36ee 74bd bea2 8bbd ca41 1f3d
00000100: a6fa e6bd d977 143d bc2b 76bd 96f9 e2bc
00000110: 2ac1 f2bd b493 b5bd 2fef 10bd 9ca7 3fbd
00000120: fd9d 08bb 9694 a3bd 9da0 723d 824d aebd
00000130: d732 57bd 953a d43b c37a b23c 4a8d 9d3d
00000140: ef76 87bd 70c8 7abd c52a 6ebd c251 cb3c
00000150: 4845 dbbd c6c3 533d af9f db3c 9f6a 35bd
00000160: 6fea 223d e54d da3c 5cd5 5dbd cfff 99bb
00000170: fdd5 3ebc 0286 fabc 3b3b 473d 9a75 94bd
00000180: cc4a a2bb 5870 493d d4b7 513c 88c3 7a3c
00000190: 7d7e b0bd 85d7 933d d631 25bd 670b 06bc
000001a0: eab8 71bd cb60 3d3c 6a7a 58bd 811e 1abd
000001b0: 665b 693d 2bd3 d5bd 4578 f1bd 9473 2bbd
000001c0: fc6f 8fbd 7d68 133d 5d42 a3bd a482 abbd
000001d0: 4915 36bc 08d1 2dbb 434c 113b 0408 8fbc
000001e0: 457c 0d3d 2a57 66ba 9f1d 61bd df76 59bd
000001f0: 13b8 d3bc b4ef 963d 2073 2abd 2573 833c
00000200: 7d98 90bc 84a9 30bd 9cbd cdbd f5c7 713d
00000210: 6517 c03d 3de5 393d 1e7b 9bbd 2a4c af3d
00000220: c8ce 02be 2ece 4e3d 26fd 723d 362d 173d
00000230: a777 993d 1322 403d 534c a53d 2ff8 263d
00000240: 218d a83d 66b9 d13d d849 d5bd aa52 0c3e
00000250: 262f 033c 5b31 56bd 3d1f 743d 3a4d 4e3d
00000260: b404 0ebc eee1 103d 6fcf 6cbd bf57 973c
00000270: f4bd 9b3d f994 cfbd 0d49 7fbd e489 593c
00000280: 48fd 45bc 0fbc f8bd 69a1 b63d 3b75 a73c
00000290: 60e9 bc3b da4d c73d 8873 403d a7a6 ae3c
000002a0: 9f46 52bc 9458 573d 3423 a63d d659 52bc
000002b0: 352d a4bd b28f a5bd bdc6 1d3c a5ee a1bd
000002c0: 9267 5f3d b575 2cbd e6da 3a3d 5c17 3a3d
000002d0: f303 c7bc 1e03 87ba 2b53 8abc 7e06 883c
000002e0: 57d4 b03d ba23 80bc ee0a 17bd b739 623d
000002f0: 3dd9 22bd 46e2 a1bd fd7a a63d f3f5 953d
00000300: 9a2f cb3c 5c24 ea3c 57f5 9cbd af07 083d
00000310: 6ebe c13d 9a17 d83c c50b a63d 8528 60bd
00000320: faac 9a3d f8a9 563c 368c 8439 4608 c23d
00000330: bbb1 e9bc 4c3c a33a 7c61 5bbd a9f8 e8bc
00000340: 7c5c 833d a668 013d b978 be3c 574f edbc
00000350: fed7 913c 4473 0bbe 62cc 45bd 96c0 453b
00000360: 1395 6a3d 0bac fb3c 47e1 833c eeec 783d
00000370: 94f3 ec3c a22a 093d 17f1 84bb 0a06 303d
00000380: 0962 b2bd dbd1 f1bc e5dd 08be cb3c 9c3c
00000390: 899c babc 6f54 1bbd 3ebc 7f3d 7693 be3b
000003a0: 095a 8b3d 6516 6f3d 426b 96bd 876f 88bc
000003b0: a219 fe3b f4e6 ef3d d340 cf3d 7ab3 ba3c
000003c0: 3931 40bd 2a15 2e3d c508 393d bae4 9cbb
000003d0: 6a12 6d3d fb1c b83d 9ca4 57bd aa0b a63d
000003e0: 47ac 15be 2393 1b3d ec87 9abc e4a8 b63d
000003f0: 2824 ffbc 848b bbbc faf2 ff3b ef1f 39bc

action_model._discrete_distribution.branches.0.bias f4 [3]
0.07471005 -0.02266325 -0.064139776
00000000: 9501 993d 48a8 b9bc b75b 83bd

action_model._discrete_distribution.branches.1.weight f4 [3, 128]
0.006311555 0.008317969 0.04599164 -0.048642054 0.0011749956 0.025750533 0.062020864 0.07110783
-0.06324472 0.079566576 0.01691776 0.045606647 -0.040357843 0.040334795 0.029719131 -0.0693925
-0.033130705 0.03857815 0.054086186 0.005653311 -0.0069337264 0.05793827 0.044612482 0.006573115
-0.024766484 0.020121157 0.038059898 -0.0023457988 0.07472035 0.070300005 -0.006649648 0.05655491
0.08831292 0.06615288 -0.0030065237 0.0702967 0.025513193 0.03375857 0.008995562 0.043301567
-0.0054901317 -0.004851963 0.023066623 -0.013905157 0.002349024 0.020432519 0.0783193 0.025308589
-0.0020202769 0.088995434 0.014901039 0.06857548 0.017940862 0.022559443 -0.01601356 0.05959573
0.026200924 0.00581858 -0.00071219844 -0.013504228 -0.019384507 0.041801814 0.08711709 -0.022696724
0.03986946 0.022175295 0.013207643 0.02994484 -0.082159854 0.004694995 0.027865482 -0.03926894
0.031942815 0.094920084 0.05190966 0.032577094 -0.0028547745 0.08664266 -0.04332269 0.039265152
-0.0027511343 0.009387459 0.035129167 0.026614629 -0.0052970992 0.073942766 0.0017843138 0.005095381
-0.013681411 -0.022960257 -0.06571771 0.015401472 0.049735975 0.02514014 -0.021571862 0.04826863
-0.028660681 0.011206133 -0.021198012 -0.027430903 0.025754359 -0.011155962 0.052844558 -0.049580377
-0.06311972 0.0029779442 0.006793242 -0.04213698 0.05775106 -0.038016643 0.0516039 -0.0074762683
-0.006489923 0.033746216 0.0675867 -0.01750397 0.025160573 0.018990751 0.0751691 0.0389821
-0.01278009 0.06552561 -0.028881768 0.0221146 0.076750144 -0.007458786 0.08045579 0.080322824
0.011473375 0.0034547288 -0.04317698 -0.03413619 0.023024743 0.024089668 -0.010865999 -0.05191786
0.086608395 -0.08176756 0.003775598 0.003986304 0.031446427 -0.012893376 0.046591185 0.07017599
-0.005345264 0.016504548 -0.05368777 0.0009216764 0.04256601 -0.023761462 -0.053871732 0.03394907
0.057130523 -0.0035802198 0.03231922 -0.071814656 -0.04398553 -0.015162581 -0.042312894 0.002419228
-0.015927646 -0.02995496 0.038483057 -0.09767772 -0.006421073 -0.019846346 0.017978454 -0.008875856
-0.016199935 0.04717959 0.022195641 0.0036598595 0.0010840725 0.04523643 -0.047577336 0.00680487
-0.015530342 -0.0063244193 -0.015993541 -0.03314351 -0.03497505 -0.018131578 -0.00394195 -0.07832655
0.036003172 -0.04146379 -0.012088377 -0.028834432 -0.00567306 -0.01745013 -0.101032674 -0.023363004
0.022167377 0.031307172 0.003769325 -0.007832319 0.01329933 0.056396667 0.015035405 0.037947807
-0.010138766 -0.08942506 -0.022005137 0.0011646496 0.056098368 -0.025383705 -0.005081606 -0.042142306
-0.044625625 0.018209592 0.008942897 -0.11934062 0.011383067 -0.054301433 0.043644603 0.042875078
-0.0104536405 -0.004326611 0.005251542 0.03400273 0.027916644 0.019449145 0.009092863 -0.10890038
0.01151881 0.010232995 0.046895385 -0.09376774 -0.019153293 0.011770729 -0.0042886394 -0.00863601
-0.0006157342 0.025657048 0.010258057 0.055152133 -0.02392011 0.0067250603 -0.05188634 0.041992627
0.01571181 -0.056404386 -0.027055103 0.06584311 -0.03538101 -0.050581757 0.021522133 -0.0005188425
-0.008569229 -0.033740114 0.024594584 -0.011712652 -0.06497544 0.045198977 -0.046095032 -0.04953536
00000000: 29d1 ce3b 1748 083c bb61 3c3d e43c 47bd
00000010: 4f02 9a3a c8f2 d23c 9709 7e3d fba0 913d
00000020: 7386 81bd cdf3 a23d 1d97 8a3c 09ce 3a3d
00000030: 444e 25bd 1936 253d 8975 f33c a81d 8ebd
00000040: 10b4 07bd 1f04 1e3d 7a89 5d3d 693f b93b
00000050: 5034 e3bb ae50 6d3d 94bb 363d 4963 d73b
00000060: 15e3 cabc 20d5 a43c b2e4 1b3d f9bb 19bb
00000070: fc06 993d 73f9 8f3d 4ae5 d9bb 1fa6 673d
00000080: 67dd b43d 297b 873d 1909 45bb b7f7 8f3d
00000090: 0b01 d13c 6d46 0a3d 1f62 133c fc5c 313d
000000a0: 90e6 b3bb 37fd 9ebb 37f6 bc3c 75d2 63bc
000000b0: 15f2 193b 1962 a73c df65 a03d f553 cf3c
000000c0: 9f66 04bb 3d43 b63d 7d23 743c 4d71 8c3d
000000d0: b7f8 923c 95ce b83c df2e 83bc a71a 743d
000000e0: 52a3 d63c c9a9 be3b d4b2 3aba d640 5dbc
000000f0: 42cc 9ebc 6138 2b3d 726a b23d 7bee b9bc
00000100: 294e 233d f7a8 b53c df64 583c e24e f53c
00000110: 6d43 a8bd 79d8 993b 2746 e43c 78d8 20bd
00000120: 78d6 023d 7665 c23d 399f 543d 8f6f 053d
00000130: 2b17 3bbb b571 b13d 2273 31bd 7fd4 203d
00000140: 604c 34bb dbcd 193c 9ae3 0f3d ec06 da3c
00000150: 4a93 adbb 4e6f 973d a3df e93a 27f7 a63b
00000160: ff27 60bc 2617 bcbc 0297 86bd 7556 7c3c
00000170: f3b7 4b3d b2f2 cd3c 79b7 b0bc 54b5 453d
00000180: cec9 eabc ee99 373c 74a7 adbc c6b6 e0bc
00000190: cefa d23c 7fc7 36bc 8973 583d cb14 4bbd
000001a0: e944 81bd 9d29 433b d899 de3b d397 2cbd
000001b0: 608c 6c3d 57b7 1bbd 9c5e 533d 7cfb f4bb
000001c0: 6ca9 d4bb 7939 0a3d e56a 8a3d 7c64 8fbc
000001d0: 8c1d ce3c 7e92 9b3c 42f2 993d b2ab 1f3d
000001e0: 9563 51bc 4b32 863d 7599 ecbc ad29 b53c
000001f0: 2e2f 9d3d d568 f4bb 01c6 a43d 4b80 a43d
00000200: d3fa 3b3c bb68 623b 58da 30bd 64d2 0bbd
00000210: 639e bc3c b257 c53c 4e07 32bc d2a7 54bd
00000220: be5f b13d c075 a7bd 0670 773b 8b9f 823b
00000230: f8cd 003d bd3e 53bc 66d6 3e3d 6eb8 8f3d
00000240: 5327 afbb 8c34 873c b5e7 5bbd a89c 713a
00000250: b259 2e3d 66a7 c2bc 9ba8 5cbd 2e0e 0b3d
00000260: b201 6a3d 1fa2 6abb 2961 043d 9013 93bd
00000270: 2c2a 34bd 796c 78bc 4950 2dbd e98b 1e3b
00000280: b27a 82bc 1b64 f5bc 69a0 1d3d 420b c8bd
00000290: dd67 d2bb ce94 a2bc 8d47 933c 0a6c 11bc
000002a0: bab5 84bc 633f 413d a2d3 b53c 41da 6f3b
000002b0: 7017 8e3a d649 393d 74e0 42bd 63fb de3b
000002c0: fa72 7ebc 133d cfbb e304 83bc 7dc1 07bd
000002d0: ff41 0fbd ad88 94bc 792b 81bb ac69 a0bd
000002e0: 1078 133d efd5 29bd 540e 46bc 3036 ecbc
000002f0: 14e5 b9bb 93f3 8ebc 38ea cebd c563 bfbc
00000300: 5c98 b53c f33b 003d c806 773b 2053 00bc
00000310: 6fe5 593c 3100 673d 0f57 763c 296f 1b3d
00000320: 111d 26bc 7c24 b7bd 1e44 b4bc 28a7 983a
00000330: 67c7 653d 7df1 cfbc 9a83 a6bb 699d 2cbd
00000340: 5cc9 36bd 482c 953c 3b85 123c db68 f4bd
00000350: 0b80 3a3c 2e6b 5ebd afc4 323d c79d 2f3d
00000360: bf45 2bbc 3ec6 8dbb 2115 ac3b 7246 0b3d
00000370: 72b1 e43c d053 9f3c 3bfa 143c 2a07 dfbd
00000380: 64b9 3c3c 4ba8 273c 6015 403d 4d09 c0bd
00000390: 5ee7 9cbc 04da 403c b787 8cbb 0d7e 0dbc
000003a0: 3969 21ba bb2e d23c 6911 283c 34e7 613d
000003b0: 1bf4 c3bc e55d dc3b c586 54bd 7600 2c3d
000003c0: 0eb6 803c 4908 67bd aaa2 ddbc c1d8 863d
000003d0: aeeb 10bd d12e 4fbd 2f4f b03c ee02 08ba
000003e0: f465 0cbc 1333 0abd 957a c93c 6ce6 3fbc
000003f0: d811 85bd 9022 393d 25ce 3cbd 97e5 4abd

action_model._discrete_distribution.branches.1.bias f4 [3]
0.0032164827 0.009708147 -0.006327576
00000000: a0cb 523b eb0e 1f3c 8e57 cfbb
