Assets/results/T2/CarDriver/CarDriver-3715185.pt (torch, 632126 bytes, 48 tensors)

discrete_act_size_vector f4 [1, 2]
000000 00 00 40 40 00 00 40 40
       3.0 3.0

network_body._body_endoder.seq_layers.0.weight f4 [128, 36]
000000 8c 99 67 be b0 90 46 bd e8 5c f9 bd 29 c0 a7 3e
       -0.22617167 -0.04847783 -0.121759236 0.32763794
000010 ca 1f 23 bd 22 c8 ac bd 2a 10 12 ba a6 d1 47 be
       -0.03982524 -0.0843661 -0.00055718666 -0.19513568
000020 bc 19 9d be c6 7e bb be 0d 7b c5 bd 02 61 dd 3d
       -0.30683696 -0.36620158 -0.09642611 0.108095184
000030 86 b7 e8 3e f1 e7 81 bb 5d d3 f6 be 48 e8 65 bd
       0.45452517 -0.003964417 -0.48208132 -0.056129724
000040 6e fb cc bd dc cf 79 3e 10 82 69 be bc 98 f0 bd
       -0.10008894 0.24395698 -0.22803521 -0.11747882
000050 dc bd 4c 3d 4d b0 9b 3e 7c 3d ec 3d 1e 8e 12 3d
       0.04998575 0.30407944 0.11535165 0.035780065
000060 f8 72 c1 3e bf 49 22 3e d9 63 08 3d 98 68 1e be
       0.37783027 0.15848444 0.033298347 -0.15469587
000070 e6 04 90 be e5 c6 14 bf 77 cf 28 3e f2 a2 2d bd
       -0.28128737 -0.5811599 0.16485392 -0.042391725
000080 f2 7b c1 3e 1b 44 c7 3d b7 24 08 3f ae 9f f6 3d
       0.37789875 0.09729787 0.5318102 0.12042175
000090 08 d1 61 be b1 ca 3e 3e 4b 6c 80 be 91 0b 30 be
       -0.22052395 0.18632008 -0.2508262 -0.17191912
0000a0 3b 10 b7 3d 2a 1b f4 3d ec 72 1d bd 0a 42 6c be
       0.089386426 0.11919244 -0.038439676 -0.23072067
0000b0 6c 44 e6 3c f8 ff 95 3e ed 13 a3 3d 07 17 7b 3e
       0.028108798 0.2929685 0.07962785 0.24520503
0000c0 50 fe e9 bd b4 32 72 bd 31 54 07 be 8e 70 06 be
       -0.114254594 -0.059130386 -0.1321571 -0.13128874
0000d0 a0 08 bd 3d 12 85 57 be e6 61 e7 bd b1 40 a6 3e
       0.09230161 -0.21046856 -0.112979695 0.3247123
0000e0 0c 5e 4b 3d 40 98 0e be a8 00 0d bb 67 05 31 be
       0.049650237 -0.13925266 -0.0021515284 -0.17287217
0000f0 e9 54 2b 3c 04 bd 13 be c9 a8 d1 3e ba f0 fe be
       0.010457256 -0.14427572 0.40949085 -0.49793035
000100 1a d2 e6 3c 80 e4 5b 3f 6a a8 a9 bd dd a1 e7 3d
       0.028176356 0.8589554 -0.082840756 0.1131017
000110 b6 1c 94 be 18 0c 2b bd 9c 96 67 be ea 04 75 3e
       -0.28928155 -0.04175958 -0.22616047 0.23927656
000120 7c d0 4b 3d 98 04 6b b9 bf a1 36 3e ce 3d 9d 3e
       0.049759373 -0.00022413058 0.17835139 0.30711216
000130 a9 70 25 bd 8f 8f 73 be ed f3 55 3e 50 57 49 bd
       -0.040390644 -0.23785232 0.20893832 -0.049155533
000140 a3 2a 6d 3c 9c cb 71 3c 71 46 a6 3e c2 80 99 3e
       0.014475497 0.014758017 0.32475618 0.29981047
000150 1a fc b7 bd cf d0 95 be 35 e0 66 3e c7 7c ad bb
       -0.089836314 -0.2926087 0.22546466 -0.0052944156
000160 81 69 61 3e a7 69 6c be 47 28 a2 be c7 c7 f8 3e
       0.22012903 -0.23087178 -0.31671354 0.48589918
000170 8f 21 7c 3e 02 f0 c7 bd ba 73 2e be 4e 8f c1 3b
       0.24622177 -0.09762575 -0.17036334 0.005906976
000180 42 9c f3 be 0c 2d 7d 3e 42 cf 4b be 54 59 a2 bd
       -0.47580153 0.24724215 -0.19903281 -0.07927194
000190 e0 74 02 be 60 9c 2c 3f 0d b3 99 be f9 2d b3 3d
       -0.12739897 0.6742611 -0.30019417 0.08749003
0001a0 08 89 4e 3e eb f9 51 3d 86 99 f0 be d8 16 e0 3d
       0.20169461 0.05126373 -0.4699213 0.10941857
0001b0 d4 be 0d be b9 d2 55 be 90 ed 52 bd 3a 76 be 3d
       -0.13842326 -0.20881166 -0.05149609 0.09299894
0001c0 67 a7 ca bc ba 97 09 bc 70 70 0e 3e 1a ce e6 3d
       -0.024738027 -0.008397991 0.13910079 0.112697795
0001d0 ab 71 ba 3d e4 5a f9 3e c9 0d 25 3c 71 92 fa 3d
       0.09103712 0.48702157 0.010074087 0.12234963
0001e0 52 a5 5d 3d eb e8 bc bd ac c9 73 3e 13 e7 be 3b
       0.05411274 -0.09224113 0.238074 0.005825886
0001f0 3e bc 37 bd 7b 43 62 3e fc ff 69 3c 9a 39 ae 3e
       -0.044857256 0.22096054 0.014282223 0.34028322
000200 1c a6 dd bc b7 dd c8 3d 40 a9 fa 3d 2d a5 0a be
       -0.027056746 0.09807914 0.12239313 -0.13539572
000210 ae ba bd bd c9 c0 f3 bd a8 2b 1c be e0 b8 5a bd
       -0.09264122 -0.11902005 -0.15251029 -0.053398967
000220 d0 ce 30 be 9b 06 ca 3e d9 5a bc 3e 3e 9a b7 be
       -0.17266393 0.39458165 0.3678806 -0.35859865
000230 c3 63 da 3e 0b f0 95 3d 33 00 93 be 5e de 99 3d
       0.42654237 0.07321175 -0.2871109 0.07513116
000240 67 b0 39 be f4 2a f9 3c 6a 93 de bc 30 7b 5d bc
       -0.18133698 0.03041599 -0.027169902 -0.01351814
000250 2a 30 32 3d 92 4b 35 bf 5c ce 08 3e af 28 bd be
       0.043502964 -0.70818436 0.1335997 -0.36945102
000260 46 94 66 be c8 3f a5 3e 1c 03 90 be 23 83 aa bc
       -0.225175 0.32275224 -0.28127372 -0.020814484
000270 c2 6c bf bd 99 25 2a be 35 c2 b5 be f2 9e 5d 3e
       -0.09346916 -0.16615905 -0.3549973 0.21642664
000280 f5 19 ce bd a8 3f 1c 3e d6 4b c7 bd 99 2e 01 3f
       -0.10063545 0.15258658 -0.097312614 0.5046173
000290 05 3c 8b 3d 1e ea 61 bd fa 0e 2c be 99 48 ef 3c
       0.06798557 -0.055154912 -0.16802588 0.029209422
0002a0 28 a0 2d 3d 98 ce f1 bd 66 75 ca be 18 fc ad 3d
       0.042389065 -0.11806983 -0.39542693 0.08495349
0002b0 2f c8 28 3e de b5 91 3e 5b 4a ab 3e 10 8f 95 be
       0.16482614 0.28459066 0.33455166 -0.2921071
0002c0 ec af 99 3e cc c8 3e be c4 88 e6 3c 53 b6 92 be
       0.3001703 -0.18631285 0.028141387 -0.28654727
0002d0 54 98 aa be 3c d7 c4 3d ae 4d d3 3d a1 32 d7 be
       -0.33319342 0.09611365 0.103175506 -0.42030814
0002e0 1c d2 ff 3d 93 19 64 3e 78 d7 e5 bd 88 44 60 3e
       0.12491247 0.22275381 -0.11222738 0.21901143
0002f0 32 af e5 bc 8f 04 42 3e a5 8a af bd e1 4c af 3e
       -0.028037641 0.18947051 -0.08571366 0.3423834
000300 78 93 94 be 4c 2f cf bd 7e 61 29 3e 3b fd 8a 3d
       -0.2901876 -0.10116443 0.16541097 0.06786581
000310 b9 34 11 be a4 a3 0e 39 53 c0 83 be 55 d1 3f 3e
       -0.14180268 0.00013603136 -0.2573267 0.18732198
000320 ed 04 ba bd 91 80 49 3e 23 ef 29 3d 11 20 c9 bd
       -0.09082971 0.1967795 0.041487824 -0.09820569
000330 53 66 f6 3c 02 28 e3 3d cf 4f 77 bb 96 e6 ca 3d
       0.030078089 0.11091615 -0.0037736779 0.09907262
000340 67 06 12 bf d9 fb 5d 3e 41 db a4 3e fe bd ba bd
       -0.5704102 0.21678104 0.32198527 -0.091182694
000350 b0 2b 9c 3e d8 ae 65 be e2 7f c8 be fa f5 f8 3d
       0.3050208 -0.22429979 -0.39160067 0.12156291
000360 28 13 37 be 7a 9d d8 3d 62 92 bb 3c 39 03 1e bd
       -0.17878401 0.10576911 0.02289695 -0.038577292
000370 8a ef 68 bd a0 43 98 bc e1 15 bb 3d cc be 00 bc
       -0.056869067 -0.018586934 0.091350324 -0.0078579895
000380 e8 c9 91 bc 15 52 5b be d9 29 aa bd a8 6a 76 3e
       -0.017796472 -0.2141803 -0.08308763 0.24064124
000390 58 3a d6 bd 84 4c 33 3e 7c 2e 2f 3d d7 e4 a3 be
       -0.10460347 0.17509657 0.04276894 -0.32010528
0003a0 15 7e ed 3d ba 9b a9 be 78 28 b5 3d e3 5d a2 be
       0.11596314 -0.33126622 0.088456094 -0.31712255
0003b0 36 99 84 3e f1 fd 68 3e de 6f 80 bd 78 86 0a be
       0.2589814 0.22753121 -0.06271337 -0.13527858
0003c0 bd c0 9b be 53 08 84 3d 31 35 ac bd d2 42 c2 3d
       -0.30420485 0.064469 -0.08408583 0.09485401
0003d0 10 02 13 be ef eb ab 3e 22 9a 57 bc 3e 9d 91 bd
       -0.14356256 0.3357844 -0.013159307 -0.0711007
0003e0 17 3f 6b be 93 05 f4 3c 46 11 36 3b 40 b8 4d 3e
       -0.22973286 0.029787814 0.0027781292 0.20089817
0003f0 4f f3 e8 3c 65 01 21 be 83 e7 5b 3d 9d 1f 73 be
       0.028436331 -0.15723188 0.053687584 -0.23742528

network_body._body_endoder.seq_layers.0.bias f4 [128]
000000 85 16 7d bc 4b c0 4a 3d 4b 8f 8d 3d 8b c8 2f bb
       -0.015447264 0.04949979 0.069120966 -0.0026822414
000010 11 0c 84 3d 65 27 06 bd d3 0a 19 bd 4b b7 45 bd
       0.06447614 -0.032752413 -0.03736384 -0.048270505
000020 1d 68 76 3d f4 0e d6 3d a0 31 a5 3c 43 54 10 3c
       0.060157884 0.10452071 0.020165265 0.008809152
000030 0a 32 ac 3b 07 d2 12 3d 2a 07 62 3b a5 e1 79 3d
       0.0052549886 0.03584483 0.0034489133 0.061006207
000040 79 13 cd 3d e4 c4 97 3d 35 06 aa bb db 61 00 3d
       0.1001348 0.07410601 -0.005188728 0.031343322
000050 65 1e e0 bb 1d d2 7c 3c a1 d8 03 bc 4f fe 39 bd
       -0.006839561 0.015430954 -0.008047254 -0.045408543
000060 48 76 81 3c 4c ec a6 bc 9b 69 9f 3c 94 1a 6e 3d
       0.015803471 -0.020376347 0.019459536 0.058130816
000070 1a 34 04 bd 06 34 46 3c 4d 22 92 3d a1 eb 2e 3d
       -0.03227625 0.012097364 0.071354486 0.042705182
000080 a7 86 b5 bb 62 e1 c4 3b d4 98 ee 3d 28 89 f6 3c
       -0.0055397335 0.006008313 0.116502434 0.030094698
000090 33 18 e9 3d 26 75 2e 3e 3e 83 b0 3b 02 63 3d 3d
       0.11381569 0.17036876 0.005386739 0.046237
0000a0 69 46 ac bd 0e 4d 2a 3d 90 de 54 3d 35 7a 4d 3d
       -0.08411867 0.04157739 0.051970065 0.050165374
0000b0 6a 94 98 3b 7e 83 22 3d 7b c4 01 bc a1 4f c8 bb
       0.004656364 0.039676182 -0.00792038 -0.006113008
0000c0 6e 45 4d 3d 93 b7 56 bb 1a 84 f6 bc c9 fb 66 3c
       0.05011504 -0.0032763227 -0.030092288 0.014098116
0000d0 8c 7b e1 3d 47 38 e3 3d 53 32 dd 3d a7 e6 06 bc
       0.11009893 0.110947184 0.10800614 -0.008233703
0000e0 c5 e0 39 bd e5 a3 3b 3d bb ec 7a bb 5f 96 86 3d
       -0.045380373 0.0458106 -0.0038288075 0.0657165
0000f0 da 68 73 3d cc 4d 1d bc 24 62 54 3d c7 42 26 3d
       0.059426166 -0.009601068 0.051851407 0.040591028
000100 7c 5d 8f 3d 6a 73 b7 bb 40 ca f8 3d b0 ac 2d 3d
       0.070002526 -0.005598475 0.12147951 0.042401016
000110 5b 1c 8d 3d f2 08 4f 3d 11 70 ad 3d 9c 59 ce 3d
       0.06890174 0.05054564 0.084686406 0.100756854
000120 0d 82 cc 3c d6 bf 0f 3e 58 9c 04 3c 2d bf 1e 3d
       0.024964357 0.14038023 0.008093916 0.03875654
000130 ad 15 d9 3d f8 77 cf 3c 10 db 04 3e f6 b6 ce 3d
       0.105998375 0.02532576 0.1297419 0.10093491
000140 36 01 7f 3c dd 5f d6 3d 28 88 60 3d 8d 2f 40 3d
       0.015564254 0.10467503 0.05481735 0.046920348
000150 3f 2e 59 3c f9 31 89 3c ba 63 31 3d 0d 5f ea 3d
       0.013255655 0.016747462 0.043307997 0.11443911
000160 cc 5a 1d bd 4f 19 36 3d 16 1c 0c 3e 0f 27 4f bc
       -0.03841667 0.04445773 0.13682589 -0.01264359
000170 79 9b 1e 3e c1 80 65 3d f2 89 a3 3d 1e 88 19 3e
       0.15488996 0.056030992 0.07985295 0.14993331
000180 f8 6d 59 3c 27 68 2c 3d 6f fb e9 3d c7 3c a2 3d
       0.0132708475 0.042091515 0.1142491 0.079217486
000190 65 19 88 3d ea 27 4a 3c 93 2b 64 3d f3 f3 a9 3c
       0.066454686 0.012338618 0.055705618 0.020746207
0001a0 25 72 11 bc ee e0 97 3d cd fb c6 bc 9c ed 6d 3c
       -0.008877312 0.07415949 -0.02428999 0.0145219825
0001b0 89 1d 41 3b 1a 77 71 bc 03 a3 39 bb fc aa b6 3d
       0.0029467067 -0.014737869 -0.0028325922 0.089193314
0001c0 53 a5 64 3d 2f 5b 53 3d 23 b6 44 bb 3a 45 c6 3d
       0.055821728 0.05160063 -0.0030015789 0.09681173
0001d0 d1 7b 30 3d f4 ce e2 3d 4b 77 1e 3c 8d e1 25 3d
       0.04308683 0.110746294 0.009671996 0.040498305
0001e0 e8 c5 b1 3d 23 0c 8b 3d d6 1a a8 3d d4 84 a4 3d
       0.08680326 0.06789424 0.082082435 0.080331475
0001f0 39 5c b8 3d 42 4d 18 3e 77 44 d9 3c 34 ca 51 bb
       0.09001965 0.14873222 0.026521904 -0.0032011392

network_body._body_endoder.seq_layers.2.weight f4 [128, 128]
000000 6d 95 68 3d d6 d0 28 3e 47 69 05 be 69 f5 4d 3e
       0.05678313 0.16485915 -0.13028441 0.20113148
000010 cc 87 34 3e 6f 18 4e 3d 6a f2 86 3d f1 9d 5b 3d
       0.17629927 0.05031627 0.065892056 0.05361742
000020 ff 14 39 3e b0 91 9c 3d 1c 56 53 3d 1c e3 9e bd
       0.18074416 0.07644975 0.051595792 -0.077581614
000030 b0 7b a6 bd a4 e3 41 bd a7 4e 18 3e 4b 08 54 bc
       -0.0812906 -0.047336236 0.14873753 -0.01294143
000040 b7 74 1b 3e 6a 45 7e 3d ea e3 15 be 67 04 2e bd
       0.15181242 0.062077917 -0.14637724 -0.042484667
000050 4f 93 a2 3c b6 ad 99 bd e6 af 68 3d 55 53 73 bd
       0.019845633 -0.07503836 0.056808375 -0.059405643
000060 9b 28 6b bb 46 07 1c bd 19 19 03 bd dd 84 77 be
       -0.0035882357 -0.038092874 -0.032006357 -0.24171777
000070 4a 77 03 bd 94 6a 60 3e 1b 50 14 be e1 45 4d be
       -0.032096185 0.21915656 -0.14483683 -0.20046188
000080 bb f9 c0 bc 40 5c 49 3e 57 20 e4 bd cd 41 2e 3c
       -0.02355658 0.19664097 -0.11138981 0.010635805
000090 32 af b7 3c 16 78 aa bb 4d 37 b4 bc 2c 77 fc 3c
       0.022422407 -0.0052023036 -0.021999026 0.030818544
0000a0 12 56 2f bc 09 87 c6 bd a1 06 e7 3d 01 55 a4 3d
       -0.010701673 -0.09693725 0.11280561 0.08024026
0000b0 37 44 32 3d 6d d9 21 3d b9 1c 05 3c a3 39 d8 3d
       0.043522086 0.039513994 0.008124524 0.10557868
0000c0 74 dd 27 bd e9 c0 e6 bd 79 b7 0c 3e db 30 4a 3d
       -0.04098268 -0.112672634 0.13741864 0.049363
0000d0 5d 1b 82 bc 93 45 76 3d 81 05 e6 3d d7 3c a2 3c
       -0.015882188 0.060124945 0.112315185 0.019804401
0000e0 7b 4e 95 3d 8e 57 b6 3d 99 95 28 3c 76 b1 1d be
       0.072903596 0.089034185 0.010289573 -0.15399727
0000f0 b2 c5 ba 3d b9 77 2a bd 64 5c fa 3d e3 71 c3 bd
       0.09119739 -0.041618083 0.12224653 -0.095432065
000100 d7 f6 99 3d 39 3f 0d bd 51 a5 c7 3c 3d 33 f6 3d
       0.07517784 -0.034484122 0.024370821 0.12021492
000110 cc a8 5a 3c 7e 79 0e be 05 56 61 be 75 1b 98 3d
       0.013345908 -0.13913533 -0.2200547 0.07427112
000120 b7 af 4b bd c0 52 24 3d 1f e6 19 bd dc 66 05 bb
       -0.04972812 0.04011798 -0.037572976 -0.0020355498
000130 d3 96 62 bc 57 e3 67 3d 47 54 59 be 68 f5 16 b9
       -0.013829905 0.056613293 -0.21223556 -0.00014396536
000140 63 e7 89 3d 46 0c b5 bc e1 72 a3 bc 42 38 95 3d
       0.06733587 -0.022100579 -0.01995224 0.07286121
000150 35 8e ec 3c 75 c5 98 bd ec 7a 08 bd 01 48 3c 3c
       0.028876403 -0.07459537 -0.033320352 0.011491776
000160 3c fa 5a bd 1a aa 1f 3e 24 04 cc bd d7 dc 2e be
       -0.0534613 0.15592232 -0.09961727 -0.17076431
000170 d1 88 0c be b6 49 88 3d 7b c1 0d bd bb c9 69 bd
       -0.13724066 0.06654684 -0.034608345 -0.05707715
000180 5b 2d f5 bd 78 f2 16 be 43 82 8d 3d 03 07 05 3e
       -0.119715415 -0.14740932 0.06909611 0.12990956
000190 8e 82 33 be e5 a9 9c bd 53 ac 24 bd 01 02 26 be
       -0.17530271 -0.07649592 -0.040203404 -0.16211702
0001a0 24 45 82 bd 6b 26 3f 3d 54 d7 a4 bc 38 ad 66 3d
       -0.06360844 0.046667498 -0.020122208 0.056317538
0001b0 f5 63 b2 3b e1 93 dd 3d 86 a2 5e 3d be 85 04 3e
       0.0054440447 0.10819221 0.054354213 0.12941644
0001c0 89 3d 49 bc 74 15 1a bc c3 8d 5b bd 5d 77 37 bd
       -0.0122827375 -0.009404529 -0.05360199 -0.044791568
0001d0 6c 47 32 3e 5d 53 54 be 27 0d a6 bb 3b 4d 42 3d
       0.17410058 -0.20734926 -0.005067486 0.047436934
0001e0 80 f2 8b bc 33 29 ee bd 8b 5b c8 3c 52 32 24 3d
       -0.017083406 -0.11628952 0.024457714 0.04008705
0001f0 80 50 10 3e 88 f0 51 bc d7 dc 35 3d b4 87 ab bd
       0.14093208 -0.012813695 0.044400062 -0.08375493
000200 b3 6a 9d 3e 53 56 b6 be e9 6a f5 bd 2c fe d4 3c
       0.30745468 -0.35612735 -0.11983282 0.026000105
000210 be 01 23 3e 17 a4 66 3e 0e df 40 bc 0d 2c 5c bb
       0.15918633 0.22523533 -0.01177193 -0.0033595592
000220 b9 4d 72 3d 2c 34 8c 3d 57 e4 c9 3c c5 ab cc bc
       0.059156153 0.068458885 0.024645014 -0.02498425
000230 54 bc 4e bd 2c 71 49 3e 51 ab 97 3d 70 9f 99 3e
       -0.050472572 0.19672078 0.07405723 0.30004454
000240 c6 b8 87 3d 4e f1 34 3d 7c 43 8c 3e 8e 42 61 3e
       0.066270396 0.04417544 0.27395236 0.21998045
000250 4e da aa bd 11 25 bd 3e f7 74 70 be a8 d1 a9 bd
       -0.083424196 0.36942342 -0.23482119 -0.08291942
000260 d0 63 07 bd e2 74 59 be 13 b7 74 3d 47 6f 66 bd
       -0.033054173 -0.21235994 0.059744906 -0.056258466
000270 4c cc 7d 3e 54 d9 c4 3e ad 45 85 3e 69 ec d8 bd
       0.24784964 0.38447058 0.2602972 -0.10591967
000280 53 28 2f be a2 fb ba bd b9 98 6a be c8 fa 39 3d
       -0.17105226 -0.091300264 -0.22909822 0.04540518
000290 68 e8 a2 bd 94 e0 2c be 6c a2 9a bd 33 8f 56 3c
       -0.07954484 -0.16882545 -0.07550511 0.013095665
0002a0 6a cc 84 be 53 d9 1b be 89 36 8d 3d 89 8c 54 3d
       -0.25937206 -0.15219621 0.068951674 0.051891837
0002b0 7d 6a 88 bd 1d bf 8e 3d 98 d0 82 bc 58 48 30 3d
       -0.06660936 0.06970046 -0.015968606 0.043037742
0002c0 bb 1e 88 be 2f 95 ab bd f6 a9 d6 3d 52 cd 0b be
       -0.26585945 -0.08378064 0.10481636 -0.13652542
0002d0 6c 63 35 bc 10 b7 9b 3c 6a 5a 0a be ba f6 26 3d
       -0.011071067 0.01900819 -0.13511053 0.04076264
0002e0 c2 29 00 3d a1 64 81 3e c2 d1 e1 bc 75 86 50 be
       0.031289823 0.25272086 -0.02756584 -0.20363791
0002f0 64 1f 8b 3e 3e 27 33 3e e7 b5 b3 bc b6 48 b3 bd
       0.27172387 0.17495438 -0.021937324 -0.08754103
000300 79 dd 1f be 9d 1f eb bd 53 d4 d2 bd ee 79 20 3d
       -0.15611829 -0.11480639 -0.10294404 0.03917878
000310 fe 7d a1 be 4a 45 4e 3e fe b8 76 3e 5f 24 23 3e
       -0.31541437 0.20143619 0.24094006 0.15931843
000320 0f c2 29 be 9d 91 80 3e 61 65 4b be 0d 8d a0 3c
       -0.16577934 0.25111094 -0.19862892 0.019598508
000330 31 a7 ac be d9 10 95 be 40 54 8c be 5c d9 4f be
       -0.33721307 -0.29114416 -0.27408028 -0.2029776
000340 05 fe 6c 3d 6c a5 3c be e5 66 a8 be 52 4d df bd
       0.05785944 -0.18422478 -0.32891002 -0.109034196
000350 72 88 f7 3d 10 65 92 3e d3 6c fd bd 05 ee f2 3d
       0.12086572 0.2859273 -0.12374272 0.11861805
000360 0f e7 63 3e c1 88 f3 bd 80 b0 e0 bc 8a 17 c5 3d
       0.2225611 -0.11891318 -0.027427912 0.0962363
000370 fb 51 76 3e 98 af 7f 3e 6d 25 21 3d 86 08 89 3e
       0.2405471 0.24969327 0.039342333 0.26764315
000380 1a ab 81 3e 52 c6 8e 3d f3 b6 3b be c6 35 82 be
       0.25325853 0.0697142 -0.18331508 -0.2543165
000390 6e c2 62 be e3 2d f7 3b 4d 1e 8d 3c 8e 6b f3 bd
       -0.22144482 0.007543312 0.017226363 -0.11885749
0003a0 19 b6 e6 bd ab 62 0c 3e c5 0b df bd 3f 21 d6 bd
       -0.11265201 0.13709514 -0.10890917 -0.1045556
0003b0 e0 ca 26 be f8 50 1b 3c 9f 6c f8 3d fd 8d 24 3e
       -0.16288328 0.009479754 0.12130093 0.16069789
0003c0 ab 1a 70 3e a3 62 95 be 11 43 aa bd 10 a9 6d 3e
       0.23447673 -0.29176816 -0.08313573 0.23209023
0003d0 7b 05 60 be 7e 9f e7 bd 18 2f 40 3e 5f b8 0b be
       -0.2187709 -0.113097176 0.18767965 -0.1364455
0003e0 67 f0 19 3e da 84 47 3e 97 f8 0c be 9f 72 3d 3c
       0.15033112 0.19484273 -0.13766704 0.011562972
0003f0 1f 56 84 3d c7 92 3e be 70 b5 b8 bd de c6 3e be
       0.06461739 -0.18610679 -0.090189815 -0.1863055

network_body._body_endoder.seq_layers.2.bias f4 [128]
000000 cf a5 92 bb aa 25 00 3c 22 6b f9 bc 3c 69 da 3b
       -0.0044753323 0.00782148 -0.030446593 0.006665377
000010 14 58 9f 3c 7c 5d 32 39 f1 17 d3 bc 0a 6d d0 3a
       0.019451179 0.00017010228 -0.025768252 0.0015901637
000020 e9 f7 c5 bd ba 0b ff bb fb 88 5b bc 4e 99 a2 3c
       -0.09666426 -0.0077833803 -0.013399358 0.019848492
000030 21 66 84 3c 14 42 7c 3c 51 a6 25 bc b8 af ff 3c
       0.01616198 0.015396614 -0.010110454 0.031211719
000040 47 ef ea 3d c0 1f 4d 3d f6 06 14 bd 6c 98 39 bd
       0.1147142 0.050079107 -0.03613945 -0.045311376
000050 1e 36 99 3c be d0 b5 bb 88 b1 a5 3b 41 82 e8 bb
       0.018702563 -0.0055485656 0.0050565638 -0.0070956056
000060 05 77 56 3d 9f 2c db bc 73 bd db bc c9 e9 1b 3d
       0.0523596 -0.026754675 -0.026823735 0.03806475
000070 20 cd ab 3c b8 86 31 3d cd cd 72 3d 48 eb 52 bd
       0.020971835 0.04334137 0.0592783 -0.051493913
000080 9f e6 78 bd f6 e8 70 3a c0 9c 81 3c 78 cd b2 bd
       -0.060766812 0.00091899873 0.015821815 -0.08730596
000090 04 9b bf bb ef f0 b4 3c 1d b5 8b 3c 4f 30 e8 3d
       -0.0058473367 0.022087542 0.017054135 0.11337339
0000a0 87 7a a4 3d fa 3b 0b 3c 2e 53 50 3c 3e 49 f6 bc
       0.08031183 0.008498186 0.012715144 -0.030064221
0000b0 9c c3 a5 bb 40 4d a0 3b 2a f9 cd 3b 1c e8 73 3c
       -0.005058719 0.0048920214 0.006285806 0.014886882
0000c0 f8 03 01 bb 1e cb 62 bd 0b e1 bc 3c de 20 7a 3d
       -0.0019686203 -0.05536949 0.023056528 0.0610665
0000d0 20 86 90 bb f4 5b 65 bc 6e 7d 8c 3c 4f cd 6a 3d
       -0.00441052 -0.013998974 0.017149653 0.057324704
0000e0 c7 ba 43 3c 2f 11 85 bd 0c 64 fb 3c c4 7a 79 3b
       0.011946387 -0.06497418 0.030687355 0.0038067559
0000f0 37 ff 16 3d 96 20 53 bd a6 89 e6 bb 9b d8 8a 3c
       0.036864486 -0.05154475 -0.007035452 0.016948989
000100 72 71 d5 3d b1 6e 16 bd 48 ae 35 ba b8 17 67 3d
       0.104220286 -0.036726657 -0.0006930572 0.056419104
000110 b5 d1 4c bd 63 b9 42 3d 40 74 4f bd 67 c8 ee bc
       -0.05000468 0.04754008 -0.050647974 -0.029148294
000120 84 f0 33 3c b8 68 94 bc 58 ca 68 3d 47 ea b7 bc
       0.010982636 -0.01811634 0.056833595 -0.02245058
000130 df b0 75 3c 66 cc 97 3b ac c9 f7 bc 36 29 a2 bd
       0.014995783 0.0046325205 -0.030247532 -0.079180166
000140 8c 99 25 bc ec 3f cc bc f3 99 04 bb 86 80 d2 bc
       -0.010107409 -0.024932824 -0.0020233362 -0.02569605
000150 55 24 bd bc 18 f0 e2 3d 4b bc c3 3c b2 98 77 bc
       -0.023088614 0.110809505 0.023893496 -0.015112089
000160 6b 6b 6a bb 3b 64 74 bd 4a ed 15 3c a3 c1 00 3c
       -0.0035769593 -0.0596659 0.009150812 0.007858667
000170 0a e0 15 3b fb 39 f2 bc 71 92 32 3d ee b5 4d 3c
       0.0022869133 -0.029568663 0.04359669 0.012555582
000180 88 0a 4d bb 60 e9 49 3d a5 0c 25 bd 07 67 5f bc
       -0.0031286795 0.04929483 -0.040295262 -0.0136354035
000190 55 0a 44 3b 0f f4 a5 3d ae cc d5 bc 24 53 89 3d
       0.0029913385 0.08103191 -0.026098575 0.06705311
0001a0 e2 29 ad 3c 44 39 b4 bb 7d 21 14 bd 18 a0 2e 3b
       0.021138135 -0.0054999907 -0.03616475 0.0026645716
0001b0 1f 5f 94 3c f1 d7 ab 3c 2d 78 83 3d 8e 1b b9 bc
       0.018111764 0.020976992 0.06419406 -0.022596147
0001c0 1d 48 cc 3c 84 35 e4 bc 06 59 08 3c 2a 8a 82 3c
       0.02493673 -0.02785755 0.008322006 0.015935022
0001d0 6e c6 cc bc aa bc e7 3b a0 21 b3 3c d0 19 bb bd
       -0.024996962 0.007072051 0.02186662 -0.09135783
0001e0 e8 8e 16 bd aa a9 41 bd 33 8a 06 bb c3 72 49 bb
       -0.03675738 -0.047280945 -0.002052915 -0.003073857
0001f0 01 db 61 3d f0 1c 40 bd 3e db 09 bc 25 e2 ad 3c
       0.0551405 -0.046902597 -0.008414088 0.021225998

action_model._discrete_distribution.branches.0.weight f4 [3, 128]
000000 c1 ce 6f 3c 7b 8b f8 bd f2 a6 83 bd 86 ca cf bd
       0.014636696 -0.12135979 -0.06428327 -0.1014605
000010 27 df 35 3d f2 5b 3a 3d 6d 51 2c 3d 3a 40 32 3d
       0.044402268 0.045497842 0.04206984 0.043518282
000020 b1 c4 07 be b4 27 b3 bd b9 19 a3 bd e5 0f aa 3d
       -0.13258626 -0.08747807 -0.079638906 0.08303813
000030 c5 16 a4 3d 6f 8e a4 3d 08 1e 93 3e ec c9 b0 3e
       0.080121554 0.080349796 0.2873385 0.34529054
000040 b7 bc 1d 3e 61 cd 31 3d 7e cf 91 bd 7d 27 b7 bd
       0.1540402 0.043408755 -0.07119654 -0.08943079
000050 0a 59 9d 3d 7c 1c 44 3d 2e ce 46 bd eb 04 09 3d
       0.076829985 0.047878727 -0.048536472 0.033451956
000060 f4 e9 74 3d 17 3a ba bb f9 5d a2 bd 94 11 86 3e
       0.059793428 -0.0056831944 -0.0792808 0.26185286
000070 c5 94 b0 3c 56 c5 d6 3d 9c 50 1c 3e 74 31 da 3c
       0.021555314 0.104868576 0.15265125 0.02663491
000080 8c d4 de bd 51 f6 53 3d 17 99 7b be ad c9 b2 bc
       -0.10880384 0.051748578 -0.24570118 -0.021824682
000090 f0 8b bf 3e 90 4e 05 3e 9e 48 83 bd 3b 43 7d 3d
       0.3741145 0.1301825 -0.06410335 0.061831694
0000a0 52 97 22 3e af b6 98 3e 7d df a5 3d a3 55 8f 3d
       0.15878037 0.29826877 0.08099268 0.06998756
0000b0 37 fb 8e be 98 70 b6 bd 3b 7f 9b 3d 5a b0 3a 3e
       -0.27926037 -0.08908194 0.07592627 0.18231335
0000c0 bb f0 a1 bd ec 9a 31 be ab 50 87 3e 46 63 2e 3e
       -0.07907244 -0.17344254 0.26428732 0.17030057
0000d0 63 00 e9 3e ca c3 14 3c dc d0 8f bd e4 68 75 3d
       0.45508108 0.009079883 -0.07022259 0.059914485
0000e0 16 04 03 3d 1f 05 97 bd 24 d1 15 3d dd d2 51 3d
       0.03198632 -0.07374024 0.036576405 0.051226486
0000f0 4a b1 cf 3d 46 8a 80 bd a1 d2 bc 3c 4b 4c 42 3e
       0.10141237 -0.062763736 0.023049654 0.18974416
000100 07 6f cc 3d c6 46 63 bd d0 91 21 3d 5a c7 3f be
       0.09982114 -0.055487417 0.0394457 -0.1872839
000110 d7 7e 4a 3d 08 e4 25 3d 7a f8 3e 3e 94 a2 e4 3d
       0.04943737 0.04050067 0.18649474 0.11163822
000120 24 85 d2 3c 12 d1 0b 3f 06 7e 4d 3e 60 44 b7 bc
       0.025698252 0.5461589 0.20067605 -0.02237147
000130 36 af 94 3d 25 44 ba bb 18 07 dc 3e b9 03 ff bd
       0.07259981 -0.005684393 0.42974162 -0.12451882
000140 11 52 7f be c6 33 80 3d 46 7f 3a 3d cb 99 93 bd
       -0.2493365 0.06259875 0.045531534 -0.07207068
000150 e3 d9 72 3c 1e 30 4c 3e f2 63 cd 3d a3 33 ff 3c
       0.014822456 0.1994023 0.10028829 0.031152552
000160 fe 82 31 3d 7c 5a 98 bd 12 0e 48 3d ec 8e 4e bd
       0.043337815 -0.074391335 0.048841543 -0.05042927
000170 b3 cd 92 3c b7 94 df bd 62 78 ce 3d 26 92 33 3e
       0.01792035 -0.10917037 0.10081555 0.1753622
000180 55 96 48 3e 22 38 08 3e 7e d9 73 3d d5 ed 29 3d
       0.19588597 0.13302663 0.05953359 0.04148658
000190 c3 29 ac bd 5a 42 72 3d 6b 73 6f 3e 8e 57 43 3d
       -0.08406403 0.05914531 0.23383872 0.04769092
0001a0 5b 0c 0d 3e 6f f6 5d bc 42 3d f8 3c 18 05 90 bd
       0.13774244 -0.013547524 0.030302648 -0.070322216
0001b0 6b 59 ee 3d b6 3b ad 3d 41 f8 c1 3d 5a cc 50 bc
       0.11638149 0.084586546 0.09471179 -0.012744034
0001c0 36 a2 ad 3d cc 3c 14 3e 8f f5 54 3d 58 89 19 3d
       0.08478205 0.14476317 0.051991995 0.037484497
0001d0 15 b8 c4 3c fb d1 6f 3e 98 7a 72 3d 2a 16 07 be
       0.024013558 0.23419945 0.059198946 -0.13192049
0001e0 b0 e4 48 bc 7c 5f 08 3d d2 9b 7b 3d fd aa b2 bd
       -0.012261555 0.033294186 0.0614279 -0.0872402
0001f0 d2 84 69 3d 2e d2 5d 3e 94 62 ac 3e e5 e0 d8 3d
       0.057011433 0.21662208 0.3366896 0.1058977
000200 3b 0b 1c 3d 2e 42 63 3d a1 58 01 bc 3d 7f 0b 3e
       0.038096648 0.055483036 -0.007894666 0.13622756
000210 4c e7 75 bd c3 c9 39 3d 02 40 6c ba ba c4 75 ba
       -0.060035035 0.04535843 -0.00090122235 -0.0009375323
000220 d4 2f 31 3e 64 35 a1 3c 00 0b a6 3b 02 27 cb 3b
       0.17303401 0.019678779 0.0050672293 0.0061997185
000230 b6 dd 9e 3c 35 c7 21 bb 99 c0 cc be 7e 84 d1 be
       0.01939283 -0.0024685387 -0.3999069 -0.40921396
000240 b9 be d0 bd e3 a6 93 3c a2 5c 4c bd d1 17 70 3d
       -0.101926275 0.018023914 -0.04989303 0.058616463
000250 81 05 47 bd 2b ba 06 3d 05 95 e4 bb 64 c9 99 bb
       -0.048589233 0.032892387 -0.0069757723 -0.004693197
000260 d0 b7 8c bd 7b da 53 3d f4 e3 7d 3d 9a bb 53 be
       -0.06870997 0.05172203 0.06198497 -0.20677033
000270 df 0e 0d 3d 61 86 a2 bd 80 f3 8b bd 0c 30 5f 3c
       0.03443801 -0.07935787 -0.06833553 0.013622295
000280 77 ca 5b 3d da 24 c1 3c 71 36 51 3e a4 33 33 3d
       0.053659882 0.023577143 0.20430924 0.04375042
000290 2f 3f dc be c6 e0 1c be cf 6b 37 3a 1d e0 64 3d
       -0.43016955 -0.1532012 0.0006996961 0.055877794
0002a0 e2 8f 13 be f7 31 8e be e2 c1 2c bc 5e f8 32 be
       -0.14410356 -0.27772495 -0.010544272 -0.17477557
0002b0 ae b3 4d 3e d5 62 01 3e 57 b7 8c bd f5 53 b0 be
       0.20088074 0.12635358 -0.06870907 -0.34439054
0002c0 b3 38 b6 3d 7e c1 74 3e ab c6 91 be c3 c9 1b be
       0.08897533 0.23901936 -0.28471884 -0.15213685
0002d0 4f 50 04 bf 70 81 0d 3d de 3b 99 bd d1 8b a0 3c
       -0.5168504 0.03454727 -0.07482122 0.01959792
0002e0 a6 66 81 3a 4b 54 77 3c 20 b1 1d bd 6b c0 29 3d
       0.000987251 0.015095781 -0.038498998 0.04144327
0002f0 97 52 6a bb 74 63 70 bb be 08 17 3d 6c b2 7a be
       -0.0035754794 -0.0036680372 0.03687357 -0.24482125
000300 7f f0 3b bd 22 c4 8b 3d b2 5f 7f 3d c2 57 e3 3d
       -0.04588365 0.06824519 0.06234712 0.11100723
000310 61 da 2d be e1 ba 99 3c c0 cc 93 be 7d b5 fc bd
       -0.16977836 0.018765869 -0.2886715 -0.12339304
000320 e3 2d ac 3c 1c 53 3c bf bf 8f e8 bd ef ef 67 bd
       0.021017974 -0.73564315 -0.113555424 -0.056625303
000330 15 8d 67 bc 0d c6 78 3d 49 e2 0b bf 04 31 ad 3d
       -0.014132758 0.06073575 -0.5464216 0.084566146
000340 97 53 53 3e 04 9f 34 bd 26 51 e1 3c e0 7f 8e 3d
       0.20637356 -0.04409696 0.027504515 0.06957984
000350 92 78 1a 3d 35 29 51 be 8c 8f 57 bc 31 9b d5 3c
       0.03771264 -0.20425875 -0.013156783 0.026074978
000360 2d 20 1f 3d f1 35 d6 3c 81 10 cc bb ba b8 9d 3d
       0.038849045 0.026148768 -0.0062275534 0.077012494
000370 b9 4c 72 3d ee 1a 98 3d c7 36 e4 39 de 8e 81 be
       0.0591552 0.074270114 0.0004352836 -0.25304312
000380 75 94 93 be c1 2d 54 bd 8f c6 04 be 44 4b c8 3c
       -0.288242 -0.051801447 -0.12966369 0.024449952
000390 3b 4c cd bb 28 43 58 bb 43 49 ab be 86 36 b2 ba
       -0.006265191 -0.0032999013 -0.33454332 -0.0013596572
0003a0 d9 a6 80 bd 29 01 3d 3d df ab 3a 3d 2e 04 a0 3d
       -0.06281824 0.046143685 0.045574065 0.07813297
0003b0 bf 43 41 bd f5 63 17 3c 42 c9 6e bd 65 50 d7 3c
       -0.04718375 0.00924014 -0.058297403 0.026283452
0003c0 82 85 72 bb 63 a6 66 be 23 d5 1e bb 16 c4 5b bd
       -0.0037005846 -0.22524409 -0.0024235926 -0.0536538
0003d0 0b 27 ba bd 01 93 58 be 18 6a a3 3c 90 7f d2 3d
       -0.09089478 -0.21149828 0.01994805 0.10278237
0003e0 d6 37 0c bc 8b cd e0 bd 7c 4d eb bc 32 a3 ea 3d
       -0.008558234 -0.10976704 -0.02872347 0.11456908
0003f0 15 b5 12 3d 92 bc 8a be cf 92 f3 be 41 1e 10 be
       0.035817225 -0.27096993 -0.47572944 -0.14074041

action_model._discrete_distribution.branches.0.bias f4 [3]
000000 fd be ab 3d e6 25 09 bd c4 bf 20 be
       0.083860375 -0.03348341 -0.15698153

action_model._discrete_distribution.branches.1.weight f4 [3, 128]
000000 64 d1 38 3d 46 69 d5 bd 11 08 af bd 3e 03 c1 3d
       0.045121565 -0.1042047 -0.085464604 0.094244465
000010 71 9b cb 3d 54 41 cc 3c ab aa ad bd 14 27 77 3d
       0.099417575 0.024933495 -0.08479818 0.060340002
000020 05 4c 0d bd 5f 70 bf bd c1 4e 1c be ab 2b f6 bc
       -0.034496326 -0.09347605 -0.15264417 -0.03005012
000030 07 e8 6b bc eb 36 52 3c 28 12 2d be e8 37 6c bc
       -0.014398581 0.012830476 -0.16901457 -0.014417626
000040 f5 39 19 3d 67 fe 16 3d 74 5f de 3d ab 47 30 bd
       0.037408788 0.03686371 0.1085805 -0.043037098
000050 32 34 0f 3d ba 25 14 3d 29 97 c2 be b5 39 d0 3c
       0.034961887 0.03616879 -0.3800595 0.025418142
000060 8e 36 69 3d 4b ee 47 3d e9 09 fd bd a3 53 90 bd
       0.056936793 0.04881124 -0.12355406 -0.070472024
000070 6d f2 36 3c 05 18 6e bb 45 da 5c 3d 3d 14 1d 3d
       0.011166197 -0.0036330235 0.053919096 0.03834938
000080 d9 bc 27 bd fa 8d 96 3d a8 be ac 3d d8 da 2c bd
       -0.040951584 0.07351299 0.08434802 -0.042200893
000090 fb eb ed bd 82 33 6d bc 2c 68 d3 bd d7 f9 3d 3c
       -0.11617275 -0.014477612 -0.103226036 0.011595211
0000a0 32 73 94 3b ee 25 8b 3d 2c 52 d1 ba 88 17 14 be
       0.004530334 0.06794344 -0.0015969924 -0.14462101
0000b0 a8 34 b2 3d 5b 36 c1 3d 17 37 2e 3c ac 49 ed bc
       0.0870145 0.094341956 0.010633252 -0.028965794
0000c0 ca 90 c3 3d 07 a7 88 bd 2f 87 44 bd 82 a8 11 3e
       0.09549101 -0.06672483 -0.047980484 0.14224437
0000d0 83 ce 8d be 65 1c af 3d 58 26 88 3c 82 c2 93 3b
       -0.27696618 0.08550338 0.016619846 0.004509271
0000e0 6d c8 91 3d 74 af 94 bd 3b 08 23 3c 28 0e 99 3d
       0.07118306 -0.072600275 0.009950693 0.07473403
0000f0 49 3a 75 3a 93 56 8e bd 4b 03 80 3d 9f 46 82 bd
       0.00093546935 -0.069501065 0.06250628 -0.06361126
000100 25 b0 bc 3c 47 22 bd bb 9e 9a fe 3d 4c 0e 9a 3d
       0.023033211 -0.0057719084 0.12431835 0.07522258
000110 f5 ee ac be d3 2c cc 3c f0 13 7f 3e c4 8c 35 bd
       -0.3377606 0.024923718 0.2490995 -0.044323698
000120 72 51 62 bc 66 e2 9c be b8 e1 95 bd 87 15 65 be
       -0.013813363 -0.30641478 -0.07318443 -0.22371493
000130 8d fb de 3e 5c f9 23 3e 26 86 a5 be e9 f2 a8 bd
       0.43551293 0.16013092 -0.3232891 -0.082494564
000140 22 3c d0 3d 8f 6d 18 bc e7 77 26 3d a9 e1 97 bd
       0.101677194 -0.009303465 0.04064169 -0.07416088
000150 1a ba 14 3d 52 c1 46 bc e8 d7 b8 3b c8 db 98 3d
       0.036310293 -0.012131052 0.0056409724 0.07463795
000160 d4 6e f0 3c 01 8b da bd 87 5f 88 bc 7f cd 3e 3d
       0.029349722 -0.10671044 -0.016647113 0.046582695
000170 45 14 4d 3d c7 d5 72 bd d7 02 89 3c d3 76 cd bd
       0.05006816 -0.059285905 0.016724987 -0.100324295
000180 e7 a7 e4 bd 23 d2 2d bd da f9 25 be b4 29 9b 3d
       -0.11164837 -0.04243673 -0.16208592 0.075763136
000190 99 73 b7 bd 8e ca 03 3d ea 9a ec bd 75 97 30 3c
       -0.089575954 0.032175593 -0.11552985 0.010778298
0001a0 e8 d2 5d bd fe 5f 38 3c 41 62 bf 3d ee d6 1d 3d
       -0.054156214 0.011253355 0.09344912 0.03853505
0001b0 c8 85 80 bc a3 42 d5 3c 34 bc b3 3c ae 9f 23 3d
       -0.015688792 0.026032751 0.021940328 0.039947204
0001c0 36 75 f8 3c 04 00 a1 bd a9 58 f6 3b a8 8d 02 bd
       0.030329328 -0.07861331 0.0075178933 -0.031873375
0001d0 a1 1a 2d be e1 af 02 3c 67 f3 f4 3b 80 05 ee bc
       -0.1690469 0.007976503 0.007475305 -0.029055357
0001e0 6f 62 e4 bd b8 2c 02 be 0f 28 3e 3d e2 01 9e 3d
       -0.11151587 -0.12712371 0.04642492 0.07715203
0001f0 dd 0c 37 3d 84 a1 a8 3e ca 33 7b be 05 8c 84 bd
       0.04469 0.32935727 -0.24531475 -0.06472019
000200 a0 f3 e8 3c f1 0f 03 3e 9d 98 54 3d b9 97 35 be
       0.028436482 0.1279905 0.051903356 -0.17733659
000210 dd 99 9b bd 70 b2 2b bc 7b 5e f0 3c 06 ed 8d bc
       -0.075977065 -0.0104795545 0.029341927 -0.017324936
000220 8a a9 44 be fd 0a 15 bd 67 b3 ec 3d a2 89 84 3d
       -0.19205299 -0.036387432 0.11557656 0.06471564
000230 3b 38 2b bd df 49 08 3d fc 00 43 3e b9 86 36 3d
       -0.041801672 0.033273574 0.19043344 0.044562075
000240 9a c4 be 3d 70 5e 6d 3d 34 95 40 bd d1 ee 42 bc
       0.093148425 0.05795139 -0.04701729 -0.011897759
000250 41 c6 de 3c 20 e4 c0 bc ce 83 85 3e e9 13 2e 3c
       0.027194144 -0.023546278 0.26077121 0.010624864
000260 62 0e 66 3d 3a ac 7c bd bb 6b ff 3d e7 32 b5 3d
       0.05616606 -0.061687686 0.1247172 0.088475995
000270 77 9e 66 3d 4c 2a b1 3d c4 e4 04 be 05 08 25 3c
       0.056303468 0.086506456 -0.12977892 0.010072713
000280 2f 99 ce 3c f7 6b e0 bd 72 3d 55 be 7d 34 f8 3b
       0.025219528 -0.10958093 -0.20824221 0.0075746165
000290 b1 a8 05 3e 75 f9 48 3d 49 34 05 3e 78 59 98 3b
       0.13052632 0.049066026 0.13008226 0.0046493374
0002a0 f3 3f 0b 3e fa 56 70 bc 5f c8 12 3d 59 d9 f0 3d
       0.13598613 -0.014669174 0.03583562 0.11760206
0002b0 1b 79 54 be 10 0c 73 be f7 b0 9e 3d b4 40 fe 3d
       -0.20749323 -0.2373507 0.07748597 0.12414685
0002c0 30 95 82 be 67 08 3a be b3 a8 49 3d 29 ac 8d bd
       -0.25504446 -0.18167268 0.04923315 -0.069176026
0002d0 6a 51 9c 3e 61 0d 02 bd 50 b0 5e 3e 84 ef a8 3c
       0.30530864 -0.03175104 0.21746945 0.020622022
0002e0 41 ad 06 be 57 79 48 3d 4d 8c 80 3d a3 e0 34 bd
       -0.13152029 0.048943844 0.0627676 -0.044159543
0002f0 d2 ec 42 3c 56 1b 72 3d 72 3c 61 bd ec 5a 8a 3d
       0.011897283 0.0591081 -0.054989286 0.06755623
000300 bc d1 d6 3d 53 8c 4c 3d c8 6d 87 bd 5d aa 14 be
       0.104892224 0.04993851 -0.06612736 -0.14518113
000310 d0 0d b5 3e 3c c6 5f 3d f2 f7 8d be 07 9a dc 3c
       0.353621 0.05463241 -0.2772823 0.026928915
000320 c7 0c cc bd 59 32 c1 3e 99 f1 0a 3e 1d c8 80 3e
       -0.099633746 0.37733725 0.13568725 0.25152674
000330 3c 12 fb be 1f 37 35 be c4 3e a1 3e 20 90 0c 3d
       -0.4903735 -0.17696808 0.314932 0.034317136
000340 d1 0d 98 be cb a3 6a 3d 47 d0 4a bd 61 6a f9 3d
       -0.2969804 0.05728511 -0.049515035 0.12178493
000350 5b 10 15 bd 95 a6 e9 3d c8 35 e9 3b 65 92 e2 bc
       -0.03639255 0.11408726 0.007117007 -0.027657697
000360 b5 14 b7 3c 92 a8 f2 3d ab 0e 93 bd bd 29 06 be
       0.022348741 0.118485585 -0.07180532 -0.1310186
000370 63 ca b2 bc b6 aa 23 3c 85 94 e7 bd b5 b0 24 3d
       -0.021825021 0.009989431 -0.11307625 0.040207583
000380 5c 3c 3b 3e 54 6d f0 3d 49 69 9e 3d 6c 5f 19 bb
       0.18284744 0.11739603 0.07734925 -0.0023402823
000390 b7 0f 17 3e 16 91 a5 3d 8e 7f 15 3e bf c6 b1 3d
       0.14752088 0.080843136 0.1459944 0.08680486
0003a0 e6 e3 89 3d 3f e4 6f 3d c1 5e d1 bc aa 17 3a be
       0.06732921 0.05856728 -0.025557877 -0.1817309
0003b0 b9 70 2b 3d 98 30 74 bb 2d d6 a6 3d 26 f5 56 3d
       0.041855548 -0.003726041 0.081463195 0.052479886
0003c0 bd 48 19 3d 36 f9 35 3e 08 e1 e6 3c a3 cc 5c 3d
       0.037422884 0.17770848 0.028183475 0.053906094
0003d0 1d 9c 1d 3e 49 a0 1e 3c e2 8c 37 3d b7 8f e6 bb
       0.15391584 0.00968177 0.04481209 -0.007036175
0003e0 56 58 d0 3d 5e 36 e4 3d bb bf 68 bd 17 74 0b be
       0.10173099 0.11143182 -0.056823473 -0.13618504
0003f0 d9 2e 07 3d 94 e8 a0 be 6c 8a 5b 3e d6 d3 70 3d
       0.03300366 -0.31427443 0.21439523 0.058795772

action_model._discrete_distribution.branches.1.bias f4 [3]
000000 60 5d 59 3d b9 0b 3c bd f5 1a 88 bc
       0.053067565 -0.045909617 -0.016614417

exp_avg f4 [128, 36]
000000 14 13 54 b2 3e 81 ab 39 00 00 00 00 2a a1 15 b7
       -1.2344362e-08 0.00032711955 0.0 -8.918616e-06
000010 bc b3 63 38 72 81 49 b8 87 36 c0 39 00 00 00 00
       5.4288408e-05 -4.804269e-05 0.0003666172 0.0
000020 18 34 cf b4 75 c2 81 38 99 b9 02 3a c7 7b 43 b9
       -3.8594658e-07 6.18742e-05 0.00049867627 -0.0001864276
000030 00 00 00 00 72 50 c7 36 de 66 ce 36 bf c4 dd b8
       0.0 5.940027e-06 6.1512537e-06 -0.00010574748
000040 ea 5d e0 39 00 00 00 00 ff 8a 86 b6 03 36 bb 38
       0.0004279458 0.0 -4.0096925e-06 8.926915e-05
000050 76 19 d5 39 87 06 a6 b8 00 00 00 00 37 a9 18 b7
       0.00040645496 -7.916713e-05 0.0 -9.099304e-06
000060 4e a9 b8 b7 22 59 9e 39 77 a5 8e 37 00 00 00 00
       -2.2013348e-05 0.00030202518 1.700477e-05 0.0
000070 5c d0 61 b5 97 6f 10 39 f6 3f ed 39 d4 c5 05 b9
       -8.4122235e-07 0.0001377448 0.00045251817 -0.00012757565
000080 00 00 00 00 87 9f e2 b6 bb 72 d4 b7 bd d0 89 b9
       0.0 -6.7538963e-06 -2.5325795e-05 -0.00026286198
000090 9d b3 96 38 48 48 af b8 00 00 00 00 42 9f 96 36
       7.186013e-05 -8.358114e-05 0.0 4.4888884e-06
0000a0 c7 59 2b 39 af 4e c6 38 66 c2 20 b9 00 00 00 00
       0.00016341275 9.456032e-05 -0.00015331208 0.0
0000b0 cb 16 58 38 39 d6 2b 39 f7 ef dc b9 a0 a1 c6 39
       5.151964e-05 0.00016387635 -0.00042140458 0.00037885923
0000c0 00 00 00 00 40 1d 14 38 a0 1f 6e 39 9f 55 e8 39
       0.0 3.531319e-05 0.0002270923 0.0004431428
0000d0 f5 e7 ea b9 00 00 00 00 e5 2b 1c b6 aa 0c 1c 39
       -0.0004480478 0.0 -2.3271361e-06 0.00014882037
0000e0 8e ea 20 b9 a2 cd 14 39 00 00 00 00 8f f2 90 36
       -0.00015346167 0.00014190984 0.0 4.319772e-06
0000f0 1a a5 52 39 34 4b 48 b8 4f 77 2b b8 00 00 00 00
       0.00020088666 -4.7753754e-05 -4.088069e-05 0.0
000100 79 b6 aa 38 cf 2f 62 38 82 63 28 b9 24 ce 1b 39
       8.14022e-05 5.3927124e-05 -0.00016058798 0.00014858745
000110 00 00 00 00 b2 00 a0 36 0b 94 33 39 b7 61 d3 39
       0.0 4.7684525e-06 0.0001712592 0.0004031786
000120 e3 49 f0 b6 14 d5 2e b9 00 00 00 00 fc 5f ad b4
       -7.161159e-06 -0.00016673311 0.0 -3.22936e-07
000130 e7 0c a7 37 28 db 8c 38 8d ed 90 b9 00 00 00 00
       1.991396e-05 6.716541e-05 -0.0002764281 0.0
000140 d3 fd 12 38 33 d3 ed 37 c0 6f 0f ba 0c f1 b8 39
       3.5045505e-05 2.8350949e-05 -0.0005471669 0.0003527481
000150 00 00 00 00 78 76 a9 37 0e bc 84 38 5c 0d af 39
       0.0 2.0201536e-05 6.3292784e-05 0.00033388555
000160 1a ba 01 ba 00 00 00 00 57 06 5e b7 be 88 55 b4
       -0.0004948691 0.0 -1.3233707e-05 -1.9886917e-07
000170 3d 03 a2 b9 82 5b f0 38 00 00 00 00 d8 54 a9 37
       -0.0003090146 0.000114611365 0.0 2.0185878e-05
000180 b4 63 ae 38 69 74 28 b9 f1 c4 08 b8 00 00 00 00
       8.315538e-05 -0.00016065095 -3.2608343e-05 0.0
000190 29 bc 9f 37 9e f3 91 b8 cf 55 af b9 8f 3e 35 39
       1.9041896e-05 -6.959516e-05 -0.00033442533 0.0001728481
0001a0 00 00 00 00 62 10 54 b7 a6 22 b6 38 d5 43 4c 39
       0.0 -1.2639999e-05 8.68489e-05 0.00019480225
0001b0 8a d9 84 34 f9 cd f3 b7 00 00 00 00 00 f5 c6 37
       2.4745196e-07 -2.906377e-05 0.0 2.3717526e-05
0001c0 88 3a b2 38 e5 36 be 37 47 81 98 b8 00 00 00 00
       8.498604e-05 2.2675327e-05 -7.2720046e-05 0.0
0001d0 4b 84 3c 38 6a f3 b6 38 6b 4d 86 b9 25 9c 4d 39
       4.49459e-05 8.723776e-05 -0.00025616153 0.00019608492
0001e0 00 00 00 00 f2 97 66 38 e8 94 f8 38 ab 31 80 39
       0.0 5.4977783e-05 0.000118532975 0.00024451068
0001f0 7d f9 8b b9 00 00 00 00 a0 b7 91 37 c5 2c ae 38
       -0.0002669803 0.0 1.7370854e-05 8.3053055e-05
000200 cf 1b 60 b8 82 c9 33 38 00 00 00 00 86 7b b7 36
       -5.343166e-05 4.2864594e-05 0.0 5.468205e-06
000210 b0 b2 bc 38 89 89 bd 36 5f 27 38 b8 00 00 00 00
       8.997822e-05 5.64865e-06 -4.3905686e-05 0.0
000220 5a 13 0b 38 fd 23 b2 37 96 83 67 b8 c5 55 41 38
       3.3158205e-05 2.1236012e-05 -5.519724e-05 4.6094665e-05
000230 00 00 00 00 df 57 86 36 96 be ac 38 d7 7b b7 38
       0.0 4.0037407e-06 8.2370985e-05 8.749187e-05
000240 47 09 c5 33 15 ce 26 3a 00 00 00 00 7f 51 85 38
       9.175215e-08 0.0006363106 0.0 6.357114e-05
000250 25 3b ac 39 dd 66 b3 37 d1 28 1d 3a 00 00 00 00
       0.00032850463 2.1386362e-05 0.0005995157 0.0
000260 24 d3 a5 38 47 90 a9 39 4e 7b cc 39 af 1a 24 39
       7.907141e-05 0.00032341687 0.0003900178 0.00015650199
000270 00 00 00 00 67 e8 20 39 a0 d4 a3 39 3b 9f 92 39
       0.0 0.00015345366 0.000312482 0.00027965926
000280 2d 21 c4 39 00 00 00 00 98 e3 41 38 ca 4c 9e 39
       0.0003740875 0.0 4.622675e-05 0.0003019332
000290 e3 02 3b 3a 54 06 1a b8 00 00 00 00 07 7e c3 37
       0.0007133914 -3.6722355e-05 0.0 2.3304498e-05
0002a0 d0 67 54 39 97 e9 3a 3a 5e 53 9e b7 00 00 00 00
       0.00020256569 0.00071301445 -1.8873889e-05 0.0
0002b0 7c b8 c3 36 04 4f 8b 39 93 51 40 3a f3 7d 1c b8
       5.8329297e-06 0.00026571017 0.0007336374 -3.7310598e-05
0002c0 00 00 00 00 7b b9 74 36 41 24 31 39 ab 06 ab b9
       0.0 3.6466797e-06 0.00016893541 -0.0003262063
0002d0 9a 89 0b 39 cd d0 a6 39 00 00 00 00 4f f1 2e 36
       0.00013307334 0.00031817556 0.0 2.606848e-06
0002e0 ae 20 2e 39 80 e1 53 39 33 bb 82 39 00 00 00 00
       0.00016606107 0.00020206533 0.00024935007 0.0
0002f0 7a c4 23 36 44 84 23 39 cd 61 36 38 a3 39 cf 39
       2.4403257e-06 0.00015594164 4.3483265e-05 0.0003952506
000300 00 00 00 00 92 b3 7d 37 e4 55 27 39 08 2b 7e 39
       0.0 1.5121785e-05 0.00015958358 0.00024239358
000310 e5 99 5f 39 00 00 00 00 05 fa ee b5 c1 e8 30 39
       0.00021324267 0.0 -1.7805147e-06 0.00016871376
000320 c6 67 52 39 d0 69 7f 39 00 00 00 00 2b 56 21 37
       0.00020065819 0.00024358113 0.0 9.61641e-06
000330 77 e6 0d 39 2e 5b d6 39 cd 57 88 38 00 00 00 00
       0.00013532663 0.00040885195 6.5013395e-05 0.0
000340 34 da a7 b7 e7 8c 38 39 d5 20 39 39 32 95 95 39
       -2.000956e-05 0.00017600098 0.00017655206 0.00028530654
000350 00 00 00 00 04 44 06 b7 b7 f4 1e 39 04 ed a1 b9
       0.0 -8.0028585e-06 0.00015159218 -0.00030884903
000360 f7 8e a6 b7 03 57 63 36 00 00 00 00 30 47 59 b5
       -1.9855315e-05 3.3876283e-06 0.0 -8.094239e-07
000370 5e 45 aa b7 35 5c a4 b7 fe d1 59 b6 00 00 00 00
       -2.029788e-05 -1.959326e-05 -3.2457751e-06 0.0
000380 7d a0 ba 36 c0 b3 47 b7 58 b0 a3 b8 2a 49 6c 38
       5.5619153e-06 -1.1903176e-05 -7.805292e-05 5.6334924e-05
000390 00 00 00 00 a7 02 95 36 d2 06 6f b7 27 9e cc 38
       0.0 4.440855e-06 -1.4247098e-05 9.756936e-05
0003a0 03 54 ed b8 00 00 00 00 c0 6e e1 b5 db b5 af b6
       -0.00011316689 0.0 -1.6796039e-06 -5.236577e-06
0003b0 a0 40 09 b7 c4 a0 0f b7 00 00 00 00 fe b5 0f b5
       -8.180883e-06 -8.560895e-06 0.0 -5.3536485e-07
0003c0 74 9b 96 b7 5f d2 19 b7 7c 0e f0 b6 00 00 00 00
       -1.7953782e-05 -9.1684915e-06 -7.1542436e-06 0.0
0003d0 b0 18 80 b5 39 2b 1c b7 4c b3 5f 37 24 24 05 b8
       -9.543928e-07 -9.308388e-06 1.3333582e-05 -3.174333e-05
0003e0 00 00 00 00 8d 04 98 35 bf bc d8 b7 85 43 4f b8
       0.0 1.1326207e-06 -2.5837098e-05 -4.941553e-05
0003f0 e4 d3 4f b7 8c 3d 01 b9 00 00 00 00 c4 c1 63 b5
       -1.2387496e-05 -0.00012325327 0.0 -8.4846056e-07

exp_avg_sq f4 [128, 36]
000000 d2 c1 c0 35 f8 ba 2f 37 00 00 00 00 6e 5a 9a 32
       1.4361524e-06 1.0474345e-05 0.0 1.7969082e-08
000010 3b ac bb 35 4b 4c 7b 36 25 b3 04 37 00 00 00 00
       1.3982711e-06 3.7446323e-06 7.909523e-06 0.0
000020 8e d5 ee 30 65 07 a1 35 ff e0 44 36 b3 f0 15 37
       1.7377475e-09 1.1997587e-06 2.933724e-06 8.937134e-06
000030 00 00 00 00 a3 19 83 32 43 c0 d6 35 e4 54 3a 37
       0.0 1.5262065e-08 1.6000198e-06 1.1106229e-05
000040 11 9c 81 35 00 00 00 00 50 4b 82 2f ed 13 3e 35
       9.65667e-07 0.0 2.3700375e-10 7.080951e-07
000050 10 8f f5 36 92 1c 91 36 00 00 00 00 db bd 85 32
       7.3182237e-06 4.3246628e-06 0.0 1.5569574e-08
000060 ed 29 c1 35 e4 db 41 37 d8 5a 03 35 00 00 00 00
       1.4391823e-06 1.1554894e-05 4.89335e-07 0.0
000070 ba 71 96 2d 5a fd 05 35 f0 77 2b 37 36 d0 e7 35
       1.710353e-11 4.9915036e-07 1.0220319e-05 1.7271439e-06
000080 00 00 00 00 51 50 02 31 59 fd 9a 35 d1 ce 32 37
       0.0 1.8963144e-09 1.1547628e-06 1.065778e-05
000090 8d 42 0c 35 d0 c0 af 37 00 00 00 00 17 7d bc 33
       5.225091e-07 2.0951411e-05 0.0 8.777186e-08
0000a0 19 fa 14 36 0e 72 90 36 99 47 8d 37 00 00 00 00
       2.2199295e-06 4.304812e-06 1.684185e-05 0.0
0000b0 21 a0 48 33 e5 6a 12 36 4f 48 3a 36 04 89 9b 37
       4.6711765e-08 2.1817916e-06 2.775825e-06 1.8541243e-05
0000c0 00 00 00 00 a1 e5 fa 33 26 6f 1e 36 14 88 65 37
       0.0 1.16833014e-07 2.3608532e-06 1.3681147e-05
0000d0 b5 15 01 37 00 00 00 00 24 5d d5 31 0f 2f dc 35
       7.694053e-06 0.0 6.2097048e-09 1.6404973e-06
0000e0 a0 7a 36 37 99 4d 2e 37 00 00 00 00 52 37 b9 33
       1.0876596e-05 1.0389275e-05 0.0 8.6247965e-08
0000f0 8c 98 09 36 e3 49 8a 37 fb 73 ad 36 00 00 00 00
       2.0503385e-06 1.6485288e-05 5.1693037e-06 0.0
000100 77 9b aa 32 b1 91 ae 35 2f bf 90 37 f4 0d 9b 36
       1.9861302e-08 1.3006412e-06 1.7255164e-05 4.6209843e-06
000110 00 00 00 00 f7 3a b2 2f 03 30 cd 35 1e 48 ab 37
       0.0 3.2419908e-10 1.5287663e-06 2.041837e-05
000120 29 22 47 36 b6 44 cd 37 00 00 00 00 c7 f1 8b 33
       2.9673195e-06 2.44699e-05 0.0 6.516671e-08
000130 c7 c1 79 36 c5 13 a8 36 31 15 ba 37 00 00 00 00
       3.7216685e-06 5.0090916e-06 2.2182796e-05 0.0
000140 fe ae 8c 33 bb 2e 7d 36 fa 1e 36 37 0f 6b 89 37
       6.551089e-08 3.7727139e-06 1.0855258e-05 1.6381526e-05
000150 00 00 00 00 81 bc b2 33 6b f1 83 36 8d 3c c4 37
       0.0 8.3230596e-08 3.932209e-06 2.3393217e-05
000160 9b 1d 94 36 00 00 00 00 5f b1 ce 31 8e 5a 40 36
       4.4141902e-06 0.0 6.015554e-09 2.866294e-06
000170 9d 4a a0 37 74 0c 07 37 00 00 00 00 95 ab 9f 33
       1.910823e-05 8.0495265e-06 0.0 7.435225e-08
000180 da 11 5c 36 38 2a db 37 49 25 dd 35 00 00 00 00
       3.2792946e-06 2.6126494e-05 1.6476635e-06 0.0
000190 7b 03 81 31 27 8d 0e 36 31 a0 b9 37 39 00 b0 36
       3.75479e-09 2.124181e-06 2.2128314e-05 5.2452347e-06
0001a0 00 00 00 00 45 0c 4c 32 23 7a 36 36 e2 34 c5 37
       0.0 1.1877153e-08 2.7191206e-06 2.3508856e-05
0001b0 e0 ac 26 34 be c5 04 37 00 00 00 00 b8 4c fe 32
       1.5522846e-07 7.913854e-06 0.0 2.960438e-08
0001c0 01 c2 8e 35 3c 45 ca 35 65 e8 d6 36 00 00 00 00
       1.0636287e-06 1.5070323e-06 6.4047513e-06 0.0
0001d0 3a 87 c8 32 74 af 8b 35 9d 4f 0a 36 9a 57 cb 36
       2.3344558e-08 1.0407371e-06 2.0609943e-06 6.0600696e-06
0001e0 00 00 00 00 0d b4 3a 33 49 3b 96 35 bd 38 dd 36
       0.0 4.3470255e-08 1.1193125e-06 6.5929185e-06
0001f0 c3 09 bc 35 00 00 00 00 98 94 d9 30 23 5d 40 35
       1.4009933e-06 0.0 1.5831061e-09 7.1661105e-07
000200 33 ed a9 36 c3 75 3d 36 00 00 00 00 3a d0 fc 32
       5.064206e-06 2.823174e-06 0.0 2.9431352e-08
000210 ed ce 80 35 1f eb fd 36 cf a3 27 35 00 00 00 00
       9.596966e-07 7.5673593e-06 6.245072e-07 0.0
000220 05 d1 fd 31 98 7f 04 35 b5 41 01 37 c3 45 fe 34
       7.387032e-09 4.9359505e-07 7.704298e-06 4.7361945e-07
000230 00 00 00 00 81 b6 1a 30 9c 25 44 35 e3 cf f9 36
       0.0 5.628423e-10 7.307042e-07 7.4449795e-06
000240 6a 36 e7 32 6a ef ce 37 00 00 00 00 7c be 11 33
       2.6916684e-08 2.46686e-05 0.0 3.3933688e-08
000250 b6 28 73 36 c0 37 a3 35 3f 73 c3 37 00 00 00 00
       3.6233519e-06 1.2160672e-06 2.3299477e-05 0.0
000260 ef 86 d0 33 1e 05 79 36 3f 10 5a 37 34 69 44 37
       9.710299e-08 3.710687e-06 1.2997595e-05 1.1707005e-05
000270 00 00 00 00 64 0b c9 33 ae 8a 72 36 4a 27 aa 37
       0.0 9.361864e-08 3.6141532e-06 2.0283875e-05
000280 0b 7c 9a 36 00 00 00 00 0a 0e 8a 31 ac 59 35 36
       4.603998e-06 0.0 4.0179247e-09 2.7023298e-06
000290 e0 ce a0 37 7d 86 ac 36 00 00 00 00 aa fb 0c 33
       1.916982e-05 5.141656e-06 0.0 3.2825177e-08
0002a0 03 9d 44 36 8b 37 c5 37 7d 23 d2 35 00 00 00 00
       2.9297669e-06 2.3510094e-05 1.5656548e-06 0.0
0002b0 f6 f1 63 31 59 9b f6 35 3d 00 cb 37 52 fa 3d 35
       3.3170386e-09 1.837364e-06 2.4199597e-05 7.077225e-07
0002c0 00 00 00 00 93 8a 69 30 86 22 22 36 f5 2c bd 37
       0.0 8.496183e-10 2.4159976e-06 2.255149e-05
0002d0 4d 17 5d 35 47 77 26 37 00 00 00 00 5d 51 1a 33
       8.236282e-07 9.922142e-06 0.0 3.592992e-08
0002e0 3e 03 a3 35 b2 bf 4b 36 9c a5 fb 36 00 00 00 00
       1.214539e-06 3.0360939e-06 7.4996624e-06 0.0
0002f0 52 4f c6 32 78 3b 98 35 e7 a2 22 36 76 60 0d 37
       2.3086304e-08 1.134219e-06 2.4234703e-06 8.426714e-06
000300 00 00 00 00 d9 44 4d 33 f6 3e ab 35 37 65 0d 37
       0.0 4.77929e-08 1.2758817e-06 8.427821e-06
000310 44 3c 14 36 00 00 00 00 66 e5 ca 30 52 f4 51 35
       2.2088798e-06 0.0 1.4762633e-09 7.82141e-07
000320 9c d4 bf 36 cf e2 9b 36 00 00 00 00 89 ec 15 33
       5.7169946e-06 4.645764e-06 0.0 3.4906893e-08
000330 ea 67 94 35 fc 97 1e 37 3e c6 bf 35 00 00 00 00
       1.1057102e-06 9.4529205e-06 1.4288305e-06 0.0
000340 71 b0 78 31 b0 c1 1f 35 7f 83 11 37 d7 28 05 36
       3.6189045e-09 5.951397e-07 8.67329e-06 1.9842316e-06
000350 00 00 00 00 26 7a c2 30 b6 9a 68 35 77 31 23 37
       0.0 1.4150074e-09 8.665187e-07 9.727074e-06
000360 48 f3 5f 33 13 29 21 36 00 00 00 00 e1 03 16 2f
       5.2142497e-08 2.4014778e-06 0.0 1.3643799e-10
000370 6c 0a 73 34 df 20 59 34 5f 11 15 36 00 00 00 00
       2.263493e-07 2.0221658e-07 2.2212841e-06 0.0
000380 24 2f a8 30 9d cb 7e 34 f2 64 1b 35 b3 ef f9 35
       1.2237007e-09 2.3729667e-07 5.7888894e-07 1.8621707e-06
000390 00 00 00 00 5e 09 76 30 34 c5 81 34 89 25 ed 35
       0.0 8.950759e-10 2.4171607e-07 1.76688e-06
0003a0 14 19 45 35 00 00 00 00 25 71 03 30 be 9d 47 34
       7.342471e-07 0.0 4.781831e-10 1.8590706e-07
0003b0 06 69 bd 35 13 c4 92 35 00 00 00 00 56 f1 c1 2e
       1.4112163e-06 1.0934913e-06 0.0 8.819494e-11
0003c0 f2 b0 5e 34 59 12 11 36 39 f0 b8 34 00 00 00 00
       2.0739733e-07 2.1617363e-06 3.4447456e-07 0.0
0003d0 ca f3 93 2e 96 e6 25 34 25 9d 06 36 e0 87 f8 34
       6.728092e-11 1.5450709e-07 2.0059026e-06 4.6292462e-07
0003e0 00 00 00 00 03 75 37 2e d3 53 47 34 c9 34 14 36
       0.0 4.171331e-11 1.8563814e-07 2.2084444e-06
0003f0 a9 3b aa 34 4b 15 de 35 00 00 00 00 8b 48 c3 30
       3.1708376e-07 1.6546486e-06 0.0 1.4208735e-09
