Assets/results/T2/CarDriver/CarDriver-499969.pt (torch, 632126 bytes, 48 tensors)

discrete_act_size_vector f4 [1, 2]
0	0x40400000	3.0
1	0x40400000	3.0

network_body._body_endoder.seq_layers.0.weight f4 [128, 36]
0	0xbdc09626	-0.094036385
1	0x3d3eba89	0.046564613
2	0x3d851026	0.06497221
3	0x3e28a937	0.164708
4	0xbdb45b75	-0.088065065
5	0xbe718d35	-0.23589022
6	0xbe8b38d7	-0.27191803
7	0xbe9829fc	-0.29719532
8	0x3da95b69	0.08269388
9	0x3e9e7ae9	0.30953148
10	0xbd9d89d9	-0.07692308
11	0x3e683caa	0.22679392
12	0xbe278fc0	-0.1636343
13	0x3e4df4f5	0.20112975
14	0x3eb697f2	0.356628
15	0x3d93dab8	0.07219452
16	0xbeb0ae93	-0.3450819
17	0x3d4bb54f	0.049733456
18	0xbdf2ebce	-0.118613824
19	0x3e1e7496	0.15474162
20	0x3e33b235	0.1754845
21	0x3e24c2a3	0.16089873
22	0x3b07959a	0.0020688535
23	0xbe3f0def	-0.18657659
24	0x3d80f87c	0.06297395
25	0x3e8182ed	0.252952
26	0xbef84633	-0.48491058
27	0xbe24cce4	-0.16093785
28	0x3ea4715b	0.32117733
29	0x3eacebd7	0.33773682
30	0x3df19a01	0.11796952
31	0x3e307584	0.17232329
32	0xbe0e496f	-0.138952
33	0x3dbb4d17	0.09145563
34	0xbcf6dc3e	-0.030134317
35	0x3e6ebb7e	0.2331371
36	0x3d900a78	0.07033247
37	0xbed0fa63	-0.4081603
38	0x3e6122f0	0.21985984
39	0xbe0077ec	-0.12545747
40	0x3e239bc2	0.15977386
41	0xbec64b7b	-0.38729462
42	0xbdbaf199	-0.09128112
43	0xbe119f52	-0.14220932
44	0xbd896126	-0.06707983
45	0xbd2c473c	-0.042060122
46	0x3de2b669	0.11069948
47	0x3d7a8203	0.061159145
48	0xbe2b55f0	-0.16732001
49	0x3d894663	0.06702878
50	0x3d3e837e	0.04651212
51	0xbde99d1a	-0.11406918
52	0xbd52689e	-0.051369302
53	0x3e86be42	0.2631703
54	0x3e34a4a8	0.17640936
55	0xbea321f9	-0.31861857
56	0x3db7ef78	0.08981222
57	0x3e4dcdc9	0.20098032
58	0x3e43ba22	0.19113973
59	0x3e2cec5a	0.16887036
60	0x3e4c3ca5	0.19945009
61	0x3df0eaea	0.11763556
62	0xbe909041	-0.28235057
63	0x3ded19e4	0.11577204
64	0x3d3355d5	0.043783028
65	0x3d09b36d	0.03361838
66	0xbe220881	-0.15823556
67	0x3e327be4	0.17430073
68	0x3ea3150d	0.31851998
69	0x3dab8801	0.0837555
70	0x3eb9a299	0.36256865
71	0xbd44149b	-0.047871213
72	0xbd6c7931	-0.057732765
73	0x3cf1fe9b	0.02954035
74	0xbe67f124	-0.22650582
75	0x3caed3a4	0.021341152
76	0x3e0de807	0.13858043
77	0x3dbf8649	0.09351785
78	0x3c0b50d3	0.008503157
79	0xbea1dcea	-0.31613857
80	0xbcdd9b0f	-0.027051477
81	0x3e36c40d	0.17848225
82	0x3e67403e	0.225831
83	0x3c0d0b04	0.008608583
84	0x3e788c06	0.24272165
85	0x3e5a4347	0.21314727
86	0x3e0d0afd	0.13773723
87	0x3d824b22	0.06361987
88	0x3e2092d0	0.15681005
89	0xbbe5fb78	-0.007018503
90	0xbec4c655	-0.38432565
91	0x3ea12e77	0.31480762
92	0xbe94820c	-0.29005468
93	0xbe033bd9	-0.12815799
94	0xbe7f53d2	-0.24934319
95	0xbd8c4071	-0.06848229
96	0x3d0d754d	0.034535695
97	0x3e65f4d0	0.2245667
98	0xbad72e02	-0.001641691
99	0x3d2550b6	0.040360175
100	0x3d7d5b76	0.061854802
101	0x3e17618e	0.14783308
102	0x3d955606	0.07291798
103	0x3c155303	0.00911403
104	0xbca07fed	-0.01959225
105	0x3e11c89f	0.14236687
106	0xbde07236	-0.10959284
107	0x3dfad643	0.122478984
108	0xbd85f07a	-0.06540008
109	0xbdc6ea23	-0.09712627
110	0xbe5306e7	-0.20608102
111	0x3d2335f6	0.039846383
112	0x3e5dc9dd	0.21659036
113	0x3e8ae0e7	0.27124712
114	0xbe5170ce	-0.20453188
115	0x3d7326ef	0.0593633
116	0xbd8cf1e6	-0.06882076
117	0x3e2cd1bb	0.16876881
118	0xbd4fa4d3	-0.050694298
119	0x3bd69b1a	0.0065492513
120	0x3e0ac1ae	0.13550445
121	0x3dff4c82	0.124657646
122	0x3d38b05c	0.045090064
123	0x3e47959b	0.19490664
124	0xbd8c4a5b	-0.0685012
125	0x3d9e31aa	0.077243164
126	0x3e269d9c	0.1627106
127	0x3eac02d0	0.33595896
128	0x3e8d7849	0.27630833
129	0xbe7b6ab2	-0.2455242
130	0x3e28f383	0.16499142
131	0xbeab1dab	-0.33421072
132	0xbea9bcd4	-0.33151877
133	0x3d6da0ec	0.058014795
134	0xbbb8476c	-0.0056237485
135	0xbe75f49b	-0.24019091
136	0x3b2e3a4a	0.0026585036
137	0xbea2f04c	-0.31823957
138	0x3e0997c7	0.13436805
139	0xbc1a3870	-0.00941287
140	0xbdd470c6	-0.10373072
141	0xbec8990b	-0.39179263
142	0x3d5a1867	0.05324593
143	0xbe8ef495	-0.27920976
144	0x3e26cfa2	0.16290143
145	0xbdd49229	-0.1037944
146	0x3d1dc438	0.038517207
147	0x3e01f225	0.12690027
148	0xbe896913	-0.26837978
149	0xbd2b8487	-0.041874435
150	0x3cfa0275	0.03051875
151	0xbe8a5230	-0.2701583
152	0x3d3515f1	0.044210378
153	0xbe05e29d	-0.13074727
154	0x3e30a539	0.17250527
155	0x3d299f72	0.041411825
156	0xbd598a57	-0.053110447
157	0x3d19e17f	0.037568565
158	0x3e6e8504	0.23292929
159	0x3bf33228	0.0074217506
160	0x3e992563	0.29911336
161	0x3e76c93f	0.24100207
162	0x3e8a4e99	0.2701309
163	0xbe8a0730	-0.2695861
164	0x3ed4d501	0.4156876
165	0x3e94c054	0.29052985
166	0xbccff57e	-0.025385614
167	0x3d8c7549	0.06858308
168	0xbb60c16d	-0.0034294978
169	0x3e1204bc	0.14259619
170	0x3e806625	0.2507793
171	0x3dec05f0	0.1152457
172	0x3e89645c	0.2683438
173	0xbe474522	-0.19459966
174	0x3e3a9c8d	0.18223782
175	0xbe07e14a	-0.13269535
176	0xbca1cf44	-0.019752152
177	0x3e100de9	0.14067806
178	0xbb906528	-0.00440659
179	0x3ccdfa31	0.025143715
180	0xbd53973e	-0.051657908
181	0x3d051609	0.032491717
182	0x3d00350e	0.031300597
183	0xbdd17551	-0.102274545
184	0x3e031bda	0.12803593
185	0xbdfc18e0	-0.12309432
186	0xbdfdd227	-0.12393599
187	0x3d23446e	0.03986018
188	0x3dc78059	0.09741277
189	0x3dcdefef	0.10055529
190	0xbe2b1828	-0.16708434
191	0x3e1f8e19	0.1558155
192	0xbdf4a61a	-0.11945744
193	0xbe925b99	-0.28585508
194	0x3e8701b0	0.26368475
195	0xbd32cf97	-0.043655004
196	0xbe3dd70b	-0.18539064
197	0xbeabd60b	-0.3356174
198	0xbe000e3c	-0.1250543
199	0x3ddda83a	0.10823102
200	0xbd3e9428	-0.04652801
201	0x3e30faeb	0.17283218
202	0xbdf2d1a7	-0.11856394
203	0xbd909326	-0.07059316
204	0x3e72a762	0.23696664
205	0xbd88ec1a	-0.06685658
206	0xbe01d4ef	-0.12678884
207	0x3d9df680	0.07713032
208	0xbc85ee0b	-0.01634886
209	0x3dead806	0.114669845
210	0x3dabe344	0.08392957
211	0xbcd7811d	-0.026306683
212	0xbebfe824	-0.37481797
213	0x3e5e2829	0.21695007
214	0x3e4d1152	0.20026138
215	0x3ddbcf69	0.1073292
216	0xbc3c731d	-0.0115020545
217	0x3da70d4b	0.08156832
218	0x3e07306c	0.13202065
219	0xbc63a268	-0.013893701
220	0x3e6f9770	0.23397613
221	0xbd954246	-0.07288031
222	0x3e1a9010	0.15094018
223	0x3e4f6d82	0.20256618
224	0xbe03973a	-0.12850657
225	0xbd97526c	-0.073887676
226	0x3d8544c5	0.06507257
227	0x3c508989	0.012728103
228	0x3d9ebaf1	0.077505
229	0xbc37038a	-0.011170277
230	0x3d475cb0	0.048672378
231	0xbb5f8a8b	-0.0034109678
232	0xbd1b8352	-0.037967034
233	0x3e6a65bb	0.2289037
234	0x3dfaea59	0.122517295
235	0x3e48c699	0.19607009
236	0x3e5578e1	0.20846893
237	0xbd4bcad7	-0.04975399
238	0x3d232bb7	0.03983661
239	0xbcbdcb6b	-0.023168286
240	0x3ed24ba9	0.4107335
241	0xbe65d5fe	-0.22444913
242	0xbd631f5e	-0.055449836
243	0x3e2a9671	0.16658951
244	0xbec24b7d	-0.37948218
245	0xbe33f624	-0.17574364
246	0x3e624f29	0.2210051
247	0xbd8f2bd5	-0.06990782
248	0xbe01c9cf	-0.1267464
249	0x3cb7051f	0.02234131
250	0x3c9f46ea	0.019442994
251	0x3d2a4b4f	0.041575726
252	0xbe683a02	-0.22678378
253	0x3e748e8b	0.23882501
254	0x3b4ee1d3	0.0031567707
255	0xbd9f1967	-0.07768517

network_body._body_endoder.seq_layers.0.bias f4 [128]
0	0x3d24c935	0.04023095
1	0x3aefe9f3	0.0018303975
2	0x3c248ec0	0.0100438
3	0x3c8b96de	0.017039713
4	0x3d331ec8	0.043730527
5	0x3caef890	0.021358758
6	0x3cb94fdd	0.02262109
7	0x3cb93ca2	0.02261192
8	0x3d00fe53	0.031492542
9	0x3d0a8a00	0.033823013
10	0xbc093fb4	-0.008377004
11	0x3d08325a	0.033251144
12	0x3c2e2242	0.010628285
13	0x3cc8bae3	0.024503177
14	0x3cca9454	0.024728931
15	0x3cae2341	0.021257045
16	0x3d7e90bc	0.06214975
17	0x3d050037	0.032470908
18	0x3c65aa78	0.014017694
19	0x3be372c8	0.006941173
20	0x3d1620fe	0.036652558
21	0xbcff0c63	-0.031133836
22	0xbc94183a	-0.018077958
23	0x3cb09fac	0.021560512
24	0xbab77f9b	-0.0013999821
25	0x3d0c84f1	0.03430647
26	0x3d0c7bd3	0.034297775
27	0x3c830643	0.015994197
28	0x3d50c911	0.050973002
29	0xbc536cd0	-0.012904361
30	0x3c8acfe5	0.016944835
31	0x3c8a3ebe	0.016875621
32	0x3cdedc31	0.027204605
33	0x3cbf696f	0.023365704
34	0x3d2f2d8c	0.042768046
35	0xbb493928	-0.0030704234
36	0xbb70b49a	-0.003672874
37	0xbbb4480b	-0.0055017523
38	0x3cc803f5	0.02441595
39	0x3c9a2483	0.018816238
40	0x3d0cf996	0.03441771
41	0x3c9797e8	0.018505052
42	0xbb891e9b	-0.0041845567
43	0x3cbda03c	0.023147695
44	0x3bdfd9f0	0.0068314
45	0x3d0ee51d	0.03488647
46	0x3cf094e4	0.029367872
47	0x3c7a8cc6	0.015292352
48	0x3d8798f7	0.066209726
49	0x3d060e73	0.032728624
50	0x3cf14460	0.029451549
51	0xbc01d4d4	-0.007924277
52	0xbc670313	-0.014099854
53	0x3c949aaa	0.018140156
54	0x3d51844d	0.051151562
55	0xbd243686	-0.04009106
56	0x3d949393	0.0725471
57	0xbcae5d6a	-0.021284778
58	0x3cc3bad8	0.023892805
59	0xbcb29ab2	-0.02180228
60	0x3d40207f	0.04690599
61	0x3d278589	0.040898833
62	0x3cf84d76	0.030310374
63	0x3cab8dac	0.020941578
64	0xbdcd2c18	-0.10018176
65	0x3d14047a	0.03613708
66	0x3d274a32	0.040842243
67	0xbbfca1e2	-0.0077097276
68	0x3ca4d85e	0.020122703
69	0x3d8a2f9e	0.067473635
70	0x3d266622	0.040624745
71	0x3d171f0b	0.03689484
72	0x3d02ebaf	0.031963047
73	0x3cb590b9	0.022163736
74	0x3ce7bbf0	0.028287858
75	0x3cde5858	0.027141735
76	0xbbf1c1bc	-0.0073778313
77	0x3d46d72f	0.04854506
78	0xbb022711	-0.0019859711
79	0xbc0527d0	-0.008127168
80	0x3b5e6723	0.0033935986
81	0x3b2b41cb	0.0026131745
82	0xbd9c3a29	-0.07628281
83	0x3c46f689	0.0121437395
84	0x3c9ad8e4	0.01890225
85	0x3c29cf17	0.0103643155
86	0x3d81472a	0.063124016
87	0x3ca76182	0.020432238
88	0x3c10bbb6	0.008833816
89	0xbaca613f	-0.0015440359
90	0x3d97ec30	0.07418096
91	0xbbd5f4a0	-0.0065294057
92	0xbd0b8162	-0.034058936
93	0x3c79e65a	0.015252674
94	0x3d05e595	0.03268965
95	0xbc9ddf11	-0.019271405
96	0x3cab048b	0.02087619
97	0x3d3c6952	0.04599888
98	0x3c3ad76d	0.011403901
99	0xbbc16ce6	-0.0059028743
100	0xbcc32195	-0.023819724
101	0x3d201d8a	0.03909067
102	0x3cbe45cc	0.023226641
103	0xbb0f8397	-0.0021898502
104	0xbca95b37	-0.020673377
105	0xbc729b8c	-0.014807593
106	0xbcdcfeda	-0.026976991
107	0x3cf168e8	0.029468969
108	0x3d179c67	0.03701439
109	0xbc3af002	-0.011409761
110	0x3c6d94f7	0.014500848
111	0x3c6ecb4b	0.014574836
112	0x3d06fd24	0.032956257
113	0x3cb2f279	0.021844136
114	0x3bac02b6	0.0052493466
115	0xbb3db8db	-0.0028949294
116	0x3cbe35fa	0.023219097
117	0xbc949c6d	-0.018140996
118	0xbc8c7657	-0.017146273
119	0x3c980b49	0.018560069
120	0x3ced5979	0.028973328
121	0x3ccfb92e	0.025356855
122	0xbd1bba3a	-0.038019396
123	0xbbde6daa	-0.0067879753
124	0x3b1c1391	0.0023815373
125	0x3caf18c3	0.021374112
126	0xbce5cccc	-0.028051756
127	0x3d3f1240	0.046648264

network_body._body_endoder.seq_layers.2.weight f4 [128, 128]
0	0xbdebf73d	-0.11521766
1	0x3cdf126b	0.027230462
2	0x3d9e757d	0.07737253
3	0x3e810f05	0.25206771
4	0xbd97458a	-0.073863104
5	0xbd851965	-0.06498984
6	0x3d5b4674	0.053533986
7	0xbd051038	-0.03248617
8	0x3d98761e	0.07444404
9	0xbd27d050	-0.040970147
10	0x3d00ab75	0.031413514
11	0x3d19fab4	0.037592605
12	0x3d81f270	0.063450694
13	0x3e1ab0c6	0.15106496
14	0xbd0dbd41	-0.034604315
15	0xbcc63115	-0.024193326
16	0x3e047b3d	0.12937637
17	0xbd51f7ef	-0.05126184
18	0x3cef669f	0.029223738
19	0xbc18d04b	-0.009327005
20	0xbcbcc535	-0.023043254
21	0xbd462366	-0.048373602
22	0xbd85f9f1	-0.06541813
23	0x3b49bb80	0.0030781925
24	0xbcae53b9	-0.021280156
25	0x3de1c76d	0.110243656
26	0x3d50b5f0	0.05095476
27	0x3e38183f	0.17977999
28	0x3e3d987e	0.18515202
29	0xbe69bdda	-0.22826329
30	0x3dbebe08	0.09313589
31	0x3d44d9ee	0.048059396
32	0xbdf86747	-0.121290736
33	0x3d97a1cb	0.074039064
34	0x3d27f6d9	0.041006897
35	0xbe1bd9bd	-0.1521978
36	0x3e0c1c6e	0.1368272
37	0x3be8a2ee	0.007099501
38	0xbd887034	-0.06662026
39	0xbc281861	-0.010259719
40	0xbca368c3	-0.019947415
41	0xbe206e9c	-0.15667194
42	0x3d482c3a	0.048870303
43	0x3dec072c	0.115248054
44	0xbe16786a	-0.14694372
45	0x3da55844	0.08073476
46	0x3dc89cd8	0.097955406
47	0xbc5ef9d3	-0.013609367
48	0x3d3721a2	0.04470981
49	0x3daf75f3	0.08567419
50	0x3a5d3663	0.0008438585
51	0xbd873f00	-0.06603813
52	0x3dacaf63	0.0843189
53	0xbac981c0	-0.0015373752
54	0x3d6d0193	0.05786283
55	0x3dccca8f	0.099995725
56	0xbdd4cced	-0.10390649
57	0xbd9f3a22	-0.0777476
58	0xbdee5a53	-0.11638322
59	0xbe5d6920	-0.21622133
60	0x3da5b0a3	0.080903314
61	0x39b5a3b2	0.00034644973
62	0x3c035c79	0.008017653
63	0x3d27387f	0.040825363
64	0xbc3eba14	-0.011641044
65	0xbd5c1e3c	-0.05373977
66	0xbd9c849a	-0.07642479
67	0xbde7f641	-0.11326266
68	0x3d338435	0.043827254
69	0x3e13e779	0.14443769
70	0xbd29a3a7	-0.041415837
71	0x3d81f026	0.06344633
72	0x3d5f1ab4	0.054468825
73	0xbd1e5052	-0.03865082
74	0xbdcb20c8	-0.09918362
75	0x3e8fab47	0.28060362
76	0xbe256862	-0.161531
77	0xbe19e8eb	-0.15030257
78	0xbc4d7a2a	-0.012541333
79	0xbd77f88f	-0.06053978
80	0xbd6ee870	-0.05832714
81	0xbe03e29d	-0.12879415
82	0xbd4dbfb8	-0.050231665
83	0x3cab87ad	0.020938719
84	0x3e0c5716	0.13705096
85	0x3d8f9a9c	0.07011911
86	0xbde78471	-0.11304558
87	0x3e27b6ea	0.1637837
88	0xbcc9bd63	-0.02462644
89	0xbe8073c9	-0.25088337
90	0x3e1416f0	0.14461875
91	0xbd972b44	-0.07381299
92	0xbd473c33	-0.048641395
93	0xbd8dfc0d	-0.069328405
94	0xbdeb0acc	-0.11476669
95	0xbd13baed	-0.03606694
96	0x3e0fa59f	0.14028023
97	0x3d7b76ad	0.061392475
98	0x3e239fb3	0.15978889
99	0xbe152bde	-0.14567515
100	0xbd8eafd9	-0.06967134
101	0x3da601ac	0.08105788
102	0xbd540590	-0.051763117
103	0x3d9d4a69	0.07680208
104	0xbd4ecb9a	-0.05048714
105	0xbca9b96e	-0.020718303
106	0x3cd3841c	0.02581983
107	0x3d4c0f72	0.049819417
108	0x3dda01c7	0.1064487
109	0x3d595944	0.053063646
110	0x3cbe2aad	0.023213709
111	0xbaba43e8	-0.0014210911
112	0x3d885e7d	0.06658647
113	0x3e2ec701	0.17068101
114	0x3cbce226	0.023057055
115	0x3b0a02c7	0.0021058784
116	0x3d69c0c2	0.057068594
117	0x3d2e5154	0.04255803
118	0xbd93e06f	-0.07220542
119	0xbd939787	-0.07206636
120	0x3dbe45c5	0.09290651
121	0x3cd3341b	0.025781682
122	0xbc8a8269	-0.016907888
123	0xbe221f75	-0.15832312
124	0x3e067a72	0.13132647
125	0xbe23e345	-0.16004665
126	0x3d540d5c	0.051770553
127	0x3e06aa75	0.13150962
128	0xbe01be83	-0.1267033
129	0xbbdf85c5	-0.0068213665
130	0xbdf43601	-0.11924363
131	0xbb7e464e	-0.003879923
132	0x3dd9b2b6	0.106297895
133	0xbda83805	-0.0821381
134	0xbd3df0f0	-0.046372354
135	0x3e2d32e7	0.16913949
136	0x3ddbe905	0.10737804
137	0x3df6a3f6	0.12042992
138	0xbb5519a0	-0.0032516494
139	0x3d1b957b	0.037984353
140	0x3d931298	0.07181281
141	0x3d86d6f4	0.06583968
142	0x3e88cad7	0.26717255
143	0x3d443240	0.047899485
144	0x3da057eb	0.07829269
145	0x3e48ea7b	0.19620697
146	0xbd1915a0	-0.03737414
147	0x3d4c6a6a	0.04990617
148	0x3e5622bd	0.20911689
149	0x3d6b46d1	0.057440583
150	0x3db34fd2	0.08755459
151	0x3d052928	0.032509953
152	0x3c876415	0.016527215
153	0xbd3efda4	-0.04662861
154	0x3cc8e2c3	0.02452219
155	0xbdf9b10d	-0.12191973
156	0x3dbfa142	0.09356929
157	0xbd7d7bd8	-0.061885685
158	0x3e62a418	0.2213291
159	0x3cef6a93	0.029225623
160	0x3d26d698	0.040731996
161	0x3d22590c	0.039635703
162	0xbd84d949	-0.06486756
163	0xbd8e7156	-0.06955211
164	0xbe0c28e8	-0.1368748
165	0xbe5a1ad1	-0.21299292
166	0xbdee6111	-0.11639608
167	0xbd6d213f	-0.057893034
168	0xbd40ce82	-0.04707194
169	0xbdbaa231	-0.09112967
170	0xbdb11f01	-0.08648492
171	0x3dca1280	0.0986681
172	0x3c981344	0.018563874
173	0x3d93a5eb	0.07209381
174	0x3dd1f967	0.10252648
175	0xbe0452fb	-0.1292228
176	0x3e24b77d	0.1608562
177	0xbc927008	-0.017875686
178	0xbdf44954	-0.11928049
179	0xbd05ee96	-0.032698236
180	0xbcb91633	-0.022593593
181	0x3d536dac	0.051618263
182	0x3e130913	0.1435893
183	0xbd0ddfd1	-0.034637276
184	0x3a381e72	0.00070235797
185	0x3d2b859f	0.041875478
186	0x3e3ffe7b	0.1874942
187	0xbd1020a4	-0.03518738
188	0x3dc42c66	0.09578781
189	0x3d3e2b49	0.046428
190	0x3d4ebe90	0.050474703
191	0x3e270e0d	0.16313954
192	0x3d834535	0.064096846
193	0x3d341087	0.043961074
194	0x3e44ed5b	0.19231169
195	0x3b32d505	0.0027287614
196	0x3e290c38	0.16508567
197	0x3bca5212	0.0061743343
198	0x3e069ca4	0.13145691
199	0xbc3d2882	-0.011545302
200	0x3d72654d	0.05917864
201	0x3c7c8fe9	0.01541517
202	0x3d3f51ae	0.046708755
203	0x3e10e370	0.1414926
204	0x3cd45eb9	0.025924074
205	0x3d82573d	0.06364296
206	0x3dcd6634	0.10029259
207	0xbe3acf68	-0.18243182
208	0x3c1ce31a	0.00957563
209	0xbd5a3442	-0.053272493
210	0xbd646b37	-0.05576631
211	0xbdad01dc	-0.0844762
212	0xbe00a7fe	-0.12564084
213	0x3e335b3c	0.17515272
214	0x3d8810b3	0.0664381
215	0xbd1e8927	-0.038705017
216	0xbe56be15	-0.20970948
217	0xbded2a32	-0.11580314
218	0x3e3078b7	0.17233549
219	0x3d1ac092	0.037781306
220	0xbd9882a2	-0.07446791
221	0xbcfed1e4	-0.031105943
222	0xbcb944e9	-0.022615867
223	0xbdff2cb3	-0.124596976
224	0x3dbab9b5	0.09117452
225	0x3e3736dc	0.17892021
226	0x3d853604	0.06504443
227	0x3de9a86e	0.114090785
228	0xbde9858a	-0.11402424
229	0x3e04928c	0.12946528
230	0x3e7b8d83	0.24565701
231	0x3ce49c05	0.027906427
232	0xbd52d685	-0.051474113
233	0xbe69a55a	-0.22816983
234	0xbe0b7e1d	-0.13622327
235	0x3e495646	0.19661817
236	0xbe5f4540	-0.2180376
237	0xbde5264b	-0.111889444
238	0x3d25a4ef	0.040440496
239	0x3e2448a5	0.16043337
240	0x3c86120d	0.01636603
241	0x3d433d8d	0.04766612
242	0xbe2d36f8	-0.169155
243	0xbdad8835	-0.08473245
244	0xbdace2fd	-0.08441732
245	0xbd974b17	-0.07387369
246	0xbce1435c	-0.02749794
247	0x3cc493bf	0.023996232
248	0x3e01737b	0.12641709
249	0xbe016918	-0.12637746
250	0xbeb32d2d	-0.34995404
251	0xbdbb5bc1	-0.0914836
252	0x3db7e539	0.089792676
253	0x3e041419	0.12898292
254	0xbd6402f1	-0.055666868
255	0xbaa2f306	-0.0012432046

network_body._body_endoder.seq_layers.2.bias f4 [128]
0	0x3d0454e2	0.032307513
1	0x3d52782f	0.051384147
2	0x3c412ee2	0.011790963
3	0xbd3d67f1	-0.046241704
4	0x3c8d3821	0.017238678
5	0x3d00ff4c	0.03149347
6	0xbcbf933e	-0.02338564
7	0x3cbfa608	0.0233946
8	0xbb6c66da	-0.0036072046
9	0x3ca1c131	0.019745441
10	0x3d155787	0.036460426
11	0x3d1df1ea	0.038560785
12	0x3cd99d0c	0.026564144
13	0xbca8f2f4	-0.020623662
14	0xbbfa5e83	-0.007640661
15	0x3c0d9823	0.008642229
16	0x3ba2f591	0.0049731215
17	0xbcfddffa	-0.03099059
18	0x3c01265c	0.007882681
19	0x3d435cad	0.047695804
20	0xbd013e2e	-0.03155344
21	0xbd2f5413	-0.04280479
22	0x3c81d720	0.01584965
23	0x39df215c	0.0004255873
24	0x3cc29d0f	0.023756532
25	0x3c3848c7	0.01124782
26	0x3d0c6a00	0.034280777
27	0xbd187490	-0.037220538
28	0xbd2caf16	-0.042159162
29	0x3cc85dbe	0.024458762
30	0xbcc13ab0	-0.023587555
31	0x3c77e74e	0.015130831
32	0xbd67d812	-0.056602545
33	0x3d35f4d7	0.04442295
34	0x3d1a8ff6	0.037734948
35	0x3cf0ac69	0.029379087
36	0xbc1b46b0	-0.009477302
37	0xbbd4933d	-0.0064872787
38	0x3ce05cc8	0.027387992
39	0x3d052414	0.03250511
40	0x3d2510c9	0.04029921
41	0x3aa90862	0.0012896175
42	0x3d30013f	0.04296994
43	0x3d5c8d13	0.053845476
44	0x3b5d56cb	0.0033773656
45	0xbc801f87	-0.015640033
46	0x3cf362c1	0.029710175
47	0xbd4c1f66	-0.04983463
48	0xbd3af495	-0.045643408
49	0xbcae9487	-0.021311058
50	0xbc805792	-0.015666757
51	0x3d25b123	0.040452134
52	0x3d28e82b	0.041237038
53	0x3d5f2570	0.054479063
54	0x3cab7e52	0.020934258
55	0x3d1fb8da	0.038994648
56	0xbc4db716	-0.012555858
57	0x3cd5dff7	0.026107771
58	0x3c4f3eff	0.012649297
59	0x3d42d88c	0.047569796
60	0x3cf5a95f	0.029987989
61	0x3cf82b27	0.030294014
62	0xbcdff18e	-0.027336862
63	0x3ccda0c4	0.025101073
64	0x3ca828c2	0.020527247
65	0x3d352fce	0.044235043
66	0x3d156f88	0.036483318
67	0x3d1f5d0e	0.038907103
68	0x3cb86a99	0.022511767
69	0xbd06d36a	-0.032916464
70	0xbd24cfb9	-0.040237162
71	0xbcf90a32	-0.03040037
72	0x3c34c125	0.011032377
73	0x3ca4d9c3	0.020123368
74	0x3d5aded7	0.053435173
75	0x3c8c1ba5	0.017103026
76	0x3cc546e8	0.024081662
77	0x3cdee718	0.027209803
78	0x3b146e05	0.0022648585
79	0xbd03db14	-0.03219135
80	0x3c4601d3	0.012085396
81	0xbc394224	-0.011307273
82	0x3d7a00e3	0.061036002
83	0xbcc3ee11	-0.02391723
84	0xbcf49b45	-0.029859195
85	0x3d2ed361	0.042682055
86	0xba563984	-0.00081720226
87	0xbd007722	-0.031363614
88	0x3d08ef3c	0.033431277
89	0xbc9bef41	-0.019034984
90	0x3c153ceb	0.009108762
91	0xbc276952	-0.010217981
92	0x3c5647b8	0.0130786225
93	0xbd34ff2f	-0.044188675
94	0xbd84a1fb	-0.06476208
95	0x3d635216	0.055498205
96	0xbd06f4d0	-0.032948315
97	0x3adf8171	0.0017052126
98	0x3c8ce997	0.017201228
99	0xbd053797	-0.032523718
100	0x3c2ccf57	0.010547481
101	0xbd1c5665	-0.03816833
102	0x3d600cf8	0.054699868
103	0x3c8fb651	0.01754299
104	0xbd5bfcaa	-0.053707756
105	0x3d27cd0d	0.040967036
106	0x3cdc040b	0.026857397
107	0x3c9c984b	0.019115588
108	0x3d2d8510	0.042363226
109	0x3d5f625f	0.054537173
110	0x3ce5845e	0.02801722
111	0xbd5d9912	-0.054101057
112	0x3cba3f3c	0.02273523
113	0x3cf5875b	0.02997177
114	0xbcf47b66	-0.029843997
115	0x3cad51e5	0.021157214
116	0xbbc6b886	-0.0060644774
117	0x3d03ec29	0.03220764
118	0x3d042aea	0.03226749
119	0x3c6a42be	0.014298139
120	0x3cbce071	0.02305624
121	0x3a243fbf	0.00062656024
122	0x3c8865e6	0.016650151
123	0xbc56f628	-0.013120212
124	0x3c9e27b2	0.019306038
125	0x3b9f13e7	0.0048546675
126	0x3cb5b09c	0.02217894
127	0x3cae8a6f	0.021306245

action_model._discrete_distribution.branches.0.weight f4 [3, 128]
0	0x3c949ec0	0.018142104
1	0x3d8eddfd	0.06975935
2	0x3bf6bbb4	0.0075297
3	0xbd234492	-0.039860316
4	0xbbc720b1	-0.006076895
5	0x3d5f5d3a	0.054532267
6	0xbcfa802f	-0.0305787
7	0x3d080cfa	0.0332155
8	0xbcef594f	-0.02921739
9	0xbd9e62e1	-0.077337034
10	0x3d0aaadd	0.033854354
11	0x3d2268b4	0.039650634
12	0x3ce52153	0.027969992
13	0xbd56e1b3	-0.052461337
14	0xbd6e84cf	-0.058232125
15	0xbc608476	-0.013703456
16	0xbd44d180	-0.048051357
17	0xbd30fcd4	-0.043209866
18	0x3c0cc337	0.008591465
19	0x3d769b11	0.060206477
20	0xbca0ffa2	-0.019653145
21	0xbd43cfb9	-0.04780552
22	0x3d032754	0.032019928
23	0xbd03efba	-0.032211043
24	0x3c9bf534	0.01903782
25	0x3cfb6a09	0.03069021
26	0x3d040509	0.032231364
27	0xbd18032a	-0.037112392
28	0xbd6e44da	-0.05817113
29	0x3b71fd16	0.0036924533
30	0xbd2fb127	-0.042893555
31	0x3cac8368	0.021058753
32	0xbd545931	-0.051842872
33	0x3dbd689f	0.092484705
34	0x3da50e4a	0.08059366
35	0x3e086836	0.13321003
36	0x3c84fdd3	0.016234314
37	0x3de28b4a	0.110617235
38	0x3cc02b0b	0.023458024
39	0x3d743bb8	0.059627265
40	0x3c8710b7	0.016487462
41	0x3acd093d	0.0015643012
42	0x3d82ebcf	0.06392633
43	0x3de7bf07	0.113157324
44	0xbc71e526	-0.014764106
45	0xbc5cf7df	-0.013486831
46	0xbd941a94	-0.07231632
47	0xbd6c7875	-0.057732064
48	0xbd3fe340	-0.046847582
49	0xbd33eb46	-0.043925546
50	0xbd0a2cf1	-0.033734266
51	0x3dafc3b3	0.085822485
52	0x3d4b8d27	0.04969516
53	0x3d8919ee	0.06694399
54	0xbc99cb19	-0.018773602
55	0x3d624c5d	0.055248607
56	0xbd17fc8b	-0.037106078
57	0x3780cef6	1.5355163e-05
58	0x3c8a73a8	0.016900852
59	0x3d054072	0.032532163
60	0x3c1d8b69	0.0096157575
61	0x3e1ba77a	0.15200606
62	0xbd299a0b	-0.041406672
63	0x3dbbb1a3	0.09164741
64	0x3d1b1319	0.03786001
65	0x3d9bc81e	0.07606529
66	0x3d9a98b1	0.07548655
67	0x3d719263	0.058977496
68	0x3cc37a65	0.023862073
69	0xbd5bf718	-0.053702444
70	0xbce3bd4e	-0.027800228
71	0xbd540e43	-0.051771414
72	0x3e0ceae4	0.13761479
73	0x3c95b4cd	0.01827469
74	0x3d81253d	0.06305931
75	0x3c1f4273	0.009720433
76	0x3d0da698	0.034582704
77	0x3c5eb4cd	0.013592911
78	0xbda92fbe	-0.08261059
79	0xbd41382c	-0.04717271
80	0xbdca6d75	-0.098841585
81	0x3bb02a86	0.005376163
82	0x3c3b5921	0.011434824
83	0xbd2edf8d	-0.042693663
84	0xbd083133	-0.033250045
85	0x3d3dc5da	0.046331264
86	0x3c8e3bcb	0.017362496
87	0xbd8f7665	-0.07005004
88	0x3cec99b6	0.028881889
89	0xbc9ac10e	-0.018890884
90	0x3bf7452b	0.0075460873
91	0xbcbe4a1f	-0.023228703
92	0x3cb762ab	0.022385916
93	0xbd40f3fc	-0.04710768
94	0xbd5f6d86	-0.05454781
95	0x3dd654a1	0.104653604
96	0xbd1edbad	-0.038783718
97	0x3e191ddc	0.14952797
98	0xbc019b12	-0.007910507
99	0xbd178e10	-0.037000716
100	0x3da02b4d	0.07820759
101	0xbd17cb33	-0.03705902
102	0x3d40c5e3	0.04706372
103	0x3d1f57fe	0.038902275
104	0xbd4d5777	-0.05013224
105	0x3cc1243e	0.023576852
106	0x3cb706d3	0.022342121
107	0xbbe90e86	-0.007112327
108	0x3d538499	0.051640127
109	0xbce3b0d3	-0.027794277
110	0x3c568737	0.013093761
111	0xbd40dc8f	-0.04708534
112	0x3c74072e	0.01489429
113	0x3d23345d	0.03984486
114	0xbd184587	-0.03717568
115	0xbda14bd9	-0.07875795
116	0x3c89b8e2	0.016811792
117	0x3d412e8d	0.047163535
118	0x3d23e9c3	0.040017854
119	0x3ca0bc65	0.019621084
120	0x3ce91ec0	0.028457046
121	0xbd0881d3	-0.033326935
122	0x3d08f353	0.033435177
123	0x3c6cfd71	0.014464722
124	0x3c1a9b06	0.0094363745
125	0x3d25563a	0.040365435
126	0xbd989c1f	-0.07451653
127	0x3cc76d8d	0.02434423
128	0x3d7ba2fc	0.06143473
129	0xbc7e5637	-0.015523485
130	0xbd5bb788	-0.053641826
131	0xbb7c02a9	-0.0038453734
132	0x3d4575ab	0.04820792
133	0xbb0aed81	-0.0021198692
134	0xbcc67c2f	-0.024229137
135	0x3cd26cca	0.02568664
136	0xbceec458	-0.029146358
137	0x3dca3d41	0.098749645
138	0x3bc7c0cc	0.006095981
139	0x3b53144a	0.0032208138
140	0x3d0f61c9	0.035005365
141	0xbc272842	-0.010202469
142	0x3d2ee6b5	0.042700488
143	0x3d80e812	0.06294264
144	0x3d62e771	0.0553965
145	0xbc9bd7fb	-0.019023886
146	0x3cd0ca79	0.025487171
147	0xbc605703	-0.01369262
148	0xbcf2f057	-0.029655619
149	0xbcaf4248	-0.02139391
150	0xbcabe279	-0.020982014
151	0xbccd0775	-0.02502797
152	0x3ccc8f2d	0.024970615
153	0xbd8b96a9	-0.068158455
154	0x3cf38d0b	0.02973034
155	0xbc035660	-0.008016199
156	0x3cb3dc79	0.021955715
157	0x3d7e7892	0.062126704
158	0xbbb65c33	-0.00556519
159	0x3d3925c9	0.04520205
160	0xbb613242	-0.0034362231
161	0xbdca387e	-0.09874056
162	0xbd2e6e47	-0.042585637
163	0xbe0e4f03	-0.13897328
164	0xbd3500c6	-0.04419019
165	0xbdbc3ed0	-0.09191668
166	0x3d4315cf	0.04762822
167	0xbd13dae7	-0.036097433
168	0x3d22a108	0.039704353
169	0x3d114842	0.0354693
170	0x3c23ecf0	0.010005221
171	0xbde645d2	-0.11243786
172	0xbd19f6c7	-0.03758886
173	0xbd127fe4	-0.035766497
174	0x3db375b4	0.087626845
175	0xbc6754ba	-0.0141193215
176	0xbc8a5d15	-0.016890088
177	0x3c545822	0.012960466
178	0xbcafcbac	-0.021459423
179	0xbd8206ca	-0.06348951
180	0x3c94df86	0.01817299
181	0x3cfa86b2	0.030581806
182	0x3d4ddb9e	0.05025827
183	0x3cbd8461	0.023134412
184	0xbc1dd7d8	-0.009633981
185	0x3d9edc23	0.077568315
186	0x3cfa9091	0.030586513
187	0x3bb04bd6	0.005380134
188	0x3ca37522	0.019953314
189	0xbe17f642	-0.14840034
190	0xbc3650b8	-0.011127643
191	0xbda17c65	-0.078850545
192	0x3c6aaf85	0.014324074
193	0xbd0aa552	-0.033849068
194	0xbd0e5711	-0.034751
195	0xbd5dcad0	-0.054148495
196	0x3c995bfa	0.018720616
197	0xbc7c4ca5	-0.015399133
198	0xbc23532b	-0.009968559
199	0xbcd3c78f	-0.025851993
200	0xbdf5fdbb	-0.12011286
201	0x3d04c775	0.03241678
202	0xbc898b52	-0.016790066
203	0x3ccc9fd9	0.024978565
204	0x3d1b267c	0.0378785
205	0x3c40ef32	0.011775779
206	0x3d57b5db	0.052663665
207	0xbbf35fae	-0.0074271774
208	0x3decc73c	0.115614384
209	0x3c1ab080	0.009441495
210	0x3d0565eb	0.0325679
211	0xbc13399f	-0.008985906
212	0xbc272dad	-0.010203761
213	0x3c5b60ae	0.013389749
214	0xbda85392	-0.08219065
215	0x3c188d28	0.009310998
216	0x3ca2487c	0.019809954
217	0xbc605f1e	-0.013694553
218	0x3d935fe0	0.07196021
219	0xbd07e7b5	-0.033179957
220	0x3d2863b6	0.041110717
221	0x3ba252e2	0.004953728
222	0x3c9fccf0	0.019506902
223	0xbdd3b021	-0.10336328
224	0xbd0bbce4	-0.034115687
225	0xbdb34310	-0.087530255
226	0x3d7815a7	0.060567524
227	0xbca2dfc2	-0.019882087
228	0xbdf79232	-0.120884314
229	0xbcb5b060	-0.022178829
230	0x3c6220b7	0.013801745
231	0x3c9f1dd7	0.019423408
232	0xbc867b9d	-0.016416365
233	0x3d6a54ae	0.057209663
234	0x3c963fae	0.018340912
235	0x3d68c226	0.05682578
236	0x3c264ad9	0.010149681
237	0x3d3e4548	0.04645279
238	0x3d3558d1	0.044274155
239	0x3bbfe793	0.005856463
240	0x3ce9597c	0.028485052
241	0xbb146899	-0.0022645353
242	0xbc78f000	-0.015193939
243	0x3d872a82	0.065999046
244	0xbd763c5a	-0.06011615
245	0xbdb3328a	-0.08749874
246	0x3c0280ba	0.007965261
247	0x3b1332bd	0.0022460662
248	0x3d1be7fe	0.038063042
249	0x3a87c59d	0.0010358576
250	0x3c04dd87	0.008109457
251	0xbd6ee045	-0.05831935
252	0x3d390fe6	0.045181178
253	0xbd9eadbc	-0.07747981
254	0x3d9ca750	0.076491
255	0xbc1941c2	-0.009354057

action_model._discrete_distribution.branches.0.bias f4 [3]
0	0x3d3c0188	0.045899898
1	0x3a8ae4ec	0.0010596788
2	0xbd49dc3d	-0.0492823

action_model._discrete_distribution.branches.1.weight f4 [3, 128]
0	0x3d4a2ca0	0.049358964
1	0x3d351805	0.04421236
2	0xbd8404d9	-0.06446237
3	0xbcca9bde	-0.024732526
4	0x3d0fb7a9	0.03508726
5	0x3d682c6f	0.056683
6	0xbd254e86	-0.04035809
7	0x3d664e68	0.056227118
8	0xbd090db6	-0.03346034
9	0xbd2e8735	-0.042609412
10	0x3d3693b9	0.044574473
11	0x3ce681e5	0.02813811
12	0x3d60a545	0.054845113
13	0xbd0213c5	-0.031757135
14	0xbb8446f6	-0.0040367795
15	0x3d152a64	0.03641738
16	0x3bda5008	0.0066623725
17	0xbd0899c3	-0.033349764
18	0x3cd8ea29	0.026478844
19	0x3c93b13e	0.018028852
20	0xbd106bb1	-0.035258953
21	0xbcdaebc6	-0.026723754
22	0x3d5184f9	0.051152203
23	0xbd0da728	-0.03458324
24	0x3d17718c	0.03697352
25	0xbd35fbf2	-0.044429727
26	0x3cd47590	0.025934964
27	0xbd0d65ca	-0.0345209
28	0xbcc2aca3	-0.02376396
29	0x3d4abbae	0.04949539
30	0xbd2b7c76	-0.041866742
31	0x3d2294c2	0.039692648
32	0xbc882d25	-0.01662309
33	0x3d83021d	0.063968875
34	0x3d89b6dc	0.06724331
35	0x3d22aa1d	0.039713014
36	0xbd5993ae	-0.053119354
37	0xbdb12097	-0.08648794
38	0x3d33b9af	0.043878254
39	0x3d443897	0.04790553
40	0x3d079b6a	0.0331072
41	0x3c97a2e9	0.018510299
42	0x3cd3fc6e	0.025877204
43	0xbcddbc70	-0.027067393
44	0xbd6c2763	-0.05765475
45	0xbd4b499e	-0.049630754
46	0x3cda8022	0.026672427
47	0xbd0881ff	-0.0333271
48	0xbd1f1acc	-0.038843915
49	0xbd20d86a	-0.03926889
50	0xbd282e39	-0.041059706
51	0x3c527e33	0.012847471
52	0x3cce29d8	0.025166437
53	0x3d229adf	0.039698478
54	0x3d5c2490	0.053745806
55	0x3c842ecc	0.016135596
56	0xbd27baac	-0.04094951
57	0x3d32fa24	0.043695584
58	0x3d46f271	0.048571054
59	0x3d1dcf76	0.03852793
60	0x3d07c630	0.03314799
61	0xbd7de026	-0.061981343
62	0xbd06b351	-0.032885853
63	0xbcf7e09f	-0.030258475
64	0x3d004cf3	0.031323384
65	0x3b8affbf	0.004241913
66	0x3d2ad34e	0.041705422
67	0x3d3b0401	0.045658115
68	0x3d197033	0.037460517
69	0xbd22f147	-0.03978088
70	0xbcfb367d	-0.03066563
71	0xbccb87d6	-0.024845045
72	0xbcab18e6	-0.020885896
73	0x3cc3df88	0.023910299
74	0x3c9e7984	0.019345053
75	0x3d1a7643	0.03771044
76	0x3d056a07	0.03257182
77	0x3d1af3ee	0.037830286
78	0xbd09d99e	-0.0336548
79	0xbcbbc1a2	-0.02291948
80	0xbc9dd3dd	-0.019266063
81	0x3cf7d7aa	0.030254204
82	0xbd3ce895	-0.046120245
83	0xbd263751	-0.040580098
84	0xbcf6bcdb	-0.03011935
85	0x3cbc0377	0.02295087
86	0xbd4070a6	-0.04698243
87	0xbca00fa9	-0.019538717
88	0x3cb229a3	0.02174837
89	0xbd30e2dd	-0.043185104
90	0x3d173e45	0.03692462
91	0xbd44a208	-0.048006088
92	0x3cfb2015	0.030654946
93	0xbc8c2539	-0.017107593
94	0xbcd2364e	-0.02566066
95	0xbc498f72	-0.012302266
96	0xbccb42d2	-0.024812136
97	0xbd4a707e	-0.049423687
98	0x3d41169d	0.047140706
99	0xbcd20da4	-0.02564127
100	0xbd669ae4	-0.05630006
101	0xbceb9b34	-0.02876053
102	0xbb503139	-0.003176762
103	0x3d444940	0.04792142
104	0xbd06335d	-0.032763828
105	0xbc347b9f	-0.011015802
106	0x3d589284	0.052874103
107	0x3d2ff968	0.04296246
108	0x3d061251	0.03273231
109	0x3c0a3821	0.008436234
110	0x3d4aaa0e	0.049478583
111	0xbd06ec1b	-0.03294001
112	0x3ce1cf9c	0.027564816
113	0x3d8dce0e	0.069240674
114	0xbc3d2a65	-0.011545752
115	0x3ce27fb7	0.02764879
116	0xbce84a38	-0.028355703
117	0xbd6986c7	-0.0570133
118	0x3d2ddab3	0.042444896
119	0x3da6f12f	0.08151471
120	0x3cd6cc87	0.026220573
121	0xbca27723	-0.0198322
122	0x3d8421e0	0.06451774
123	0xbd042a6e	-0.032267027
124	0x3d0e6b12	0.03477008
125	0xbd57d4df	-0.052693244
126	0x3d60d0fa	0.054886796
127	0x3d72a342	0.059237726
128	0xbc858a90	-0.016301423
129	0x3cbe689a	0.023243237
130	0x3dbd744d	0.09250698
131	0x3b116a39	0.0022188558
132	0xbd72a1c0	-0.059236288
133	0xbd568cd5	-0.0523804
134	0xbaed95ba	-0.0018126287
135	0xbd36868e	-0.044561915
136	0x3c5db2c9	0.013531395
137	0x3cf934cf	0.030420689
138	0x3d0f1d57	0.03494009
139	0xbc06de5d	-0.0082317265
140	0xbd308b17	-0.043101396
141	0x3c838f3e	0.016059514
142	0x3cd0d0d7	0.025490208
143	0xbd2f582c	-0.042808697
144	0xbd4c68df	-0.0499047
145	0x3c6828ab	0.014169852
146	0xbc14b1c9	-0.00907559
147	0x3d6d86bb	0.057989817
148	0x3a901447	0.0010992371
149	0x3cb021f0	0.021500558
150	0xbda70002	-0.08154298
151	0x3d52d678	0.051474065
152	0x3c31b0e0	0.010845393
153	0xbbf145e2	-0.007363067
154	0x3cdeb33c	0.027185075
155	0x3c2153f7	0.009846679
156	0xbc0493be	-0.008091865
157	0xbc31c272	-0.010849582
158	0x3c66ee3c	0.014094885
159	0xbc266100	-0.010154963
160	0xbbe24825	-0.006905573
161	0xbe1f3130	-0.15546107
162	0xbd7886e4	-0.060675517
163	0xbc84f530	-0.016230196
164	0x3d473d85	0.048642654
165	0x3df22387	0.118231826
166	0x3d5e7b43	0.05431677
167	0xbd21b260	-0.039476752
168	0x3c55783b	0.013029153
169	0xbd308df6	-0.043104135
170	0x3d21fd92	0.039548464
171	0x3dad607f	0.08465671
172	0x3cebc43f	0.0287801
173	0x3dc11e43	0.094296
174	0x3cd58df3	0.026068663
175	0x3a4b5f92	0.00077580765
176	0xbbae18ee	-0.0053130304
177	0x3c1e39b3	0.009657311
178	0x3d3f5096	0.046707712
179	0x3d1668ca	0.03672103
180	0x3d7ed98f	0.0622192
181	0xbb7b63d4	-0.0038359063
182	0x3cde49e7	0.027134849
183	0x3d3927d6	0.045204006
184	0x3cc9e544	0.024645455
185	0x3c800c40	0.015630841
186	0x3c8004e2	0.015627328
187	0x3cbeaae5	0.023274848
188	0x3d55ef8d	0.052230407
189	0x3e04faff	0.12986372
190	0xbb63ddde	-0.0034769694
191	0x3da6c1bd	0.081424214
192	0xbd204fba	-0.039138533
193	0x3d9f494d	0.07777653
194	0xbd313e7f	-0.04327249
195	0x3d16e2a3	0.03683723
196	0xbd0b2855	-0.03397401
197	0xbcfffc5d	-0.031248266
198	0x3c0a4546	0.008439368
199	0x3c5e953e	0.013585387
200	0x3d924be0	0.07143378
201	0x3d04edb7	0.032453265
202	0x3d1fa903	0.03897954
203	0x3caef2f9	0.021356093
204	0xbcbd4ca5	-0.023107836
205	0x3ca13b89	0.019681709
206	0xbd8b2396	-0.06793897
207	0xbcb544b4	-0.022127487
208	0x3c55c97e	0.013048528
209	0xbd0b0a8a	-0.033945598
210	0x3d93a625	0.07209424
211	0x3c5bcc9b	0.013415481
212	0xbc1232f5	-0.008923282
213	0x3cc63cb0	0.02419886
214	0x3cd8d89f	0.02647048
215	0xbac884d4	-0.0015298375
216	0x3bfd6aab	0.007733663
217	0x3cb14d6c	0.021643363
218	0x3c9a6d0d	0.018850828
219	0x3d5fdbfa	0.054653145
220	0x3cc5c395	0.024141112
221	0xbc47d885	-0.012197618
222	0xbca2d01f	-0.01987463
223	0x3daad591	0.08341516
224	0xbc8d9c63	-0.017286485
225	0x3db1ff02	0.08691217
226	0xbd130a9e	-0.035898797
227	0x3c18ee9b	0.009334232
228	0x3d96b2f4	0.07358351
229	0x3c825469	0.01590939
230	0x3d8840ad	0.06652961
231	0xbd6c1683	-0.057638656
232	0xbc896a63	-0.016774362
233	0x3d7f09c2	0.062265165
234	0xbce4c83a	-0.027927507
235	0xbcb01656	-0.021495026
236	0xbca6eca5	-0.020376513
237	0x3dd0998d	0.101855375
238	0x3bde66d7	0.006787162
239	0xbd26acfa	-0.040692307
240	0x3b654626	0.0034984439
241	0xbd4f95bb	-0.050679903
242	0xbcbd11b4	-0.02307973
243	0xbda58ea5	-0.08083848
244	0xbd0cda85	-0.034388084
245	0x3c8c8ab8	0.01715599
246	0xbb8c091c	-0.004273547
247	0xbd9573db	-0.07297488
248	0xbc402637	-0.011727861
249	0xbc875df3	-0.01652429
250	0xbdcc6c4d	-0.09981594
251	0x3cedec6e	0.029043403
252	0x3ce360f8	0.0277562
253	0xbbacb019	-0.005270016
254	0xbd958150	-0.07300055
255	0xbc9ca940	-0.019123673

action_model._discrete_distribution.branches.1.bias f4 [3]
0	0x3cc5383d	0.024074668
1	0xbbbfb771	-0.0058507253
2	0xbcd7a609	-0.026324289

exp_avg f4 [128, 36]
0	0x393b4aa6	0.00017861518
1	0xba21aea0	-0.0006167684
2	0x00000000	0.0
3	0xb8d94391	-0.000103599516
4	0xb8b48e4c	-8.609574e-05
5	0xb931b0ae	-0.00016945854
6	0xb9b34c49	-0.00034198377
7	0x00000000	0.0
8	0xb7fe4316	-3.0310399e-05
9	0xb9146e00	-0.00014155358
10	0xb9d3e231	-0.00040413582
11	0xb97beca7	-0.00024025385
12	0x00000000	0.0
13	0x38d73ee6	0.00010263715
14	0xb792fb31	-1.7521526e-05
15	0xba1e5729	-0.00060402096
16	0x3901b117	0.0001236837
17	0x00000000	0.0
18	0xb880cc29	-6.1415434e-05
19	0xb91a41d4	-0.00014711107
20	0xb9f5d349	-0.0004688746
21	0x389ff51e	7.6273674e-05
22	0x00000000	0.0
23	0xb91c659b	-0.0001491517
24	0x38c5a4c2	9.4243806e-05
25	0xb9b33727	-0.00034182632
26	0xb92a3751	-0.0001623307
27	0x00000000	0.0
28	0xb81db052	-3.7595928e-05
29	0xb90ad214	-0.00013238966
30	0xb9a5b919	-0.0003160916
31	0xb98ab594	-0.00026456697
32	0x00000000	0.0
33	0x38232ef8	3.890597e-05
34	0x392cfb1d	0.00016496745
35	0xb90d2f9e	-0.00013464547
36	0xb7991ef9	-1.8253444e-05
37	0xb94eaa37	-0.00019709101
38	0x00000000	0.0
39	0x372af410	1.0189615e-05
40	0xb68c4466	-4.1802878e-06
41	0x386d54d6	5.6584213e-05
42	0xb973829e	-0.00023222945
43	0x00000000	0.0
44	0xb7f78b46	-2.9509549e-05
45	0xb6b7fa9d	-5.483e-06
46	0x38883d23	6.496373e-05
47	0xb976876f	-0.00023510841
48	0x00000000	0.0
49	0xb812d7e4	-3.5010176e-05
50	0xb7342a23	-1.0738647e-05
51	0xb968982e	-0.00022181935
52	0x37e9afd0	2.7857634e-05
53	0x00000000	0.0
54	0xb73bc9b8	-1.1193035e-05
55	0xb71fb5eb	-9.519495e-06
56	0x37e217d1	2.695239e-05
57	0xb97de04b	-0.00024211516
58	0x00000000	0.0
59	0x3727e7b9	1.0007928e-05
60	0xb7b6fd61	-2.181408e-05
61	0xb98c447f	-0.00026753914
62	0x3874c36d	5.8356138e-05
63	0x00000000	0.0
64	0x36872a99	4.0282725e-06
65	0xb74476b2	-1.1710146e-05
66	0x389a1006	7.346277e-05
67	0xb98bb07c	-0.00026643637
68	0x00000000	0.0
69	0xb74c5ddf	-1.2181204e-05
70	0xb841ca67	-4.6203288e-05
71	0x397065a2	0.00022926045
72	0x37f74d90	2.9480812e-05
73	0xb8d6a92b	-0.00010235825
74	0x00000000	0.0
75	0xb7e49f84	-2.7253998e-05
76	0xb8b4d9ca	-8.623635e-05
77	0xb931c654	-0.00016953918
78	0x3776bb0f	1.4706296e-05
79	0x00000000	0.0
80	0x38656f4d	5.470151e-05
81	0xb8a9ca98	-8.096284e-05
82	0xb9191c76	-0.0001460182
83	0x36f9eefb	7.4485993e-06
84	0x00000000	0.0
85	0x382138b0	3.8438186e-05
86	0xb8939879	-7.0379065e-05
87	0xb8e96099	-0.000111282985
88	0x36c81dcf	5.9639347e-06
89	0x00000000	0.0
90	0x36ae115c	5.187625e-06
91	0xb87c00ef	-6.008235e-05
92	0xb92adab3	-0.00016293935
93	0x38e58ec1	0.00010946161
94	0x00000000	0.0
95	0xb843adfd	-4.6653662e-05
96	0xb8768120	-5.8771227e-05
97	0xb6fc6b97	-7.5227103e-06
98	0xb8b31ad1	-8.54038e-05
99	0x00000000	0.0
100	0xb6f1c1bc	-7.2049133e-06
101	0xb8582c61	-5.1539744e-05
102	0xb9625f2e	-0.00021588497
103	0x38f27595	0.000115613606
104	0x00000000	0.0
105	0x341642df	1.3994166e-07
106	0xb7fe7af6	-3.0336418e-05
107	0x36dcb788	6.577877e-06
108	0x38b35474	8.551116e-05
109	0x39774209	0.00023580356
110	0x00000000	0.0
111	0x388b6e75	6.648611e-05
112	0x38d551e5	0.000101718855
113	0x394632c5	0.00018901665
114	0x3944c1d4	0.00018764223
115	0x00000000	0.0
116	0x373aee86	1.11419995e-05
117	0x381c89fd	3.732181e-05
118	0x389cdf39	7.480238e-05
119	0x39994dfb	0.00029240534
120	0x00000000	0.0
121	0x37acbf95	2.059321e-05
122	0x38dbd801	0.000104829676
123	0x39d980fe	0.00041485572
124	0xb82debbe	-4.1465966e-05
125	0x00000000	0.0
126	0x3771c728	1.4411089e-05
127	0x37d3cb2c	2.524777e-05
128	0x391714d8	0.00014408247
129	0x3924d801	0.00015720727
130	0x00000000	0.0
131	0x38b56d4e	8.651112e-05
132	0x39004bd2	0.00012235277
133	0x39d6048b	0.00040820646
134	0x373a4f71	1.110496e-05
135	0x00000000	0.0
136	0xb8042a1e	-3.1510477e-05
137	0x37e6801c	2.7477792e-05
138	0x391a1c06	0.00014697024
139	0x39659616	0.00021895053
140	0x00000000	0.0
141	0x37b78b33	2.188012e-05
142	0x38ef8af1	0.00011422288
143	0xb944681c	-0.000187308
144	0xb9427de4	-0.0001854818
145	0x399ce375	0.00029924107
146	0x00000000	0.0
147	0x388b97c1	6.656303e-05
148	0x377385f3	1.4515116e-05
149	0xb8014e98	-3.0829193e-05
150	0x393cf2ce	0.00018019529
151	0x00000000	0.0
152	0x3801d718	3.095632e-05
153	0x381abe74	3.6893834e-05
154	0x3800fe86	3.075462e-05
155	0x392b61fd	0.00016344334
156	0x00000000	0.0
157	0xb768cb2e	-1.3875584e-05
158	0xb6d72a20	-6.4124033e-06
159	0x38c1043e	9.203747e-05
160	0x383e5108	4.5374996e-05
161	0x00000000	0.0
162	0x3833fa55	4.2910066e-05
163	0x38635915	5.420398e-05
164	0x38debcca	0.000106209496
165	0xb68ed308	-4.256497e-06
166	0x00000000	0.0
167	0x38a45a42	7.836941e-05
168	0xb8822273	-6.2053e-05
169	0x38c41cce	9.3513736e-05
170	0x388fe2d3	6.861021e-05
171	0x00000000	0.0
172	0x3798a8e6	1.8198461e-05
173	0x38831b31	6.2516316e-05
174	0x37ddef07	2.6456559e-05
175	0x39345da2	0.00017201019
176	0x00000000	0.0
177	0xb79834ca	-1.8144394e-05
178	0xb8cd4e4e	-9.789747e-05
179	0x38d9687f	0.0001036683
180	0x38e4583b	0.000108883214
181	0xb9d7f555	-0.00041190782
182	0x00000000	0.0
183	0xb8265e6f	-3.9665432e-05
184	0x38258d06	3.9470404e-05
185	0x38a4d6fa	7.860172e-05
186	0xb9bc1e56	-0.00035880756
187	0x00000000	0.0
188	0xb88309fb	-6.248426e-05
189	0x36eb8403	7.018914e-06
190	0xb7eaca3d	-2.7989148e-05
191	0xb9a7c3b4	-0.00031998532
192	0x00000000	0.0
193	0x36b150a7	5.2844002e-06
194	0x38943989	7.067907e-05
195	0xb99e7ccd	-0.00030229092
196	0x33922585	6.8054796e-08
197	0x00000000	0.0
198	0xb829bb72	-4.0467312e-05
199	0xb75902b2	-1.29348355e-05
200	0xb8491bec	-4.794814e-05
201	0xb95982af	-0.00020743416
202	0x00000000	0.0
203	0xb8b718fe	-8.730775e-05
204	0x38faf360	0.00011966261
205	0xb981b138	-0.00024736836
206	0xb8c3bbd4	-9.33331e-05
207	0x00000000	0.0
208	0xb60574e6	-1.9886588e-06
209	0xb7e3419e	-2.7091064e-05
210	0x39066fa5	0.00012820827
211	0xb9fd1a61	-0.00048275574
212	0x00000000	0.0
213	0x3746ee6a	1.185723e-05
214	0x390aba99	0.00013230219
215	0x38a40a71	7.822074e-05
216	0xb8935dbf	-7.026968e-05
217	0x38718667	5.758405e-05
218	0x00000000	0.0
219	0x37480639	1.1922378e-05
220	0xb83ed5d2	-4.5498666e-05
221	0xb96be0b0	-0.00022495049
222	0x39211a91	0.00015364053
223	0x00000000	0.0
224	0x3893f279	7.05467e-05
225	0xb70c333a	-8.356577e-06
226	0xb9391a47	-0.00017652764
227	0x38e49f34	0.00010901541
228	0x00000000	0.0
229	0x388bfb94	6.6748966e-05
230	0xb7f599cc	-2.9277893e-05
231	0xb8a1664d	-7.696133e-05
232	0x3870f501	5.7448637e-05
233	0x00000000	0.0
234	0x379d4819	1.8749432e-05
235	0x3776b077	1.4703829e-05
236	0xb91e5b74	-0.00015102123
237	0x391e13a1	0.00015075367
238	0x00000000	0.0
239	0xb5051144	-4.9571486e-07
240	0xb8800a54	-6.1054394e-05
241	0xb7051929	-7.933276e-06
242	0xb6b861c4	-5.4950087e-06
243	0x00000000	0.0
244	0x37547ba5	1.2664973e-05
245	0x3659c630	3.245088e-06
246	0xb938f92f	-0.00017640436
247	0x393a83b2	0.00017787403
248	0x00000000	0.0
249	0xb615d9dc	-2.232954e-06
250	0xb8469d2f	-4.7353267e-05
251	0x38b5ac09	8.6627966e-05
252	0xb77b7398	-1.498768e-05
253	0x398415aa	0.00025193143
254	0x00000000	0.0
255	0x37e1ffc2	2.6941187e-05

exp_avg_sq f4 [128, 36]
0	0x365a7b8e	3.255645e-06
1	0x36d1545c	6.238506e-06
2	0x00000000	0.0
3	0x3534290a	6.7114945e-07
4	0x36299698	2.527062e-06
5	0x3694dc2e	4.436376e-06
6	0x36aa400e	5.0738518e-06
7	0x00000000	0.0
8	0x35286401	6.27304e-07
9	0x3624d534	2.4562005e-06
10	0x36a2081b	4.82892e-06
11	0x36a048eb	4.7768604e-06
12	0x00000000	0.0
13	0x3528f293	6.293787e-07
14	0x3621a7d5	2.408856e-06
15	0x36e3cdbf	6.789079e-06
16	0x36324111	2.656194e-06
17	0x00000000	0.0
18	0x350b79c6	5.195874e-07
19	0x3619c979	2.291605e-06
20	0x36fdb06b	7.5605253e-06
21	0x3610d603	2.1582243e-06
22	0x00000000	0.0
23	0x3507c2d4	5.057493e-07
24	0x360c9524	2.0948437e-06
25	0x3714e3c8	8.874522e-06
26	0x357b277a	9.356223e-07
27	0x00000000	0.0
28	0x34a07d98	2.9893704e-07
29	0x361142e7	2.1645626e-06
30	0x37029059	7.782212e-06
31	0x36025e3a	1.9426357e-06
32	0x00000000	0.0
33	0x34ad8e5e	3.2327347e-07
34	0x35f0ecca	1.7950308e-06
35	0x36f30491	7.242496e-06
36	0x34f33571	4.530116e-07
37	0x34d49eec	3.9603708e-07
38	0x00000000	0.0
39	0x337050f8	5.5952995e-08
40	0x3437f8b4	1.7133681e-07
41	0x3502a7e8	4.867311e-07
42	0x34c51bc3	3.671431e-07
43	0x00000000	0.0
44	0x33346f9c	4.2011024e-08
45	0x341f5fd5	1.4842892e-07
46	0x34c68b58	3.698176e-07
47	0x34edc675	4.4289087e-07
48	0x00000000	0.0
49	0x33978d65	7.057205e-08
50	0x345690d0	1.9982986e-07
51	0x35436b81	7.27996e-07
52	0x34131456	1.369784e-07
53	0x00000000	0.0
54	0x32ed6cc5	2.7639894e-08
55	0x340d55a9	1.3162811e-07
56	0x349ea76f	2.9551617e-07
57	0x350ba0b1	5.201537e-07
58	0x00000000	0.0
59	0x3391e1bc	6.7931495e-08
60	0x3468641b	2.1643102e-07
61	0x3558faab	8.083104e-07
62	0x339e7fe0	7.380709e-08
63	0x00000000	0.0
64	0x3259cf7d	1.267824e-08
65	0x340e56d4	1.3256368e-07
66	0x349aa3d7	2.8803944e-07
67	0x3511d20e	5.432238e-07
68	0x00000000	0.0
69	0x3385452b	6.205877e-08
70	0x346dc86c	2.2145258e-07
71	0x350ff0e8	5.3622216e-07
72	0x344f724f	1.9319963e-07
73	0x3572785f	9.032719e-07
74	0x00000000	0.0
75	0x33a1008a	7.497245e-08
76	0x3491d6e4	2.7164708e-07
77	0x34b52a7f	3.3744797e-07
78	0x354c8c17	7.619978e-07
79	0x00000000	0.0
80	0x3382b86c	6.087143e-08
81	0x348d4c42	2.6318781e-07
82	0x34ac83a7	3.2133286e-07
83	0x354bf136	7.59744e-07
84	0x00000000	0.0
85	0x339a808c	7.1945664e-08
86	0x348da64f	2.6384302e-07
87	0x354ce4b3	7.6328723e-07
88	0x34be91e2	3.5496402e-07
89	0x00000000	0.0
90	0x3301ac11	3.0191647e-08
91	0x3478522c	2.3126694e-07
92	0x352b5432	6.3824984e-07
93	0x35055a06	4.967736e-07
94	0x00000000	0.0
95	0x33473dbd	4.638945e-08
96	0x3475c4d8	2.2889014e-07
97	0x358278d0	9.720916e-07
98	0x343dae3b	1.7665381e-07
99	0x00000000	0.0
100	0x32477285	1.1609363e-08
101	0x345b8d6c	2.0447413e-07
102	0x355c0b4b	8.197282e-07
103	0x34af9fe2	3.271262e-07
104	0x00000000	0.0
105	0x32af4b1f	2.0406842e-08
106	0x344b7c49	1.8951063e-07
107	0x3580e4a7	9.60329e-07
108	0x35ab790e	1.2775724e-06
109	0x36059223	1.9903607e-06
110	0x00000000	0.0
111	0x349afd26	2.8868925e-07
112	0x3559bc46	8.1112773e-07
113	0x35f61645	1.833491e-06
114	0x35c99251	1.5018251e-06
115	0x00000000	0.0
116	0x3456d873	2.0009047e-07
117	0x354a529d	7.537108e-07
118	0x35c70de5	1.4830699e-06
119	0x35f441d2	1.8198573e-06
120	0x00000000	0.0
121	0x3491756d	2.7093793e-07
122	0x35558da3	7.955479e-07
123	0x3644eb87	2.934337e-06
124	0x35074f6b	5.040699e-07
125	0x00000000	0.0
126	0x33f1b21a	1.12548335e-07
127	0x352651ce	6.195886e-07
128	0x361a2b2a	2.2972913e-06
129	0x3595851c	1.1140105e-06
130	0x00000000	0.0
131	0x341b0220	1.4436273e-07
132	0x353cafbe	7.0291196e-07
133	0x364fffae	3.0994229e-06
134	0x34e7a9f8	4.3150771e-07
135	0x00000000	0.0
136	0x3335c0a6	4.231756e-08
137	0x3515cc2c	5.5803935e-07
138	0x36253e88	2.4623314e-06
139	0x358a4d06	1.0304218e-06
140	0x00000000	0.0
141	0x3374a33a	5.695913e-08
142	0x3526040a	6.1845697e-07
143	0x3620c623	2.3957189e-06
144	0x359742f8	1.1269867e-06
145	0x3654144e	3.160228e-06
146	0x00000000	0.0
147	0x341102cf	1.3505199e-07
148	0x35369d48	6.802916e-07
149	0x35cb6066	1.5152734e-06
150	0x3637b175	2.7372419e-06
151	0x00000000	0.0
152	0x3412b735	1.366396e-07
153	0x353368fb	6.6835463e-07
154	0x35dc70c1	1.6424093e-06
155	0x3636ac03	2.7220237e-06
156	0x00000000	0.0
157	0x34017755	1.2057474e-07
158	0x35356b3e	6.758381e-07
159	0x36203476	2.3872394e-06
160	0x35f87344	1.8510987e-06
161	0x00000000	0.0
162	0x33db422b	1.0210018e-07
163	0x352a013a	6.333172e-07
164	0x363a9537	2.7803014e-06
165	0x35d4c63d	1.5852926e-06
166	0x00000000	0.0
167	0x33cd1d08	9.551337e-08
168	0x352a33e7	6.3405463e-07
169	0x3648ffee	2.9951293e-06
170	0x35af023a	1.3039164e-06
171	0x00000000	0.0
172	0x3374b20c	5.697261e-08
173	0x3528a21d	6.2820783e-07
174	0x36569d60	3.198009e-06
175	0x3592708f	1.0910607e-06
176	0x00000000	0.0
177	0x33b85371	8.5833456e-08
178	0x351e5a10	5.8990645e-07
179	0x365e01a5	3.3081535e-06
180	0x3517085a	5.6264037e-07
181	0x361354dd	2.1954104e-06
182	0x00000000	0.0
183	0x34088d3e	1.271737e-07
184	0x3521dc6a	6.029792e-07
185	0x3574f587	9.125437e-07
186	0x35f0e841	1.7948988e-06
187	0x00000000	0.0
188	0x34057c08	1.2431713e-07
189	0x351ce962	5.8454145e-07
190	0x352b8405	6.389458e-07
191	0x361137bb	2.1639123e-06
192	0x00000000	0.0
193	0x34059c60	1.2443479e-07
194	0x35234db3	6.08353e-07
195	0x3602d762	1.9496879e-06
196	0x35544375	7.907432e-07
197	0x00000000	0.0
198	0x339da35e	7.3405985e-08
199	0x350df672	5.288522e-07
200	0x35a2efe3	1.2139757e-06
201	0x35d105ab	1.5573363e-06
202	0x00000000	0.0
203	0x33ed14cd	1.1039956e-07
204	0x351f3db5	5.932191e-07
205	0x361b38f2	2.3129946e-06
206	0x3502f426	4.8784057e-07
207	0x00000000	0.0
208	0x3331e5f1	4.1420154e-08
209	0x34fb80bd	4.6846063e-07
210	0x35fe9a64	1.8969408e-06
211	0x3568e152	8.675462e-07
212	0x00000000	0.0
213	0x33a0f757	7.4955715e-08
214	0x350e13c5	5.292789e-07
215	0x361b9e93	2.3189102e-06
216	0x342a6ed6	1.5872806e-07
217	0x35876e24	1.0090339e-06
218	0x00000000	0.0
219	0x334cacdd	4.765467e-08
220	0x3486e8e1	2.5128887e-07
221	0x346e8824	2.2215005e-07
222	0x357b8dce	9.371114e-07
223	0x00000000	0.0
224	0x336eaa40	5.5568535e-08
225	0x348fcee0	2.6786347e-07
226	0x34713e26	2.2467484e-07
227	0x357bdb14	9.3823587e-07
228	0x00000000	0.0
229	0x335c7f90	5.133876e-08
230	0x348b6651	2.5965213e-07
231	0x35723115	9.022345e-07
232	0x3490fa43	2.700418e-07
233	0x00000000	0.0
234	0x32b0d80c	2.0587343e-08
235	0x34758af1	2.286795e-07
236	0x354192b9	7.211161e-07
237	0x34fedaa7	4.7470277e-07
238	0x00000000	0.0
239	0x32f96fdc	2.9038283e-08
240	0x347e3402	2.3674514e-07
241	0x3589a928	1.0256526e-06
242	0x3441226f	1.7987053e-07
243	0x00000000	0.0
244	0x31b21a80	5.1834945e-09
245	0x34454bef	1.8374679e-07
246	0x35803a57	9.553722e-07
247	0x34830e1c	2.4410917e-07
248	0x00000000	0.0
249	0x32bc21dd	2.190148e-08
250	0x344e99c4	1.9241185e-07
251	0x3586d0ff	1.0044604e-06
252	0x3421e175	1.5076314e-07
253	0x3530158c	6.5596464e-07
254	0x00000000	0.0
255	0x3304bc88	3.0905113e-08
