Assets/results/T2/CarDriver/CarDriver-6999968.onnx (onnx, 188993 bytes, 9 tensors)

discrete_act_size_vector f4 [1, 2]
00000000: 0000 4040 0000 4040
3.0 3.0

network_body._body_endoder.seq_layers.0.weight f4 [128, 225]
00000000: 0cc8 aebc 9f06 a2bc cc3a 02be 4e31 2ebd
00000010: 7f6a 21bb 321f 2c3e aa23 66bd bc76 12bd
00000020: 0daf 38be 219a d13d 76ef 0abd 91bc dfbc
00000030: 72a3 a53c d404 903d 807a 8b3d 307b 173d
00000040: 74a2 c4bd a0e4 26be b8f1 b13d 9662 b8bd
00000050: be76 623d 8d53 323d aa63 973b 41eb bebb
00000060: 880b e53d 343b ccbd 47d3 1c3e da77 773c
00000070: a607 7cbd f49d fabd 9e6b c23d d575 573c
00000080: 2da6 f03d e05f a1bc 20cc 80bd afa0 f9bd
00000090: 924e 0fbd 811b d13c 4980 efbb d1e5 91bd
000000a0: 17f4 89bc 5f73 84bd 8ca8 50bc 3a1a a93d
000000b0: fd2e c73d cafc 6dbd 2bd7 9d3d 97b0 60bd
000000c0: 70fb 08be d4db 5abe 4eeb fe3d fd78 e2bc
000000d0: d002 023e 2b92 4abd f0b1 753d 901a 533e
000000e0: 9e47 dc3d be4d 36be 1bae 053e 267b 0ebe
000000f0: 85d1 b9bc 9bab 52be f80d 983c 770d 3f3d
00000100: d77b 8e3d 099e 56bd 98e9 2f3c ade7 2a3d
00000110: 20ed a9bd 46c4 3fbe 346a 653d 4bce 453d
00000120: dcbb c9bd 4f7e ebbb 58f6 863d cf99 cabd
00000130: 7a0e f5bd c710 1cbe 6c1c ac3d 2ade 7aba
00000140: 9ccd 773b c00d 793c 0fc2 19bd d032 32bd
00000150: 8d9d 803d ee3d c83c 8d26 ae3c e44b 1ebe
00000160: 917b 0c3c cd65 1f3d fc9a e7bc 202b acbd
00000170: 854a d23c 74cd 16bd 9c37 e9bc ffe9 1cbe
00000180: 0673 473d f511 393b 8a46 85bd 67de a83b
00000190: 226a e1bb c878 a4bc 357b 59bd 0de7 bebc
000001a0: 07f8 76bc 22cf 22bd 0d89 9c3d 3c83 77bd
000001b0: e5be d2bd 07c5 5cbc 8411 19be e2a5 443c
000001c0: 2406 dcbb 22b6 0e3c 6f1c d13d cf00 fdbd
000001d0: 305c 65bd af85 af3d 106f 533d 3d7b 2d3d
000001e0: 7bf0 043d 7a3c 38be e1c9 ee3d 090d 0c3d
000001f0: 8c38 dc3d 3cf0 ddbc 9956 053d 1719 afbc
00000200: 4b3a b33c 0f3d 91bd 2ba3 813d 0307 093d
00000210: e341 1bbd e8c9 06be f938 d03d a7b8 54bb
00000220: febe f73c 8bd9 6fbd 6e2d 95bd fd78 82bd
00000230: 7a4d be3d f6ec ecbd 5257 9ebc 2a7d 25bd
00000240: 8878 8d3d c320 60ba c09e bf3c ce96 dcbc
00000250: 9daa d63c d382 7fbd 08a4 273d f13d a4bd
00000260: b67c 923d 6536 e3bc a075 22bd 1e9f c0bb
00000270: 2f12 bd3d a0e9 69bc b1eb d93c 2f8f a13d
00000280: c310 f7bd 7241 0f3c 8642 48ba 444c 2ebc
00000290: 8315 e23d 0800 2e3e 2ab0 63be da2f a33c
000002a0: ed50 013e 4242 83bd 5572 2bbe b2b2 80be
000002b0: 11be 6ebc 714b 63bd 7a75 6fbd 513b 84bc
000002c0: 131e 90bc e79c c4bd c259 42bd 90be 6abd
000002d0: a0f9 a63d 5d4f c4bd 18ad 0dbc 4bc0 c6bb
000002e0: 021c e73b 6103 95bd ae28 103e 1c98 eabc
000002f0: fe0c 40be 6cb0 98bd 9895 063e 1587 ed3d
00000300: 1b15 5e3c 855b 69bd 0224 8bbb 88ee 3abd
00000310: 56d2 f63d 9252 32be 5085 0abe 2adb 23bd
00000320: 7830 073e 07f0 e83d e4c7 63be 6aa1 b4bd
00000330: 7ec9 cc3d b1f4 503c 2792 f93c 1a0c 98bd
00000340: e4c8 e93d f4d7 aebd edcd c1bd e8a6 913c
00000350: c77f 1c3d a507 163c c91c 133e e20c adbd
00000360: 8d62 06be 8067 ccbd 8555 dd3d 5608 8e3d
00000370: 4754 5f3d 9e22 5abd f5d5 7ebc e38c dbbc
00000380: a9f3 bf3d 725a 7b3d ee54 5d3d f276 763d
00000390: 38a8 0dbd b701 14bd 8c24 a83d 7fb3 1d3d
000003a0: 4c5f eabd 652d 023b 2287 9f3c fd0e 41ba
000003b0: 3d8c 17be 22c6 7cbd 81fe a7bc 1b0a ad3d
000003c0: bb02 393d 5825 bb3d 5581 7d3c 30fa dbbc
000003d0: 7856 223b 0b31 a7bd 86c3 17be a7f2 56bd
000003e0: 0a90 9b3d b22b bdbc 4e85 613d e9fd 913d
000003f0: 2018 22bd 3de4 e53b 937c 15bd b446 2b3d
-0.021335624 -0.019778548 -0.12717742 -0.04252749 -0.0024630127 0.16808775 -0.056186356 -0.035757765
-0.18035527 0.10234476 -0.033919774 -0.027311595 0.020219538 0.07032171 0.068104744 0.036982715
-0.09601298 -0.16298151 0.08688682 -0.09003179 0.055289023 0.04353671 0.004620035 -0.0058263843
0.1118384 -0.099722296 0.15314971 0.015104258 -0.06153073 -0.122371584 0.094931826 0.013150652
0.117504455 -0.019699037 -0.06288934 -0.12188851 -0.03498704 0.02552581 -0.007308994 -0.07123912
-0.016840024 -0.06467318 -0.012735497 0.082569554 0.09725759 -0.058102407 0.07707056 -0.05485591
-0.13377166 -0.2137292 0.124472246 -0.027645582 0.12696385 -0.049455803 0.059984148 0.20615602
0.107558474 -0.17803094 0.13054697 -0.13914165 -0.022682915 -0.20573275 0.018561348 0.0466437
0.06957214 -0.052396808 0.010736845 0.04172485 -0.08297181 -0.18727216 0.056009486 0.04829244
-0.098502845 -0.007186688 0.06589955 -0.09892618 -0.11965652 -0.15240775 0.084038585 -0.0009569848
0.0037811762 0.015201032 -0.037538584 -0.04350549 0.062800504 0.024443593 0.021258617 -0.15458637
0.008574382 0.038915444 -0.028272144 -0.08406663 0.0256703 -0.03681703 -0.0284689 -0.15323637
0.04869368 0.0028239463 -0.06507595 0.0051534656 -0.006879107 -0.020077124 -0.053096015 -0.023303533
-0.015073783 -0.03974832 0.07643328 -0.06042789 -0.102903165 -0.013474709 -0.14948088 0.01200244
-0.006714599 0.008710416 0.102105014 -0.1235367 -0.05599612 0.0857042 0.05161959 0.042353857
0.032455903 -0.1799182 0.11659599 0.03419212 0.10752973 -0.027092092 0.03255329 -0.021374268
0.021878382 -0.07091724 0.0632995 0.033453953 -0.03790463 -0.13162959 0.10167117 -0.0032458694
0.03024244 -0.058557075 -0.07284056 -0.06370733 0.09292121 -0.11568634 -0.019328747 -0.04040257
0.06907755 -0.0008549804 0.023391128 -0.026927378 0.026204402 -0.062380623 0.040927917 -0.08019627
0.07152693 -0.027735898 -0.039662957 -0.0058783432 0.09231984 -0.014276892 0.026601644 0.07888638
-0.12063744 0.008743631 -0.00076393073 -0.0106383 0.11039259 0.169922 -0.2223517 0.019920278
0.12628527 -0.06409122 -0.16742833 -0.25136334 -0.014571683 -0.05549187 -0.058461644 -0.016141566
-0.017592466 -0.09600239 -0.04744888 -0.05731064 0.08153081 -0.0958545 -0.008647226 -0.0060654036
0.0070528993 -0.07276035 0.14078018 -0.028636985 -0.18754956 -0.07455525 0.13143003 0.115980305
0.013554837 -0.056972045 -0.004246236 -0.045637637 0.12051837 -0.1741431 -0.13527417 -0.040003933
0.13202083 0.113739066 -0.22244221 -0.0881985 0.09999369 0.0127536515 0.030465199 -0.07424183
0.1141527 -0.085372835 -0.09463105 0.017779782 0.038207795 0.009157096 0.1436645 -0.08449723
-0.13123532 -0.099806786 0.10807327 0.06935184 0.054523733 -0.05325567 -0.015553941 -0.026800578
0.09372646 0.061365552 0.054036073 0.06017203 -0.034584254 -0.036134448 0.08210096 0.03850126
-0.11443958 0.0019863483 0.019473616 -0.0007364599 -0.1479959 -0.06171239 -0.0205071 0.08449193
0.04516862 0.09137982 0.01547273 -0.026852697 0.0024770778 -0.08163651 -0.1482068 -0.052477505
0.07595833 -0.023092125 0.05505877 0.07128508 -0.03957379 0.0070157335 -0.036495756 0.041815475

network_body._body_endoder.seq_layers.0.bias f4 [128]
00000000: 4835 cfbb 9f3a d33b b04d a33a 6a74 62bb
00000010: cc14 173b 8783 e4bb 49d6 69bb 46e9 39bc
00000020: ec9d 4bbc a3d0 28bd cd3a 01bc 226d 73bc
00000030: 8eae 503c e54c 86bc 1916 0b3c e201 ab3c
00000040: d880 ae3c c6f6 09bb 88b2 f83c abd4 85bb
00000050: 3995 fbba 96ba 85bc d6e1 94bd d205 91bb
00000060: 312c b8bc ad7e b8ba 1b89 51bc fa45 403c
00000070: 1027 9dbc 0f2f c2bc 405d 883b b448 23bb
00000080: 79e9 fabc 08a0 80bc facb 493c 5bba 3fbd
00000090: 4f33 b93c fa31 923b 4345 db3c 5c9f c53a
000000a0: 18ce 56bc 430a d03c 488e a03c 76c9 ccbb
000000b0: a340 0c3c de9b 31bc 85ca 8e3b 6510 65bc
000000c0: 4921 603c 0dcd 0abc d03c 143b 52b6 6d3b
000000d0: d006 c1b9 1968 d1bc 68a5 76bc 0ec1 093a
000000e0: 7ac8 5fbc e26f 323c 9a28 023d 68d7 0f3c
000000f0: de3b cb3c 5ca5 3b3c 2041 05bc e0e2 c93a
00000100: 606e c8bc 4de2 68bc 8d6d c1bb ab53 093d
00000110: 376f b83c 51ec cf3c d442 aabc a5a7 5bbc
00000120: 4dcf 183c 3b00 aeba d6c0 74bc 6fb9 22bc
00000130: 05e2 43bb 13c7 89bb 22ce f0b9 8ac1 d4bb
00000140: 6380 1ebb 508e 07bc 66c5 323c 02de d339
00000150: f7b0 c53c 68b0 abbc 9162 f53c 5d6f b0bc
00000160: aabb 163d 8f95 cabb 0673 283c 553d c43c
00000170: c546 c13b 11b0 06bb 107e d7bc 1100 b8bb
00000180: 91d8 433c 6cfc 2b3b 97e5 20bc 623e 74bc
00000190: 8286 05bd 16e0 fbbb 6c92 a63c a85c 223c
000001a0: 1424 cdbb f6f2 013d db9d babb 2c31 44bc
000001b0: c7b8 513a 441f 86bb fb55 993c 3ca0 cb3c
000001c0: 26a9 8b3a 11b4 4cbc 47a3 cb3c 118f d7bc
000001d0: 285a 87bb a68e aabc 7d4f bebc 7a1c e93c
000001e0: 024a 303c 0691 d1bc d17d fb3c a18b d83b
000001f0: 3f01 9fbc 78c2 9c3a 2944 bfbc bc52 893c
-0.0063234903 0.006446197 0.0012459066 -0.0034554251 0.0023053167 -0.006973687 -0.0035680702 -0.011347121
-0.012427788 -0.041214596 -0.007887554 -0.014857562 0.01273693 -0.016394088 0.008489155 0.020874921
0.021301672 -0.002105163 0.030358568 -0.00408419 -0.0019194252 -0.016324323 -0.07269637 -0.0044257427
-0.02248201 -0.0014075838 -0.012789036 0.011735434 -0.019183666 -0.02370408 0.004161507 -0.002491516
-0.030628907 -0.015701309 0.012316698 -0.04680858 0.022607474 0.004461524 0.026766425 0.00150774
-0.01311066 0.025395518 0.019599095 -0.006249602 0.0085603325 -0.010840384 0.0043576383 -0.01398096
0.013679811 -0.0084717395 0.0022619255 0.0036272001 -0.00036816904 -0.025562333 -0.015054084 0.00052549026
-0.013658637 0.010890933 0.031777002 0.008779384 0.02480882 0.011452999 -0.008133203 0.0015402697
-0.024466693 -0.014214111 -0.005902952 0.033527058 0.022513969 0.02538124 -0.02078382 -0.013406669
0.009326768 -0.0013275215 -0.014938554 -0.009931906 -0.0029889357 -0.0042046397 -0.00045929948 -0.006492798
-0.0024185411 -0.008273676 0.010911321 0.00040410465 0.024132235 -0.02095814 0.029954227 -0.021537477
0.036800064 -0.0061823796 0.01028133 0.023955027 0.005898329 -0.002055172 -0.026305228 -0.0056152423
0.011953489 0.0026242984 -0.0098203635 -0.014907451 -0.03259898 -0.0076866252 0.020333491 0.009909786
-0.0062604044 0.031725846 -0.0056950874 -0.011974614 0.0008000251 -0.0040930826 0.018717756 0.02485668
0.0010655269 -0.012494103 0.02485813 -0.026313337 -0.0041306205 -0.020819973 -0.023231262 0.028455961
0.010759832 -0.025581848 0.030699642 0.006608442 -0.019409774 0.0011959812 -0.023347931 0.016763084

network_body._body_endoder.seq_layers.2.weight f4 [128, 128]
00000000: cdb7 023e fbaa 00bd 9ee9 1c3d 3b53 96bd
00000010: 5c74 21bd f6bf 40be 0e1c 12be b2b2 473d
00000020: dc64 b0bb c04b adbd 2370 12be cf6b f73d
00000030: 81b9 04be 4719 513d 972e 24be 7cf6 b23d
00000040: f88c 54bd 3055 e3bd 3679 8cbc ba52 51be
00000050: 1e8f 81bd a448 a1bd f2c2 a6bd af13 17bd
00000060: f173 863d f82d 06bd 1ab6 bf3c 1ddd 94bc
00000070: 6c86 01be d060 bcbd 48cb 5dbe 8d88 723d
00000080: ad9c 1c3d e3ee 203e d519 1ebe c500 61bd
00000090: af61 d13c f574 9ebd 3110 dcbd 04dd 9ebc
000000a0: f8da 08bd b5e8 623d 7e2a 853e 990d 033d
000000b0: 5e06 f0bd e808 f6bd dd31 103d a436 c83a
000000c0: cf53 dcbd 8256 993d ba2b 1dbe cb5d d3bc
000000d0: ceb6 ddbd 527c 39bd a14d b8ba 6a71 08bd
000000e0: d6d6 0ebe a5de 8bbd c3ef 763d 68c7 38bb
000000f0: f15d 8dbd 6bc1 f63c 29a2 8a3e b0f1 1cbc
00000100: 9a3b b4bb 1c56 1a3e fea5 0ebe 2491 83bd
00000110: a26a 1f3c a24d f63c 5381 f2bd 989a 3b3d
00000120: ee26 b2bd 09ae 16be 148d 0bbd 792a db3d
00000130: 3cce 65bd 16d6 80bb 2958 dbbb 3f24 b83d
00000140: edbc 403d 7995 ad3a 139c d5bc c6ce 243e
00000150: 64b8 e43d dbfe c6bd cb0e 8dbd 8555 d43c
00000160: a2eb 99bc b798 71bd 67a3 023e cf40 19bd
00000170: 10b4 0dbd a513 273d dd03 e23d 74f5 27bd
00000180: aa3d e5bd 2eff f7bd 5324 553d 2679 0fbe
00000190: cef0 c03d c29e b0bd 1962 023e 16b3 a53c
000001a0: bf8c 653d 5ca9 c63c 14e5 45be 6916 813d
000001b0: fad8 25be 8204 f0bd 1d1f 103e 963a 81be
000001c0: 705d 003d a0b9 583d ffb9 c33c f265 3ebc
000001d0: ca7e 863d 957b 39be 793c 46be 986c 723e
000001e0: dd93 fa3d bee1 c03c 3581 df3d 4bf9 eb3d
000001f0: 0b25 633d 4dba 8d3d 157b 153e bde9 81bd
00000200: 5d32 9abd bd13 a53d e23d 003e 943d a63e
00000210: 3ed9 383d 48ee 073e eeec 9a3d 9f0e 363d
00000220: 9f67 923d 5997 6bbc 956d e5bc 291f 1bbc
00000230: 5c3c 2ebc 12ac 66bd 6f5b 7b3c 1d25 f33d
00000240: 059c 943d afd1 cf3c cfba a03d c72a 283e
00000250: e7d8 433d b688 a3bc a471 51bd 885c 97bd
00000260: 729b 1f3e b25a 303d fb7a 423e 83dd b2bd
00000270: d6d2 3f3e 113c ee3d 8ad1 53bd 1aac 0fbe
00000280: 02b8 a0bd a731 5cbd e252 50bd 3f95 36bd
00000290: a59e 9bbc 6201 123d d434 1dbd 5e69 9ebe
000002a0: 49a4 debd a03c 853d 988b e03d 6cf8 033d
000002b0: a414 78bd a4f4 f9bd 2ac0 eebd 84d6 5d3c
000002c0: f8c0 413d 31f8 25be 3843 39be 999f dc3c
000002d0: 842a 263d 6eed 1cbe 6871 53bd c461 17bc
000002e0: 46b8 78bd 5320 723d 3129 753d a6c4 b6bb
000002f0: 0df2 4dbd 94aa aa3d 8075 97bc 8b13 e6bd
00000300: 8902 be3d ef24 3f3d 5b8c 3cbd f023 01bc
00000310: 92ef a8bd 7936 a8bc a81d 013d a073 d0bd
00000320: 6588 893d 448f dbbd d487 dbbd 84a6 893d
00000330: f2ee fabc 5f81 17bd cd3f e3bd 4edd 483d
00000340: 355a 0a3e 96e4 e4bd 842f 793d 064e 553d
00000350: 8b9a e23d 8fc7 2abe 8552 4d3d 2013 36be
00000360: 0534 a6bd e61c a0bd 38ed 45b9 af11 eb3d
00000370: ef0a 60be 8b00 403e da39 82bd 8077 4d3d
00000380: 7d69 123e 8d71 cabd cc70 8f3b 0953 88bd
00000390: 9f2c b9bd 36c5 833d 478a c7bd aac5 ae3d
000003a0: b03d 353d cb32 c43d d614 eb3d 916d 53bc
000003b0: e958 38be 976a e43d 807f 6b3e 47c8 30be
000003c0: 04ad 24bc 0cb8 33bc 4af2 093e 15c2 e1bd
000003d0: 42e5 24bc b564 5abb 1fb3 163e dc27 653d
000003e0: a59b 833d b3e4 c43d ae7a a93c 74b5 5d3e
000003f0: 56ed 30be e182 b43d 809b ca3d 739f 24bd
0.12765427 -0.03141306 0.038308732 -0.07340094 -0.03941761 -0.18823227 -0.14268515 0.0487544
-0.005383117 -0.08461714 -0.1430059 0.1208111 -0.12961389 0.051049497 -0.16033398 0.087384194
-0.05189225 -0.111002326 -0.017147642 -0.20441714 -0.063261256 -0.07875183 -0.081426516 -0.036884006
0.06565083 -0.032758683 0.023402262 -0.018171841 -0.12648934 -0.09198153 -0.21659577 0.059212256
0.038235355 0.15716128 -0.15439542 -0.054932375 0.025559274 -0.077371515 -0.10745276 -0.019392498
-0.03341195 0.055397708 0.2600898 0.03199539 -0.117199644 -0.120134175 0.035203803 0.0015275073
-0.10758173 0.07487203 -0.15348712 -0.02580156 -0.10825883 -0.045284577 -0.0014061221 -0.033311285
-0.13949141 -0.068295754 0.06028725 -0.0028195027 -0.069026835 0.030121526 0.27076843 -0.009579107
-0.005500269 0.1507191 -0.13930508 -0.06424168 0.009730013 0.030066315 -0.11841073 0.04580173
-0.086988315 -0.14714827 -0.03407009 0.107014604 -0.056104884 -0.003931771 -0.006693859 0.089912884
0.047055174 0.0013243399 -0.026075399 0.16094503 0.11167982 -0.097165786 -0.06887587 0.025919685
-0.018789116 -0.05898353 0.12757646 -0.037415322 -0.03459555 0.04079022 0.11035893 -0.041005567
-0.11193402 -0.121092185 0.052036595 -0.14011058 0.0942093 -0.08624031 0.12732734 0.020226996
0.05604243 0.024250679 -0.19325668 0.063031025 -0.16196051 -0.1171961 0.14074369 -0.2524001
0.03133911 0.0529114 0.0238924 -0.011620985 0.06567152 -0.18113549 -0.19359006 0.23674238
0.12235234 0.023545142 0.10913316 0.11522158 0.05545525 0.069203 0.14597733 -0.0634341
-0.07529137 0.080604054 0.12523606 0.32468855 0.045129053 0.13274491 0.07564722 0.044447538
0.071486704 -0.014379346 -0.028006354 -0.009467878 -0.010634508 -0.056316443 0.015341624 0.11872313
0.07256321 0.02536854 0.07848131 0.16422568 0.047814276 -0.01996265 -0.051133767 -0.07390696
0.15586641 0.043055244 0.18992226 -0.08733656 0.18732771 0.116325505 -0.051713504 -0.14030495
-0.07847597 -0.05375829 -0.050860293 -0.044575926 -0.018996546 0.03564585 -0.03838046 -0.30939764
-0.10871179 0.06505704 0.109641254 0.032219335 -0.06056656 -0.122048646 -0.11657746 0.013539914
0.04730317 -0.16207959 -0.18092048 0.02693157 0.04056789 -0.15324947 -0.051621825 -0.009239618
-0.06072261 0.059112858 0.059853736 -0.0055776415 -0.050279666 0.083333164 -0.018488646 -0.11234196
0.09277827 0.046666082 -0.04603229 -0.007882103 -0.082488194 -0.020533787 0.031522423 -0.10178304
0.06715468 -0.10720685 -0.107192665 0.067212135 -0.030631516 -0.036988612 -0.110961534 0.049039178
0.13510974 -0.11176412 0.06083633 0.052076362 0.11064633 -0.16677688 0.050127525 -0.17780733
-0.08115391 -0.07818012 -0.00018875755 0.11477982 -0.21879171 0.18750207 -0.063586906 0.050162792
0.14298053 -0.09884939 0.00437746 -0.06656463 -0.09041714 0.064340994 -0.09743171 0.08533795
0.044248283 0.095800005 0.114785835 -0.012904541 -0.18002667 0.11153143 0.22997856 -0.172639
-0.010051016 -0.010969173 0.13471332 -0.11023346 -0.010064425 -0.0033324186 0.14716767 0.055946216
0.06426171 0.096139334 0.020688381 0.2165125 -0.17278036 0.08814026 0.098929405 -0.040191125

network_body._body_endoder.seq_layers.2.bias f4 [128]
00000000: 43a6 d6ba c753 243c db53 b23b c8b2 233c
00000010: fa34 d2bb 055a 90bb 9d62 743c 0d0a 44bc
00000020: fba9 653d fa3d 9d3c 317d 96bc 7787 7bbb
00000030: c8ff d3bb 4b44 8fbb 87d0 b13c f975 24bd
00000040: 8770 3fbd b14b f53b 9b5b 3dbc e588 583c
00000050: c016 35bc 56d7 5e3c 0bc4 54b9 e1b4 1fbc
00000060: a6d6 87bc 6ec5 723d 82b1 50bc 80ee 3f3c
00000070: 6af0 e43c 1a8f ad3c 57ab 0dbc 9998 ad3c
00000080: fbab f53c 9832 683c 6896 493c 41be 043d
00000090: 5622 bfbc 0c53 1b3c fed5 823c 4a34 323c
000000a0: 6def 983c 6ce7 3dbc 9edb cc3c 01d0 aebc
000000b0: a673 043b a7d4 edba 1ca8 a73c f899 113c
000000c0: d5df 24bd 74b5 84bc 31f4 cf3c ab02 cf3c
000000d0: 14f4 a7bc 9532 903c 89e5 62bd 38a4 473c
000000e0: 4a3f e33c 3ad7 56bb a8f7 63bd 1d41 63bc
000000f0: ffbf 30bd 4b08 4d3d b971 363d 2fa6 4b3d
00000100: d1b1 083c c944 923c bba2 023d 3350 0bbc
00000110: dc6e cfbc b890 96bc 0793 97ba 3147 403b
00000120: 8584 763c 730f e73c 034e 2a3b 67c8 ccba
00000130: f0cb 253c 22f2 89bc a0b3 103b 85a7 b83c
00000140: 738f 6fbc f5ea 64bd 22f6 17bc d972 0a3d
00000150: 3c2d ccbc 48b7 cf3c e71f 42bd a894 ebbc
00000160: da3a 693d 48f7 13ba 5129 c83a 7ca8 c4ba
00000170: 0874 31bc 6f58 b1bc de28 ebbb 47a5 1f3c
00000180: c9be 71bc 4148 4abd bf16 413d ff25 f93c
00000190: 8a06 c13a 3dd6 3ebc fcd4 a8bc 8289 97bc
000001a0: 2ac8 c1bc 119a b23c cb70 683a 0330 99bc
000001b0: 9691 9f3c f29b 6cbb cb2d f6bc 6dd7 13bb
000001c0: c958 203a 347e 713d 52a5 993a 1c76 173c
000001d0: c0db 20bb 8b73 103d adda da3c 5621 5a3c
000001e0: 7a78 133d deda d93b 951c 14ba de2e 89bc
000001f0: 2511 793c d0b1 c3bc 5d4f b33c 87d5 343d
-0.0016376454 0.01002974 0.0054421253 0.009991355 -0.0064150067 -0.0044052624 0.014916089 -0.011965287
0.05607031 0.019194592 -0.018370243 -0.0038380304 -0.0064697005 -0.004372155 0.021705879 -0.04015157
-0.046738174 0.0074858298 -0.011557485 0.013216232 -0.011052787 0.013601145 -0.00020290927 -0.009747715
-0.016581845 0.059270315 -0.012737634 0.011714578 0.02794667 0.0211864 -0.008646808 0.021190928
0.029989233 0.014172219 0.012303926 0.032408003 -0.023331802 0.009480249 0.01597118 0.0108767245
0.018668855 -0.01159082 0.025007065 -0.021339418 0.0020210533 -0.001814504 0.020465903 0.008886807
-0.040252525 -0.016199805 0.025384994 0.025269827 -0.020502128 0.017602244 -0.055394683 0.012185149
0.02774014 -0.0032782094 -0.055656105 -0.013870505 -0.04315185 0.050056737 0.044542048 0.049719032
0.008343176 0.017855065 0.031893473 -0.008503008 -0.025321417 -0.018379554 -0.0011564203 0.0029339308
0.015046244 0.028205609 0.002598644 -0.0015623689 0.010119423 -0.01683909 0.002207972 0.022540817
-0.014621603 -0.055888135 -0.009274991 0.033800934 -0.024923913 0.02535595 -0.047393706 -0.028757408
0.05694089 -0.0005644453 0.0015271102 -0.0015003826 -0.010830887 -0.021648614 -0.0071765026 0.009743995
-0.014754959 -0.049385313 0.047140833 0.030413626 0.001472668 -0.011647758 -0.020609371 -0.018498186
-0.023655016 0.02180198 0.0008866905 -0.018699652 0.0194786 -0.0036103693 -0.030051133 -0.0022558824
0.00061167456 0.058958247 0.0011722243 0.009244468 -0.0024545044 0.03526644 0.0267156 0.013313612
0.036003567 0.0066484055 -0.0005650011 -0.01674598 0.0152018415 -0.023888499 0.02188843 0.044148948

action_model._discrete_distribution.branches.0.weight f4 [3, 128]
00000000: dc0a 57bd c27d 90bd 51b7 0a3c 860b 993b
00000010: a6d0 19bd 1c9a 833c 73b3 51bc 4f8a 02bd
00000020: 04b0 2f3d fca8 48bc 00f0 b2bd 5b3d 5e3c
00000030: a13c 5cbd e9ec a43b b8a6 c2bc d551 acbd
00000040: 11b6 ccbd a441 43bd a9c3 e6bc 8465 88bd
00000050: 04a4 9bbd 930c 58bc 9bf3 00be 1d23 a4bc
00000060: 733d 85bd 765a 483d 1aa6 f93b 34ff 503d
00000070: a5c2 64bb 964b d03c bca1 1dbd c7c0 7c3d
00000080: 17a6 843d e738 10bc 363d 11bd e3a2 f43c
00000090: bdd2 013d 0ee4 febd c4be 7b3c 7910 85bd
000000a0: a211 893d 309b 82bd 67bc 91bd 7b7f 85bc
000000b0: b583 233c 9e90 b6bb 7293 dbbd 80e6 2b3d
000000c0: e7fa 91bd 0f8b 913c 8048 353d ec42 03be
000000d0: 99ea 473d 7d7f e23c 72f1 29bd 91ea 3d3c
000000e0: 3c8b 88bc 1d35 babd a4ab 14bb 802b 36bc
000000f0: 6c93 0dbd ef13 6cbd 0d28 90bd 44e8 143d
00000100: 3b38 e9bd 2c79 153d e48c 69bd e6bb dcbc
00000110: a469 ffbd 9255 b8bd 72ad 0bbd 3ac8 46bd
00000120: 2104 d3b9 010a 9fbd 17e7 6f3d deeb c1bd
00000130: 06d1 62bd 0900 4b3b 7901 ba3c 391f 9a3d
00000140: 626b 8fbd 90e5 82bd bb62 6dbd 9197 ba3c
00000150: 566c d9bd 5747 523d e697 cf3c 0e38 37bd
00000160: 9a89 1c3d edad d43c df05 72bd c4b8 e4bb
00000170: 7f44 2dbc d574 0dbd 9e44 463d 1c1a a3bd
00000180: 3d1c 44bb ab1f 4e3d 418e 843c dfc7 403c
00000190: 9ead adbd 21f0 943d 53e9 2bbd 6daa 0dbc
000001a0: 856b 7ebd 6e27 423c beaf 5bbd 0b46 2bbd
000001b0: 0b39 613d 1142 e6bd 67cc f0bd 6566 2fbd
000001c0: 9ebc 8fbd a4ad 0a3d 3ebb a5bd 3b45 adbd
000001d0: 5369 65bc 0fb5 a4bb a4a1 fc3a 74de abbc
000001e0: 4a80 223d 2e0b b9ba 9891 66bd 912c 5cbd
000001f0: 44ac b4bc 991e 933d 248f 1dbd c6e4 883c
00000200: 0462 8abc d40d 2bbd 9a41 d7bd f272 723d
00000210: 3e92 c13d 851e 2d3d 6e1f 9fbd 9d21 b63d
00000220: 2f48 05be eedd 5f3d 7f6d 813d c137 163d
00000230: e200 a03d 4f9a 463d aebe a63d 5441 2e3d
00000240: f1e0 ac3d d98a cf3d efa6 d6bd ba17 0e3e
00000250: e6ff 1a3c d81e 56bd 8448 833d 9a8e 543d
00000260: ebf6 11bc bd93 173d b297 64bd fbe6 9e3c
00000270: 6e25 9a3d 31ad d2bd 6a24 71bd a36c 4a3c
00000280: 92c2 2dbc 017d febd 110a bb3d 0cad b63c
00000290: 4b87 073c 2e39 cb3d 64ba 423d ac1c b93c
000002a0: af8d 53bc c1cd 5c3d a959 a83d f502 33bc
000002b0: e6d0 a9bd c10b a7bd 68d3 383c e6fb a0bd
000002c0: 297f 6a3d 3a15 19bd 6eeb 373d fb26 403d
000002d0: ad18 a5bc 4fea 403b 87a7 79bc 45dc 9c3c
000002e0: 82ae ac3d fd97 5cbc 4e9d 17bd 7bd9 673d
000002f0: 3a30 26bd 0db8 a3bd 4118 ad3d 9b1d 993d
00000300: 1bfe d33c d6d6 e43c 61ae 9ebd cf19 053d
00000310: f8e9 ca3d e86d e03c af23 a33d b5cd 5cbd
00000320: 07b7 983d de5f 553c 0be5 623b 1e24 d03d
00000330: 81fe dcbc ddb1 993b 33a8 60bd d733 d5bc
00000340: 7212 8c3d 029f 093d eab8 c93c 0582 e1bc
00000350: 9979 993c 25fd 0abe 1cb9 45bd 062a 463b
00000360: be6a 6f3d 5fa4 ff3c e123 9d3c 212d 813d
00000370: 816a e53c 2bb7 133d 6207 6dbb 7905 453d
00000380: 5317 b8bd 9183 fbbc e252 0abe 7212 b43c
00000390: 19fb b7bc 3835 18bd 2328 853d 9126 493b
000003a0: e486 8f3d cc06 6d3d 5e7a 98bd 7aad 53bc
000003b0: 572c 203c 599d fc3d deee d03d e2e0 b73c
000003c0: 1bca 41bd d7a6 393d 75ed 413d 571a 82bb
000003d0: 1681 7d3d eaa4 bc3d f242 49bd 99da ad3d
000003e0: 5621 1bbe 9300 253d 3313 97bc 60e4 bb3d
000003f0: 07ec febc 551f acbc 69d3 e63b c21a 2dbc
-0.05250059 -0.070552364 0.008466558 0.004670563 -0.0375525 0.016064696 -0.012799132 -0.031870183
0.04289247 -0.01224732 -0.087371826 0.013564433 -0.053768758 0.0050331247 -0.023761138 -0.08414046
-0.09995664 -0.04767002 -0.02816947 -0.066599876 -0.07599643 -0.013186592 -0.12592928 -0.020036275
-0.06505861 0.048914395 0.007618678 0.05102463 -0.0034906056 0.025426667 -0.03848432 0.061707284
0.064769916 -0.008802629 -0.035458766 0.029862827 0.031695116 -0.12445842 0.015365306 -0.064972825
0.06692816 -0.06377256 -0.07116013 -0.016296139 0.009980132 -0.005571439 -0.10721482 0.04196787
-0.07127934 0.017766504 0.044258595 -0.12818497 0.048807714 0.027648682 -0.041490026 0.0115915695
-0.016667955 -0.09092162 -0.0022685314 -0.01111877 -0.03456442 -0.057636198 -0.07038889 0.03635432
-0.11387678 0.03649251 -0.05701913 -0.026945066 -0.12471321 -0.09000696 -0.034100957 -0.048530795
-0.00040248132 -0.0776558 0.058569994 -0.09468816 -0.05537512 0.0030975363 0.02270578 0.075254865
-0.070029035 -0.06391442 -0.057955485 0.02277735 -0.106163666 0.051337566 0.025340986 -0.044731192
0.038217165 0.02596184 -0.05908763 -0.0069800336 -0.010575413 -0.034535248 0.048405282 -0.07963964
-0.0029924058 0.05032317 0.016181113 0.011766403 -0.084803805 0.072723635 -0.041970562 -0.00864659
-0.062114257 0.011850221 -0.053634398 -0.041814845 0.05498604 -0.1124307 -0.11757737 -0.04282226
-0.07018398 0.033857003 -0.08092354 -0.0846047 -0.014002162 -0.0050264667 0.0019274247 -0.020980097
0.039673127 -0.0014117712 -0.056291193 -0.05375344 -0.022054799 0.071835704 -0.038466588 0.01671065
-0.01689244 -0.041761234 -0.105105594 0.05919165 0.094517216 0.042265434 -0.077696666 0.0889313
-0.13015817 0.054655008 0.06319713 0.036674265 0.078126684 0.048487004 0.08141838 0.04254277
0.08441342 0.10133905 -0.10481059 0.13876238 0.009460425 -0.05227551 0.06410316 0.051893808
-0.0089089675 0.03700613 -0.05580873 0.01939725 0.075266704 -0.1028694 -0.058872618 0.012355003
-0.010605471 -0.12426186 0.091327794 0.022299312 0.008272002 0.099230155 0.047541037 0.02259668
-0.012912198 0.05390716 0.08220226 -0.010925998 -0.08291797 -0.08156539 0.011280872 -0.07860546
0.057250176 -0.03737376 0.044902258 0.046912175 -0.020153368 0.0029436534 -0.015237696 0.019148001
0.08431722 -0.013463971 -0.03701525 0.05660389 -0.040573336 -0.07994089 0.08451892 0.0747635
0.025878003 0.027934473 -0.07748104 0.032495316 0.09907907 0.027396157 0.079657905 -0.053907115
0.07456785 0.013023345 0.0034621384 0.10163139 -0.026976826 0.0046903924 -0.054847907 -0.026025696
0.06839456 0.033598907 0.024624307 -0.027527818 0.01873474 -0.1357313 -0.048272237 0.003023745
0.058451407 0.031206308 0.019182147 0.06307436 0.028004887 0.036063354 -0.003616773 0.048100922
-0.08988824 -0.030702384 -0.1350818 0.021981452 -0.0224586 -0.03716013 0.06501796 0.0030693153
0.0700815 0.05786781 -0.07445215 -0.012919778 0.009776196 0.12334699 0.1020181 0.0224461
-0.047311883 0.045325126 0.047345597 -0.003970425 0.061890684 0.09211142 -0.04913611 0.0848896
-0.15149435 0.04028375 -0.018441772 0.091744184 -0.031118406 -0.021011034 0.007044245 -0.010565462

action_model._discrete_distribution.branches.0.bias f4 [3]
00000000: 88ea 9b3d 816d bdbc 9ea4 86bd
0.07613093 -0.023123505 -0.06574367

action_model._discrete_distribution.branches.1.weight f4 [3, 128]
00000000: 7c10 663b ae64 cd3b 5d50 393d 18fc 37bd
00000010: 4311 0e3b 4497 f03c b78e 773d 4c7e 9a3d
00000020: 3b2d 72bd 8f0c 9f3d 3403 b03c 7094 3d3d
00000030: 159c 09bd 7735 223d f39f 093d aada 87bd
00000040: d860 11bd 51d2 2b3d 278c 4f3d 865b 2c3c
00000050: a799 2bbc 41aa 663d c8a2 373d 994a 013c
00000060: 5868 cfbc 55e9 c33c 5c6d 213d 9783 943a
00000070: c54b a23d 25a1 8e3d 317b 32bc 725b 7a3d
00000080: 1d3b b93d 51cf 823d 944f f5ba abc6 953d
00000090: 6eab ce3c 717e 033d c15c 503c 9192 333d
000000a0: d23c 2dbb c470 99ba 40d0 c43c 924d 77bc
000000b0: 7a08 ab3a e38e 883c be05 9c3d ba5e da3c
000000c0: 2c6d b0bb b450 b53d 08d1 a53c e3f1 823d
000000d0: 2429 813c e7c0 903c e121 9dbc cdb7 703d
000000e0: 304b ef3c bfc4 bb3a dfc2 5abb d139 5bbc
000000f0: 614f afbc 57b5 1e3d 8938 b03d 3374 aabc
00000100: 4b62 173d 014d e43c 4e24 433c c332 093d
00000110: 6c25 abbd 46f4 ef3b 1bed 043d 9f66 31bd
00000120: 3590 113d 447c ba3d 53d2 563d cdba ef3c
00000130: 8b40 2ebb d310 ac3d ca2e 1fbd 53fe 1f3d
00000140: a416 e1bb da9a 563b 2ff4 093d 4429 d43c
00000150: a311 fcbb 8766 933d ef54 533b 3536 00ba
00000160: 0910 2fbc 4c14 87bc 2cc1 87bd 042c 8c3c
00000170: 32d1 413d b202 c03c 1abf 95bc d7f7 4a3d
00000180: 8402 f3bc 7a7b 353c b9dd b5bc 8ad9 d1bc
00000190: 536e ae3c fb97 b1bb c640 663d 3c91 4ebd
000001a0: ee6e 61bd 9d47 ba3b 4d51 263b 33f4 3cbd
000001b0: 26cb 6d3d 993c 27bd 6c97 693d c0c0 dabb
000001c0: 1857 1bbc 2706 163d 351f 8b3d 5781 9dbc
000001d0: ccbf ca3c 6ea2 ae3c 1f06 9a3d 1341 203d
000001e0: 2595 44bc 29ba 813d a8eb 09bd 6562 e33c
000001f0: 6f60 953d d56b 98ba a33f 9d3d 1bfa a43d
00000200: 76de 0d3c b0ca 563b ad60 34bd ef11 07bd
00000210: 78c9 aa3c ccc7 a03c c181 4fbc 552e 65bd
00000220: 85f9 bd3d d463 a4bd db67 3a3b 2a5a 173b
00000230: fb2c 0a3d b2ce 93bc ed4e 283d 2e39 983d
00000240: 634c f7bb bb40 4a3c 5aba 5abd 5976 90ba
00000250: c8c9 233d dacd b9bc e3db 58bd a341 0a3d
00000260: 5ddb 7b3d 7291 bfbb c355 013d c66c 8ebd
00000270: ea2b 44bd 7443 81bc 6132 38bd 8188 a53a
00000280: 0282 8bbc 043c f5bc 2b50 0f3d 31b2 ccbd
00000290: 7177 04bc 1b28 cfbc 8055 8c3c c6c8 2dbc
000002a0: 9a7f 81bc d764 363d 00d3 973c 4482 833b
000002b0: 1794 e73a 96fa 463d bd56 47bd f6dc 0e3c
000002c0: 2dae 81bc 17bf e1bb b14b 64bc 42db 09bd
000002d0: 527b 02bd 0196 93bc 3411 9dba 6020 a4bd
000002e0: 5c1d 0e3d 0791 34bd a224 53bc bec0 00bd
000002f0: 5a71 adbb 8fec 91bc 5c52 d4bd bebe cebc
00000300: b3a5 b13c 4c39 f13c fadf b23b c641 33bc
00000310: 428a 4e3c ff73 643d 5ea6 3a3c f84e 203d
00000320: 123a 5dbc c110 b7bd fb93 b6bc 6f0c c2ba
00000330: 45c8 6b3d c767 b4bc 28f0 183b cf1b 2bbd
00000340: dcc3 54bd 2ff0 983c f4be e23b 5d6f f7bd
00000350: a851 3d3c 0246 52bd 207e 343d 0f63 253d
00000360: 2405 44bc cd64 8eb9 f3c9 0d3c 255d 053d
00000370: c5d4 da3c 7f7a 893c 89b6 2e3c 2d96 dbbd
00000380: 6c1d 903c adb8 6e3c 46c1 4f3d e8a5 b5bd
00000390: 94d3 a0bc 27df 5c3c fbf2 2dbc 9164 b8bb
000003a0: 4c2c ac3a a554 c33c ec69 1d3c 4c01 5e3d
000003b0: 0ee9 d0bc ca9d 0f3c 6483 66bd 2802 243d
000003c0: 164c 8f3c 0f1f 71bd f75b e3bc 194c 8d3d
000003d0: 61d1 26bd 6136 5cbd acd7 ba3c 1eab 27bb
000003e0: 179a 5ebb 21e4 1bbd c56f e83c 4b67 77bc
000003f0: 58cc 8cbd 06e4 373d b0c1 43bd f03c 4ebd
0.003510504 0.0062681055 0.045242656 -0.04491815 0.002167777 0.029369004 0.060438838 0.075436205
-0.059125166 0.07766067 0.021485902 0.04628414 -0.033596117 0.03960177 0.033599805 -0.06633504
-0.035492748 0.04194862 0.05067077 0.010519868 -0.010473645 0.05631471 0.044832975 0.007891321
-0.02531831 0.023914972 0.039410934 0.0011330721 0.07924608 0.0696433 -0.010893629 0.061122365
0.09044478 0.06387199 -0.0018715733 0.073132835 0.025228228 0.032103006 0.012717427 0.04384095
-0.0026433957 -0.001170658 0.024025083 -0.015094178 0.0013048791 0.016669696 0.07618283 0.026656497
-0.005384108 0.088532835 0.020241275 0.063937925 0.015766688 0.017670108 -0.019181194 0.058769036
0.029210657 0.0014325603 -0.0033380312 -0.013380484 -0.021400155 0.038747158 0.08604533 -0.020807361
0.036958974 0.02786875 0.011910511 0.033495676 -0.08356747 0.007322821 0.032452684 -0.043310758
0.035537917 0.09105733 0.052446675 0.029263878 -0.0026588764 0.084016465 -0.03886298 0.0390609
-0.006869154 0.0032746107 0.033680137 0.025898583 -0.007692532 0.0719729 0.003224667 -0.000489089
-0.010684975 -0.01648917 -0.066286415 0.017110832 0.047318645 0.023438785 -0.0182796 0.049552765
-0.029664285 0.011076802 -0.022200452 -0.025616426 0.021292841 -0.005419729 0.056214117 -0.050431475
-0.05503743 0.0056848065 0.002537805 -0.046131324 0.058055066 -0.040829275 0.057029173 -0.0066758096
-0.009481214 0.03662696 0.06793062 -0.019226713 0.024749659 0.021317687 0.07520699 0.03912456
-0.011998449 0.06334335 -0.033672005 0.02775688 0.07293784 -0.0011628816 0.07678153 0.08055516
0.008658996 0.003277462 -0.04403751 -0.032976087 0.02084802 0.01962652 -0.012665213 -0.05595239
0.09276108 -0.08026853 0.002844325 0.0023094513 0.033734303 -0.018042896 0.041090894 0.07432781
-0.007546948 0.0123445345 -0.053400375 -0.0011021598 0.039987355 -0.022681165 -0.052944075 0.033754002
0.061488498 -0.005846196 0.03157593 -0.06954341 -0.047893442 -0.015779234 -0.04496992 0.0012629182
-0.017029766 -0.029935844 0.034988564 -0.09994925 -0.008085118 -0.025287678 0.017130613 -0.01060695
-0.015807915 0.044529762 0.01853323 0.0040133316 0.0017668036 0.04857882 -0.048666704 0.008719673
-0.015830124 -0.0068892348 -0.013934062 -0.033656366 -0.03185589 -0.018015863 -0.0011983276 -0.080139875
0.034695968 -0.04408362 -0.012887152 -0.031433813 -0.0052930536 -0.017812995 -0.10367271 -0.025237437
0.021685457 0.029446267 0.005458829 -0.010940975 0.012606205 0.055774685 0.011392204 0.03913781
-0.013502615 -0.089387424 -0.02228736 -0.0014804731 0.05756404 -0.022022141 0.0023336504 -0.041774567
-0.0519446 0.018669216 0.006919736 -0.12081788 0.011555113 -0.051336296 0.044065595 0.040377673
-0.011964116 -0.00027159453 0.0086541055 0.032559533 0.026712785 0.016782044 0.010663637 -0.10722003
0.017592154 0.014570397 0.05072143 -0.08869535 -0.019632138 0.013480938 -0.010617013 -0.005627223
0.001313576 0.023844073 0.009607773 0.054200456 -0.025501754 0.008765647 -0.056277648 0.04004112
0.017492335 -0.05886751 -0.027753813 0.0689928 -0.040727023 -0.053762797 0.022807918 -0.0025584172
-0.0033966356 -0.038059358 0.028373608 -0.015100311 -0.06874913 0.044895194 -0.047792137 -0.050351083

action_model._discrete_distribution.branches.1.bias f4 [3]
00000000: 6f08 cd3b 9863 363c e786 30bc
0.006257109 0.011132143 -0.010774351
