Assets/results/T2/CarDriver/CarDriver-5999968.onnx (onnx, 188993 bytes, 9 tensors)

discrete_act_size_vector f4 [1, 2]
3.0 3.0
00000000: 0000 4040 0000 4040

network_body._body_endoder.seq_layers.0.weight f4 [128, 225]
-0.022204682 -0.028780809 -0.12155377 -0.04316438 -0.0020143148 0.16291183 -0.055574413 -0.037438676
-0.17998578 0.1000328 -0.035057034 -0.029605594 0.01673452 0.07396687 0.06732488 0.03657333
-0.090003245 -0.16811055 0.08393244 -0.09381042 0.05923639 0.03619982 0.0054721297 -0.0045369114
0.11398945 -0.10181574 0.15203224 0.011251338 -0.06293489 -0.12768525 0.09563724 0.011616828
0.118657 -0.025386643 -0.067415036 -0.1250377 -0.035005372 0.022102643 -0.007689525 -0.07267284
-0.018866744 -0.06519875 -0.013429112 0.080873825 0.10238141 -0.06351867 0.0753642 -0.057546727
-0.12866879 -0.22040874 0.12281494 -0.028123725 0.12866198 -0.05225146 0.05986837 0.20319574
0.106816076 -0.18423626 0.13297859 -0.14031857 -0.020601762 -0.21431689 0.014761415 0.044890113
0.06732838 -0.05528027 0.016388863 0.042133205 -0.081372246 -0.19301718 0.053716555 0.047687437
-0.09511085 -0.011472095 0.06443436 -0.10009592 -0.115092345 -0.15671776 0.081612036 -0.0003041788
0.0020106416 0.012691281 -0.0332959 -0.045633543 0.062734626 0.017663129 0.027504697 -0.15481491
0.011729541 0.0323598 -0.035895765 -0.08508977 0.022245524 -0.034538474 -0.024745649 -0.15332726
0.047791045 -5.2961826e-05 -0.062187072 0.0051138075 -0.007355307 -0.021664247 -0.05157912 -0.02418994
-0.014219649 -0.040287513 0.075405344 -0.058607858 -0.103518315 -0.014396822 -0.14733338 0.009475283
-0.005595125 0.006875024 0.09935417 -0.1235674 -0.05228394 0.07706386 0.048940144 0.042633954
0.030904828 -0.18222784 0.12603359 0.035560627 0.107464455 -0.030045187 0.036970783 -0.020649467
0.02322131 -0.07070379 0.061369266 0.03328048 -0.042182043 -0.12821445 0.10223483 -0.0009048985
0.031379372 -0.05868728 -0.0723747 -0.06487125 0.09583799 -0.118613966 -0.029276857 -0.03966089
0.073269494 -0.009097741 0.019329617 -0.026771523 0.025981931 -0.065309316 0.048782066 -0.07854312
0.07399971 -0.032216057 -0.03791563 -0.0059974194 0.092249 -0.013163043 0.02615207 0.078404814
-0.11988256 0.010614827 -0.0021519656 -0.009537384 0.111699805 0.16978592 -0.2208703 0.019310147
0.12917787 -0.06661839 -0.17933068 -0.25133702 -0.010269794 -0.06396548 -0.061830435 -0.01601431
-0.019760605 -0.094448335 -0.04175003 -0.05660378 0.08176482 -0.09753808 -0.005764411 -0.005950664
0.0038922187 -0.06800978 0.13926278 -0.03013505 -0.1884823 -0.06691403 0.12687501 0.11640247
0.012282299 -0.055226717 -0.0038735182 -0.04684602 0.12514932 -0.17931275 -0.14640948 -0.03890554
0.1362996 0.10666198 -0.22419167 -0.087926306 0.10065244 0.010331581 0.03469707 -0.07156429
0.113646045 -0.0846771 -0.0915395 0.017514776 0.034410942 0.015017297 0.14241059 -0.08400355
-0.12798032 -0.09374601 0.102328636 0.068118736 0.052577004 -0.05235662 -0.011733567 -0.025476724
0.09908836 0.06693551 0.053347684 0.071521655 -0.030308828 -0.028956132 0.08017186 0.04324507
-0.11150677 0.00787761 0.025698679 -0.0075926757 -0.14348231 -0.055900026 -0.016412238 0.08567067
0.048548568 0.09598055 0.01898579 -0.021652035 0.00708802 -0.06677699 -0.15135121 -0.051283315
0.078308456 -0.023592586 0.061877392 0.076206006 -0.03417161 0.013397892 -0.038358297 0.048575334
00000000: 98e6 b5bc bbc5 ebbc 2ff1 f8bd 22cd 30bd
00000010: 9802 04bb 5cd2 263e ffa1 63bd 4c59 19bd
00000020: 314e 38be ffdd cc3d f797 0fbd 6e87 f2bc
00000030: d516 893c f17b 973d a0e1 893d ebcd 153d
00000040: 9f53 b8bd 2c25 2cbe c5e4 ab3d ad1f c0bd
00000050: dba1 723d 4346 143d 8d4f b33b 5faa 94bb
00000060: 4d73 e93d c584 d0bd 57ae 1b3e 8857 383c
00000070: 02e4 80bd ecbf 02be 75dd c33d 8254 3e3c
00000080: 7102 f33d a6f7 cfbc e510 8abd e209 00be
00000090: cb61 0fbd 9a10 b53c 69f8 fbbb 7fd5 94bd
000000a0: 6e8e 9abc ec86 85bd c705 5cbc 2da1 a53d
000000b0: 58ad d13d 1416 82bd 8c58 9a3d 1eb6 6bbd
000000c0: c0c1 03be d4b2 61be 6686 fb3d ba63 e6bc
000000d0: f7bf 033e a005 56bd 8938 753d 8b12 503e
000000e0: 63c2 da3d 6ea8 3cbe 8a2b 083e acaf 0fbe
000000f0: 07c5 a8bc e375 5bbe ddd9 713c b2de 373d
00000100: 76e3 893d 906d 62bd f041 863c de93 2c3d
00000110: 7ea6 a6bd 4ca6 45be e405 5c3d e753 433d
00000120: 7ac9 c2bd 74f5 3bbc 29f6 833d 17ff ccbd
00000130: 89b5 ebbd 9f7a 20be 3624 a73d 307a 9fb9
00000140: f8c4 033b 17ef 4f3c 4861 08bd 3dea 3abd
00000150: 037b 803d 44b2 903c 8851 e13c cd87 1ebe
00000160: 432d 403c b68b 043d 7007 13bd 8c43 aebd
00000170: 3f3c b63c 3778 0dbd 63b7 cabc d201 1dbe
00000180: 8bc0 433d 5423 5eb8 dfb7 7ebd ba91 a73b
00000190: ca04 f1bb 3879 b1bc a144 53bd fb29 c6bc
000001a0: 88f9 68bc 8504 25bd 1e6e 9a3d cb0e 70bd
000001b0: 6901 d4bd a6e0 6bbc 90de 16be 383e 1b3c
000001c0: 4f57 b7bb e247 e13b 337a cb3d e810 fdbd
000001d0: af27 56bd a8d3 9d3d 7675 483d f1a0 2e3d
000001e0: 1f2c fd3c ef99 3abe f30e 013e 05a8 113d
000001f0: 5316 dc3d 5321 f6bc ad6e 173d 1229 a9bc
00000200: 9e3a be3c 26cd 90bd 575e 7b3d 1d51 083d
00000210: 14c7 2cbd a64a 03be 7f60 d13d b636 6dba
00000220: a887 003d 1362 70bd 3039 94bd 38db 84bd
00000230: b546 c43d e1eb f2bd 05d6 efbc 7573 22bd
00000240: 510e 963d b10e 15bc 2559 9e3c f44f dbbc
00000250: 0fd8 d43c e4c0 85bd b4cf 473d 37db a0bd
00000260: 298d 973d fcf4 03bd 6b4d 1bbd 0086 c4bb
00000270: 0bed bc3d cea9 57bc de3c d63c b492 a03d
00000280: fd84 f5bd d0e9 2d3c fe07 0dbb b042 1cbc
00000290: dec2 e43d 5cdc 2d3e d32b 62be 5030 9e3c
000002a0: 3447 043e 396f 88bd 76a2 37be 3faf 80be
000002b0: a342 28bc 5500 83bd e941 7dbd 7130 83bc
000002c0: fee0 a1bc 216e c1bd 1402 2bbd 5dd9 67bd
000002d0: 5074 a73d 0bc2 c7bd 62e3 bcbb cafd c2bb
000002e0: 9814 7f3b b648 8bbd e79a 0e3e c8dd f6bc
000002f0: 8101 41be 390a 89bd 86eb 013e 6b64 ee3d
00000300: b23b 493c 6935 62bd dada 7dbb 9de1 3fbd
00000310: 2527 003e c39d 37be 5eec 15be 6a5b 1fbd
00000320: 1f92 0b3e 9971 da3d 8092 65be b512 b4bd
00000330: de22 ce3d cb45 293c 841e 0e3d 4c90 92bd
00000340: 42bf e83d 306b adbd 1079 bbbd 267b 8f3c
00000350: 7df2 0c3d 1c0b 763c 15d4 113e 0e0a acbd
00000360: 460d 03be e8fd bfbd ad91 d13d d681 8b3d
00000370: fc5a 573d e573 56bd 263e 40bc 90b4 d0bc
00000380: d7ee ca3d 7c15 893d 1a83 5a3d f279 923d
00000390: 384a f8bc 6935 edbc 2531 a43d be21 313d
000003a0: a95d e4bd 1711 013c 0986 d23c fbcb f8bb
000003b0: 07ed 12be 6df7 64bd f572 86bc 1b74 af3d
000003c0: ddda 463d 7391 c43d 1688 9b3c 9c5f b1bc
000003d0: 9f42 e83b 60c2 88bd d0fb 1abe 740e 52bd
000003e0: 2f60 a03d 3d45 c1bc 2673 7d3d e511 9c3d
000003f0: 88f7 0bbd d582 5b3c 971d 1dbd eef6 463d

network_body._body_endoder.seq_layers.0.bias f4 [128]
-0.005425607 0.013577673 -0.0036229438 -0.0070346203 0.0043303003 -0.0045966557 -0.005549407 -0.007552184
-0.01530364 -0.04257741 -0.0041434374 -0.009527258 0.016601138 -0.013655795 0.009166515 0.022502853
0.018384531 -0.0030689694 0.022888219 -0.00026413976 0.0013437881 -0.016457798 -0.07419856 -0.009607514
-0.021328144 0.00136399 -0.018325087 0.012610346 -0.019920299 -0.015396507 -0.0013816707 -0.0025607846
-0.030280512 -0.017927323 0.014414178 -0.04578019 0.021407597 0.0071510845 0.03220942 0.0025653173
-0.013147071 0.027026663 0.024628585 -0.008022722 0.010664033 -0.010790528 0.0010067323 -0.0055715726
0.014204639 -0.007365496 0.0028819721 0.002463137 -0.003712304 -0.017157352 -0.013788247 0.0050979513
-0.010517857 0.013672884 0.03240821 0.0075029884 0.024149392 0.016652185 -0.008022064 -0.0012906347
-0.019588538 -0.009422198 0.0008630079 0.031047514 0.024687376 0.02672011 -0.018229647 -0.0193393
0.007378371 0.00045079816 -0.016915409 -0.008119166 -0.006594466 -0.0039845128 -0.00023058637 -0.00749746
-0.0036783102 -0.0071125445 0.009421897 0.002077391 0.021273226 -0.022690153 0.029966855 -0.02141611
0.034944337 -0.0046803765 0.012666882 0.025162343 0.0038804999 -0.001372555 -0.021201903 -0.005954256
0.017454408 0.003776062 -0.007950367 -0.022582652 -0.027516378 -0.009634674 0.021987898 0.009288805
-0.009299058 0.031779606 -0.010107741 -0.004652299 0.0017742027 -0.010579213 0.022856217 0.026832676
0.0010132915 -0.007294893 0.024447352 -0.036243778 -0.0045537823 -0.0194636 -0.023274893 0.02460668
0.010630392 -0.0219272 0.02345757 0.0076047797 -0.020545583 0.0027802123 -0.019765772 0.014811289
00000000: 4ac9 b1bb e374 5e3c e96e 6dbb ac82 e6bb
00000010: 31e5 8d3b 8b9f 96bb cdd7 b5bb 5078 f7bb
00000020: 1ebc 7abc a665 2ebd acc5 87bb 3718 1cbc
00000030: 1cff 873c 8ebc 5fbc 272f 163c e757 b83c
00000040: 289b 963c c320 49bb 1380 bb3c 3d7c 8ab9
00000050: 0c22 b03a 81d2 86bc 6af5 97bd d668 1dbc
00000060: 5cb8 aebc e9c7 b23a 7e1e 96bc a09b 4e3c
00000070: e52f a3bc a241 7cbc 2d19 b5ba d6d2 27bb
00000080: d60e f8bc 52dc 92bc 7229 6c3c 0284 3bbd
00000090: fc5e af3c a553 ea3b 06ee 033d e21e 283b
000000a0: d066 57bc 0567 dd3c e3c1 c93c bc71 03bc
000000b0: 32b8 2e3c c1ca 30bc 55f4 833a bd91 b6bb
000000c0: 93ba 683c 425a f1bb 78df 3c3b 956c 213b
000000d0: 204a 73bb 938d 8cbc 19e8 61bc b70c a73b
000000e0: 1753 2cbc 3b04 603c 79be 043d a1db f53b
000000f0: f2d4 c53c 2a6a 883c fa6e 03bc 842a a9ba
00000100: 2478 a0bc 905f 1abc 7b3b 623a 5b57 fe3c
00000110: 2e3d ca3c 22e4 da3c 5756 95bc 746d 9ebc
00000120: 43c6 f13b 1b59 ec39 2f92 8abc 4006 05bc
00000130: 6416 d8bb 8490 82bb 8fc9 71b9 41ad f5bb
00000140: ce0f 71bb 5910 e9bb 4d5e 1a3c d624 083b
00000150: 3045 ae3c b3e0 b9bc 0d7d f53c d770 afbc
00000160: cb21 0f3d d85d 99bb c188 4f3c 4221 ce3c
00000170: fc4f 7e3b 4ee7 b3ba 9daf adbc eb1b c3bb
00000180: 8cfc 8e3c cf77 773b 4242 02bc 41ff b8bc
00000190: 076a e1bc c0da 1dbc f71f b43c 1230 183c
000001a0: 135b 18bc 552b 023d f09a 25bc 5072 98bb
000001b0: 5d8c e83a 6f54 2dbc f63c bb3c 33d0 db3c
000001c0: 6cd0 843a ff09 efbb d045 c83c 5b74 14bd
000001d0: e537 95bb 2172 9fbc fdaa bebc f393 c93c
000001e0: 182b 2e3c aca0 b3bc 172a c03c 8431 f93b
000001f0: 364f a8bc 3934 363b d4eb a1bc 0cab 723c

network_body._body_endoder.seq_layers.2.weight f4 [128, 128]
0.13987072 -0.01679251 0.03739961 -0.064021505 -0.027845677 -0.19061641 -0.13323046 0.04296522
-0.0008117955 -0.09053285 -0.15071394 0.12070645 -0.11729945 0.049791057 -0.16388945 0.0889092
-0.059008002 -0.11421234 -0.021411486 -0.20409927 -0.06527765 -0.07667279 -0.08847716 -0.04951998
0.06783043 -0.0405872 0.020327201 -0.016583009 -0.13168277 -0.09083952 -0.2254168 0.047503393
0.033128534 0.1523613 -0.16602424 -0.06244388 0.026803927 -0.08188624 -0.11473634 -0.026599685
-0.036417834 0.06881618 0.27542672 0.02973874 -0.117845714 -0.11587715 0.03428384 -0.0062296456
-0.1086703 0.068288416 -0.15948667 -0.02216644 -0.10967436 -0.052831158 -0.0044515496 -0.03629377
-0.14727937 -0.06225414 0.0632921 0.002460135 -0.06546546 0.027103316 0.27552715 -0.006221642
-0.0075425827 0.15507483 -0.14656149 -0.06597266 0.006746627 0.04121332 -0.126112 0.036360007
-0.08230328 -0.15654154 -0.036963258 0.10087141 -0.0496625 -0.0024307563 -0.0068171336 0.084069505
0.059028268 0.00089341385 -0.021256031 0.16466647 0.120412834 -0.10134109 -0.06935343 0.020769255
-0.022403527 -0.06154982 0.13261971 -0.025839629 -0.031103412 0.04939915 0.09750683 -0.039143063
-0.09444011 -0.11761438 0.060277168 -0.143716 0.088094436 -0.08470817 0.11427927 0.027071549
0.05760651 0.036519762 -0.18055733 0.057307575 -0.17002247 -0.11448276 0.15362637 -0.25846636
0.03606941 0.052178066 0.024673121 -0.015898002 0.07032258 -0.18391939 -0.18331583 0.23717746
0.115933046 0.023125915 0.10541225 0.12089053 0.05425074 0.08297553 0.14022662 -0.057379536
-0.071067974 0.08761103 0.12852037 0.33758917 0.04649272 0.13394448 0.085996956 0.03348778
0.08129996 -0.020563994 -0.0345044 -0.008719856 -0.000541937 -0.059010275 0.01331187 0.113650136
0.06819181 0.02695792 0.080679566 0.1670692 0.04717028 -0.015309142 -0.061114695 -0.087845095
0.14625342 0.033553608 0.18970098 -0.08277335 0.17935087 0.12009516 -0.05974057 -0.14154069
-0.07917235 -0.055213626 -0.06524765 -0.04951045 -0.019191992 0.025408603 -0.040993333 -0.313918
-0.11126646 0.06252712 0.11498296 0.032933768 -0.058373768 -0.11769222 -0.10863184 0.014075365
0.046391293 -0.17022917 -0.18449017 0.027041724 0.042001016 -0.15905453 -0.05174533 -0.008680945
-0.070488684 0.06499391 0.06545095 0.0011540463 -0.053544745 0.08517422 -0.010513147 -0.111915715
0.08722404 0.04960856 -0.046460483 -0.0063212207 -0.07754242 -0.008204514 0.031928465 -0.10988859
0.07316655 -0.107102 -0.112610035 0.060590286 -0.025997568 -0.042099074 -0.11399095 0.048951857
0.14110802 -0.10641243 0.064072184 0.051997107 0.11984304 -0.17072915 0.04450108 -0.18865155
-0.08362714 -0.07645334 -0.0030596077 0.11026912 -0.21710116 0.1912452 -0.073349476 0.049860597
0.15561861 -0.10048424 0.012003633 -0.06995703 -0.08882508 0.06488992 -0.11111487 0.08064124
0.04011122 0.095088154 0.13172327 -0.021416802 -0.1857709 0.11141237 0.2432369 -0.1720078
-0.0044036326 -0.011275837 0.12716578 -0.115997575 -0.009218416 -0.002658295 0.15400295 0.057810206
0.05887674 0.093199424 0.020518988 0.219318 -0.17654695 0.09265451 0.093805365 -0.032402657
00000000: 453a 0f3e 7290 89bc 5530 193d b51d 83bd
00000010: 9e1c e4bc f330 43be 916d 08be 4cfc 2f3d
00000020: acce 54ba 4969 b9bd c154 1abe f134 f73d
00000030: b23a f0bd b5f1 4b3d a3d2 27be 0716 b63d
00000040: 60b2 71bd 29e8 e9bd 2467 afbc 66ff 50be
00000050: 4ab0 85bd a006 9dbd 8333 b5bd 76d5 4abd
00000060: aeea 8a3d c43e 26bd 3b85 a63c 17d9 87bc
00000070: d9d7 06be 120a babd a9d3 66be eb92 423d
00000080: c9b1 073d 9a04 1c3e 4202 2abe 27c5 7fbd
00000090: e993 db3c f9b3 a7bd e3fa eabd 95e7 d9bc
000000a0: de2a 15bd 7fef 8c3d bb04 8d3e a89e f33c
000000b0: 1859 f1bd 0051 edbd 366d 0c3d 0e22 ccbb
000000c0: 898e debd ccda 8b3d 7950 23be 6596 b5bc
000000d0: f39c e0bd 7c65 58bd 4ede 91bb c7a8 14bd
000000e0: 67d0 16be 32fe 7ebd 4a9f 813d 373a 213b
000000f0: c112 86bd c607 de3c e511 8d3e eade cbbb
00000100: c527 f7bb f0cb 1e3e 3714 16be ad1c 87bd
00000110: cf12 dd3b 4ccf 283d 8123 01be 3bee 143d
00000120: 9f8e a8bd 6d4c 20be c966 17bd ab95 ce3d
00000130: e86a 4bbd 534d 1fbb 4362 dfbb a22c ac3d
00000140: a0c7 713d fd33 6a3a 2121 aebc 549e 283e
00000150: 019b f63d eb8b cfbd 2c09 8ebd 4924 aa3c
00000160: 9a87 b7bc aa1b 7cbd 76cd 073e a1ad d3bc
00000170: 95cc febc c356 4a3d a9b1 c73d 7a54 20bd
00000180: d169 c1bd cfdf f0bd 31e5 763d 492a 13be
00000190: db6a b43d 7a7b adbd 400b ea3d 27c5 dd3c
000001a0: cef4 6b3d bf95 153d 05e4 38be 59bb 6a3d
000001b0: 5f1a 2ebe f075 eabd 3b50 1d3e b455 84be
000001c0: 85bd 133d abb8 553d 491f ca3c 873c 82bc
000001d0: 4905 903d 5d55 3cbe 25b7 3bbe a6de 723e
000001e0: 4e6e ed3d 8f72 bd3c 61e2 d73d 7495 f73d
000001f0: 0636 5e3d 13ef a93d 9197 0f3e ce06 6bbd
00000200: 168c 91bd 696d b33d d89a 033e 7dd8 ac3e
00000210: 266f 3e3d be28 093e 2c1f b03d 7b2a 093d
00000220: 9880 a63d d275 a8bc 7c54 0dbd badd 0ebc
00000230: c710 0eba c2b4 71bd 081a 5a3c 67c1 e83d
00000240: 26a8 8b3d dbd6 dc3c 543b a53d 3014 2b3e
00000250: a035 413d 32d3 7abc 6753 7abd 21e8 b3bd
00000260: 75c3 153e 826f 093d f940 423e 1385 a9bd
00000270: c1a7 373e 74f4 f53d 87b2 74bd 0bf0 10be
00000280: 1d25 a2bd af27 62bd 8fa0 85bd 78cb 4abd
00000290: 8638 9dbc b425 d03c a0e8 27bd dcb9 a0be
000002a0: abdf e3bd 380e 803d 307c eb3d 8fe5 063d
000002b0: 5519 6fbd 9e08 f1bd 5f7a debd 5c9c 663c
000002c0: cc04 3e3d 8e50 2ebe feea 3cbe 9b86 dd3c
000002d0: 4209 2c3d 31df 22be e9f2 53bd 863a 0ebc
000002e0: 5f5c 90bd 871b 853d 260b 863d 5e43 973a
000002f0: bc51 5bbd d26f ae3d 563f 2cbc 1134 e5bd
00000300: 84a2 b23d 5832 4b3d 594d 3ebd 3e22 cfbb
00000310: 8fce 9ebd 3a6c 06bc 6cc7 023d 450d e1bd
00000320: 58d8 953d 4b58 dbbd 17a0 e6bd 852d 783d
00000330: daf8 d4bc 1470 2cbd 1674 e9bd be81 483d
00000340: 9f7e 103e c3ee d9bd 4738 833d ebfa 543d
00000350: 4570 f53d 9fd3 2ebe c446 363d df2d 41be
00000360: b544 abbd 9293 9cbd b383 48bb c7d4 e13d
00000370: c44f 5ebe c8d5 433e 4038 96bd a03a 4c3d
00000380: 7c5a 1f3e aeca cdbd e3aa 443c a245 8fbd
00000390: ece9 b5bd 02e5 843d 3190 e3bd 3c27 a53d
000003a0: aa4b 243d 94bd c23d 77e2 063e 4a72 afbc
000003b0: ba3a 3ebe 2b2c e43d 1813 793e d022 30be
000003c0: 594c 90bb 4abe 38bc bf37 023e 2390 edbd
000003d0: d708 17bc ca36 2ebb f3b2 1d3e 65ca 6c3d
000003e0: bd28 713d 57df be3d 7017 a83c e694 603e
000003f0: b9c8 34be a6c1 bd3d 071d c03d a6b8 04bd

network_body._body_endoder.seq_layers.2.bias f4 [128]
0.0034082765 0.016906673 -0.00034769205 0.00974633 -0.009514975 -0.007895538 0.016984582 -0.017535752
0.055689458 0.017202117 -0.02270333 -0.0077917874 -0.0047045443 -0.0077170734 0.016446501 -0.038229402
-0.0514591 0.0061449893 -0.011560491 0.007244118 -0.0032920828 0.013417222 -0.0076853074 -0.013718718
-0.015386267 0.056504466 -0.0126408115 0.007718237 0.025212007 0.0204788 -0.0060480163 0.015778083
0.023344528 0.010720623 0.010874546 0.029824689 -0.024726305 0.005526337 0.011848749 0.008989582
0.018762406 -0.013722943 0.0223317 -0.021022545 -9.407736e-05 -0.0022671777 0.021833347 0.008326772
-0.038989738 -0.017781422 0.01725752 0.02311381 -0.017790373 0.019150866 -0.055932272 0.009135916
0.025171408 0.0031952963 -0.052305494 -0.017166814 -0.04106471 0.05106358 0.03756685 0.049811862
0.0074268407 0.011363515 0.031693924 -0.00894344 -0.026842808 -0.02082419 -0.0037417428 0.0022523452
0.010846698 0.028113974 -0.0026608245 -0.0056452067 0.007498327 -0.015824113 0.0003155269 0.021110352
-0.021117158 -0.05219845 -0.008846565 0.030111657 -0.02023716 0.024573885 -0.04857451 -0.020098926
0.05760542 -0.0025270062 0.0011223172 -0.0051987367 -0.01055119 -0.02925899 -0.0069475784 0.002448691
-0.016408535 -0.05386228 0.04644329 0.026418105 0.00670955 -0.014172678 -0.02385047 -0.020182548
-0.027720101 0.020762304 0.0033937183 -0.013290973 0.018082123 -0.008615852 -0.02938232 -0.0015863839
0.0042049875 0.05830495 -0.0039884923 0.011455443 -0.00824124 0.03317174 0.023775065 0.009785353
0.031892832 0.005614667 -0.0014526693 -0.023225771 0.017975794 -0.025616786 0.022287345 0.04098193
00000000: 645d 5f3b dd7f 8a3c 704a b6b9 12af 1f3c
00000010: b3e4 1bbc 495c 01bc 4023 8b3c 23a7 8fbc
00000020: a11a 643d 74eb 8c3c 55fc b9bc 4052 ffbb
00000030: 9428 9abb 81df fcbb d0ba 863c 6f96 1cbd
00000040: c7c6 52bd e85b c93b 3768 3dbc 1160 ed3b
00000050: fcbf 57bb e8d3 5b3c 08d5 fbbb 79c4 60bc
00000060: ae16 7cbc 3a71 673d 681b 4fbc 44e9 fc3b
00000070: 6989 ce3c 28c3 a73c 702e c6bb 0a41 813c
00000080: 063d bf3c 8da5 2f3c 272b 323c e852 f43c
00000090: d28e cabc 4616 b53b 4121 423c 0a49 133c
000000a0: 9eb3 993c 32d6 60bc f8f0 b63c 7937 acbc
000000b0: 664b c5b8 ee94 14bb d9db b23c 036d 083c
000000c0: b4b3 1fbd 58aa 91bc a55f 8d3c 2c59 bd3c
000000d0: 1ebd 91bc 47e2 9c3c 3d19 65bd cfae 153c
000000e0: 4534 ce3c 2d68 513b 493e 56bd 6ba1 8cbc
000000f0: 7833 28bd 0b28 513d b3df 193d 8607 4c3d
00000100: db5c f33b 092e 3a3c 7dd1 013d 8287 12bc
00000110: 73e5 dbbc 7e97 aabc 0738 75bb 159c 133b
00000120: 59b6 313c 474f e63c 3a61 2ebb 6dfb b8bb
00000130: 87b4 f53b 92a1 81bc 4e6d a539 9eef ac3c
00000140: e4fd acbc 0bce 55bd 2ff1 10bc b9ac f63c
00000150: 67c8 a5bc 2c4f c93c 11f6 46bd 81a6 a4bc
00000160: a9f3 6b3d 219c 25bb b71a 933a 2a5a aabb
00000170: e6de 2cbc 8db0 efbc 83a8 e3bb 387a 203b
00000180: 316b 86bc b29e 5cbd 523b 3e3d c86a d83c
00000190: c9db db3b 8534 68bc 1062 c3bc df55 a5bc
000001a0: 4415 e3bc b515 aa3c 2569 5e3b 62c2 59bc
000001b0: f620 943c 8129 0dbc 31b3 f0bc 36ee cfba
000001c0: fec9 893b 2cd1 6e3d e6b1 82bb 9caf 3b3c
000001d0: 4406 07bc 17df 073d edc3 c23c bf52 203c
000001e0: 0fa2 023d 3efb b73b 7e67 beba f943 bebc
000001f0: f941 933c 4bda d1bc f393 b63c abdc 273d

action_model._discrete_distribution.branches.0.weight f4 [3, 128]
-0.056231156 -0.08298277 -0.0009634701 0.005497338 -0.037562467 0.013420658 -0.023032773 -0.021078268
0.038569376 -0.0016366452 -0.084564134 0.014713964 -0.054665655 0.005996472 -0.020145174 -0.08310614
-0.09313191 -0.049195677 -0.03376836 -0.06383243 -0.080133 -0.014424422 -0.11628672 -0.016618714
-0.06756519 0.04946807 0.0024949312 0.050275177 -0.0033188793 0.025695046 -0.039465558 0.058457993
0.064450294 -0.018973377 -0.03126091 0.034391213 0.02933349 -0.120533966 0.015620555 -0.064501055
0.06661237 -0.06116482 -0.066491865 -0.012907988 -0.00088556216 -0.011930773 -0.105805546 0.03448679
-0.072084755 0.021437693 0.044764884 -0.1256689 0.058795027 0.03551212 -0.041412413 0.021295253
-0.018126318 -0.091780506 -0.01418672 -0.010385467 -0.04462694 -0.07194561 -0.06229894 0.03899092
-0.112009235 0.03563568 -0.062957324 -0.02464123 -0.119988374 -0.08829724 -0.032792587 -0.050249998
0.0015403139 -0.07924056 0.055678114 -0.083473735 -0.055299718 0.012255754 0.019031117 0.07647591
-0.06884318 -0.06423397 -0.05823078 0.029372796 -0.111420274 0.056309234 0.02857217 -0.048510928
0.040593136 0.02509728 -0.06213112 -0.005516359 -0.012674242 -0.029621324 0.048817433 -0.06818306
-0.0037408017 0.04226921 0.006325638 0.018639171 -0.08453874 0.07000332 -0.035714433 -0.008658107
-0.0536639 0.011798167 -0.05735899 -0.04372824 0.05881238 -0.10539537 -0.1159752 -0.042722803
-0.076388195 0.03884705 -0.07991324 -0.088792965 -0.01201515 -0.00015694163 0.0020167716 -0.016989516
0.031027129 0.0008438671 -0.05818409 -0.04820533 -0.02777248 0.06287043 -0.041336864 0.01886545
-0.013927979 -0.040432245 -0.09339916 0.05876814 0.09265797 0.044701684 -0.0648258 0.076796845
-0.12688012 0.044576053 0.058117762 0.034703307 0.07418912 0.04492747 0.07372885 0.03966838
0.079479285 0.10312568 -0.09852097 0.13237116 0.011436394 -0.04736032 0.0638776 0.045078956
-0.0059784288 0.036617976 -0.05641794 0.019382983 0.074190974 -0.10005656 -0.061992645 0.014314918
-0.014262213 -0.11100015 0.086082265 0.018078636 0.006158886 0.10388739 0.04493705 0.025662968
-0.013341325 0.051716413 0.07558838 -0.011034585 -0.07039983 -0.07782052 0.010061132 -0.07349469
0.055847343 -0.041191205 0.04300371 0.047352497 -0.028524175 -0.0024428517 -0.014772002 0.010594279
0.08576659 -0.017962784 -0.02523904 0.056736384 -0.033779193 -0.06481289 0.07551108 0.07336329
0.028120514 0.028582122 -0.07261584 0.032753114 0.09559944 0.028702408 0.07783605 -0.052644767
0.07124844 0.016197989 0.0027604098 0.091914326 -0.024540296 -0.0016856898 -0.05078206 -0.027749537
0.06914296 0.03244651 0.028932584 -0.030826643 0.024495054 -0.1371887 -0.04814065 0.006489879
0.05645428 0.030013356 0.021776017 0.05900802 0.032708663 0.035962906 -0.006098141 0.039472193
-0.08730553 -0.024041826 -0.13008748 0.014561808 -0.023133187 -0.03661842 0.058629178 0.008069078
0.062570505 0.05676144 -0.068507336 -0.014298288 0.0057422253 0.11673977 0.10030546 0.026263572
-0.04332731 0.03961395 0.04829607 -0.0013211113 0.05838379 0.0877744 -0.047855783 0.0799961
-0.13893865 0.037525162 -0.017696247 0.08288496 -0.023726674 -0.013718352 0.008497787 -0.014418938
00000000: a452 66bd dff2 a9bd 6291 7cba 0323 b43b
00000010: 1adb 19bd 52e2 5b3c 3aaf bcbc 55ac acbc
00000020: ecfa 1d3d b384 d6ba f62f adbd d712 713c
00000030: 18e9 5fbd 0e7e c43b 7e07 a5bc 8d33 aabd
00000040: f1bb bebd 6881 49bd b150 0abd 94ba 82bd
00000050: c51c a4bd 6954 6cbc bb27 eebd f823 88bc
00000060: 9e5f 8abd 089f 4a3d 0082 233b 58ed 4d3d
00000070: 8e81 59bb 6b7e d23c a3a6 21bd a671 6f3d
00000080: 84fe 833d 0e6e 9bbc 710b 00bd cddd 0c3d
00000090: ca4c f03c 83da f6bd 5bed 7f3c 2119 84bd
000000a0: 116c 883d f687 7abd e32c 88bd 077c 53bc
000000b0: 1225 68ba 4a79 43bc 94b0 d8bd 0542 0d3d
000000c0: 2ca1 93bd 1a9e af3c 625b 373d 59af 00be
000000d0: 0ed3 703d 2875 113d 10a0 29bd 6273 ae3c
000000e0: a57d 94bc 6bf7 bbbd 6b6f 68bc ce27 2abc
000000f0: bdca 36bd 3858 93bd 2c2d 7fbd f1b4 1f3d
00000100: 1965 e5bd b8f6 113d c5ef 80bd 68dc c9bc
00000110: 77bc f5bd 2fd5 b4bd 8551 06bd f1d2 4dbd
00000120: 5ce4 c93a e048 a2bd bc0e 643d 47f4 aabd
00000130: f581 62bd 5ccc 483c 25e7 9b3c 679f 9c3d
00000140: a7fd 8cbd 1a8d 83bd 6683 6ebd 389f f03c
00000150: 5030 e4bd 83a4 663d 2f10 ea3c 65b3 46bd
00000160: fd44 263d d098 cd3c 347d 7ebd 93c2 b4bb
00000170: a0a7 4fbc 6ba8 f2bc caf4 473d 8fa3 8bbd
00000180: 3d28 75bb 7b22 2d3d 4c47 cf3b 2db1 983c
00000190: a622 adbd e75d 8f3d 4c49 12bd bcda 0dbc
000001a0: adce 5bbd 194d 413c 43f1 6abd 621c 33bd
000001b0: 40e5 703d 87d9 d7bd 6884 edbd 1bfe 2ebd
000001c0: 6a71 9cbd 161e 1f3d 8ea9 a3bd 16d9 b5bd
000001d0: 31db 44bc b390 24b9 d02b 043b 992d 8bbc
000001e0: 9b2c fe3c f636 5d3a 7152 6ebd f472 45bd
000001f0: 1d83 e3bc 36c2 803d d850 29bd b78b 9a3c
00000200: 2e32 64bc 489c 25bd 0f48 bfbd dcb6 703d
00000210: 76c3 bd3d 1d19 373d 64c3 84bd aa47 9d3d
00000220: ddec 01be 6195 363d e40c 6e3d 0e25 0e3d
00000230: 77f0 973d de05 383d 27ff 963d 507b 223d
00000240: 09c6 a23d 8e33 d33d 5dc5 c9bd 4e8c 073e
00000250: b75f 3b3c e5fc 41bd 42d2 823d b6a4 383d
00000260: b2e6 c3bb bbfc 153d 7f16 67bd 10c9 9e3c
00000270: 70f1 973d 74ea ccbd 00ec 7dbd 1e89 6a3c
00000280: 0fac 69bc 0c54 e3bd e64b b03d a619 943c
00000290: 7bd0 c93b e9c2 d43d ea0f 383d 253b d23c
000002a0: 9395 5abc 97d4 533d 15ce 9a3d 67ca 34bc
000002b0: c92d 90bd 5d60 9fbd 72d7 243c 6284 96bd
000002c0: 2fc0 643d 1cb8 28bd a924 303d b1f4 413d
000002d0: 88ab e9bc 4018 20bb 4406 72bc a093 2d3c
000002e0: 65a6 af3d b026 93bc 1ac2 cebc 6964 683d
000002f0: 0d5c 0abd 9fbc 84bd 8ea5 9a3d 7e3f 963d
00000300: fe5c e63c 0e25 ea3c 9db7 94bd 2128 063d
00000310: a4c9 c33d 5021 eb3c 8268 9f3d 0aa2 57bd
00000320: b4ea 913d a5b1 843c fee7 343b 943d bc3d
00000330: bb08 c9bc 5df2 dcba d900 50bd ff52 e3bc
00000340: d39a 8d3d a2e6 043d 0704 ed3c 2888 fcbc
00000350: daa9 c83c 327b 0cbe 212f 45bd 0da9 d43b
00000360: 9a3c 673d 92de f53c 9e63 b23c 65b2 713d
00000370: 85f9 053d d74d 133d ead2 c7bb 98ad 213d
00000380: 3ecd b2bd 5df3 c4bc a735 05be a694 6e3c
00000390: cf81 bdbc 32fd 15bd 2625 703d 2b34 043c
000003a0: f724 803d af7e 683d 934d 8cbd 5e43 6abc
000003b0: 4729 bc3b 4315 ef3d f36c cd3d b426 d73c
000003c0: fa77 31bd 3d42 223d 1ad2 453d 2429 adba
000003d0: d723 6f3d 11c3 b33d 6d04 44bd ffd4 a33d
000003e0: ef45 0ebe fcb3 193d b8f7 90bc 97bf a93d
000003f0: 715e c2bc f0c2 60bc 4d3a 0b3c 693d 6cbc

action_model._discrete_distribution.branches.0.bias f4 [3]
0.07603104 -0.023904482 -0.064403966
00000000: 29b6 9b3d 55d3 c3bc 3ae6 83bd

action_model._discrete_distribution.branches.1.weight f4 [3, 128]
0.004117793 0.010837581 0.048382495 -0.049045112 0.0035314811 0.022552941 0.06491335 0.0776545
-0.062254857 0.082642846 0.019153697 0.046217002 -0.037695315 0.041143943 0.033512566 -0.0712196
-0.026613997 0.03656027 0.053524166 0.0057871905 -0.007534212 0.05733936 0.04737278 0.005594843
-0.029666072 0.017190075 0.042924054 -0.005463997 0.07319427 0.06785547 -0.0037036513 0.050771743
0.08317225 0.06656309 -0.004703695 0.071364686 0.028952995 0.03930815 0.0041174763 0.044230156
-0.008144339 -0.0018003109 0.021817734 -0.016084885 -0.00042028146 0.015131112 0.078463696 0.029403966
-0.0049438933 0.093019776 0.009658715 0.06738162 0.021015799 0.024130685 -0.021645023 0.063686915
0.02379441 0.010119571 -0.00030099452 -0.014421295 -0.018993786 0.041842774 0.09433049 -0.024998158
0.038107745 0.020262118 0.01322395 0.030031264 -0.07242477 0.005709821 0.02750756 -0.041660864
0.031047324 0.09526485 0.049404655 0.032575622 -0.010597007 0.08624139 -0.038768306 0.033570398
0.002222818 0.00086661254 0.03641014 0.027916646 -0.0009940465 0.07629085 0.007452713 -0.00065683445
-0.015477485 -0.02123041 -0.066132665 0.013791417 0.04536206 0.02442939 -0.023798082 0.055528756
-0.023201214 0.008416927 -0.021195566 -0.023274323 0.027276421 -0.008303275 0.052645788 -0.0453096
-0.0585557 -0.00053697213 0.004399961 -0.04636252 0.05252608 -0.0348956 0.051066697 -0.012022439
-0.009664694 0.032663338 0.06317656 -0.023864135 0.025799101 0.019541925 0.074558854 0.04024246
-0.009577495 0.064728886 -0.031450033 0.026521835 0.07960323 -0.011164695 0.079647556 0.07903474
0.013770309 0.0056379614 -0.04615782 -0.028858503 0.013873477 0.018896572 -0.016498234 -0.05512323
0.090358146 -0.086367294 0.0017943972 -0.0013652939 0.02990042 -0.011295334 0.040268138 0.07146295
-0.0046796883 0.013121757 -0.050135743 -0.0013645049 0.04766665 -0.020154206 -0.056146976 0.024765195
0.06005335 -7.4691554e-05 0.027861385 -0.060087964 -0.045529548 -0.012142778 -0.04372273 0.0058786073
-0.015469309 -0.029821837 0.034233756 -0.09380507 -0.013454981 -0.027316121 0.019952506 -0.012771387
-0.009912306 0.041677665 0.020255622 -0.0015678618 0.00092895865 0.049121838 -0.048718132 0.0044922004
-0.021743707 -0.018641492 -0.008057084 -0.03531965 -0.040169436 -0.023701036 0.0051086303 -0.08024066
0.033554457 -0.043637156 -0.01931079 -0.019473018 -0.0072168573 -0.018668309 -0.10167593 -0.017297825
0.022645017 0.03335546 0.007942658 -0.007251314 0.011814077 0.053616807 0.010135067 0.04339779
-0.016043805 -0.09153735 -0.016972415 0.0010079623 0.060271814 -0.030236576 0.0020518864 -0.034603212
-0.044828262 0.026337285 0.0021382922 -0.115565166 0.013153995 -0.056737963 0.04074073 0.04582916
-0.007879494 0.006298551 0.019436121 0.036030654 0.030161466 0.013002119 0.014888463 -0.109627254
0.01450196 0.013727501 0.051689927 -0.086712874 -0.014764051 0.01612731 -0.010752875 -0.0070535527
0.0010393022 0.02473593 0.01692724 0.059337765 -0.017378658 0.0117245605 -0.054494485 0.039977435
0.019728387 -0.061964516 -0.026496263 0.072808914 -0.029164683 -0.055181973 0.015218572 0.0062125074
-0.0049358327 -0.030885892 0.025116835 -0.014056191 -0.07411405 0.05405626 -0.04774182 -0.049081996
00000000: 8dee 863b 1c90 313c b92c 463d 87e3 48bd
00000010: 6c70 673b f2c0 b83c 4af1 843d 5309 9f3d
00000020: f3fe 7ebd a740 a93d 37e8 9c3c 0a4e 3d3d
00000030: 6766 1abd 8d86 283d 7944 093d 95db 91bd
00000040: 9905 dabc 39c0 153d 283c 5b3d 79a2 bd3b
00000050: 8de1 f6bb addc 6a3d f609 423d f254 b73b
00000060: 4306 f3bc 33d2 8c3c 22d1 2f3d 540b b3bb
00000070: e1e6 953d cff7 8a3d f5b8 72bb 08f6 4f3d
00000080: 3656 aa3d 3b52 883d 7421 9abb a627 923d
00000090: d52e ed3c 9501 213d e5eb 863b ae2a 353d
000000a0: d56f 05bc 69f8 ebba 1bbb b23c 73c4 83bc
000000b0: 3959 dcb9 7ce8 773c 93b1 a03d 96e0 f03c
000000c0: 6200 a2bb 2781 be3d 963f 1e3c 60ff 893d
000000d0: 5329 ac3c b7ad c53c e750 b1bc 496e 823d
000000e0: 7fec c23c 8fcc 253c cdce 9db9 4c47 6cbc
000000f0: db98 9bbc 5463 2b3d 5830 c13d f0c8 ccbc
00000100: de16 1c3d befc a53c 44a9 583c 2004 f63c
00000110: 7053 94bd 7319 bb3b 8957 e13c 95a4 2abd
00000120: f556 fe3c 381a c33d 895c 4a3d 046e 053d
00000130: 129f 2dbc 539f b03d 84cb 1ebd 1d81 093d
00000140: b3ac 113b 622d 633a cd22 153d 73b1 e43c
00000150: aa4a 82ba 613e 9c3d e335 f43b 6a2f 2cba
00000160: 4795 7dbc 66eb adbc 9070 87bd 65f5 613c
00000170: 91cd 393d 2520 c83c 32f4 c2bc 1f72 633d
00000180: 7910 bebc 27e7 093c 53a2 adbc cba9 bebc
00000190: cd72 df3c 760a 08bc 1ca3 573d 8f96 39bd
000001a0: 1ad8 6fbd 97c3 0cba 8c2d 903b a0e6 3dbd
000001b0: 9625 573d b0ee 0ebd 502b 513d c4f9 44bc
000001c0: aa58 1ebc fec9 053d b662 813d b87e c3bc
000001d0: a358 d33c 6316 a03c 50b2 983d 47d5 243d
000001e0: edea 1cbc 9490 843d c0d1 00bd 5244 d93c
000001f0: 0507 a33d 20ec 36bc 421e a33d f7dc a13d
00000200: dd9c 613c a6be b83b fb0f 3dbd ab68 ecbc
00000210: 944d 633c fccc 9a3c 4e27 87bc e5c8 61bd
00000220: b10d b93d 56e1 b0bd fb31 eb3a a9f3 b2ba
00000230: baf1 f43c 1110 39bc 34f0 243d 2b5b 923d
00000240: 1258 99bb a3fc 563c 235b 4dbd 30d9 b2ba
00000250: 1b3e 433d 6f1a a5bc 5ffa 65bd 61e0 ca3c
00000260: 80fa 753d b9a3 9cb8 8f3d e43c cc1e 76bd
00000270: 317d 3abd 81f2 46bc 9b16 33bd 55a1 c03b
00000280: fc72 7dbc ed4c f4bc b238 0c3d df1c c0bd
00000290: 4872 5cbc 0fc6 dfbc 7073 a33c 143f 51bc
000002a0: 3a67 22bc 33b6 2a3d 1eef a53c b680 cdba
000002b0: 5c85 733a fb33 493d aa8c 47bd 4f33 933b
000002c0: dc1f b2bc 0bb6 98bc dc01 04bc 56ab 10bd
000002d0: b588 24bd ad28 c2bc 4c66 a73b 3755 a4bd
000002e0: 6670 093d e0bc 32bd a931 9ebc e185 9fbc
000002f0: 637b ecbb 48ee 98bc 783b d0bd 2bb4 8dbc
00000300: 0b82 b93c bc9f 083d ec21 023c 6e9c edbb
00000310: d58f 413c 4c9d 5b3d 8d0d 263c e2c1 313d
00000320: 4c6e 83bc ef77 bbbd bc09 8bbc 9a1d 843a
00000330: 94df 763d b2b2 f7bc f178 063b 19bc 0dbd
00000340: d79d 37bd 4ac1 d73c 9722 0c3b 6ead ecbd
00000350: db83 573c 1166 68bd c0df 263d 5bb7 3b3d
00000360: fe18 01bc 1364 ce3b 8038 9f3c e194 133d
00000370: 2e15 f73c d706 553c bdee 733c 4184 e0bd
00000380: a199 6d3c 50e9 603c d1b8 533d 8596 b1bd
00000390: ebe4 71bc 6c1d 843c d42c 30bc 7d21 e7bb
000003a0: 3239 883a 01a3 ca3c ffaa 8a3c 280c 733d
000003b0: b05d 8ebc 5f18 403c 9c35 5fbd 61bf 233d
000003c0: 6d9d a13c 81ce 7dbd b10e d9bc d71c 953d
000003d0: c6ea eebc 7e06 62bd 5157 793c 4a92 cb3b
000003e0: c4bc a1bb 6904 fdbc d2c1 cd3c f04b 66bc
000003f0: 1bc9 97bd 196a 5d3d ed8c 43bd 340a 49bd

action_model._discrete_distribution.branches.1.bias f4 [3]
0.0033390606 0.015030716 -0.011205793
00000000: 24d4 5a3b 6443 763c 8198 37bc
