Assets/results/T2/CarDriver/CarDriver-1999957.onnx (onnx, 188993 bytes, 9 tensors)

discrete_act_size_vector f4 [1, 2]
0	0x40400000	3.0
1	0x40400000	3.0

network_body._body_endoder.seq_layers.0.weight f4 [128, 225]
0	0xbe0f2dab	-0.13982265
1	0x3da476f0	0.08030498
2	0x3e0b16d2	0.13582924
3	0xbd42e180	-0.047578335
4	0x3d2e0e00	0.04249382
5	0xbdd04f6e	-0.101714
6	0xbdce31ae	-0.100680694
7	0xbd90ae92	-0.07064547
8	0x3d313418	0.04326257
9	0xbcbb6b5a	-0.022878338
10	0xbd92c218	-0.07165927
11	0xbc7a9e0c	-0.01529647
12	0x3e0f1688	0.13973439
13	0x3dd691e2	0.10477044
14	0xbe2bb107	-0.1676675
15	0xbd590614	-0.052984312
16	0xbdaedc8b	-0.08538159
17	0xbd699fed	-0.057037283
18	0xbe49f6d2	-0.1972306
19	0xbdebce58	-0.11513966
20	0xbcbce6fe	-0.023059364
21	0x3c515361	0.012776227
22	0xbe345e07	-0.17613994
23	0xbd4dd9dc	-0.050256595
24	0xbe198c4f	-0.1499493
25	0x3e1efb52	0.15525559
26	0x3c48fbdc	0.012267079
27	0xbd6f3a82	-0.058405407
28	0xbde0ccb6	-0.109765455
29	0xbce24dec	-0.027625047
30	0x3cb5c82e	0.02219018
31	0xbc8827b8	-0.016620502
32	0x3d494fc9	0.049148355
33	0x3d9f2cab	0.077721916
34	0x3c9eeec7	0.019400967
35	0xbe016c15	-0.12638886
36	0x3d4099c4	0.047021642
37	0xbd23ba83	-0.039972793
38	0xbc8c49c6	-0.017125022
39	0xbd6fef1e	-0.05857765
40	0x3cc17952	0.02361742
41	0xbd0d9aa7	-0.034571316
42	0x3cd9fb8a	0.026609201
43	0xbd2de7d6	-0.042457424
44	0x3dd2128a	0.10257442
45	0xbca8dd58	-0.020613357
46	0xbdaa9dfa	-0.08330913
47	0x3befe062	0.0073204497
48	0x3d903917	0.07042139
49	0xbe163708	-0.1466943
50	0xbe622cfd	-0.22087474
51	0xbbd3ea5b	-0.0064671463
52	0xbd297ac7	-0.041376855
53	0x3dc0940e	0.09403239
54	0x3c841f66	0.016128253
55	0xbcc04967	-0.023472501
56	0xbd06aa49	-0.03287724
57	0x3df4c1e5	0.11951045
58	0x3dc90557	0.098154716
59	0x3c911275	0.017708996
60	0xbe802fdb	-0.2503651
61	0xbd1b5365	-0.037921328
62	0xbd5a0f11	-0.053237025
63	0xbc5b3880	-0.01338017
64	0xbaee06b7	-0.001815996
65	0xbdbd4368	-0.09241372
66	0xbbaeb128	-0.0053311773
67	0x3c69cec9	0.014270493
68	0xbda93f9d	-0.082640864
69	0xbcced8c0	-0.025249839
70	0x3d9f2b6c	0.07771954
71	0x3b4e0649	0.0031436852
72	0x3dfb5038	0.1227116
73	0xbdd78fe0	-0.10525489
74	0x3dac32e1	0.08408142
75	0x3db25c53	0.08709016
76	0x3dc0cfe3	0.09414651
77	0xbdae1f2a	-0.08502038
78	0xbc86e498	-0.016466424
79	0xbd5eb874	-0.054375127
80	0x3e561848	0.209077
81	0x3c697a80	0.014250398
82	0xbc9339c3	-0.017971879
83	0xbb04c683	-0.0020259924
84	0xbde52141	-0.11187983
85	0x3df1211f	0.117738955
86	0x3da042f2	0.07825269
87	0x3d86fd9a	0.065913394
88	0xbe02b589	-0.12764563
89	0x3e62555c	0.22102875
90	0x3db08b31	0.08620299
91	0xbd0ba8ff	-0.034096714
92	0x3d1630da	0.036667682
93	0xbe472f69	-0.1945168
94	0xbe1dbfaf	-0.15405153
95	0x3d18fd55	0.03735097
96	0x3c86a690	0.016436845
97	0x3d3f833a	0.046756007
98	0xbd46b41e	-0.048511617
99	0x3d013a6e	0.031549864
100	0x3db88484	0.0900965
101	0xbd869d25	-0.06572942
102	0xbd96cc93	-0.07363238
103	0xba6bf76f	-0.0009001409
104	0x3e1ceaa1	0.15323879
105	0xbc8193a6	-0.015817475
106	0x3d3bd00a	0.0458527
107	0x3bbae46f	0.005703501
108	0xbcc3e6e0	-0.0239138
109	0x3d440a05	0.047861118
110	0xbd70cc75	-0.058788735
111	0x3ba52d19	0.0050407765
112	0x3d652d28	0.055951267
113	0xbde2aafd	-0.1106777
114	0xbd6285f0	-0.055303514
115	0xbd31ac4e	-0.043377213
116	0x3e436622	0.1908193
117	0xbdf2baf8	-0.11852068
118	0x3d4f7e12	0.05065734
119	0x3e1b1cee	0.15147755
120	0x3dffbc15	0.12487046
121	0xbe467a30	-0.19382548
122	0x3d8bc819	0.06825275
123	0x3bc25dc9	0.00593159
124	0xbe40bdc8	-0.18822396
125	0x3d07a2f0	0.033114374
126	0x3d9e35e7	0.07725125
127	0x3d4c0f58	0.04981932
128	0x3e51d1fe	0.20490262
129	0xbe31fccd	-0.17381592
130	0xbd996783	-0.074904464
131	0x3dff6411	0.12470258
132	0x3d94c1d8	0.07263535
133	0xbe034a22	-0.12821248
134	0x3bfa0056	0.0076294346
135	0xbd7541db	-0.059877258
136	0xbcd633b9	-0.02614771
137	0xbd4294f3	-0.04750533
138	0x3d27b87a	0.040947415
139	0xbc5fa0cc	-0.013649177
140	0x3d617cf3	0.0550508
141	0xbd8c5f1a	-0.06854077
142	0x3d89b126	0.067232415
143	0x3d0124e0	0.031529307
144	0xbdbeec05	-0.09322361
145	0xbd0e2f30	-0.03471297
146	0x3d624239	0.055238936
147	0x3df27d32	0.11840285
148	0x3d935b03	0.071950935
149	0xbb88c7a2	-0.0041741887
150	0x3d0c5068	0.03425637
151	0xbc33552f	-0.010945602
152	0xbddcfaf2	-0.107900515
153	0x3d1a0b11	0.03760821
154	0x3dd9efae	0.106414184
155	0x3dba30e0	0.090913534
156	0x3d54aef1	0.05192465
157	0x3e0466bb	0.12929814
158	0xbc265be9	-0.010153749
159	0x39d05d43	0.00039742337
160	0x3db7c4b1	0.08973063
161	0xbda6ae65	-0.08138732
162	0x3d8a2039	0.06744427
163	0x3c2fa5ce	0.010720683
164	0xbd06f20c	-0.032945678
165	0x3db537ce	0.088485345
166	0x3e015047	0.1262828
167	0x3d870695	0.06593052
168	0x3e33ddbf	0.17565058
169	0xbda8386a	-0.08213885
170	0xbd897c70	-0.06713188
171	0x3cb4cb3c	0.022069566
172	0x3cf85ae3	0.030316776
173	0x3d2a47b0	0.041572273
174	0x3d5502b5	0.052004535
175	0xbd47da7e	-0.048792355
176	0x3e81c9d4	0.25349295
177	0xbde3409a	-0.11096306
178	0xbd34779d	-0.044059385
179	0xbda35130	-0.0797447
180	0xbe6f23d9	-0.23353519
181	0x3d8a0d0d	0.067407705
182	0x3e6028a2	0.218905
183	0x3ca10d04	0.019659527
184	0x3d2e8b4f	0.042613324
185	0xbd93ad8d	-0.072108366
186	0xbe002ed7	-0.12517868
187	0x3d8791cc	0.066196054
188	0xbd05fe2b	-0.032713097
189	0x3d4a1b4e	0.049342446
190	0xbbe46230	-0.0069697127
191	0x3dfc7131	0.12326277
192	0xbe057609	-0.13033308
193	0x3e1a3dc2	0.15062621
194	0x3e0192de	0.12653682
195	0xbd909c24	-0.070610315
196	0x3e58e921	0.21182682
197	0xbd2e463b	-0.042547446
198	0xbe602ad5	-0.21891339
199	0xbc873add	-0.01650756
200	0x3c0edcad	0.008719605
201	0xbcd37477	-0.02581237
202	0x3dee911d	0.11648772
203	0x3dc64821	0.09681726
204	0x3e4009ec	0.18753785
205	0xbe789348	-0.24274933
206	0xbdbbae14	-0.09164062
207	0x3d9c6f79	0.07638449
208	0xbee03ad5	-0.43794885
209	0x3d90951a	0.07059689
210	0x3caa3929	0.02077921
211	0x3d623d68	0.055234343
212	0xbc8e6df8	-0.017386422
213	0x3d392627	0.0452024
214	0xbdc28f1a	-0.09499951
215	0x3d8481ea	0.06470092
216	0x3d2b0bde	0.041759364
217	0x3d85c4a7	0.06531649
218	0x3dda68c4	0.10664514
219	0xbc9f5520	-0.01944977
220	0xbdba8460	-0.0910728
221	0x3da94f41	0.082670696
222	0xbc863c1e	-0.016386088
223	0x3c5c5462	0.013447853
224	0xbe1ba886	-0.15201005
225	0xbdce8597	-0.10084074
226	0x3cc7de51	0.024398
227	0xbd9d5366	-0.076819226
228	0xbb6b41a1	-0.0035897272
229	0x3d9ec88a	0.077530935
230	0x3d1a8f5b	0.03773437
231	0x3d717809	0.058952365
232	0xbe32f025	-0.1747442
233	0xbdf9ad9b	-0.12191316
234	0x3cdbb992	0.026821885
235	0xbd90d0cf	-0.07071077
236	0xbd81749b	-0.06321069
237	0xbd85362c	-0.06504473
238	0x3ceb01d1	0.02868739
239	0x3bd6029b	0.0065310723
240	0x3d532c2a	0.05155579
241	0xbccadd51	-0.024763735
242	0xbbe1bafb	-0.006888745
243	0xbda7d1d0	-0.081943154
244	0xbd0a5668	-0.03377381
245	0xbd196b10	-0.03745562
246	0xbd2b3281	-0.04179621
247	0xbd446e90	-0.047957003
248	0xbcf021c6	-0.02931298
249	0xbc8ac3d1	-0.016939076
250	0xbc99cbf4	-0.01877401
251	0xbe191c1c	-0.14952129
252	0xbdb6c277	-0.0892381
253	0x3c667a7a	0.014067287
254	0x3d5a429b	0.053286176
255	0x3c80aaf0	0.01570651

network_body._body_endoder.seq_layers.0.bias f4 [128]
0	0x3b8ae82a	0.004239102
1	0xbc1c39d4	-0.009535272
2	0x3d163a13	0.036676478
3	0x3cf00b74	0.029302336
4	0x3c91545e	0.017740425
5	0x3d28ecef	0.041241582
6	0xbc0a4cc4	-0.008441154
7	0x3d232ea8	0.039839417
8	0x3bf6cf68	0.007532049
9	0xbd8f1358	-0.069861114
10	0x3c15dffd	0.009147641
11	0xbb2cb337	-0.0026351938
12	0xbd87c8ed	-0.066301204
13	0x3c7b1679	0.015325182
14	0x3d6eb0bb	0.058274012
15	0x3d3250b7	0.043534007
16	0xbd5e7fcc	-0.054321095
17	0x3d44badc	0.048029765
18	0x3d179124	0.03700365
19	0xbd52907b	-0.05140732
20	0xbcb85177	-0.022499783
21	0xbcbc09a2	-0.022953812
22	0x3c2f72b1	0.010708497
23	0xbd20295c	-0.039101943
24	0xbd262c7e	-0.040569775
25	0xba12983f	-0.00055921444
26	0x3c871262	0.016488258
27	0xbce8974d	-0.028392458
28	0x3c88e9b5	0.016713003
29	0x3d197f38	0.03747484
30	0xbc9cbd41	-0.019133212
31	0xbbed8a70	-0.007249169
32	0xbd5dddce	-0.054166608
33	0x3d22651c	0.039647207
34	0x3b0b3545	0.0021241468
35	0x3afa1935	0.0019080999
36	0x3c3a5c4f	0.011374547
37	0xbd60e479	-0.05490539
38	0xbd1ddbe0	-0.038539767
39	0xbd03b594	-0.03215559
40	0x3c18d9e0	0.009329289
41	0x3cd2b3fe	0.025720593
42	0xbcbf5358	-0.023355171
43	0xbc47b07c	-0.012188073
44	0xbafa6d7e	-0.0019106118
45	0x3d510fe5	0.05104055
46	0x3944d217	0.00018770281
47	0x3cab6666	0.02092285
48	0xbbf2c1b7	-0.0074083465
49	0x3d442a68	0.047892004
50	0x3cbdb7a0	0.023158848
51	0xbc0e717c	-0.008694049
52	0x3cb4f36d	0.02208873
53	0xbab31651	-0.0013663267
54	0xbd3facae	-0.04679554
55	0x3ccf6c1c	0.025320105
56	0xbc22d1be	-0.009937702
57	0x3cc44e1d	0.023963029
58	0xbc41909d	-0.011814264
59	0x3d72ceed	0.05927937
60	0x3c890e05	0.016730318
61	0xbd515639	-0.05110762
62	0x3d42983e	0.04750847
63	0x3c7560e4	0.014976714
64	0xbd978c10	-0.07399762
65	0xbc2aaa0c	-0.010416519
66	0xbd034b6e	-0.032054357
67	0x3c723325	0.014782702
68	0x3cff1b6f	0.031141011
69	0x3c4f5276	0.012653938
70	0xbc828d83	-0.015936619
71	0xbd4ca74e	-0.04996424
72	0x3cccc0dd	0.024994308
73	0x3ca064e0	0.019579351
74	0xbd887fad	-0.06664977
75	0x39d44d8a	0.00040493562
76	0x3ab9de1a	0.0014180571
77	0x3cc46ba4	0.023977108
78	0xbdd03708	-0.101667464
79	0x3d40b837	0.04705068
80	0x3bc57de8	0.006026972
81	0x3c8a67ab	0.016895136
82	0xbd6adef5	-0.057341535
83	0xbcad9e3a	-0.021193612
84	0x3b537c56	0.0032270155
85	0x3c10aa6d	0.008829695
86	0x3c500e7d	0.012698767
87	0xbca79327	-0.02045591
88	0xbd36483a	-0.044502474
89	0xbbb2bb88	-0.0054544844
90	0xbc92c919	-0.017918156
91	0xbdaac227	-0.08337813
92	0x3bc04d65	0.005868601
93	0x3d0f8d7a	0.035047032
94	0x3c68ca53	0.014208394
95	0x3ce52ed5	0.027976433
96	0x3c95ecb8	0.018301353
97	0x3c61776c	0.013761383
98	0x3c5ffe40	0.013671458
99	0x3d2bfede	0.041991107
100	0x3d00dc5e	0.03146016
101	0x3d2cd047	0.042190816
102	0xbb563271	-0.0032683874
103	0xbd216e5a	-0.03941188
104	0x3ce62b05	0.028096685
105	0x3d321949	0.043481145
106	0x3be75a30	0.0070603117
107	0x3c2ebc59	0.010665023
108	0x3cf1dcb3	0.029524183
109	0x3cc1a3a7	0.023637606
110	0xbb862c39	-0.004094627
111	0x3c6b92b4	0.0143782385
112	0x3d08f7d8	0.033439487
113	0xbda805ad	-0.082042076
114	0x3c4a43ea	0.012345294
115	0x3ce8661e	0.028369006
116	0x3c00364c	0.007825445
117	0xbd821709	-0.0635205
118	0xbd8462e7	-0.064641766
119	0xbd1237eb	-0.03569786
120	0xbb4a9658	-0.0030912366
121	0x3b404738	0.0029339325
122	0x3c81d78e	0.015849855
123	0x3c2e6a29	0.010645428
124	0x3b9763e7	0.0046200636
125	0xbcf231c0	-0.029564738
126	0xbbabec6e	-0.0052466905
127	0xbc950397	-0.018190188

network_body._body_endoder.seq_layers.2.weight f4 [128, 128]
0	0xbd946699	-0.072461314
1	0xbd128672	-0.03577275
2	0x3caa9df3	0.02082727
3	0x3d0d903b	0.034561377
4	0x3d917539	0.071024366
5	0x3e7a637c	0.24452013
6	0x3d655e88	0.055998355
7	0x3e07ab10	0.13248849
8	0xbb4448e6	-0.0029950677
9	0x3cbe6eb1	0.023246141
10	0x3cf2aa84	0.029622324
11	0xbe50d052	-0.20391968
12	0xbd2c7400	-0.042102814
13	0x3cca29aa	0.02467807
14	0x3d8bb8db	0.06822368
15	0x3df83dfd	0.12121198
16	0x3cd950a8	0.026527718
17	0xbd6a7777	-0.057242837
18	0xbd057a05	-0.03258707
19	0x3b14cfda	0.0022706897
20	0xbe390d4a	-0.18071476
21	0xbd85e2fd	-0.06537435
22	0xbe2d1858	-0.16903818
23	0x3e003647	0.12520705
24	0x3d46e97b	0.048562508
25	0x3b1c6e49	0.0023869446
26	0x3cfb0d23	0.030645913
27	0x3dc644f6	0.09681122
28	0x3ce0da47	0.027447833
29	0x3e638922	0.22220281
30	0xbd6ea82d	-0.058265854
31	0xbdef1c99	-0.116753764
32	0x3e0df24c	0.1386196
33	0x3c9fb57b	0.019495716
34	0xbe7b23c8	-0.24525368
35	0x3e8a68af	0.27032992
36	0xbc7eeb89	-0.015559086
37	0xbcac3072	-0.021019194
38	0xbe3a5e48	-0.18200028
39	0x3e1f3fbb	0.15551655
40	0xbdd07b8e	-0.10179816
41	0xbb801256	-0.003908436
42	0xbe245423	-0.1604772
43	0xbe3c6b17	-0.18400227
44	0xbe005291	-0.12531497
45	0x3dc52ab1	0.09627283
46	0x3ad52d81	0.0016264172
47	0xbe7564bc	-0.23964208
48	0xbb764389	-0.0037576875
49	0x3da229bb	0.07918116
50	0xbde918b8	-0.11381668
51	0xbdb53e43	-0.08849766
52	0x3d336e12	0.043806143
53	0xbe358c0b	-0.17729203
54	0xbe183d65	-0.1486717
55	0x3e8828f2	0.2659374
56	0x3d5c98ba	0.05385659
57	0xbd7fcb58	-0.062449783
58	0x3dba25c4	0.090892345
59	0x3c75acec	0.014994841
60	0xbcf104a3	-0.029421156
61	0x3c96c656	0.01840512
62	0x3e3a33ff	0.18183897
63	0xbe162b76	-0.14665017
64	0xbdebeed1	-0.1152016
65	0xbdef8213	-0.116947316
66	0xbda86f1c	-0.082243174
67	0xbd98a894	-0.07454029
68	0xbcb4cdc3	-0.022070771
69	0xbc1c76ea	-0.009549836
70	0xbbd02015	-0.0063514807
71	0x3cb4fd26	0.022093367
72	0x3d0d836a	0.034549154
73	0x3d4f4f83	0.050612938
74	0x3c564b05	0.0130794095
75	0xbe1698ad	-0.14706679
76	0xbd843d93	-0.06457057
77	0xbd2511c0	-0.04030013
78	0xbd96a514	-0.07355705
79	0x3e1ddff2	0.1541746
80	0x3d85d38e	0.065344915
81	0xbdfe76ca	-0.12425001
82	0x3d58925d	0.052873958
83	0xbd454758	-0.04816374
84	0xbd736e68	-0.059431463
85	0x38e4be3a	0.0001090732
86	0xbd7177ec	-0.058952257
87	0x3d6a2675	0.05716558
88	0xbcc59855	-0.02412049
89	0x3d1dd890	0.03853661
90	0xbdc12186	-0.09430222
91	0xbe06085c	-0.13089126
92	0xbdda8c66	-0.1067131
93	0x3db72042	0.089416996
94	0xbda036b1	-0.078229316
95	0x3e623439	0.22090234
96	0xbc8146e0	-0.015780866
97	0x3e087ccb	0.13328855
98	0x3e0ae638	0.13564384
99	0xbd026686	-0.031836055
100	0x3cba74ed	0.022760833
101	0x3dd70402	0.10498811
102	0xbd957adf	-0.072988264
103	0x3d37cd90	0.044873774
104	0xbc50c3b1	-0.012741969
105	0x3df927e4	0.12165812
106	0x3c2f58c7	0.0107023185
107	0xbe1eac93	-0.1549552
108	0x3e3a7e4e	0.18212244
109	0x3e695323	0.2278562
110	0xbe28eb7d	-0.16496082
111	0xbe1cb2c1	-0.15302564
112	0x3e14180f	0.14462303
113	0xbd5b3085	-0.05351307
114	0x3da71744	0.081587344
115	0xbce1611c	-0.027512126
116	0x3dbb3727	0.09141379
117	0xbd90a6c3	-0.07063057
118	0xbe176b18	-0.14786947
119	0x3e08c399	0.13355865
120	0xbd942b58	-0.0723483
121	0xbe1cf71a	-0.15328637
122	0xbccb2923	-0.024799889
123	0xbdbfd0c2	-0.09365989
124	0x3e1d8ff5	0.15386946
125	0x3d8e3410	0.06943524
126	0xbde9205e	-0.11383127
127	0xbcc9067f	-0.02453923
128	0x3d41c62c	0.047308132
129	0x3ddc0fbc	0.107451886
130	0x3e948079	0.29004267
131	0xbd5a8761	-0.053351764
132	0xbe6efacd	-0.2333786
133	0x3ad43391	0.0016189684
134	0x3e020762	0.12698129
135	0x3d1b659b	0.037938695
136	0x3e5b5d5d	0.21422334
137	0xbddf8057	-0.10913151
138	0xbdb5359a	-0.08848114
139	0x3ddb587a	0.10710235
140	0x3dac0566	0.08399467
141	0x3e2574d2	0.16157845
142	0xbe314022	-0.17309621
143	0xbe1e7db9	-0.15477647
144	0xbd8834ee	-0.066507205
145	0xbca384b6	-0.019960742
146	0xbc0ba046	-0.008522099
147	0xba0ac690	-0.00052938703
148	0xbbc286f9	-0.0059365
149	0x3d80f795	0.062972225
150	0x3e588ddf	0.2114787
151	0xbe02313f	-0.12714098
152	0xbdc60fa4	-0.09670952
153	0x3def2605	0.116771735
154	0x3d4f1722	0.05055917
155	0x3d9704c8	0.07373959
156	0x3da1d056	0.07901065
157	0x3db6cccf	0.08925783
158	0x3e90bcd6	0.2826907
159	0x3d2e0826	0.04248824
160	0xbe5cc770	-0.21560454
161	0xbdabbc53	-0.08385529
162	0x3d402478	0.04690978
163	0xbd980c5b	-0.074242316
164	0x3d2182b8	0.039431304
165	0x3d627a45	0.055292387
166	0x3e71b1ef	0.23603033
167	0x3d1abe95	0.03777941
168	0x3e0a7994	0.13522941
169	0xbe323ecd	-0.17406769
170	0x3d35e4d2	0.044407673
171	0x3d4c1f70	0.04983467
172	0xbc31461b	-0.010819937
173	0x3dd85e6b	0.10564884
174	0xbd896b4f	-0.067099206
175	0xbc495f5b	-0.012290801
176	0x3d8ed6d8	0.06974572
177	0xbda9b2f0	-0.08286083
178	0x3e035813	0.12826566
179	0x3d032134	0.032014087
180	0xbe4104fc	-0.18849558
181	0xbc8fb26c	-0.017541133
182	0x3dd2640c	0.10272989
183	0xbea5c941	-0.32380107
184	0xbd024847	-0.03180721
185	0x3d035c6b	0.03207056
186	0xbc1a5a41	-0.009420932
187	0x3d06ba21	0.03289235
188	0xbd654265	-0.055971522
189	0xbd9750d6	-0.07388465
190	0x3d4de9e7	0.050271895
191	0x3e0670e6	0.13129005
192	0x3e39f1f4	0.18158704
193	0xbcb84c8c	-0.022497438
194	0xbd975641	-0.073894985
195	0xbe2b8bb1	-0.16752507
196	0x3e0cbf54	0.13744861
197	0xbbb77b3e	-0.0055994084
198	0xbcd781c2	-0.02630699
199	0xbd62c00d	-0.055358935
200	0x3e14befd	0.14525981
201	0xbcf1975c	-0.02949112
202	0x3e8127f5	0.25225797
203	0xbd64065d	-0.05567013
204	0x3db9d33a	0.090734914
205	0x3d3edbd8	0.046596378
206	0x3debf469	0.11521227
207	0xbea8322f	-0.32850787
208	0xbe816610	-0.2527318
209	0x3c877b00	0.016538143
210	0xbb7cb5be	-0.0038560475
211	0xbe390237	-0.18067251
212	0xbad22bd1	-0.0016034787
213	0x3d00fb52	0.031489678
214	0x3d43bbf1	0.047786657
215	0xbe2895ce	-0.16463396
216	0xbc257639	-0.010098987
217	0x3d3a6407	0.04550555
218	0xbd7a10f6	-0.06105133
219	0x3c638bbe	0.013888298
220	0x3cb737d4	0.022365488
221	0xbcc347d7	-0.023837967
222	0x3cde17ec	0.027111016
223	0xbda9f9ba	-0.08299585
224	0xbca292ae	-0.019845333
225	0x3d793774	0.0608439
226	0xbd2dcb29	-0.042430077
227	0xbda087de	-0.078384146
228	0x3cf2b9cc	0.02962961
229	0x3e1e0b80	0.15434074
230	0xbcb169cb	-0.021656891
231	0x3e68692d	0.22696371
232	0xbdc7b53d	-0.09751365
233	0xbc3f9c83	-0.01169503
234	0x3e5ed304	0.21760184
235	0x3e3ba4b0	0.18324542
236	0xbd5a20f7	-0.053254094
237	0xbd611442	-0.05495096
238	0xba639f35	-0.00086830865
239	0xbdafbe5a	-0.085812286
240	0xbd8c0b16	-0.06838052
241	0x3e4bc9ef	0.1990125
242	0x3d1a6171	0.037690584
243	0x3dcdedd3	0.10055127
244	0xbe2aa353	-0.16663866
245	0x3e1d0ae7	0.1533619
246	0xbe153721	-0.14571811
247	0xbe476722	-0.19472936
248	0x3d9654ca	0.07340391
249	0xbd6ff057	-0.058578815
250	0xbd03d3a1	-0.032184247
251	0xbe1153a0	-0.14192057
252	0x3dc82d10	0.0977422
253	0x3e4e733c	0.20161146
254	0x3d8fe6aa	0.070264176
255	0xbdcc1a7d	-0.0996599

network_body._body_endoder.seq_layers.2.bias f4 [128]
0	0x3cc5b191	0.024132522
1	0xbc782188	-0.015144713
2	0x3d683649	0.056692395
3	0xbd12329d	-0.0356928
4	0xbbff9a53	-0.0078003793
5	0x3d5af4cb	0.05345611
6	0xbcd55ba2	-0.02604467
7	0xbc32f44c	-0.010922503
8	0x3cdfad8c	0.027304433
9	0x3cd76cce	0.026297
10	0x3bef61d9	0.0073053655
11	0x3d8482f7	0.06470292
12	0xbd657af6	-0.056025468
13	0x3d8903f2	0.06690206
14	0xbd7a537d	-0.061114777
15	0xbd81b337	-0.06333011
16	0xbd7d8e06	-0.061903022
17	0xbc1b493f	-0.009477912
18	0x3d1ef863	0.0388111
19	0xbd81cc68	-0.063378155
20	0x3c21d90e	0.00987841
21	0x3d08eddc	0.033429965
22	0x3d7f4e8a	0.06233076
23	0xbd917c19	-0.07103748
24	0x3d670b5e	0.056407325
25	0x3b0f9baf	0.0021912863
26	0x3d71c901	0.059029583
27	0x3d349769	0.04408971
28	0x3d2ff945	0.04296233
29	0xbd6b72fe	-0.057482712
30	0x3d8e38ea	0.06944449
31	0x3d320787	0.04346421
32	0xbd937c0c	-0.072013944
33	0x3bef74e6	0.0073076366
34	0xbd17feba	-0.03710816
35	0x3a3cb9e1	0.0007199329
36	0xbd1396a8	-0.03603235
37	0xbc509e82	-0.012733104
38	0xbdc19e01	-0.09453965
39	0x3d94b406	0.07260899
40	0x3d8a4102	0.067506805
41	0xbd3ef9a0	-0.04662478
42	0x3d735cf8	0.059414834
43	0xbd65559b	-0.055989843
44	0xbd5fbc58	-0.054622978
45	0xbdcb6c45	-0.0993276
46	0xbdce525f	-0.10074305
47	0xbd19a20d	-0.03750806
48	0x3d86536b	0.065588795
49	0x3d69483e	0.05695366
50	0x3c0afa0e	0.008482469
51	0xbcf239fc	-0.029568665
52	0x3d25cb85	0.040477294
53	0x38b442dc	8.5955224e-05
54	0x3cbd6c2b	0.023122868
55	0x3d65ace0	0.05607307
56	0xbbfd6644	-0.0077331383
57	0x3be7c16e	0.007072619
58	0x3d35c0c7	0.0443733
59	0x3d10b8a9	0.035332356
60	0x3d751668	0.05983582
61	0xbd030516	-0.031987272
62	0x3d471b00	0.048609734
63	0x3d52cf69	0.051467333
64	0x3c91fa19	0.017819451
65	0xbd2567d1	-0.04038221
66	0xbcdffd51	-0.02734247
67	0xbd7ca109	-0.061677013
68	0x3d53f2f6	0.051745377
69	0xbcffe1f7	-0.031235678
70	0xbd44a5cb	-0.048009675
71	0xbd921b35	-0.071340956
72	0xbcb0bf3c	-0.021575563
73	0x3d94871a	0.07252331
74	0xbd925fa1	-0.07147146
75	0xbc2c32a0	-0.010510117
76	0xbd296720	-0.041358113
77	0xbd80f177	-0.06296056
78	0xbd960fc7	-0.07327228
79	0x3cb81116	0.022469085
80	0xbd8154c2	-0.063149944
81	0xbcddac70	-0.027059764
82	0x3d3d4685	0.04620983
83	0xbdb0cb7d	-0.08632562
84	0x3bcba6f7	0.006214972
85	0xbd897461	-0.06711651
86	0xbcef35f9	-0.02920054
87	0xbb556834	-0.003256333
88	0xbc6d242d	-0.014473957
89	0x3d0be279	0.034151528
90	0x3d9ca975	0.07649509
91	0xbc8d8700	-0.017276287
92	0x3d2cfba8	0.042232186
93	0x3d5e78ea	0.05431453
94	0x3d623a0b	0.055231135
95	0xbb3bfa2d	-0.0028683052
96	0x3d11592d	0.035485435
97	0x3d761e76	0.060087644
98	0x3d6e0c76	0.058117352
99	0x3d50cc9c	0.05097638
100	0xbd594f23	-0.053053986
101	0xbd5b2c89	-0.05350927
102	0x3d1c4828	0.03815475
103	0x3d67d00b	0.05659489
104	0x3d95174e	0.07279836
105	0x3c57bfdc	0.013168301
106	0x3d2911f6	0.041276895
107	0x3d79dfd5	0.06100448
108	0x3cc24435	0.023714164
109	0xbd92c965	-0.07167319
110	0xbc32fde3	-0.010924789
111	0x3cfe8180	0.03106761
112	0x3d3aac91	0.04557473
113	0xbd65e513	-0.056126665
114	0xbd37a76b	-0.044837397
115	0x3d8a6843	0.067581676
116	0x3ce66d9e	0.028128441
117	0x3c236085	0.0099717425
118	0x3cf48529	0.029848652
119	0xbd793006	-0.060836814
120	0xbd433a05	-0.047662754
121	0x3d5d1711	0.053977076
122	0x3c954176	0.01821969
123	0xbd8793c0	-0.06619978
124	0xbc2d5070	-0.01057826
125	0x3cf6fdf6	0.030150395
126	0x3c619d6a	0.013770441
127	0x3cf70f78	0.030158743

action_model._discrete_distribution.branches.0.weight f4 [3, 128]
0	0xbda31f8b	-0.07965001
1	0xbcc46403	-0.02397347
2	0xbd87fe87	-0.06640344
3	0x3bc6b845	0.006064447
4	0x3c46e7d7	0.012140236
5	0xbd9b91e3	-0.07596185
6	0xbcd78349	-0.026307719
7	0xbb06df89	-0.0020580015
8	0xbd737060	-0.05943334
9	0xbd27be09	-0.040952716
10	0xbd2c3740	-0.042044878
11	0xbd591174	-0.05299516
12	0x3d99ddd3	0.07513013
13	0xbdc0c4a7	-0.094125085
14	0x3d9e0742	0.07716228
15	0x3d2e3516	0.042531095
16	0x3d9ac146	0.07556395
17	0x3cb11f0e	0.021621253
18	0xbc9cb306	-0.019128334
19	0x3da3e9d1	0.08003581
20	0xbd88650d	-0.06659899
21	0xbc7cd972	-0.015432702
22	0xbd55998e	-0.052148394
23	0x3d946e4a	0.072475985
24	0xbd7141d3	-0.058900665
25	0xbd5f3bb4	-0.054500297
26	0xbd991807	-0.07475286
27	0xbda9d216	-0.08292024
28	0xbd707e00	-0.058713913
29	0x3dcfb66d	0.10142217
30	0xbd6bcf3a	-0.057570674
31	0xbc303726	-0.010755336
32	0x3da5b4c6	0.080911204
33	0xbc1bcbc7	-0.0095090335
34	0xbc48793a	-0.012235934
35	0x3b84d402	0.0040535936
36	0x3df5d94c	0.12004337
37	0xb9674975	-0.00022057242
38	0x3d980a69	0.074238606
39	0xbd80e0a3	-0.06292846
40	0xbd958275	-0.07300273
41	0x3dbbcce0	0.09169936
42	0xbdab41af	-0.083621375
43	0x3ccdf112	0.025139365
44	0xbb79bf51	-0.0038108418
45	0x3d829574	0.06376162
46	0x3d890df5	0.06692115
47	0x3d92e280	0.07172108
48	0xbdfb9cbc	-0.12285754
49	0xbdd3d148	-0.103426516
50	0x3d057eff	0.032591816
51	0x3caa6310	0.02079919
52	0xbdabecbb	-0.08394762
53	0x3d1dda8d	0.038538504
54	0x3cd81c60	0.026380718
55	0xbd7ccde5	-0.061719794
56	0x3cef9005	0.029243479
57	0xbc699600	-0.014256954
58	0xbd448e2d	-0.047987152
59	0xbc614405	-0.013749127
60	0xbdb23904	-0.08702281
61	0xbd1f6e22	-0.03892339
62	0xbd977031	-0.07394446
63	0xbd4d3159	-0.05009589
64	0xbca469d8	-0.020070001
65	0x3cb0ed77	0.021597607
66	0x3cb3e452	0.021959458
67	0x3d680b70	0.056651533
68	0xbdccf6c8	-0.10008007
69	0x3d655909	0.055993114
70	0xbd220e61	-0.039564494
71	0xbb73927b	-0.0037166167
72	0xbce52948	-0.027973786
73	0xbdcc79d2	-0.09984173
74	0xbbb9a568	-0.00566547
75	0x3c84920e	0.016182926
76	0x3c91758a	0.017756242
77	0x3da70884	0.08155921
78	0x3db784e6	0.08960895
79	0xbc7a2c80	-0.015269399
80	0x3d48409c	0.04888974
81	0x3d885c2e	0.06658207
82	0xbadc35a1	-0.0016800651
83	0x3dae8e42	0.08523227
84	0xbd51c3c1	-0.051212076
85	0x3d99b0d0	0.075044274
86	0x3de38eae	0.11111198
87	0xbd4d3cd7	-0.05010685
88	0x3c568b75	0.013094773
89	0xbd14d322	-0.036334164
90	0xbda11942	-0.07866146
91	0xba5a4dc4	-0.0008327628
92	0xbcf8a478	-0.030351862
93	0xbce464f3	-0.027880168
94	0xbd843bf9	-0.064567514
95	0xbd847f58	-0.064696014
96	0xbc7c149b	-0.015385772
97	0xbdb6f5d1	-0.089336045
98	0xbca7937f	-0.020456074
99	0xbd9f0e97	-0.07766455
100	0x3dcaf2aa	0.09909566
101	0xbc10ef00	-0.008846045
102	0xbcd05bd9	-0.025434421
103	0xbd27d831	-0.04097766
104	0xbd8abaa4	-0.0677388
105	0x3ca9570d	0.020671392
106	0xbd3cd2b2	-0.046099372
107	0xbdcb266e	-0.09919439
108	0xbd8894da	-0.06669016
109	0x3d7bcfa6	0.061477326
110	0x3d12dc36	0.03585454
111	0xbccfdf6d	-0.025375092
112	0xbd8bd9aa	-0.068286255
113	0x3d10d650	0.035360634
114	0x3d6f5ce7	0.058438208
115	0xbdbffe36	-0.09374659
116	0xbc5e6e14	-0.013576049
117	0xbb7f517a	-0.0038958476
118	0xbb019bf1	-0.0019776786
119	0xbd157938	-0.036492556
120	0x3db4b00f	0.08822643
121	0xbd9fc852	-0.0780188
122	0xbd786375	-0.060641725
123	0x3b5321c6	0.0032216175
124	0xbd4e0b11	-0.050303522
125	0xbcd00936	-0.025395017
126	0xbd1b0698	-0.037848085
127	0xbd2770dd	-0.04087912
128	0x3d749440	0.059711695
129	0xbcb03f99	-0.0215147
130	0x3d72ca14	0.059274748
131	0xbdb1e814	-0.086868435
132	0xbc9a783c	-0.01885616
133	0x3d5a5064	0.053299323
134	0xbdc12253	-0.09430375
135	0xbd0bce12	-0.03413207
136	0x3cf3c4cc	0.029756926
137	0x3b8e4386	0.0043415455
138	0xbcb3dad2	-0.021954928
139	0x3dab666a	0.08369143
140	0xbe07af96	-0.13250574
141	0x3dcd8575	0.100352205
142	0xbdfd767e	-0.12376116
143	0xbdb0267d	-0.08601091
144	0xbde2c37f	-0.11072444
145	0xbca4295b	-0.020039251
146	0x3d26a089	0.040680442
147	0xbdf73635	-0.12070886
148	0x3b748b7a	0.003731458
149	0x3d0a6ceb	0.03379528
150	0x3d81c367	0.06336098
151	0xbdebfce0	-0.115228415
152	0x3da24ba9	0.07924587
153	0xbd0667bf	-0.032813784
154	0x3d8ef05f	0.06979441
155	0x3cf60cb5	0.030035356
156	0x3d772b51	0.060344044
157	0xbe0cc301	-0.13746263
158	0x3da36113	0.079775
159	0x3d8e3b8a	0.0694495
160	0xbdef94db	-0.11698314
161	0xb9ebacd4	-0.0004495146
162	0xbd969491	-0.073525555
163	0xbca8c54c	-0.020601891
164	0xbdedac9e	-0.1160519
165	0xbca415c5	-0.020029912
166	0xbdf74ebb	-0.120755635
167	0x3dd1ac86	0.10237984
168	0x3da6dcec	0.08147606
169	0xbe19990d	-0.1499979
170	0x3d6957a2	0.05696834
171	0xbe071e0b	-0.13195054
172	0xbd964bf5	-0.073387064
173	0xbdcd064c	-0.10010967
174	0xbde79599	-0.1130783
175	0xbd2059d5	-0.03914817
176	0x3dfc2869	0.12312395
177	0x3db7838c	0.089606375
178	0x3ba0c6e4	0.004906522
179	0xbd865c21	-0.06560541
180	0x3da53565	0.08066825
181	0xbbcf04b4	-0.0063176993
182	0xba60d22a	-0.0008576239
183	0x3d94b9ed	0.07262025
184	0xbc54399d	-0.012953189
185	0xbcf4ff9d	-0.029907042
186	0x3dc317f6	0.095260546
187	0x3ce438e7	0.027859164
188	0x3de18213	0.11011138
189	0xbd52f21e	-0.051500432
190	0x3d9c3497	0.07627218
191	0x3d9a65fd	0.07538984
192	0x3cf068d5	0.029346863
193	0xbd0325c0	-0.032018423
194	0xbd53f3ce	-0.051746182
195	0xbde3fd0b	-0.111322485
196	0x3d9afdda	0.075679496
197	0xbdd5d0ce	-0.10440217
198	0xbd4c69ff	-0.049905773
199	0xbdccab69	-0.099936314
200	0xbd8d6668	-0.06904298
201	0x3df54115	0.11975304
202	0xbddeba93	-0.1087543
203	0xbd24637e	-0.040133946
204	0xbd475c23	-0.048671853
205	0xbe127562	-0.1430259
206	0xbdf17a0b	-0.11790856
207	0x3bdb7e95	0.0066984394
208	0xbdc6e910	-0.09712422
209	0xbdc1a961	-0.094561346
210	0x3d3f3504	0.04668142
211	0xbde32c0e	-0.11092387
212	0x3cf0940b	0.029367467
213	0xbde2dadc	-0.110769
214	0xbe05263e	-0.1300287
215	0x3cb33d92	0.021879945
216	0xbd5c556a	-0.053792395
217	0x3d503887	0.05083516
218	0x3dc212f7	0.094762735
219	0xbca7c19c	-0.020478062
220	0x3c9c4cc4	0.019079573
221	0x3d8876f7	0.06663316
222	0x3d8eee82	0.069790855
223	0x3cb3a49b	0.021929076
224	0x3d582f8f	0.05277973
225	0x3d8eb2ce	0.06967698
226	0x3d082bd8	0.033244938
227	0x3d6f1a62	0.05837477
228	0xbdf33cb3	-0.11876812
229	0xbd9d31c8	-0.07675511
230	0x3d55afdb	0.052169662
231	0x3db42951	0.08796943
232	0x3d8e8b53	0.06960168
233	0x3c9ddcb2	0.019270275
234	0x3d9e24d5	0.07721869
235	0x3dc8f95f	0.09813189
236	0x3d242889	0.04007772
237	0xbd988095	-0.074464
238	0x39ee2f9c	0.0004543037
239	0x3d7635e6	0.060109995
240	0x3ce1b8ed	0.027554
241	0xbdd4abc0	-0.10384321
242	0xbd919d94	-0.07110134
243	0x3d82efa9	0.06393368
244	0x3cb7631a	0.022386122
245	0x3c647bdb	0.013945545
246	0x3bfb8fc0	0.0076770484
247	0xbda623b3	-0.08112278
248	0xbe003682	-0.12520793
249	0x3da271bf	0.079318516
250	0x3d0578bb	0.03258584
251	0xbde85111	-0.11343587
252	0x3c175412	0.0092363525
253	0x3d6c3f7f	0.057677742
254	0x3c88ab57	0.016683264
255	0x3d442bb7	0.047893252

action_model._discrete_distribution.branches.0.bias f4 [3]
0	0xbdb49423	-0.08817317
1	0x3e03a95c	0.12857574
2	0xbd8e994e	-0.06962834

action_model._discrete_distribution.branches.1.weight f4 [3, 128]
0	0x3d4adfa2	0.04952968
1	0xbdbbf2d6	-0.09177177
2	0xbd0817ca	-0.033225812
3	0xbda21545	-0.07914213
4	0xbdcbb0df	-0.09945845
5	0x3bd5387a	0.0065069767
6	0xbd007704	-0.031363502
7	0xbdc4c7ba	-0.09608407
8	0xbdce7656	-0.100811645
9	0xbde720fc	-0.11285588
10	0xbdb544c7	-0.08851009
11	0x3d077aa2	0.033075936
12	0xbaf0b821	-0.0018365422
13	0x3c696535	0.014245321
14	0x3b0249b8	0.0019880366
15	0xbd73b172	-0.059495397
16	0xbc4d5547	-0.012532539
17	0xbc2dc96e	-0.010607107
18	0x3b8cca81	0.0042966013
19	0xbba886b6	-0.005143012
20	0xbd9d3ca8	-0.07677585
21	0x3bbee625	0.005825775
22	0x3c8f6a02	0.017506603
23	0x3cc8e420	0.024522841
24	0x3d0f3430	0.03496188
25	0xbdee7d05	-0.11644939
26	0x3cde9d56	0.027174633
27	0x3d8e57db	0.06950351
28	0xbd11292c	-0.035439655
29	0xbc3afc00	-0.011412621
30	0x3d940fe8	0.072295964
31	0x3cad343d	0.021143073
32	0xbcab0b51	-0.02087942
33	0xbde08ce8	-0.10964376
34	0xbdbc206c	-0.091858715
35	0xbde5c949	-0.11220033
36	0x3b586997	0.003302192
37	0xbd42b1f4	-0.04753299
38	0xbba609ef	-0.005067102
39	0x3cae46d4	0.021274008
40	0x3c18275c	0.009286728
41	0xbc7ce113	-0.015434521
42	0x3d24ae4c	0.040205285
43	0xbcd6c83b	-0.026218524
44	0xbd9b186b	-0.07573017
45	0xbc872704	-0.016498096
46	0xbbc2705e	-0.0059338054
47	0xbd305172	-0.043046422
48	0x3d44aebf	0.048018213
49	0x3d05f906	0.03270819
50	0xbd868bfa	-0.06569667
51	0xbdcb4aa6	-0.099263474
52	0x3dae6e78	0.08517164
53	0xbd1dace8	-0.038494974
54	0xbe090c8c	-0.13383693
55	0x3d60c8a5	0.05487885
56	0xbde73659	-0.11289663
57	0xbdd1f664	-0.102520734
58	0x3bc97b45	0.006148728
59	0xbd1e596b	-0.038659494
60	0x3d4ea640	0.050451517
61	0xbdb52526	-0.08844976
62	0x3d1bf051	0.03807098
63	0x3d5de6ac	0.054175064
64	0xbd46ae0b	-0.048505824
65	0xbab77894	-0.0013997727
66	0xbde700c6	-0.112794444
67	0xbd01895c	-0.031625137
68	0x3da96ea0	0.08273053
69	0x3c7acfcc	0.015308332
70	0xbca80f36	-0.020515066
71	0xbcd3c914	-0.025852717
72	0xbd35c651	-0.044378582
73	0x3d5bc07d	0.053650368
74	0xbcb25065	-0.02176685
75	0xbdbeb40f	-0.09311687
76	0xbd38ba17	-0.045099344
77	0xbc99cd7d	-0.018774742
78	0xbc0f9baa	-0.008765141
79	0xbdc26181	-0.09491254
80	0xbd01925d	-0.031633724
81	0x3c547392	0.012967007
82	0xbc5f3846	-0.0136242565
83	0xbcca6a62	-0.02470893
84	0xbd3a0f85	-0.045424957
85	0xbcbabb7f	-0.022794483
86	0xbc502d5d	-0.012706128
87	0xbcb63151	-0.022240313
88	0xbdaa5885	-0.08317665
89	0x3c020b09	0.007937201
90	0x3d402602	0.046911247
91	0xbd9474eb	-0.07248863
92	0x3c0eeff7	0.008724204
93	0x3b9f2574	0.0048567597
94	0xbc838501	-0.016054632
95	0xbcd0695a	-0.02544086
96	0x3cd2b2ec	0.025720082
97	0x3d582acb	0.052775186
98	0x3c8cf8b0	0.017208427
99	0x3d359561	0.044331912
100	0xbd033c71	-0.032040063
101	0xbb8eca73	-0.00435763
102	0xbd153443	-0.036426794
103	0x3cef7eb7	0.029235227
104	0x3b84ad08	0.0040489472
105	0xbdb675bc	-0.08909175
106	0x3bbadd75	0.0057026693
107	0x3d9fa795	0.077956356
108	0xbd49670a	-0.04917053
109	0xbd53032f	-0.051516708
110	0xbda25fa9	-0.07928402
111	0xbd5de3f9	-0.05417249
112	0x3cf7f306	0.03026725
113	0xbd621804	-0.055198684
114	0xbcf73b72	-0.030179713
115	0x3c64b744	0.01395971
116	0x3af3b8cc	0.0018594502
117	0xbdd24d6e	-0.10268675
118	0xbe10173b	-0.14071362
119	0xbd5d6bc6	-0.05405786
120	0xbb0bf205	-0.0021353972
121	0x3d13b9cf	0.036065873
122	0xbccafe76	-0.02477954
123	0xbcc73d13	-0.024321115
124	0xbcee917f	-0.029122112
125	0x3c1fcfa6	0.009754097
126	0xbae31a44	-0.0017326553
127	0xbd9b948a	-0.07596691
128	0x3c55a7d2	0.0130405
129	0x3d66fc9b	0.056393247
130	0xbd779c68	-0.060451895
131	0x3d944b25	0.07240895
132	0x3c266710	0.010156408
133	0xbdeebab6	-0.11656706
134	0x3cdb083b	0.026737323
135	0x3dd2830c	0.102789015
136	0x3cfcdeae	0.0308679
137	0x3b174213	0.0023080155
138	0x3c24bf4a	0.0100553725
139	0x3cfa38a6	0.03054459
140	0xbcee1c3b	-0.029066196
141	0xbb890a7f	-0.0041821594
142	0xbb1466ec	-0.0022644354
143	0x3a8447f9	0.001009225
144	0xbadf3e9f	-0.0017032212
145	0xbcbd0ce8	-0.023077443
146	0x3d4fd8ea	0.050743975
147	0x3be31935	0.006930495
148	0xbc7ec70f	-0.015550389
149	0x3be4e0da	0.006984812
150	0xbd2cebf2	-0.042217202
151	0xbb430c6f	-0.002976205
152	0x3ccc8387	0.02496506
153	0x3b0e3252	0.0021697474
154	0xbdc1e82c	-0.094681114
155	0x3cf2c379	0.029634224
156	0xbcd45ac6	-0.02592219
157	0x3d02785d	0.03185307
158	0xbde72942	-0.11287166
159	0x3c02fd7d	0.007995007
160	0x3cf12f31	0.029441448
161	0xbb87ed71	-0.0041481783
162	0x3dae79f3	0.08519354
163	0x3e06736b	0.13129966
164	0xbca1754a	-0.019709248
165	0xbbc2528f	-0.005930252
166	0x3c85bad5	0.01632444
167	0xbd022938	-0.03177759
168	0xbd80838b	-0.0627509
169	0x3d2a084d	0.041511822
170	0xbdff1bbd	-0.124564625
171	0x3cfe5791	0.031047614
172	0x3d765dc6	0.060148023
173	0x39f3610e	0.00046420883
174	0xba14c031	-0.00056743907
175	0x3af7a710	0.0018894393
176	0xbd28f3b3	-0.041248035
177	0xbdbb5237	-0.091465406
178	0x3d57249f	0.05252516
179	0x3da347cf	0.07972681
180	0xbcc65816	-0.024211925
181	0x3d18cb3a	0.037303187
182	0x3dbf3589	0.09336383
183	0xbd0cf10c	-0.034409568
184	0x3e0f6aca	0.1400558
185	0x3d1a4f62	0.03767336
186	0xbc777e70	-0.015105829
187	0xbcbcafc7	-0.023033036
188	0xbb8221dd	-0.003971322
189	0x3da6e09d	0.0814831
190	0xb964b5f4	-0.00021811557
191	0xbd8e0adf	-0.06935667
192	0x3c34d453	0.01103695
193	0x3c9ae295	0.01890687
194	0x3da9ce6c	0.08291325
195	0x3c8d4124	0.017242976
196	0x3b4e16b7	0.0031446645
197	0x3c25c3bf	0.01011747
198	0x3d7779c2	0.06041885
199	0x3c8dec44	0.017324574
200	0x3d95bd3e	0.07311486
201	0xbd5f23b7	-0.05447742
202	0x3ba3af71	0.0049952795
203	0x3d566dd2	0.052350827
204	0x3c2632cb	0.010143946
205	0x3b121dbb	0.0022295553
206	0x3c9463bc	0.018113963
207	0x3cd0c960	0.025486648
208	0xbc9b823d	-0.018983
209	0x3c743ec0	0.014907539
210	0x3d41684d	0.04721861
211	0x3bf3acef	0.007436387
212	0x3dcf8163	0.101321004
213	0xbc06fbe3	-0.008238765
214	0xba96815f	-0.0011482647
215	0xbc0c2e49	-0.008555957
216	0x3da6ea01	0.081501015
217	0x3d191525	0.03737368
218	0xbde61985	-0.11235336
219	0x3cc2389c	0.023708634
220	0x3d54bc55	0.05193742
221	0xbc92ffd8	-0.017944261
222	0xbd4f235d	-0.050570834
223	0xbd1f15c5	-0.03883912
224	0x3a812af5	0.0009854721
225	0xbe041941	-0.12900259
226	0xbc50b4ae	-0.01273839
227	0x3c2fc76c	0.010728698
228	0xbc20b043	-0.009807649
229	0xbb52de94	-0.0032176124
230	0xbc0341fd	-0.008011338
231	0x3bda9082	0.0066700587
232	0xbd98af38	-0.07455295
233	0x3db44073	0.08801355
234	0x3c8d3c49	0.01724066
235	0xbb29a464	-0.0025885338
236	0xbcb430a6	-0.021995854
237	0x3b8529c3	0.0040638163
238	0x3d9c5aef	0.07634532
239	0x3b0f57d1	0.002187241
240	0x3d08f1cc	0.03343372
241	0x3b80f499	0.0039354083
242	0x3c842f20	0.016135752
243	0xbda5e752	-0.081007615
244	0x3cd151dd	0.02555173
245	0xbc2360e8	-0.009971835
246	0x3d7aa746	0.06119468
247	0x3c67bd0b	0.014144192
248	0x3d373ef1	0.04473776
249	0x3c970b25	0.018437931
250	0xbd20cc43	-0.0392573
251	0x3c92b566	0.017908763
252	0x3db3458e	0.08753501
253	0x3cca1826	0.024669718
254	0x3d5388d5	0.051644165
255	0x3cbe1dd9	0.023207592

action_model._discrete_distribution.branches.1.bias f4 [3]
0	0x3c577901	0.013151408
1	0xbc75407c	-0.014968988
2	0x3939b5ab	0.00017710651
