Assets/results/T2/CarDriver/CarDriver-422785.pt (torch, 632126 bytes, 48 tensors)

discrete_act_size_vector f4 [1, 2]
00000000: 0000 4040 0000 4040
3.0 3.0

network_body._body_endoder.seq_layers.0.weight f4 [128, 36]
00000000: b27f c3bd adde 3c3d aec6 2e3e e5f9 96be
00000010: 2ff5 c2bd e86d 843e 1327 923e f282 efbd
00000020: 0560 4e3d d618 083e 357b 43be 4bde 0e3e
00000030: ae28 2d3e e7de 8abd a9f6 cc3e 41f5 693e
00000040: 7693 6a3e e69f 163e 9db9 063e 6ed5 10be
00000050: 1c75 353d 3724 2b3e d0e3 9f3b d018 b03d
00000060: 82c5 0d3e 1065 7f3e 79e5 473e 437a 423d
00000070: a5fe 43be c49a d13e 754e 05be 7745 303e
00000080: 86e5 08bd e2f7 c03d 0f77 363e dbe2 8c3d
00000090: d2c4 8b3e 7954 b3be af6f a13d 65fb 5ebe
000000a0: 581d 4b3e db57 e23d 1432 42bd 1051 4e3e
000000b0: 65a3 49be d687 babd 48e0 4abe da6d 713d
000000c0: 3c2a 653c 9b0b e7bd f69d 403e f402 683d
000000d0: f19f bcbe cb99 dcbe 1c9d c23e 5d8e e23b
000000e0: 61dd c0be 0710 c8bb 8c0a dd3d 6469 7fbe
000000f0: f6b2 60be 1850 383e 5b43 dd3b 5db1 85be
00000100: dbb3 4c3e 9bff e2bd 9fe0 8fbe d77f 8e3e
00000110: 20c4 b73e 74d2 4f3e 10bb 623d 7dcd 4f3e
00000120: 4c62 80bd a36b f93d f603 bbbb f729 a7bd
00000130: 9375 2fbd 5453 9ebd 6f3f 733e 5320 77bd
00000140: 4bed 833c 5a3a c53e 1038 4ebe c7a5 16bd
00000150: cccc 6b3e 17e7 c1bd fb66 ff3e b743 42be
00000160: 25ec 393e 6a41 4f3d 58da b93d fdaf 0f3d
00000170: 9664 8f3e d83d ea3c 5a45 1d3e 2750 acbe
00000180: 6b10 093d a87b 59bd cc79 e73d 46a4 11be
00000190: 9fa2 463e ffc4 26be 1b84 5c3e 4410 4a3e
000001a0: ea04 a8be c711 a53e 855c 5b3e 46d9 7a3d
000001b0: 6fa5 1dbd 5683 413d 9aaa 2cbe 530c b83c
000001c0: 6e3b 7bbe fef8 2e3c 1ccc c83d 8003 0b3e
000001d0: f8f5 75be 7f3f 8abe 0507 57be f5d0 403e
000001e0: 0af1 26be c299 94bc d07e 5cbd df05 0ebd
000001f0: 314d 89be b77d 4e3e 303d fc3d eedc f2bc
00000200: f0e0 bc3d dcbf bebd 64b3 09be fe57 3e3e
00000210: 1ac3 4cbd 9e97 92bc 095a 273e bf46 4ebd
00000220: 73a9 b63d 247e 58be cfbb 0ebe ca55 a93d
00000230: 2685 523e 45df 913d b398 a93d d6b4 113e
00000240: c611 f53e c8e9 633e 76d9 353e 2b22 b43d
00000250: 4ae3 66bd c165 853e 4131 41be d203 41bc
00000260: 5357 613d fe4a 67be 99cc 9a3e 86ac 32be
00000270: be04 57be 50f7 48be 0398 c63d a033 c63d
00000280: 5ae2 503e 54fa c7bd 279d 26bd abcc 1d3e
00000290: 78eb 583e 84f0 70be 7870 733d f6f0 8c3e
000002a0: e9e4 c33d 55f5 87be 8068 143e 94f1 f3bd
000002b0: 22f1 213e c6fc d83b 884d 193e 83ef 4fbe
000002c0: 342f 573d 1fc2 8abd 0b02 14be 6627 a3bd
000002d0: f7ca 00be 9fd7 5fbe 2e8e a73d 6893 68bd
000002e0: d075 af3d 92df a1bd 0e22 4dbd 98d2 f4bc
000002f0: 455f 04be 2873 c8bd 0a6e 67bd 8c06 06be
00000300: f7ae 8a3e d9d7 3bbe e795 523e e0d3 aa3e
00000310: 5762 b93d a215 223e cce2 af3e 4730 203d
00000320: d663 65be 0326 1e3e 3e83 31bd 01e2 c3bc
00000330: 8933 843e 891c 643e b0d1 b4bd e71d 77bd
00000340: f42e 94be cb95 f53d ca55 32be 8a32 063e
00000350: 10fc 783e 7db9 c0bd 8b0f 223e 9fe3 58bd
00000360: 556c eebc 3488 b03c 9454 84bc f800 2f3d
00000370: de9a e1bc 2eea bd3e 6ca8 afbe 6694 34be
00000380: e625 0a3e 68b0 d43c 14af 3ebe 925f 7a3d
00000390: aef3 1b3d da8a 9cbd 7a86 f03d fe24 903e
000003a0: 54b8 4fbd 2806 a23e 8125 02be 1461 bb3e
000003b0: ece7 653d 182e df3e a08d a73d 5687 343e
000003c0: 6590 aebc 0082 f4bd 2a45 dfbd ab58 a7be
000003d0: d000 21be 52c4 9abd 24cd 033c f3e0 623d
000003e0: ef5c 4d3d 4d92 05be 22a0 f93d 62f6 76be
000003f0: 059b 5e3d 0b89 cc3e 7001 cf3d ec09 13be
-0.0954584 0.046110798 0.17067978 -0.2948753 -0.09519421 0.25865102 0.28545436 -0.11694898
0.05038454 0.13290724 -0.19089969 0.13951986 0.1691005 -0.067807965 0.40031937 0.22847463
0.22907814 0.14709434 0.13156743 -0.14143917 0.044301137 0.16713034 0.0048794523 0.085984826
0.13844875 0.24940896 0.1952113 0.04747988 -0.19140108 0.4093839 -0.1301821 0.17213999
-0.033422016 0.0942228 0.17818855 0.06879207 0.272986 -0.35025385 0.0788263 -0.21775587
0.19835413 0.11051913 -0.04741104 0.2014811 -0.19691236 -0.0910794 -0.19812119 0.058942653
0.01398712 -0.112815104 0.18810257 0.05664344 -0.36840776 -0.43086085 0.3801049 0.0069139437
-0.376689 -0.0061054262 0.10793027 -0.24942547 -0.21943268 0.17999303 0.006752414 -0.2611188
0.19990484 -0.11083909 -0.2810106 0.2783191 0.3589182 0.20295125 0.055354178 0.20293231
-0.06268749 0.12178733 -0.0057072593 -0.08162301 -0.042836737 -0.07730737 0.23754667 -0.06033356
0.016104361 0.3852108 -0.20138574 -0.03677919 0.23027343 -0.09467905 0.49883255 -0.18971144
0.18156488 0.050599493 0.09074849 0.035079945 0.28006428 0.028593943 0.15358487 -0.336549
0.033462923 -0.053096443 0.11302528 -0.14222822 0.19397973 -0.16286086 0.21534769 0.19732767
-0.3281625 0.32240126 0.21422012 0.061242364 -0.038487848 0.047244392 -0.16861954 0.022466814
-0.2453439 0.010679482 0.09804556 0.13575554 -0.24019611 -0.2700157 -0.20998771 0.18829711
-0.16302887 -0.018139724 -0.053831875 -0.034673568 -0.26816705 0.20165144 0.12316358 -0.029646363
0.09222591 -0.09313938 -0.13447338 0.18588254 -0.04999075 -0.017894562 0.1634294 -0.050360437
0.089190386 -0.21141869 -0.13938831 0.08268316 0.20558605 0.071226634 0.08281078 0.1422914
0.47865123 0.22257149 0.17758736 0.087955795 -0.056369103 0.26054195 -0.18866445 -0.011780696
0.05501492 -0.22587201 0.3023422 -0.17448625 -0.20997903 -0.19625592 0.09696963 0.096778154
0.20398846 -0.09764543 -0.040677216 0.15410106 0.21183574 -0.2352925 0.05943343 0.2752759
0.095651455 -0.2655436 0.14492989 -0.11911312 0.15814641 0.00662193 0.14970982 -0.2030621
0.05253525 -0.06775307 -0.14453904 -0.07966499 -0.12577425 -0.21859597 0.081814155 -0.056781203
0.08567393 -0.07903971 -0.050081305 -0.029885575 -0.12926967 -0.09787589 -0.056501426 -0.13088435
0.27086613 -0.18344058 0.20564996 0.33364773 0.0905196 0.15828565 0.3435272 0.03910854
-0.22401366 0.15444188 -0.043338053 -0.023911478 0.25820568 0.2227651 -0.08829057 -0.06033125
-0.28942072 0.11991461 -0.17415538 0.13105217 0.24314904 -0.09410379 0.15826242 -0.05295145
-0.029104391 0.021549322 -0.016153611 0.042725533 -0.027539667 0.37092727 -0.34308183 -0.17634735
0.1349102 0.025963023 -0.18621475 0.0611263 0.038074188 -0.07643671 0.11744399 0.28153223
-0.0507129 0.31645322 -0.12709619 0.36597502 0.05612938 0.43589854 0.0818131 0.17629752
-0.021309087 -0.11938858 -0.10901864 -0.32684836 -0.15722966 -0.075569764 0.008044515 0.05539031
0.050137457 -0.1304409 0.12188746 -0.24117425 0.054347057 0.39948305 0.10107696 -0.14359254

network_body._body_endoder.seq_layers.0.bias f4 [128]
00000000: a962 193d cdbc 65bb e7f7 dd3c aff5 1cbd
00000010: c7ac 993d 7fb3 34bc 9ed9 343d 7ccb d83c
00000020: 0d82 04bc e756 0bba 2da6 fe3c 4a1e 313d
00000030: 6fbe 64bd a899 893d 7382 553d c7e9 2b3d
00000040: 096c f33a 35b0 23bd eff3 e9bc 5211 2a3b
00000050: 31f9 023d fb23 adbc 3cc4 3a3d 8c58 723c
00000060: b50f 6bbc 78dd 293d 78a7 43bd 7566 993c
00000070: bc21 f7bc 1b05 933c 3e17 113d ab12 593c
00000080: 2547 003d 2d03 62bc d81b be3b 0d9d 753c
00000090: a0a7 e7bb 5f41 3e3c 5094 6cbc d0d0 df3c
000000a0: 3b55 24bc 9763 b23d a3f9 ce3c b419 263d
000000b0: 29a6 593c d352 8d3c 97a3 113d 9d8b 05bd
000000c0: 30d5 1e3d aca4 90bc 5f74 423d 1442 0d3d
000000d0: 1791 8a3d 59b7 1a3d 41e4 74bd d623 d7bc
000000e0: d8d4 f33c f38e 98bb 51b2 c73c 60b7 aa3c
000000f0: 8345 a73b 0b7f cb3c be85 3a3d 99cf 353d
00000100: 4d56 213d b8b7 8a3d bba8 d83c 5789 683d
00000110: aee2 8c3d c2e2 cc3b 93b2 f53c c9d0 963c
00000120: 5825 e3bc 9a0c 0e3d 0865 df3c f629 b13c
00000130: 3143 7a3c 0823 9abc c2dd 2abd a55f f63c
00000140: ece8 bf3c 575f 193c d806 e13c 63c7 693c
00000150: a201 dd3c 4575 903c 3e2f 873c 4416 7abc
00000160: f2cf c1bc fee7 4a3d 0f43 a5bc 0c30 55bb
00000170: 2fb1 25bc 0c80 5d3d 88c1 ec3c 9e49 a23d
00000180: c327 55bd 3573 0f3d 7531 fa3c 2bd5 163d
00000190: bab3 c83b 69c5 843a d712 823d c06a 11bd
000001a0: 7fdf bd3c 1730 ae3c 708e 0c3c 489d f43c
000001b0: 7531 8a3c aeb7 5dbc dbdd 703d 6ae1 04bd
000001c0: 6c77 bb37 e520 bfbc 9aa8 1c3d 026c 303d
000001d0: b728 ec3b 76bf 983c cc4a 35bd 2581 453d
000001e0: c203 98bc ac3d 043d 0513 173d f5ac 6b3d
000001f0: 6bb9 9cbc bd24 13bd 3384 073d e49a ba3c
0.037447605 -0.003505516 0.027095748 -0.03832024 0.07503658 -0.011029123 0.04415285 0.026464216
-0.008087647 -0.00053153787 0.031085098 0.043241777 -0.055845674 0.06718761 0.05212636 0.041970994
0.0018571626 -0.039962966 -0.0285587 0.0025950265 0.03197593 -0.02113532 0.0455973 0.014791619
-0.014347007 0.041470975 -0.047767133 0.018725613 -0.030167453 0.01794677 0.035422556 0.01324908
0.03131785 -0.0137947025 0.005801659 0.014991057 -0.007069543 0.011612265 -0.014439657 0.02732125
-0.010030086 0.087104015 0.02526552 0.040551856 0.013284245 0.017251408 0.035556402 -0.03260385
0.03877753 -0.017656647 0.04747426 0.034486845 0.06765955 0.03777251 -0.059787992 -0.026262205
0.029764578 -0.0046557127 0.02437702 0.020839393 0.005104722 0.024840852 0.045537703 0.044387434
0.039388943 0.06773323 0.026447644 0.056771602 0.06879173 0.0062526176 0.029992377 0.018410103
-0.027727768 0.034679987 0.027269855 0.021626454 0.015274809 -0.018815532 -0.04171539 0.030074904
0.023426495 0.00936111 0.027469084 0.014268729 0.026978318 0.017634043 0.016502019 -0.015264098
-0.023658726 0.04953765 -0.020173578 -0.003252986 -0.010113045 0.054077193 0.028900877 0.079241976
-0.052039873 0.03502198 0.030541161 0.036824387 0.0061249407 0.0010129634 0.0635125 -0.035502195
0.02317786 0.021263165 0.008578882 0.029860154 0.016869286 -0.013532562 0.058805328 -0.032441534
2.2347747e-05 -0.023331115 0.03824673 0.043071754 0.007207002 0.018645983 -0.044260785 0.048218865
-0.01855648 0.032285377 0.036883373 0.05753799 -0.019131383 -0.03592371 0.03308506 0.022778936

network_body._body_endoder.seq_layers.2.weight f4 [128, 128]
00000000: 9248 29bd d78f 9e3d 1a95 603c 400d febd
00000010: 5d72 10bd ab07 a6bd 8bb7 bb3d 2afa 95ba
00000020: e11f 35be 05f5 a03d a895 36be f35c 773c
00000030: bb44 11bd 77fd ba3d be72 27be 9997 a23d
00000040: 31c6 a0bd 2b1e 05bd 6a32 c83c 8123 b9bc
00000050: 1618 91bd d519 00bd 9af3 bebd df12 cc3d
00000060: d4dc 013d 1b01 793d f4c7 25bd 71ba b93d
00000070: 5620 d5bd 03bc e93d b4f2 973d cdb8 943c
00000080: c65e 57bd a6c7 aabd ccda ce3d e329 79bd
00000090: 449d 9abc 988a d5bd 6773 92bc d49c 223e
000000a0: 1950 31be 8f4c 04bd ff27 e73d 1463 81bd
000000b0: c904 6d3d c61f 1cbe cd97 cfbb c4d0 123c
000000c0: 49b4 27bd d996 97bd 82d8 b23d 1148 c93d
000000d0: df9b 223c 57f5 f4bc 3616 d73c a63a fc3c
000000e0: fc23 b43c baf6 04be 932b d1bc 1aae f13d
000000f0: ac9c 89bc c554 183e 0f6a 4cbe 4355 6bbd
00000100: 535b 3a3e bf98 fc3b 98c7 8dbc 3fe3 0dbc
00000110: 0c25 39be b66c a73c 9894 1bbe 3964 f93d
00000120: 845b 1f3d 8dc8 c53d d37a adbc bc98 1ebd
00000130: b2c8 c7bb 2c9d 98bd 1468 ccbc 77ac bf3c
00000140: bbe4 5cbd 1ae4 febc 0436 493e 83eb eebc
00000150: 994d d03c 9277 28bd 353a 1dbe e9ca a3bd
00000160: 4885 9dbd 8025 933e a876 1f3e 4e6a 9a3d
00000170: 713b 42bd acc4 9abd 1a2e b63d 3798 05bd
00000180: d69f 5fbd 76fa 7e3d 744c e93d cb67 c6bd
00000190: c18c 5fbd 2e87 063d 91e4 9abb 8f1c 0bbd
000001a0: 4349 b73d d736 2abe 0b63 33be be08 b53c
000001b0: 3e22 e03d 1fe0 e03d 6d4c 4c3e 2f6f 763c
000001c0: 628a b43d caf0 b2bd 2470 11be c07e c93d
000001d0: 2483 40bd c440 f3bc e72e 6b3a 03e2 ea3c
000001e0: eeb1 abbd e180 283e 34fa 333e f62b 54bd
000001f0: 6e49 413d 9c80 483d 2421 7f3d 11e7 96bd
00000200: c88d 5bbd 8176 383e 12a8 27be 07d2 acbc
00000210: 2065 783c 77aa 58ba 2938 1abd c7c8 ca3a
00000220: 5a93 053e 13bf 683b 5b5f 3bbd 20e9 3d3e
00000230: d7a4 113e 6e29 c4bd b3b5 3bbe 7213 2bbd
00000240: 1f82 053e be1e ea3d 841f ae3d 8ce7 8b3d
00000250: b3e0 8abd 7dae ac3d 16df 003e be68 1e3e
00000260: 37dd 8f3d aa86 8fbd dfdd 503d b6d1 06be
00000270: 5e9d 813d 1776 48be d1a3 18be f3e6 c9bc
00000280: a655 42be c2c6 c43d 8337 b2bc 5b80 dbba
00000290: e12b 9e3d 8dea 86bd 2c65 463d 0e9f 30bd
000002a0: 3843 913d f459 2bbe f8a3 0fbe 625a 10bc
000002b0: 9857 3fbe 0a91 983d 8bf5 04be ed03 b13d
000002c0: 48f2 d0bd fd31 503b 1490 0fbe 6dd3 9e3d
000002d0: 1ee5 d83b 50ab 9fbd 65a0 d23d 449b 2c3e
000002e0: 09c4 783d 4ec3 fabc 1da9 00be 2238 7d3d
000002f0: e66f 10bd 71d0 b53d 63da 58bd e966 41bd
00000300: 4ea7 98bd f3ae abbb 15a2 a7bd cc67 93bd
00000310: 7ad4 debd 2ff2 d93d 2f47 c03d 85bd 96bd
00000320: 0698 073e dc24 0e3c 57b1 4e3e 622f 84bb
00000330: cb86 0b3e 612e 863d 19db 6abd a7ed 553d
00000340: 59a0 a9bd 3181 753c 8448 713d c244 2d3e
00000350: ca6a dfbd cbbc c63c 1d83 823d 8e72 8b3d
00000360: 8848 2d3d 7036 82bd 96d2 5abd 391b 75bd
00000370: 0b32 aa3c 777a 18bc ef20 8fbd 2c1c 4b3e
00000380: abae 9a3d f606 c4bc b703 243d 6976 8cbe
00000390: 1ffd 573d 8096 9ebd 60ea 59ba db69 363d
000003a0: 1a0f 9a3d b2a2 843d 50bf 8e3d 8c70 083e
000003b0: ddc0 1ebe f378 bd3d 2dd3 493d 5058 263d
000003c0: 14f8 3fbe 1bc3 933d 689d 72be dd43 b93d
000003d0: 9bf0 3abd 2da1 6bbe 7af1 edb9 6f80 11be
000003e0: 1d1b ebbd 0e5a 493d 069f 51bd f70b 6cbd
000003f0: 25a9 243e 3b9d 67bd 6a66 aebd 454e e73d
-0.041328974 0.07742279 0.013707424 -0.12404871 -0.035265315 -0.08106931 0.091658674 -0.0011442353
-0.17687942 0.07859234 -0.17830527 0.015097844 -0.035465937 0.09130376 -0.16352364 0.07939071
-0.07850302 -0.032499474 0.024438102 -0.022599937 -0.07084672 -0.031274635 -0.09323807 0.09964537
0.03170474 0.06079207 -0.040473893 0.09068764 -0.10406558 0.114128135 0.07419339 0.018154526
-0.052580617 -0.08338861 0.10100326 -0.060830962 -0.018873818 -0.10426825 -0.017877294 0.15880138
-0.17315711 -0.032299574 0.112869255 -0.06317726 0.05786589 -0.15246496 -0.0063352347 0.008960906
-0.040943418 -0.07401819 0.08732702 0.09828199 0.009924858 -0.029902143 0.026255708 0.030789685
0.021989815 -0.12984744 -0.025533473 0.11800785 -0.01679834 0.14876087 -0.19962333 -0.05745436
0.181989 0.0077086384 -0.017307088 -0.008660137 -0.18080539 0.02043758 -0.15193403 0.12177319
0.038905635 0.09657393 -0.021176731 -0.038719878 -0.006096923 -0.07451853 -0.024951972 0.023397667
-0.053929072 -0.031114627 0.19649512 -0.029165035 0.025427626 -0.041129656 -0.15354235 -0.079976864
-0.07691437 0.28739548 0.15572608 0.07539807 -0.04741997 -0.075570434 0.08895512 -0.032615867
-0.05459579 0.062250577 0.113915354 -0.09687766 -0.054577593 0.03284376 -0.0047269543 -0.033962782
0.089495204 -0.16622482 -0.1751825 0.022098895 0.10944031 0.10980248 0.19951029 0.015041157
0.08815457 -0.08737333 -0.14202935 0.09838629 -0.047000065 -0.029693969 0.00089715276 0.028672224
-0.08383547 0.16455413 0.17575914 -0.051799737 0.04718917 0.048950776 0.062287465 -0.07368291
-0.05360201 0.18013956 -0.16372707 -0.021096243 0.015160829 -0.00082651473 -0.037651215 0.0015471213
0.13044491 0.003551428 -0.045745235 0.18545961 0.14223038 -0.095782146 -0.18331032 -0.04176659
0.13037919 0.11431645 0.08502105 0.068312734 -0.06781139 0.084317185 0.125851 0.15469643
0.07024615 -0.07008107 0.050992843 -0.13165936 0.063288435 -0.19576298 -0.14906241 -0.024646258
-0.18977985 0.096082225 -0.021754986 -0.0016746627 0.07723213 -0.06587706 0.04843633 -0.043120436
0.07092899 -0.16733533 -0.14027393 -0.008810611 -0.18685758 0.07449539 -0.12984292 0.08643327
-0.102024615 0.0031768077 -0.14019805 0.0775517 0.00661911 -0.07796347 0.10284499 0.16856104
0.06073383 -0.030610707 -0.12564512 0.06182111 -0.035262965 0.08877648 -0.052942645 -0.047217283
-0.07453786 -0.0052393614 -0.081852116 -0.07197532 -0.108803704 0.10641896 0.09388577 -0.07360367
0.13241586 0.00867578 0.20184837 -0.004033969 0.13625638 0.06551815 -0.057337854 0.052228596
-0.08282537 0.014984415 0.058907047 0.1692076 -0.1090904 0.024259945 0.06372664 0.06808959
0.0423055 -0.063580394 -0.053423487 -0.059840415 0.020775815 -0.009306542 -0.069887035 0.19834965
0.075528465 -0.0239291 0.040042605 -0.2743409 0.05273163 -0.07743549 -0.00083128177 0.044534545
0.07522412 0.06476344 0.06970084 0.13324183 -0.15503259 0.09251585 0.04927366 0.040611565
-0.18746978 0.07214948 -0.23692858 0.09046147 -0.045639616 -0.23010702 -0.00045384077 -0.1420915
-0.11479781 0.04915815 -0.051177047 -0.057628598 0.16080149 -0.05654643 -0.08515628 0.112942256

network_body._body_endoder.seq_layers.2.bias f4 [128]
00000000: c405 663c d66d 42bd a7b3 1a3d 40f7 7cbd
00000010: 0a48 35bd 3d90 3fbd deb0 0d3d 5130 f2bc
00000020: 0716 02bd 7003 653d b0bb 21bd 4ee6 a4bc
00000030: 40d1 4cbc a32e d8bc af88 6f3d 77c2 3abd
00000040: 941f cbbc 5ac4 c73c 92f8 4cbd 4e1e 953c
00000050: 1228 613d 7430 353c e726 96bc da8c dd3c
00000060: 838c 483d f67f 26bd e4f4 023d 3e46 61bc
00000070: af81 733d 9afc 1d3d e3e6 1dbd 6bdb 05bd
00000080: 4b9b 8e3c 5149 28bd f402 27ba 6e29 173d
00000090: b0f2 51bd 0d74 afbc 83a7 5b3c ce68 ac3c
000000a0: 53ce 223c f3ed 323d d19a 133d df6c 24bd
000000b0: 7839 1a3d 5c87 9b3c 39af 03bb 0a2d 0e3d
000000c0: 2884 573a c0cd 45bd 4244 bebc dbeb 313d
000000d0: af4b 6d3c 8a3b 7c3d fc29 4a3b 4a34 e53c
000000e0: 5d2a e13c d653 813c 202e 833d 3b5a 49bd
000000f0: 6c23 223d 1e56 0fbd 906b 843d 7f8c af3c
00000100: eceb 77bd b4d9 153d 3e14 753c 6afa d33c
00000110: 4d3d 8c3c 04b0 6a3c a3fb 02bd d786 763c
00000120: 1e2b fb3c 8bfb ba3b 1444 463c 7ed4 103d
00000130: 21fd 663d c146 19bd a343 4dbd 60ae dabb
00000140: 6ae6 0b3d 9ab5 9f3c 0fd4 2b3c b77d 913c
00000150: de01 013d 0070 4fbd 5a0c 4abd eb8c 0ebd
00000160: 1125 613d d322 af3c 0756 13bd 404a 483b
00000170: 7a5d 22bd 756d 543d c02e 51bd b90e cc3c
00000180: dd5a d33c 4a26 b83c 01ea 9d3c eab2 4ebd
00000190: 1c97 0e3c c0d8 53bd 8725 073d 8c4e 0dbd
000001a0: 5f99 a73c a0ac 21bd 3088 c2bc 223b 223c
000001b0: db3a 9c3c d2bc 1d3d 92c0 31bd 7a01 ca3c
000001c0: 1f47 20bd f0c4 893c 12bc f33c 1c21 4abd
000001d0: 50a1 673c d330 473d 4187 343d 650e 353d
000001e0: bd30 1fbd 0560 243d 13bf 243d ff05 06bd
000001f0: 63be 04bd 5e46 d23c 157c b73c b3a2 4abd
0.014039461 -0.04746803 0.037768986 -0.061759233 -0.044258155 -0.046768416 0.0345925 -0.029564055
-0.03175929 0.05591148 -0.039485633 -0.02012935 -0.012501061 -0.026389426 0.05847996 -0.045595612
-0.024795331 0.02438562 -0.050041743 0.018202927 0.054969855 0.011058915 -0.018329097 0.027044702
0.048962127 -0.040649377 0.031971827 -0.013749657 0.059449848 0.038570978 -0.03855027 -0.032679956
0.017408034 -0.041085545 -0.00063709845 0.036904745 -0.051256835 -0.021417642 0.013406637 0.021046069
0.009936887 0.043683957 0.036036316 -0.04014289 0.037652463 0.018985443 -0.0020093455 0.03471092
0.0008221292 -0.04829192 -0.023225907 0.04343782 0.014483376 0.06158022 0.0030847779 0.027979035
0.02748602 0.015787046 0.06405282 -0.049158316 0.039584562 -0.034994237 0.064658284 0.021429298
-0.060527727 0.03658457 0.014958439 0.025876243 0.017119074 0.014324192 -0.03197826 0.015046797
0.030660208 0.005706256 0.012101192 0.0353589 0.056393746 -0.03742099 -0.05011333 -0.006673619
0.034155287 0.019495774 0.01048757 0.01776014 0.03149592 -0.05064392 -0.049328186 -0.03480236
0.05496699 0.02137891 -0.035970714 0.0030561835 -0.039639927 0.0518622 -0.051069975 0.024909364
0.025800163 0.022479195 0.01927662 -0.050463594 0.0087030195 -0.05172038 0.032994773 -0.034498736
0.020458875 -0.03947127 -0.02374658 0.009901794 0.019071033 0.03851015 -0.04339654 0.024658907
-0.039130326 0.01681754 0.029752765 -0.04934798 0.014137581 0.048630547 0.0440743 0.04420318
-0.03886484 0.040130634 0.040221285 -0.032720562 -0.03240813 0.02566832 0.022398034 -0.04947157

action_model._discrete_distribution.branches.0.weight f4 [3, 128]
00000000: ef01 073b 5f51 2dbd d8dc 3d3d 9919 47bd
00000010: c782 85bd 85d5 35bd f60e 413d 9f28 0dbd
00000020: a536 8fbd 787c 863d 26d9 29bd 728b 65bc
00000030: 07c0 b53b abf1 d0bc 69eb 793d 2ec5 75bd
00000040: c864 82bc 6d16 7e3c 1229 66bd a7ae 843d
00000050: 08b2 883d a96c bc3d ef39 02bd e0cb 59bb
00000060: e3ab 493d ea2a 42bd 28f2 dabc f9e4 bebb
00000070: d61f 5e3d 922e 363d 7825 10bd 8284 36bd
00000080: bb07 1e39 8849 49bd 0c34 b43c ce1c f53c
00000090: 039b a1bd 9275 75bd d236 13bd 9a18 e53c
000000a0: 7b53 e13d ac1b db3d e117 063d 5097 69bd
000000b0: 8a96 393d 0f82 a93c 643f f4bd ace1 143d
000000c0: c659 28bc 4a00 43bd 9614 1ebd 2db0 043e
000000d0: 4eeb 823c f7e8 663d 8a21 d6bc 0b2d ee3b
000000e0: d319 303d 2f00 dabb 54a8 153e f10b 6bbd
000000f0: c72c 283d ba5b 88bd 238f 083e e42a 303c
00000100: c4f2 40bd 3279 483d 0d53 393c 0591 9e3b
00000110: 127b 053d 2868 69bc 3684 fcbc 1dad 9c3c
00000120: 907a 473c fdd3 6cbd 9424 b53d 904e 473d
00000130: 55b3 ac3d 9a29 2abd 9312 7abd 358c 743d
00000140: a234 3e3c be05 093c 9b85 e3bb b164 16bd
00000150: 81d3 583c 9507 8ebd 7746 14bd 1d1d 4ebd
00000160: 4a52 923d 8eab d23b 3efe 79bd 86f9 84bb
00000170: 479a 73bd 9078 413d 4aef 95bd dfa9 863d
00000180: 4341 a73c 0f5c b43d 3fdb babd 6e04 26bd
00000190: 69ec 603d d79c 74bd 9859 d23c f69c 8bbd
000001a0: ef8b 0f3b 0614 7abd 5251 0ebd aca5 76bb
000001b0: 191f 123d 0112 3b3d 31f1 4fbd ed33 e73b
000001c0: e673 9cbd 1661 9ebc 7d57 ccbd 8719 6fbd
000001d0: 41c3 ba3c 8380 833d f8f2 3a3d 6a4d 6a3d
000001e0: b67d 5abd 64c2 a33c 9a98 423d 74fe 32bd
000001f0: 6e71 25bd e393 203b 419b 813c 09e1 1cbd
00000200: 6db6 7d3d 82c0 a03c 96a1 db3c 3069 8b3c
00000210: a7aa 463a 40fd 8dbb 366e 8f3b 6b48 20bd
00000220: 74a3 993c c80a 503c bda3 2b3c 3488 46bd
00000230: 78d6 b1bc e88e 8bbc 5ff8 71bd 76a8 a53c
00000240: c444 f7bc a413 133d 7db4 203b 3373 d6bd
00000250: 265c 70bb 3fe6 b9bd d6c4 b8bc 30d2 7a3d
00000260: 3cc7 bb3a 5e43 70bb 52e1 533d 5660 17bd
00000270: 8a4a cfbb a88e fd3b e3fb 88ba d5fc 89bb
00000280: 9a5f 803d 9212 d1bb cf31 49bd b6e8 0e3d
00000290: bd29 963c a888 693c 9591 953d d3a8 023d
000002a0: de07 c0bd 3682 88bd 30f8 f53b 4b18 203c
000002b0: 7289 873c 04c2 8a3c 4772 f93d 9117 8e3c
000002c0: 189a 1abd 7efa 8d3c 37fd dcbc a5df e6bd
000002d0: b12b 94bd aeb6 2abd 723f a93d 1840 0c3d
000002e0: f15e 6bbc 7497 6b3d 2d23 d4bd 9a8a 393c
000002f0: 1978 0c3b 5ca7 953c 6262 d3bd d979 563d
00000300: c64c 023c 00db e23c 61b8 b33c 8fb1 ed3c
00000310: 783e 373d 6968 ab3d e032 16bb e01e 023d
00000320: f418 173d a912 3d3d cbfc 8dbd c3a8 8f3a
00000330: 227f b7bc 70c0 d7b9 c5d8 df39 4470 bebd
00000340: 25cd 0d3d 7317 253d a707 423d 2c1a 903d
00000350: c23a 0e3d b5b7 0fbc 3d15 85b9 ca5f 46ba
00000360: 08d8 bebc 837f ce3c f858 6a3c be06 503d
00000370: f4a1 243b c3d7 80bb a2c3 c73c c2c5 febd
00000380: 7822 fc3c b6e3 92bd 6254 af3d fc9f 91bb
00000390: db24 c7bc 4958 883c 3bf1 7f3c 5da7 d23c
000003a0: cc6f 6d3d 1ad9 2e3d c2fc febc 9c6b 3e3d
000003b0: 4a4a 913c 84ea cc3c f8fe efbb 4930 4f3d
000003c0: 7581 b13c 8f3e 923d 7acf f03d e001 c8bc
000003d0: 91d3 1c3d 33e4 fab9 f32e 5c3c de4c 373b
000003e0: b673 b23b a43b e73c ecbf d93c 9d30 013c
000003f0: c55e aebc 28ba 443d b992 193d 4e9c 6cbc
0.0020600518 -0.04231393 0.04635319 -0.048608396 -0.065190844 -0.04439308 0.04713341 -0.034462567
-0.069928445 0.06566709 -0.041466855 -0.014010297 0.005546573 -0.025505861 0.06101552 -0.0600025
-0.015917197 0.015508276 -0.05619151 0.06478625 0.06674582 0.09200413 -0.03179353 -0.0033233091
0.04923619 -0.047404207 -0.026726797 -0.0058256355 0.05422958 0.044478007 -0.035191983 -0.044559963
0.00015070934 -0.04914239 0.021997474 0.029920962 -0.07890894 -0.059926577 -0.035940953 0.027965833
0.11002251 0.10698637 0.032737616 -0.05702907 0.04530958 0.0206919 -0.11926153 0.03634803
-0.01027531 -0.047607698 -0.03859385 0.1295783 0.015981343 0.056374516 -0.02613904 0.007268553
0.042993378 -0.006652854 0.14614993 -0.057384435 0.041058328 -0.066581205 0.13335852 0.010752413
-0.04710652 0.048943706 0.011311305 0.004839065 0.032588072 -0.014246024 -0.030824762 0.019125516
0.012175217 -0.057819355 0.08844867 0.048658907 0.08432642 -0.04154358 -0.06105287 0.059704024
0.011609228 0.008363185 -0.0069434172 -0.03671712 0.01323402 -0.0693504 -0.036200013 -0.050320733
0.07144602 0.0064291423 -0.06103348 -0.004058066 -0.059473302 0.047234118 -0.073210314 0.06575369
0.020416861 0.08806621 -0.09123849 -0.04053157 0.05491296 -0.059719887 0.025677487 -0.06817047
0.0021903475 -0.061054252 -0.03474552 -0.003763537 0.03567419 0.045671467 -0.050767127 0.0070557506
-0.076392934 -0.019333404 -0.099776246 -0.058373954 0.022798182 0.06420996 0.04564187 0.057202734
-0.053342544 0.019990154 0.047508813 -0.043699697 -0.040391378 0.002450221 0.015821101 -0.038300548
0.061941553 0.019623045 0.026810449 0.01701793 0.000757853 -0.0043331683 0.004377152 -0.039131563
0.018754698 0.012697883 0.01047605 -0.048469737 -0.021708712 -0.017035916 -0.059074756 0.02022193
-0.030184157 0.035907403 0.0024521642 -0.10471191 -0.0036676018 -0.09077119 -0.022554796 0.061235607
0.0014326344 -0.0036661248 0.051728554 -0.036957107 -0.0063260244 0.007737953 -0.0010451045 -0.004211048
0.062682346 -0.0063803876 -0.049119767 0.0348899 0.01833045 0.014253773 0.07303158 0.031899285
-0.093765005 -0.06665461 0.007506393 0.009771417 0.016545031 0.016938217 0.1218 0.017345222
-0.03774461 0.017331358 -0.026976211 -0.112731256 -0.07234896 -0.041678123 0.08264054 0.034240812
-0.0143658975 0.057517484 -0.10358272 0.011324549 0.0021433888 0.01826828 -0.103214994 0.052362297
0.0079528745 0.027692318 0.021938505 0.02901533 0.04473731 0.08369524 -0.0022918507 0.031767726
0.03688903 0.046160374 -0.06932982 0.0010960329 -0.022399489 -0.00041151373 0.0004269538 -0.09298757
0.03461947 0.040305566 0.04737058 0.07036242 0.034724005 -0.0087718265 -0.0002538356 -0.0007567374
-0.023296371 0.025207287 0.014303438 0.05078768 0.0025120946 -0.003931971 0.024385277 -0.12440063
0.030778155 -0.07172339 0.085610166 -0.0044441205 -0.024309566 0.01664366 0.015621479 0.02571457
0.057967946 0.042687513 -0.031126384 0.046489343 0.01773562 0.02501417 -0.007324096 0.050583158
0.021668175 0.07140838 0.11758323 -0.024414957 0.038287703 -0.00047853737 0.013438928 0.00279694
0.0054459227 0.028226681 0.026580773 0.0078851255 -0.021285424 0.048029095 0.03749344 -0.014441563

action_model._discrete_distribution.branches.0.bias f4 [3]
00000000: 8993 403d b15c b6bb c40a 3bbd
0.0470157 -0.005565249 -0.045664564

action_model._discrete_distribution.branches.1.weight f4 [3, 128]
00000000: 4580 d33c 8c32 0abd 5631 b13c 55bf f7bc
00000010: 34e0 55bd 70a2 3bbd daf7 393d 87df fdbc
00000020: e558 2abd b843 c43b 915c 25bd 568c d7bc
00000030: 893c 2cbd a18c 44bd 0ff0 573d dacb 00bd
00000040: 1d81 0abd 6f4b 363d 2052 03bd 6f4b 983c
00000050: 835a ba3c 1573 89bd 8c8d 1abd ef1a 4c3d
00000060: bc92 9e3c 9db3 26bd d7f9 493d 24db cebc
00000070: 1c35 82bb 0db4 123d 31da cebc f762 46bc
00000080: d80a 2f3d 9a52 16bd b3ec 6abd 90e8 193d
00000090: 889c 16bd 5af3 59bd 5b43 863c 81ca f43c
000000a0: 4ff7 a0bd 1b8a 963d 2e5a 393d d4e5 15bd
000000b0: cde3 c63c 00b1 ce3c 8a19 75bc 57d7 eb3c
000000c0: 61a9 40bd bdea 15bd 8d6c 57bd 0c59 07bd
000000d0: 0eb4 02bc 77f2 a53c d73d a03b e507 6f3d
000000e0: e3d3 323d be4a ee3c 4b00 a2bc 7038 18bd
000000f0: bcff 973c e8ed f4bc 73d7 6ebd d99e fc3c
00000100: d2c5 b6bc a803 c63c 7dc5 143d fe43 c03c
00000110: 7e2a c03c 7aca de3c 151e 49bd b014 e73c
00000120: d355 5b3d 8beb 30bd a637 963d 8332 de3c
00000130: 8955 6b3c 73d2 34bd e9d9 09bd 878d a1bd
00000140: 7c3c 643d db2e a23c 3c15 92ba 26ae 0c3d
00000150: 9d33 213d 6318 26bd aa66 2ebd d118 39bd
00000160: 96af 583b 2afd 3a3d de21 53bd 5445 0b3d
00000170: ca62 3abd 964b d93c f5c0 14bd 5151 94bc
00000180: 0cf0 203d 6ff0 d13d a5cd 4ebd ac5a eebc
00000190: 813e 7f3d 0583 3ebd 21e0 393d c476 00bd
000001a0: 8180 453d 73eb 19bc 9cd2 9dbd 6239 0a3d
000001b0: 34a0 793c bdf2 dc3c 0ed4 1bbd 3c01 843d
000001c0: d3d0 d0bc f624 153d a6ab 7d3c ee87 b5bc
000001d0: 411b d93c 89ae 143d 7616 a23c c9d7 f13c
000001e0: ecbb 57bd aa23 023d 8871 64bb 1dbe 06bd
000001f0: 3c6a 1fbd 1071 253d 8cb5 253d 796e d7bc
00000200: 6a8a 70bc 1ed6 69bc 0d53 433c 7cd6 24bc
00000210: 7181 ce3b 23df ffbb edf6 bcbb 3f5f 94bb
00000220: 0ba6 ce3c 5c6d 2b3d a8f5 da3b f80b 85bd
00000230: c963 9e3b bc4a c03b c001 c63c 6173 ccbc
00000240: d67c 67bc 616e 35bd 147a a3bc 1ca6 3cbd
00000250: df8f 5f3d 3e89 9c3d 2c82 75bb 35aa b8bc
00000260: 5eab 163d 66bb ec3c d983 4fbd 27b0 d2bc
00000270: 7b35 b33d b1e7 c03c c5ed 72bb df4a ebba
00000280: d543 31bd 0e9e 8a3c bbb4 2f3c e198 acbc
00000290: ca56 5b3b 2258 9e3c 1276 7fbb 9647 1fbd
000002a0: d0ae af3d 3856 7abd 03c2 49bc 27af 103c
000002b0: d62b 003d 8bbb 21bd 75fe 5cbb 7896 13bd
000002c0: 1cad 073d 5313 363b 9729 043d 6d54 d33d
000002d0: 9722 bbbd a12d a63d e2ef f23c 2ba6 d6bc
000002e0: a8ff 48bd 9ce0 ab3c c6de c53d 4f51 e93b
000002f0: 712e c63c 5e4b 0f3c c19f d73d e509 84bc
00000300: 29f6 70bc 530c 9a3c e144 3cbd 7ce7 b5bc
00000310: 5903 dd3c 2703 8cba 9128 6a3c 62f5 cebb
00000320: 1cda 81bc dda0 943d bf31 f9bd 56e1 c93c
00000330: 7d19 343d 6d3a ea3a cdc4 083b a3dc d53d
00000340: 3be9 65bd aac6 92bc a3f8 193d 6f92 c7bc
00000350: 2a45 f7bc 3402 44ba cdb4 513c 711b 593c
00000360: ac58 823d 7fab 99bd 3691 313c bd97 a73c
00000370: 6e9c 25bc 8b13 de3c c00c c33b cb23 61bd
00000380: 9093 f339 4a25 05be ac70 8c3d 6a3e cdbc
00000390: 01d0 d5bd 50f3 a4bb e173 20bd 4b62 fe3b
000003a0: dcc1 1fbd 8126 c2bc 845b 943d f264 c1bc
000003b0: ffd1 a9bc 87fc a23b 1558 513b aad3 0ebd
000003c0: e084 583c 9e03 8d3c 5f53 e9bd aa28 cabb
000003d0: 711f 9a3c e059 953c 3db5 483c 3f04 8c3c
000003e0: 9b0c a2ba 84ae b2bc a985 4f3d 8309 83bb
000003f0: 45f5 273c e278 93bc bb46 51bc 83e7 37b9
0.025818 -0.03373961 0.02162997 -0.030242601 -0.05221577 -0.04580921 0.045402385 -0.030990375
-0.041588683 0.005989518 -0.04037148 -0.026312035 -0.04204992 -0.047985677 0.052719172 -0.031444408
-0.03381454 0.044505533 -0.032060742 0.018590657 0.022748237 -0.06711403 -0.037732646 0.049830373
0.019357078 -0.040698636 0.04931053 -0.025250979 -0.0039736163 0.03581624 -0.025250526 -0.012108556
0.04273495 -0.03669987 -0.05735464 0.037575305 -0.036770374 -0.053210594 0.01638954 0.029881718
-0.0785967 0.0735056 0.045252018 -0.036596134 0.024278546 0.025230885 -0.014959702 0.028789205
-0.047036532 -0.036600817 -0.052593756 -0.033043906 -0.007977499 0.020257218 0.0048901844 0.05835714
0.043659102 0.029088374 -0.01977553 -0.037163198 0.01855456 -0.029898599 -0.058310937 0.030837463
-0.022311125 0.024171665 0.036321152 0.023469921 0.023457762 0.027196158 -0.049100954 0.028208107
0.053548645 -0.04319338 0.07334833 0.027123695 0.014363655 -0.044146013 -0.03365508 -0.07888322
0.055721745 0.019797733 -0.0011145244 0.03434577 0.039355863 -0.0405506 -0.042578377 -0.045189682
0.0033063642 0.045651592 -0.05154597 0.034001663 -0.04550437 0.0265253 -0.03631683 -0.018105181
0.039291427 0.10250937 -0.050489087 -0.02909597 0.062315468 -0.04651167 0.04537976 -0.031363264
0.048218254 -0.009394514 -0.07706186 0.03374613 0.015235949 0.026971215 -0.038044028 0.06445548
-0.0254902 0.0364122 0.015482819 -0.022159543 0.026502253 0.036299262 0.0197861 0.02952184
-0.05266945 0.031772293 -0.003485771 -0.03289615 -0.038919672 0.040391028 0.04045634 -0.026297795
-0.014681438 -0.014272241 0.011921656 -0.010060903 0.0063020517 -0.0078085824 -0.0057667405 -0.004527956
0.02522566 0.04185234 0.0066821165 -0.064964235 0.0048336727 0.005868284 0.024170756 -0.02495736
-0.014128884 -0.04429472 -0.019955672 -0.04605685 0.054580566 0.07643364 -0.0037461622 -0.022542099
0.036784522 0.028897952 -0.05066285 -0.025718762 0.08750435 0.02354798 -0.0037067991 -0.001795139
-0.04327758 0.01692107 0.010724242 -0.021068992 0.0033468478 0.019329134 -0.0038980287 -0.03888663
0.08578265 -0.06111738 -0.012314322 0.008830822 0.031291805 -0.039485496 -0.0033721004 -0.03603217
0.033124074 0.0027782514 0.032266226 0.10318837 -0.09137457 0.08114172 0.0296554 -0.026202282
-0.049071938 0.020981126 0.09661631 0.0071202884 0.024192067 0.008745996 0.105285175 -0.016118
-0.014707127 0.018804705 -0.045964126 -0.022205107 0.026979135 -0.0010682092 0.014291898 -0.006315873
-0.015851073 0.07257245 -0.121676914 0.024643581 0.04396962 0.0017870195 0.0020869256 0.10442474
-0.05613063 -0.017916996 0.037590634 -0.024361817 -0.030184347 -0.0007477135 0.012799454 0.013251171
0.06364569 -0.075034134 0.010837844 0.020458097 -0.0101080965 0.027108928 0.0059524477 -0.054965775
0.00046458514 -0.13002506 0.06857428 -0.025054175 -0.10440064 -0.005033888 -0.03917301 0.0077631823
-0.039003238 -0.0237 0.07244018 -0.023607705 -0.020730017 0.0049739513 0.003194337 -0.034869827
0.013215274 0.017213639 -0.11392855 -0.0061693983 0.01881382 0.018231332 0.012250242 0.017091868
-0.0012363376 -0.021811731 0.050664578 -0.0039989366 0.010251348 -0.018001977 -0.012773211 -0.00017538485

action_model._discrete_distribution.branches.1.bias f4 [3]
00000000: 4737 f23c ee75 60bb 1e15 8fbc
0.029567374 -0.003424998 -0.017466124

exp_avg f4 [128, 36]
00000000: 38bd 9a37 79fa ed38 0000 0000 a472 b537
00000010: 0749 6138 dc46 ad38 c05c ac38 0000 0000
00000020: 93e9 3cb7 1c6c 3f38 c3c9 d338 6ebc 3838
00000030: 0000 0000 57f3 0e37 f95d 6438 cd82 e038
00000040: dbda 1c38 0000 0000 67b1 1837 e5f3 4738
00000050: 678e 8439 e5c9 ffb8 0000 0000 f95a be37
00000060: f81b f837 2bfb a738 ed6f 5f38 0000 0000
00000070: 154d a937 0f5d 8938 724d 2639 be85 59b7
00000080: 0000 0000 ebe1 0437 33b3 4538 7670 9338
00000090: e006 4eb7 09db c238 0000 0000 a9ac 4bb6
000000a0: ae1d 4838 ac81 15b8 403e e138 0000 0000
000000b0: ccf5 c336 c2da 4738 0ba4 73b7 fe1b 8d38
000000c0: 0000 0000 2955 d037 4cd9 6638 e6b1 6838
000000d0: 086f b137 0000 0000 8004 8235 2619 0438
000000e0: 3c9a bfb7 d7cc b538 0000 0000 24b4 6637
000000f0: 7e0e 6c38 4148 cf38 b0b4 6bb7 0000 0000
00000100: 434e f1b6 d42e 7137 21c1 8338 8afb 8ab6
00000110: 0000 0000 86ad 9e37 1f5a bb37 1e7a b9b7
00000120: f9a6 9736 df54 afb9 0000 0000 b4b4 8eb7
00000130: 93dd 44b9 7635 8038 7809 c4b9 0000 0000
00000140: ba2b 0fb8 675d 62b9 d177 b2b3 d5ed a4b9
00000150: 0000 0000 8a44 07b8 4c5c 4eb9 4f76 d0b9
00000160: 2513 8d38 0000 0000 6900 8bb7 a22e 29b9
00000170: aa22 8cb9 c086 c2b8 0000 0000 b059 5c37
00000180: f6ce 26b9 c55e c9b9 f771 3238 0000 0000
00000190: 6241 b4b6 247f 03b9 15b8 8cb9 1833 6cb8
000001a0: 0000 0000 4d31 bab7 1f73 e5b8 1ad4 81b9
000001b0: bd6c 38b7 e5c4 5fb9 0000 0000 8a74 3ab7
000001c0: 2733 e2b8 26d6 aeb7 5123 62b9 0000 0000
000001d0: 6b8e 8535 e506 f7b8 9efe 89b8 aa2f 28b9
000001e0: 0000 0000 1740 1cb7 c097 e5b8 2761 5bb9
000001f0: 6088 b4b7 0000 0000 a718 a0b6 1896 c0b8
00000200: 3008 6fb9 b130 9a36 0000 0000 a3c4 4bb7
00000210: d0f7 a1b8 e03b 73b9 d323 6835 0000 0000
00000220: 7ae7 93b6 0b76 a8b8 300a 59b9 5ff6 cbb7
00000230: 0000 0000 5a3f 8db6 1e46 92b8 e349 60b9
00000240: d6e2 e8b8 1410 073a 0000 0000 7ccf d138
00000250: c74e fe39 0bd5 9638 136c cc39 0000 0000
00000260: b3cf 3138 24f2 ea39 17a2 5739 a2d3 8039
00000270: 0000 0000 32b5 5d38 60dd dd39 6a0c 0f3a
00000280: ad87 dbb8 0000 0000 9191 8438 9b6f 7439
00000290: 50c7 2a3a 8127 90b9 0000 0000 61e8 0539
000002a0: 2617 a639 5cff 443a 8cf2 6fb9 0000 0000
000002b0: d3a1 9ab7 261b ea38 9743 123a 8a88 0fb8
000002c0: 0000 0000 a9ac a3b7 fe87 4a39 ba1d 073a
000002d0: 5eac 9237 9fd0 5d39 0000 0000 f61a 9237
000002e0: db48 fa38 1f3b beb6 6caf 7639 0000 0000
000002f0: 915f 8d37 9e67 0a39 d04b 4338 62a4 3039
00000300: 0000 0000 c8c8 0338 ad28 0739 d626 8439
00000310: 5982 a1b7 0000 0000 53c2 6437 b228 e338
00000320: 1b7a 4539 e134 8938 0000 0000 bb60 f5b6
00000330: 9dea e038 9e4d 7339 7d61 9336 0000 0000
00000340: e90d 2837 1ffa cc38 2914 3339 37cd 6638
00000350: 0000 0000 9410 ad37 372e ad38 f0f4 7938
00000360: b462 b9b7 b275 5a3a 0000 0000 4cd2 e038
00000370: 321c e739 1b91 1137 aafc 723a 0000 0000
00000380: f4c0 8fb7 8e98 013a 838a 9539 f9f4 1a3a
00000390: 0000 0000 acaa 3038 adbc e339 121a 4d3a
000003a0: c95d b038 0000 0000 9cf1 5938 a13e e939
000003b0: 7b86 823a 93ef 0db9 0000 0000 3e3d 7338
000003c0: 8dbd 9a39 818a 573a 32e6 d837 0000 0000
000003d0: a199 9338 7d29 dd39 5cae 6a3a 4ebe 5a37
000003e0: 0000 0000 80e3 2a37 53ca 8739 e95a df39
000003f0: 3387 4338 8060 9c39 0000 0000 b412 e237
1.8446342e-05 0.00011347695 0.0 2.1630265e-05 5.3712192e-05 8.2624814e-05 8.218875e-05 0.0
-1.1260056e-05 4.5638633e-05 0.00010098845 4.4044507e-05 0.0 8.5205165e-06 5.4446955e-05 0.00010705516
3.7397123e-05 0.0 9.101211e-06 4.767244e-05 0.000252831 -0.00012196953 0.0 2.2692127e-05
2.9576928e-05 8.009964e-05 5.3271582e-05 0.0 2.0182264e-05 6.5500026e-05 0.00015859844 -1.2965347e-05
0.0 7.920414e-06 4.7135352e-05 7.030454e-05 -1.22801575e-05 9.291439e-05 0.0 -3.0349859e-06
4.7711357e-05 -3.5645135e-05 0.00010740431 0.0 5.8400674e-06 4.764903e-05 -1.4522123e-05 6.728618e-05
0.0 2.4835188e-05 5.5038647e-05 5.547879e-05 2.1151747e-05 0.0 9.687064e-07 3.1494674e-05
-2.2840795e-05 8.668907e-05 0.0 1.3751011e-05 5.628028e-05 9.8839875e-05 -1.4049161e-05 0.0
-7.1914706e-06 1.4375622e-05 6.28254e-05 -4.1420035e-06 0.0 1.891587e-05 2.2334103e-05 -2.2110584e-05
4.519589e-06 -0.00033441835 0.0 -1.7011866e-05 -0.0001877456 6.1134735e-05 -0.00037391088 0.0
-3.413458e-05 -0.00021587835 -8.3105654e-08 -0.00031457716 0.0 -3.225034e-05 -0.00019680074 -0.00039760998
6.72697e-05 0.0 -1.6570282e-05 -0.00016134468 -0.00026728708 -9.27574e-05 0.0 1.3133904e-05
-0.00015908093 -0.00038408316 4.2544645e-05 0.0 -5.3720296e-06 -0.00012540497 -0.00026840033 -5.631437e-05
0.0 -2.2195885e-05 -0.00010941014 -0.00024762825 -1.0992572e-05 -0.00021340286 0.0 -1.1113598e-05
-0.00010786048 -2.0842137e-05 -0.00021566196 0.0 9.950721e-07 -0.00011779162 -6.580095e-05 -0.00016039485
0.0 -9.313247e-06 -0.000109478366 -0.0002092166 -2.1521177e-05 0.0 -4.7712415e-06 -9.1832306e-05
-0.00022795866 4.595226e-06 0.0 -1.2145526e-05 -7.723237e-05 -0.00023196591 8.6478866e-07 0.0
-4.407889e-06 -8.0328515e-05 -0.00020698528 -2.4314211e-05 0.0 -4.2095025e-06 -6.974883e-05 -0.0002138983
-0.000111048736 0.0005152237 0.0 0.000100045436 0.0004850535 7.19224e-05 0.00038990434 0.0
4.2393523e-05 0.00044812367 0.00020564381 0.0002457174 0.0 5.2859257e-05 0.00042317342 0.0005456867
-0.00010468005 0.0 6.321364e-05 0.0002331123 0.0006514685 -0.00027495253 0.0 0.00012770436
0.00031679234 0.0007514858 -0.00022883172 0.0 -1.8433586e-05 0.00011163046 0.00055795297 -3.422102e-05
0.0 -1.9511515e-05 0.00019314882 0.0005154271 1.7484821e-05 0.0002115392 0.0 1.7417111e-05
0.00011934499 -5.669324e-06 0.00023525738 0.0 1.6853011e-05 0.00013199306 4.656223e-05 0.00016845905
0.0 3.1419826e-05 0.00012889756 0.00025205937 -1.9253393e-05 0.0 1.3635104e-05 0.000108317836
0.00018832872 6.5425185e-05 0.0 -7.31283e-06 0.000107248525 0.000232032 4.3922905e-06 0.0
1.0016819e-05 9.774067e-05 0.0001707828 5.5027394e-05 0.0 2.0630927e-05 8.257891e-05 5.9594342e-05
-2.209968e-05 0.0008333578 0.0 0.00010720323 0.0004408076 8.6764585e-06 0.0009269217 0.0
-1.713678e-05 0.0004943692 0.00028522694 0.00059111376 0.0 4.212062e-05 0.00043437388 0.0007824014
8.409803e-05 0.0 5.1961848e-05 0.00044487885 0.0009958291 -0.00013536056 0.0 5.799275e-05
0.00029514395 0.0008222238 2.58564e-05 0.0 7.038122e-05 0.00042183316 0.0008952373 1.3038121e-05
0.0 1.0185759e-05 0.0002589995 0.00042601608 4.6617537e-05 0.00029826537 0.0 2.6950009e-05

exp_avg_sq f4 [128, 36]
00000000: ee9c 1d35 9076 f234 0000 0000 91dc e832
00000010: 4057 4934 c4d9 3635 d165 ca34 0000 0000
00000020: e848 7a32 df9e 2b34 d4a2 1c35 b5fd de34
00000030: 0000 0000 da0e 8033 ddfe 7d34 1a39 5e35
00000040: 419a 7734 0000 0000 c1e7 8532 3b35 2534
00000050: d7ef 0635 a3c4 dd34 0000 0000 0012 fe33
00000060: b77e 9534 6747 5735 70dd 8a34 0000 0000
00000070: b215 2f32 68c0 3334 e95d 0935 5cab ed34
00000080: 0000 0000 937b e233 dfce 9834 c219 2435
00000090: ba93 6a34 deec 7434 0000 0000 6e81 ee31
000000a0: ecf6 9833 7eb4 9234 c6aa 3734 0000 0000
000000b0: 6473 8531 5a49 8333 a343 1834 b716 9b34
000000c0: 0000 0000 6e8b a832 65b4 bf33 c9a6 e234
000000d0: cc45 2c33 0000 0000 f3d3 b031 9b6c 8433
000000e0: e2ab a633 b138 b434 0000 0000 2751 0233
000000f0: 969e d733 af85 d634 cfa2 7333 0000 0000
00000100: 27ae 4a31 4d01 8133 c5bb f833 e0fb a334
00000110: 0000 0000 9f8e 0033 5990 da33 ff87 9c34
00000120: 002f 2e34 3497 ff35 0000 0000 9e9e e733
00000130: 8fca 0e35 5e19 c534 31ce df35 0000 0000
00000140: 0930 f033 6760 1235 f376 bf34 1293 e135
00000150: 0000 0000 99e9 0234 8e96 0f35 5905 e135
00000160: ef1e 1335 0000 0000 0873 2a33 5e6e e934
00000170: 59a3 9735 83d9 7c35 0000 0000 6dec 7d33
00000180: 4a46 f634 0d61 0436 1e1f 7534 0000 0000
00000190: fe6f e631 9f36 b134 a637 db35 58f4 1535
000001a0: 0000 0000 eea3 0e33 61ae c434 c267 0836
000001b0: 2ad4 f032 bb08 6234 0000 0000 c416 0c31
000001c0: e24d 0033 6162 7033 57eb 4434 0000 0000
000001d0: a20b db2f c01c ec32 6b86 1833 806a 5234
000001e0: 0000 0000 d05e 9931 f424 0e33 3208 1c34
000001f0: b61a bb33 0000 0000 9e1d 6f30 48b0 c132
00000200: 676d f533 2cb3 e933 0000 0000 0368 0d32
00000210: dd16 0c33 3eca 3934 79a7 8333 0000 0000
00000220: dc02 412f 19db b632 ea37 1a34 3d93 b533
00000230: 0000 0000 6de7 aa31 c16a 0433 799e 5734
00000240: fd36 9136 27f4 1137 0000 0000 83da 2c35
00000250: 868c 5d36 1613 ac36 3267 0a37 0000 0000
00000260: c142 1035 cc19 5736 762c 0337 dc0a ae36
00000270: 0000 0000 91f9 1d35 f998 5036 a7ad 1837
00000280: e3be 8236 0000 0000 e323 1535 d3d6 4236
00000290: 4d3b 3137 62ef 2f36 0000 0000 028f 4f35
000002a0: 5fda 3536 1481 3337 5ed7 3f36 0000 0000
000002b0: 10cc 7634 dd4e 2c36 d415 3337 8705 3436
000002c0: 0000 0000 f1fd 0835 4e89 2136 a8b1 1c37
000002d0: 7eb4 2934 530a da34 0000 0000 7258 f432
000002e0: 58b6 0934 00ad 6434 90d3 b634 0000 0000
000002f0: 8e30 ba32 7945 0a34 44e3 2634 c471 d334
00000300: 0000 0000 b24b 1033 65b1 1434 89ae 0e35
00000310: 4697 9933 0000 0000 e33b c331 b7a5 e933
00000320: 69b4 5734 56e6 b434 0000 0000 1fab 1b33
00000330: 09ac 1a34 9eba 1035 be83 7033 0000 0000
00000340: f5c6 bd30 ba16 c433 a1b2 a134 c129 8e34
00000350: 0000 0000 e7b8 bb32 d713 0a34 1d9f f434
00000360: 3383 8136 ecb7 4036 0000 0000 fd81 8434
00000370: 1714 a535 4c29 9a36 38f6 0b36 0000 0000
00000380: 4f52 3834 8706 9235 9dda 6f36 7c08 3f36
00000390: 0000 0000 088a d734 093a ca35 53c9 c536
000003a0: 2509 4035 0000 0000 e593 9133 6160 8035
000003b0: 391d 4636 f356 4936 0000 0000 a158 2335
000003c0: 1551 ea35 b3db b536 367c af35 0000 0000
000003d0: ef95 b933 8799 8c35 64e6 4b36 af3f 5436
000003e0: 0000 0000 4a95 e134 eb9a e435 256a 7236
000003f0: c5b2 7635 7a81 f335 0000 0000 b7be b133
5.871542e-07 4.5162278e-07 0.0 2.7108657e-08 1.8751325e-07 6.8117174e-07 3.7699513e-07 0.0
1.4568492e-08 1.5983413e-07 5.8351475e-07 4.1535318e-07 0.0 5.963166e-08 2.365518e-07 8.278454e-07
2.3059785e-07 0.0 1.5588627e-08 1.5386188e-07 5.0267903e-07 4.130753e-07 0.0 1.1831071e-07
2.784561e-07 8.0197646e-07 2.586562e-07 0.0 1.0191274e-08 1.6740671e-07 5.1173134e-07 4.426937e-07
0.0 1.0546423e-07 2.8462725e-07 6.1132243e-07 2.1846691e-07 2.2810443e-07 0.0 6.941426e-09
7.1229664e-08 2.7325945e-07 1.710533e-07 0.0 3.883928e-09 6.1135054e-08 1.4180709e-07 2.8887527e-07
0.0 1.962118e-08 8.926944e-08 4.2217133e-07 4.011035e-08 0.0 5.14637e-09 6.166484e-08
7.761243e-08 3.356886e-07 0.0 3.034179e-08 1.0040564e-07 3.9957874e-07 5.672592e-08 0.0
2.9493863e-09 6.007267e-08 1.1582555e-07 3.054438e-07 0.0 2.9932036e-08 1.0177673e-07 2.9156215e-07
1.6222111e-07 1.9042986e-06 0.0 1.0785628e-07 5.3193884e-07 3.6712566e-07 1.6674804e-06 0.0
1.11846084e-07 5.452952e-07 3.566307e-07 1.680661e-06 0.0 1.2192176e-07 5.349074e-07 1.6765363e-06
5.480678e-07 0.0 3.968583e-08 4.3479935e-07 1.1297917e-06 9.4193837e-07 0.0 5.912118e-08
4.5872213e-07 1.9726024e-06 2.2828723e-07 0.0 6.706613e-09 3.300856e-07 1.6332967e-06 5.586239e-07
0.0 3.3211045e-08 3.6634722e-07 2.0325974e-06 2.8036158e-08 2.1051066e-07 0.0 2.0385622e-09
2.9873156e-08 5.596883e-08 1.8339539e-07 0.0 3.9844134e-10 2.748709e-08 3.551251e-08 1.9596519e-07
0.0 4.463665e-09 3.309556e-08 1.4531614e-07 8.712725e-08 0.0 8.698978e-10 2.254832e-08
1.1428602e-07 1.0882499e-07 0.0 8.23093e-09 3.2617084e-08 1.7303043e-07 6.130626e-08 0.0
1.7554264e-10 2.1287223e-08 1.4362709e-07 8.455252e-08 0.0 4.9739612e-09 3.0830737e-08 2.0081087e-07
4.327738e-06 8.69952e-06 0.0 6.439297e-07 3.3013362e-06 5.1282213e-06 8.249468e-06 0.0
5.374132e-07 3.2052512e-06 7.81856e-06 5.1868683e-06 0.0 5.8850225e-07 3.1083457e-06 9.100338e-06
3.896524e-06 0.0 5.555905e-07 2.9033297e-06 1.0563829e-05 2.6216371e-06 0.0 7.7321613e-07
2.709821e-06 1.0699285e-05 2.8586578e-06 0.0 2.2984773e-07 2.5675902e-06 1.0674314e-05 2.6825307e-06
0.0 5.103348e-07 2.4070791e-06 9.339688e-06 1.5805014e-07 4.0613176e-07 0.0 2.8445559e-08
1.2825456e-07 2.1297092e-07 3.4054074e-07 0.0 2.167533e-08 1.2877526e-07 1.5542633e-07 3.9384588e-07
0.0 3.3596457e-08 1.384811e-07 5.3153104e-07 7.152134e-08 0.0 5.6820553e-09 1.0880051e-07
2.0089068e-07 3.3695204e-07 0.0 3.6244383e-08 1.4404954e-07 5.3915744e-07 5.5999173e-08 0.0
1.3808107e-09 9.131095e-08 3.0118557e-07 2.647994e-07 0.0 2.1853749e-08 1.2859469e-07 4.5564312e-07
3.859773e-06 2.8717286e-06 0.0 2.4681495e-07 1.2299305e-06 4.5943652e-06 2.0855932e-06 0.0
1.7166279e-07 1.0879747e-06 3.5741025e-06 2.8466156e-06 0.0 4.0147302e-07 1.5067063e-06 5.8944947e-06
7.153888e-07 0.0 6.7789905e-08 9.564793e-07 2.952131e-06 3.0001945e-06 0.0 6.0851204e-07
1.7457957e-06 5.4197967e-06 1.3074666e-06 0.0 8.6420066e-08 1.0475495e-06 3.0383462e-06 3.162753e-06
0.0 4.2018138e-07 1.7032411e-06 3.6122594e-06 9.1902285e-07 1.8142593e-06 0.0 8.2768956e-08

exp_avg f4 [128]
00000000: 3503 2139 c8bc a238 8fe1 b5b9 f8f2 76b9
00000010: ab2d 043a c434 8139 e5c4 703a 8df2 c239
00000020: 9985 f739 effd 4e38 7fd7 fe39 1eea 44b9
00000030: 8574 e9b7 8236 b439 22dd 9039 fb23 46b7
00000040: 50ba 58b9 d2be 6fb9 8156 02b7 675d 66b8
00000050: e25c b339 0433 6ab9 ff83 03b9 6d8e 84b9
00000060: edff bcb9 d727 b039 f98c 4a37 1ab9 6cba
00000070: dcbf 61b6 6a17 2b39 28e7 2cb9 fa3a ac39
00000080: 5209 1bb8 de0c 82b6 59ea 763a e614 123a
00000090: 1de2 4b37 d1e5 f4b9 df77 70b9 3bdc a538
000000a0: 2e9c 41b9 981d ee3a 1c46 6cba 5042 023a
000000b0: c589 cfb9 182e 35b9 df59 0b3a 06d5 d5b8
000000c0: 2bbd fdb8 3948 f738 45c0 5bb9 9c76 13b9
000000d0: e988 4dba 914a 093a d99e 6db7 e598 f7b6
000000e0: 6fbc 0939 9763 3139 485b a7b9 aa25 3bba
000000f0: 66ff b9b8 d4b4 a2b9 97b4 7a3a 3d38 cd39
00000100: 4718 5d3a eb45 b6b8 4ded 94b8 6a57 5ab6
00000110: 71e2 4eb9 2c78 f838 3663 7d38 47b9 11ba
00000120: ca77 2bb9 ad29 e939 6b82 733a c55e 80b9
00000130: 4182 d237 05a3 56b9 9413 c5b8 536a 8c39
00000140: 01d6 a4b9 f9ab a0b9 623b 9fb9 9018 603a
00000150: dc99 59ba f7d4 98b9 516f 34b9 8b31 2f39
00000160: 9f5c 15b7 0286 0e39 2590 8739 d452 85ba
00000170: 7e25 89b9 3b71 84b9 6c1c bbb8 e750 10b9
00000180: ff26 83b8 e1d5 9e39 0178 3339 ca10 d137
00000190: 6868 603a 108b a8b8 2157 d83a 6802 adb8
000001a0: 419d fbb9 9985 2d3a 3bb1 de39 8b22 1cb9
000001b0: 7f4e e3b9 3c5e e1b8 0862 5db9 0c78 54b8
000001c0: 1124 84b7 2c82 4339 1e62 a0ba b83b d739
000001d0: cf1d 4eb8 626d 1fb9 5d6f 1b37 377f 3e3a
000001e0: aead cb37 6335 e039 872d df39 9991 d1b9
000001f0: c1ed 9239 904d 66b9 fc30 153a 3b87 373a
0.00015355351 7.759925e-05 -0.00034691065 -0.00023550901 0.00050422054 0.0002464411 0.0009184613 0.00037183278
0.0004721105 4.935072e-05 0.00048607212 -0.00018779232 -2.7830023e-05 0.00034372887 0.00027630577 -1.1810097e-05
-0.00020668772 -0.00022863902 -7.768745e-06 -5.492326e-05 0.00034210744 -0.00022334984 -0.00012542306 -0.00025283117
-0.00036048834 0.0003359902 1.2072961e-05 -0.0009030268 -3.363929e-06 0.00016316553 -0.0001648931 0.00032850337
-3.696356e-05 -3.8758e-06 0.0009419076 0.0005572572 1.2152389e-05 -0.00046710533 -0.00022932839 7.908834e-05
-0.00018464096 0.0018166779 -0.00090131327 0.0004968988 -0.00039584763 -0.00017278676 0.0005315821 -0.0001019631
-0.000120992154 0.0001179133 -0.00020957094 -0.00014063198 -0.00078405306 0.00052372465 -1.4163285e-05 -7.378973e-06
0.00013135535 0.00016917136 -0.00031920732 -0.0007139096 -8.869059e-05 -0.00031033775 0.0009563653 0.00039142548
0.00084340986 -8.6914595e-05 -7.101391e-05 -3.2535413e-06 -0.00019730047 0.00011847945 6.0412298e-05 -0.00055589195
-0.00016352456 0.00044472274 0.0009289148 -0.0002448467 2.5094605e-05 -0.0002046936 -9.397339e-05 0.000267821
-0.00031439963 -0.00030645708 -0.00030371087 0.0008548582 -0.000830082 -0.0002915037 -0.00017207606 0.00016707757
-8.902657e-06 0.00013592097 0.00025856603 -0.001017178 -0.0002615861 -0.00025261365 -8.922149e-05 -0.00013763049
-6.25383e-05 0.0003029546 0.00017115475 2.492256e-05 0.00085604796 -8.036767e-05 0.0016505459 -8.249731e-05
-0.00047991614 0.0006619334 0.00042475187 -0.00014890188 -0.00043355298 -0.000107463886 -0.00021112722 -5.065654e-05
-1.5752421e-05 0.00018645142 -0.0012236272 0.0004105249 -4.914199e-05 -0.0001520417 9.264649e-06 0.00072668813
2.4280362e-05 0.00042764386 0.00042567795 -0.00039972065 0.0002802443 -0.00021963404 0.0005691198 0.0007001047
