Assets/results/T2/CarDriver/CarDriver-2999959.onnx (onnx, 188993 bytes, 9 tensors)

discrete_act_size_vector f4 [1, 2]
00000000: 0000 4040 0000 4040
3.0 3.0

network_body._body_endoder.seq_layers.0.weight f4 [128, 225]
00000000: faa8 2cbe e551 b9bc 8f52 103d 808a ad3d
00000010: 2026 013b 92e4 253d 568b 1f3d a10c d73d
00000020: 57cb 0fbe 9ec3 1b3d 5905 89bd 92d6 05be
00000030: bd06 a33d 29e3 a2bc 4f01 6bbc c749 ef3d
00000040: 75ad a73d 4c8d 8abc 5008 dc3c 326b 53be
00000050: 25d9 3cbd 8074 f33d bd1c 62bd b575 9e3d
00000060: 22f5 d73d 0375 1cbc b4dd 223d 1920 c7bd
00000070: b7b5 21be 2e09 a9bc 4594 7bbd 6446 adbc
00000080: 5f26 c23d 90dd 013e 77d9 0d3e 80e3 b93c
00000090: 46e0 b9bc 3f94 103e b7ce a53c ef3e 8c3c
000000a0: 23b3 933c 129d 9dbd 1943 23be d680 513e
000000b0: c3b2 7c3d 1b0c c13c 3217 953c 36e3 393d
000000c0: 0358 003d 2b16 afbd ab83 893d 6e1b 173e
000000d0: 28ba 81bc cbcc 493d 6408 8d3d 9d11 b6bd
000000e0: 5f6e f8bd 326b 163b 7345 913c 0448 05be
000000f0: b54c 6ebd 5ebd ae3d a19c 70bd e4b9 333d
00000100: e855 29be 0a13 b53d 95a0 07be 6417 ff3c
00000110: 2f40 d73d 53eb 24bd fd3b fabd 9870 02be
00000120: 847b 65bd a9f5 9d3d 1a28 08bd b909 2fbd
00000130: a465 94bc c2ba 11be 8570 56bc 5d05 e93d
00000140: 1370 14bc 20dd c7bd 59e2 853c 4e0d 4a3d
00000150: 49b0 e1bd 2932 d13d e831 073e e099 8d3d
00000160: ad8c 343d fce3 44bd 68ad d43c da3d d33c
00000170: 0cd0 47be a589 963d cacb 75bd 4511 2abe
00000180: 78cd 463d 375c 04bd b031 613d fd3a cb3c
00000190: b0e1 28bd 041f ba3d d64d 3dbe 1976 83bd
000001a0: 15b7 7dbd 9672 7fbc 52a8 27be b571 133e
000001b0: a73e 25bd 215a b4bd 35fe e53d 66b7 21be
000001c0: 1392 87bd 5c08 203d 4ea4 ed3d 730f f23d
000001d0: aad5 a13d e11c bb3c 4e1a 31be cfe6 debb
000001e0: ced8 28be 7ffb ab3c dfdd a9bc 4580 63bc
000001f0: 22cd ed3d bd7c b0bd 7ee3 e7bd c6b3 213e
00000200: 5a16 b6bd b6c2 843d 95b4 aebd 2b98 aebd
00000210: 7b64 c4bc 7d62 b0bd 877b 25bd 2f8a 133e
00000220: 2c7e a4bd 71d0 8a3e 4bd2 90bc de1b 53bd
00000230: 8643 b5bd f89a 48bd 8e2f b63d 98eb 853d
00000240: 5f6a f83d caa6 d3bd 2f99 a3be 18e6 10be
00000250: 3a01 3dbe 4b63 2a3e 0fdc 70bd 0c07 bdbd
00000260: 59b0 773e 92e8 6fbd 1c0b efbd 937f f93d
00000270: 3aa7 69bd 31ec e0bc b76b 5ebd 3a3c 09bd
00000280: 1e59 db3d 4e38 8abc 546e 79bd c93e a13d
00000290: fc13 33bd 286f 213e cc24 013e 6cfa 04bd
000002a0: 1b0b a9bd 9303 69bd 213d b43d 0485 9d3c
000002b0: f573 963e 8d4e 43be b016 86be fdc0 d93b
000002c0: 840f 44be ca08 1f3e a235 e43c 8c00 30bd
000002d0: 6fd5 493e ab5f 2fbe 57fd d6bc b4e6 173e
000002e0: ab62 12be 05e3 7d3c 2c8d f73d bb2c b33d
000002f0: 5082 033e c2ba 92be dec8 66bd 7675 403e
00000300: b95a 78bd 5515 823d 5012 fbbd 5380 ed3d
00000310: 2e97 12bd 00c5 febc a31c 643c af16 c73d
00000320: d37c 043e 8e89 2abe e73a 12bd 40d9 d33d
00000330: 9272 cbbd fac5 173e 78d7 ccbd cf22 ab3d
00000340: c877 e83d 5cc3 32be ff1d 2abe f1d5 66bd
00000350: f5d5 b4be 29a9 463e 7afb 133d 1107 89bc
00000360: 2991 8b3d 7874 7dbe 590a 9a3d 0c23 913d
00000370: f8b4 22bd 585b 603d 36dd f93c 3588 543a
00000380: 9b63 013d 5c46 6ebd 6b26 3d3c cd29 6f3b
00000390: eb78 17be 9326 463c 5553 3ebd 87f6 a4bd
000003a0: 5b94 383c a8e4 4cbc abf8 9b3a 2bd6 923d
000003b0: dcca 8cbd c639 dfbd e78c 46bb 489a a73c
000003c0: c569 cbbd af45 63bc de01 43be a5aa 2abe
000003d0: dd58 0abe c261 18ba f6dc edbd 8ddb 3e3e
000003e0: 88be b5bd bf33 06be cffb 1b3e 61b3 953d
000003f0: edaf 40be ba27 e2bc 81c8 c83c b8ba 93bd
-0.16861334 -0.022622058 0.035234984 0.084736824 0.0019706562 0.040501185 0.03895124 0.10500456
-0.14042412 0.038028352 -0.06690473 -0.13070133 0.079602696 -0.019883709 -0.014343574 0.11683994
0.08187381 -0.016913079 0.026859432 -0.2064636 -0.046105523 0.11887455 -0.05520319 0.077372946
0.10544802 -0.009549382 0.039762214 -0.09722919 -0.15791975 -0.02063426 -0.061420698 -0.021151729
0.09479975 0.12682176 0.13852488 0.022691488 -0.02268995 0.14119051 0.02024017 0.017119853
0.018029755 -0.076959744 -0.15943564 0.20459303 0.061693918 0.023565343 0.018199537 0.0453827
0.031333935 -0.0854915 0.06714567 0.14756557 -0.015835837 0.04926757 0.06886366 -0.08890078
-0.121304266 0.0022952077 0.017733311 -0.13015753 -0.058178622 0.08532213 -0.058743123 0.04387845
-0.16536677 0.08841522 -0.13244851 0.031139083 0.10510289 -0.040263485 -0.12218473 -0.12738264
-0.056025997 0.077128716 -0.03324137 -0.04273388 -0.018114872 -0.14231399 -0.01308835 0.11377976
-0.009059924 -0.09758973 0.016343283 0.049329095 -0.11019952 0.102146454 0.13202631 0.06914115
0.04407947 -0.048068985 0.025961593 0.025786329 -0.19512957 0.07350472 -0.0600088 -0.1660815
0.048535794 -0.032314505 0.054979026 0.024808401 -0.041230857 0.09087947 -0.18486723 -0.0641901
-0.06194218 -0.015591284 -0.16372803 0.14398845 -0.040342953 -0.08806253 0.11230127 -0.15792617
-0.06619658 0.039070472 0.11603604 0.11819353 0.07902081 0.022840919 -0.1729519 -0.006802417
-0.16488954 0.020993946 -0.02073568 -0.013885562 0.116113916 -0.08617542 -0.113226876 0.15791234
-0.08890982 0.06482451 -0.08530537 -0.085251175 -0.023973694 -0.08612535 -0.040401008 0.14408182
-0.08031878 0.27112153 -0.0176784 -0.051540248 -0.0885077 -0.048975915 0.08895789 0.065390766
0.12129664 -0.10334547 -0.31952807 -0.14150274 -0.18457499 0.1663944 -0.058803614 -0.0922986
0.24188365 -0.058571406 -0.11672041 0.12182536 -0.057044245 -0.027456375 -0.054301944 -0.033504702
0.10710357 -0.016872551 -0.060896233 0.078733034 -0.04372023 0.15765059 0.12611693 -0.032465383
-0.08254071 -0.056888174 0.08800722 0.019228466 0.29385343 -0.19072933 -0.26189184 0.0066453204
-0.19146544 0.15530697 0.027857605 -0.04296927 0.19710325 -0.17126338 -0.026243849 0.148341
-0.14295451 0.01549602 0.12087473 0.08748766 0.12842679 -0.2865811 -0.056343906 0.18794808
-0.060633395 0.06351725 -0.12259352 0.115967415 -0.035788707 -0.031099796 0.013922843 0.097211234
0.12938242 -0.16654035 -0.035700705 0.103441715 -0.09933962 0.14821616 -0.10002035 0.083562486
0.113509715 -0.17457336 -0.16613005 -0.056356374 -0.35319486 0.19400467 0.0361285 -0.016727002
0.068147965 -0.2475146 0.07521505 0.07086763 -0.039723366 0.054774612 0.03050099 0.00081074546
0.03158913 -0.05817257 0.011544804 0.003649342 -0.1479222 0.012094158 -0.04646619 -0.08054834
0.011265839 -0.012505688 0.001189967 0.071697555 -0.0687463 -0.10899691 -0.0030296387 0.02045931
-0.09932283 -0.013871594 -0.19043681 -0.16666658 -0.13510461 -0.0005812907 -0.116144106 0.1863844
-0.088742316 -0.13105677 0.15232776 0.073096044 -0.1881711 -0.027606834 0.02450967 -0.07213348

network_body._body_endoder.seq_layers.0.bias f4 [128]
00000000: c006 443c 2b65 8abd 1104 2e3c 46e1 3a3d
00000010: 12d7 1e3c c574 1ebc dd9f 123d 4a5b 8d3c
00000020: e6bf 81bc 3613 04bd 664c de3c f33c d7bb
00000030: d4d0 cfbc 171f 49bb 6f70 7c3b 624c d8bc
00000040: 4471 ca3b 1389 2bbd b28d 093d ee42 cc3c
00000050: 2a70 a5bc cfed 49bd 6805 413d cf78 78ba
00000060: 6f1a 0bbc 60f1 b23c d684 dd3c ea27 a7bc
00000070: a6b9 c63c 735d 82bc 19ec a83b f9af 45bd
00000080: 9b95 2abc f567 38bb bab2 243d fc48 f23c
00000090: fd42 173d 37ed 63bc 391a 47bd 1f20 56bc
000000a0: 7133 213d 8abd 303c dab7 ab3c d7f2 bdba
000000b0: fc55 cbbb 1d71 61bc ef72 68bd 338b 09bc
000000c0: 705c 7d3c 9b6a debb e44f 4bba 4891 113d
000000d0: 047a 4ebb b5ba c3bc 4b83 c93b 553f a5bc
000000e0: 5007 5a3d 4eb1 85bd 32c3 01bc 0117 3e3d
000000f0: 1231 fc3c d2b4 1ebd b116 a4bc b2cc 3cba
00000100: bf36 0e3d 8299 9e3c da7b c53c 885a 94ba
00000110: 4df0 75bc 4c78 4e3d b012 abbd 513f 963c
00000120: d347 513d b0e6 d9bb 4aab 213d 53fe 993c
00000130: 7f47 253c f3e4 c9ba 6961 fe3c bbc2 173d
00000140: ca4e 553b a76c 483d b26f 053c dcdb 4d3c
00000150: e9ae 813d 71c7 573d 6f3f 29ba c719 77bd
00000160: 9d4e 83bc 81b6 7cbc f1cb f03c ef99 7dbd
00000170: da74 51bd d544 23bd 70b3 1a3d 8f0e 0d3d
00000180: 96b7 be3c 0187 acbc 9025 c53c 6836 293d
00000190: 1a0c 053c f201 ed3c 575d 573c 84ef b03c
000001a0: 96c1 2d3d 405d 0a3d bc3b d3bc 95a7 ce3a
000001b0: 1a24 dd3a d7ea 123d f2d3 f03b 7552 1c3c
000001c0: 3fe9 453b 4906 c9bc 6b0b 623d c5d7 94bc
000001d0: f7ca 7bbc 7f95 153d 161e a1bc 08e6 773d
000001e0: 2b24 0a3d 4ddf 373c d20a d73b af1c 053d
000001f0: 6d3b 1fbc d932 7d3c 3c5d 1a3b 993f d13c
0.0119645 -0.067575775 0.010621087 0.045624994 0.009694831 -0.009671395 0.03579699 0.017255444
-0.015838575 -0.032244883 0.027136039 -0.006568545 -0.025368132 -0.0030688697 0.0038519164 -0.02640361
0.006178053 -0.04187877 0.033582397 0.024934258 -0.020195086 -0.049299058 0.047124296 -0.0009478451
-0.008490189 0.021843612 0.02704088 -0.020404775 0.024258446 -0.0159137 0.005155098 -0.048263524
-0.010411645 -0.0028138135 0.04020951 0.029575817 0.03692912 -0.013911537 -0.048608992 -0.013069182
0.0393557 0.010787377 0.02096169 -0.0014491928 -0.0062053185 -0.013759878 -0.056750234 -0.008395004
0.015463933 -0.0067876107 -0.000775574 0.03553894 -0.0031505832 -0.02389274 0.0061496845 -0.0201718
0.05322963 -0.06527959 -0.007920073 0.046408657 0.030785117 -0.038746662 -0.020030351 -0.0007202133
0.03472018 0.019360308 0.024106909 -0.0011318484 -0.015010905 0.050407693 -0.08353174 0.018340738
0.051093888 -0.0066498145 0.039469995 0.018798029 0.010087847 -0.0015403315 0.031052308 0.037050944
0.0032548183 0.048931744 0.008144306 0.012564626 0.063321896 0.052680437 -0.0006456291 -0.060327318
-0.016028697 -0.015424372 0.029394122 -0.06191438 -0.05113683 -0.039860565 0.03776878 0.034437712
0.0232809 -0.021060469 0.024065763 0.04131165 0.008120561 0.028931592 0.013144813 0.021598585
0.042420946 0.033780336 -0.02578532 0.0015766496 0.0016871721 0.035868492 0.0073494846 0.009541144
0.003019884 -0.02453913 0.05518667 -0.018169293 -0.015368215 0.036519524 -0.019667666 0.06052211
0.0337259 0.011222673 0.006562569 0.032498058 -0.009718758 0.015454018 0.0023554107 0.025543021

network_body._body_endoder.seq_layers.2.weight f4 [128, 128]
00000000: a7f5 3abe 7bf3 4dbd ebc9 d13d 8674 823e
00000010: 96f3 37bb 40df e1bc 499c 0bbd 4d21 ca3c
00000020: b7d2 513e 3d2e e83c b2d3 753c bc68 84bc
00000030: 610f 30be 55a5 7b3d aba8 aebd 7a60 043e
00000040: d410 423d a223 8fbe 3d34 ebbd 4514 9bbd
00000050: 749c f4bd 2561 cebd 5b8c 133e 14be 3fbe
00000060: 4861 e13c d4bd da3a 9123 303e 5564 fcbd
00000070: 8595 82bd 0808 f7bd b612 e1bd 7568 4ebd
00000080: 48f5 52bd 371c d43d ff9c fabc 2cba 28bd
00000090: 1297 593d 7de7 babd ce7c 49be c967 eb3d
000000a0: fc1c bdbd c57d 3abe b206 05be ace8 6dbd
000000b0: e4a4 2b3d 55e8 823e a8e6 36be 3276 de3d
000000c0: 1235 f23d 1bae fc3d 0ccc 2b3d a304 bd3d
000000d0: 2cf9 853c 8212 84bd 1830 c9bd c1be 12bc
000000e0: 2aba 8abc bbbb 66be 3485 6f3c 8426 c43c
000000f0: 2e13 8f3d f612 55bd a346 d1bd 2e62 3abc
00000100: ad34 d13d cc04 96bc fc15 053e 77a6 06bc
00000110: 1705 d43d afa8 a53d 4782 45be 5b15 73bd
00000120: e598 3c3e d0b9 a73c 4621 b63d a93a c73d
00000130: d8d7 47bd f9f4 afbd f0f5 883b 6be9 1f3e
00000140: 391d 173e 4122 04be f0c2 953d 1ed8 df3c
00000150: a664 763d 49b9 5bbc 6842 8ebd 71ad 6a3d
00000160: f936 e8bd 40d6 3fbe ec29 f23c 030e be3d
00000170: 15e9 f7bd 631c 4cbc 0f7e 85bc 93f7 ea3d
00000180: 6382 d9bc e9a9 823e 9497 9dbc b78d 483e
00000190: c0eb f7bd 7bdb 093e 3df0 b03d f76d acbc
000001a0: d878 643d 6884 8abb ff0c 91bd 2ac4 483e
000001b0: fde8 01be 26e8 483d 4ed6 41be 3121 1d3d
000001c0: ad3b 4b3d bc80 613d d0e1 1cbd 4b60 93be
000001d0: 9b3a 6f3d d1e5 ffbd 5b4b dbbd ed99 ed3d
000001e0: 1d2e 0bbc ef02 dabd c6d9 5cbb 4f6f ce3d
000001f0: cfba 83bc 698a 4ebd 7a54 023d 88e0 69bc
00000200: 55c1 d73d 94a6 9fbd 1c14 133e 2f36 fcbc
00000210: 47e4 44be f2f8 093c d66c 54bb 3e26 093e
00000220: c743 8b3d 8a46 09be 3313 f5bc 1f87 4dbe
00000230: 9716 d03c b54d b2bb 4a78 52be 550e 90bd
00000240: 1707 39be a422 b73d c632 efbd d3a5 af3d
00000250: 5a83 fb3d 3719 5abd 6243 d93d 68ca 173e
00000260: 595a 3a3e fe5e b43d 8c69 1cbe 0aa4 993b
00000270: 73ee 983d 5735 f43d 57f5 0e3d 99a4 33bc
00000280: c366 18be 98e3 8f3c 3796 883c 65ff f8bd
00000290: 747f dcbb 84a0 7bbc a9ed 24bd 4316 30bd
000002a0: ba85 9bbd 93fc f33d 3791 423e 44c5 82be
000002b0: 60ea e23b db1f 913d 82d4 2dbe 7c96 3c3e
000002c0: d030 02be a363 7bbe 3c3e 0dbe 9f49 dc3d
000002d0: ec2c 81bc 36f8 50be 735a febd eb19 07bc
000002e0: eb4a 40be 609c c63d 5525 b6bd 59a7 9a3d
000002f0: ee33 a53d c10d 273e 9ce3 39be fe2f 4cbe
00000300: 02c5 773d e390 033e 8993 fbbd 9f91 2e3c
00000310: d924 bd3d 639c 533e d1c2 4e39 5ba7 fe3d
00000320: b217 023e c217 b63d 9d68 2cbe d576 a5bd
00000330: 1859 8e3e fdb0 7f3e 3714 883d 0c89 5c3d
00000340: c5f2 40be b403 bcbd 468f 08be 1e9c 293c
00000350: d25b 39be 8730 3fbc 521e 32bc 1c9b c7bd
00000360: 81dd 18bd 5ccd 3abe f544 203e cbf2 d33d
00000370: d6cd af3d 374c 2fbe 73d5 923d 740a a2bd
00000380: 188c 67be 7801 023e bee7 3f3e cb13 7fbe
00000390: 5390 51be 8829 113e 3cdc 8e3b df47 72be
000003a0: 5e7b 043e a1d4 4f3e 2681 833d 833e 9b3d
000003b0: a642 18be af10 5cbd 2ab2 8dbc 57e0 62be
000003c0: 71c7 333e 086b ccbd 2b30 8cbd b31b f5bd
000003d0: 3518 c9bd dd79 afbd 8834 153e cdbf 3abd
000003e0: 7096 8dbe b5ac f5bd 393b 52bd eae8 99bd
000003f0: a6fb f0bd 7653 8a3b 3da8 ea3d fb27 473e
-0.18257771 -0.05028103 0.10243591 0.25479525 -0.0028068773 -0.027572274 -0.034084592 0.024674082
0.20490538 0.02834236 0.015004085 -0.016163222 -0.17193367 0.06143697 -0.085282646 0.12927428
0.04737933 -0.27956873 -0.11484573 -0.075722255 -0.119439036 -0.100771226 0.1440901 -0.18724853
0.027512208 0.0016688653 0.17201068 -0.12323824 -0.06376175 -0.12062079 -0.10989897 -0.050392587
-0.05150345 0.10356944 -0.03059244 -0.041193172 0.053122588 -0.09126184 -0.19676515 0.11494405
-0.09234044 -0.1821204 -0.12990835 -0.05808322 0.0419053 0.2556788 -0.17861426 0.10862388
0.118265286 0.123378955 0.04194264 0.092294 0.016354166 -0.064488426 -0.09823626 -0.008956612
-0.016934473 -0.22532551 0.01461916 0.023944147 0.0698608 -0.052020036 -0.10218551 -0.011375947
0.10215125 -0.018312834 0.12996668 -0.008218399 0.10352533 0.080888145 -0.19287978 -0.059346538
0.184177 0.020474344 0.08893065 0.097279854 -0.04878983 -0.08591647 0.0041797087 0.15616386
0.14757241 -0.12903692 0.07312572 0.027324732 0.06015458 -0.013410875 -0.0694626 0.057294313
-0.1133861 -0.18734074 0.029561006 0.09280016 -0.12105004 -0.01245794 -0.016295461 0.11473002
-0.026551431 0.25520256 -0.019237317 0.1958531 -0.121055126 0.13462631 0.08639572 -0.02104853
0.055779308 -0.00422721 -0.07082557 0.1960608 -0.12686534 0.04904952 -0.18929407 0.038361732
0.049617458 0.05505441 -0.03830129 -0.28784403 0.0584055 -0.12495006 -0.10707732 0.11601625
-0.008494881 -0.10645091 -0.003369914 0.10079824 -0.016080288 -0.050424967 0.031818844 -0.014274724
0.10534922 -0.07795444 0.1436314 -0.030787556 -0.19227706 0.00842117 -0.0032413504 0.13393494
0.06800037 -0.13405815 -0.029916381 -0.20071076 0.025401397 -0.0054413923 -0.20553699 -0.070339836
-0.18069111 0.08942154 -0.11679606 0.0857655 0.12280913 -0.053246703 0.106085554 0.14823306
0.18198527 0.08807181 -0.15274638 0.0046887444 0.074673556 0.11924236 0.034901943 -0.010964536
-0.1488295 0.01756458 0.01667319 -0.12158088 -0.006729061 -0.015358094 -0.040265713 -0.04298998
-0.07593866 0.11913409 0.19000708 -0.25541127 0.0069249123 0.07086154 -0.16975597 0.1841678
-0.12713933 -0.24549727 -0.13793272 0.107562296 -0.01576849 -0.20407185 -0.124195956 -0.008245925
-0.18778579 0.09697795 -0.08893839 0.0755145 0.080665454 0.1631384 -0.18153232 -0.19940183
0.060490616 0.12848239 -0.122839995 0.010654836 0.09235544 0.20665126 0.00019718266 0.12434264
0.12704352 0.0889125 -0.16836782 -0.08079306 0.27802348 0.2496986 0.06644481 0.053841636
-0.18842609 -0.09180394 -0.13335904 0.010352163 -0.18101433 -0.011669285 -0.010871487 -0.09746382
-0.037320618 -0.18242401 0.15651305 0.103490435 0.08584182 -0.17118917 0.071696185 -0.0791215
-0.22612035 0.12695873 0.18740746 -0.24909894 -0.20465212 0.14175999 0.00435975 -0.23660229
0.12937686 0.20295955 0.064211175 0.075802825 -0.14869174 -0.05372685 -0.01729687 -0.22155891
0.1755655 -0.09981352 -0.06845125 -0.11968174 -0.0981907 -0.085681655 0.1457082 -0.04559307
-0.27653837 -0.11995832 -0.05132601 -0.07515128 -0.11766748 0.004221375 0.1145787 0.19448845

network_body._body_endoder.seq_layers.2.bias f4 [128]
00000000: 3911 da3c b730 6e3d 479a 8ebd bb9c a43c
00000010: 2216 bfbc e366 8a3c 76cd 44bd 171d 6ebd
00000020: 9e14 9f3d 3bf3 873d 957d d3ba 5df6 453d
00000030: 3929 d5bb a531 fc3c 8dce 1dbd c2d3 2cbc
00000040: 3b69 d93c 2612 393c 891c 44bd 7fbf 773d
00000050: 6b87 c9bd eede 303d f87c 953c a35c 25bd
00000060: deac 473d a469 1ebd fc5f 823d 1163 06bb
00000070: 72ed f0bc 2c99 05bd ff40 97bd b170 dcbc
00000080: bc3b 5c3d d2c2 dc3a 3b51 d5bc b196 773c
00000090: b293 07bd 39ba 13bd 4161 d33c a7f8 8a3c
000000a0: 1596 c53c 00a8 b53c 92d1 08bd 4364 823d
000000b0: 4fad 0bbd 70c0 263d 253d a0bd f498 5ebd
000000c0: 4e46 153d 087a 133d cc08 30bd eb82 063b
000000d0: 895a 213d 7f6c 6e3d 59f3 7e3b 77fa e43c
000000e0: 1576 13bd 9c9f a33c 098d 173d 0be0 b0bc
000000f0: e601 703d daee 9c3c 34a6 74bd e915 953d
00000100: 2dff 3a3d 9133 9c3d 7fb0 6cbd e455 183c
00000110: 2567 d23d a39c 8cbd 8af0 a0bd 0521 6d3d
00000120: 333a a0bc b829 313d 00b2 c83c 72a3 40bd
00000130: 2752 70bd 4c1c 2a3d a216 86bd d44c 4a3d
00000140: de42 49bc f0b1 81bd 465a 88bd 4f71 a7bd
00000150: 7591 6cbd c50b 2dbd 74fd 803d f6b3 0e3c
00000160: 4b84 82bc 8c58 683d 17af 763d 425c 173c
00000170: 705d aabc 76e6 ff3b a952 ae3c 906f c3bc
00000180: 2229 d2bc df00 54bd 377a b0bc ba75 853b
00000190: 1e63 66bd e8ee 113d dc49 8c3c 8e1c 653d
000001a0: 931f c5bc ccf0 743c f5db 34bd 4a8e 3dbd
000001b0: f3da 943c 1fd7 9dbd 3574 e7bc 14f9 33bd
000001c0: 797c 633d ba01 47bc 0099 143d af78 2bbd
000001d0: 4ee9 f73c 9442 b3bd 71bf bd3b 69f2 0e3c
000001e0: 6161 9fb9 e22f a43d 2ad1 80bd c12f 843d
000001f0: e9e0 dc3c 8e33 81bd 14f3 1a3c a4b3 b83c
0.02661954 0.058151927 -0.0696302 0.020094266 -0.023325983 0.016894763 -0.048047505 -0.05813321
0.07767604 0.066381894 -0.0016135449 0.048330653 -0.0065051583 0.030785391 -0.03852706 -0.010548534
0.026539436 0.011295831 -0.047878776 0.06048536 -0.09840282 0.043181352 0.018248066 -0.04037155
0.048748843 -0.038674966 0.06365964 -0.0020505826 -0.029410098 -0.03261678 -0.07385444 -0.026909204
0.053767905 0.0016842729 -0.02603971 0.015111611 -0.033099838 -0.036066268 0.02580321 0.01696427
0.024119416 0.022174835 -0.033402987 0.0636678 -0.034100827 0.040710866 -0.078241624 -0.054345086
0.036444 0.03600505 -0.04297714 0.002052481 0.03939298 0.05820894 0.003890237 0.027951462
-0.036001284 0.019973569 0.036999736 -0.021591207 0.05859556 0.019156862 -0.059728816 0.0727957
0.04565351 0.07627023 -0.057785507 0.009297822 0.102735795 -0.068658136 -0.07858379 0.057892818
-0.019559002 0.043252677 0.02449894 -0.047030874 -0.058672097 0.041530892 -0.065472856 0.049389675
-0.012284009 -0.06332767 -0.06657843 -0.08175909 -0.057755906 -0.042247552 0.06298342 0.008709898
-0.015932223 0.05672507 0.060225572 0.009238305 -0.020796508 0.0078094555 0.02127965 -0.023856908
-0.02565438 -0.051758643 -0.021542652 0.004072872 -0.05624687 0.03562823 0.017125063 0.055935435
-0.024062907 0.014949989 -0.04415508 -0.046278276 0.01817081 -0.07707047 -0.028253654 -0.04393871
0.05553863 -0.012146408 0.036278725 -0.04186314 0.030262616 -0.08752933 0.005790644 0.008724787
-0.00030399396 0.080169454 -0.06289895 0.06454421 0.026962714 -0.063086614 0.009457368 0.022546597

action_model._discrete_distribution.branches.0.weight f4 [3, 128]
00000000: 57d7 4a3c 6c48 babc fe52 993d 492c 52bd
00000010: e2c3 1a3c ddf3 b23c 6145 a13d 88c4 023d
00000020: eeac aebd c772 95bd b3f3 69bc 1558 babd
00000030: ba58 ec3d c6ac e83c 0566 b43d b75d 67bd
00000040: b825 35bd f1cb d4bc a04e b93d 9f69 69bd
00000050: 94ef d53d 9af2 51bd 89a0 5f3b fbb3 b33d
00000060: 0f08 afbd 7ba3 d73d ca8e 5bbd d06e 153e
00000070: bd19 383d 9aa1 a43d 38f7 633d f5f5 b83d
00000080: 4dee a1bb fbbb 26bc 4908 b03d 54aa 76bc
00000090: 91b7 b93d 60c8 d9bc fa73 823c a533 a0bb
000000a0: 20c8 b63c 14f1 60bc c09b 51bc 8d6e 59bd
000000b0: 09d7 003d 3030 62bd a1ff ad3d 4c49 d03d
000000c0: 1744 dcbc 50e1 3dbd f1a5 533d 5038 86bd
000000d0: 3495 36bd ffd1 57bd 0f80 173d a593 6bbd
000000e0: 7c7d ad3d 7afc a3bc 3212 02bd 295c 953d
000000f0: af21 10bd 83d4 4f3d bc8d ee3d 49db aabc
00000100: 177e 7cbd fcef 01bd b861 553d e7c1 04bd
00000110: 212a afbd 46cb ab3d 5035 b13d 9d37 81bd
00000120: 839b 02bd 8ed6 ad3c 7711 273d 6355 cf3c
00000130: 8965 a83d 4ac0 6a3d 0ec0 b13d d6c2 68bd
00000140: 0930 a03c ab8b be3d a23f 053e 3163 a53d
00000150: e625 973b 2685 7c3d 46d4 b3bd 5e84 2c3d
00000160: 4a4e 843d 6a35 cabc 7e33 9fbd 7199 b03c
00000170: 4ffd 503d 871f 39bd 5299 ba3c 0a15 6fbc
00000180: ed42 fc3d 41e0 b63d 2352 3b3d e7ce aebd
00000190: af4f 763d 69a4 d2bc 7361 393a 46aa 2ebd
000001a0: a5b1 563a 2f28 c93c f0d2 3f3d a977 3a3c
000001b0: 260f c23b 78c5 043e 72ea 643c 7778 ca3d
000001c0: b5d8 48bd bb71 df3d 2a90 183b 1be9 38bd
000001d0: 1e3b 37bd e321 433c e5a0 23bc fa38 003b
000001e0: 618c b6bc 7348 d8bd d441 2f3c 55d9 46bd
000001f0: f2d8 e9bc 664d 0a3e 6a9e e7bc 969f 87bc
00000200: d134 533d 31bd 833d d4f1 09be a6f1 873d
00000210: f54f c03b 8479 b23c 8992 bcbd 5b76 c3bd
00000220: 8b23 6d3d 3621 233d 82f5 8f3c 3143 1b3d
00000230: 76c3 c1bd d069 363d 5366 b5bd 95b1 853c
00000240: f5d9 bd3d 0dac 22bd 0ee5 b6bd 0f51 833d
00000250: 155b aabd 2241 b3bb bbaa 0a3d c3e6 07be
00000260: 6650 203d 4e57 00be 2ad4 b33d cc6a 28be
00000270: 8f8d 103c 25e3 04be 1632 afbd c1d5 e5bd
00000280: 09db 8e3d f1cc 9e3b f37b adbc 239d 883d
00000290: ad21 f3bd 2339 66bc b340 bf3c 3f5d 873d
000002a0: 23a5 3a3d 981f 853a f90d 083c a0d9 a23d
000002b0: f0d6 173d 4a35 913d a105 f4bd 460b febd
000002c0: b8bd 9a3a d9ee 25bc 9c53 a2bd 94e9 89bc
000002d0: c7e9 983d f492 313d 0149 bd3c 8484 c83d
000002e0: 5bce e1bd aeeb f53c 4faf ff3a 0acb 81bd
000002f0: ca2b 7a3d 6fd4 1b3c b81a 0fbe 10b5 013d
00000300: 3478 a63d ca9b 923d 619e e4bd 5d50 593b
00000310: 0636 a53d 0bbf ecbd c2da b7bd 5e30 3d3d
00000320: 2ed0 213c 1de5 053d 07ec 273d 6fb3 5bbd
00000330: 8d52 debd 6eb2 6fbd 02ba f4bd 73f9 153d
00000340: f46b ccb9 3949 e1bd 621b f3bd f9bc b0bd
00000350: 2506 05bd c4d3 febd fa20 8d3d 2dcd 453c
00000360: 162d 98bd 8839 b23d c16b 3e3d 95a1 103d
00000370: 24bb b8bd d309 183c 287a 5e3d 8ad4 b03a
00000380: 3818 0abe 5cc6 aebd ca5e 35bd 7822 663d
00000390: 0d6d e2bd 51aa 903d 8ef1 2a3d ff6f 073d
000003a0: f6c3 873c d697 ef3b 9b41 34bd 8d5e a1bd
000003b0: 6a30 0b3d 0d30 91bd 8eaa a0bd 326a 8fbd
000003c0: cd93 763d bfae f9bd 00ff e33c f1da 49bc
000003d0: 2f83 a43d ab42 78bd c7ad 513d 219a 513d
000003e0: c363 593c 4e6d 003e 5d5c 94bd a198 8e3d
000003f0: 149e 633d 1791 d5bd b72c 133d d9e0 243d
0.012380443 -0.022739612 0.07486533 -0.051311765 0.009446116 0.021844799 0.07874561 0.031925708
-0.085290775 -0.07297283 -0.014279294 -0.090988316 0.11540361 0.028402697 0.08808521 -0.056485858
-0.044225425 -0.025976153 0.090482 -0.056985494 0.104460865 -0.051256754 0.0034122786 0.08774563
-0.08546459 0.10529228 -0.05360297 0.14593053 0.04494642 0.080386356 0.055655688 0.090312876
-0.0049417377 -0.010176654 0.0859533 -0.015055258 0.09068216 -0.026584804 0.015924443 -0.004888969
0.022312224 -0.0137293525 -0.012793481 -0.053083945 0.031455074 -0.055221736 0.08496023 0.1017023
-0.026887937 -0.046357453 0.051671926 -0.065537095 -0.044575885 -0.052690502 0.03698736 -0.05751385
0.084712 -0.020017851 -0.031755634 0.07292969 -0.035188373 0.050739776 0.116481274 -0.020856516
-0.061643686 -0.031723008 0.052095145 -0.032411482 -0.08552957 0.08388381 0.08652747 -0.063094355
-0.03188659 0.021220472 0.04078814 0.02530927 0.08222491 0.057312287 0.0867921 -0.056826435
0.019554155 0.09303983 0.13012555 0.0807556 0.004612672 0.061650418 -0.08780722 0.042118423
0.06460245 -0.024683673 -0.07773493 0.021557542 0.051022824 -0.045196082 0.022778187 -0.014592418
0.123174526 0.08929492 0.04573263 -0.08535557 0.060134586 -0.025713162 0.0007071711 -0.042642854
0.0008189923 0.024555294 0.046832025 0.011381068 0.005922216 0.12965953 0.013971912 0.09886258
-0.049034793 0.10910364 0.0023279288 -0.04514418 -0.044734113 0.011909935 -0.009987091 0.001956521
-0.022283735 -0.105606936 0.010696847 -0.048547108 -0.02854583 0.13506088 -0.02827378 -0.016555589
0.05156404 0.0643257 -0.13471156 0.06637888 0.0058689066 0.021786459 -0.09207637 -0.09544059
0.057895225 0.039826594 0.017573122 0.037905876 -0.09461109 0.044534504 -0.088574074 0.01632003
0.09270088 -0.03971486 -0.089304075 0.06411945 -0.08318154 -0.005470411 0.033854228 -0.13271622
0.039139174 -0.12533304 0.087807015 -0.1644699 0.008822813 -0.12977274 -0.08554475 -0.11222411
0.069753714 0.0048462083 -0.021177268 0.066705965 -0.118716575 -0.014051708 0.02334628 0.06609582
0.045567643 0.001015651 0.008304113 0.07951665 0.037070215 0.07090242 -0.11915136 -0.12404494
0.0011805808 -0.0101277465 -0.079261035 -0.016835012 0.074664645 0.043353036 0.0231061 0.097909
-0.11025687 0.030019607 0.0019507202 -0.06337555 0.061076917 0.009511097 -0.13975036 0.031666815
0.08128396 0.07158621 -0.11163021 0.0033159473 0.08066945 -0.11559876 -0.089772716 0.046188705
0.009876294 0.032689203 0.040996578 -0.053637918 -0.10855589 -0.058519773 -0.11949541 0.036614846
-0.00038990343 -0.11000294 -0.11870457 -0.08629794 -0.032476563 -0.12442735 0.068910554 0.0120728435
-0.074304745 0.087023795 0.04648948 0.035310347 -0.09020069 0.009279686 0.054315716 0.0013491076
-0.13485801 -0.08533928 -0.04427985 0.056185216 -0.11055956 0.07063735 0.04173427 0.033065792
0.016572934 0.0073118014 -0.04400788 -0.07879362 0.033981718 -0.07089243 -0.07845031 -0.07002677
0.060199548 -0.12191533 0.027831554 -0.012320266 0.08032834 -0.060610455 0.051191118 0.05117238
0.013268414 0.12541696 -0.072441794 0.069627054 0.055570677 -0.10428064 0.035931315 0.040253494

action_model._discrete_distribution.branches.0.bias f4 [3]
00000000: 5229 c8bd 9a6a f63d ed7a 75bd
-0.09773506 0.120320514 -0.059931684

action_model._discrete_distribution.branches.1.weight f4 [3, 128]
00000000: b1c4 0cba 03da a63c b500 c0bc 5060 babc
00000010: b8fc efbd 856e f1bb f01d 9bbc ace6 14bd
00000020: 55f1 ba3d 9f44 80bb 285d a2bd 17ca 273d
00000030: 2d0e 083d dc11 e5bd 1d0b 92bc 210e fa3c
00000040: 8009 62bc 920a e93d 7e0d 49bd 3e46 dc3d
00000050: d59e ebbc e43b 32bc f883 9f3c da1e c8bc
00000060: 3b9d 633d 36ad 23bc 3263 ddbc 9d4f f8bc
00000070: d954 0a3d 9e20 84bc 9a4d 5ebd 3ecf 87ba
00000080: c9a6 8abb 6c0c 24bc 5e2b 3ebd ea3b 003d
00000090: 7564 71bc 8c71 90bd 00ca 6dbd 08a7 7b3c
000000a0: 9915 7fbd d2bb c53d 534b b9bc 9a9a 073d
000000b0: 3cfd 4a3c 4057 f63c bf92 bbbc a936 32bd
000000c0: 3a15 ff3d 01e2 033e 50e2 f5bb 0977 c03d
000000d0: 5478 90bd 1983 52bc 5fcc 95bd 2731 11bd
000000e0: 4a3c babc b549 ef3c 3fd5 a83d 0215 f5bd
000000f0: f674 fe3c 97f2 05be 8194 0fbd aa0e c3ba
00000100: 117a 1cbd 01f6 af3b 1349 29bd 72f1 d4bd
00000110: 3802 b63d 8ef1 2fbc 2a2a 45bd b0e1 f53d
00000120: 9cc8 cbbd a4eb a8bd 0808 68bc 6936 a2bd
00000130: c765 07bd 3cb1 8d3c 3808 07be f1a7 59bb
00000140: c201 b7bd b800 7abd f983 7fbd d974 9bbc
00000150: b4d6 0b3d 28e5 49bd 5955 7c3d fc96 e1bd
00000160: eaf1 133d b9ab d23c 1ba7 0a3d 7cea f3bd
00000170: c219 3c3c 6b69 c03d 7227 2ebd 9145 e3bd
00000180: 5fbe debc 0f60 26bd 4346 e6bd eb2d e7bd
00000190: 93bd 16bd b37e a83d dcb6 1d3d fffe ff3b
000001a0: 6a1c ce3a f5d6 953a 2a6b 59bd eb74 43bd
000001b0: 099a bfbd 2cff 223c dfc4 f6bb f0e2 72bd
000001c0: 9eb3 d13c 227e fcbc ae61 c4bd b5aa 6cbd
000001d0: 21a4 443c 4605 90bd bf0b ad3d eef9 4b3d
000001e0: a0e2 17be 9465 883b 1afe 06bd 0616 9e3d
000001f0: 4ee1 36bd cdde 09bd 70b5 d3bd 51bb b6bd
00000200: 9150 3d3d 7979 21be 0a68 5b3c 41cb 09be
00000210: 767d db3d 99c1 4b3d 6a7d 843c b258 1d3d
00000220: 1a7c ae3c 452a 423d e39f 88bb 33c0 47bd
00000230: 36d4 803d 2faa d53d c360 70bc 07cd 2fbd
00000240: f662 7ebc 4158 063d 2719 023d 9912 62bd
00000250: d7f2 4abc fb56 2f3d dc10 e4bd 0ef9 e5bc
00000260: dea4 89bd 09b0 383c b873 873d 7cbd 1c3b
00000270: c14f 3ebd c68b 83ba 7f2a 84bc 4957 0ebd
00000280: a451 583d ef74 16bc 8a74 0e3d 713f d3bb
00000290: 0f48 a13b 786a 043d 9bd8 de3d 2fd6 d93c
000002a0: de7e 56bd cd3a aabc e7df 253c a2df a83b
000002b0: d788 b0bd d845 1c3c c7ae 9d3b 9138 9e3c
000002c0: e8fc fabc a9ea de3b 0396 c33c d22b fcbd
000002d0: f2f2 e73c 30df 933d b180 443d 6502 8abd
000002e0: 7d94 b23c 778c 523d b0a0 3fbd ad0d 813b
000002f0: cb34 08be 57f9 223d 5203 f3bc 8db0 693d
00000300: b743 77bd 578f 9b3d db0f 2dbc 2e90 f83d
00000310: 9313 533d b806 2039 57e6 483d ed28 97bc
00000320: 78b2 a93d e9d5 de3d b679 4d3d f014 d83c
00000330: cd7c 62bc 2e82 543d 20f0 26bc 67cf 3c3c
00000340: 5d08 d6bb 74c5 0ebc c2ee d13c 496e 6bbc
00000350: b217 99bd c656 493c 4cfb b63c ba65 353d
00000360: 3afb 2d3c f9f6 2abe 1c8d 023d 0695 2f3d
00000370: 39d0 0fbd f5cd b33c 7cbc e03c ce7d e93d
00000380: b087 8a3c 4b5c 09bc 6a1d 0c3e 667a c0bb
00000390: a6bf f1bc 81e7 82bc c79e 25bc e63c 453d
000003a0: f0b3 f1bd 221a 5a3a c753 973b 62fe a5bb
000003b0: dd6c 583d 6d06 30bc d150 3fbb 8c39 873d
000003c0: 56e7 953d 93b2 ad3c 4e29 f33d 0b29 3d3d
000003d0: 53cd 39bd 63ca c73c a3c2 6abd 23a0 a5bd
000003e0: 211e 1a3e 0c48 c1bd 2181 bdbc dcc7 3fbc
000003f0: 5331 573d cb41 253b d8d5 1f3d 8b93 d03d
-0.00053698855 0.020367628 -0.023437837 -0.022751004 -0.11718124 -0.0073679113 -0.018935174 -0.0363528
0.09128062 -0.0039144303 -0.079279244 0.040964212 0.033216644 -0.11185047 -0.017827565 0.030524315
-0.01379621 0.11378969 -0.049085133 0.10755585 -0.02876226 -0.010878537 0.019472107 -0.024428774
0.05556987 -0.009990027 -0.02702484 -0.0303114 0.033772323 -0.016128834 -0.054273225 -0.0010361446
-0.004231308 -0.010012727 -0.046428077 0.03130714 -0.0147334235 -0.07052907 -0.05805397 0.015359648
-0.062276457 0.096549645 -0.022618925 0.033106424 0.012389477 0.0300709 -0.022897122 -0.04350916
0.124552205 0.12879182 -0.007503785 0.09397704 -0.07054201 -0.012848639 -0.07314371 -0.035447266
-0.022733826 0.029209951 0.082437985 -0.119668975 0.03106163 -0.13080822 -0.035053734 -0.001488169
-0.03820235 0.005369902 -0.041329455 -0.103976145 0.08887142 -0.0107387435 -0.048135914 0.12005937
-0.099503726 -0.0824807 -0.014162071 -0.07920534 -0.033056047 0.017296426 -0.13186729 -0.0033211673
-0.08935882 -0.06103584 -0.06238172 -0.018976616 0.034140304 -0.049290806 0.06160483 -0.11015126
0.03611938 0.02571665 0.03385077 -0.11909959 0.0114807505 0.09395107 -0.042518087 -0.11097253
-0.027190385 -0.040618952 -0.1124387 -0.11288055 -0.036801886 0.08227291 0.038504466 0.0078123803
0.0015725021 0.001143186 -0.053080715 -0.047718924 -0.09355552 0.009948533 -0.007530793 -0.059298456
0.025598343 -0.030821864 -0.095889434 -0.057779986 0.012002022 -0.07032256 0.08449506 0.0497989
-0.14832544 0.0041624997 -0.032957174 0.077190444 -0.04464846 -0.033659745 -0.10337341 -0.089224465
0.046219412 -0.15768994 0.013391504 -0.13456441 0.10717289 0.049745176 0.016173083 0.038414665
0.02129941 0.047403593 -0.0041694506 -0.04876728 0.06290476 0.104328506 -0.014671507 -0.04292014
-0.015526524 0.03279901 0.03176227 -0.055193517 -0.012386999 0.04280756 -0.11136028 -0.02807286
-0.06720899 0.011272439 0.066138685 0.0023916652 -0.046462778 -0.0010036163 -0.016133545 -0.03475121
0.052812234 -0.009183153 0.03477911 -0.006446772 0.00492192 0.0323281 0.10881158 0.026591389
-0.052367084 -0.020779992 0.010124183 0.0051536122 -0.0861985 0.009538136 0.004812095 0.019314082
-0.030638173 0.006802876 0.023875242 -0.123130456 0.028314088 0.07220304 0.047974292 -0.06738738
0.02179932 0.05140349 -0.046784103 0.003938398 -0.13301389 0.03978857 -0.02966467 0.057053138
-0.060367312 0.07595699 -0.010562862 0.12136875 0.05153234 0.00015261292 0.049047794 -0.018452132
0.08285993 0.10880644 0.0501649 0.026377171 -0.0138237 0.05188196 -0.010189086 0.011524058
-0.0065317587 -0.008714069 0.025626544 -0.014369556 -0.07475223 0.012288755 0.022336625 0.044286467
0.010618979 -0.16695775 0.031872854 0.04286673 -0.035110686 0.021948794 0.027433626 0.114009485
0.016910404 -0.008383821 0.13683096 -0.005873966 -0.02951033 -0.01597953 -0.010108656 0.04815378
-0.118018985 0.0008319934 0.0046181413 -0.005065725 0.052838195 -0.0107437195 -0.0029192457 0.06602773
0.073195145 0.021203315 0.118731126 0.04618172 -0.045361828 0.024388498 -0.057314526 -0.08087184
0.15050556 -0.0943757 -0.023132863 -0.011705365 0.052537274 0.0025216218 0.039022297 0.101843916

action_model._discrete_distribution.branches.1.bias f4 [3]
00000000: d3bc cd3c fbed 233c 5742 c6bc
0.025114452 0.010005469 -0.024201555
