Assets/results/T2/CarDriver/CarDriver-3016171.onnx (onnx, 92223 bytes, 9 tensors)

discrete_act_size_vector f4 [1, 2]
000000 00 00 40 40 00 00 40 40
       3.0 3.0

network_body._body_endoder.seq_layers.0.weight f4 [128, 36]
000000 c3 f2 4e be 6b e4 4f bd e8 5c f9 bd a3 ff a0 3e
       -0.20209794 -0.050754946 -0.121759236 0.31445035
000010 14 95 8b bb 33 8e 47 be 15 a0 8f 3b a6 d1 47 be
       -0.004259715 -0.19487838 0.004383097 -0.19513568
000020 b8 60 a7 be 8c 1f a4 be 49 9e 8d bd a1 a5 c8 3d
       -0.32690978 -0.32055318 -0.06914956 0.09797216
000030 86 b7 e8 3e 0d b1 b0 bb 3b 51 f6 be 3a 2e 3e bd
       0.45452517 -0.0053922 -0.4810885 -0.046430804
000040 93 c0 07 be dc cf 79 3e b2 97 67 be f7 9e a8 bd
       -0.13257055 0.24395698 -0.22616461 -0.08233445
000050 0a ef 35 3d 6d 9c 9a 3e 7c 3d ec 3d 74 a5 1b 3d
       0.04441742 0.30197468 0.11535165 0.037999585
000060 b2 18 95 3e 5d 78 1a 3e ba e5 32 3d 98 68 1e be
       0.29120404 0.15084977 0.043676116 -0.15469587
000070 c9 34 84 be 3c 25 fe be b3 f6 25 3e e6 2a 4f bd
       -0.25821522 -0.49637783 0.1620739 -0.05057802
000080 f2 7b c1 3e 35 5f c7 3d fc 86 e7 3e 1d 55 f3 3d
       0.37789875 0.09734956 0.45220172 0.118814684
000090 a2 f6 58 be 86 4c 35 3e 4b 6c 80 be a6 43 ed bd
       -0.21187833 0.17704973 -0.2508262 -0.115851685
0000a0 70 46 73 3d 4c 70 e6 3d 67 da 4a bd 0a 42 6c be
       0.059393346 0.11251888 -0.04952469 -0.23072067
0000b0 90 a7 6e 3d ca f7 77 3e 35 16 90 3d 51 76 6d 3e
       0.05826527 0.24215618 0.07035486 0.23189665
0000c0 50 fe e9 bd 0c 87 9f 3c 2d 76 0e be af 3f 07 be
       -0.114254594 0.019473575 -0.13912268 -0.13207887
0000d0 8e 88 aa 3d 12 85 57 be cb 94 f7 bd 4d 68 8e 3e
       0.08326827 -0.21046856 -0.12088927 0.2781395
0000e0 75 8b f7 3c 11 dc 0a be a8 00 0d bb 72 0d 2a be
       0.030217865 -0.13560511 -0.0021515284 -0.16606691
0000f0 b0 f2 8d 3c a9 81 21 be 20 5b d2 3e ba f0 fe be
       0.017327636 -0.15772118 0.41085148 -0.49793035
000100 df f6 93 3c 54 db 44 3f b7 e2 b2 bd af c9 da 3d
       0.018062053 0.7689717 -0.08734649 0.10682999
000110 b6 1c 94 be 3f 84 38 bd 13 50 58 be 0c 75 63 3e
       -0.28928155 -0.045047995 -0.21124296 0.22212619
000120 a9 57 9d 3d 3a da 19 bb bf a1 36 3e 53 83 9f 3e
       0.076827355 -0.002347602 0.17835139 0.3115488
000130 ff b6 af bd 4d c2 0d be ad f5 4e 3e 50 57 49 bd
       -0.085798256 -0.13843651 0.20210905 -0.049155533
000140 fc 30 c1 3c 06 24 f0 bc eb ff b2 3e b8 af 90 3e
       0.023582928 -0.029314052 0.34960875 0.28259063
000150 1a fc b7 bd 02 ca 8c be 43 34 40 3e 2f 87 08 bc
       -0.089836314 -0.2749787 0.18769936 -0.0083330115
000160 bc 42 60 3e a7 69 6c be e7 2f ad be ee 31 df 3e
       0.21900457 -0.23087178 -0.3382561 0.4359278
000170 10 5a 80 3e 2d 23 e3 bd ba 73 2e be a3 2d 46 3b
       0.25068712 -0.110906936 -0.17036334 0.0030239604
000180 d6 18 df be d5 5d 7e 3e f2 69 5d be 54 59 a2 bd
       -0.43573636 0.24840482 -0.21622446 -0.07927194
000190 09 ec ee bd cb 1b 11 3f cc ac 97 be ec 29 a8 3d
       -0.11666114 0.56683034 -0.2962402 0.08211121
0001a0 08 89 4e 3e b1 56 35 3d d8 52 d3 be 25 40 df 3d
       0.20169461 0.04427213 -0.41274142 0.109009065
0001b0 a4 37 02 be 00 51 4e be 90 ed 52 bd c9 30 88 3d
       -0.12716538 -0.20148087 -0.05149609 0.0664993
0001c0 cf 65 07 bd 6c 7c 83 bb 97 ef 11 3e 1a ce e6 3d
       -0.033056077 -0.004012635 0.14251553 0.112697795
0001d0 10 bb 93 3d 9d 63 e2 3e 2e 4f 2a 3d b4 7c e6 3d
       0.07213414 0.44216624 0.041579418 0.11254254
0001e0 52 a5 5d 3d 88 77 83 bd 94 e4 77 3e 7c 9e b4 3b
       0.05411274 -0.06419283 0.2420829 0.005512057
0001f0 44 cd 36 bd 7b 43 62 3e 0e 9f 28 3d 9a d3 9b 3e
       -0.04462935 0.22096054 0.04116731 0.30434877
000200 06 f8 18 bc c6 6e bd 3d 40 a9 fa 3d 5d f3 11 be
       -0.009336477 0.09249644 0.12239313 -0.14252992
000210 0e 85 9d bd a5 33 d4 bd c2 dc 2c be e0 b8 5a bd
       -0.07691394 -0.10361413 -0.16881087 -0.053398967
000220 5c d5 21 be 09 22 aa 3e e0 6e c0 3e 76 f0 b5 be
       -0.15804046 0.33229092 0.3758459 -0.3553502
000230 c3 63 da 3e 36 d4 8c 3d a8 68 88 be c3 86 66 3d
       0.42654237 0.068764135 -0.26642346 0.056280863
000240 7b fe c7 bd ea ca 05 3d 6a 93 de bc 21 f7 04 bd
       -0.09765335 0.032664217 -0.027169902 -0.032462243
000250 da 79 71 3d d5 4b 33 bf a0 fd 11 3e af 28 bd be
       0.058954097 -0.70037585 0.14256907 -0.36945102
000260 28 22 7d be 00 93 9c 3e 94 12 88 be dc 2f c6 bc
       -0.24720061 0.30580902 -0.26576674 -0.024192743
000270 c2 6c bf bd aa 52 1b be 3a dd a3 be 8f 8e 5d 3e
       -0.09346916 -0.15168253 -0.3200472 0.21636413
000280 34 81 ac bd a8 3f 1c 3e 37 4c ad bd 8d f7 f3 3e
       -0.08423081 0.15258658 -0.084618025 0.47649804
000290 ac 72 b2 3d 64 7f 98 bd fa 0e 2c be 3e b1 48 39
       0.08713278 -0.07446173 -0.16802588 0.00019139514
0002a0 f4 40 8e 3d f3 98 d6 bd a6 f1 d7 be 18 fc ad 3d
       0.069459826 -0.104783915 -0.4217655 0.08495349
0002b0 72 3e 30 3e 77 35 9b 3e f3 b7 ad 3e 0c 34 97 be
       0.17211321 0.30314228 0.33929405 -0.29531896
0002c0 ec af 99 3e f7 77 32 be b8 83 4b 3d da 10 99 be
       0.3001703 -0.17428575 0.049686164 -0.2989567
0002d0 6f a8 9a be 87 e0 cb 3d ae 4d d3 3d 33 ca ba be
       -0.3020663 0.099549346 0.103175506 -0.3648239
0002e0 e2 8b 02 3e 43 7f 56 3e 2d 6b eb bd 88 44 60 3e
       0.12748674 0.20946984 -0.114950515 0.21901143
0002f0 d8 9d b1 bc 1c ea 1b 3e a8 24 8c bd 30 49 af 3e
       -0.021681711 0.15226024 -0.06842929 0.34235525
000300 78 93 94 be eb f5 29 bd 97 b3 32 3e a8 c6 a0 3d
       -0.2901876 -0.04149429 0.1745132 0.07850391
000310 66 01 0c be a4 a3 0e 39 67 5d 92 be 91 7f 48 3e
       -0.13672408 0.00013603136 -0.28586885 0.19579913
000320 ef 74 b8 bd d2 94 5c 3e 23 ef 29 3d 24 b3 99 bd
       -0.09006678 0.21541145 0.041487824 -0.075048715
000330 c3 26 c9 3c c5 42 e2 3d 17 05 99 3c 96 e6 ca 3d
       0.024554616 0.110478915 0.018679185 0.09907262
000340 98 09 11 bf 5d 4a 44 3e 7b bc aa 3e 97 00 b5 bd
       -0.56655264 0.19168992 0.33346924 -0.08838003
000350 b0 2b 9c 3e 3a ed 71 be 6a cf c9 be aa 0e d9 3d
       0.3050208 -0.23625651 -0.39416057 0.105985
000360 f0 3e 45 be d1 8e 03 3e 62 92 bb 3c 74 f9 2e bd
       -0.1926229 0.12847449 0.02289695 -0.042718366
000370 49 15 9a bd 2c 0b b3 3d 8f ff e5 3d cc be 00 bc
       -0.07523591 0.08742365 0.112303846 -0.0078579895
000380 60 61 87 bc c5 ae 5e be 58 52 81 bd cd 0f 84 3e
       -0.016525924 -0.21746357 -0.06314534 0.25793305
000390 58 3a d6 bd 42 6f 22 3e 2c f7 f1 3b 3a 68 9d be
       -0.10460347 0.15862754 0.0073842015 -0.3074358
0003a0 26 6e db 3d ba 9b a9 be 5d fd 90 3d 71 d0 9f be
       0.107143685 -0.33126622 0.07079575 -0.31213716
0003b0 96 4c 8c 3e 2f 0a 78 3e de 6f 80 bd 80 61 19 be
       0.2740218 0.24222635 -0.06271337 -0.149786
0003c0 88 77 95 be af 1d 9e 3d d5 40 9e bd d2 42 c2 3d
       -0.29192758 0.077205054 -0.077272095 0.09485401
0003d0 7c cc 23 be 84 06 8f 3e 5e 61 85 3b 34 62 8e bd
       -0.15995973 0.2793466 0.004070445 -0.069523245
0003e0 17 3f 6b be 08 0b 91 3c e2 69 a9 3c cd ce 5b 3e
       -0.22973286 0.017705455 0.020680372 0.21465607
0003f0 35 18 ba 3c 82 c0 0a be 83 e7 5b 3d 94 60 7a be
       0.022716621 -0.13549998 0.053687584 -0.24450904

network_body._body_endoder.seq_layers.0.bias f4 [128]
000000 10 73 96 bc 26 91 26 3d 14 0c 89 3d c0 d8 99 3b
       -0.018365413 0.040665768 0.06691757 0.004695028
000010 44 f0 8c 3d c5 42 c4 bc 02 9d 8e bc e0 e4 e0 bc
       0.068817645 -0.02395762 -0.017408852 -0.027452886
000020 37 9d 7e 3d de f4 bb 3d ff 8d 21 3c 9b 87 44 3c
       0.06216165 0.09177564 0.009860515 0.0119952215
000030 30 af 80 3b 14 c4 c3 3c 3a 93 e6 ba 52 16 27 3d
       0.003927134 0.023897208 -0.0017591484 0.04079277
000040 65 b9 c2 3d 64 6c 83 3d b3 c4 04 bc b6 60 93 3c
       0.095080175 0.06417158 -0.008103537 0.017990451
000050 52 8e 78 bc 28 61 9c 3c dd 56 fe b7 0b 37 0f bd
       -0.015170651 0.019089296 -3.0319608e-05 -0.034964602
000060 83 2b 73 3c 34 32 ae bc d1 dd f9 3c 99 f7 87 3d
       0.014841917 -0.021264173 0.030501278 0.066390224
000070 db 01 90 bc 72 ad 86 3c 94 ca 6a 3d d0 b4 1a 3d
       -0.01757901 0.016440127 0.0573221 0.037770092
000080 e0 e3 bc bb 40 70 01 3c a7 5f fb 3d b9 4e f0 3c
       -0.0057644695 0.007900298 0.122741036 0.029334413
000090 d1 8b be 3d 05 97 2c 3e 02 84 93 b9 7a 45 32 3d
       0.093040116 0.16854484 -0.00028136378 0.04352329
0000a0 1a 1f a6 bd 7c 64 f5 3c 54 78 38 3d be f9 87 3d
       -0.08111401 0.029955141 0.04503663 0.066394314
0000b0 d6 e7 55 3c 64 44 1f 3d af 81 00 bc 37 fa 45 3b
       0.013055762 0.03888358 -0.007843419 0.0030208954
0000c0 ac d0 a9 3c ea ee 97 3b ea a7 86 bc 37 b3 d9 3c
       0.020729385 0.004636635 -0.01643749 0.026574714
0000d0 96 23 e4 3d 3d c4 d1 3d de 12 da 3d d5 4a ca 3b
       0.111396 0.102425076 0.1064813 0.0061734715
0000e0 b1 2d 3e bd 53 4c d6 3c d7 c9 20 bd 42 79 99 3d
       -0.046430293 0.026159441 -0.03925499 0.07493831
0000f0 1a 8f 35 3d 01 a5 36 ba 85 d6 3d 3d 61 93 c3 3c
       0.044325925 -0.00069673365 0.04634716 0.023873987
000100 40 a9 68 3d 5d 3a e4 bb d7 90 ea 3d 77 8b e0 3c
       0.056802034 -0.0069649653 0.11453407 0.027410252
000110 bf b3 a6 3d 7e c4 48 3d dd e6 95 3d f2 99 b9 3d
       0.081397526 0.049015515 0.07319424 0.09062566
000120 47 a1 f1 3b 97 97 09 3e c5 e9 6a 3a 14 63 49 3d
       0.007373962 0.13436733 0.0008961226 0.049166754
000130 20 cd a4 3d b4 42 fa 3c 3c 5d f1 3d 6d 23 ae 3d
       0.08046937 0.030549385 0.11785361 0.08502851
000140 3c 52 62 3c ac 9d db 3d 6b 1d 75 3d 42 e3 53 3d
       0.0138135515 0.10723433 0.05984251 0.0517304
000150 23 0b 2a bc 86 f2 05 3a 0c 4c 18 3d 48 7b d6 3d
       -0.010378632 0.0005109686 0.0371819 0.10472733
000160 0d 96 0f bd 72 e3 1a 3c bb 96 f4 3d db 1d 04 3b
       -0.03505521 0.009453641 0.11942812 0.0020159397
000170 8b 3d 16 3e 1b 5b 16 3d c7 d0 8b 3d 81 ee 0c 3e
       0.14671914 0.03670798 0.068269305 0.13762857
000180 ac 49 25 3c e5 42 25 3d 11 02 bd 3d 16 30 8f 3d
       0.0100883655 0.040347 0.0922891 0.069915935
000190 4d 89 36 3d ee a9 4c 3c 40 08 5e 3d 9f 92 50 3c
       0.044564534 0.012491686 0.054207087 0.01273027
0001a0 ad d4 b8 bb 53 04 90 3d 22 45 d7 bc 0b e1 97 3c
       -0.0056405873 0.07032075 -0.026278082 0.018539926
0001b0 0e c0 18 3c c8 9e bf bb 3f 58 e9 3b 83 ba c6 3d
       0.009323133 -0.0058477856 0.0071211155 0.09703543
0001c0 5d 6f 4d 3d 45 b9 56 3d 03 c7 02 3c 2c 7d b4 3d
       0.050155032 0.05242278 0.007982018 0.08812937
0001d0 cf 7c 31 3d 91 af cf 3d 98 47 c7 3b e3 9a 2f 3d
       0.043331917 0.101409085 0.0060815327 0.04287232
0001e0 79 3f 8c 3d 08 eb 7d 3d e5 53 b3 3d 65 73 9c 3d
       0.06848044 0.06199172 0.08756236 0.07639197
0001f0 93 50 ad 3d 31 a1 0c 3e c4 35 23 3d 09 8e f2 ba
       0.08462634 0.13733365 0.039846197 -0.0018505465

network_body._body_endoder.seq_layers.2.weight f4 [128, 128]
000000 de 80 0b 3d cc 0b 47 3e eb 47 d2 bd 9d 49 4b 3e
       0.034058444 0.19438094 -0.102676235 0.198523
000010 be 49 2d 3e 61 b3 80 3d a6 84 aa 3d 63 e7 c8 3d
       0.16922662 0.06284214 0.08326082 0.098097585
000020 76 10 48 3e 8b 96 97 3d c1 ce 27 3d f0 ce a5 bd
       0.1953753 0.07401761 0.04096866 -0.08096111
000030 24 91 87 bd 4f c7 9e bd 06 02 f9 3d e3 88 41 bd
       -0.0661948 -0.07752859 0.12158589 -0.047249686
000040 f2 09 1b 3e b2 67 49 3d 41 94 3d be f6 7c b9 bc
       0.15140513 0.049171157 -0.18513586 -0.022642594
000050 ee 57 c4 b9 9a be da bd 5a 6c 93 3d 7b a9 12 bd
       -0.00037449546 -0.106808856 0.07198401 -0.03580616
000060 c3 31 04 3d 96 2e 90 bc 08 dc 00 bc cd e6 83 be
       0.03227402 -0.017600339 -0.00786496 -0.25762025
000070 38 f4 09 bd b7 2f 30 3e 19 38 1b be df a7 45 be
       -0.03368017 0.17205702 -0.15158118 -0.19302319
000080 36 fd 72 bb 29 84 56 3e 37 5e ad bd c5 36 2b 3d
       -0.0037077195 0.20948853 -0.08465236 0.04180028
000090 53 cf eb 3c 21 c7 b7 bc 62 0e 0e bd ad 61 c3 3c
       0.028785383 -0.02243382 -0.034681685 0.023850286
0000a0 30 6d 08 ba f2 36 cd bd f5 b8 97 3d 25 6a d3 3d
       -0.00052042585 -0.100202456 0.07408325 0.1032298
0000b0 b2 d1 0b 3d f9 fb cf 3c c7 dc 29 bc 4e 08 e8 3d
       0.034135528 0.025388705 -0.010367579 0.11329709
0000c0 ab 2b 50 bd 7b 39 8c bd 82 08 25 3e 6d 9f a4 3d
       -0.050822895 -0.06846901 0.16116527 0.080382206
0000d0 69 f8 b5 bc d4 38 b6 3d 67 bb f0 3d 0b aa ae 3c
       -0.022213178 0.08897558 0.11754494 0.021321317
0000e0 2d da 65 3d 35 a4 66 3d e2 6c ac bb 32 f9 0c be
       0.05611627 0.056308944 -0.0052620033 -0.13766935
0000f0 1d 61 29 3d fb 47 d0 bc be 2f 18 3e 2f 5a c1 bd
       0.04135238 -0.025424948 0.14861962 -0.09441029
000100 11 44 8e 3d 44 08 ab bc 2d 9d a7 3c 51 16 db 3d
       0.069465764 -0.020877965 0.02046069 0.10697616
000110 c3 18 1f 3c 66 78 23 be 13 d8 81 be b0 1a 96 3d
       0.0097104935 -0.15963897 -0.25360164 0.07329309
000120 a3 77 4e bd 90 53 7b 3c a3 ae c7 bc 4b e1 a1 3c
       -0.050407063 0.015339747 -0.024375265 0.019760748
000130 6a fb a2 3b b1 79 8c 3d e7 75 31 be b6 30 99 bb
       0.0049738185 0.06859148 -0.17330132 -0.0046749962
000140 ef 96 7e 3d f2 07 e3 bc 75 7f 29 bc 57 62 9a 3d
       0.06215566 -0.02771375 -0.0103453295 0.07538288
000150 46 74 a8 3c eb 64 97 bd a5 d7 c6 3b c5 c6 75 bb
       0.020563256 -0.073922954 0.0060681873 -0.003750251
000160 a4 cc 4e bd 5e 21 17 3e 54 b3 87 bd 7e 1c 25 be
       -0.05048813 0.14758822 -0.06626001 -0.1612415
000170 86 65 fd bd d7 0d 66 3d 36 fe 7f bd 7d fb a4 bd
       -0.1237288 0.056165542 -0.062498294 -0.0805578
000180 6d 78 09 be 0d 6b 12 be 5d a7 a4 3d f4 2c 04 3e
       -0.13424845 -0.14298649 0.080397345 0.12907773
000190 9e b7 1e be 3e 00 67 bd 47 fd 50 bd 17 67 2d be
       -0.15499732 -0.056396715 -0.051022794 -0.16933857
0001a0 e2 cb 68 bd 84 75 73 3d ce 4e 8e bb 0d fb a9 3d
       -0.056835063 0.059438244 -0.0043428903 0.08299837
0001b0 79 04 66 3c 07 e2 ec 3d e2 4c 44 3d aa bd 0a 3e
       0.014039152 0.11566549 0.047924884 0.13548914
0001c0 89 1e a7 bc 6e 40 28 bb 4e e8 2f bd 75 42 7e bd
       -0.020400302 -0.0025673169 -0.042946152 -0.062075097
0001d0 e2 6c 36 3e 93 3a 41 be 9a 7f d4 bb 43 04 8b 3d
       0.17814973 -0.1887 -0.006484938 0.06787922
0001e0 4f 82 5f bd a2 03 16 be f8 66 4c 3d 21 6d 17 3d
       -0.05456763 -0.14649823 0.049902886 0.036969308
0001f0 46 c3 18 3e 7b e4 18 bd 5a a4 20 3d 1f 9c 8c bd
       0.14918241 -0.03732727 0.039219238 -0.06865715
000200 01 e2 7e 3e ea 14 c4 be eb 54 13 be 0e a3 72 3c
       0.24890901 -0.38297206 -0.14387862 0.014809383
000210 b8 8d 11 3e 09 de 55 3e 2d 05 79 bd 33 4c 76 3c
       0.14214218 0.20885481 -0.06079595 0.015032816
000220 e7 25 49 bb 12 e1 02 3d 21 84 c9 3c c6 79 5b bd
       -0.0030692758 0.031952925 0.024599137 -0.05358293
000230 11 9b 91 bd 8a 84 2b 3e 54 a1 f3 bc 46 d1 75 3e
       -0.07109655 0.16749778 -0.029740013 0.24005613
000240 99 8e 88 bc 0c 6d 80 bb 31 cb 96 3e fc d9 40 3e
       -0.016669558 -0.0039192494 0.29451898 0.18833154
000250 c6 84 ba bd 5c 37 b1 3e 0a 96 56 be f7 b4 f4 bd
       -0.09107356 0.34612548 -0.20955673 -0.11948579
000260 0e e9 c4 bc 7d c0 81 be 68 97 d7 3c 38 8e 81 bb
       -0.02403691 -0.2534217 0.026317313 -0.0039537214
000270 ba 3b 64 3e 87 07 ac 3e 87 ea 67 3e b8 f5 b1 bd
       0.22288409 0.33599493 0.22648059 -0.08689445
000280 99 ab 0a be 82 9a e1 bd 97 e1 3e be 1a b8 0a 3d
       -0.13542022 -0.11015798 -0.18640743 0.03386698
000290 8e e8 17 bb ee 35 d5 bd a0 95 3a bd e6 43 00 bb
       -0.0023179385 -0.10410677 -0.04555285 -0.001957172
0002a0 2a d5 69 be eb a3 22 be 73 cb b8 3d d8 b0 f8 3c
       -0.22835222 -0.15882842 0.0902318 0.030357763
0002b0 87 07 12 bd ba b9 84 3d b7 77 3c bd 87 dc 13 3c
       -0.03565171 0.06480737 -0.046012606 0.009024746
0002c0 73 05 71 be da 96 03 bd 6e 1c cb 3d 87 d1 17 be
       -0.23537235 -0.032126285 0.09917532 -0.14826022
0002d0 54 1b 81 bd 24 cc 03 bc 81 0c 21 be ee 05 32 3d
       -0.063040406 -0.008044276 -0.15727426 0.043462686
0002e0 db 18 3b bb 41 9a 5d 3e 9f 6b 97 bb 7e 39 5e be
       -0.002854875 0.21640874 -0.0046209837 -0.21701619
0002f0 c7 ea 78 3e c0 3a f6 3d bd 56 5a bd b4 f0 72 bd
       0.2430831 0.120229244 -0.053305376 -0.059311584
000300 ce e9 14 be 19 29 01 be b1 74 dd bd 68 5e 15 3c
       -0.14542314 -0.12613334 -0.10813273 0.0091167465
000310 34 c9 96 be c8 fd 31 3e 1c 29 35 3e 1c 10 e6 3d
       -0.2945038 0.17381966 0.17691463 0.11233541
000320 f9 e3 cf bd 37 2d 6b 3e 6c bc 45 be 6d 3f e9 3c
       -0.10150904 0.22966467 -0.19310158 0.028472627
000330 cd fb 92 be ae 97 a1 be 7c 87 77 be fe fe 45 be
       -0.28707734 -0.31561035 -0.24172777 -0.19335553
000340 74 4d 11 3d c2 1e 23 be 43 d3 9c be 16 e0 e5 bd
       0.035474256 -0.15929702 -0.3062993 -0.112243816
000350 43 21 12 3e 28 ee 83 3e 5d bb ef bd 17 c6 16 3e
       0.14270501 0.25767636 -0.117056586 0.14724003
000360 5a a6 35 3e f0 95 af bd f3 3f 49 bc 07 68 a2 3d
       0.1773924 -0.0857352 -0.012283313 0.07929998
000370 72 d0 67 3e 5a 3a 26 3e 62 ca fc 3c 26 85 62 3e
       0.2263811 0.16233197 0.030858222 0.22121105
000380 4d c1 82 3e 27 13 26 3d c9 dd 26 be 20 1f 79 be
       0.25538102 0.04054561 -0.16295542 -0.2432828
000390 64 9b 1e be 83 9a 02 3b ba c8 8c bc 07 b9 df bd
       -0.15488964 0.0019928522 -0.017185558 -0.10923963
0003a0 d7 3f 8b bd f9 8c bd 3d ba 18 f2 bd 95 f6 15 be
       -0.06799286 0.09255404 -0.118211225 -0.14644845
0003b0 20 1e 40 be 39 7b 54 bd e8 74 b6 3d 26 ac de 3d
       -0.18761492 -0.051875327 0.08909017 0.108726785
0003c0 ec 09 5a 3e 64 62 9c be 4d 4e da bd b4 32 4d 3e
       0.21292847 -0.30543816 -0.10659466 0.20038873
0003d0 31 1c 69 be 67 f3 01 be 31 48 3e 3e 78 ca 12 be
       -0.2276466 -0.12690507 0.18582226 -0.14335048
0003e0 1d 07 dc 3d 00 ab cd 3d 0e a9 09 be 33 ba ea bc
       0.10743544 0.10042381 -0.13443395 -0.02865324
0003f0 42 0e 1f 3d 64 1b 06 be 19 92 ee bd 2a 8b 51 be
       0.038831957 -0.13096386 -0.1164896 -0.20463243

network_body._body_endoder.seq_layers.2.bias f4 [128]
000000 e2 c1 91 3c 0e c7 8a bc bb 41 06 bd 2b 0c 0a 3c
       0.017792646 -0.01694062 -0.03277753 0.008425753
000010 e5 78 06 3d 4b 2d 81 3c a7 8a c1 bc 55 21 6f 3c
       0.032830138 0.015768668 -0.023625685 0.014595349
000020 80 ce b8 bd 93 ae 0d bc c9 e8 e4 bc 90 c5 e2 3c
       -0.09023762 -0.008647579 -0.027943032 0.027682096
000030 43 56 43 3c eb 86 c3 3c ae 51 83 bc 5f be d7 3c
       0.011922422 0.023868045 -0.016030159 0.026335893
000040 cd 42 df 3d 45 16 68 3d 59 d9 a3 bc 5a 25 29 bd
       0.10901413 0.056661863 -0.0200011 -0.041295387
000050 6a be 17 3d 96 cc 32 3c aa 92 5b 3b 28 f7 27 bb
       0.037046827 0.010913035 0.0033504167 -0.0025629494
000060 d0 de 81 3d 4c 91 7e bc d1 49 05 bd 44 ea 3b 3d
       0.06341326 -0.015537571 -0.0325411 0.04587771
000070 bc 20 24 3d 02 54 55 3d d7 b5 28 3d ab 4d fe bc
       0.04007028 0.05208207 0.04118904 -0.031042894
000080 e0 c1 6e bd e8 a4 b2 3b 25 8e c8 3b 2c 8e 54 bd
       -0.058290362 0.0054517873 0.0061204606 -0.0518934
000090 99 27 b2 bc 57 e7 dd 3c c6 a6 87 3c d0 b4 c7 3d
       -0.021747397 0.02708785 0.016559016 0.09751284
0000a0 74 aa 9d 3d 94 96 ef 3c 12 7f ed 3c 4d 41 2a bd
       0.07698527 0.029246606 0.028991256 -0.041566182
0000b0 1f c9 94 bb ba b4 8f bb 65 84 1e 3c 59 bf 8d 3c
       -0.004540577 -0.004385558 0.00967512 0.017303156
0000c0 58 be 33 bc fa 07 84 bd 8c ba 2c 3d 2e 97 82 3d
       -0.010970674 -0.06446834 0.042170092 0.063764915
0000d0 fa 22 be bb 11 fa 5c bb 45 4a e0 3b f3 29 66 3d
       -0.0058025094 -0.0033718387 0.006844791 0.05619235
0000e0 93 66 81 3b 01 6c 9a bd e6 a5 40 3d ef 77 99 3c
       0.0039489954 -0.07540131 0.047033213 0.018733947
0000f0 89 67 20 3d 43 3f 69 bd e0 af 5d 3b b6 d6 12 3d
       0.03916124 -0.056945097 0.0033826753 0.035849296
000100 30 41 e4 3d ce 9a b1 bb c2 15 32 3c af 26 25 3d
       0.11145246 -0.0054200655 0.010869445 0.040320095
000110 16 7b 7d bd 8d 71 71 3d 7f 0c fa bc 66 a4 02 bc
       -0.061884962 0.05894618 -0.030523537 -0.007973766
000120 f8 58 38 3c c6 c6 bf bc 2e 7f 6c 3d e4 99 fa bc
       0.011251681 -0.023410212 0.057738476 -0.030590959
000130 28 1c be 3c f6 96 fe 3b 50 71 02 bd 03 b7 9c bd
       0.023206785 0.007769461 -0.031846344 -0.07652094
000140 06 47 6d bc 53 02 7c bc 62 1d 4b 3c cb 7b 55 bc
       -0.014482265 -0.0153814135 0.012397142 -0.013030003
000150 b2 9c 47 bc e0 1f da 3d 7b 56 e4 3c 90 9c 13 ba
       -0.012183355 0.10650611 0.027873268 -0.00056309346
000160 d8 83 1a 3c 0a 5f a0 bd df fd d8 3b 3b ea 3a 3c
       0.009430848 -0.07830627 0.0066220607 0.011408384
000170 a4 4f a9 3c ba 39 1d bd 82 b9 00 3d 6a 31 2e bc
       0.020667858 -0.03838513 0.031426914 -0.010631898
000180 95 d6 ee 3a e9 3c 67 3d 4d cf 73 bd 3b 87 0d 3c
       0.0018221909 0.056454573 -0.05952387 0.0086381985
000190 bc 44 65 3c 57 ca b9 3d a6 6b d9 bc 7e 2f a5 3d
       0.013993438 0.090717964 -0.026540589 0.08065699
0001a0 8f 8b e0 3c cf 0c 8c 3c ee 02 86 bc 9f 6f 83 bb
       0.027410297 0.017095951 -0.016358819 -0.004011109
0001b0 ba b9 7f 3c 71 cd 07 3d 41 c8 8d 3d ac cc 7d bc
       0.0156082455 0.03315491 0.06922961 -0.015490692
0001c0 fb 4c 11 3d c4 ac d7 bc 89 b7 c0 3c 60 10 05 3d
       0.035473805 -0.026327498 0.023525016 0.03248632
0001d0 7b b9 ee bc d7 9b d3 3c e2 d3 18 3d f6 25 98 bd
       -0.029141178 0.025831146 0.037311442 -0.074291155
0001e0 9b e1 2d bd 11 88 42 bd f1 69 c1 ba 05 66 26 bb
       -0.042451482 -0.047493044 -0.0014756304 -0.0025390398
0001f0 87 7b 63 3d a5 ca c1 bc 84 07 90 bc 4b 81 a7 3c
       0.055537727 -0.023656199 -0.017581709 0.020447394

action_model._discrete_distribution.branches.0.weight f4 [3, 128]
000000 46 38 5f 3a a5 d9 b9 bd 32 9c 5a bd c0 14 a9 bd
       0.00085151603 -0.090747155 -0.053371616 -0.08255911
000010 41 90 6a 3d 9b 0d 02 3d b5 64 43 ba d1 76 be 3c
       0.057266477 0.031751256 -0.0007453666 0.023250015
000020 74 b6 06 be 23 33 bb bd ed cc 7d bd b2 02 b1 3d
       -0.13155538 -0.09140613 -0.06196301 0.08643092
000030 40 4b 8e 3d 55 61 9f 3d 20 1c 29 3e c9 d6 9d 3e
       0.069479465 0.077822365 0.16514635 0.3082793
000040 74 d1 09 3e 1c 0c 2b 3d 18 87 88 bd 5f f4 ba bd
       0.13458806 0.041759595 -0.06666392 -0.09128641
000050 d0 d3 9a 3d ee 4e 13 3d c5 97 e0 bd 29 93 06 3d
       0.07559931 0.035963945 -0.10966448 0.032855187
000060 b3 92 42 3d 9e a7 bc bc 99 5b 6f bd e4 b8 76 3e
       0.047503185 -0.023029145 -0.058436964 0.24093968
000070 e0 dd b2 3c f3 d8 b2 3d 4a c2 14 3e 69 7f a0 3c
       0.021834314 0.08732786 0.1452724 0.019592004
000080 68 3b c9 bd 3f 6a 30 3d ff 5b 72 be 33 bd 85 bc
       -0.09825784 0.043070074 -0.23667906 -0.016325569
000090 86 6e a5 3e df 32 fa 3d 43 14 51 bd 5c c5 5a 3d
       0.32310885 0.12216734 -0.051044714 0.053410873
0000a0 e5 39 f6 3d a7 3f 8f 3e 7b b9 af 3d 9c be 20 3d
       0.12022761 0.2797825 0.085802995 0.03924428
0000b0 db c0 8c be ad 3c a2 bd 4c a7 1b 3d 94 57 c7 3d
       -0.27490887 -0.07921729 0.038001344 0.09733501
0000c0 26 40 7d bd 9d d7 2e be 76 f9 84 3e 93 2a 2f 3e
       -0.061828755 -0.17074437 0.25971574 0.17106085
0000d0 4f 45 b5 3e 34 b9 8c 3b 93 2d 3f bd fc af 57 3d
       0.3540444 0.004294539 -0.046674322 0.052658066
0000e0 ab 35 f0 3c 03 e6 a2 bd bc 69 b3 3c 1e 26 2a 3d
       0.029322466 -0.079540275 0.021901004 0.041540258
0000f0 b9 43 ad 3d d0 0c 6d bd 5a 7b 26 3c c6 fd 29 3e
       0.08460183 -0.057873547 0.010161245 0.16600713
000100 14 a3 a7 3d 6a 86 97 bd c3 7a d1 3c 80 08 3b be
       0.081854016 -0.07398684 0.025571233 -0.18264961
000110 5f ec 22 3d ad 6e e7 3c a6 93 2c 3e 0a f1 f0 3d
       0.039776202 0.028251017 0.16853198 0.117647246
000120 36 aa 09 3d c4 71 d3 3e 47 b9 1a 3e 07 cb 37 bc
       0.03360959 0.41297734 0.1510974 -0.011217839
000130 d4 21 c3 3d 74 91 8b 3c 05 a6 a7 3e 41 82 c8 bd
       0.095279366 0.01703713 0.3274385 -0.09790469
000140 05 db 7f be 70 a5 9e 3c 60 65 ef 3c ef a9 55 bd
       -0.24985893 0.019365996 0.029223144 -0.052164014
000150 ab f8 b8 3c a9 46 27 3e 35 5d bd 3d 8a cd b1 3c
       0.022579512 0.16335548 0.092462935 0.021704454
000160 e4 a9 c1 3c ed 2f 90 bd cd 9e 26 3d 2f c4 86 bd
       0.02364058 -0.07040391 0.040678788 -0.06580388
000170 f1 97 8a b9 bf d5 ca bd 28 2e bf 3d 5f be e5 3d
       -0.00026434616 -0.0990405 0.093349755 0.11217951
000180 34 83 00 3e cb 6c dc 3d 7b c4 27 3d 16 32 b2 3c
       0.1255005 0.10762938 0.040958863 0.021752398
000190 35 4f 5c bd ef 2c 46 3d e5 b8 0a 3e 51 02 27 3d
       -0.053786475 0.048382696 0.13547094 0.040773693
0001a0 57 a0 19 3e 8b ea 10 3b 39 ec d8 3c d1 a1 17 bd
       0.15002571 0.0022112455 0.026479827 -0.037019555
0001b0 76 fd b4 3d 92 0c ca 3d c3 29 a0 3d 2d 9f 9c bc
       0.08837406 0.09865679 0.078204654 -0.01911887
0001c0 30 04 83 3d 62 47 ab 3d 74 f2 58 3d 65 a1 00 3d
       0.06397283 0.083632246 0.052965596 0.031403918
0001d0 c2 b7 a7 3b f6 8e 47 3e a8 be 4f 3d 8f 6b df bd
       0.005118341 0.19488129 0.050718933 -0.10909187
0001e0 49 24 55 bc aa 71 ce 3a b8 c1 71 3d 92 9f be bd
       -0.013009139 0.0015750427 0.059022635 -0.09307779
0001f0 33 3a 25 3d df 0f 5f 3e 7b 98 70 3e 5e bc f2 3d
       0.040338706 0.21783398 0.23495667 0.118523344
000200 00 13 78 3d 6d 2a d6 3c e0 10 89 bb 51 3f ed 3d
       0.060564995 0.026143277 -0.00418292 0.11584342
000210 0a f5 a8 bd 23 60 8c 3d 03 a6 1a 3d ba 5d d7 3c
       -0.082498625 0.06854274 0.037755977 0.02628981
000220 e3 11 20 3e a7 a8 0e 3d c4 bb a0 bb 90 54 22 bb
       0.15631823 0.03482881 -0.004905196 -0.0024769641
000230 41 fe f4 3c 10 da f3 bb e6 be 82 be 2f d7 bc be
       0.029906394 -0.0074417666 -0.2553627 -0.36882922
000240 d2 58 b1 bd 61 1a c0 3c 97 ba 6d bd dd 91 73 3d
       -0.08659519 0.023450078 -0.058039274 0.059465278
000250 72 cd 60 bd c8 b4 54 3d 02 1a 37 3d 75 90 7a ba
       -0.054883428 0.05193022 0.044702537 -0.0009558269
000260 03 1a 7a bd f0 f5 ab 3d 0b 91 1d 3d 6a 22 3b be
       -0.061059963 0.08396518 0.038468402 -0.18274847
000270 d1 89 1e 3d 53 2a 89 bd 04 2a 8d bd 56 85 ef 3c
       0.03870565 -0.06697526 -0.068927795 0.029238384
000280 b5 e6 1a 3d 9d d7 27 3d 3d 63 3f 3e f6 7f 07 3d
       0.037817676 0.04097711 0.186902 0.033081017
000290 c6 54 ba be 37 4a 16 be bf 30 5c bc fd 5d 8a 3d
       -0.36392802 -0.14676748 -0.013439356 0.06756208
0002a0 ee 14 df bd 56 48 8b be 13 6d ba bc 48 56 0c be
       -0.10892664 -0.27203625 -0.022757089 -0.13704789
0002b0 4b a6 53 3e 7d cb f0 3d c5 66 1c bd 50 0e 71 be
       0.20668904 0.11757562 -0.038183946 -0.23540616
0002c0 3e b8 91 3d b6 62 61 3e 97 99 8d be a9 b9 24 be
       0.071152195 0.22010311 -0.27656242 -0.16086449
0002d0 54 43 c9 be 73 11 43 3d 23 19 c2 bd 27 be ee 3c
       -0.3930918 0.047624063 -0.09477451 0.029143406
0002e0 3b 85 85 3c ec 4f a6 3c 01 e3 e6 bc 98 2d 52 3d
       0.01629888 0.020301782 -0.028184416 0.051313013
0002f0 bc d0 49 3c ee cc 3e bc 91 18 63 3d 04 70 5e be
       0.012317833 -0.011645539 0.05544335 -0.21722418
000300 b1 a6 04 bd bd cc b7 3d 00 8d a7 3d c3 e1 ca 3d
       -0.03238553 0.089745976 0.081811905 0.09906342
000310 2c b5 02 be 2b 9f 0b 3d 54 92 88 be cb 41 0f be
       -0.12764424 0.03408734 -0.2667414 -0.13989942
000320 9f ab b8 3b 30 94 11 bf a4 27 87 bd 8f 0c 46 bd
       0.005635693 -0.5686674 -0.06599358 -0.04835182
000330 24 c8 27 bd f6 4e 21 3d 08 be d7 be ef b0 39 3d
       -0.040962353 0.039381944 -0.4213717 0.045334753
000340 c3 0e 5b 3e b1 b8 3d b8 06 42 50 3d 2d ea 3f 3d
       0.2139235 -4.523312e-05 0.050844215 0.046854187
000350 8b 7e 03 3d 7a 21 2d be 1d d8 b6 bb 2c bc 27 3d
       0.032103103 -0.16907302 -0.005579962 0.04095094
000360 5d 31 79 3d f1 78 87 3c d6 97 4c 3c 8a 12 d5 3d
       0.060838092 0.016537162 0.012487372 0.10403927
000370 fe 62 a4 3d 43 a4 77 3d 35 25 55 3b d8 fc 32 be
       0.08026694 0.060459387 0.0032523398 -0.17479265
000380 6e 23 4f be 04 b5 04 bd 4e fc e1 bd aa 25 4a 3d
       -0.20228359 -0.032399192 -0.110344514 0.049352325
000390 ad 77 00 bd 6c 33 db 3b e6 0c 62 be c6 e4 fa 3b
       -0.03136413 0.0066894796 -0.22075233 0.0076566665
0003a0 56 0a a5 bd 9b 54 0a 3d 3e 66 56 3d 14 dd 52 3d
       -0.08058612 0.033772092 0.0523436 0.051480368
0003b0 33 ca cc bc 82 ef dd bb 9b 6e 4c bd 50 08 20 3d
       -0.02499876 -0.0067729363 -0.04991017 0.039070427
0003c0 ab 79 86 3c 6b 68 19 be 50 58 20 bc 92 97 79 bd
       0.016415438 -0.14981239 -0.00978668 -0.060935564
0003d0 80 3c a0 bd b5 b8 32 be 25 b6 f6 3c 29 1d 83 3d
       -0.078240395 -0.17453273 0.03011615 0.06402046
0003e0 d4 4e 98 bc ad 00 9f bd 1f fe d8 bc c9 84 08 3e
       -0.018592276 -0.07763801 -0.026488362 0.13331904
0003f0 8d 62 68 3d e6 9a 87 be 9c 03 b2 be 39 df 1a be
       0.05673461 -0.26485366 -0.3476838 -0.15124215

action_model._discrete_distribution.branches.0.bias f4 [3]
000000 fa 5a 99 3d 30 ad b8 bc 17 02 09 be
       0.074880555 -0.02254352 -0.13379703

action_model._discrete_distribution.branches.1.weight f4 [3, 128]
000000 24 1c 4c 3d 18 7d b2 bd 24 d6 8e bd 42 e3 9d 3d
       0.049831524 -0.08715266 -0.06974438 0.077093616
000010 a1 f7 f6 3d cd 19 62 3d c8 e8 46 bd 8e 84 9a 3d
       0.1205895 0.055200387 -0.04856184 0.07544814
000020 52 8e 7e bd 16 dd 75 bd aa 8b d0 bd 7c 16 8c bc
       -0.062147446 -0.060025297 -0.10182889 -0.017100565
000030 cd 49 cf bb 48 7c be 3c 26 de 2e be 53 f9 8c bc
       -0.0063259364 0.023252621 -0.1707693 -0.01720873
000040 64 72 43 3d ac b1 0b 3d 50 13 be 3d 3f b6 12 bd
       0.047716513 0.034104988 0.09281027 -0.035818335
000050 2f 79 4b 3d db c4 59 3d ad 75 7b be d9 c8 30 3d
       0.049676117 0.05316625 -0.24556608 0.043160293
000060 21 5e 65 3d aa bd 76 3d 0d 94 e6 bd 84 4e 94 bd
       0.05599797 0.06023947 -0.11258707 -0.07241538
000070 46 b6 4c 3c b1 e9 08 3c 33 5b 7b 3d 57 b7 50 3d
       0.012494629 0.008356498 0.06136627 0.050956097
000080 30 c7 1b bd 29 46 9c 3d 1d 7d a7 3d d9 be 7a bd
       -0.038031757 0.076305695 0.0817816 -0.061217163
000090 c1 ff c5 bd 9e a6 80 bc 9a b6 b7 bd d3 a8 5c 3c
       -0.09667922 -0.01570445 -0.08970375 0.013467985
0000a0 9d 19 c1 3c c0 95 4d 3d 44 42 97 3b 7f 13 c2 bd
       0.023571784 0.05019164 0.004616054 -0.09476375
0000b0 30 c9 af 3d 86 40 7b 3d 1b 53 11 3d e8 ec 4d bd
       0.08583295 0.06134083 0.035479646 -0.05027476
0000c0 59 5d a6 3d 8f b8 a1 bd 27 c2 46 bd ea e2 16 3e
       0.081232734 -0.0789653 -0.048525 0.14734998
0000d0 e8 f8 73 be 62 7d b1 3d f2 ec 10 bb d5 72 88 3c
       -0.23825419 0.08666493 -0.0022113887 0.016656319
0000e0 c6 2a 82 3d 29 dc 49 bd b1 60 9c 3c 45 5f 9e 3d
       0.06355815 -0.049282227 0.019089075 0.07733015
0000f0 35 e3 78 3c e7 0b 4e bd b7 f8 9d 3d f6 52 99 bd
       0.015190889 -0.05030432 0.07713454 -0.07486527
000100 e4 63 06 3d 61 07 a7 ba 33 95 e2 3d 74 1b 8c 3d
       0.032810107 -0.0012743288 0.11063614 0.06841174
000110 78 c8 91 be ab e9 f2 3c 29 b0 46 3e 12 97 59 bd
       -0.28473258 0.029652437 0.19403137 -0.053122588
000120 ec 93 ac bc d3 94 80 be 22 21 01 bd ad 0c 4e be
       -0.021066628 -0.25113544 -0.03152574 -0.20122023
000130 df 23 cc 3e fd 43 11 3e bf 09 91 be c3 86 82 bd
       0.39871117 0.14186092 -0.28327748 -0.0637336
000140 00 5d da 3d a2 b4 8c 3c 69 cb 6c 3d 52 36 a5 bd
       0.106622696 0.017175976 0.057811175 -0.080670014
000150 26 a9 34 3d dd d4 19 3c 6e 67 20 3c 41 79 a9 3d
       0.044106625 0.0093891295 0.009790285 0.082750805
000160 28 28 46 3d b6 d6 95 bd ed 80 3a 3c 1b 1e 5c 3d
       0.04837814 -0.073163435 0.011383277 0.05373965
000170 84 b3 5e 3d e1 e4 51 bd 87 02 96 3c 0a 84 c2 bd
       0.05437042 -0.051243667 0.018311752 -0.09497841
000180 29 ed dd bd 55 97 8d bc 40 e1 c1 bd a8 62 a4 3d
       -0.1083625 -0.017284075 -0.09466791 0.0802663
000190 3c 90 a9 bd 44 d5 19 3d 87 4c eb bd 2d 8f f2 3b
       -0.08279464 0.0375569 -0.11489206 0.007402322
0001a0 96 99 4c bd 4f 0e 22 3b 97 ab a7 3d 7d 45 9f 3c
       -0.04995116 0.0024727767 0.08187025 0.019442314
0001b0 27 eb 78 3c 40 25 57 3c 98 69 1c 3d f7 2f f3 3c
       0.015192783 0.01313144 0.03818664 0.029685957
0001c0 eb 59 18 3d 58 99 a0 bd 95 da 55 3c 1d 7f 3a bc
       0.037195127 -0.07841748 0.013052602 -0.011382845
0001d0 84 b4 ea bd a3 f1 c4 bc 15 23 8f 3c 73 c3 4c bd
       -0.11460212 -0.024041003 0.017472783 -0.049991082
0001e0 78 9b 98 bd 3f 38 c5 bd 1b 71 73 3d 0e 76 a9 3d
       -0.07451528 -0.09629869 0.059434038 0.0827447
0001f0 a7 2c 40 3d ca 25 91 3e 1c 93 46 be a8 63 83 bd
       0.046917584 0.28349143 -0.19392055 -0.06415492
000200 22 07 ea 3c c8 2b b0 3d 97 15 f0 3c 01 0d 10 be
       0.028567854 0.086021006 0.02930717 -0.1406746
000210 f4 21 b1 bd 34 4e 92 bc 9f 73 41 bc 94 32 d7 bc
       -0.08649054 -0.017859556 -0.011807351 -0.026269235
000220 4e 63 1c be 21 ff 0b bd 0d a9 82 3d d6 f7 59 3d
       -0.15272257 -0.034178857 0.063799 0.05321487
000230 4c df 6f bd 02 c9 9a 3c c7 cd 4f 3e fe 03 36 3d
       -0.058562562 0.018894676 0.20293342 0.0444374
000240 74 e4 96 3d 16 bf 60 3d e0 1c 24 bd e3 48 98 bc
       0.07367793 0.054869734 -0.0400666 -0.018589443
000250 65 fc 57 3c 12 d1 d5 bc 05 5b 31 3e cc 78 99 ba
       0.013182734 -0.026100669 0.17319877 -0.0011708974
000260 48 3a 23 3d 75 10 72 bd 8b d0 e1 3d b4 65 cb 3d
       0.039850503 -0.059097726 0.110261045 0.09931508
000270 18 e8 57 3d aa 63 99 3d 7a eb 10 be 0e 14 d1 bb
       0.052711576 0.074897125 -0.14152327 -0.0063805645
000280 de be 59 3c 6e e5 c3 bd c7 37 49 be d0 0e 2a bb
       0.013290135 -0.095652446 -0.19650184 -0.002594877
000290 2b 1b d5 3d ad 32 4d 3d 10 f6 e9 3d da 3c 40 3b
       0.104055725 0.050097156 0.11423886 0.0029333145
0002a0 cf 35 d6 3d 3b da 2d bb 74 b7 1a 3d 38 e2 5a 3d
       0.10459482 -0.002652778 0.03777261 0.053438395
0002b0 3d a0 4d be ad 2f 36 be b0 af 45 3d 9f 0f 09 3e
       -0.20080657 -0.17791624 0.04826325 0.13384865
0002c0 20 d0 65 be bb 86 28 be 68 c5 66 3d 21 46 b8 bd
       -0.22442675 -0.16457646 0.056340605 -0.08997751
0002d0 0c 03 8a 3e b8 78 1e bd 25 57 2e 3e 70 4d 10 3c
       0.2695545 -0.038689345 0.1702543 0.008807525
0002e0 db 60 cd bd 4b 6d bf 3c 82 91 65 3d 40 4e 1a bd
       -0.10028239 0.023367545 0.05604697 -0.03767228
0002f0 6f d8 02 bc 3c 78 e5 3c 14 89 22 bd 42 00 b1 3d
       -0.007986172 0.028011434 -0.03968151 0.08642627
000300 30 4b bd 3d 0c 3b 53 3d 24 76 3b bd 40 4a 03 be
       0.092428565 0.051569983 -0.045766965 -0.12821293
000310 c2 38 97 3e 5d 18 4e 3d 91 23 7a be 53 7b 24 3d
       0.2953549 0.050316203 -0.2442763 0.040156674
000320 9d 87 c5 bd c4 42 a1 3e 21 6b a0 3d 19 07 5f 3e
       -0.09645007 0.3149625 0.07832933 0.21780051
000330 81 7f eb be e8 6b 27 be fe d6 8b 3e d0 2a d9 3c
       -0.45995715 -0.16349757 0.27312464 0.026509672
000340 43 db 8e be 79 83 fc 3c 26 e0 53 bd e4 2a d9 3d
       -0.27901658 0.03082441 -0.051727436 0.10603884
000350 32 39 35 bd 9e 2f aa 3d 14 12 91 3b 8a b9 14 bd
       -0.044244 0.083098635 0.004427204 -0.036309756
000360 3a 6a 3f 3b 09 da 91 3d 6c a1 a0 bd e1 01 ed bd
       0.0029207603 0.07121665 -0.07843289 -0.11572624
000370 b4 4e 7a bc e2 e2 72 bb cb 3f f4 bd 2a 1f eb 3c
       -0.015277553 -0.0037061502 -0.1192623 0.028701384
000380 7e 41 30 3e 1e 2e b0 3d ca 65 34 3c 7d a1 b3 bb
       0.17212483 0.08602546 0.0110105965 -0.0054818974
000390 16 dd 0e 3e 8e aa 92 3d 68 3b 21 3e 16 7c b1 3d
       0.13951525 0.07161437 0.15745318 0.08666246
0003a0 3c 60 8d 3d 47 54 71 3d 01 d6 be bc a2 1a 14 be
       0.06903121 0.058918264 -0.023295404 -0.14463285
0003b0 50 e5 e0 3b 2c 27 0c 3c bd 43 70 3d a1 14 3f 3d
       0.0068632737 0.008554261 0.05865835 0.046650533
0003c0 50 29 c7 3c c9 3a 25 3e f3 95 d9 3c ce 2b 1a 3d
       0.024311692 0.16135706 0.02656076 0.03763943
0003d0 17 ad 9a 3d 3c 0e 5a 3d b3 53 01 3d 69 23 05 3c
       0.075525455 0.05323623 0.031573962 0.008126118
0003e0 1a 84 26 3d ef de 8a 3d d8 26 8c bd 8a 34 02 be
       0.040653326 0.067808025 -0.06843346 -0.12715355
0003f0 6f dc ff 3c 1b bb 96 be 3e 5f 20 3e fd 56 86 3d
       0.03123304 -0.29439625 0.15661332 0.065595604

action_model._discrete_distribution.branches.1.bias f4 [3]
000000 68 11 43 3d cd f2 00 bd ae f9 49 bc
       0.04762402 -0.031481553 -0.012327595
