Assets/results/T2/CarDriver/CarDriver-2999952.pt (torch, 632126 bytes, 48 tensors)

discrete_act_size_vector f4 [1, 2]
000000 00 00 40 40 00 00 40 40
       3.0 3.0

network_body._body_endoder.seq_layers.0.weight f4 [128, 36]
000000 fc 43 4d be ae 63 51 bd e8 5c f9 bd 95 a9 a0 3e
       -0.20045465 -0.051120453 -0.121759236 0.3137938
000010 9e 26 4f bb bc 3b 45 be 77 6e 2c 3b a6 d1 47 be
       -0.003160871 -0.19261068 0.002631096 -0.19513568
000020 35 46 a8 be 9a 8f a3 be 68 12 80 bd 64 30 c6 3d
       -0.32866064 -0.31945497 -0.06253511 0.096771985
000030 86 b7 e8 3e 91 9d c0 bb d9 c4 f6 be 03 62 38 bd
       0.45452517 -0.0058781584 -0.48197058 -0.045015346
000040 ff 6a 08 be dc cf 79 3e ee 00 7b be 1d d7 a7 bd
       -0.13322066 0.24395698 -0.24512073 -0.081953265
000050 36 4e 2f 3d 28 6a 9b 3e 7c 3d ec 3d d8 7a 12 3d
       0.042799197 0.30354428 0.11535165 0.035761684
000060 e0 0b 94 3e 6c 7d 1b 3e 1a 2d 2e 3d 98 68 1e be
       0.2891531 0.15184563 0.04252348 -0.15469587
000070 20 5f 88 be 23 41 fd be 67 35 25 3e fc 0b 46 bd
       -0.26635075 -0.49463758 0.16133653 -0.048351273
000080 f2 7b c1 3e d2 1e c0 3d 05 34 e6 3e 8c b2 ef 3d
       0.37789875 0.093808785 0.44961563 0.11703977
000090 48 d8 5d be b5 44 35 3e 4b 6c 80 be a6 47 f9 bd
       -0.21664536 0.17701991 -0.2508262 -0.12171869
0000a0 8a c2 69 3d 03 46 df 3d dc 43 46 bd 0a 42 6c be
       0.057070293 0.109020256 -0.04840456 -0.23072067
0000b0 71 56 84 3d 41 03 75 3e 8b 43 93 3d 0c 93 6c 3e
       0.064618 0.23927023 0.07190617 0.23102969
0000c0 50 fe e9 bd 7f 2a 5d 3c a4 b1 0e be 71 3c 08 be
       -0.114254594 0.013498901 -0.13934952 -0.13304307
0000d0 5d f3 a8 3d 12 85 57 be a6 75 ea bd 96 75 8d 3e
       0.08249543 -0.21046856 -0.11448221 0.27628773
0000e0 d4 1a 02 3d e7 25 0d be a8 00 0d bb c6 bc 2e be
       0.031763867 -0.1378399 -0.0021515284 -0.17064199
0000f0 45 08 85 3c 82 38 22 be 32 de d1 3e ba f0 fe be
       0.016239295 -0.15841869 0.40989834 -0.49793035
000100 c1 70 60 3c 0b 9a 43 3f d9 c5 b7 bd 72 8c dd 3d
       0.013698758 0.76406926 -0.08973283 0.108178034
000110 b6 1c 94 be 48 82 2c bd 85 a2 58 be 19 1b 62 3e
       -0.28928155 -0.042116433 -0.21155746 0.2208065
000120 5a dd a0 3d c4 1e c5 ba bf a1 36 3e c1 db 9c 3e
       0.078547195 -0.0015039076 0.17835139 0.3063641
000130 04 a1 ae bd 40 2b 0f be 19 34 51 3e 50 57 49 bd
       -0.08526805 -0.13981342 0.2043003 -0.049155533
000140 58 e4 a9 3c fd 01 eb bc e1 1c b2 3e 94 4d 91 3e
       0.020738766 -0.028687472 0.34787658 0.283795
000150 1a fc b7 bd 72 e3 8c be 51 e8 42 3e eb 2c 12 bc
       -0.089836314 -0.27517277 0.19033934 -0.008921842
000160 e4 6a 62 3e a7 69 6c be 7b 4e a8 be 22 b3 df 3e
       0.22111088 -0.23087178 -0.32872376 0.43691355
000170 03 67 81 3e 27 f0 e6 bd ba 73 2e be fe 43 bf 3b
       0.25273904 -0.11276274 -0.17036334 0.0058369627
000180 ff fe db be 3f e0 7e 3e 5a 4f 5b be 54 59 a2 bd
       -0.42967984 0.2489023 -0.21416989 -0.07927194
000190 8d 4a f8 bd 98 89 10 3f a6 b3 97 be d6 c3 aa 3d
       -0.121235944 0.5645995 -0.29629248 0.08338134
0001a0 08 89 4e 3e d8 9e 3d 3d 0d d0 cf be 34 51 df 3d
       0.20169461 0.046294063 -0.40588418 0.1090416
0001b0 5e 63 00 be a8 e8 4e be 90 ed 52 bd 44 75 81 3d
       -0.12537906 -0.20205939 -0.05149609 0.06321195
0001c0 75 ce 12 bd 00 75 0c bc a7 50 13 3e 1a ce e6 3d
       -0.035841424 -0.008572817 0.14386235 0.112697795
0001d0 28 17 95 3d 10 5e e0 3e fa 16 30 3d ea 2c e5 3d
       0.07279807 0.43821764 0.042990662 0.11190207
0001e0 52 a5 5d 3d 8f 22 89 bd e0 eb 75 3e 8a 9b 7b 3b
       0.05411274 -0.06696045 0.2401576 0.003839227
0001f0 60 15 35 bd 7b 43 62 3e f1 13 d6 3c 99 4c 9a 3e
       -0.044209838 0.22096054 0.026132556 0.30136564
000200 84 23 11 bc 7d e3 b9 3d 40 a9 fa 3d 5f 2c 0c be
       -0.008858565 0.09076593 0.12239313 -0.13688801
000210 48 5c a2 bd a7 86 d4 bd 9a 79 2f be e0 b8 5a bd
       -0.079277575 -0.103772454 -0.17136231 -0.053398967
000220 5d 0a 29 be 61 23 a7 3e 25 72 bf 3e 1e 3a b4 be
       -0.1650786 0.3264418 0.37391773 -0.3520059
000230 c3 63 da 3e a6 d9 95 3d fd 36 89 be bd 2f 5d 3d
       0.42654237 0.07316904 -0.26799765 0.054000605
000240 40 88 ba bd 71 13 07 3d 6a 93 de bc 00 1d 03 bd
       -0.09108019 0.032977525 -0.027169902 -0.03201008
000250 32 46 69 3d 0c e2 33 bf 66 90 13 3e af 28 bd be
       0.05695171 -0.70266795 0.14410552 -0.36945102
000260 21 e0 7d be 5a f8 9a 3e 2f c2 85 be 92 99 c6 bc
       -0.2479253 0.30267602 -0.26124713 -0.02424315
000270 c2 6c bf bd 63 8d 20 be 69 3e a5 be 6d a8 5e 3e
       -0.09346916 -0.15678935 -0.32274178 0.21743937
000280 24 71 ac bd a8 3f 1c 3e a5 60 c8 bd 6a e4 f1 3e
       -0.08420017 0.15258658 -0.097840585 0.4724458
000290 fa 73 b3 3d a5 49 97 bd fa 0e 2c be 4a 24 a0 3b
       0.08762355 -0.073870935 -0.16802588 0.0048871385
0002a0 c2 6d 88 3d 3c 4f d1 bd 58 a2 d9 be 18 fc ad 3d
       0.0666156 -0.10220191 -0.4250667 0.08495349
0002b0 bb 7d 2f 3e cc e6 98 3e 72 16 ae 3e 24 c7 95 be
       0.17137806 0.29863584 0.340015 -0.29253495
0002c0 ec af 99 3e a2 88 34 be 81 6b 42 3d 8f 9a 99 be
       0.3001703 -0.17630246 0.047465805 -0.3000073
0002d0 a3 8a 9c be 4b fc cc 3d ae 4d d3 3d c0 a6 ba be
       -0.3057452 0.100090586 0.103175506 -0.36455345
0002e0 ac 5d 01 3e 56 78 52 3e 45 6b e8 bd 88 44 60 3e
       0.12633389 0.20553717 -0.11348585 0.21901143
0002f0 83 8b 89 bc e5 bd 19 3e c1 c9 8d bd 67 42 af 3e
       -0.016790157 0.15013845 -0.06923247 0.34230348
000300 78 93 94 be 74 4f 2d bd 6b 69 31 3e cb 3f 9d 3d
       -0.2901876 -0.0423121 0.1732537 0.07678183
000310 d4 6d 0a be a4 a3 0e 39 66 80 92 be d4 d9 48 3e
       -0.13518459 0.00013603136 -0.28613585 0.19614345
000320 b1 c2 b6 bd b0 9a 5b 3e 23 ef 29 3d ed 10 99 bd
       -0.08923853 0.21445727 0.041487824 -0.074739315
000330 1f bd b4 3c fa 7c e2 3d 51 1c 90 3c 96 e6 ca 3d
       0.022062836 0.11058994 0.017591627 0.09907262
000340 15 a5 10 bf 7c 42 42 3e f4 64 aa 3e ed df b3 bd
       -0.56501895 0.18970674 0.33280146 -0.08782945
000350 b0 2b 9c 3e c5 ac 6f be 67 be ca be 1f aa d6 3d
       0.3050208 -0.2340575 -0.3959839 0.10481667
000360 f9 2c 46 be c9 89 02 3e 62 92 bb 3c 87 7f 5d bd
       -0.19353093 0.12747873 0.02289695 -0.054076698
000370 6b 42 99 bd 7c b6 b5 3d b1 6f e4 3d cc be 00 bc
       -0.07483371 0.08872697 0.11154116 -0.0078579895
000380 82 00 8c bc 50 ed 5d be 6e 13 7a bd 2e 14 83 3e
       -0.017090086 -0.21672559 -0.061053686 0.25601333
000390 58 3a d6 bd 58 d2 25 3e 10 42 0f 3c 50 d0 9d be
       -0.10460347 0.16193521 0.008743778 -0.30822992
0003a0 e2 7d da 3d ba 9b a9 be 13 7c a7 3d 5c 02 9f be
       0.106685415 -0.33126622 0.08177962 -0.31056488
0003b0 11 58 8b 3e d1 ea 77 3e de 6f 80 bd 30 32 19 be
       0.27215627 0.24210669 -0.06271337 -0.14960551
0003c0 18 06 94 be 53 d4 9c 3d 5f d6 9f bd d2 42 c2 3d
       -0.289109 0.07657685 -0.0780456 0.09485401
0003d0 f3 df 24 be cb 3f 8e 3e 5d 96 f5 3a 83 15 8b bd
       -0.16101055 0.27783045 0.0018736828 -0.067912124
0003e0 17 3f 6b be 13 0b 97 3c c6 5b bd 3c 83 ce 56 3e
       -0.22973286 0.018437898 0.02311505 0.20977215
0003f0 d2 db bc 3c 6f 52 0c be 83 e7 5b 3d c3 1d 7b be
       0.023054037 -0.13703321 0.053687584 -0.24523072

network_body._body_endoder.seq_layers.0.bias f4 [128]
000000 89 89 96 bc df a9 22 3d bb b9 8a 3d 46 fb 88 3b
       -0.018376129 0.039712783 0.067737065 0.0041803448
000010 d7 ad 8e 3d 40 16 c6 bc c9 9b 99 bc df bc ec bc
       0.06966751 -0.024180532 -0.018751042 -0.028898655
000020 5f 64 79 3d 9b 41 b8 3d b4 ce f0 3b 2d 8a 3a 3c
       0.060886737 0.08996888 0.0073488597 0.011385483
000030 c4 63 86 3b 14 ff be 3c 6c 55 87 bb eb ce 25 3d
       0.0041012485 0.02331499 -0.004130056 0.040480535
000040 15 94 c0 3d 27 99 7e 3d 04 b6 f0 bb 50 d1 90 3c
       0.094032444 0.062157776 -0.0073459167 0.017677933
000050 de a8 82 bc 69 a1 9c 3c 16 31 17 ba 6c 93 17 bd
       -0.015949663 0.019119935 -0.0005767507 -0.037005827
000060 e3 7b 7a 3c af 4e b8 bc 8e 4b ed 3c af 96 86 3d
       0.015288326 -0.022498457 0.028966691 0.06571709
000070 ee ad 95 bc 09 9c 81 3c 5e 0d 65 3d 36 77 1e 3d
       -0.018271413 0.015821474 0.05592095 0.038687907
000080 8d e3 b4 bb 6d 20 e1 3b 6d 1f fb 3d dc 45 ef 3c
       -0.00552029 0.0068703205 0.12261853 0.029208116
000090 e3 f5 bc 3d c4 93 2c 3e 1c e4 7e ba 66 3b 32 3d
       0.09226587 0.16853243 -0.0009723322 0.043513678
0000a0 4c ec a9 bd ee 64 f0 3c 9f 20 30 3d 43 57 86 3d
       -0.08297023 0.029345002 0.04299986 0.065596126
0000b0 6a 02 48 3c 0a 10 22 3d 28 44 eb bb 29 59 1e 3b
       0.012207607 0.039566077 -0.0071797557 0.002416203
0000c0 71 e2 ab 3c f1 23 79 3b 94 5a 8e bc 26 b3 ca 3c
       0.020982 0.0038015808 -0.017377175 0.024743628
0000d0 43 b7 e0 3d 91 00 d7 3d ee 4e d8 3d ab 19 b4 3b
       0.109724544 0.10498155 0.1056193 0.005496224
0000e0 e8 d6 41 bd ca 2e d5 3c 2f 2b 27 bd f5 bd 9c 3d
       -0.04732409 0.026023287 -0.040812667 0.07653419
0000f0 12 de 32 3d 73 7f 83 ba 24 85 3d 3d ff f6 c1 3c
       0.043668814 -0.001003249 0.04626955 0.023677347
000100 1b fd 6b 3d d0 aa e7 bb bf 78 ef 3d f3 3b cb 3c
       0.057614427 -0.007069923 0.11692952 0.02480886
000110 8f f8 ac 3d e8 7f 45 3d 6f fe 94 3d 26 d8 b9 3d
       0.08445846 0.048217684 0.07275092 0.0907443
000120 fc bb f1 3b 3e 81 08 3e 08 8f 42 3a 7f fc 4a 3d
       0.007377146 0.13330552 0.0007421826 0.049557205
000130 d0 fd a3 3d cb cb ec 3c 06 cd f2 3d 98 b7 ac 3d
       0.08007395 0.02890577 0.11855511 0.08433455
000140 b1 1f 34 3c 05 cd dc 3d 55 f2 74 3d 7c 64 4e 3d
       0.010993884 0.10781292 0.05980142 0.050388798
000150 f3 ad 14 bc a5 6a d4 3a 41 29 19 3d 49 53 d8 3d
       -0.009074676 0.0016206099 0.03739286 0.105627604
000160 3b 72 0b bd d1 5f 32 3c da 7d f4 3d 09 f1 87 3b
       -0.034044486 0.010887102 0.11938067 0.0041486067
000170 6e c2 16 3e cd 51 10 3d ff f1 8d 3d 02 dc 0b 3e
       0.14722607 0.03523426 0.06930923 0.13658145
000180 3d 6f 53 3c fd e7 1f 3d 39 0f bb 3d 02 1f 8c 3d
       0.012904939 0.0390396 0.09133763 0.06841852
000190 dc e2 31 3d ac 44 41 3c 92 52 54 3d 78 26 55 3c
       0.04342924 0.011796158 0.051836558 0.01300966
0001a0 bd ae 88 bb b3 df 8f 3d 66 e0 d0 bc d1 19 8e 3c
       -0.004171221 0.07025089 -0.025497627 0.017346295
0001b0 96 8a 17 3c 8e 60 ae bb fd db c5 3b 4a 4d c6 3d
       0.00924935 -0.005321569 0.0060381875 0.096827105
0001c0 61 4c 4d 3d 51 ed 56 3d e2 d0 d3 3b 2b e0 b2 3d
       0.05012167 0.052472416 0.0064641098 0.08734163
0001d0 3d 05 2f 3d 5b 00 cf 3d 36 48 96 3b 81 ee 2c 3d
       0.042729605 0.1010749 0.004586245 0.042219643
0001e0 c3 9d 89 3d d4 18 7a 3d 2a 3e b4 3d 4f ee 9c 3d
       0.06719544 0.061058834 0.08800919 0.07662641
0001f0 c1 a8 ab 3d 78 e6 0d 3e 87 98 26 3d 20 26 20 bb
       0.08381797 0.13857448 0.040672805 -0.0024436787

network_body._body_endoder.seq_layers.2.weight f4 [128, 128]
000000 f7 ae 01 3d 7e 9a 43 3e 0a 29 d0 bd 04 99 48 3e
       0.031661 0.19101903 -0.101640776 0.19589621
000010 d9 4e 2c 3e 33 ce 78 3d 9f c0 a6 3d c7 eb c3 3d
       0.16826953 0.060743522 0.08142208 0.09566455
000020 53 05 45 3e e6 22 8a 3d ce 3d 23 3d 1a e3 aa bd
       0.19240312 0.067449376 0.039853863 -0.083440974
000030 f2 68 88 bd b6 66 a2 bd 71 d6 f5 3d 9e b8 48 bd
       -0.06660642 -0.07929747 0.12003792 -0.04900419
000040 18 fc 15 3e 6e 97 45 3d 65 5a 3d be fa 77 c1 bc
       0.14646947 0.048240118 -0.18491514 -0.02361678
000050 10 3b c8 bb a6 da e5 bd 89 9b 94 3d c0 ed 13 bd
       -0.0061105564 -0.112233445 0.072562285 -0.036115408
000060 20 3e fb 3c 57 30 9c bc e0 54 1c bc ea 73 83 be
       0.030669272 -0.019066019 -0.00954172 -0.25674373
000070 84 2c 12 bd 5f 79 29 3e c4 50 1c be 07 8b 45 be
       -0.035686985 0.16550206 -0.15265185 -0.19291316
000080 cf 76 3a bb cc 11 55 3e 44 ba b7 bd 3e 53 2d 3d
       -0.0028452163 0.2080757 -0.08971074 0.042315714
000090 88 32 f0 3c 00 c1 be bc 22 42 16 bd b3 b9 bb 3c
       0.02932097 -0.023285389 -0.036684163 0.022915697
0000a0 dd 21 43 3a 71 fa ca bd 12 f9 9d 3d b4 c0 ca 3d
       0.00074437057 -0.09911049 0.07713522 0.099000365
0000b0 ac 8c 18 3d 75 87 c3 3c af e2 42 bc f0 5f e5 3d
       0.03724353 0.023868302 -0.011894866 0.11199939
0000c0 8b 65 44 bd ae 45 98 bd 35 3d 23 3e da 6f a5 3d
       -0.0479484 -0.07435165 0.15941317 0.080779746
0000d0 b5 19 f0 bc 6e c9 bd 3d d1 9d e4 3d 44 2f 93 3c
       -0.029309133 0.09266935 0.111629136 0.017966874
0000e0 4e 47 58 3d 11 06 5b 3d 70 cd 87 bb 19 a6 0d be
       0.052802376 0.053472582 -0.004144363 -0.13832892
0000f0 55 fb 14 3d 9b 27 ca bc 91 1c 17 3e 46 eb c1 bd
       0.0363725 -0.024677088 0.14756991 -0.09468703
000100 36 4d 87 3d 17 6d b9 bc f2 38 91 3c e2 15 da 3d
       0.06606524 -0.022635026 0.017727349 0.10648705
000110 aa 99 1f 3c 84 77 24 be 47 50 83 be 11 3b 8d 3d
       0.009741226 -0.16061217 -0.25647184 0.06896032
000120 9b 87 4b bd d5 20 60 3c e3 e5 c3 bc 1d 9e 9b 3c
       -0.04968987 0.013679703 -0.02391333 0.018996293
000130 df ce db 3b 14 0d 8d 3d a3 00 2d be 1c 33 08 bc
       0.0067080106 0.0688726 -0.16894774 -0.008312967
000140 9a 44 71 3d f5 5e e4 bc 91 03 7c bc a7 cc 91 3d
       0.058903314 -0.02787731 -0.01538171 0.071191125
000150 0b 01 af 3c cf e9 96 bd 38 fc 78 3b 3e 8f 42 bb
       0.021362802 -0.07368814 0.003799213 -0.002968743
000160 10 dc 4c bd 9c 14 1e 3e 35 e2 79 bd bc c4 24 be
       -0.050014555 0.1543755 -0.061006743 -0.16090673
000170 0d 0a 00 be 62 18 69 3d 77 e6 80 bd 3b 3e ae bd
       -0.12503834 0.05690802 -0.06293958 -0.08507963
000180 44 39 08 be ba 30 12 be 6e f2 a3 3d ae 16 00 3e
       -0.13303095 -0.142764 0.08005224 0.12508652
000190 c8 55 1e be d7 90 6f bd eb 61 5e bd e6 c3 2f be
       -0.1546241 -0.05848774 -0.0542926 -0.17164573
0001a0 e1 38 62 bd 82 ea 6b 3d ad f1 af bb a3 0b a4 3d
       -0.055230025 0.05759669 -0.005369386 0.08010032
0001b0 c9 d5 88 3c 31 b1 e6 3d 83 ef 34 3d 83 cb 06 3e
       0.016703503 0.11264265 0.04417373 0.13163571
0001c0 a0 47 ba bc 06 3b 16 bb 38 04 2b bd 79 a8 81 bd
       -0.022739232 -0.0022923364 -0.04175207 -0.06330962
0001d0 6d f0 33 3e 32 e2 3d be 25 d6 0d bc 62 24 82 3d
       0.17572184 -0.18543318 -0.008657013 0.06354596
0001e0 ad f5 6c bd 55 06 16 be 38 d5 43 3d d2 69 0e 3d
       -0.057851482 -0.14650853 0.047810763 0.034768887
0001f0 ea 8c 15 3e 9d 6a 33 bd a5 a1 08 3d 4d 0e 90 bd
       0.14604536 -0.043802846 0.03335728 -0.07033978
000200 16 77 7c 3e 64 c7 c4 be 21 3c 12 be e6 4f 6a 3c
       0.24654803 -0.38433373 -0.1428075 0.014301276
000210 70 0f 11 3e b8 19 55 3e b5 84 7d bd d8 66 7e 3c
       0.14166045 0.20810592 -0.061894137 0.01552745
000220 b7 ce 83 bb ab b9 0e 3d 21 34 c6 3c 90 9b 5b bd
       -0.004022445 0.034845036 0.024194779 -0.053615153
000230 a4 2f 93 bd a3 48 2a 3e 23 76 0a bd 7b 0a 78 3e
       -0.07186821 0.16629271 -0.03380407 0.24222748
000240 ae ca 63 bc 49 a1 99 bb 66 00 97 3e 11 30 3f 3e
       -0.013903303 -0.004688416 0.2949249 0.1867068
000250 17 ac bb bd 80 35 b0 3e 7a b9 53 be 2c 90 f7 bd
       -0.09163683 0.34415817 -0.20676222 -0.120880455
000260 7e d0 ca bc e3 dc 80 be 0a ce d3 3c ea 02 c7 b9
       -0.02475762 -0.25168523 0.025855083 -0.0003795841
000270 73 c0 62 3e a5 83 aa 3e bd 59 67 3e fd ba b1 bd
       0.22143726 0.33303562 0.22592826 -0.08678243
000280 3b 75 08 be 18 65 e5 bd b4 e6 3a be 87 2d 0d 3d
       -0.1332597 -0.11200923 -0.18252069 0.034467246
000290 70 ee 33 39 31 f7 ca bd 4b 70 3d bd d7 31 55 bb
       0.00017159595 -0.09910429 -0.04624967 -0.0032530928
0002a0 8d ec 68 be d4 f4 22 be 15 8d ba 3d 93 da 08 3d
       -0.22746487 -0.15913707 0.091089405 0.033411574
0002b0 68 ce fe bc 6d 64 81 3d f1 5b 41 bd 97 4e f9 3b
       -0.031104282 0.06317983 -0.047206823 0.0076082456
0002c0 77 95 71 be 15 47 ff bc 38 db cc 3d eb cd 18 be
       -0.23592173 -0.031161824 0.1000275 -0.14922301
0002d0 f5 1d 7e bd cc b5 eb bb ba b9 1f be 7a 5a 34 3d
       -0.062040288 -0.0071933027 -0.15598193 0.044031598
0002e0 89 84 af bb 20 8b 5e 3e aa 3c 94 bb ff ec 5a be
       -0.0053563756 0.2173276 -0.0045238333 -0.2137947
0002f0 8d 4e 78 3e db 63 f4 3d 01 63 5b bd 86 86 77 bd
       0.24248715 0.119331084 -0.053561214 -0.060431026
000300 68 70 14 be 3a fd 01 be 3a f2 db bd eb 3e 0e 3c
       -0.14496005 -0.12694255 -0.107395604 0.008681993
000310 59 63 95 be 39 9d 31 3e 2f 9e 34 3e d6 67 e4 3d
       -0.2917736 0.17345132 0.17638467 0.11152618
000320 3a 3d cc bd 92 1f 6a 3e 6d 19 46 be a4 56 fd 3c
       -0.099726155 0.22863606 -0.19345637 0.030925103
000330 18 19 92 be 3d 13 a2 be 37 4f 77 be f4 3d 45 be
       -0.2853477 -0.31655303 -0.24151312 -0.19261914
000340 fe de 0b 3d 7f 95 1f be 39 9b 9b be 41 2c e0 bd
       0.03414821 -0.15584372 -0.30391863 -0.10945941
000350 32 82 12 3e e9 48 83 3e ec 5f ee bd 43 6d 17 3e
       0.14307478 0.25641564 -0.116393894 0.14787774
000360 84 eb 33 3e 87 9f b0 bd 2e 54 ac bb 38 95 a2 3d
       0.17570311 -0.086241774 -0.0052590584 0.079386175
000370 82 28 69 3e 83 dd 24 3e a8 77 03 3d 30 35 61 3e
       0.22769359 0.16100125 0.032096535 0.21992946
000380 b1 96 80 3e b9 0a 26 3d 5a c0 25 be 35 e4 78 be
       0.25114968 0.04053757 -0.16186658 -0.24305804
000390 00 5a 1c be 98 91 e4 3a 35 25 92 bc 1a 58 e2 bd
       -0.15268707 0.001743841 -0.017840007 -0.1105196
0003a0 9e c9 87 bd ec 1d b9 3d 5c ef f3 bd 22 b8 16 be
       -0.06630252 0.0903891 -0.119108886 -0.14718679
0003b0 a0 00 41 be f0 55 55 bd d6 31 b2 3d 60 e7 df 3d
       -0.18847895 -0.05208391 0.08700912 0.10932803
0003c0 ed 05 58 3e 3f b3 9b be 5e 8b d7 bd 0f 97 4b 3e
       0.2109601 -0.3041019 -0.10524629 0.19881843
0003d0 a5 18 6b be 24 cb f7 bd e7 57 3f 3e f6 70 10 be
       -0.2295862 -0.12099293 0.18685876 -0.14105591
0003e0 ff f9 d8 3d 6e d4 cf 3d 6d 6c 06 be 32 e8 dd bc
       0.10594558 0.101479396 -0.13127299 -0.027088258
0003f0 6e 5b 20 3d 2d a8 03 be 20 5e ee bd c4 5a 52 be
       0.039149694 -0.12857123 -0.11639047 -0.20542437

network_body._body_endoder.seq_layers.2.bias f4 [128]
000000 f6 44 83 3c 5f 99 89 bc db cc fd bc e2 24 fc 3b
       0.016024094 -0.016796766 -0.030981472 0.0076948265
000010 51 88 fa 3c d7 c7 63 3c 41 ca cd bc d1 84 5d 3c
       0.030582579 0.013902626 -0.025120856 0.013520435
000020 e9 b1 b5 bd a0 0d c5 bb 96 93 d4 bc 96 c3 eb 3c
       -0.08871824 -0.006013587 -0.02594928 0.028779786
000030 c0 cd 3b 3c 93 af c4 3c 51 70 79 bc f7 83 db 3c
       0.011462629 0.024009502 -0.015224532 0.026796324
000040 1e cb df 3d e1 98 6c 3d 85 9c c2 bc c2 38 2f bd
       0.109274134 0.057762984 -0.023756275 -0.042778738
000050 03 9f 0e 3d c9 01 21 3c c5 c3 4f 3b d8 4e 8e bb
       0.034819614 0.009827086 0.003170238 -0.004342895
000060 83 74 80 3d a2 ef 88 bc 8d 38 fa bc 0a a8 3e 3d
       0.06272223 -0.016715828 -0.030544544 0.046546973
000070 18 15 27 3d 05 72 57 3d c1 d8 20 3d b3 a0 02 bd
       0.0407916 0.052598972 0.039269213 -0.031891536
000080 f2 17 63 bd 0e 72 84 3b 15 3c a3 3b 6c af 5b bd
       -0.055442758 0.0040419167 0.0049815276 -0.053634092
000090 fc 40 b8 bc 9a 21 dc 3c 9b 5a 92 3c 5e 5f c8 3d
       -0.022491924 0.026871491 0.01786547 0.09783815
0000a0 7e 05 9d 3d 9d dc ef 3c e6 fc e4 3c f3 3e 29 bd
       0.07667063 0.029280001 0.027952623 -0.0413198
0000b0 45 78 7c bb d4 26 d2 bb f6 bd 08 3c 01 6b 8d 3c
       -0.0038523835 -0.00641332 0.0083460715 0.017262938
0000c0 ac c1 52 bc 7a 86 81 bd 23 89 2d 3d 45 d7 70 3d
       -0.012863558 -0.063244775 0.042367112 0.058799047
0000d0 4e b4 fc bb ad 67 bc bb 17 c0 f0 3b 38 dd 65 3d
       -0.0077119237 -0.005749664 0.0073471176 0.056119174
0000e0 9d b8 24 3b 15 d9 91 bd 0e a4 3e 3d cd 2c 89 3c
       0.0025134452 -0.07121483 0.046543173 0.016744995
0000f0 4b 4c 1b 3d 44 60 5a bd 4e af 0d 3b eb a9 12 3d
       0.037914556 -0.053314462 0.0021619382 0.035806578
000100 2d 90 e3 3d d9 f4 f0 bb 9b 17 18 3c 4b 9b 21 3d
       0.11111484 -0.007353407 0.009282972 0.03945474
000110 04 29 7b bd 3a f3 76 3d f6 56 e7 bc 22 cc f9 bb
       -0.061318412 0.060290553 -0.028239708 -0.0076232115
000120 9c cf 40 3c 1c f5 cc bc 9b 67 65 3d a0 dc fc bc
       0.011768248 -0.025019221 0.05600701 -0.030866921
000130 d6 ab c6 3c 67 6c c4 3b 52 df 0a bd d2 5b 8c bd
       0.02425186 0.005994368 -0.03390438 -0.06853451
000140 02 16 6f bc a7 57 8c bc fa ff 45 3c 90 60 67 bc
       -0.014592649 -0.01713164 0.012084955 -0.014122143
000150 83 a6 88 bc 20 bc d9 3d 04 9c dd 3c fa 3b 04 bb
       -0.016680961 0.10631585 0.027051933 -0.002017735
000160 d9 3f 04 3c 2a 63 97 bd 94 98 c9 3b b6 0a 32 3c
       0.008071863 -0.07391961 0.006152222 0.0108668115
000170 e3 44 97 3c c3 12 18 bd 82 5d f5 3c 3e 7a 45 bc
       0.018465465 -0.037127268 0.029951815 -0.012053071
000180 c2 f3 31 3b b5 f7 63 3d ee 02 6e bd 65 ff e8 3b
       0.0027153348 0.055656154 -0.058108263 0.0071105235
000190 53 2d 83 3c e2 0e bb 3d b3 2c cd bc 6d 7d a4 3d
       0.016012823 0.09133698 -0.025045728 0.080317356
0001a0 55 29 e0 3c 89 f9 94 3c fe 03 9e bc 06 22 d4 bb
       0.027363459 0.018185394 -0.019289013 -0.0064737825
0001b0 c3 0a 73 3c d7 b8 00 3d 8e 7a 8b 3d 4d c6 8f bc
       0.014834109 0.031426277 0.06810485 -0.017550612
0001c0 17 db 10 3d 77 05 d8 bc 33 53 bc 3c 91 22 07 3d
       0.03536519 -0.026369793 0.022988891 0.03299195
0001d0 eb 49 ef bc d6 df d8 3c 0b 42 1c 3d 8e 50 94 bd
       -0.029210052 0.02647392 0.03814892 -0.07241927
0001e0 5c 51 20 bd ef ec 38 bd b9 a2 ba bb d8 34 5b bb
       -0.03914009 -0.045147832 -0.0056956676 -0.0033448245
0001f0 c9 6b 63 3d 91 97 b0 bc 97 61 a4 bc 8a 63 a1 3c
       0.055522714 -0.021556647 -0.020066066 0.019700784

action_model._discrete_distribution.branches.0.weight f4 [3, 128]
000000 6b 13 80 3b 79 1a b4 bd 0c c9 53 bd 40 a9 a0 bd
       0.003908565 -0.08794112 -0.051705405 -0.07844782
000010 7a 9b 66 3d 0f a7 08 3d 31 9e 47 3b 5f f3 c1 3c
       0.056300618 0.033362444 0.003045928 0.023675619
000020 f4 2c 07 be e7 c8 b9 bd b2 51 83 bd 55 6a b2 3d
       -0.13200742 -0.09071522 -0.064120665 0.087116875
000030 41 95 8d 3d 66 c3 a0 3d 79 74 27 3e 69 82 9d 3e
       0.069132335 0.07849769 0.16353025 0.30763558
000040 07 d8 08 3e b6 ba 2c 3d 1c ae 84 bd 38 9f b6 bd
       0.13363658 0.04217025 -0.06478521 -0.08917087
000050 cf 3d 90 3d 5f 1b 17 3d 49 1c e2 bd 5d 06 02 3d
       0.07043039 0.036891337 -0.11040551 0.03174435
000060 25 ac 31 3d aa 48 b4 bc d2 23 6c bd b6 ca 75 3e
       0.04337706 -0.022007305 -0.05765135 0.2400311
000070 25 1c b5 3c 69 9d b3 3d 47 86 11 3e 51 04 b3 3c
       0.022108147 0.08770258 0.14211379 0.021852644
000080 9e 26 c7 bd 0b 8e 2c 3d 14 2e 72 be 03 a1 89 bc
       -0.097241625 0.04212765 -0.2365039 -0.01680041
000090 1d 58 a1 3e f2 9c f8 3d a8 ce 52 bd 13 21 5e 3d
       0.31512538 0.1213931 -0.051466614 0.05423076
0000a0 c6 59 ec 3d e6 9f 8e 3e d0 7d ac 3d ea 84 1d 3d
       0.115405604 0.27856368 0.08422434 0.038456835
0000b0 0b 45 8c be 0f 5c 9c bd 38 e6 15 3d 33 45 c3 3d
       -0.27396426 -0.07634746 0.036596507 0.09534683
0000c0 20 15 71 bd 0a cb 2e be fe 41 84 3e 27 4a 2a 3e
       -0.058858037 -0.17069641 0.25831598 0.1662985
0000d0 e9 7a b3 3e f4 b6 80 3b 8f ca 37 bd 5a 0a 58 3d
       0.3505471 0.0039280597 -0.04487091 0.052744247
0000e0 08 cc eb 3c 13 2f a5 bd 0e b2 a9 3c 7c a7 29 3d
       0.028783813 -0.08065619 0.020714786 0.04141949
0000f0 b8 ab a9 3d 3b a9 6c bd 1f 58 3b 3c 30 2e 28 3e
       0.08284706 -0.05777858 0.011434584 0.16423869
000100 f4 c6 a6 3d c5 21 93 bd 67 8e d1 3c 5d 97 3d be
       0.08143416 -0.071841754 0.025580598 -0.18514772
000110 a5 a9 ee 3c 82 8e e7 3c 99 4a 2b 3e fa 73 f1 3d
       0.029133627 0.028266195 0.16727675 0.11789699
000120 e1 e5 05 3d f4 89 d1 3e 23 6c 15 3e b9 c6 73 bc
       0.032689933 0.40925562 0.14592032 -0.014878922
000130 ac f6 c5 3d 10 55 8c 3c 28 a2 a5 3e 86 12 c8 bd
       0.096661896 0.017130405 0.32350278 -0.09769158
000140 50 1f 80 be 12 68 a9 3c 23 ee fa 3c 8c c9 57 bd
       -0.2502389 0.020679507 0.03063113 -0.052682444
000150 14 99 a9 3c a3 22 23 3e 97 8c ba 3d bf 4a b7 3c
       0.020702876 0.15931182 0.09108847 0.022374509
000160 98 2b d4 3c 0d 99 8d bd c8 54 24 3d 31 dd 83 bd
       0.025899693 -0.06913958 0.040119916 -0.06438673
000170 16 1f df 3a 16 39 ca bd 00 b4 bc 3d c3 1c e0 3d
       0.0017022814 -0.098741695 0.0921402 0.10942986
000180 f1 21 ff 3d f1 4a d4 3d c9 ea 23 3d a1 6b ba 3c
       0.12457646 0.103658564 0.04001883 0.0227564
000190 d6 9b 5f bd a4 35 47 3d da e5 08 3e 9c e5 25 3d
       -0.054591976 0.04863514 0.13368931 0.040502176
0001a0 ef d9 18 3e 0b 30 20 3a c7 24 da 3c 26 22 0b bd
       0.14926885 0.00061106746 0.026628865 -0.033968113
0001b0 a2 1c b2 3d 62 75 c5 3d 6a 0a 9c 3d 12 86 53 bc
       0.086968675 0.096415296 0.07619174 -0.012910383
0001c0 c6 89 84 3d 75 71 a9 3d 60 22 53 3d 58 a5 da 3c
       0.06471591 0.08273593 0.051546454 0.02669017
0001d0 a0 d9 97 3b a5 df 47 3e b1 ef 4d 3d dc f1 de bd
       0.004634097 0.19518907 0.050277416 -0.10885975
0001e0 e2 60 45 bc c2 20 92 3a 33 53 69 3d 1b 42 be bd
       -0.012047024 0.0011148679 0.05696411 -0.09289952
0001f0 8e 95 28 3d 9d ac 5e 3e 02 96 6c 3e 45 9f ed 3d
       0.04115825 0.21745534 0.23104098 0.11602644
000200 06 ab 6a 3d fa 1d a9 3c 66 a6 d9 bb a2 46 e2 3d
       0.057292007 0.020644177 -0.0066421507 0.110486284
000210 c4 ea a6 bd bf 3c 88 3d 75 df 0a 3d 70 7c d6 3c
       -0.08150247 0.066522114 0.03390451 0.026182383
000220 b8 63 21 3e 5e 6e 04 3d 8e 60 7a bb 2c 8d 11 bb
       0.15760696 0.032331817 -0.0038204524 -0.002220939
000230 50 6b f6 3c 4e f0 f3 bb 27 c1 82 be 5d bc bc be
       0.030080467 -0.007444418 -0.2553799 -0.3686246
000240 a9 74 ae bd b4 40 b9 3c 42 fe 75 bd ec 13 6b 3d
       -0.08518345 0.02261386 -0.060056932 0.057392046
000250 f5 c0 4c bd af 94 50 3d 92 24 33 3d f2 e2 d3 39
       -0.049988706 0.050923046 0.043736048 0.00040414144
000260 cb a2 65 bd 6c fc a8 3d c0 e5 1b 3d d6 ac 38 be
       -0.056063455 0.08251271 0.038060904 -0.18034682
000270 24 54 19 3d d3 bf 87 bd 77 c3 86 bd b4 60 e0 3c
       0.03743376 -0.066283844 -0.06580251 0.027389862
000280 d1 b9 19 3d 6d 31 2a 3d 7c da 3e 3e 88 0f 0d 3d
       0.037530724 0.041551042 0.18638033 0.03443864
000290 77 8d b7 be b0 e7 14 be 01 bb 5a bc 64 6a 87 3d
       -0.35850117 -0.14541507 -0.013350249 0.06612089
0002a0 14 0c d4 bd 56 06 8a be 9b f2 ab bc 8b 24 0c be
       -0.10353866 -0.2695796 -0.020989707 -0.13685815
0002b0 f1 47 52 3e 54 f0 e7 3d a5 02 10 bd a2 8d 6f be
       0.20535256 0.11325136 -0.035158772 -0.23393872
0002c0 c1 40 88 3d b3 01 62 3e f8 40 8c be c9 87 1f be
       0.06652976 0.2207096 -0.27393317 -0.15579142
0002d0 74 c2 c7 be 0b ea 44 3d 36 6f c8 bd 6f b2 e7 3c
       -0.39015543 0.048074763 -0.09786837 0.028283326
0002e0 c5 d7 87 3c f2 8b b4 3c 0d 2c da bc af 82 51 3d
       0.01658238 0.022039387 -0.026632333 0.05115002
0002f0 74 78 69 3c ae 94 3a bc d3 10 5c 3d af b0 5b be
       0.01424991 -0.011387987 0.053726982 -0.21454118
000300 97 b5 01 bd a3 fe b0 3d 4a 16 a7 3d 99 78 cd 3d
       -0.03166732 0.08642318 0.08158548 0.10032768
000310 1a 85 f5 bd e0 57 09 3d 36 a0 88 be 68 a2 0e be
       -0.11988278 0.03353107 -0.2668473 -0.1392914
000320 cd 7f e7 3b f1 9c 10 bf a0 43 79 bd d2 59 38 bd
       0.0070647956 -0.56489474 -0.060855508 -0.045007534
000330 ae 6c 33 bd 14 d2 1a 3d 01 e6 d5 be 11 02 3b 3d
       -0.043804817 0.037798002 -0.41777042 0.045656268
000340 bc e3 5a 3e 9e 92 ee b8 2d 18 4a 3d e1 e4 40 3d
       0.21375936 -0.00011376034 0.049339462 0.047093276
000350 0f 56 0a 3d bf da 28 be 05 e4 91 bb 24 ec 26 3d
       0.033773478 -0.16489695 -0.004452231 0.040752545
000360 ce 8a 6e 3d 49 0c 82 3c 96 59 50 3c 48 cc d0 3d
       0.058237843 0.015874999 0.012716671 0.101952136
000370 b2 54 9f 3d be 12 77 3d f2 84 8a 3b 8a 0e 30 be
       0.07779826 0.06032061 0.004227274 -0.17193046
000380 55 7d 50 be 22 e0 ec bc 32 08 e2 bd 67 79 46 3d
       -0.2036031 -0.028915469 -0.110367194 0.048455622
000390 77 33 01 bd 02 21 ce 3b 4d 15 60 be a5 88 ef 3b
       -0.03154322 0.006290556 -0.21883126 0.0073099905
0003a0 da 92 a1 bd 4d 4f 0c 3d 22 a4 56 3d a2 f7 3f 3d
       -0.07889338 0.034255315 0.052402623 0.04686702
0003b0 39 5e b8 bc 5f d3 8b bb 9f c9 41 bd 67 a2 06 3d
       -0.022505866 -0.0042671408 -0.04731142 0.032869723
0003c0 96 c8 83 3c 40 81 18 be 0a 89 f5 bb a9 96 60 bd
       0.016086858 -0.14893055 -0.007493143 -0.05483118
0003d0 ba 6e a0 bd 48 f9 31 be 92 0c f6 3c 02 52 84 3d
       -0.078336194 -0.1738025 0.03003529 0.06460954
0003e0 30 f8 9d bc f2 d0 9c bd 73 63 c6 bc 96 a3 07 3e
       -0.019283384 -0.07657041 -0.024217343 0.13245997
0003f0 40 37 63 3d af 3f 88 be 4e af af be 02 f9 16 be
       0.055472612 -0.26611087 -0.34313434 -0.14743426

action_model._discrete_distribution.branches.0.bias f4 [3]
000000 20 b5 97 3d a4 02 b7 bc a0 58 08 be
       0.07407594 -0.022340126 -0.13315058

action_model._discrete_distribution.branches.1.weight f4 [3, 128]
000000 45 25 47 3d 46 73 b1 bd 2a 6d 89 bd 1f 0e 9d 3d
       0.048619527 -0.08664565 -0.067102745 0.07668709
000010 ad 03 f4 3d 29 5e 64 3d 4e 2e 21 bd fb 76 97 3d
       0.119147636 0.05575386 -0.0393508 0.073957406
000020 c4 c2 84 bd 2f 0f 73 bd 40 90 c7 bd ac 17 b6 bc
       -0.06482461 -0.059340652 -0.097443104 -0.022228085
000030 4c ff 34 bb d2 0b bf 3c fb bc 2d be 18 cc 73 bc
       -0.002761799 0.023321066 -0.16966622 -0.014880203
000040 cc 10 47 3d 62 61 0f 3d 3b e2 b6 3d 91 80 08 bd
       0.048600003 0.03500498 0.08929869 -0.033325735
000050 31 0e 44 3d 8d 75 57 3d 89 02 76 be 3c 84 22 3d
       0.047865096 0.05260234 -0.24024405 0.03967689
000060 db 51 57 3d 01 ea 6d 3d fe aa e2 bd fb e3 95 bd
       0.052568298 0.05808449 -0.110677704 -0.073188744
000070 6d 60 6a 3c d8 75 05 3c d3 90 7b 3d ae 73 4f 3d
       0.014305216 0.008145772 0.061417412 0.05064743
000080 e4 a8 15 bd 4f 39 96 3d 0f a3 a4 3d 7e bf 70 bd
       -0.03653802 0.073351495 0.080389135 -0.05877637
000090 6b 45 c2 bd b1 80 85 bc db 8a b1 bd 2a b5 76 3c
       -0.09485897 -0.016296716 -0.08669063 0.015057841
0000a0 bf 1d cc 3c 49 17 47 3d 60 23 2f 3b ed 26 bc bd
       0.024916528 0.04860619 0.0026723966 -0.09187112
0000b0 5b 4a ab 3d 3e 2e 72 3d 0b d0 0a 3d 8a 40 4f bd
       0.083637916 0.05912613 0.03388981 -0.05059866
0000c0 59 6e a0 3d bf 01 a9 bd b6 81 44 bd 2a 88 16 3e
       0.07833547 -0.08252286 -0.047975264 0.1470038
0000d0 02 ab 71 be 7e 2b a8 3d e9 e1 87 bb 2d 86 95 3c
       -0.2360039 0.082114205 -0.0041468036 0.018252457
0000e0 1e 72 7b 3d a1 b1 4b bd 04 f1 7d 3c 97 f9 99 3d
       0.061388128 -0.049729947 0.015499357 0.075183086
0000f0 30 ff 92 3c 22 8d 48 bd bc 70 9f 3d 93 6c 9c bd
       0.017943949 -0.04896272 0.07785174 -0.076378964
000100 81 72 f6 3c d8 f6 04 3b b2 4d de 3d a5 eb 89 3d
       0.030083897 0.0020288732 0.10854663 0.06734399
000110 87 7e 90 be d5 9e 02 3d ff 68 41 3e cc 38 5f bd
       -0.28221533 0.031889755 0.18887709 -0.054497525
000120 ff ad a2 bc dc cf 7e be 85 fa e4 bc f3 74 4a be
       -0.019858358 -0.2488398 -0.027951488 -0.19771175
000130 3e 07 cb 3e e6 62 10 3e 26 ad 8f be 3f 59 84 bd
       0.39653963 0.14100227 -0.2806179 -0.06462335
000140 95 57 d3 3d b2 b9 8c 3c 46 c5 74 3d 70 b5 9e bd
       0.10319439 0.01717839 0.059758447 -0.0774945
000150 e4 96 19 3d f0 2b 30 3c 6d 2d 20 3c 2b 71 a2 3d
       0.037497416 0.010752663 0.009776455 0.07931741
000160 66 8a 52 3d fc a7 91 bd 9c aa 4b 3c d6 00 58 3d
       0.05140152 -0.071121186 0.012430813 0.052735172
000170 05 7b 5b 3d 2d 24 4f bd 02 76 98 3c da 7a c1 bd
       0.053584117 -0.05057161 0.018610958 -0.0944726
000180 b3 2a db bd f6 f2 8c bc aa c1 bd bd cd 15 a3 3d
       -0.107015036 -0.017205697 -0.09265454 0.079631425
000190 2e 5b a5 bd da e6 15 3d 7a d7 e8 bd 3f 08 f6 3b
       -0.08074032 0.03659711 -0.11369224 0.007508307
0001a0 c0 6c 56 bd 25 40 7e 3b 06 53 9d 3d a5 40 95 3c
       -0.052349806 0.0038795557 0.07681851 0.018219301
0001b0 86 aa a4 3c 80 79 12 3c 3c 12 15 3d b8 fa f3 3c
       0.020100843 0.008940101 0.036394343 0.029782638
0001c0 e2 9d 17 3d 1b 5d 9e bd 5c 70 f5 3b e6 87 84 bc
       0.037015803 -0.07732602 0.007490201 -0.016178083
0001d0 04 49 e0 bd 6b dd d0 bc ff 16 9e 3c f9 d6 47 bd
       -0.109514266 -0.025496205 0.019298075 -0.048789
0001e0 8b a1 91 bd c9 3b bf bd d8 96 5f 3d 5e 55 a4 3d
       -0.0711089 -0.09337575 0.054587215 0.08024095
0001f0 bc f8 49 3d ea a8 8e 3e 03 8b 43 be 45 70 87 bd
       0.049309477 0.27863246 -0.19095998 -0.066132106
000200 ff 89 e3 3c 92 30 aa 3d 3f 1a c4 3c 6a 3a 10 be
       0.027775763 0.08310045 0.023938296 -0.14084783
000210 f3 3c ae bd 14 17 98 bc 20 68 b9 bc eb 08 d7 bc
       -0.08507719 -0.018565692 -0.022632658 -0.02624937
000220 32 e5 18 be 2d bd 1c bd 95 47 71 3d fa 14 6d 3d
       -0.14931181 -0.03826635 0.058906157 0.057881333
000230 d1 1c 80 bd e3 0f 97 3c ca f1 4a 3e ad ec 2c 3d
       -0.06255496 0.018440193 0.19818798 0.0422179
000240 2b ee 94 3d 58 cb 58 3d 2e b6 17 bd 66 4c a6 bc
       0.072719894 0.0529283 -0.037038974 -0.020300101
000250 08 d7 7e 3c 17 4e de bc be 6e 2d 3e a9 43 10 3b
       0.015554197 -0.027136846 0.16936776 0.0022012985
000260 5f 45 34 3d 7b 1f 6c bd aa 26 df 3d 30 5f cc 3d
       0.04401147 -0.05764721 0.108960465 0.09979093
000270 11 ee 4d 3d 97 55 9a 3d 97 b0 0f be 1b 32 02 bc
       0.050275866 0.07535856 -0.14032207 -0.007946516
000280 e1 d1 50 3c d4 69 bf bd b5 8d 47 be 4a 28 26 bb
       0.0127453515 -0.09346357 -0.1948765 -0.0025353604
000290 89 59 d1 3d 01 c0 4f 3d e1 1d e6 3d ef a9 1e 3a
       0.102221556 0.05072022 0.11236168 0.0006052544
0002a0 d4 da d4 3d 4a 97 93 ba 01 d7 24 3d 0d 39 45 3d
       0.10393301 -0.0011260298 0.040244106 0.04815011
0002b0 34 e7 4d be 9f 45 35 be 3f 16 4d 3d f9 58 05 3e
       -0.20107728 -0.1770234 0.050070044 0.13022222
0002c0 04 7d 65 be f7 0a 24 be e9 60 63 3d 94 a5 b8 bd
       -0.22410971 -0.16019808 0.055512343 -0.090159565
0002d0 1e 3e 87 3e 26 91 0d bd 68 d1 2c 3e e4 bd e9 3b
       0.2641458 -0.034562252 0.16876757 0.0071332324
0002e0 2c b3 cb bd 3a 2c cb 3c dd d1 73 3d 63 e5 11 bd
       -0.09946284 0.024801362 0.059526313 -0.03561915
0002f0 bb 15 2d bc d6 62 da 3c 4e 92 28 bd 1b e1 b2 3d
       -0.010564263 0.026658457 -0.041155152 0.08734342
000300 d6 4c c2 3d ad c6 46 3d 4d fa 34 bd 78 83 01 be
       0.094873115 0.048529316 -0.044184018 -0.12647808
000310 44 ce 95 3e 88 48 43 3d 72 e6 77 be 6c bb 29 3d
       0.2925893 0.047676593 -0.24209002 0.041438505
000320 d8 5f c9 bd 91 32 9e 3e 6c e0 9a 3d c3 b4 5a 3e
       -0.09832734 0.30897954 0.07562336 0.21358018
000330 cb fa ea be 9a 5f 27 be 49 7e 88 3e 1b 06 e2 3c
       -0.45894465 -0.16345063 0.26658848 0.027590802
000340 5a 5f 8d be ac cc f4 3c 81 6f 64 bd 3f f8 d4 3d
       -0.2761181 0.029882751 -0.0557704 0.10398912
000350 d8 2a 17 bd 84 f9 a7 3d 74 fe 9a 3b 72 08 0e bd
       -0.036906093 0.08201888 0.00473004 -0.034676023
000360 74 42 3e ba de 9b 8d 3d c7 57 a5 bd 6b ac ec bd
       -0.0007257827 0.06914495 -0.08073383 -0.115563236
000370 53 f6 7b bc 4c 0a 81 bb fb 7b f3 bd bb c6 e3 3c
       -0.0153785525 -0.003937995 -0.11888882 0.027804723
000380 84 19 2b 3e b0 e5 b1 3d 85 a1 e3 3b 26 38 c0 bb
       0.16708952 0.086863875 0.006946745 -0.0058660684
000390 bf 9b 0d 3e ff 7f 93 3d 86 04 1e 3e b1 50 af 3d
       0.13828944 0.07202148 0.15431413 0.085603125
0003a0 6e 98 91 3d df 5f 6b 3d 6b ca 9c bc 0c 88 14 be
       0.07109152 0.057464477 -0.01913949 -0.14505023
0003b0 35 9a 05 3b 88 08 48 3c 11 ce 79 3d b9 78 33 3d
       0.0020386104 0.012209065 0.060987536 0.043816302
0003c0 a2 19 bf 3c 96 26 20 3e 2d 2b 05 3d f7 1e 32 3d
       0.023327652 0.1563972 0.03251188 0.04348656
0003d0 3a ca 88 3d 3f 0c 5d 3d 8d 65 ef 3c 36 55 0e 3c
       0.06679197 0.053966757 0.029223228 0.008687308
0003e0 4a fb 0e 3d 65 a3 85 3d e9 a6 82 bd 9d 3b ff bd
       0.034907617 0.06525306 -0.06379492 -0.12462542
0003f0 40 e9 df 3c 96 ad 95 be c4 ef 18 3e dd 69 8a 3d
       0.027332902 -0.29233998 0.14935213 0.06758473

action_model._discrete_distribution.branches.1.bias f4 [3]
000000 80 01 3e 3d 43 77 fc bc b4 3b 44 bc
       0.04638815 -0.030818587 -0.011977125

exp_avg f4 [128, 36]
000000 2e 1f b5 38 1b ea 49 39 00 00 00 00 3f 1a 87 b5
       8.63656e-05 0.00019256065 0.0 -1.0065922e-06
000010 8d 4d db 38 61 7e 05 39 78 8d 16 39 00 00 00 00
       0.00010457179 0.00012730948 0.00014357816 0.0
000020 2e f4 eb 36 f1 a9 db 38 b4 1a 88 38 48 74 58 39
       7.031972e-06 0.00010474388 6.489959e-05 0.00020642683
000030 00 00 00 00 cc 3b dd 36 3b b5 de 38 4b 2b 17 39
       0.0 6.5932745e-06 0.00010619542 0.0001441661
000040 a1 fa 0f 39 00 00 00 00 d8 9a 6e b6 22 d0 f2 38
       0.00013730909 0.0 -3.5554895e-06 0.00011578227
000050 f7 7f 9f 39 25 65 69 b8 00 00 00 00 a9 26 f6 37
       0.00030422184 -5.5645727e-05 0.0 2.9343488e-05
000060 3a 85 dc 38 6a cd 99 39 0c 18 85 b7 00 00 00 00
       0.00010515233 0.0002933548 -1.5866033e-05 0.0
000070 ab 53 e7 34 03 55 f6 38 93 d3 9a 39 5a f0 1f b8
       4.308798e-07 0.00011746029 0.00029530804 -3.81324e-05
000080 00 00 00 00 60 03 ae 37 00 9a 38 38 f0 ac 84 39
       0.0 2.0743988e-05 4.4012442e-05 0.0002530585
000090 b1 72 0c b9 47 c7 34 ba 00 00 00 00 bb e1 fa 37
       -0.00013394166 -0.000689615 0.0 2.9907436e-05
0000a0 dc 15 b8 b9 a5 01 a3 b8 4b af 48 ba 00 00 00 00
       -0.000351115 -7.772752e-05 -0.0007655515 0.0
0000b0 cd 29 50 38 34 9b ba b9 4e 68 37 b9 23 c4 1f ba
       4.9629994e-05 -0.0003559232 -0.00017491097 -0.00060945953
0000c0 00 00 00 00 b2 ab 1b b7 b2 6d bb b9 bf 88 f4 b9
       0.0 -9.278696e-06 -0.0003574915 -0.0004664119
0000d0 35 46 c1 b9 00 00 00 00 92 a9 2d 38 31 44 cc b9
       -0.00036864137 0.0 4.140434e-05 -0.0003896072
0000e0 07 ef 90 b9 07 ae 01 ba 00 00 00 00 30 eb bc b7
       -0.0002764391 -0.00049468916 0.0 -2.2520864e-05
0000f0 61 d5 cc b9 1c ef 60 ba 02 e3 8a 38 00 00 00 00
       -0.00039068892 -0.0008580552 6.622636e-05 0.0
000100 17 4f f4 b5 21 15 b3 b9 21 f4 fe b9 84 51 9c b9
       -1.8202435e-06 -0.00034157283 -0.00048628545 -0.00029815373
000110 00 00 00 00 2f 84 1a b7 7a b8 d4 b9 3a 2a dd b9
       0.0 -9.209892e-06 -0.00040573237 -0.00042183866
000120 3e e7 10 b9 9d 16 88 ba 00 00 00 00 64 1f b5 36
       -0.00013819055 -0.0010382716 0.0 5.3978747e-06
000130 30 83 da b9 ef 40 8c b9 dd a2 50 ba 00 00 00 00
       -0.00041677942 -0.0002675126 -0.0007958839 0.0
000140 ae cb e1 b8 e3 4c d6 b9 a2 0d 51 b9 68 a1 70 ba
       -0.00010766774 -0.00040874546 -0.00019936872 -0.0009179325
000150 00 00 00 00 e4 7f 61 b8 6c 49 de b9 53 43 7d b9
       0.0 -5.3763288e-05 -0.00042397843 -0.0002415304
000160 e6 0e 68 ba 00 00 00 00 14 d1 39 b8 29 34 02 ba
       -0.00088523177 0.0 -4.4302156e-05 -0.0004966879
000170 02 88 25 ba 3f 3c fd b9 00 00 00 00 d4 6a 6d b8
       -0.0006314517 -0.00048300807 0.0 -5.6604695e-05
000180 67 c1 d4 b9 d9 13 57 ba 57 33 b5 b9 00 00 00 00
       -0.00040579887 -0.00082045567 -0.0003456126 0.0
000190 83 a5 a7 b6 cd 2d 1e ba 21 54 77 ba 39 cc 37 b9
       -4.996256e-06 -0.00060340465 -0.00094348384 -0.00017528319
0001a0 00 00 00 00 ed 59 5b b8 4d 6c bd b9 2a 12 a9 ba
       0.0 -5.229742e-05 -0.0003612958 -0.001289909
0001b0 5d 35 83 b8 1d 62 13 ba 00 00 00 00 89 01 c8 37
       -6.2565065e-05 -0.0005622225 0.0 2.3842573e-05
0001c0 96 98 68 b9 56 1b d1 b7 42 dc 25 ba 00 00 00 00
       -0.00022182087 -2.492747e-05 -0.00063270715 0.0
0001d0 04 c6 6d 38 65 85 72 b9 f2 23 fd b8 6a f0 00 ba
       5.668962e-05 -0.00023128612 -0.000120706754 -0.0004918637
0001e0 00 00 00 00 a3 0a 43 37 05 30 6f b9 4c 85 ce b9
       0.0 1.1625382e-05 -0.00022810705 -0.00039390696
0001f0 fd 99 71 b9 00 00 00 00 1b 0d c4 37 f6 4f 76 b9
       -0.00023040916 0.0 2.3371123e-05 -0.00023490176
000200 e2 45 fd b8 9f 16 f0 b9 00 00 00 00 54 96 ba b7
       -0.00012076997 -0.0004579322 0.0 -2.224293e-05
000210 b1 3a 88 b9 9d 0a 18 ba e5 39 2b b7 00 00 00 00
       -0.0002598367 -0.00057999213 -1.0205874e-05 0.0
000220 11 4e 34 b7 a8 f9 48 b9 11 b5 e3 b9 52 22 2a b9
       -1.0747012e-05 -0.0001916649 -0.0004343172 -0.00016225249
000230 00 00 00 00 15 d0 92 b6 7d d1 a0 b9 3e 57 62 b9
       0.0 -4.375363e-06 -0.0003067366 -0.0002158554
000240 3b 3e 27 b8 87 a5 22 ba 00 00 00 00 04 eb 55 38
       -3.987386e-05 -0.0006204475 0.0 5.1002033e-05
000250 ff 3f c9 b9 2c 8f d6 38 27 aa 4f ba 00 00 00 00
       -0.00038385388 0.00010230983 -0.0007921778 0.0
000260 2d ec a8 38 c3 9c ca b9 00 ca 0d b9 d9 44 f5 b9
       8.0548554e-05 -0.0003864524 -0.00013522059 -0.00046781337
000270 00 00 00 00 d6 e6 d2 b6 a6 a9 db b9 5b f5 29 ba
       0.0 -6.2853605e-06 -0.00041897333 -0.0006483399
000280 3d 18 68 38 00 00 00 00 8d dc 88 b7 d1 24 b8 b9
       5.5335684e-05 0.0 -1.6315165e-05 -0.00035122645
000290 96 64 92 38 3a be 1f ba 00 00 00 00 82 48 92 b8
       6.980558e-05 -0.00060937146 0.0 -6.975328e-05
0002a0 c8 ee e4 b9 75 ad 3a ba 91 a0 f9 38 00 00 00 00
       -0.00043665455 -0.0007121184 0.00011903153 0.0
0002b0 de 2a 88 b7 ad 6c 8c b9 c8 be 03 ba 4b 75 d4 b8
       -1.6232425e-05 -0.0002678385 -0.0005025682 -0.00010130795
0002c0 00 00 00 00 a4 a4 b6 b6 91 8c fa b9 ec 00 d4 39
       0.0 -5.4431894e-06 -0.00047788446 0.00040436478
0002d0 b5 4c 26 b6 6a 2c a4 39 00 00 00 00 b1 5b 45 38
       -2.4780577e-06 0.0003131361 0.0 4.7053854e-05
0002e0 7b 93 49 39 8d bd ab 38 94 61 0f 39 00 00 00 00
       0.00019223795 8.189222e-05 0.00013673893 0.0
0002f0 37 d6 11 39 41 7d 60 39 2d d5 ed 38 2c 61 68 39
       0.00013908079 0.00021408965 0.00011340748 0.00022161443
000300 00 00 00 00 4b 56 be 37 6e 92 35 39 a8 06 02 39
       0.0 2.2689948e-05 0.00017316054 0.00012400246
000310 11 16 35 39 00 00 00 00 7c e7 7f 38 01 0e 64 39
       0.00017269726 0.0 6.1012324e-05 0.00021748991
000320 5c 67 b3 39 ce 04 91 37 00 00 00 00 da 63 ec b5
       0.0003421855 1.7287584e-05 0.0 -1.7612431e-06
000330 81 08 f5 38 ae dc 58 39 57 e9 07 39 00 00 00 00
       0.00011684094 0.00020681575 0.00012961529 0.0
000340 9e 84 b2 37 12 70 91 39 80 fc c3 39 ac c9 79 b5
       2.1281008e-05 0.00027740054 0.00037381425 -9.30532e-07
000350 00 00 00 00 3b 8a 7e b7 2d 1c 5c 38 f4 d3 53 b9
       0.0 -1.5171764e-05 5.2478328e-05 -0.00020201487
000360 3a 69 99 b6 ea 43 48 b9 00 00 00 00 f1 39 af 36
       -4.5720053e-06 -0.00019098786 0.0 5.2221517e-06
000370 b2 a1 4b b7 45 36 6b 38 f6 ed 81 b9 00 00 00 00
       -1.21373905e-05 5.607891e-05 -0.00024782092 0.0
000380 2f 7c bc 35 f7 9b 96 b7 15 75 d3 b7 e0 50 2e b9
       1.4043234e-06 -1.795402e-05 -2.520768e-05 -0.00016624061
000390 00 00 00 00 6a 0d 95 35 55 cd 36 b7 fd d5 40 38
       0.0 1.1105269e-06 -1.0895853e-05 4.597566e-05
0003a0 1b bb 79 b9 00 00 00 00 e0 19 f8 35 f1 f6 6e b8
       -0.00023816193 0.0 1.848497e-06 -5.6973604e-05
0003b0 59 94 11 b9 16 38 81 b8 00 00 00 00 75 af 29 37
       -0.00013883541 -6.161646e-05 0.0 1.0114037e-05
0003c0 44 c1 ab b6 d9 8e 96 b8 0e 6d f5 b8 00 00 00 00
       -5.118696e-06 -7.179165e-05 -0.000117028234 0.0
0003d0 bc b9 cb b5 5d 10 cc b8 ce f8 82 b8 2c f0 09 b9
       -1.5178734e-06 -9.730526e-05 -6.2452265e-05 -0.00013154809
0003e0 00 00 00 00 bd c9 75 36 35 b5 18 b8 4c ab 75 b9
       0.0 3.6625272e-06 -3.6408386e-05 -0.00023428834
0003f0 cf ef bf b7 8e 9c 27 b9 00 00 00 00 2a 13 2a b7
       -2.2880644e-05 -0.00015984682 0.0 -1.0137252e-05

exp_avg_sq f4 [128, 36]
000000 b4 70 c4 34 f5 7f c2 36 00 00 00 00 28 66 ab 32
       3.6589847e-07 5.7965467e-06 0.0 1.9953475e-08
000010 c2 cb 2e 35 c3 44 4c 35 b5 68 b2 36 00 00 00 00
       6.511656e-07 7.6095984e-07 5.317003e-06 0.0
000020 6a 82 e2 30 af 11 27 35 79 ba 4a 34 62 99 c9 36
       1.648073e-09 6.223808e-07 1.8880554e-07 6.008123e-06
000030 00 00 00 00 6d a0 a6 32 b4 03 50 35 d5 03 a8 36
       0.0 1.9397897e-08 7.7491427e-07 5.0072363e-06
000040 a2 dc 8f 35 00 00 00 00 28 bb f9 2f fa 3e cb 34
       1.0718543e-06 0.0 4.542582e-10 3.7857518e-07
000050 96 c4 5d 36 b9 01 3a 36 00 00 00 00 e6 15 da 32
       3.3045994e-06 2.7717163e-06 0.0 2.5388498e-08
000060 27 42 66 35 fc d2 b1 36 5b 2a 45 35 00 00 00 00
       8.577794e-07 5.299573e-06 7.3449854e-07 0.0
000070 88 a6 d5 2d 2a 43 83 34 15 28 b0 36 55 89 74 35
       2.4289251e-11 2.444952e-07 5.249875e-06 9.109693e-07
000080 00 00 00 00 39 3b 4d 32 19 17 3e 35 2a 96 be 36
       0.0 1.1946036e-08 7.081413e-07 5.6799227e-06
000090 b0 b8 0f 35 0f 02 df 37 00 00 00 00 65 f8 3e 33
       5.3540407e-07 2.658463e-05 0.0 4.4463736e-08
0000a0 ff bc 30 36 65 d3 90 36 94 99 ba 37 00 00 00 00
       2.6336054e-06 4.316144e-06 2.2244443e-05 0.0
0000b0 29 cd 33 33 98 16 26 36 e2 8f 04 35 88 a1 df 37
       4.1863277e-08 2.474908e-06 4.938321e-07 2.665889e-05
0000c0 00 00 00 00 f4 93 3a 33 9d 9c 41 36 13 0a 46 37
       0.0 4.3441062e-08 2.8850402e-06 1.1804065e-05
0000d0 d3 bd 6e 37 00 00 00 00 36 05 af 32 1c 2a 04 36
       1.4230102e-05 0.0 2.0375051e-08 1.9694044e-06
0000e0 00 87 26 37 86 f8 8a 37 00 00 00 00 5b 5b ca 32
       9.925803e-06 1.656661e-05 0.0 2.3557439e-08
0000f0 79 12 34 36 de 1e 83 37 f8 0c 33 37 00 00 00 00
       2.6832843e-06 1.563079e-05 1.0672251e-05 0.0
000100 3f 2c 55 32 9d 37 d7 35 34 56 7c 37 fb 36 3a 37
       1.2408292e-08 1.6034934e-06 1.5040441e-05 1.1099265e-05
000110 00 00 00 00 73 ef 3f 31 3a d1 0e 36 e8 07 db 37
       0.0 2.793027e-09 2.1281435e-06 2.6110516e-05
000120 fa cb 1d 35 e1 2c 63 37 00 00 00 00 31 fa a4 33
       5.878388e-07 1.3540704e-05 0.0 7.682355e-08
000130 a5 d1 0a 36 a6 46 af 35 b3 fc 54 37 00 00 00 00
       2.0685632e-06 1.3059077e-06 1.2695021e-05 0.0
000140 4b 36 e6 33 9c 09 10 36 e7 fd 42 35 1c 06 64 37
       1.07200854e-07 2.1463266e-06 7.264011e-07 1.35912815e-05
000150 00 00 00 00 0f 0b 04 34 18 a6 1e 36 bb 17 2d 37
       0.0 1.2297481e-07 2.3640514e-06 1.0317129e-05
000160 e0 2b 84 36 00 00 00 00 10 31 0a 33 20 03 f4 35
       3.9390143e-06 0.0 3.217525e-08 1.8180326e-06
000170 87 f1 10 37 0b b5 b9 36 00 00 00 00 5f c4 c0 33
       8.639304e-06 5.534506e-06 0.0 8.9764164e-08
000180 fa 89 11 36 93 dd 51 37 ce 38 cd 35 00 00 00 00
       2.1686997e-06 1.250896e-05 1.5290223e-06 0.0
000190 40 0a 85 30 f1 34 b8 35 74 08 3f 37 d9 a7 35 36
       9.679937e-10 1.3724476e-06 1.1386455e-05 2.7068802e-06
0001a0 00 00 00 00 eb 33 68 33 eb 89 de 35 63 38 62 37
       0.0 5.406393e-08 1.6580428e-06 1.3483778e-05
0001b0 4f 90 01 34 b3 a2 f6 36 00 00 00 00 c3 d5 8e 32
       1.206656e-07 7.350312e-06 0.0 1.6628183e-08
0001c0 76 e1 99 35 60 83 f3 35 8d 13 b8 36 00 00 00 00
       1.1465006e-06 1.8143146e-06 5.4859033e-06 0.0
0001d0 54 3c dc 32 01 ea 90 35 19 7f 82 34 4f fc f2 36
       2.5638805e-08 1.079694e-06 2.4306863e-07 7.2415346e-06
0001e0 00 00 00 00 91 1e e6 32 74 e3 a6 35 9e fe bb 36
       0.0 2.6789424e-08 1.2434161e-06 5.6026756e-06
0001f0 09 a0 eb 35 00 00 00 00 ea 29 f4 31 9f da 58 35
       1.7555441e-06 0.0 7.1060997e-09 8.0784406e-07
000200 d3 86 91 36 e5 ac 4e 36 00 00 00 00 f4 c5 3f 32
       4.3370324e-06 3.079703e-06 0.0 1.1162673e-08
000210 b3 20 96 35 58 36 d9 36 fb 2e 7d 35 00 00 00 00
       1.1185388e-06 6.4734304e-06 9.431821e-07 0.0
000220 0b d0 1f 31 e4 32 18 35 99 85 d8 36 2b 0a 64 35
       2.3255804e-09 5.669847e-07 6.4528544e-06 8.4951415e-07
000230 00 00 00 00 af 40 f8 30 af 56 59 35 de ac e3 36
       0.0 1.8062759e-09 8.096494e-07 6.7852516e-06
000240 3f ca ef 33 51 6b b1 37 00 00 00 00 d5 fe 07 34
       1.1166093e-07 2.1150017e-05 0.0 1.2665562e-07
000250 49 70 6c 36 b2 4f e0 35 ce de a2 37 00 00 00 00
       3.52321e-06 1.6712495e-06 1.9415656e-05 0.0
000260 46 5f 3b 34 37 60 73 36 43 f0 03 36 15 da a0 37
       1.7450392e-07 3.6265826e-06 1.9660372e-06 1.9175039e-05
000270 00 00 00 00 6a 07 8a 34 fa be 82 36 84 f2 78 37
       0.0 2.5709897e-07 3.8965345e-06 1.4838417e-05
000280 df 5e c5 36 00 00 00 00 af e4 3a 33 40 c0 43 36
       5.882102e-06 0.0 4.3514486e-08 2.9169169e-06
000290 09 48 7a 37 9c b0 ca 36 00 00 00 00 d2 56 ec 33
       1.4917933e-05 6.040629e-06 0.0 1.1005399e-07
0002a0 f9 a0 62 36 bb cd 98 37 1f ac 3f 36 00 00 00 00
       3.3770323e-06 1.8215613e-05 2.8561406e-06 0.0
0002b0 13 c8 43 32 e3 08 08 36 c2 fc a5 37 fc db a6 35
       1.13959855e-08 2.0270752e-06 1.9787232e-05 1.2431988e-06
0002c0 00 00 00 00 fc d0 61 31 da cc 3a 36 7f c5 97 37
       0.0 3.2860603e-09 2.78354e-06 1.8092569e-05
0002d0 9b 17 31 35 c7 5c 6f 37 00 00 00 00 ef 84 92 33
       6.597199e-07 1.42671115e-05 0.0 6.822835e-08
0002e0 cf c1 f2 35 31 21 82 36 89 07 36 37 00 00 00 00
       1.8086811e-06 3.878166e-06 1.08498e-05 0.0
0002f0 a3 91 d9 33 65 a5 de 35 fc 5f d1 34 03 cb 74 37
       1.0131341e-07 1.6588425e-06 3.8999121e-07 1.4590801e-05
000300 00 00 00 00 ee b9 dc 33 fd e4 01 36 79 73 13 37
       0.0 1.0278369e-07 1.9355787e-06 8.788768e-06
000310 be 70 bf 36 00 00 00 00 96 4d c8 32 e1 00 a6 35
       5.7053685e-06 0.0 2.3318346e-08 1.236822e-06
000320 cd fe d0 36 fa 28 0e 37 00 00 00 00 54 43 1d 33
       6.2285458e-06 8.4734e-06 0.0 3.6615646e-08
000330 fa 6c e6 35 a8 40 2e 37 84 c7 90 36 00 00 00 00
       1.7168052e-06 1.0386262e-05 4.314761e-06 0.0
000340 d3 db 8d 32 73 90 86 35 08 00 2f 37 45 30 8d 36
       1.6514525e-08 1.0025818e-06 1.043082e-05 4.2077468e-06
000350 00 00 00 00 7e 9d e3 31 44 42 ab 35 d4 6a 72 37
       0.0 6.6244743e-09 1.2759779e-06 1.4449197e-05
000360 d3 9e 05 34 b4 75 26 36 00 00 00 00 41 10 50 30
       1.244437e-07 2.480444e-06 0.0 7.569306e-10
000370 11 c6 83 34 67 75 4f 34 8a b6 21 36 00 00 00 00
       2.4544764e-07 1.9321088e-07 2.4097121e-06 0.0
000380 6e bc bc 30 5e 10 87 34 7e 9b 75 33 a8 df 2c 36
       1.3732355e-09 2.5157618e-07 5.7184927e-08 2.5760182e-06
000390 00 00 00 00 d7 2a 1e 31 4b 49 a0 34 c5 f6 e5 35
       0.0 2.3016378e-09 2.985565e-07 1.7133649e-06
0003a0 09 46 68 35 00 00 00 00 b0 02 f8 30 64 0f 48 34
       8.652865e-07 0.0 1.8045139e-09 1.863205e-07
0003b0 0e 0a a7 35 ae df b5 35 00 00 00 00 24 d5 4c 30
       1.2445396e-06 1.355065e-06 0.0 7.451766e-10
0003c0 b0 a1 ab 34 c3 5b 03 36 97 27 25 35 00 00 00 00
       3.1968875e-07 1.9573934e-06 6.15249e-07 0.0
0003d0 a7 81 fc 2e 07 c4 1c 34 5a 16 09 36 52 43 1b 35
       1.1482664e-10 1.4599946e-07 2.0427601e-06 5.7839964e-07
0003e0 00 00 00 00 ac d0 eb 2f 94 14 8b 34 8e ee 21 36
       0.0 4.289452e-10 2.590574e-07 2.4129727e-06
0003f0 42 fd 24 34 1b e1 d6 35 00 00 00 00 ef f4 cf 31
       1.5365825e-07 1.6009757e-06 0.0 6.0523386e-09
